checkpoints/model_B_epoch_0.pth (torch, 552085 bytes, 26 tensors)

encoder.node_embedding.weight f4 [1, 128]
00000000: 3578 f63f be5e bd3f f3bd 653f aa29 07c0
00000010: 21ad 2f3f 6172 9dbf 2ae8 30bd 9b61 cdbf
00000020: 1a85 3fbf 92e2 d33f f64c c7be 7214 b4bf
00000030: 299f 3abf afc7 0fbf c0c5 45bf 2c9e 413f
00000040: c011 d23f e17f 24be 9636 00bf 9a59 e23e
00000050: 261d 43bf 0752 8a3f de91 4e3f 8e36 d73f
00000060: 5333 a33f f00f a63f d2fa 1d3f a74c ab3f
00000070: 4b49 6fbe 7f2b 263d ac78 81be a755 5c3f
00000080: 891c b1bf 5c37 5fbf 1941 68be 30dc dc3f
00000090: 171b a33e 8088 d9be 070b 9c3e 748f 45bf
000000a0: 80b3 c7bf 3f1e 7d3f 66c3 62bf 59b7 19bf
000000b0: 94ba a3bf 88c6 0740 2d68 9dbf c9bc f6be
000000c0: 7bbe 69bf 423a 29bf f049 a23d 6206 053f
000000d0: c73f fabe aa45 983f 305f 4ebf b099 3cbf
000000e0: d08b b3bf 2221 293d 6ce3 8ebd 985c 2c3f
000000f0: 1f37 cbbd c283 eb3f 8f5a 97bf 421e b23f
00000100: 3a7f b83f 478c 5a3f 13d8 0d40 4106 053f
00000110: 8e19 af3e a6e7 4abe cf64 87bf f030 a33f
00000120: e199 27be bf46 053f 2a6f 5f3d 5012 db3e
00000130: 1a5b 143f 69b5 22bf 684c 0dc0 85aa 3fbf
00000140: daa2 7d3c 09b7 aebe 9107 acbf 3f26 16bf
00000150: e453 0a3f ed9f 053f 8577 923f 26ba 583d
00000160: 7229 3d3f 1747 f2be 76e8 85bf 1173 1b3f
00000170: f124 ddbf 25f0 52bf 5552 aa3f 2ff7 f63e
00000180: 8f8e 20c0 69db fb3e 5c64 483f 7923 e13c
00000190: bdea 243f 516e 143f 7a5a 893f 9eff e2be
000001a0: f731 3bbe 7179 413f 1100 d33e 1499 393e
000001b0: 4248 893e daf9 a23f e680 9abb d96e 9dbe
000001c0: 5c68 babf 6a1b cdbd 3d77 19bf f54f f33e
000001d0: 3b2b 383f 2d9d aa3d d478 c9be 0b0c 073f
000001e0: 6c0d 7dbc 8b3c 763e a2d9 063e 457d 443f
000001f0: 0348 8c3f 179f ad3e acd6 373f a4b9 d33e
1.9255434 1.4794538 0.89742965 -2.111918 0.6862355 -1.2300531 -0.04319016 -1.6045412
-0.7481247 1.6553519 -0.38925904 -1.406874 -0.7289911 -0.5616407 -0.7725487 0.75631976
1.6411667 -0.16064407 -0.5008329 0.44208986 -0.7621635 1.0806283 0.80691326 1.6813524
1.2750038 1.2973614 0.61710846 1.3382767 -0.23367803 0.040568825 -0.25287378 0.86068195
-1.3836833 -0.87193847 -0.22681083 1.7254696 0.31856605 -0.42486954 0.30477163 -0.7717202
-1.5601654 0.98874277 -0.88579404 -0.6004539 -1.2791314 2.1214924 -1.2297417 -0.48190907
-0.91306275 -0.6610452 0.07924259 0.51962864 -0.48876783 1.189626 -0.80613995 -0.7367201
-1.4027042 0.041291364 -0.06976971 0.67328787 -0.09922623 1.8399584 -1.1824511 1.3915484
1.4413826 0.85370296 2.2163131 0.5196267 0.34199184 -0.1981493 -1.0577639 1.274931
-0.16367294 0.52061075 0.054549374 0.4278741 0.5795151 -0.6355806 -2.2077885 -0.7486957
0.015480721 -0.3412402 -1.3439809 -0.5865211 0.54034257 0.5219715 1.1442724 0.0529119
0.73891366 -0.47319862 -1.0461566 0.6072245 -1.7276899 -0.8239768 1.3306376 0.4823546
-2.508701 0.49190834 0.78278136 0.027482735 0.6442068 0.5798083 1.0730736 -0.44335645
-0.18280779 0.7557593 0.41210988 0.18124801 0.2681294 1.2732499 -0.004715073 -0.30748633
-1.4563098 -0.100149944 -0.5994757 0.4752194 0.71940964 0.0833076 -0.39349997 0.5275275
-0.015445095 0.24046533 0.13168958 0.76753646 1.0959476 0.33910438 0.7181194 0.4135257

encoder.convs.0.node_mlp.weight f4 [128, 256]
00000000: 0c96 503d 4fa8 62bc 8735 563d 0e41 ab3c
00000010: d78f 5ebd 71ec 363d 62e6 7ebc 3a53 b8bc
00000020: 296f 4ebd 321c 82bd 3773 9e3c efef 47bc
00000030: 2604 d33c 57fa 4bbd d6da 433d afb4 41bd
00000040: cd4b 48bc c4da 6e3c 190c 0a3d 6381 483d
00000050: a5f6 6e3d c8be 50bd e9d4 693c 04e1 e7bc
00000060: e1b0 07bc 085e 45bd 2b0f 633d aaa7 41bd
00000070: bedf 0e3d 4a9b a63c 249c b23c 9437 10bd
00000080: 276d 6e3d 6881 783c b363 1c3c 075a 67bd
00000090: 94a6 ca3c ec67 01bc c488 f6bc eaa3 613d
000000a0: f7bb 7b3c ca6e 13bd 4621 f7bc 3748 c8ba
000000b0: 27bd 143d 7694 8ebc c312 0cbd 7f43 a3bc
000000c0: 2e37 39bd bd52 c23c f85d 3f3d adcc 76bd
000000d0: f3d3 823c 0387 fc3c 2c2f 513c 3e5a aabc
000000e0: c669 0b3d 7119 ff3c 59c1 cc3c 8592 4bbc
000000f0: 5ff1 74bc 7ab7 ab3b ec35 1dbc 0542 a4bc
00000100: 5da1 1d3d 7cf2 553d 5bf7 f9bb 8ff6 7cbc
00000110: af98 13ba 6127 10bb edcc 863c 349a 833c
00000120: fe1b 62bd 90be c8bc 08d9 503d f241 bb3c
00000130: b47d 95bb 4c4e 14bd 7c96 16bd dc3a 5fbd
00000140: a64d b4bc cbe0 b83c d002 293d 3e22 f83c
00000150: 121b 68bd d9cc 1fbd c20e 39bc b9cd 703d
00000160: 89b7 f83b fb1c 71bc 637a df3c 34c6 cebc
00000170: aeac 1fbd 1da1 403d 326b f4bc fa19 65bc
00000180: 928e 78bd d337 253d 05e7 3b3d e241 ad3c
00000190: be52 38bd 4b34 81bd 4bab 55bd 1bc0 443d
000001a0: 4009 013d aa5c 513d 57f5 ff3c f8d9 693c
000001b0: 6ba7 0abb a973 48bd 562d 56bd 7332 69bd
000001c0: 6c3d dd3c 0956 eebc 2e2c 36bc 1f34 19bd
000001d0: 1522 52bc 4e7f 3abd 721b 21bd fec0 9d3c
000001e0: 54e7 8abc acc5 173d 8cfc b0bc 3096 41bd
000001f0: e719 4cbc 0619 02bd 2e5c a8bc 9891 79bd
00000200: 83ee 1a3d 494d 2abd b347 033d 4134 f93c
00000210: ee83 2a3d 005e 48bd 932d 333d 0c8a f2bc
00000220: 4310 d13c c799 753d 0838 debb e8ad 16bb
00000230: 308a 81bc 8b38 61bd 815d e33c 31c8 78bd
00000240: 9cb9 2c3d 3541 3c3d 818e 803d fc84 85bc
00000250: d4c6 56bd d438 6f3c 4112 103d 3c61 81bd
00000260: 25a1 62bc f00f 24bd 17cd f7bb 8e3a 03bd
00000270: aa2b b9bc 715a abbc 46fe 6dbd 24f0 593d
00000280: ecb9 513d 77b9 1abc 9cca f3bb dfee d2bc
00000290: ee36 64bd d73b 6fbd 2a6a cd3c 62cd 10bd
000002a0: 4493 32bd abc0 21bb d627 9ebc b80c 99bc
000002b0: 7647 203b bccf 15bc c845 b3bc 5d40 f1bc
000002c0: 609c 50bd 1ba9 543d 52c2 bfbc 80ee 8e3c
000002d0: cab4 91bc 47a3 593b 2ab3 683d 1f56 e23c
000002e0: 9d79 55bd eb0c b53c 0f0c 713d b78f 763c
000002f0: ad99 313d 648f 6f3d 2d51 1dbc e799 533c
00000300: b0f2 31bd 8483 7cbc 3a51 413d 0cf5 0a3d
00000310: 68ef 2cbd c1e5 52bd e049 29bd de4f 82bd
00000320: 914f 44bd 9134 51bc 9d33 373d e3aa 093c
00000330: 439f 56bd c28a 45bd 632c 0b3d 1199 3cbd
00000340: 968e 15bc 9624 fa3c 9835 e2bc e818 51bb
00000350: d44d 64bb 5c65 7ebc 0449 f1bc bcdd 67bd
00000360: 3ad4 3dbd 230f 11bd ee21 733d 89e2 05bd
00000370: 41db 30bd a49d 743c 5f00 6b3c 451e 113d
00000380: 801a 3f3d 97ac 0a3d dba6 80bd 0ceb da3b
00000390: fb41 1c3d 873e 01bc 4b1d 1cbd 952d 753d
000003a0: 7b8a c0bc bbdf 19bd 0271 7abd 1d14 c13b
000003b0: 6e8a e13c df47 3c3c 3792 313c 7495 34bd
000003c0: dfa2 73bd 1f0e 503b 05bf 6c3d 8e98 0f3d
000003d0: e02a 14bd 07cf 0dbc e8ae 3dbd 57a3 f1bc
000003e0: 7a74 793c 3410 083d a5dd 593d 6065 65bd
000003f0: b79e 2f3d 73c1 2ebd 30c7 bc3c 219a 653d
0.050924346 -0.013834073 0.05229714 0.020905044 -0.054336395 0.04465908 -0.015557857 -0.022500623
-0.05039898 -0.06353034 0.019342048 -0.012203201 0.025758814 -0.04979929 0.04781612 -0.047291454
-0.012225104 0.014578525 0.033702943 0.048951518 0.058340687 -0.050963193 0.014271953 -0.028305538
-0.008281917 -0.04818538 0.055434387 -0.047279038 0.034881346 0.02033772 0.02180297 -0.035209253
0.058209565 0.015167572 0.0095452545 -0.05648234 0.024737634 -0.007898312 -0.030094512 0.05508796
0.0153646385 -0.03599433 -0.030167233 -0.0015280311 0.036313202 -0.017404776 -0.03419758 -0.019929646
-0.04521864 0.023721093 0.046720475 -0.060253788 0.015970206 0.030826097 0.012767594 -0.020794984
0.03403642 0.031140061 0.02499454 -0.01242507 -0.0149501255 0.005240378 -0.0095953755 -0.020051012
0.038483966 0.052233204 -0.007628364 -0.0154396435 -0.00056303566 -0.0021996128 0.016455138 0.01606474
-0.055202477 -0.02450493 0.050988227 0.022858594 -0.004562104 -0.036207482 -0.036764607 -0.054499492
-0.022009682 0.022568127 0.041262448 0.030289765 -0.05666644 -0.039013717 -0.011295022 0.058789942
0.0075902385 -0.014716382 0.027280038 -0.025240995 -0.03898304 0.04702865 -0.029836271 -0.013983244
-0.06068284 0.04033644 0.045874614 0.02114958 -0.045000784 -0.06308802 -0.05216531 0.04803477
0.031502962 0.051113762 0.031244917 0.014273159 -0.0021156918 -0.048938427 -0.05228933 -0.056932878
0.027006827 -0.02909376 -0.011118932 -0.037403222 -0.012825509 -0.045531563 -0.039332815 0.019257065
-0.016956009 0.03705375 -0.021604799 -0.04726237 -0.0124573475 -0.031762145 -0.020551767 -0.060929865
0.03782512 -0.04157761 0.0320508 0.030420424 0.041629724 -0.04891777 0.043744635 -0.029606842
0.02552045 0.059961107 -0.006781582 -0.002299184 -0.015812963 -0.054985564 0.027754547 -0.060737792
0.0421692 0.045960624 0.062771805 -0.016298763 -0.05243571 0.014600951 0.03517366 -0.06317374
-0.013832365 -0.04005426 -0.0075622904 -0.032038264 -0.022603828 -0.02091715 -0.058103822 0.05320753
0.0512027 -0.009443632 -0.0074399244 -0.025748668 -0.055716448 -0.058406677 0.025075037 -0.03535212
-0.043597475 -0.002468149 -0.019306105 -0.018682823 0.0024456657 -0.009143766 -0.02188386 -0.029449636
-0.05093038 0.051919084 -0.023408089 0.01744771 -0.017786402 0.0033208893 0.05681149 0.027628956
-0.052117933 0.022100886 0.05884939 0.015048913 0.043359447 0.058486357 -0.009601873 0.012915111
-0.043444335 -0.015412215 0.047196604 0.0339251 -0.042220503 -0.05148864 -0.04133022 -0.0636289
-0.047927443 -0.01276888 0.044726957 0.008402559 -0.052397978 -0.048228033 0.033977877 -0.046044413
-0.009128233 0.030535024 -0.027613446 -0.0031905714 -0.0034836428 -0.015527096 -0.029453762 -0.056607947
-0.046344973 -0.035414826 0.05935853 -0.032686744 -0.043177847 0.014930163 0.01434335 0.035429258
0.04665613 0.033856 -0.06281825 0.006680852 0.03814886 -0.007888443 -0.038113873 0.059857924
-0.023503533 -0.03756688 -0.06114293 0.0058922903 0.027531829 0.011491745 0.010838083 -0.044087842
-0.059481498 0.0031746698 0.057799358 0.035057597 -0.0361737 -0.008655316 -0.04630938 -0.029496832
0.015225524 0.033218578 0.053189892 -0.05600488 0.04287597 -0.042664956 0.023044199 0.056055192

encoder.convs.0.node_mlp.bias f4 [128]
00000000: 45dc 4ebd 0d13 993c 1ecc 8c3c 3eeb 473d
00000010: 635a 103d 1e5b d3bc 7cdb 28bc a531 30bd
00000020: bfbb 103a 5198 b03b 65da 553d 216a 513d
00000030: dfb2 41bd 5aa5 5b3d af48 73bd 3406 653c
00000040: 2387 133d 4d2a 1e3d 750b 2f3d 8b8c bebc
00000050: 691c 723d b6dd 363c 3b6f 4ebb 09cf c9bc
00000060: bb3c 77bd 7866 a5bc 9db4 84bb 2da2 093c
00000070: 3d9a 79bc f1ba 8dbb c7df fa3b e64d 1bbd
00000080: 3b18 85ba 2363 6ebd 7553 29ba 49cb 653d
00000090: b9c9 08bd bc6a 273d 2b9c 8fbc 6775 c0bc
000000a0: faac ca3c 1c0e 8abd 6023 253d 801d 193d
000000b0: e9b8 d93c d32b a7bb 177d c2bc 7455 1bbd
000000c0: ed47 523d 0840 fd3c a0cd f13c 7211 31bd
000000d0: dc74 0d3d 5ae0 2ebd 5df8 4d3d 442c 4a3d
000000e0: 09bf 73bd 1f5a 78bd 888e 51bd ee8d b6bc
000000f0: 522f 3c3c 8f84 61bd ead5 5c3d 15df 2fbd
00000100: 5139 94bc a333 523c d1dc 07bd a2eb 9e38
00000110: c049 62bd ce1c 62bd 89d4 20ba a464 cabc
00000120: d34e 3f3d 81fa 07bd 8ade 233d 17eb 273d
00000130: 4a3a 59bc 7b31 2ebc 7be9 a93c 7abf 16bd
00000140: 75c7 813c daa6 aabc 6ac8 abbc dce9 5bbd
00000150: d896 383d 93ac 48bd f7bb 59bc fffd a73c
00000160: 0858 48bd f1a7 d93b ae8b 5a3d 0733 5c3c
00000170: c8d0 463d 71c3 3bbd 3a46 fa3c 6e6a bf3b
00000180: 3055 5b3c e07f c0bc 1e61 95bc a7c1 143d
00000190: 9fe2 263d bc66 3abd 2efb 493d 3876 623d
000001a0: 0d60 bcbc 0111 c13b 269d 0a3d 9d08 7abd
000001b0: c49c cd3c 6cbf 4c3d d237 b4bc 264b 59bd
000001c0: c55c 2abd badf 153d 11b2 d939 f325 88bb
000001d0: 20ba 0c3c ab17 933c 6074 0a3d 089e b03a
000001e0: 81f7 6cbd 3c09 3f3d 51a3 3a3d ac77 28ba
000001f0: fe05 07bd e099 8abc ef58 d23c fc89 4b3d
-0.050503034 0.018685842 0.017187174 0.04880833 0.03524245 -0.025800284 -0.010306235 -0.043016095
0.00055211404 0.0053892513 0.05221023 0.051126603 -0.047289725 0.05362449 -0.05939549 0.01397853
0.03601755 0.03861456 0.042735536 -0.023260375 0.059109125 0.011161258 -0.0031499404 -0.024634855
-0.06036065 -0.020190462 -0.004049851 0.008400482 -0.015234527 -0.0043252637 0.007656071 -0.037916087
-0.0010154316 -0.058200013 -0.00064592744 0.05610207 -0.033395503 0.040873274 -0.017530521 -0.023493482
0.024740685 -0.067409724 0.04031694 0.03738165 0.02657743 -0.00510166 -0.023741288 -0.03792329
0.051338125 0.030914322 0.029516995 -0.043229528 0.034535274 -0.042694427 0.050285686 0.04935862
-0.059508357 -0.06063282 -0.05116132 -0.022284474 0.011485891 -0.05505806 0.05391494 -0.042937357
-0.018093737 0.012829694 -0.03316957 7.577917e-05 -0.055246115 -0.05520325 -0.0006135186 -0.024706192
0.046706032 -0.033197884 0.04000715 0.040995684 -0.013258526 -0.010631914 0.020741215 -0.0368037
0.015842179 -0.020831514 -0.020969588 -0.053689823 0.04506573 -0.048992705 -0.013289443 0.020506857
-0.04891208 0.0066423346 0.053355865 0.0134399 0.048538953 -0.045840684 0.030551065 0.005841545
0.0133870095 -0.023498476 -0.018234786 0.036317494 0.040743466 -0.04550813 0.04931181 0.055288523
-0.02299502 0.0058919196 0.033841275 -0.06104337 0.025099166 0.04998724 -0.021999273 -0.053050183
-0.04159238 0.036590315 0.00041522135 -0.0041549145 0.0085892975 0.017955622 0.03380239 0.0013474831
-0.057853226 0.046639666 0.045565907 -0.0006426524 -0.0329647 -0.016919076 0.025677172 0.04969214

encoder.convs.0.edge_mlp.0.weight f4 [128, 7]
00000000: 0ac9 a8be 91ef 8f3d cd29 043d bc42 bf3d
00000010: a010 bcbd 2ca3 02bd 0850 bbbe 2611 07bd
00000020: f094 a3be 2ebe a23e bd56 173e b727 0b3e
00000030: 18a2 45be 4b74 26be 0c70 0a3d 4423 85bd
00000040: 04f7 ecbb 4dc5 143d 7dd4 3a3b 44eb a5be
00000050: 888d b53e 5cef 1ebe c0e7 323d cfbd 78be
00000060: eeb8 a83e e8d9 33be 8249 553e 14bf 153e
00000070: 2e83 93bd c103 b33d 08c0 8ebe b6c8 abbe
00000080: 5640 4e3e 83c2 6a3e 9aff a2be e1fa f9bd
00000090: 79e8 b1be 07b3 9fbe 0fdb 853d 672b afbd
000000a0: 0873 b93e 6306 923e 8624 5ebe 030d a13e
000000b0: 3151 623e 1bec ae3e 18e9 ccbd d39b 83bc
000000c0: 4fe5 4bbe af9c 33be 341b b33e 5a67 933e
000000d0: a5d4 bfbe a22c 4d3e 0388 0abe ddad 98be
000000e0: 1f78 323e 733c 803d 6da5 d1bd 8860 bf3e
000000f0: f109 6fbe d05a 5e3e bdfe 6f3e 7776 3ebe
00000100: d876 543e 8a03 3fbe c161 34be 8247 843e
00000110: bb87 a13e 93ec 80be ebfe b83e 412a b6be
00000120: 89ec 1f3e b0a8 a9be a726 98bd 1e1f a3be
00000130: 4e90 9b3e c576 65be 6063 a7be c942 22be
00000140: 6029 7b3e fef6 143e 4390 173e 0e86 8f3e
00000150: 7f40 c8bd b593 573e 97b1 aebe 4d66 96be
00000160: 182d 583e 0e71 8bbe ff1c d53d 173a ef3d
00000170: d0ce 5b3e f35c 8f3e a9fc bc3d 72ca e5bc
00000180: fcb5 a7be 922f 45be 2d0e ccbd d33a 223e
00000190: c867 6cbe 1fae cfbd 235a 9ebb 2e7a bbbb
000001a0: f1d5 88be 8d09 613e 650f 493d dd0e a43e
000001b0: cb0e 91be 1589 a23b 056a f23d aff5 383e
000001c0: 99ad 97be 8d11 33be 3f2b a83a 0570 74be
000001d0: 15ad 98be f73c 363d 5a67 573e e9c9 bbbe
000001e0: 7915 fdbd 80a5 c0be bcb1 7c3d 5821 013e
000001f0: f8bf adbe daac ca3d eac7 fabd 30d3 97bd
00000200: 433c 92be 48ae 2dbd ebf9 323e 9f1c 56be
00000210: 1c77 04be e403 69be 2b93 33be def1 a23e
00000220: 0e5b 823e cb76 2fbe 9110 bd3e 9894 0e3e
00000230: 8c05 f83d 76e6 90be d76a b6bd 5f83 aa3e
00000240: e4bb 7d3e d1a8 443e 14c4 3abe 5925 b9bd
00000250: 999c 1f3e 7fe7 013e 4249 e2bd 0bf4 41be
00000260: 465c 9abe 1d3a 99be 2117 24be 4fd4 4b3e
00000270: 0670 37be 682c fb3d e756 87be 2a58 61bc
00000280: 14c5 63be 3bd4 32be 3dff 653e c4dd cf3d
00000290: a8b0 a73e 3326 bb3d 83ee 073c d619 9b3e
000002a0: a1e7 86be c154 5a3e 201c 2e3a 64df 1dbc
000002b0: 5dff 68be 06cf 01bb 7dbc 71be 069c 5d3e
000002c0: e041 82be 32a6 19bd aee7 b53e 83c6 0abd
000002d0: a8e9 9bbe 2929 c33d 1697 c73d 6aca 43be
000002e0: 3dfd a5be 4f98 bdbe 2f50 4bbe d6e9 813b
000002f0: 5256 aabe 2ff7 9fbe 3b49 f23d 0c95 98be
00000300: 178f f33b 7755 e13d b659 aa3e 3604 10bb
00000310: 8849 b13d 1f8a 923e 27c1 bf3d 7137 aa3e
00000320: b04b 72bd 20ce bd3e a240 73be ec44 853e
00000330: f0db 723d 444f 9bbc 048d b73e a57e 393e
00000340: 871b 733d f296 babd bab3 a43e 5786 b73c
00000350: 4662 ba3d 5d5c d6bc 35b1 0fbe 959a 4ebe
00000360: 6275 4d3e ff67 823d c62b 773d 2bc3 903c
00000370: e9d3 07be f4e2 7bbc 53f3 40be 8263 1a3d
00000380: 9441 333e c44a b6be 9640 a53e 54d6 e2bd
00000390: 0c7e 983e bf52 9c3e d5a0 2d3e 8e09 aa3e
000003a0: ddfe a8be 2538 b1be 4b03 d73c 94b6 3ebe
000003b0: e4b6 3abe 2d2c 0fbd e326 7fbe 57a3 84bc
000003c0: f5fd 4bbe a3ee c53d b92a 583d eedf 7dbe
000003d0: cacf 28be 536d bfbc a3af 563e f6c8 ac3e
000003e0: 3e7a 073e 0030 893b 3b5c 58bc e2e9 b13e
000003f0: 6d32 5dbe 9a53 65be e701 9c3d 195d 82be
-0.3296588 0.070281155 0.032266427 0.093389004 -0.091828585 -0.031893894 -0.36584496 -0.03297534
-0.31949568 0.3178572 0.14779182 0.13589369 -0.19300115 -0.162553 0.033798262 -0.06500867
-0.007231595 0.036320973 0.0028508 -0.32406056 0.35459542 -0.15520996 0.043678045 -0.24291156
0.3295359 -0.17563593 0.20828822 0.14623672 -0.07202755 0.087409504 -0.27880883 -0.33551568
0.2014173 0.22925763 -0.31835634 -0.122060545 -0.34747675 -0.31191275 0.06535923 -0.085532
0.36220574 0.28520498 -0.2169362 0.3145524 0.22101285 0.3416451 -0.100053966 -0.016065514
-0.19911693 -0.17540239 0.34981692 0.28789788 -0.37466922 0.20036557 -0.13528447 -0.29820147
0.17428635 0.0626153 -0.102366306 0.37378335 -0.23343636 0.2171433 0.23437019 -0.18599878
0.2074846 -0.18653694 -0.17615415 0.25835806 0.31548867 -0.25180492 0.36131987 -0.35579112
0.15617575 -0.3313651 -0.07429247 -0.31859678 0.30383533 -0.22408588 -0.32693005 -0.15845789
0.24527502 0.14547345 0.14801125 0.28031963 -0.09777927 0.2105244 -0.34119865 -0.29374924
0.21110952 -0.2723469 0.10405921 0.11681002 0.21465611 0.28000602 0.092278786 -0.028050635
-0.3275603 -0.19256428 -0.09963641 0.15842752 -0.23086464 -0.10140633 -0.0048325225 -0.005721352
-0.26725724 0.219763 0.049086947 0.3204259 -0.283316 0.004960189 0.11836628 0.18062471
-0.29624632 -0.17487164 0.0012830271 -0.23870857 -0.2981955 0.044491734 0.21035519 -0.36677483
-0.12357611 -0.37626266 0.06169294 0.12610376 -0.33935523 0.0989625 -0.12245162 -0.07413328
-0.285616 -0.042402536 0.17478149 -0.20909356 -0.12936062 -0.2275539 -0.17536609 0.31825155
0.25460094 -0.1713516 0.36926702 0.13923872 0.12110433 -0.28300828 -0.08907097 0.33303353
0.24778706 0.19205023 -0.1823886 -0.090403266 0.15587081 0.12685965 -0.11049129 -0.18940751
-0.30148524 -0.2992715 -0.16024448 0.19905208 -0.17913827 0.12264329 -0.2643349 -0.01375393
-0.22243148 -0.17463772 0.22460647 0.1014972 0.32751966 0.09138145 0.008296612 0.3029315
-0.26348594 0.21321394 0.0006641764 -0.00963578 -0.22753663 -0.0019807233 -0.23607059 0.2164155
-0.25440884 -0.03751201 0.3552832 -0.03388072 -0.30451703 0.09529335 0.09745614 -0.19120184
-0.32419768 -0.37030265 -0.19854806 0.003964643 -0.33268982 -0.31243274 0.11830374 -0.29801214
0.007432829 0.11002629 0.3327157 -0.0021975166 0.08656603 0.28621003 0.09363013 0.33245423
-0.059154212 0.37071323 -0.23755124 0.26029146 0.05929178 -0.018958695 0.35849774 0.18114717
0.059352424 -0.09110822 0.3216837 0.022402925 0.091007754 -0.02616709 -0.14032443 -0.20176156
0.20064309 0.06367492 0.06034448 0.017671188 -0.13264431 -0.015373934 -0.18842821 0.037692554
0.17505485 -0.35603917 0.32275838 -0.11076036 0.29783666 0.3053188 0.16955884 0.33210415
-0.33006945 -0.34613147 0.026246687 -0.18624336 -0.1823383 -0.03495424 -0.24917178 -0.016191168
-0.19921096 0.09664657 0.05277512 -0.24792454 -0.16485515 -0.02336756 0.20965438 0.3374707
0.13230225 0.0041866302 -0.013205583 0.3474875 -0.21601267 -0.22395173 0.0761755 -0.25461653

encoder.convs.0.edge_mlp.0.bias f4 [128]
00000000: 05d7 b33d a924 2c3e 94aa 8ebe 2be2 993c
00000010: b5f6 84bd 1481 7d3e 7faa 5bbd 63f0 67be
00000020: 6786 5e3e 6ea8 2ebe 9695 03bd 1255 dabd
00000030: 6f63 1a3e ad8f a8bd a77e fc3d a10e 82be
00000040: 752e 68bd e32e b43e 1cd6 6abe 8fdd 65bd
00000050: 628a c2bc a8ad 313d 04a0 19be fc44 0b3e
00000060: f2f0 d3bd ea27 2d3d 0d9b b13e ce07 ab3e
00000070: 1207 e8bd 3b35 58be 7447 70be b181 88bd
00000080: fbad a63c bccc e73d acd6 07be ad0a 393e
00000090: aadb b5bc 569f bb3d 08bb bc3e 633a 923c
000000a0: f965 333c ec25 debd 94fc 893e 2522 a5be
000000b0: 23a0 3dbe ac51 6c3d 2acf 583e fee0 bebe
000000c0: bce2 80bd 00cc 9f3d c7dd a73e efa5 383e
000000d0: bcd3 ad3e b69d 8dbd 0e04 b9be e144 143d
000000e0: 89b7 7d3e 1ee1 383c 82b0 8b3d 0ce1 ba3e
000000f0: 6c0a b5be 580b 823d bc75 e43d 694d 913d
00000100: de97 bdbd 3871 28be 2f6b 593e 8fcd be3d
00000110: 6be7 cc3d 559a 5ebc 7ba9 79be 1564 2b3e
00000120: 80cd 49be 5465 7cbe 8e2f 39be 9121 9ebe
00000130: 0fd5 a0be 4b0e 34bd 9641 bfbe 8f86 8e3e
00000140: 0fd6 96be bbf1 103e 1c89 1e3e ffd7 17be
00000150: bce3 973d 18c2 b63e 5917 b8be 375d 1c3b
00000160: cd85 833e f997 b63e 0652 d93d d49f a73e
00000170: f63a 4dbe 4db0 b03e 8432 523d 5ba4 79be
00000180: 7f4a 6e3e 8da7 9e3e b924 9fbe 1e83 453e
00000190: cfbe d03d 917d a33e 243e babe 34d9 403e
000001a0: 963a b83e 8339 fbbd 22cd f53d f1ae afbe
000001b0: 14bc b63d fee4 87be 89c3 b7be ce1b 2a3e
000001c0: b6b1 533e f32d 583e 4e38 8f3e ce68 d6bd
000001d0: 457f 90be 5d53 5d3e 4cab 9b3e d960 94be
000001e0: 5a5f a6be ad90 6bbe 9615 60be 3020 813e
000001f0: 6eef b6be 7c42 073e a2ee 673d 5132 8cbe
0.08781246 0.1681086 -0.27864516 0.018784603 -0.06492368 0.2475627 -0.053629395 -0.22650294
0.21730958 -0.17056438 -0.03212508 -0.10660757 0.15076993 -0.08230529 0.123288445 -0.25401786
-0.05668493 0.35192022 -0.22933239 -0.056119498 -0.023747627 0.043378502 -0.15002447 0.13600534
-0.10348691 0.042274393 0.34688607 0.33404392 -0.113294736 -0.21114056 -0.23464757 -0.06665362
0.020346632 0.11318347 -0.13265485 0.18070479 -0.02219947 0.0916125 0.36861444 0.017850107
0.010949605 -0.10847077 0.26950514 -0.32252613 -0.18518119 0.057695076 0.21172777 -0.3728103
-0.06293246 0.07802582 0.3278639 0.18032049 0.33950603 -0.069148466 -0.36135906 0.0361985
0.24777044 0.011284141 0.068207756 0.36499822 -0.35359514 0.0634982 0.111552685 0.07094843
-0.09257482 -0.1644944 0.21232294 0.09316551 0.10005077 -0.0135866 -0.24381058 0.16737397
-0.19707298 -0.24648029 -0.18084547 -0.30884984 -0.3141255 -0.043958943 -0.37354726 0.27837035
-0.2946019 0.14154713 0.1548199 -0.1482849 0.07416484 0.35694957 -0.35955313 0.0023859271
0.2568802 0.3566282 0.10611348 0.32739127 -0.20042023 0.34509507 0.051317707 -0.24379103
0.23270606 0.30987206 -0.31082705 0.19288298 0.10192644 0.31931737 -0.36375535 0.18832856
0.35982198 -0.12266829 0.120020166 -0.34313157 0.08922592 -0.26541895 -0.3589137 0.16612169
0.2067326 0.21111278 0.27972645 -0.10469209 -0.282221 0.21613832 0.30404127 -0.2898014
-0.32494622 -0.23004408 -0.21883234 0.2521987 -0.35729545 0.13208956 0.056624062 -0.27382138

encoder.convs.0.edge_mlp.2.weight f4 [128, 128]
00000000: 18dc 9bbd 7a22 873d da22 73bd fa68 74bd
00000010: daa9 063c 5c8f a4bd 5322 0bbb 3da6 c7bc
00000020: a3a0 eebc bb1b b6bd 81c4 64bd c74c 863d
00000030: 83e2 61bd 4163 383d ec3d 8d3d 75c9 99bb
00000040: bc2b 2c3d 096f 71bd b89e 90bd 83bb 853d
00000050: d26b 4f3d 4324 493c dc2e 7abd 5f4d 04bd
00000060: 0602 953d b7c1 ba3d 0b5a 88bd b135 1a3d
00000070: 37d1 5bbd 6be5 4bbc 03d3 bcbb d1b6 8fbd
00000080: abf2 573b 02b2 a6bc fb5e 913d ad1b 1cbd
00000090: 3a2a 8bbd 64ca 893c 4991 b13d 0385 a53d
000000a0: 9536 1b3d 50e4 a2bd dce2 483d 1bb8 a3bc
000000b0: 76ee 8abd 0fd3 0abd 6f24 a0bd 235a 1fbd
000000c0: df2a 073d 2757 a33d 0f1f 8bbd b114 0d3d
000000d0: 9d08 ce3c 314b 5abd 7a58 cebc 24b0 6abd
000000e0: 3a5a 6bbd b107 973d b42b a83d a3a3 083d
000000f0: 7e10 abbc 00c8 18bd 0186 dc3c 7d9a 9abd
00000100: 486b 7dbd 953f 3e3d a25f 813d 88f8 2bbb
00000110: 79e2 1dbd 7697 223d 73fd 723d 07cf a9bd
00000120: 24e7 b5bc 38d9 aebd 4692 4bbc 1d82 8d3d
00000130: 938d a8bd 5325 7cbd 250f 22bc 71c6 f93c
00000140: b2d8 a63d 2cfe 253d 8774 783d 4dc5 9b3d
00000150: 857c 543d 2ae0 3bbd 66d0 61bd 3c5a 7e3d
00000160: 4af9 76bc 7ed7 96bd 4bfe cb3c 34c2 8cbd
00000170: e016 a23c 2f22 bb3d eff1 9a3d a195 96bb
00000180: be4e 533c 902d a73c 4f5c 0ebd 72c2 4bbd
00000190: 15a8 b33d 5291 a3bd de8b 6c3c 6f8c fbbc
000001a0: 7f8e 213d 5d1d 2fbd bfac 2c3d 1d90 78bd
000001b0: f862 1ebd 023d 8f3d ef80 d73b 8cc3 a13d
000001c0: 2f61 5ebd ea7b 783d 1324 3f3c 5d66 883d
000001d0: 9804 d7bc 5003 163b 41be 483c 1b59 71bd
000001e0: e0e2 1d3c b3c2 5fbd 9fec 343d 92e3 a83d
000001f0: 6982 b6bc ad52 3ebc c92e ff3c edb0 90bb
00000200: d1b6 15ba e201 b3bc 6c59 803d a19b 20bc
00000210: 30ac 9f3d 7354 543d 461f 933d 5324 4c3c
00000220: 3d22 c1bc 078a 4cbd da8b 963d fee0 69bd
00000230: dcf6 6cba 8c7a 86bd 3cd6 b0bd c50d 3b3b
00000240: c75f 33bd c48e 81bd 7368 64bd f669 c33d
00000250: a40a b03b fbb7 ad3c ddc1 71bd d635 bfbc
00000260: 8900 823d 0fe5 8d3d 2b81 03bb 1990 9bbd
00000270: 7093 b73d c595 5ebd d6b4 4ebd 6278 623d
00000280: 1a31 073d 6b7b c4bb 207b 423d 24d0 2a3d
00000290: ad95 ab3d ebf8 9f3d bc17 d83c bee6 983d
000002a0: 132f 99bd 3c3a 62bd edf7 6cbd fc30 a2bc
000002b0: 220f b03d 0835 903c 0fce 59bc 7bad 63bc
000002c0: e069 27bd bf68 09bd 4a65 9c3d dd5e 58bd
000002d0: c847 003d eb60 4d3c efba a73d 6475 3abd
000002e0: 96fb a6bc 5434 49bd 8ae5 8dbc 044e 4abd
000002f0: 0f59 5abd 0a8d 8abc 3072 273c 44fc 323d
00000300: b09a b63c db31 56bd 00fb abbd 1ea5 9ebd
00000310: f442 49bb 273e a73b 6b7a 9b3d 6a65 9c3d
00000320: 1015 b23d f09b 983d 40fa 8e3d bd2b 12ba
00000330: b060 073d c48b acba e26c 8fbd 243a 0c3d
00000340: 874f ad3d fb50 1abd 7a16 8c3d a46f 4dbd
00000350: 32e0 7fbd 3110 8a3d 30f1 97bd 84b5 e53c
00000360: 4e75 2e3d 8eb7 833d a020 0bbd 93f0 8bbd
00000370: f41e b33d 39ed 49bc 4d31 163d ecf8 07bb
00000380: b46c 5dbd ce67 a6bd 66fd 8b3d 11f0 a9bd
00000390: b943 67bd 034c 803d c080 2b3c 6571 aebb
000003a0: 60c8 70bd a56e a1bd 4206 5dbc c207 233d
000003b0: c07d 1f3d 7335 093d 5af5 8d3d 6984 623c
000003c0: 2814 8cbc a548 5ebd ae26 ce3a 821b 253d
000003d0: d160 dd3c b0da 913d e383 a73d 0d96 083d
000003e0: 5ba8 b6bd 22a7 28bd 16c8 fe3c eb2f a13d
000003f0: 6597 a3bb c3c1 48bd d80b 023d 906d 423b
-0.07610339 0.06598373 -0.05935941 -0.059670426 0.008219207 -0.08035156 -0.0021230176 -0.02437126
-0.029129332 -0.08892008 -0.055851463 0.06557613 -0.05514766 0.04501653 0.06896576 -0.004693205
0.042033896 -0.058943782 -0.07061523 0.06529906 0.050639935 0.012276712 -0.061079845 -0.03230035
0.072757766 0.091189794 -0.06657799 0.03764886 -0.05366632 -0.012444834 -0.0057624592 -0.07017291
0.0032951038 -0.020348553 0.07098194 -0.03811233 -0.067951635 0.01682014 0.08670289 0.080820106
0.03789385 -0.079537034 0.049044475 -0.01998525 -0.06783764 -0.033892687 -0.07819449 -0.03890432
0.03299987 0.07975607 -0.06793033 0.03444356 0.025150592 -0.053294364 -0.025188673 -0.057296887
-0.057459094 0.07374514 0.08211461 0.03335918 -0.020881888 -0.03730011 0.026919367 -0.075489976
-0.06186989 0.046447355 0.06317069 -0.0026240665 -0.03854606 0.039695226 0.05932374 -0.082914405
-0.022204943 -0.08537525 -0.012425011 0.06909583 -0.08230128 -0.061559033 -0.009891306 0.030490132
0.081468 0.0405256 0.060658004 0.076059915 0.051876564 -0.045868076 -0.055130385 0.062097773
-0.015074084 -0.073653206 0.02490153 -0.06872979 0.019786298 0.091373794 0.075656764 -0.004595474
0.012897192 0.020407468 -0.034756 -0.049745984 0.087722935 -0.07986702 0.014437644 -0.030706612
0.039442535 -0.042752612 0.04215693 -0.060684312 -0.038668603 0.06994058 0.0065766494 0.07898626
-0.0542919 0.06066505 0.011666316 0.06660149 -0.026247308 0.0022890158 0.012252391 -0.05892287
0.009636611 -0.05462904 0.044170972 0.082465306 -0.022278981 -0.011616391 0.031150239 -0.0044156224
-0.00057111407 -0.021851484 0.06267056 -0.00980273 0.07796514 0.05183835 0.07183699 0.012459832
-0.023575896 -0.04993632 0.07350893 -0.057099335 -0.00090394705 -0.06566343 -0.08634612 0.0028542143
-0.043792512 -0.063260585 -0.055763673 0.09541695 0.005372362 0.021205893 -0.059022773 -0.0233411
0.06347758 0.06928455 -0.0020066004 -0.07595844 0.08963668 -0.05434205 -0.050465427 0.055290587
0.03300581 -0.005996158 0.047480702 0.041702405 0.08378158 0.07811149 0.026378505 0.074658856
-0.07479682 -0.055231318 -0.057853628 -0.019798748 0.08596636 0.017603412 -0.013293757 -0.013896341
-0.040872455 -0.03354716 0.07636507 -0.052824844 0.031318456 0.012535314 0.08189952 -0.04552211
-0.020383637 -0.04912217 -0.017321367 -0.049390808 -0.05330759 -0.016912956 0.0102200955 0.04369761
0.022290558 -0.05229364 -0.08397484 -0.07746337 -0.0030710073 0.0051038447 0.07591709 0.07636531
0.086954236 0.07451618 0.06981325 -0.00055759755 0.033051193 -0.0013164212 -0.070031896 0.034235135
0.08462434 -0.037674885 0.068402246 -0.050155297 -0.06246967 0.067413695 -0.0741905 0.028040655
0.04259234 0.06431495 -0.03396666 -0.06832995 0.08746138 -0.012324625 0.03666811 -0.0020747734
-0.054058746 -0.08125268 0.06835441 -0.08297742 -0.05646107 0.06264498 0.010467708 -0.0053235763
-0.058784842 -0.07882432 -0.0134902615 0.03980232 0.038938284 0.03349824 0.06931563 0.013825514
-0.017099455 -0.054268498 0.001572808 0.040309437 0.027023705 0.071217895 0.08179452 0.033346225
-0.0891883 -0.041175015 0.031101268 0.07870468 -0.004992413 -0.04901291 0.031749576 0.0029667355

encoder.convs.0.edge_mlp.2.bias f4 [128]
00000000: f811 e73c 65c5 9abd 3e2a b3bb 0a3e 073d
00000010: 9511 08bd 5067 d53c 8340 acbc 3a15 bcbd
00000020: 14ac 91bd 49f1 4f3a 271d 9abd 1c1d 943d
00000030: def8 143d f89a a73d f339 ccbc e178 803d
00000040: d877 a3bd 3637 ec3c 572f 113d 42b8 d83b
00000050: 6f3f 4bbd 23f6 0ebd ecac 06bd 0571 973d
00000060: e6fa b53c 2464 f6bc 7aec efbc 88eb 263b
00000070: 4736 203d 3b74 a13d 181d 693d 2916 9d3d
00000080: 9977 29bd 0804 973c faeb 8c3d 2cfe 903d
00000090: e605 7f3c aa53 a43d dc25 60bd 2ce1 b3bd
000000a0: 9cdc 983c 261c 633d 109a 473d c1fd 87bd
000000b0: b638 a33d 252b 98bd e05d 9b3d 5318 00bd
000000c0: ae29 a23d f184 303d 1ac1 723d fae5 853b
000000d0: 3f15 b3bd b81f 9ebd 37ee 92bd beaf e8bc
000000e0: 58ca b2bc 5ea1 a73c 047d a0bd 3c96 96bd
000000f0: f772 a7ba 06ae b1bc a987 65bc 2126 a1bd
00000100: 4c9c acbd 4a4e a8bd 32ba 3fbd c6b6 38bc
00000110: 2fee 8cbd cda8 a8bd 7dd0 48bc 8272 aa3d
00000120: 78d3 823d 21e3 e7bb fe2b 82bd 5e7d 943c
00000130: 529f a4bd 1e5c 6cbd 0b46 6b3c 2db1 903c
00000140: 733b 33bd c211 6bb9 86c0 92bb 566d 9bbc
00000150: f168 fb3c ec06 263d dd90 43bd 1181 ccbb
00000160: 2f57 90bd baa9 49bd 832a b0bd c8af 8dbd
00000170: 9a3a 7bbd ec77 19bc ece6 84bb e0dd 193c
00000180: 1c25 913d 3925 8e3c df67 ca3b 3b48 153d
00000190: 6dcc 20bd 0059 1cbc 8868 e53c 749d 973d
000001a0: d0e8 9b3d 4e72 9ebd bd5b 1f37 39db 933d
000001b0: 6492 9a3c 881b b4bd 4a29 803d 7eee 88bd
000001c0: b168 6dbd f8de 7bbd ba12 b53d 200f 8e3d
000001d0: b730 d8bc 3063 083d 5449 d03c 772d b9bd
000001e0: ae89 6cbd 266f 1dbd 873e 8fbb dabc ccbc
000001f0: 8265 873d 4b4b 6abd 53f4 54bd bca3 c03b
0.02820681 -0.07557181 -0.005467682 0.03301815 -0.033219893 0.02605024 -0.021026855 -0.09183736
-0.071128994 0.00079323776 -0.075250916 0.07232115 0.03637015 0.08183855 -0.024929976 0.06273056
-0.07981843 0.02883492 0.035445537 0.006613762 -0.049621042 -0.034902703 -0.032879755 0.07394604
0.022214364 -0.030077048 -0.029287565 0.0025469977 0.039114263 0.07883497 0.05691251 0.07670242
-0.041373823 0.01843454 0.068809465 0.070797294 0.015565371 0.0802377 -0.054723606 -0.087831825
0.018659882 0.055446766 0.04873091 -0.066401966 0.07969801 -0.07430104 0.075862646 -0.031273197
0.07918106 0.043095533 0.059266187 0.0040862532 -0.08744287 -0.077208936 -0.07174342 -0.028404113
-0.021825 0.020462688 -0.07836345 -0.07352874 -0.0012775351 -0.021689426 -0.014009395 -0.07868601
-0.08428249 -0.082180575 -0.04680843 -0.011274045 -0.068813674 -0.08235321 -0.012256739 0.08322622
0.06387991 -0.0070766364 -0.06356047 0.018126186 -0.080382004 -0.057705037 0.014359961 0.017662609
-0.043757867 -0.00022417962 -0.004478517 -0.018973034 0.030689688 0.040533945 -0.047745574 -0.006240972
-0.07047879 -0.04923413 -0.086018585 -0.06918293 -0.061335184 -0.0093669705 -0.0040558483 0.009391278
0.07087156 0.017351734 0.006176933 0.036445837 -0.039257456 -0.009542704 0.028003946 0.07403079
0.07612765 -0.07736646 9.498498e-06 0.07219548 0.018868633 -0.08794314 0.06257875 -0.06686114
-0.05796117 -0.061491936 0.088414624 0.069364786 -0.026390417 0.033297718 0.02542559 -0.09041875
-0.05774849 -0.038436078 -0.0043714675 -0.024992395 0.06611158 -0.05720071 -0.05199082 0.0058788937

encoder.convs.0.norm.weight f4 [128]
00000000: b3ce 7e3f a003 803f b691 7f3f 8c14 7e3f
00000010: 7b32 803f 7255 803f f58d 7f3f d9fa 7f3f
00000020: d852 7f3f e4b5 7e3f 0511 803f 045e 7f3f
00000030: 6c20 803f d7a2 7f3f 6434 7f3f 8472 7f3f
00000040: a3e9 7f3f ee86 7e3f 814f 7f3f 4b21 7f3f
00000050: ee78 803f 4fc7 7f3f 3af2 7e3f 7d2f 7f3f
00000060: c690 7f3f 8d47 803f b9ef 7e3f 657c 7f3f
00000070: 1b2d 7f3f 2fac 7e3f d0b7 7f3f dea5 7f3f
00000080: cadf 7f3f 27b9 7f3f abdd 7f3f 9356 803f
00000090: 19e5 7f3f 3a37 803f 4dba 7e3f bc9d 7f3f
000000a0: 87b6 7d3f d738 803f 7801 803f 3de1 7e3f
000000b0: be5d 7f3f 8bfd 7f3f 2219 803f c060 7f3f
000000c0: e4c7 7f3f bff1 7e3f e4fb 7f3f e46c 803f
000000d0: 2e3f 803f 7a25 803f 0cfb 7e3f f274 803f
000000e0: e94d 803f fb28 803f 3e07 7f3f 1598 7f3f
000000f0: 0b2a 7f3f fc59 7f3f 4ddf 7f3f 745e 803f
00000100: 1d86 7f3f cc2c 7f3f 34f8 7f3f b876 7e3f
00000110: 8b99 7f3f 246e 7f3f e749 803f 250e 803f
00000120: d74f 7f3f e4c5 7e3f d25d 803f 94d7 7f3f
00000130: 3bc1 7e3f dd69 7f3f e908 803f a401 803f
00000140: d916 803f 27d8 7e3f 3111 803f 2557 7f3f
00000150: 0c9e 7e3f bfc7 7e3f f2c2 7f3f ac89 7e3f
00000160: 3104 7f3f d5c1 7e3f 35c9 7e3f 6004 7f3f
00000170: 532a 803f 2ea5 7f3f 570b 803f 31ea 7f3f
00000180: f482 803f 60be 7f3f a748 803f cfef 7f3f
00000190: d952 7e3f 577c 7f3f 09fe 7e3f bb1c 7f3f
000001a0: 4406 803f 87e3 7f3f 659a 7e3f c07a 7f3f
000001b0: ccc5 7f3f 0edd 7f3f 6df2 7f3f 82ef 7f3f
000001c0: 9acd 7f3f 28cb 7f3f 55f2 7f3f e2fd 7f3f
000001d0: 4a60 7f3f 9951 7e3f d08b 7f3f 0395 803f
000001e0: d58b 7f3f 1595 7f3f b525 7f3f 2c39 803f
000001f0: 7c68 7e3f 2f15 803f b8f3 7e3f dc7b 7f3f
0.9953415 1.0001106 0.9983171 0.992501 1.0015405 1.0026076 0.99825984 0.9999214
0.99735785 0.99496293 1.0005194 0.9975283 1.0009894 0.9985785 0.99689317 0.9978411
0.99965876 0.99424636 0.9973069 0.99660176 1.0036905 0.99913496 0.9958836 0.99681836
0.9983028 1.0021836 0.9958454 0.99799186 0.996782 0.9948148 0.9988985 0.9986247
0.9995085 0.99891895 0.99947613 1.002642 0.9995895 1.0016854 0.9950302 0.9985006
0.9910664 1.0017346 1.0000448 0.99562436 0.99752414 0.9999625 1.000767 0.99757004
0.99914384 0.99587625 0.9999373 1.0033231 1.0019281 1.0011437 0.9960182 1.0035689
1.0023776 1.0012506 0.99620426 0.99841434 0.9967353 0.9974668 0.99950105 1.0028825
0.99814016 0.9967773 0.999881 0.993999 0.9984366 0.99777436 1.0022553 1.0004317
0.997312 0.9952071 1.0028632 0.9993832 0.99513596 0.9977091 1.0002719 1.0000501
1.0006973 0.9954857 1.0005246 0.99742347 0.9945991 0.9952354 0.9990684 0.9942882
0.9961577 0.99514514 0.9952577 0.9961605 1.0012916 0.9986142 1.0003461 0.9996672
1.0039964 0.99899864 1.0022172 0.99975294 0.99345165 0.997991 0.99606377 0.99653214
1.0001912 0.99956554 0.9945434 0.99796677 0.9991119 0.9994668 0.9997929 0.99974835
0.999231 0.99919367 0.99979144 0.9999677 0.997563 0.9934326 0.9982271 1.0045475
0.9982274 0.99836856 0.9966691 1.0017447 0.9937818 1.0006465 0.99590635 0.9979837

encoder.convs.0.norm.bias f4 [128]
00000000: d1ac e1bb 81e1 6fbc 3854 063b 6ff0 30bc
00000010: a5e8 22bb a9c9 033c 63fb c33b 25f8 34bb
00000020: 23b1 b53b 3e72 033b a411 263c 054d 003c
00000030: 5c17 583c 522e 213b e1c2 8bbb 2185 7cbc
00000040: 933c e0ba 32a3 2e39 cc34 4f39 e1a7 76bc
00000050: 0075 8abb fa77 aa3a e22d 21bb 0e8a 8f3b
00000060: e27c 19bc 4937 ef3b 2a0f 14bc 0f3e b7bb
00000070: e057 16bc 8e15 c0bb e084 1ebc eab5 cb3b
00000080: d5fd 303b cefe 5ebc 7f1f 5b3b d884 f3bb
00000090: 54cb 03bc 1d74 73bb 30e1 843c bad3 b83a
000000a0: 07af 2b3b 3cdd 1c3c 6aa2 04bc 34d8 40bc
000000b0: cbaf 65bb 45ae 483c a8eb 6bba cc6b a33c
000000c0: 6bae 27bc d561 4f3a b41e 193c ca33 55bb
000000d0: 8db5 8cbb 9df3 233c b8f4 453b 6286 e1bb
000000e0: ac2e ba3a 5243 4abb a82c 823b 8f0c ddb9
000000f0: 5f15 62bc 449e 89bc 7684 85bb e430 3d3c
00000100: 0445 ccbb e7e6 c9bc d5b6 2d3b 614f 823b
00000110: b225 81bc a620 9dbb 0e25 5e3c 2dbc a7bc
00000120: 2a51 ff3a a373 093c 24cd 1dbc 6b81 913b
00000130: 3695 2f3c 669d ca3a 1dd1 0e3b 1707 7dbb
00000140: 71e3 963b b151 c3ba 5267 0d3c d4d1 b43b
00000150: 08e9 b93b dc94 fb3b 4373 64bc 7314 4bbb
00000160: b0c1 bcbb 51d6 39bc 0fc3 143c 884d f3bb
00000170: d61c 55bc 017e dc3a 3f5e 8dba d988 e1ba
00000180: 6f08 28bb 51a5 60bb b686 bb3c f0ce 8cbb
00000190: 5ea8 953b f018 383c f6fc d6bb c661 983b
000001a0: 7bd6 453b 7e1d f03b ce0e 8cbb 995f 1abb
000001b0: 1f27 85bc 2f43 0dbc c488 543c efb3 67bc
000001c0: ff0d 6f39 c0b7 78bb 7246 943c 1a7d fbba
000001d0: 38e2 0f3c 7f7b 12bb 24a9 933b 7491 793b
000001e0: 3183 813b 18a1 33bc a0f7 91bb 6d6d d73b
000001f0: d851 8fbc 1155 52bc fe7b a23b 0a40 0fbc
-0.0068870564 -0.014641167 0.0020496976 -0.010799511 -0.0024857905 0.008043685 0.0059808954 -0.0027613726
0.005544798 0.0020057107 0.010136042 0.007830863 0.013189163 0.002459426 -0.0042651747 -0.0154126
-0.0017107896 0.00016654728 0.00019760727 -0.015054674 -0.0042253733 0.0013005727 -0.0024593999 0.004380471
-0.009368153 0.0073002917 -0.0090368185 -0.0055921148 -0.0091762245 -0.0058619445 -0.009675235 0.006216754
0.0027006764 -0.013610555 0.0033435521 -0.0074316077 -0.008044083 -0.0037148066 0.016220659 0.0014101185
0.0026196854 0.009574231 -0.008095363 -0.011770297 -0.0035047408 0.01224858 -0.0008999654 0.019948862
-0.010234456 0.00079110014 0.009345699 -0.003253209 -0.0042941035 0.010006812 0.0030205678 -0.0068824748
0.0014204583 -0.003086288 0.0039726086 -0.00042161762 -0.013799041 -0.0167991 -0.0040746285 0.011547301
-0.0062338132 -0.024646236 0.0026506681 0.003976748 -0.015765045 -0.0047951518 0.013558639 -0.020475471
0.0019479145 0.008389386 -0.009631429 0.0044404767 0.010716727 0.0015458285 0.0021792122 -0.0038608962
0.00460475 -0.0014901665 0.0086305905 0.0055181775 0.0056735314 0.0076776575 -0.013943496 -0.003098753
-0.005760394 -0.011342601 0.009079709 -0.007425014 -0.013007363 0.001682222 -0.0010785534 -0.0017206921
-0.0025639792 -0.0034278224 0.022891384 -0.00429713 0.00456719 0.011236414 -0.006560917 0.0046503274
0.0030187655 0.0073277345 -0.004274226 -0.0023555516 -0.016254006 -0.008621975 0.012972061 -0.014142021
0.0002279803 -0.003795132 0.018099997 -0.0019187063 0.008781962 -0.0022351441 0.004506247 0.0038081082
0.003952407 -0.010963701 -0.004454568 0.006574324 -0.01749508 -0.012837664 0.0049586287 -0.008743295

encoder.convs.0.norm.mean_scale f4 [128]
00000000: ee04 7e3f e9ef 803f 4929 7f3f d837 7e3f
00000010: b2c0 7f3f 9e61 803f edcd 803f 8757 7f3f
00000020: 596d 803f f6a4 7f3f 61b3 803f 6bb6 803f
00000030: f75e 813f 71ca 7f3f 9be4 7e3f da3f 7c3f
00000040: 8573 803f 2ed5 7f3f e6b7 7f3f 8238 7c3f
00000050: f119 803f 7293 7f3f 10e1 7e3f bdb8 803f
00000060: b1b5 7d3f 6aa0 803f 8d2f 7e3f 118b 803f
00000070: 36fc 7c3f e813 7e3f 44e7 803f 9151 803f
00000080: dad5 7e3f 4cb9 7c3f 1e66 803f f38e 803f
00000090: 86bc 7d3f d777 803f 889a 7c3f 8605 803f
000000a0: 1300 803f dab3 803f ee75 803f 6468 7d3f
000000b0: 8493 7f3f 892f 813f aa59 803f 771b 7b3f
000000c0: 3b70 7d3f 3914 803f aaf6 803f 73a9 7e3f
000000d0: c60b 7f3f e31b 803f a310 7f3f d589 803f
000000e0: 9e70 803f f5e0 7e3f 35c8 7e3f 77f0 7f3f
000000f0: 16ef 7c3f 2386 7c3f a80c 803f 1c32 813f
00000100: 0196 7e3f 2caf 7b3f a838 7f3f 2354 7f3f
00000110: 537d 813f 1443 803f 996d 813f 4543 823f
00000120: af7a 803f 62a6 7e3f 38f5 803f e15b 803f
00000130: c71e 7d3f e633 7f3f 1cb2 7f3f c99c 7e3f
00000140: 4358 803f 409b 7f3f 95b7 803f 8d47 803f
00000150: 3e16 813f 0d7b 7e3f 3aa9 7d3f c099 7f3f
00000160: ce31 7f3f 7551 813f 28d2 803f 0352 7e3f
00000170: 2fd7 803f 25e6 7e3f 4281 7f3f db3c 803f
00000180: 82b7 7f3f 1e1a 7f3f 22d7 813f a151 7f3f
00000190: 2e39 7f3f 0837 7d3f 7412 7f3f 5ba1 803f
000001a0: 6935 803f 9651 803f 8762 803f c81a 803f
000001b0: b2aa 813f 4ad8 7d3f 026c 813f c5bf 7c3f
000001c0: 221a 803f 5436 7f3f eba4 7c3f 6d87 803f
000001d0: 0da7 803f efeb 7f3f 605e 803f 2a41 803f
000001e0: bb7a 7e3f 0ffa 803f d374 803f fb56 803f
000001f0: ade0 813f 4684 7c3f 9671 803f 60f3 803f
0.9922627 1.0073215 0.9967237 0.9930396 0.99903405 1.002979 1.0062844 0.9974293
1.003337 0.99861085 1.0054742 1.005567 1.0107106 0.99918276 0.99567574 0.9853493
1.0035254 0.9993466 0.9988998 0.98523724 1.0007917 0.9983436 0.9956217 1.0056378
0.99105364 1.0048954 0.99291307 1.004244 0.98822343 0.99249125 1.0070577 1.0024892
0.9954506 0.9872024 1.0031164 1.0043625 0.9911579 1.0036572 0.98673296 1.0001686
1.0000023 1.0054886 1.0035989 0.9898741 0.99834466 1.0092632 1.0027363 0.98088783
0.98999375 1.0006171 1.0075276 0.9947731 0.9962734 1.000851 0.9963476 1.0042063
1.0034368 0.9956201 0.9952424 0.99976295 0.98802316 0.98642176 1.0003862 1.0093417
0.9944764 0.98314166 0.99695826 0.9973776 1.0116371 1.0020471 1.0111572 1.0176779
1.003744 0.9947263 1.0074835 1.0028039 0.9887509 0.99688566 0.9988115 0.99457985
1.0026935 0.9984627 1.0056025 1.0021836 1.0084913 0.9940651 0.99086344 0.9984398
0.9968537 1.0102984 1.0064135 0.9934389 1.0065669 0.9956992 0.99806607 1.0018572
0.99889386 0.99649227 1.0143778 0.9973393 0.99696624 0.98912096 0.9963753 1.0049242
1.00163 1.0024898 1.0030068 1.0008173 1.0130217 0.99158156 1.0111086 0.9873012
1.0007975 0.99692273 0.98689145 1.0041329 1.005098 0.9996938 1.0028801 1.0019886
0.9940602 1.0076312 1.0035652 1.0026544 1.0146691 0.98639333 1.0034664 1.0074272

encoder.convs.1.node_mlp.weight f4 [128, 256]
00000000: dbad 2bbc 5cde 94bb e63e d1bc 4a26 023d
00000010: 0fc6 1f3d 13e0 b53a f43d bebb f46a 813d
00000020: c719 2bba 7b43 8dbc e7b8 2bbd 84f8 f33c
00000030: 4b66 27bd 4e30 8a3c 070f b3bc b435 b73c
00000040: c167 0c3d 7de3 4c3d 6b7a 8638 f162 06bd
00000050: 561e 593c fc56 98bc 32da 953c 8fa8 18bc
00000060: 7204 fabb 01de 5c3d c488 51bd 863c 663d
00000070: 3ab8 8b3c 51b8 2fbd 5a8a 653d 2cc9 cabc
00000080: b26c 36bd 59a8 aabc 8937 03bb 7734 47bd
00000090: 26ff 1839 d979 163d a772 44bd 0a1f 1b3d
000000a0: d5ff 4d3c da41 5a3d 07fb 853d f39e 5abc
000000b0: 929c 84bc db47 8bbd 69f5 d5bc 0377 933c
000000c0: 608e 063d 4c11 5a3d ee42 b13c e2ce 3cbc
000000d0: 8188 393c 893e ef3c 6311 573d 742b 3e3d
000000e0: 62d9 21bd dec0 0bbd 8bb6 9cbb e45f f43a
000000f0: 803f 87bd 32d1 333d 8833 3a3d 59ea 433d
00000100: 94f9 993c 035e 633d 45b0 203b 2804 e1bb
00000110: 75f5 3e3c 54aa b43c 3755 523c 2aa8 033b
00000120: d68d b6bb 9fe9 14bd 84d2 8c3b bef7 e13c
00000130: 89a4 a33b f1c0 5cbd c565 67bc 7c71 c8bc
00000140: 6839 193d 91d2 133d 8dfe 33bd 4f30 a33c
00000150: 6b79 1d3c 3703 10bd 2fd2 ddbc d9a7 873a
00000160: 82f7 cb3c 33f7 93bc 178e 3c3c 6181 763c
00000170: 3e7a 3bbd ee89 19bc 5f44 513c 66ea 0f3d
00000180: e09a 783c c3a2 e7bc 41dc dfbc d6ff af3c
00000190: c356 043d 7824 aabb 7f98 683d 560b c73b
000001a0: 92ed 67bd 9983 94bb 15f0 24bb 42cb 90bc
000001b0: 0236 f93b 3845 c3bc 4ba9 11bd f645 0b3d
000001c0: 82ef 0d3d ef4c 32bd 3dd8 5d3c 8156 cc3c
000001d0: 3710 13bc cfae b3bb 3226 94bc 714f 2dbc
000001e0: 1b19 38bd 3018 863d 627e 863d 21bf ec3c
000001f0: f7c8 9bbc 04c6 c6bc 47db 163c e3c0 193d
00000200: a1ef aabc e81f 95bc fd76 45bd f5e4 19bd
00000210: dfe9 93bb c32f 863b 7b4c 90bc c84f 433d
00000220: 0fb8 fc3c 0cc5 61bd 20b5 52bd f7cd de3c
00000230: 45ed 453d 1513 85bd 95ac f53c 399c 0dbd
00000240: 83f7 003d 219a bdbc 946c 863d c82c 463d
00000250: 4737 68bd 48aa 3cbd 8868 393c 19ac 6e3d
00000260: d390 193d eaca 1abd aa77 293d 9f3e 91bd
00000270: 9781 6b3d 6f93 4bbc 3ff3 6bbc 3e2a 12bc
00000280: 14f1 c9bc 33e7 f0bb 94f1 c03c e7b4 9f3c
00000290: 35ae 163b c668 8d3d 0436 84bc 2805 e9bc
000002a0: fe6b 4dbd 8fbe 753d fcae 56bd acc9 bc3c
000002b0: eeab eebc 8551 10bd e5da b63c 639e 1f3d
000002c0: 28af 7fbd 7d25 4d3d 1d5d 5bbd e547 b3bc
000002d0: 4454 17bc 81e8 09bd ab48 3bbd d6c8 0ebd
000002e0: 7c48 58bd 9be1 213c ffaf 20bd a5f7 20bd
000002f0: fd28 2ebd 81b1 113c 7b9c dabc a3d6 383d
00000300: 129e 403d 1417 60bd 9fb0 b4bc 400a 55bd
00000310: 3a0c 1f3d 0b2a b5bc b01c d23c 2878 db3c
00000320: c131 743d f781 043b 6c29 1ebc cefa 473d
00000330: 3e6e 69bc 3c19 833b dc0c 6b3c 2c1d cdbc
00000340: 1801 df3c 0001 76bd 6551 b73c 0bbd a93c
00000350: b279 473d ab74 0dbd 2b6d 523d cb46 3d3d
00000360: 7c3a 123c e378 4fbd 27b4 49bc 2a20 00bc
00000370: a7b0 35bd 0305 a43b fa22 debc cf5a 67bd
00000380: 9111 443d 80ac a43b b9bf 14bd efe8 743d
00000390: bd50 483c c9f1 c5bb 9670 733c 126e 75bd
000003a0: 5a4e 06bd 6861 873c 66e4 e1bc 6dc0 ab3c
000003b0: 67b1 593c 6760 983b 1cec 4d3d c35b a5bc
000003c0: c0fd 98bc e98b 34bd 9574 81bd 7c54 cc3c
000003d0: c127 0d3d 8bef e33c 908c 6bbd 193e 4d3d
000003e0: 9280 88bd ccb9 17bd cf4c 483d e46b 1dbd
000003f0: 8dca 39bd 1963 16bd d9b4 28bd 037b d63c
-0.010478462 -0.004543109 -0.025542688 0.031774797 0.039007243 0.0013875983 -0.005805725 0.06319228
-0.00065269734 -0.017244091 -0.041924383 0.029781587 -0.04086904 0.016868737 -0.021857752 0.022364475
0.034278635 0.050021637 6.41242e-05 -0.0328092 0.013251862 -0.018596165 0.01829252 -0.009317531
-0.0076299245 0.053922657 -0.05115582 0.056210063 0.01705562 -0.042900387 0.056040145 -0.02475413
-0.044537254 -0.020832228 -0.0020022115 -0.04863402 0.000145909 0.036737297 -0.047960903 0.037871398
0.012573202 0.053285457 0.0654202 -0.0133435605 -0.01618794 -0.06800815 -0.026117997 0.018001085
0.032850623 0.05323915 0.02163836 -0.011523934 0.011324049 0.029204624 0.052506816 0.04642816
-0.039513953 -0.03411948 -0.004782503 0.00186443 -0.066039085 0.043900676 0.0454593 0.047830913
0.018795766 0.05550958 0.0024519127 -0.0068669505 0.011655201 0.022053875 0.0128377 0.0020089247
-0.0055711074 -0.03635561 0.0042975564 0.027583953 0.0049939794 -0.05389494 -0.014123385 -0.024468176
0.037408262 0.036089484 -0.04394393 0.019920496 0.009611468 -0.035159316 -0.027077762 0.0010349705
0.024898294 -0.01806221 0.011508486 0.015045495 -0.045770876 -0.009371264 0.012772649 0.03513565
0.015173644 -0.028275853 -0.027326705 0.021484297 0.032309305 -0.0051923357 0.056786057 0.0060743494
-0.05662305 -0.004532289 -0.0025167514 -0.017675046 0.007605315 -0.023836717 -0.03556184 0.034002267
0.03465224 -0.0435304 0.013540325 0.024943592 -0.008976034 -0.0054834853 -0.01808462 -0.010578022
-0.044945817 0.06547582 0.06567074 0.028899731 -0.019016726 -0.024264343 0.009207553 0.037537467
-0.020866217 -0.01820369 -0.04820918 -0.037571866 -0.0045139636 0.004095049 -0.017614594 0.047683507
0.030849485 -0.05511956 -0.051442266 0.027197821 0.04832198 -0.0649778 0.02998952 -0.034572814
0.031486046 -0.023144783 0.065636784 0.04838255 -0.05669334 -0.04606083 0.011316426 0.058269594
0.03749163 -0.03779117 0.041373886 -0.07092022 0.057496633 -0.012425288 -0.014401256 -0.008921204
-0.024651088 -0.00735178 0.023552693 0.01949544 0.002299202 0.069047496 -0.016139038 -0.028444842
-0.050151818 0.059996184 -0.05241297 0.023045383 -0.029134717 -0.035233993 0.022321174 0.03896941
-0.0624229 0.05008458 -0.053555597 -0.021884868 -0.009236399 -0.033669 -0.0457236 -0.0348595
-0.0528035 0.009880449 -0.039230343 -0.039298672 -0.04251956 0.008892418 -0.026685944 0.04512657
0.047025748 -0.05470951 -0.022056876 -0.05201173 0.03883002 -0.022114774 0.025648445 0.026790693
0.05961776 0.0020219067 -0.00965343 0.04882317 -0.014247475 0.004000811 0.014346328 -0.025038324
0.027222201 -0.060059547 0.02237768 0.020720026 0.048700042 -0.03453509 0.051373642 0.04621009
0.008925077 -0.050652396 -0.012311018 -0.0078201685 -0.044357922 0.0050054803 -0.027116287 -0.056483086
0.047868315 0.0050254464 -0.036315653 0.059792455 0.012226281 -0.006040786 0.014858386 -0.059919424
-0.032789566 0.01652594 -0.02757473 0.02096578 0.013286925 0.004650164 0.050274 -0.020185357
-0.018675685 -0.04407874 -0.063210644 0.024942629 0.03446174 0.027824184 -0.057507098 0.05010805
-0.06665148 -0.037042424 0.048901375 -0.03843297 -0.045359183 -0.0367156 -0.041188095 0.026181703

encoder.convs.1.node_mlp.bias f4 [128]
00000000: 69e4 27bd d146 0f3d 1f23 373c 2028 8d3c
00000010: 36e7 963c 1b52 13bd d5cc b33c 440e f2bb
00000020: 45b0 3a3d 8d89 c33c 6d89 02bc 92fb 77bd
00000030: 7032 3a3d 026c 54bd 6a5d 283d 9ad1 45bc
00000040: 7176 9b3d cadb 1d3a cb49 8fbc 6c7a 67bd
00000050: f378 80bd d1e7 013c 9e84 6bbd af9c 883c
00000060: f9db 66bd b670 be3c bec6 a8bc 75ac 283d
00000070: 26de 50bd 8953 92bc 7509 32bd d674 4bbd
00000080: a117 36bc aabc 01bd 0ab5 0b3d da57 7abc
00000090: be9a 593a 307d 453d baa4 ea3c f40a 973d
000000a0: ff37 08bc 3ca2 39ba b45f 053d 4157 a338
000000b0: ec20 88bb 663e 6d3d e98d 0a3d cc2f 6f3d
000000c0: 7498 613d b785 60bd 020d 213d 6bce 38bc
000000d0: 77a4 f43c f920 773b bae3 813c 9228 b5bc
000000e0: f103 623d c89e 123d 9c35 8e3d 7dfb 253d
000000f0: 8894 443d 1edb 65bd 01eb c7bc 9e61 243d
00000100: 641f 96bc a687 22bd 63e9 30bd df3b 433d
00000110: b9db 31bd 0289 5cbd 0fd3 9bbc 172b 98bc
00000120: ec18 5d3c 4a78 6a3c 149a 84bb 6eed 093c
00000130: a80d 743d 2b64 17bd 9409 b2bc db81 75bc
00000140: e9a6 353d 2a0f db3c 9dff f43b ffe1 d33c
00000150: 4c42 b5bb 0e85 45bd 4a10 353d 5387 c93b
00000160: fc9d 4abd 8998 e5bc 39a2 8d3d a4ab 29bb
00000170: 89c9 0abd 55bf 19bc b527 13bc 7617 33bd
00000180: 266a cebc 1d90 8bbc 09de 853d 272d 02bd
00000190: e3e6 9abb d8ad b13d 2702 0ebb 1736 863d
000001a0: b7ec 9dbc 9310 1abb 8c3b 8ebd cb8e 723a
000001b0: 125b efbc 6faa 6cbc a42a 2f3d dbd1 70bd
000001c0: 2cbf 90bc 1f51 bfbb 30fb 403d 2175 8b3d
000001d0: 7e99 1d3d ac64 1cbd 2250 1e3d aa79 8e3d
000001e0: 3d85 cebc 091f 67bd 975b 77bd d680 623d
000001f0: 3ba4 23bc 8fdb 8cbd 6108 31bc 3826 643d
-0.040989313 0.034979645 0.011177807 0.017231047 0.018420797 -0.035966974 0.021948257 -0.0073869545
0.04557826 0.0238693 -0.007967335 -0.06054265 0.045458257 -0.051860817 0.04110471 -0.012073899
0.0759095 0.0006021826 -0.017491242 -0.056513235 -0.06273069 0.0079288045 -0.05749952 0.016676275
-0.056362126 0.023247104 -0.02060258 0.041180093 -0.050993107 -0.017862098 -0.04346605 -0.04967197
-0.011114032 -0.031674065 0.0341082 -0.0152797345 0.00083009514 0.04821509 0.028643 0.07375136
-0.008314132 -0.0007081365 0.032561973 7.788698e-05 -0.004154315 0.057920836 0.033826742 0.058395192
0.05507703 -0.05481502 0.039319046 -0.011279683 0.02986358 0.0037708862 0.015855659 -0.022114072
0.05517954 0.035795957 0.06943819 0.04052304 0.047993213 -0.05611717 -0.02440405 0.040132158
-0.018325515 -0.039680146 -0.043191325 0.04766452 -0.043422434 -0.0538416 -0.019021539 -0.018575234
0.013494711 0.014310906 -0.004046688 0.008418424 0.059583336 -0.036960762 -0.021733083 -0.014984573
0.04434863 0.02674063 0.0074767605 0.0258646 -0.005531585 -0.048222594 0.044204988 0.006150165
-0.049467072 -0.028026836 0.06915707 -0.002588966 -0.033883605 -0.009383996 -0.008981635 -0.043723546
-0.0251971 -0.017036492 0.065364905 -0.031781342 -0.004727231 0.08675736 -0.0021668763 0.065532856
-0.019277913 -0.0023508414 -0.069449514 0.0009252845 -0.02921823 -0.014444931 0.042765275 -0.058793884
-0.017669283 -0.005838528 0.04711455 0.0680945 0.03847646 -0.038181946 0.03865064 0.06956799
-0.025210017 -0.05642608 -0.06039008 0.05529865 -0.009987886 -0.06877815 -0.01080522 0.05570051
