checkpoints/model_D_epoch_29.pth (torch, 552117 bytes, 26 tensors)

encoder.node_embedding.weight f4 [1, 128]
0	0x3fe9a01c	1.8251987
1	0x3fb152a1	1.3853341
2	0x3f5838f2	0.8446189
3	0xc0002459	-2.0022185
4	0x3f1f3f34	0.62205815
5	0xbf93ef16	-1.1557338
6	0xbc4b3c2e	-0.012404485
7	0xbfc38534	-1.5275025
8	0xbf29b0f7	-0.6628565
9	0x3fc593a6	1.5435684
10	0xbeb09df9	-0.34495524
11	0xbfa90f30	-1.320776
12	0xbf30b1ce	-0.6902131
13	0xbf006404	-0.5015261
14	0xbf323c30	-0.6962309
15	0x3f31cbfc	0.6945188
16	0x3fc415c4	1.5319142
17	0xbe02fead	-0.12792464
18	0xbedddd5d	-0.4333295
19	0x3ec0cb7e	0.37655252
20	0xbf3361ca	-0.7007109
21	0x3f7dcbc3	0.9913904
22	0x3f3a5384	0.72783685
23	0x3fcb1ec2	1.5868762
24	0x3f98dfb8	1.1943274
25	0x3f9b54d4	1.2135262
26	0x3f118bb0	0.5685377
27	0x3f9efe5b	1.2421373
28	0xbe39dd57	-0.1815084
29	0x3c60c71c	0.013719346
30	0xbe55fec4	-0.20897967
31	0x3f4e0782	0.80480206
32	0xbfa5d277	-1.2954854
33	0xbf4b8c79	-0.7951122
34	0xbe324061	-0.17407371
35	0x3fd27aad	1.6443688
36	0x3e95a5e3	0.29228124
37	0xbeb81b8f	-0.35958526
38	0x3e84d1f9	0.25941446
39	0xbf38269b	-0.7193391
40	0xbfbd6d89	-1.4799052
41	0x3f693ce8	0.9110856
42	0xbf522d11	-0.82100016
43	0xbf0bc3c9	-0.5459562
44	0xbf98fc8e	-1.1952074
45	0x400193c8	2.0246449
46	0xbf91b7ee	-1.1384256
47	0xbed4bc45	-0.41549888
48	0xbf5bde91	-0.85886484
49	0xbf185538	-0.59505033
50	0x3d3a5ecb	0.045500558
51	0x3ef19dca	0.47190696
52	0xbedd67ec	-0.4324335
53	0x3f8d3017	1.1030301
54	0xbf3c8ca9	-0.7365213
55	0xbf2d6341	-0.67729574
56	0xbfa5cf31	-1.2953855
57	0xb81c1bbc	-3.7219128e-05
58	0xbc7491db	-0.014927353
59	0x3f20eb13	0.62858695
60	0xbd64761a	-0.055776693
61	0x3fdd6cf1	1.7298871
62	0xbf8e3bc5	-1.111199
63	0x3faa693e	1.3313367
64	0x3faf0ca6	1.3675735
65	0x3f4e6201	0.8061829
66	0x4007058d	2.1097138
67	0x3ef296c7	0.4738066
68	0x3e8fdb70	0.28097105
69	0xbe088278	-0.1333102
70	0xbf794998	-0.9737792
71	0x3f99534a	1.1978543
72	0xbe015ad3	-0.12632303
73	0x3efb33f8	0.49063087
74	0x3c1870ce	0.0093042385
75	0x3ebc95ba	0.36832982
76	0x3f054816	0.5206312
77	0xbf15e6df	-0.58555406
78	0xc005d519	-2.0911314
79	0xbf2de8c8	-0.6793332
80	0xb8e1b6c7	-0.00010762881
81	0xbe92370d	-0.28557625
82	0xbfa12bb9	-1.2591468
83	0xbf06f0b6	-0.52711046
84	0x3efd2810	0.49444628
85	0x3ef187d6	0.47173947
86	0x3f8922f0	1.0713787
87	0x3cb4309f	0.02199584
88	0x3f2dd399	0.67901
89	0xbedaa007	-0.42700216
90	0xbf778e6c	-0.96701694
91	0x3f094da7	0.53634113
92	0xbfd00244	-1.6250691
93	0xbf457970	-0.77138424
94	0x3fa18366	1.2618225
95	0x3ed5ecca	0.41782218
96	0xc0183070	-2.3779564
97	0x3ee0ed2c	0.43930948
98	0x3f3c3167	0.7351288
99	0xb9477d2d	-0.0001902475
100	0x3f168364	0.58794236
101	0x3f07acbd	0.5299795
102	0x3f7f4894	0.9972012
103	0xbec8c22d	-0.39210644
104	0xbe148ed4	-0.1450761
105	0x3f300447	0.68756527
106	0x3eb92606	0.36161822
107	0x3dfb2aaa	0.12263997
108	0x3e546e37	0.20745169
109	0x3f9a4abc	1.2054057
110	0x39d541c0	0.00040675513
111	0xbe860f47	-0.2618353
112	0xbfafcf25	-1.373509
113	0xbd937cc0	-0.072015285
114	0xbf0c92ee	-0.54911697
115	0x3edc49b4	0.4302498
116	0x3f29e431	0.6636382
117	0x3d66f6e0	0.056387782
118	0xbea6239a	-0.32449037
119	0x3ef12ae3	0.47103032
120	0x39d689f4	0.00040920044
121	0x3e47fca2	0.19529966
122	0x3db0ef7c	0.08639428
123	0x3f393744	0.72349954
124	0x3f83cd3e	1.029701
125	0x3e9176e9	0.28411034
126	0x3f282318	0.6567855
127	0x3ebdd24d	0.3707451

encoder.convs.0.node_mlp.weight f4 [128, 256]
0	0x3d59fa51	0.053217236
1	0xbc1517ee	-0.009099944
2	0x3d5fae61	0.05460966
3	0x3c822d9c	0.015890889
4	0xbd44c402	-0.04803849
5	0x3d1ebec0	0.038756132
6	0xbc9b4b1e	-0.018956717
7	0xbcd3f3a6	-0.025873017
8	0xbd57f07d	-0.052719582
9	0xbd692d7f	-0.056928154
10	0x3c6a73d2	0.01430984
11	0xbc82d54c	-0.015970849
12	0x3ca80b90	0.020513326
13	0xbd559349	-0.052142415
14	0x3d2b5fe5	0.0418395
15	0xbd28ee85	-0.041243095
16	0xbbf7b6f4	-0.0075596515
17	0x3c1ed054	0.009693224
18	0x3ce6d417	0.028177304
19	0x3d522da5	0.05131306
20	0x3d54a8a1	0.05191863
21	0xbd379aec	-0.04482548
22	0x3c932327	0.017961098
23	0xbcbcb31e	-0.023034628
24	0xbb75938f	-0.0037471985
25	0xbd2ca956	-0.04215368
26	0x3d6c4ae0	0.057688594
27	0xbd293944	-0.04131438
28	0x3cf07a8e	0.029355314
29	0x3cc223ca	0.023698706
30	0x3c891cdf	0.0167374
31	0xbcf2f0fe	-0.02965593
32	0x3d54412e	0.051819973
33	0x3c2991a8	0.010349669
34	0x3ba11b6d	0.0049165995
35	0xbd4d4de0	-0.050123096
36	0x3ce70e0b	0.028204938
37	0xbc42ddb6	-0.01189368
38	0xbcca0777	-0.024661763
39	0x3d47adf8	0.048749894
40	0x3c2cdce3	0.01055071
41	0xbcf8f896	-0.030391973
42	0xbd085f1a	-0.03329382
43	0xbbbb46cc	-0.0057152268
44	0x3cfb9552	0.03071085
45	0xbc4d4b58	-0.01253017
46	0xbd17fbcf	-0.037105378
47	0xbcbfc3a9	-0.023408728
48	0xbd43b843	-0.047783148
49	0x3c98317c	0.018578283
50	0x3d4938f7	0.04912659
51	0xbd5bfbe8	-0.053707033
52	0x3c372ce1	0.011180134
53	0x3d0ac458	0.033878654
54	0x3c0366e2	0.008020135
55	0xbcc6f452	-0.024286423
56	0x3ce9cc71	0.028539868
57	0x3d258194	0.04040678
58	0x3ca7acc1	0.020468118
59	0xbbfb41c7	-0.0076677534
60	0xbc993cf9	-0.018705832
61	0x3c17aaeb	0.009257059
62	0xbc5cd04a	-0.013477394
63	0xbc76aa62	-0.015055271
64	0x3d28e94f	0.041238125
65	0x3d5f7367	0.054553416
66	0xbb4d332c	-0.0031311018
67	0xbc2d4289	-0.010574945
68	0x3b74bcee	0.0037344056
69	0xbbcbacbf	-0.0062156613
70	0x3c3e187b	0.011602516
71	0x3ca1429d	0.019685084
72	0xbd6ae90f	-0.05735117
73	0xbc9dc364	-0.019258209
74	0x3d547124	0.05186571
75	0x3cd768a5	0.026295016
76	0xb8c01d04	-9.160678e-05
77	0xbd202b42	-0.039103754
78	0xbd223f70	-0.03961128
79	0xbd682b03	-0.056681644
80	0xbca44993	-0.020054614
81	0x3c8ed77d	0.017436737
82	0x3d1155db	0.03548227
83	0x3ccc0d52	0.024908695
84	0xbd4da1f1	-0.050203267
85	0xbd0827c9	-0.033241067
86	0xbbd8975d	-0.006609841
87	0x3d77753f	0.06041455
88	0x3c3d77d8	0.0115642175
89	0xbc96eb6b	-0.018422803
90	0x3cb4529a	0.022012044
91	0xbca3e8db	-0.020008495
92	0xbd2ade2e	-0.041715793
93	0x3d27faf9	0.04101083
94	0xbcc88506	-0.024477493
95	0xbc169f4c	-0.009193253
96	0xbd802167	-0.06256371
97	0x3d308acc	0.043101117
98	0x3d463fd8	0.04840073
99	0x3c721fd7	0.014778099
100	0xbd1fdf00	-0.03903103
101	0xbd670fdd	-0.056411613
102	0xbd3c4318	-0.045962423
103	0x3d2bc7dc	0.041938648
104	0x3cd60509	0.026125448
105	0x3d5af9d4	0.05346091
106	0x3d0d0494	0.034428194
107	0x3c91962d	0.017771805
108	0x3b0c02ea	0.0021364042
109	0xbd2fa272	-0.04287953
110	0xbd71ad42	-0.059003122
111	0xbd71f64e	-0.059072785
112	0x3cb240e0	0.02175945
113	0xbd0563f3	-0.032566022
114	0xbc755690	-0.014974251
115	0xbd01c6f5	-0.03168388
116	0xbc04787a	-0.0080853645
117	0xbd2200c8	-0.039551526
118	0xbd2c3bab	-0.04204909
119	0x3cbb3e5c	0.022856884
120	0xbccc7e1d	-0.02496248
121	0x3d238bab	0.03992812
122	0xbc86fa6b	-0.01647683
123	0xbd28c2b0	-0.041201293
124	0xbbfe4c60	-0.0077605695
125	0xbcd6e081	-0.026230099
126	0xbc7e1fc9	-0.015510508
127	0xbd5e6866	-0.05429878
128	0x3d8209c5	0.0634952
129	0xbd5faece	-0.054610066
130	0x3ccb4709	0.024814146
131	0x3d58bbc6	0.05291345
132	0xbcc63405	-0.024194727
133	0xbcccb789	-0.02498986
134	0x3ce555f1	0.027995082
135	0x3af42444	0.0018626531
136	0xbca77455	-0.020441214
137	0x3d774998	0.06037292
138	0xbc77c43d	-0.01512247
139	0xbc755d19	-0.0149758095
140	0xbaaff9db	-0.0013425903
141	0xbd0c9b5f	-0.03432786
142	0x3d9769ea	0.073932484
143	0xbd6c8542	-0.057744272
144	0x3d1cd0bc	0.038285002
145	0x3df3fd3d	0.11913536
146	0xbcb7b895	-0.022426883
147	0xbc9f83b8	-0.019471988
148	0xbd8ddcc4	-0.06926873
149	0x3c8755bd	0.016520375
150	0x3c2f1dfe	0.010688303
151	0xbd494ac2	-0.04914356
152	0x3c8a6cd0	0.016897589
153	0xbdbb0734	-0.09132233
154	0xbd9ffcb7	-0.078118734
155	0xbce8eed3	-0.028434193
156	0xbc11a57e	-0.008889554
157	0xbd6713be	-0.056415312
158	0xbdccc8b8	-0.099992216
159	0xbc162bbd	-0.009165701
160	0x3d491ed8	0.04910168
161	0x3bdc8869	0.0067301285
162	0xbd801b9f	-0.06255268
163	0xbdb1990b	-0.08671769
164	0xbcf0f506	-0.029413711
165	0xbd0a9769	-0.033835802
166	0x3d83a5af	0.06428086
167	0xbd01b7da	-0.031669475
168	0xbdcb41db	-0.0992467
169	0xbd872907	-0.06599622
170	0x3cf480a5	0.029846499
171	0x3b847b14	0.0040429924
172	0xbc3ef927	-0.011656082
173	0xbcff27f5	-0.031146983
174	0xbdd9d6d8	-0.10636681
175	0xbd2f6765	-0.042823214
176	0xbda37cdf	-0.07982802
177	0x3c8d1905	0.017223844
178	0xbd66ed61	-0.056378726
179	0xbbf8e80d	-0.007596022
180	0x3c7bbd58	0.015364967
181	0x3c7f346a	0.015576461
182	0x3d5e9e5f	0.054350253
183	0x3d6640f5	0.05621429
184	0xbe085ad5	-0.133159
185	0x3d49c7d8	0.04926285
186	0x3dd3a6f3	0.103345774
187	0xbcc25cf9	-0.023725973
188	0x3cc6f1e5	0.024285266
189	0x3d90d3b3	0.070716284
190	0x3c21b134	0.009868909
191	0xbd2100a8	-0.039307266
192	0x3d91a13c	0.07110831
193	0xbd0bb4b8	-0.034107894
194	0x3d180d9f	0.037122365
195	0x3e02aee9	0.12762035
196	0xbd4411d2	-0.047868557
197	0xbd3dc834	-0.046333507
198	0xbda527dc	-0.08064243
199	0xbd54116d	-0.05177443
200	0xbcc7cd9d	-0.024390036
201	0xba94392f	-0.0011308546
202	0x3dff4867	0.124649815
203	0xbd008e7d	-0.031385887
204	0xbd9a9a10	-0.07548916
205	0xbd1740eb	-0.036927145
206	0x3d93c283	0.072148345
207	0xbe142641	-0.14467718
208	0x3ceacc9b	0.028662017
209	0x3c6f1b3b	0.014593895
210	0x3ca5ed98	0.020254895
211	0x3cc7f771	0.024409981
212	0x3dae16bb	0.08500429
213	0xbd230cd9	-0.039807174
214	0xbca7ae87	-0.020468963
215	0x3d735b51	0.059413258
216	0xbd2f3788	-0.042777568
217	0xbd414d2d	-0.04719274
218	0x3d2eb53a	0.0426533
219	0xbd6c92dd	-0.057757247
220	0xbb1e2fa1	-0.0024137276
221	0x3ce2181c	0.027599387
222	0x39ae1128	0.0003320065
223	0x3d1e7559	0.03868613
224	0xbcf4069b	-0.029788306
225	0x3d421255	0.047380764
226	0xbd956295	-0.07294194
227	0x3d8193a4	0.06326988
228	0xbc2ec922	-0.010668071
229	0xbc0e1d1b	-0.0086739315
230	0x3d12af5c	0.035811767
231	0x3d84d758	0.06486386
232	0xbd9b5ea6	-0.07586412
233	0x3baf9455	0.0053582587
234	0xbcbca845	-0.023029456
235	0xbbf7cb7c	-0.007562099
236	0xbbb644fb	-0.0055624223
237	0x39f0682d	0.00045853984
238	0x3be7572a	0.0070599513
239	0xbd96b65d	-0.07359002
240	0xbda936f6	-0.08262436
241	0x3d48060f	0.048833903
242	0x3d94f569	0.07273371
243	0x3d29fbce	0.041499905
244	0xbdc4ce31	-0.096096404
245	0xbc989fb3	-0.018630838
246	0xbbc0dfe5	-0.0058860653
247	0xbd182709	-0.0371466
248	0x3c696401	0.014245034
249	0x3d14171d	0.036154855
250	0x3d6c06e8	0.057623774
251	0xbd732a2e	-0.059366398
252	0xbcfd2d78	-0.03090547
253	0xbcfb2096	-0.030655187
254	0x3d839219	0.0642435
255	0x3de90e7e	0.11379717

encoder.convs.0.node_mlp.bias f4 [128]
0	0xbd357669	-0.044302378
1	0x3c752fb4	0.014964987
2	0x3b89b605	0.0042026066
3	0x3d49c4e6	0.049260043
4	0x3d0c8fcc	0.034316823
5	0xbcb9f215	-0.022698442
6	0xb9f64bfb	-0.00046977386
7	0xbd316395	-0.04330786
8	0x3b9d50c9	0.00480089
9	0xbb67f363	-0.0035392873
10	0x3d6b311b	0.057419877
11	0x3d7a5250	0.061113656
12	0xbd17d83e	-0.03707146
13	0x3d6cefcf	0.057845887
14	0xbd56ef51	-0.052474324
15	0x3cba1dd4	0.022719301
16	0x3cdad910	0.026714832
17	0x3cf97923	0.03045327
18	0x3d1de7af	0.03855103
19	0xbc720553	-0.014771777
20	0x3d35ffe4	0.04443349
21	0x3b9580f5	0.004562492
22	0x3c12557e	0.008931516
23	0xbc294522	-0.010331424
24	0xbd348a62	-0.044077285
25	0xbc298989	-0.010347732
26	0xb9ddad80	-0.00042281672
27	0x3beedf0f	0.0072897743
28	0xbb50182b	-0.0031752686
29	0x3c4236ea	0.011853913
30	0x3b22162e	0.0024732458
31	0xbd18df65	-0.03732242
32	0xbb7943bb	-0.0038034755
33	0xbd413f1f	-0.047179338
34	0x3ba24c47	0.0049529406
35	0x3d23264a	0.039831437
36	0xbcbb5ae3	-0.022870487
37	0x3d0a6ca6	0.03379502
38	0xbcb8c225	-0.022553513
39	0xbcbb8f11	-0.022895368
40	0x3cdb6603	0.026782041
41	0xbd691fae	-0.056914978
42	0x3d0e1ad4	0.034693554
43	0x3d135e9f	0.03597891
44	0x3c97b8b4	0.01852069
45	0xbbc07528	-0.005873341
46	0xbcc83773	-0.024440503
47	0xbd005fcf	-0.03134137
48	0x3d47686d	0.048683573
49	0x3cab4d03	0.020910745
50	0x3ce35ee3	0.027755206
51	0xbd0c16fd	-0.03420161
52	0x3d28ab08	0.041178733
53	0xbd09c3b3	-0.0336339
54	0x3d2ee9bf	0.042703386
55	0x3d3ee515	0.04660519
56	0xbd46436d	-0.048404146
57	0xbd77fb33	-0.060542297
58	0xbd7fe56c	-0.062474653
59	0xbd13baa7	-0.036066677
60	0x3c9b0c9f	0.018926917
61	0xbd2eb7e6	-0.042655848
62	0x3d2dd62b	0.042440575
63	0xbd1b0192	-0.037843294
64	0xbc77a623	-0.015115294
65	0x3c3ab799	0.011396312
66	0xbd206e7b	-0.039167862
67	0xbb971ac9	-0.0046113473
68	0xbd7ab21d	-0.06120502
69	0xbd718e8d	-0.058973838
70	0x3b48288e	0.003054175
71	0xbce7a039	-0.028274642
72	0x3d430705	0.047614116
73	0xbd0cd1a6	-0.034379624
74	0x3cee8503	0.02911616
75	0x3d1f8a39	0.03895018
76	0xbc9258f8	-0.01786469
77	0xbc87fa82	-0.016598944
78	0x3cf250ee	0.029579606
79	0xbcc5bf49	-0.024139063
80	0x3c98f080	0.018669367
81	0xbceb4943	-0.028721457
82	0xbc2ca93e	-0.010538397
83	0xbd3cadc5	-0.046064157
84	0x3d6eec01	0.05833054
85	0xbd629537	-0.055318084
86	0xbc22ba72	-0.009932147
87	0x3d0c6c83	0.034283172
88	0xbd1c76e2	-0.038199313
89	0x3b8d3219	0.0043089506
90	0x3d816fa9	0.063201256
91	0x3c8a33d2	0.016870413
92	0x3d1f4423	0.03888334
93	0xbd7b1259	-0.061296795
94	0x3d13e13a	0.036103465
95	0xb8721c8c	-5.7723882e-05
96	0x3a37a89b	0.000700602
97	0xbcacbadc	-0.021085195
98	0xbc706c91	-0.014674322
99	0x3ce7493e	0.028233167
100	0x3d19e539	0.03757212
101	0xbd3d446a	-0.046207823
102	0x3d1ac073	0.03778119
103	0x3d692d6f	0.056928094
104	0xbcab3f6d	-0.020904267
105	0x3bfeeac8	0.007779453
106	0x3c7395a1	0.014867217
107	0xbd523935	-0.051324088
108	0x3ca0dbca	0.019636054
109	0x3d524de2	0.051343806
110	0xbc88a438	-0.016679868
111	0xbd247460	-0.040150046
112	0xbd0d92b7	-0.034563746
113	0x3d054c12	0.03254325
114	0xbbbf075a	-0.005829734
115	0xbc123cd7	-0.008925638
116	0x3cb40233	0.021973705
117	0x3cdd238b	0.026994487
118	0x3cf29e5c	0.029616527
119	0xbb151ba9	-0.0022752082
120	0xbd75ca42	-0.06000734
121	0x3d1dfb43	0.0385697
122	0x3d16e0d4	0.036835507
123	0x3c13effa	0.009029383
124	0xbd10d685	-0.03536083
125	0xbc9f0131	-0.019409748
126	0x3cd6a963	0.026203817
127	0x3d4ab536	0.049489222

encoder.convs.0.edge_mlp.0.weight f4 [128, 7]
0	0xbed98519	-0.42484358
1	0x3e49cf79	0.19708051
2	0x3dc6a6e4	0.096998006
3	0x3e0a376a	0.13497701
4	0xbd568ee2	-0.052382357
5	0x3d311e29	0.043241654
6	0xbe99e76f	-0.30059382
7	0xbd72fbed	-0.059322286
8	0xbea764ce	-0.32694095
9	0x3ec34f9b	0.38146672
10	0x3e0d2481	0.13783456
11	0x3dfa3955	0.122179665
12	0xbe885c3a	-0.26632863
13	0xbe0dfd9b	-0.13866274
14	0xba0fbf14	-0.000548349
15	0xbdbd80bc	-0.0925307
16	0xbc018d1f	-0.007907181
17	0x3bedf9af	0.0072624306
18	0xbcfdfac1	-0.031003358
19	0xbe91e827	-0.2849743
20	0x3ed3f1e6	0.4139549
21	0xbe34c731	-0.1765411
22	0xbdb4ec4e	-0.08834134
23	0xbe413165	-0.18866499
24	0x3ebc923a	0.36830312
25	0xbdd91ba3	-0.106009744
26	0x3e4ae410	0.19813561
27	0x3e0fe4be	0.14052102
28	0xbc9b26cb	-0.018939396
29	0xbc671aab	-0.014105479
30	0xbe0f9cb1	-0.14024617
31	0xbe97a2bd	-0.29616347
32	0x3e990e74	0.2989384
33	0x3e8999ed	0.2687525
34	0xbeea1b35	-0.45723882
35	0xbdcf6171	-0.10126007
36	0xbe876eb2	-0.2645164
37	0xbebd975a	-0.37029535
38	0x3d6239ab	0.055230778
39	0xbda93acb	-0.08263167
40	0x3eb389c9	0.3506606
41	0x3e77b24c	0.24189109
42	0xbeca00b0	-0.3945365
43	0x3ec6cf40	0.38829994
44	0x3e8daaec	0.27669466
45	0x3e9b7c46	0.3036825
46	0xbdb4b72b	-0.08823999
47	0x39ceeb91	0.00039466892
48	0xbe8e3a41	-0.2777882
49	0xbe2d0967	-0.16898118
50	0x3e750eca	0.23931423
51	0x3eb7a4f1	0.35868028
52	0xbed0a65b	-0.4075192
53	0x3e017fd1	0.12646414
54	0xbe0cf4e0	-0.13765287
55	0xbe95c1e3	-0.29249486
56	0x3e7723c2	0.24134734
57	0x3e858abd	0.2608241
58	0xbe3c6cb1	-0.18400837
59	0x3eb95791	0.3619962
60	0xbe3db8ac	-0.18527478
61	0x3e690743	0.22756676
62	0x3e72b5d7	0.23702179
63	0xbe1b7c96	-0.15184245
64	0x3ef7966c	0.4835695
65	0xbe3a9e90	-0.1822455
66	0xbe1ecf13	-0.1550868
67	0x3ea46d33	0.32114562
68	0x3ec365e9	0.3816369
69	0xbea31c1c	-0.31857383
70	0x3ed40123	0.41407117
71	0xbee03f68	-0.43798375
72	0x3e3b5ac9	0.1829635
73	0xbe87d100	-0.26526642
74	0xbce4258e	-0.027849939
75	0xbeb78ec5	-0.35851112
76	0x3e94d6c0	0.2907009
77	0xbe3ce6d6	-0.18447432
78	0xbed5cd6b	-0.41758284
79	0xbe5b74d2	-0.21431282
80	0x3e6d63a3	0.2318254
81	0x3dedb75a	0.11607237
82	0x3e6f6749	0.23379244
83	0x3e8c5ee7	0.27416155
84	0xbe44dabb	-0.19224064
85	0x3e9cde3a	0.30638295
86	0xbe909075	-0.28235212
87	0xbef85fa7	-0.48510477
88	0x3df82e38	0.121181905
89	0xbecd8dab	-0.40147147
90	0x3db95abf	0.090505116
91	0x3e12140c	0.1426546
92	0x3e9a9e4b	0.30198893
93	0x3eb650c1	0.35608485
94	0x3dbd044f	0.092293374
95	0x3c89e61a	0.016833354
96	0xbe72f131	-0.2372482
97	0xbe6e7df2	-0.23290232
98	0xbdc1095f	-0.094256155
99	0x3db819ec	0.08989319
100	0xbe5db8f9	-0.21652593
101	0xbe32aa92	-0.1744788
102	0xbe093c83	-0.1340199
103	0xbd1a45d1	-0.03766424
104	0xbe2a779c	-0.1664719
105	0x3e95746a	0.2919038
106	0x3e8dd0e2	0.27698427
107	0x3ea26fc7	0.31725904
108	0xbe930252	-0.28712708
109	0x3df6ee52	0.12057175
110	0x3e074e1a	0.13213387
111	0x3e7dbd11	0.24779154
112	0xbef40654	-0.47661078
113	0xbe8b405b	-0.27197537
114	0xbd86d600	-0.06583786
115	0xbe499531	-0.19685818
116	0xbe9382d6	-0.28810757
117	0x3b9e5f5f	0.0048331465
118	0x3e7ba086	0.24572954
119	0xbedee674	-0.43535197
120	0xbe1f45df	-0.15553997
121	0xbeb58624	-0.35453904
122	0x3d910073	0.07080164
123	0x3dd65d11	0.1046697
124	0xbebb835a	-0.3662365
125	0x3da1c0a9	0.07898075
126	0xbe1f17aa	-0.15536371
127	0xbe5342a2	-0.20630887
128	0xbe91b827	-0.2846081
129	0x3c8f7a4b	0.017514369
130	0x3e4cb73d	0.19991775
131	0xbe6512f4	-0.22370511
132	0xbe0253a7	-0.12727223
133	0xbeaef73e	-0.34173006
134	0xbdef4b37	-0.11684268
135	0x3e9bb86d	0.30414143
136	0x3e51b371	0.20478608
137	0xbe6942c4	-0.22779375
138	0x3ec365d9	0.3816364
139	0x3e018d69	0.126516
140	0x3e2d52d8	0.16926134
141	0xbe364a07	-0.17801677
142	0x3cd5e5a0	0.02611047
143	0x3ea60cf8	0.3243177
144	0x3e889ffe	0.26684564
145	0x3e1d99ea	0.15390745
146	0xbe8c479c	-0.27398384
147	0xbd81b26e	-0.06332861
148	0x3e7f4dfa	0.2493209
149	0x3e4b6f76	0.19866738
150	0xbdca5288	-0.09879023
151	0xbe1500bb	-0.1455106
152	0xbe9fe119	-0.31226423
153	0xbe9189e1	-0.28425506
154	0xbdf1b339	-0.11801762
155	0x3db98d36	0.09060137
156	0xbe4b8ca5	-0.1987787
157	0x3e235a01	0.15952303
158	0xbe90d031	-0.28283837
159	0xbc8a03e1	-0.016847553
160	0xbe55247c	-0.20814699
161	0xbe4584d5	-0.19288953
162	0x3e588cd7	0.21147476
163	0x3de33523	0.110941194
164	0x3ea985a9	0.33109787
165	0x3de3ecc0	0.11129141
166	0xba424f30	-0.00074123126
167	0x3e955356	0.29165143
168	0xbe939f1a	-0.28832322
169	0x3ee301f2	0.44337422
170	0x3d5fafd3	0.05461104
171	0x3c5ea0ba	0.013588125
172	0xbe7a1033	-0.24420242
173	0xbb095e35	-0.0020960693
174	0xbe61b7db	-0.22042792
175	0x3e71eea6	0.23626193
176	0x3dadf279	0.084935136
177	0xbd64849c	-0.05579053
178	0x3eb85fc8	0.36010575
179	0xbcdc747f	-0.026911018
180	0xbec0fdbe	-0.3769359
181	0x3dad225f	0.084538214
182	0x3d2e3f67	0.042540934
183	0xbe95b172	-0.29236943
184	0xbea953d4	-0.33071768
185	0xbec811b7	-0.39076015
186	0xbeb1879f	-0.34673783
187	0xbd5b3f51	-0.05352718
188	0xbe9cb637	-0.3060777
189	0xbeaf1a85	-0.3419992
190	0x3e1ffda7	0.15624104
191	0xbe9e6c78	-0.3094213
192	0x3af6ca5d	0.001882862
193	0x3de54584	0.111949
194	0x3e9fa8fe	0.31183618
195	0xba4d171f	-0.00078235747
196	0x3daacf6a	0.08340342
197	0x3f02ccec	0.51093936
198	0x3e267195	0.16254266
199	0x3ec01555	0.37516275
200	0xbd5ee986	-0.054421924
201	0x3eb497e1	0.35272124
202	0xbebb2b4f	-0.3655648
203	0x3e8c72d3	0.27431354
204	0x3dfa5b43	0.12224438
205	0x3c9b08e1	0.018925132
206	0x3ebe5690	0.37175417
207	0x3e56f2de	0.20991084
208	0x3e3ac837	0.18240438
209	0xbdb8f965	-0.09031943
210	0x3ed1b325	0.4095699
211	0xbd93276b	-0.07185253
212	0x3ab131ec	0.0013518906
213	0xbc16f50c	-0.009213697
214	0xbd56e53c	-0.05246471
215	0xbe82a8a4	-0.25519288
216	0x3e571190	0.21002793
217	0x3c9f1976	0.01942132
218	0xbda2a66a	-0.07941897
219	0x3dc6e353	0.097113274
220	0xbe263ea4	-0.16234833
221	0xbda2b3c6	-0.07944445
222	0xbe20ad4c	-0.15691108
223	0x3ba3c655	0.0049980083
224	0x3e027e04	0.12743384
225	0xbea79377	-0.32729694
226	0x3eb2ee7c	0.34947574
227	0xbe336a8a	-0.1752111
228	0x3e96b4e8	0.29434896
229	0x3e95aaae	0.2923178
230	0x3e1ec2ad	0.1550395
231	0x3ed01107	0.4063799
232	0xbf1f9f85	-0.6235278
233	0xbf052062	-0.5200254
234	0x3ba20bc4	0.00494525
235	0xbe161fbf	-0.14660548
236	0xbe30b95d	-0.1725821
237	0xbce0f100	-0.027458668
238	0xbe95709e	-0.29187483
239	0xbe3a8c5d	-0.18217607
240	0xbe0ad2f7	-0.13557039
241	0x3dd73529	0.10508186
242	0xbc3365ad	-0.010949534
243	0xbe8511ed	-0.2599024
244	0xbe34bf3e	-0.17651078
245	0xbbf2cf8a	-0.0074099945
246	0x3e99bfa3	0.3002902
247	0x3eba677f	0.36407086
248	0x3e0b2c8c	0.13591212
249	0xbc3a09e2	-0.011354895
250	0x39a55c1b	0.00031539876
251	0x3ea05941	0.31318095
252	0xbe9029e1	-0.2815695
253	0xbe491d11	-0.19639994
254	0x3dc6bf6e	0.09704481
255	0xbe8b6f09	-0.2723315

encoder.convs.0.edge_mlp.0.bias f4 [128]
0	0x3e2c25c9	0.16811289
1	0x3e0be46c	0.13661355
2	0xbe6e023c	-0.2324304
3	0x3d8f3b5a	0.06993742
4	0xbd009cce	-0.03139954
5	0x3e419c48	0.18907273
6	0xbd4edc17	-0.050502863
7	0xbe1bfe4c	-0.15233725
8	0x3e3fdce8	0.18736613
9	0xbdc5dd91	-0.09661401
10	0xbc939826	-0.018016886
11	0xbe13b9a1	-0.1442628
12	0x3e18a16b	0.14905326
13	0x3b9887d4	0.004654864
14	0x3e3b2c4c	0.18278617
15	0xbe62a6e2	-0.22133973
16	0xbc830195	-0.015991965
17	0x3ea63482	0.32461935
18	0xbe44c7d8	-0.1921686
19	0xbd91741d	-0.07102225
20	0xbd4575f0	-0.048208177
21	0x3e339d57	0.17540489
22	0xbe05f1ba	-0.13080493
23	0x3de57960	0.11204791
24	0xbd5bf499	-0.053700063
25	0x3d31dd58	0.04342398
26	0x3eaf6855	0.34259287
27	0x3e951e99	0.29124907
28	0xbdbe2d6a	-0.09286006
29	0xbe32be77	-0.17455469
30	0xbe7d8314	-0.24757034
31	0xbd2b5e34	-0.041837886
32	0xb96e3483	-0.00022717011
33	0x3d9d6421	0.07685114
34	0xbde40fed	-0.1113585
35	0x3e12979b	0.14315645
36	0x3d74407f	0.05963182
37	0x3da75431	0.08170355
38	0x3e9e74a2	0.3094836
39	0x3d2ac9e3	0.04169644
40	0x3c83c0b6	0.016083103
41	0xbdb2ba50	-0.087269425
42	0x3e667ac9	0.22507776
43	0xbe86521b	-0.26234517
44	0xbde1a979	-0.110186525
45	0x3d5b30d3	0.05351336
46	0x3e523267	0.2052704
47	0xbe9ae3b5	-0.30251852
48	0xbd16bff7	-0.036804166
49	0x3d834a5e	0.06410669
50	0x3e8884ff	0.26663968
51	0x3e2d7c80	0.16942024
52	0x3e8feb3d	0.2810916
53	0xbe04480b	-0.12918107
54	0xbea94f8f	-0.3306851
55	0x3d82fcc3	0.06395867
56	0x3e792eea	0.24334303
57	0x3d7251d8	0.059160084
58	0x3d7ab42c	0.06120698
59	0x3e93843f	0.28811833
60	0xbe898dec	-0.2686609
61	0x3de325d1	0.11091197
62	0x3e0ab846	0.13546857
63	0x3d3f9880	0.046776295
64	0xbda419a8	-0.08012706
65	0xbe46d3bc	-0.19416708
66	0x3e257b3b	0.1616029
67	0x3d90ae19	0.070644565
68	0x3dc463e3	0.095893644
69	0x3c39f551	0.011349992
70	0xbe948985	-0.2901117
71	0x3e256dca	0.16155162
72	0xbe24fd59	-0.1611227
73	0xbde256ec	-0.11051735
74	0xbe1d59a2	-0.15366223
75	0xbe9c1e5a	-0.30491906
76	0xbe7ff964	-0.24997479
77	0xbcab830a	-0.020936508
78	0xbeaa3a5d	-0.33247653
79	0x3e69186e	0.22763225
80	0xbe50c2fb	-0.20386879
81	0x3de41223	0.11136272
82	0x3d97f5d5	0.074199356
83	0xbe068662	-0.131372
84	0x3ddf8a33	0.10915031
85	0x3ea5e485	0.3240091
86	0xbe9df6e0	-0.30852413
87	0xbc8c1a03	-0.017102247
88	0x3e75a7fb	0.2398986
89	0x3ea3e592	0.32011086
90	0x3dfa1e3c	0.12212798
91	0x3eb1093c	0.34577358
92	0xbe196bca	-0.14982525
93	0x3ea2a4b9	0.31766298
94	0x3dace921	0.08442903
95	0xbe205943	-0.1565905
96	0x3e3fce21	0.18730976
97	0x3e855e62	0.2604857
98	0xbe924ea2	-0.28575617
99	0x3df9cb61	0.121969946
100	0x3e204a7c	0.15653414
101	0x3e7b3658	0.24532449
102	0xbe9bcd77	-0.30430195
103	0x3e4cf2e2	0.20014527
104	0x3ea5d275	0.32387128
105	0xbe1e6da7	-0.15471517
106	0x3e3d0838	0.18460166
107	0xbe913d8c	-0.2836727
108	0x3d814f82	0.06313993
109	0xbe204dc1	-0.15654661
110	0xbeabd5c0	-0.33561516
111	0x3e710f04	0.23540884
112	0x3e2e8aec	0.17045182
113	0x3e4a1d28	0.19737685
114	0x3e8a5226	0.270158
115	0xbde85a31	-0.11345328
116	0xbe800824	-0.2500621
117	0x3e7d55b1	0.2473972
118	0x3e916a2c	0.28401315
119	0xbe80ec35	-0.25180212
120	0xbe4a15ed	-0.19734927
121	0xbe82bba4	-0.25533783
122	0xbe11f914	-0.14255172
123	0x3e582a39	0.21109857
124	0xbe8895bd	-0.2667674
125	0x3db04db0	0.08608568
126	0x3d075e1e	0.03304874
127	0xbe554368	-0.20826495

encoder.convs.0.edge_mlp.2.weight f4 [128, 128]
0	0xbe2d59fe	-0.1692886
1	0x3d4dd7a6	0.050254487
2	0xbdbcb12c	-0.0921348
3	0xbd6eac77	-0.058269944
4	0x3c6bd04c	0.014392924
5	0xbd9ba10f	-0.07599079
6	0xbe0d888d	-0.13821621
7	0xbd3ea8f5	-0.04654785
8	0xbcc17b04	-0.023618229
9	0xbdf23422	-0.1182635
10	0xbdc19ae2	-0.0945337
11	0x3d4841f3	0.04889102
12	0xbd8ea20c	-0.06964502
13	0xbd477a10	-0.048700392
14	0x3db70ba2	0.08937766
15	0xbd068ab9	-0.03284714
16	0x3d1200b0	0.035645187
17	0xbd08dced	-0.033413816
18	0xbd0f6c76	-0.035015546
19	0xbd90b43d	-0.07065628
20	0x3d77aaa5	0.060465474
21	0xbdb4c4d9	-0.08826608
22	0xbd88016e	-0.06640898
23	0xbcd39fb8	-0.025832996
24	0x3d04b6f9	0.03240106
25	0x3df73d1f	0.12072205
26	0xbd28d65d	-0.041220058
27	0x3d12be1e	0.03582584
28	0xbe2b60c0	-0.16736126
29	0x3c37ff04	0.011230234
30	0xbd8f37d3	-0.069930695
31	0xbd86fe57	-0.0659148
32	0xbc442a78	-0.011973016
33	0xbc6960ed	-0.0142443
34	0x3db25e35	0.08709375
35	0xbd50066e	-0.05078738
36	0xbdc00a4c	-0.09376964
37	0xbbda864c	-0.0066688415
38	0x3d9d9bbf	0.07695722
39	0x3de90a91	0.113789685
40	0xbc3edd4f	-0.011649444
41	0xbce27923	-0.027645653
42	0x3d2d34be	0.042286627
43	0xbcbd8658	-0.02313535
44	0xbdb3214b	-0.087465845
45	0xbd9e176e	-0.077193126
46	0xbd876453	-0.06610932
47	0xbc90dc53	-0.017683184
48	0x3d279dd1	0.04092199
49	0x3d84a05e	0.064759
50	0xbd36da74	-0.044641927
51	0x3ccdf37c	0.025140516
52	0x3b570b66	0.003281319
53	0xbe381c3d	-0.17979522
54	0xb9bbc0a2	-0.00035810942
55	0xbcb5c3c7	-0.02218808
56	0xbd929a97	-0.07158392
57	0x3d9804bb	0.07422777
58	0x3de7aa00	0.11311722
59	0xb9aa7857	-0.00032514587
60	0xbd1dcbfe	-0.03852462
61	0xbd134b1a	-0.035960294
62	0x3d5b5c43	0.053554785
63	0xbd8e579e	-0.069503054
64	0xbd9d3677	-0.07676404
65	0x3d96b9d4	0.07359663
66	0x3d23323b	0.039842825
67	0xbd4ca5e4	-0.049962893
68	0xbdb22124	-0.08697727
69	0x3ccdf354	0.025140442
70	0x3dd83b0f	0.105581395
71	0xbd88c255	-0.06677691
72	0xbd26f3dc	-0.040759906
73	0xbe1048e6	-0.14090309
74	0x3c528adf	0.012850492
75	0x3e10b8a5	0.14132936
76	0xbd82addd	-0.06380818
77	0xbe330c09	-0.1748506
78	0x3d60bbb6	0.054866515
79	0x3cbd1775	0.023082474
80	0x3d2ada98	0.041712373
81	0x3d5b6da5	0.053571362
82	0x3d877d01	0.066156395
83	0x3d2a6492	0.041599818
84	0x3db45f77	0.08807271
85	0xbd0e5305	-0.034747142
86	0xbd7bd3e5	-0.061481375
87	0x3d77354b	0.06035356
88	0x3c596627	0.013268984
89	0xbdc5e6d6	-0.09663169
90	0x3d1cdedd	0.038298476
91	0xbd19ef6a	-0.03758184
92	0xbd6e3e00	-0.058164597
93	0x3df23d86	0.11828141
94	0x3dcf0a8e	0.10109435
95	0xbdaeafd0	-0.08529627
96	0x3d4fe210	0.0507527
97	0x3c8aec33	0.016958332
98	0x3c5181b2	0.012787269
99	0xbdd03a80	-0.10167408
100	0x3da20f7c	0.0791311
101	0xbdc1ff75	-0.09472553
102	0x3c47296f	0.012155875
103	0xbd7e9817	-0.062156763
104	0x3d469566	0.04848232
105	0xbd7ca538	-0.061681002
106	0x3cb4b7fb	0.022060385
107	0xbd86c27b	-0.06580063
108	0xbd1201d4	-0.035646275
109	0x3e391022	0.1807256
110	0x3b96c5b6	0.0046012057
111	0x3dfa5e4d	0.12225018
112	0xbd09db6e	-0.03365653
113	0x3d78292c	0.06058614
114	0x3c6d341f	0.014477759
115	0x3c2c3d0f	0.010512604
116	0xbd10fd75	-0.035397965
117	0xbd8a511e	-0.06753753
118	0xbbcb9c36	-0.00621369
119	0xbd9dc7e7	-0.07704144
120	0x3d6d58d9	0.05794606
121	0xbd4e77f4	-0.050407365
122	0x3d2afdc1	0.041745905
123	0x3d84d4f1	0.06485928
124	0xbcf5c748	-0.030002251
125	0xbd092658	-0.033483833
126	0x3d5c0e83	0.053724777
127	0xbd6c974a	-0.057761468
128	0x3d2c8ae0	0.04212463
129	0xbc7c71b6	-0.01540797
130	0x3e4d2f27	0.20037518
131	0xbad30eb5	-0.0016102405
132	0x3e159097	0.14605938
133	0x3d60a537	0.05484506
134	0x3e0d6e77	0.1381167
135	0x3c512ade	0.012766568
136	0xbcbca75c	-0.023029022
137	0x3dabcfda	0.08389254
138	0x3ddc9094	0.107697636
139	0x3d51e23e	0.051241152
140	0x3c9c8e83	0.019110924
141	0xbc2de9bd	-0.01061481
142	0xbdf7f18e	-0.1210662
143	0x3d5de80b	0.05417637
144	0xbd2ebee6	-0.042662524
145	0xbd8ef050	-0.0697943
146	0xbd505915	-0.050866205
147	0x3e31fbe5	0.17381246
148	0xbd2a2d48	-0.04154709
149	0x3d846b67	0.06465798
150	0xbd85ff39	-0.065428205
151	0xbc55fb42	-0.013060393
152	0x3d7884cb	0.060673516
153	0x3da9e726	0.08296041
154	0xbd55bb4f	-0.052180585
155	0xbd8303a3	-0.06397178
156	0x3dca4e18	0.098781765
157	0xbe1938ac	-0.14963025
158	0x3d869468	0.06571275
159	0x3d360ff5	0.04444881
160	0x3d532119	0.051545236
161	0x3c4df3ec	0.012570363
162	0x3d1cfe3e	0.0383284
163	0x3d366ce9	0.04453746
164	0x3e429b14	0.1900447
165	0x3db06d6c	0.086146206
166	0x3d1a81ac	0.03772132
167	0x3dbb5752	0.091475144
168	0xbd8bf35f	-0.06833529
169	0xbd8d16fe	-0.06889151
170	0xbd614f4a	-0.055007257
171	0xbc81b0db	-0.015831402
172	0x3d52632f	0.05136412
173	0x3d963082	0.07333471
174	0xbdaf3df9	-0.08556742
175	0xbbc268b8	-0.0059328936
176	0xbd10a280	-0.035311222
177	0x3bcbc9f3	0.0062191426
178	0x3da2abf5	0.079429545
179	0xbd77bd72	-0.060483404
180	0x3cf27a87	0.029599441
181	0x3e0d0cb7	0.13774382
182	0x3daf6028	0.08563262
183	0xbcd38542	-0.025820378
184	0xbb2df551	-0.0026543925
185	0xbaef3200	-0.0018249154
186	0xbd193d70	-0.037412107
187	0xbd4485d1	-0.04797918
188	0xbe09b16b	-0.13446586
189	0x3864f685	5.4589025e-05
190	0xbccf8354	-0.025331177
191	0x3d45b025	0.048263688
192	0x3c168c33	0.0091887
193	0xbdb5363c	-0.08848235
194	0xbd87acfe	-0.066247925
195	0xbda881ec	-0.08227906
196	0x3cfeda1e	0.031109866
197	0xbc2b5ef0	-0.010459647
198	0x3da3ccfe	0.079980835
199	0x3d924f2e	0.071440086
200	0x3d9044aa	0.07044347
201	0x3d8ddfef	0.069274776
202	0x3db17799	0.086653896
203	0xbda31e08	-0.079647124
204	0x3d037391	0.032092635
205	0x3d87ee8f	0.06637298
206	0xbdfb03cd	-0.12256584
207	0x3d317b94	0.043330744
208	0x3dc6ed90	0.0971328
209	0xbd14b970	-0.03630966
210	0x3dada4ac	0.08478674
211	0xbe010ffe	-0.12603757
212	0xbd1f4619	-0.03888521
213	0x3d9a8900	0.07545662
214	0xbdabd9c6	-0.08391146
215	0x3d4e0c53	0.050304722
216	0x3d0f4bce	0.034984402
217	0xbb1af8f9	-0.0023646934
218	0xbd7b594a	-0.06136445
219	0xbdfa3df5	-0.122188486
220	0x3e235456	0.1595014
221	0xbcbf3ae0	-0.023343503
222	0x3e27f57f	0.16402243
223	0x3c84d5b1	0.016215177
224	0xbd656f5c	-0.056014404
225	0xbd7e250d	-0.062047053
226	0x3dbc6f5b	0.09200927
227	0xbcfe1039	-0.031013595
228	0xbd032cca	-0.032025136
229	0x3d828263	0.063725255
230	0x3c7de6a7	0.015496886
231	0x3d821851	0.06352294
232	0xbdd86268	-0.105656445
233	0x3d5d4ee0	0.0540303
234	0x3cb55995	0.022137443
235	0x3d2f41a4	0.04278721
236	0x3d077667	0.0330719
237	0xbd972d85	-0.07381729
238	0x3d8b2c2f	0.06795537
239	0xbc0b1e30	-0.008491084
240	0xba581731	-0.0008243202
241	0xbd51af9e	-0.051192872
242	0xbd1ac9cd	-0.03779011
243	0x3e034697	0.12819897
244	0x3cac7eb4	0.02105651
245	0x3e08694e	0.1332142
246	0x3d4fe146	0.050751947
247	0x3d23533d	0.039874304
248	0xbda9fe9a	-0.083005145
249	0xbd0ab62d	-0.033865143
250	0x3da1c8f6	0.078996584
251	0x3d833049	0.06405694
252	0xb945ca40	-0.00018862728
253	0xbd13d576	-0.036092244
254	0x3d0c5607	0.03426173
255	0x3c357047	0.011074132

encoder.convs.0.edge_mlp.2.bias f4 [128]
0	0x3ca65fa1	0.020309271
1	0xbd97ef90	-0.0741874
2	0xb921078f	-0.00015356972
3	0x3cb33e90	0.021880418
4	0xbcfaf7e1	-0.030635776
5	0x3c76e0d4	0.015068252
6	0xbc59df7b	-0.013297911
7	0xbda2da92	-0.07951845
8	0xbdac3542	-0.084085956
9	0x3beb5090	0.0071812347
10	0xbd8e79be	-0.06956814
11	0x3d97e0ca	0.07415922
12	0x3d1276b9	0.035757754
13	0x3da87537	0.08225482
14	0xbb5a08d6	-0.0033269427
15	0x3d5ec3bc	0.054385886
16	0xbd911bab	-0.07085355
17	0x3cfe8e35	0.031073669
18	0x3d1888df	0.037239905
19	0x3c8d152a	0.017222006
20	0xbd1e30c9	-0.038620744
21	0xbd058851	-0.032600705
22	0xbd18e4c9	-0.03732756
23	0x3d992532	0.074777976
24	0x3cb1a7f5	0.021686533
25	0xbd2dbb67	-0.04241505
26	0xbceee3be	-0.02916133
27	0x3be51838	0.0069914125
28	0x3c90004a	0.017578263
29	0x3daee8ff	0.08540534
30	0x3d209e81	0.03921366
31	0x3d9258a4	0.07145813
32	0xbcfc85d7	-0.030825539
33	0x3c3cffc4	0.011535589
34	0x3d74db92	0.05977971
35	0x3d56886b	0.052376192
36	0xbb71710b	-0.003684106
37	0x3d871dbe	0.0659747
38	0xbd39641c	-0.045261487
39	0xbd939510	-0.07206166
40	0x3cbdbd5f	0.023161588
41	0x3d261b52	0.0405534
42	0x3d432f33	0.047652435
43	0xbd7801be	-0.060548536
44	0x3d9aab92	0.07552256
45	0xbd81991b	-0.06328031
46	0x3d786053	0.060638737
47	0xbd004d57	-0.031323757
48	0x3db469b7	0.08809226
49	0x3d3731bf	0.044725176
50	0x3d4ee67e	0.050512783
51	0xbaa80969	-0.0012820187
52	0xbd9967cf	-0.07490503
53	0xbd7f4b13	-0.062327456
54	0xbd96e2ef	-0.07367503
55	0xbc67a70a	-0.014138946
56	0xbcd9b62a	-0.02657612
57	0x3c9bd45b	0.019022157
58	0xbd87ee14	-0.06637207
59	0xbd83dcba	-0.064385846
60	0xbbef1a0a	-0.0072968053
61	0xbb92ba40	-0.004477769
62	0xbce0620a	-0.027390499
63	0xbd9de00b	-0.077087484
64	0xbd8941cd	-0.06702004
65	0xbd7e9165	-0.062150378
66	0xbd2eee78	-0.04270789
67	0xbc66cdbd	-0.014087138
68	0xbd4f2182	-0.050569065
69	0xbd83f592	-0.06443323
70	0xbc866fbb	-0.0164107
71	0x3d939b5d	0.072073676
72	0x3d814704	0.06312373
73	0xbc9b7fab	-0.018981775
74	0xbd3c370e	-0.04595094
75	0x3c920fe6	0.017829847
76	0xbd99d81a	-0.07511921
77	0xbd840e83	-0.064480804
78	0x3a65816d	0.00087549427
79	0x3cafc851	0.021457823
80	0xbd1de61b	-0.038549524
81	0xbc00ae65	-0.007854079
82	0x3c35184e	0.011053158
83	0xbca9c3e9	-0.0207233
84	0x3d071c6a	0.032986082
85	0x3cf95dc6	0.030440222
86	0xbd4355af	-0.047689136
87	0xbc009f5b	-0.007850493
88	0xbd997ee5	-0.07494906
89	0xbd537850	-0.05162841
90	0xbdacbfa6	-0.084349915
91	0xbd6928f6	-0.05692383
92	0xbd50df78	-0.050994366
93	0x3bad0c88	0.005281035
94	0xbba0b05b	-0.0049038357
95	0x3b947b41	0.0045312946
96	0x3d6c2725	0.05765452
97	0x3c8fd3f0	0.017557114
98	0x3ab7d4ea	0.0014025245
99	0x3d260f3f	0.040541884
100	0xbd6897fc	-0.05678557
101	0xbc20acdb	-0.009806837
102	0x3cb3f56f	0.021967618
103	0x3d888678	0.06666273
104	0x3d8f0f13	0.06985297
105	0xbd905340	-0.07047129
106	0x3c3c8ce6	0.011508202
107	0x3da06892	0.07832445
108	0x3cc2fbd6	0.023801725
109	0xbd9e4667	-0.07728272
110	0x3d7191b4	0.058976844
111	0xbd8fb6c7	-0.07017284
112	0xbd936193	-0.07196345
113	0xbd817cdc	-0.06322643
114	0x3d98c47d	0.07459352
115	0x3d9d86f1	0.07691754
116	0xbce3b7f8	-0.027797684
117	0x3cfa4a25	0.030552933
118	0x3c8c417e	0.017121073
119	0xbda68669	-0.081311055
120	0xbd33a492	-0.04385812
121	0xbce12f38	-0.027488336
122	0xbc05de67	-0.008170701
123	0xbcad45fa	-0.021151531
124	0x3d58ded5	0.052946884
125	0xbd7ef8bc	-0.06224893
126	0xbd09d1cd	-0.033647347
127	0xbc254486	-0.010087138

encoder.convs.0.norm.weight f4 [128]
0	0x3f6ae865	0.91760856
1	0x3f71e7ac	0.9449413
2	0x3f69d3d0	0.91338825
3	0x3f6d0eee	0.92600906
4	0x3f6f2047	0.93408626
5	0x3f709428	0.9397607
6	0x3f719ccd	0.94379884
7	0x3f70b663	0.940283
8	0x3f767649	0.9627424
9	0x3f6b575d	0.9193018
10	0x3f6e9dea	0.9320971
11	0x3f6a36c0	0.9148979
12	0x3f6d4db0	0.92696667
13	0x3f6b88e9	0.92005783
14	0x3f6d4535	0.92683727
15	0x3f71d1fe	0.9446105
16	0x3f7ae83b	0.98010606
17	0x3f70371d	0.93834096
18	0x3f7cae58	0.9870353
19	0x3f69c694	0.9131863
20	0x3f706e08	0.93917894
21	0x3f6f3c10	0.93451023
22	0x3f6e9cb4	0.9320786
23	0x3f7113dc	0.9417093
24	0x3f684cce	0.90742195
25	0x3f704e89	0.93869835
26	0x3f7197ad	0.94372064
27	0x3f692a93	0.9108059
28	0x3f6cdbe5	0.9252303
29	0x3f720255	0.9453481
30	0x3f6f2c4c	0.93426967
31	0x3f6e5238	0.93094206
32	0x3f675194	0.90358853
33	0x3f708e59	0.93967205
34	0x3f724c47	0.9464764
35	0x3f71c0e0	0.9443493
36	0x3f6d4867	0.926886
37	0x3f745743	0.9544565
38	0x3f761005	0.96118194
39	0x3f6c61a5	0.92336494
40	0x3f6d6abd	0.92740995
41	0x3f6f2634	0.9341767
42	0x3f6b30ba	0.91871226
43	0x3f73f716	0.952989
44	0x3f763680	0.9617691
45	0x3f6bb7ad	0.9207714
46	0x3f715d83	0.9428331
47	0x3f6cc23f	0.92483896
48	0x3f6f2017	0.9340834
49	0x3f7114a5	0.94172126
50	0x3f678203	0.9043276
51	0x3f73c93a	0.9522892
52	0x3f66cf79	0.9016033
53	0x3f7029ad	0.9381359
54	0x3f7bf42b	0.98419446
55	0x3f704693	0.9385769
56	0x3f6db80d	0.92858964
57	0x3f6d44f4	0.9268334
58	0x3f666d69	0.90010697
59	0x3f738a8b	0.95133275
60	0x3f78a357	0.97124237
61	0x3f6c3153	0.9226276
62	0x3f6f4109	0.9345861
63	0x3f80dbb3	1.0067047
64	0x3f80c473	1.0059952
65	0x3f6f45d2	0.9346591
66	0x3f713814	0.94226193
67	0x3f6b9924	0.9203055
68	0x3f72aa4a	0.9479109
69	0x3f6c2b7d	0.9225386
70	0x3f68c1ac	0.9092052
71	0x3f6e2b8b	0.9303519
72	0x3f69f031	0.9138213
73	0x3f6e4833	0.9307892
74	0x3f6844a4	0.9072974
75	0x3f6e2b0d	0.9303444
76	0x3f66b69b	0.90122384
77	0x3f72ef4f	0.94896406
78	0x3f6d1441	0.9260903
79	0x3f70014d	0.93751985
80	0x3f76313f	0.96168894
81	0x3f6b1669	0.9183107
82	0x3f6857e9	0.9075914
83	0x3f6bd38f	0.9211969
84	0x3f76d888	0.9642415
85	0x3f6f34ec	0.9344013
86	0x3f70c357	0.94048065
87	0x3f6ce579	0.9253765
88	0x3f6fbeb4	0.93650365
89	0x3f6c4a48	0.92300844
90	0x3f6d42f8	0.9268031
91	0x3f61c3a6	0.8818916
92	0x3f716c77	0.9430613
93	0x3f6821de	0.9067668
94	0x3f701017	0.9377455
95	0x3f6cf26a	0.92557395
96	0x3f70a1e5	0.9399703
97	0x3f6b9948	0.92030764
98	0x3f6c189a	0.9222504
99	0x3f6ab637	0.9168429
100	0x3f6cff54	0.925771
101	0x3f6b485a	0.91907275
102	0x3f6e5893	0.93103904
103	0x3f70d9be	0.9408225
104	0x3f7317d8	0.9495826
105	0x3f6c65c3	0.92342776
106	0x3f6b47e8	0.91906595
107	0x3f757953	0.9588825
108	0x3f6f9a51	0.93594843
109	0x3f668053	0.9003956
110	0x3f765ead	0.96238214
111	0x3f69ece1	0.91377074
112	0x3f721c33	0.9457428
113	0x3f6a5009	0.91528374
114	0x3f6cfa52	0.9256946
115	0x3f71fdad	0.94527704
116	0x3f6d6ef7	0.92747444
117	0x3f6d30fd	0.92652875
118	0x3f6985a3	0.9121954
119	0x3f7133de	0.9421977
120	0x3f71b227	0.94412464
121	0x3f7560d6	0.95850885
122	0x3f71f123	0.9450857
123	0x3f6e6a37	0.9313082
124	0x3f6e283c	0.9303014
125	0x3f6c0672	0.92197335
126	0x3f69ea24	0.91372895
127	0x3f6c1a1c	0.9222734

encoder.convs.0.norm.bias f4 [128]
0	0x3d39c430	0.045353115
1	0xbd63474f	-0.055487927
2	0x3b164519	0.002292937
3	0x3c89c8c3	0.016819363
4	0xbc7ad6d5	-0.015310009
5	0x3dd32bda	0.103110984
6	0x3d008f0c	0.03138642
7	0xbd3909c4	-0.04517533
8	0x3c86bfff	0.016448973
9	0xbcf87e3f	-0.030333636
10	0x3cba4877	0.022739632
11	0xbd18b95e	-0.037286155
12	0x3c9d20e5	0.019180724
13	0xbcb80316	-0.022462409
14	0x3d01abe5	0.031658072
15	0xbcaf2510	-0.021379977
16	0xbcff3b70	-0.031156272
17	0xbc53a670	-0.0129181
18	0xbd417806	-0.047233604
19	0xbcb3b45e	-0.021936592
20	0x3d0bfdfa	0.034177758
21	0xba1e782e	-0.000604513
22	0x3cf56668	0.029956058
23	0x3d38523d	0.045000304
24	0xbd20abe1	-0.039226416
25	0x3cecdbdc	0.02891343
26	0x3d29b60f	0.04143339
27	0xbaa7fe66	-0.0012816906
28	0x3d275718	0.040854543
29	0x3c0bb9ba	0.008528167
30	0x3c9bdf95	0.01902751
31	0xb7945f85	-1.7687455e-05
32	0xbd04ce8d	-0.032423545
33	0x3cb215f4	0.021738984
34	0x3d6ed40b	0.05830769
35	0x3c7840aa	0.015152136
36	0x3cf025a8	0.02931483
37	0xbc0af382	-0.008480908
38	0x3cd1f7e5	0.0256309
39	0xbc09dd5c	-0.008414593
40	0x3ce1b764	0.027553268
41	0x3d571511	0.052510325
42	0x3bfaa55b	0.0076491064
43	0x3ca05748	0.019572869
44	0xbd45c4f4	-0.048283532
45	0xbd8a48fa	-0.067522004
46	0x3775477c	1.4619782e-05
47	0x3d922b3f	0.07137155
48	0xbd51e4ba	-0.05124352
49	0xbba25a12	-0.004954585
50	0x3d87bc5e	0.06627725
51	0x3da4eaf4	0.08052626
52	0xbc5c4459	-0.01344403
53	0xbcc8ca60	-0.024510562
54	0xbd8ebb42	-0.0696931
55	0xbbd6f3c8	-0.0065598227
56	0xbb14a912	-0.0022683782
57	0x3d2bbf3f	0.041930433
58	0x3ca90c2e	0.02063569
59	0xbca6cd5f	-0.0203616
60	0x3cb9d656	0.022685211
61	0x3b95f962	0.004576848
62	0xbc015366	-0.007893419
63	0xbd17feaf	-0.03710812
64	0x3c966f3d	0.01836359
65	0xbc020c3f	-0.00793749
66	0x3a6eed90	0.0009114379
67	0xbd9d51dd	-0.0768163
68	0xbca0c893	-0.019626891
69	0x3d34255b	0.043980937
70	0xb95851eb	-0.00020629882
71	0xbb8defc6	-0.0043315617
72	0x3d4444b3	0.04791708
73	0x3caf60df	0.021408496
74	0xbc3a07dd	-0.011354414
75	0x3d093bf4	0.03350444
76	0xbcf73efa	-0.030181397
77	0xbd31f09a	-0.043442346
78	0x3c890723	0.016727036
79	0xbca7f3ea	-0.02050205
80	0xbc2645a8	-0.010148443
81	0x3d623999	0.05523071
82	0x3cd1b320	0.025598109
83	0x3d93a246	0.072086856
84	0x3d54f7b9	0.05199406
85	0x3cdd3a77	0.027005417
86	0xbca4036b	-0.020021161
87	0xbb9332ef	-0.0044921557
88	0x3ce5edeb	0.02806755
89	0xbd9f7e82	-0.07787801
90	0xbbf73e71	-0.0075452854
91	0x3d1595f2	0.036519952
92	0xbd7116ab	-0.05885951
93	0x3cc1a7d8	0.023639604
94	0xbcdde8e5	-0.027088592
95	0x3c5d7281	0.013516069
96	0x3c2763e6	0.010216689
97	0x3d415211	0.047197405
98	0x3c8d3f48	0.017242089
99	0x3c8ddd47	0.017317427
100	0xbcd569d8	-0.026051447
101	0xbd00667e	-0.031347744
102	0x3d262736	0.04056474
103	0xbcba1853	-0.022716677
104	0x3ce3236e	0.027726855
105	0x3c1d0de1	0.0095858285
106	0x3bf9e5ac	0.007626256
107	0x3b125d82	0.0022333567
108	0x3bf72a96	0.0075429184
109	0x3c7a892f	0.015291496
110	0x3c2a292d	0.010385794
111	0xbc08833b	-0.008332069
112	0xbc6c65bc	-0.014428552
113	0xbcd74676	-0.026278716
114	0xbc4c46e3	-0.012468073
115	0xbdb3955b	-0.08768722
116	0x3b1beeaf	0.002379339
117	0xbd16195d	-0.036645282
118	0x3da39420	0.07987237
119	0x3cfaba5b	0.03060644
120	0xbd27eb90	-0.040996134
121	0x3b276df8	0.0025547724
122	0x3d138a73	0.036020707
123	0x3d51156b	0.051045816
124	0x3cbfd66d	0.023417676
125	0x3c1734b9	0.009228879
126	0x3ce9e709	0.028552549
127	0xbcbf8625	-0.023379395

encoder.convs.0.norm.mean_scale f4 [128]
0	0x3f84f6c7	1.038781
1	0x3f775077	0.96607155
2	0x3f653f1d	0.8954943
3	0x3f851d05	1.0399481
4	0x3f76c3a7	0.9639229
5	0x3f847b34	1.0350099
6	0x3f789d33	0.97114867
7	0x3f6a7cb1	0.91596514
8	0x3f777deb	0.9667651
9	0x3f81b87b	1.0134424
10	0x3f73f224	0.9529135
11	0x3f85f905	1.046662
12	0x3f6cc6a3	0.92490596
13	0x3f7fc57f	0.9991073
14	0x3f7fc993	0.9991695
15	0x3f84a75d	1.0363575
16	0x3f74128b	0.95340794
17	0x3f7b79b5	0.98232585
18	0x3f7dbd84	0.991173
19	0x3f713e4a	0.9423567
20	0x3f83e0d3	1.0302986
21	0x3f6d3701	0.92662054
22	0x3f6e5595	0.9309934
23	0x3f8d769d	1.1051823
24	0x3f70c311	0.9404765
25	0x3f7c904d	0.98657686
26	0x3f710625	0.9415
27	0x3f7d79af	0.990138
28	0x3f5b25c9	0.8560453
29	0x3f73ad9a	0.9518677
30	0x3f730ced	0.949416
31	0x3f84c68f	1.0373095
32	0x3f814972	1.0100539
33	0x3f85bcc5	1.0448233
34	0x3f8181b9	1.0117713
35	0x3f76cc23	0.9640524
36	0x3f7813a7	0.9690499
37	0x3f8130e8	1.009305
38	0x3f6d4a73	0.92691725
39	0x3f801c19	1.0008575
40	0x3f7cebe5	0.98797446
41	0x3f83d558	1.0299482
42	0x3f84e9ea	1.0383885
43	0x3f752c46	0.9577068
44	0x3f64d5f3	0.8938896
45	0x3f8e7323	1.1128887
46	0x3f71b31f	0.9441394
47	0x3f78e030	0.9721708
48	0x3f5ea52f	0.869708
49	0x3f76f5c2	0.96468747
50	0x3f83cf70	1.029768
51	0x3f8a9396	1.082629
52	0x3f8a56b3	1.0807709
53	0x3f81e170	1.0146923
54	0x3f8a919e	1.0825689
55	0x3f801f24	1.0009503
56	0x3f756218	0.95852804
57	0x3f7a39a6	0.97744215
58	0x3f73fff8	0.9531245
59	0x3f6fbabf	0.93644327
60	0x3f7ea074	0.9946358
61	0x3f5e84a8	0.8692117
62	0x3f7f4eed	0.99729806
63	0x3f8b5b64	1.0887265
64	0x3f655af3	0.895919
65	0x3f684b38	0.90739775
66	0x3f6b187c	0.91834235
67	0x3f89d06d	1.0766732
68	0x3f7a29e9	0.977202
69	0x3f7555ec	0.9583423
70	0x3f77d11c	0.9680345
71	0x3f602bb6	0.875667
72	0x3f8581c3	1.0430225
73	0x3f71ab5c	0.944021
74	0x3f7a498f	0.9776849
75	0x3f73a597	0.95174545
76	0x3f7fbfcc	0.99902034
77	0x3f85d4ef	1.0455607
78	0x3f72c248	0.948277
79	0x3f718ea4	0.9435828
80	0x3f768c7e	0.96308124
81	0x3f7b5017	0.9816908
82	0x3f7b4338	0.9814944
83	0x3f897db5	1.0741488
84	0x3f83eb8a	1.0306256
85	0x3f8027f6	1.0012195
86	0x3f701a76	0.93790376
87	0x3f782496	0.96930826
88	0x3f86467d	1.0490261
89	0x3f863fe0	1.0488243
90	0x3f8190ee	1.0122354
91	0x3f7e3b38	0.9930911
92	0x3f4d532c	0.80205035
93	0x3f86bbe1	1.0526086
94	0x3f862a7b	1.0481714
95	0x3f6c0908	0.9220128
96	0x3f7f2754	0.99669385
97	0x3f7cb42a	0.9871241
98	0x3f7f3014	0.99682736
99	0x3f74c20e	0.95608604
100	0x3f8361c4	1.0264211
101	0x3f73cd37	0.9523501
102	0x3f8258bd	1.0183331
103	0x3f6c1b5e	0.9222926
104	0x3f793460	0.9734554
105	0x3f8280cf	1.0195559
106	0x3f726f48	0.9470105
107	0x3f7d9e49	0.9906965
108	0x3f6f4ed1	0.9347964
109	0x3f7b4555	0.9815267
110	0x3f7acda2	0.9797002
111	0x3f72e23b	0.9487645
112	0x3f7ada0b	0.9798896
113	0x3f75d264	0.96024156
114	0x3f6b882d	0.9200466
115	0x3f8a2a09	1.0794078
116	0x3f7e0b57	0.99236053
117	0x3f6a90f4	0.9162743
118	0x3f88c456	1.0684917
119	0x3f836899	1.0266296
120	0x3f84c1fd	1.03717
121	0x3f5de891	0.86682993
122	0x3f8cd463	1.1002315
123	0x3f7c2d65	0.98506767
124	0x3f63b826	0.88952863
125	0x3f707d0c	0.93940806
126	0x3f7d719e	0.9900149
127	0x3f7fe42e	0.9995755
