checkpoints/model_C_epoch_29.pth (torch, 552443 bytes, 27 tensors)

encoder.node_embedding.weight f4 [1, 128]
000000 86 21 ec 3f a4 54 b4 3f 75 c9 53 3f 38 23 02 c0
       1.844773 1.408833 0.82729274 -2.0333996
000010 20 39 24 3f 13 08 97 bf 1f 60 0b bd fa 93 c4 bf
       0.64149666 -1.1799339 -0.034027215 -1.5357659
000020 d0 bd 35 bf fe 71 cb 3f 08 7f b0 be d0 d9 ac bf
       -0.70992756 1.5894163 -0.34471917 -1.3503971
000030 77 d8 32 bf 9d 4e 07 bf c1 45 3f bf de c9 37 3f
       -0.6986155 -0.5285433 -0.7471581 0.717924
000040 dc c1 c9 3f b8 12 0f be 0f e6 f1 be 3c 71 d1 3e
       1.5762286 -0.13971984 -0.47245833 0.40906703
000050 62 40 33 bf c1 01 85 3f 38 fb 46 3f 4c 9a d0 3f
       -0.70020115 1.039116 0.7772708 1.6297088
000060 57 81 9e 3f 01 a8 9e 3f 8e 80 0f 3f 67 8e a5 3f
       1.2383221 1.2395021 0.56055534 1.2934083
000070 29 33 6a be cc 31 a2 3b b3 3e 59 be f3 0f 53 3f
       -0.22871079 0.004949784 -0.21215324 0.8244621
000080 63 55 aa bf 4f 72 50 bf ea f4 52 be 5b ea d4 3f
       -1.3307308 -0.8142442 -0.2060124 1.663402
000090 d7 34 92 3e 6e 82 c2 be 99 49 9c 3e 10 47 3f bf
       0.2855594 -0.37990135 0.305249 -0.7471781
0000a0 fa dd bd bf fd a9 6d 3f 86 6b 55 bf d9 32 0e bf
       -1.4833367 0.92837507 -0.8336719 -0.5554634
0000b0 e7 78 9b bf 03 dd 02 40 d4 88 94 bf 1a 5d e9 be
       -1.2146271 2.0447395 -1.1604257 -0.45578843
0000c0 9e 75 5d bf 7d b4 21 bf 2d ec 7c 3d 78 bf f8 3e
       -0.86507595 -0.6316603 0.061748672 0.4858358
0000d0 8e 03 f3 be b6 65 91 3f 50 ad 41 bf 75 39 32 bf
       -0.4746365 1.1359165 -0.7565508 -0.6961892
0000e0 77 ce ad bf 39 11 7e 3c c5 f7 05 bd d5 56 26 3f
       -1.3578633 0.015507036 -0.032706995 0.64976245
0000f0 76 98 ad bd 55 df e0 3f f4 c3 91 bf f2 73 aa 3f
       -0.08476345 1.7568156 -1.1387925 1.3316634
000100 8e ca b1 3f aa 13 4f 3f 71 4d 09 40 59 13 fd 3e
       1.388994 0.8088938 2.1453516 0.49428824
000110 e8 58 9a 3e e0 8e 28 be 79 eb 82 bf e9 f3 9a 3f
       0.30145955 -0.16460752 -1.022811 1.2105685
000120 d0 2a 11 be 5f a6 fc 3e 0b c7 34 3d ae 9b c1 3e
       -0.14176488 0.4934568 0.044135135 0.37814087
000130 14 5c 06 3f 9f 29 1a bf 41 25 07 c0 62 75 36 bf
       0.5248425 -0.6021976 -2.1116488 -0.7127286
000140 22 60 15 3a 05 c2 94 be 69 02 a5 bf c2 92 0b bf
       0.0005698224 -0.29054275 -1.289136 -0.5452081
000150 d1 9e 03 3f bf b9 f6 3e 81 cb 8b 3f 48 ec c4 3c
       0.5141421 0.48188588 1.092148 0.024038449
000160 cd 22 30 3f d9 59 df be 63 ba 80 bf 8a ce 11 3f
       0.688031 -0.43623236 -1.0056881 0.5695578
000170 c7 00 d5 bf e7 30 48 bf 90 7f a2 3f b8 35 e1 3e
       -1.6640862 -0.7819962 1.2695179 0.43986297
000180 f8 4a 1b c0 71 7a e8 3e 23 8f 3c 3f f8 b0 f2 b9
       -2.4264507 0.45405915 0.7365591 -0.0004628969
000190 d2 66 1f 3f 30 bd 0d 3f 2e 8f 81 3f 6e b6 d7 be
       0.62266266 0.553668 1.012182 -0.4213137
0001a0 fd d9 33 be 6d 13 35 3f ac 57 bd 3e 86 e3 0b 3e
       -0.17563625 0.70732766 0.3698095 0.13661012
0001b0 60 e2 61 3e e7 cb 9c 3f ea 8f 0b 39 fa 1c 8c be
       0.22059011 1.2249726 0.00013309685 -0.27365857
0001c0 5e 78 b3 bf 05 ec a8 bd 39 ca 0d bf ec d5 dc 3e
       -1.4021108 -0.08248142 -0.5538669 0.4313196
0001d0 63 4b 2f 3f 19 3c 37 3d 05 40 b7 be ac c3 f0 3e
       0.68474406 0.044735048 -0.3579103 0.47024286
0001e0 4e 21 58 ba 7f 97 46 3e fa 79 d0 3d db e3 34 3f
       -0.0008244709 0.19393729 0.10179515 0.7066018
0001f0 f3 1e 85 3f dd f3 98 3e c8 d9 2e 3f e4 fb c9 3e
       1.040007 0.29873553 0.6830106 0.3944999

encoder.convs.0.node_mlp.weight f4 [128, 256]
000000 d6 71 63 3d f5 08 f1 bb 77 5b 69 3d 9c 0d 6a 3c
       0.055528484 -0.007355804 0.056971993 0.014285471
000010 fd 8a 3e bd 81 c8 18 3d ec 3b ac bc b9 f6 e4 bc
       -0.04651927 0.03730059 -0.021024667 -0.027949678
000020 07 39 62 bd a9 08 64 bd 58 09 4c 3c 02 1e 93 bc
       -0.055230167 -0.05567232 0.0124534 -0.017958645
000030 9a ce 99 3c 94 16 60 bd 49 aa 24 3d 94 a9 22 bd
       0.018775273 -0.054709032 0.04020146 -0.039712504
000040 a8 b7 be bb b3 a8 fa 3b e8 00 d8 3c f2 98 5c 3d
       -0.0058202334 0.007649505 0.02636762 0.053856798
000050 dc b7 4e 3d b0 91 31 bd 46 e6 a4 3c 97 7b af bc
       0.05046831 -0.04335183 0.020129334 -0.021421237
000060 42 da f8 ba b8 ce 26 bd 70 69 76 3d 6f 0e 23 bd
       -0.0018985944 -0.040724486 0.060159147 -0.039808687
000070 ad 7b df 3c 2d d0 c2 3c 5a 26 73 3c 51 29 e5 bc
       0.027280653 0.023780907 0.014840687 -0.027973803
000080 be a7 4e 3d 14 82 0b 3c 84 87 31 3b 96 04 48 bd
       0.05045294 0.0085149 0.002708883 -0.0488325
000090 14 89 f8 3c c2 8e 64 bc b3 e2 b8 bc 83 92 41 3d
       0.030338801 -0.013950052 -0.022569036 0.047258865
0000a0 92 c0 10 3c 9a 5d ec bc 4e 86 11 bd 08 45 fd bb
       0.008834975 -0.028853226 -0.035528474 -0.0077291764
0000b0 b3 12 ef 3c d7 5b 32 bc c1 08 21 bd 7a 88 d2 bc
       0.029183721 -0.010886154 -0.03931499 -0.025699843
0000c0 26 39 4d bd 76 6a 89 3c 45 fe 52 3d d1 1d 56 bd
       -0.05010333 0.016774397 0.05151202 -0.05227453
0000d0 88 36 16 3c f6 bf 13 3d 37 f8 ca 3b fa 9b d8 bc
       0.009168275 0.03607174 0.0061941403 -0.026441563
0000e0 9b d7 dc 3c 33 11 0f 3d 7c 69 97 3c 69 f8 bc bb
       0.026958277 0.03492851 0.018482916 -0.0057669175
0000f0 bc 1f ae bc 48 87 36 3c 75 5c 7d bc a7 1b 5b bc
       -0.021255367 0.011140652 -0.015463938 -0.013373292
000100 a9 1b 32 3d fa 2d 69 3d 4b 37 b6 ba cb 04 0e bc
       0.04348341 0.056928612 -0.0013901977 -0.008668135
000110 9e e9 c0 3b fa 64 0e bc 73 d1 20 3c 41 e5 b1 3c
       0.0058872243 -0.008691067 0.009815562 0.021715762
000120 c6 0f 76 bd 51 fc 8e bc 49 e0 63 3d 52 9b e9 3c
       -0.060073636 -0.017454298 0.055633817 0.028516445
000130 dc cc e8 3a 41 e2 29 bd 9e f0 2a bd 55 7a 72 bd
       0.0017761248 -0.04147554 -0.041733377 -0.059198696
000140 a0 2c ca bc c9 d4 7f 3c b9 50 0b 3d 5d 8a bd 3c
       -0.024679482 0.015614697 0.03401253 0.023137266
000150 94 89 47 bd f6 4e 01 bd 8e cb 9d bb a1 12 81 3d
       -0.04871519 -0.031569444 -0.0048155254 0.06302381
000160 9f bf 5e 3c 79 05 a9 bc cf 52 a6 3c 9c 73 95 bc
       0.013595491 -0.020632492 0.020303158 -0.018243603
000170 fb 15 34 bd 4e cd 21 3d 48 89 bb bc 64 dc ec bb
       -0.043966275 0.039502434 -0.02289261 -0.007228421
000180 e2 08 85 bd c2 6f 3a 3d ad fa 4f 3d 42 1c df 3c
       -0.06495835 0.045516737 0.050776172 0.027235154
000190 fb 57 19 bd d6 5a 61 bd 83 7e 36 bd 2a 0c 25 3d
       -0.03743742 -0.05501827 -0.044554245 0.040294804
0001a0 4d 77 c3 3c 80 06 65 3d cd 6e 16 3d 70 c9 a4 3c
       0.023860598 0.055914402 0.03672676 0.020115584
0001b0 b9 65 8d 3b 05 d6 29 bd 27 14 eb bc b7 ba 7c bd
       0.004315105 -0.04146387 -0.028696133 -0.061701503
0001c0 3b 29 a5 3c 56 ae 0e bd 16 1a 8c bc 45 d9 f5 bc
       0.020161262 -0.03483423 -0.017102282 -0.030010829
0001d0 5c 15 cc bb d8 59 1c bd 0f 7a 36 bd a2 d8 cc 3c
       -0.006228132 -0.03817162 -0.044549998 0.025005642
0001e0 eb cb 8e bc 93 4a 2d 3d b4 08 6f bc 32 c9 22 bd
       -0.01743122 0.042307448 -0.014589477 -0.039742656
0001f0 e6 9c c3 bb 28 23 c8 bc d2 e7 60 bc d7 15 58 bd
       -0.0059696315 -0.024430826 -0.013727145 -0.052755203
000200 d7 de 36 3d 87 dc a7 bd 4c 74 9c 3c 17 74 b5 3b
       0.04464611 -0.08196359 0.019098423 0.0055375206
000210 14 fd 23 3d 9f 35 88 bd ed 89 67 3d 55 10 46 bc
       0.040036276 -0.066508524 0.05652802 -0.012088855
000220 71 e3 5e 3c 4b 24 a0 3d fc da 6f bd 05 b4 58 bc
       0.013604031 0.07819422 -0.05855845 -0.013226514
000230 8d 2a d7 3c 16 46 82 bd 25 f9 43 3d 1c 7b 4a bd
       0.026265407 -0.06361024 0.047845025 -0.049433812
000240 65 f6 69 3c bb c1 b5 3d 79 1d 8f 3d 5f 9c 10 bc
       0.014279936 0.08874842 0.06988043 -0.008826344
000250 84 d4 d3 bd 3c 8c f2 3b dc cc 6c 3c 96 f6 23 bd
       -0.103432685 0.007401971 0.014453139 -0.040030085
000260 b6 90 e1 bc ca d5 c5 bc c7 b0 1f 3c 48 b7 b2 3c
       -0.027534824 -0.024149794 0.009746737 0.021815911
000270 9a e8 e3 bc b3 56 98 bc 71 bc b4 bd f0 68 b8 3d
       -0.027820874 -0.018596029 -0.08825005 0.0900439
000280 69 ae 1e 3d c6 ff f0 bc d1 0b 62 3c 1b 73 94 bc
       0.03874055 -0.029418837 0.013796763 -0.018121293
000290 ef d5 aa bd d5 01 8c bd dd 32 24 bd 9a 42 80 bd
       -0.08341586 -0.06836287 -0.04008757 -0.06262703
0002a0 fa 4a 94 bc 08 4b 20 bc 7e 8d 8c bc e6 b8 21 bd
       -0.018102158 -0.009783514 -0.017157312 -0.039482974
0002b0 ab 75 a5 3a 1c d5 f8 bc cd a7 90 bc ce 73 64 bd
       0.0012623569 -0.030375056 -0.017658139 -0.055774502
0002c0 e4 7c 83 bd 2e e0 a1 3d 12 8a 65 bd 5c 34 0b bd
       -0.06420305 0.07904087 -0.056039877 -0.03398548
0002d0 d1 51 83 bc 1e 1d c4 3c 16 71 04 3d e6 c5 7e 3d
       -0.016030224 0.023939665 0.03233441 0.06220045
0002e0 5f 14 a9 bd 5c 5f fd 3b c2 83 cb 3d 82 bc 3e 3d
       -0.082558386 0.007732315 0.0993724 0.046566494
0002f0 81 a7 45 3d 6a 78 c5 3d 4f 90 72 3c 7d e5 ff 3c
       0.048255447 0.09642108 0.014804914 0.031237358
000300 1d 9e 53 bd 04 46 37 3c df c3 0c 3d 66 86 c7 3b
       -0.05166446 0.011186127 0.034366485 0.0060890196
000310 86 d2 9a bd 48 a5 1c bd c3 71 42 bd ee 09 50 bd
       -0.075596854 -0.038243562 -0.047471773 -0.05079072
000320 39 78 5c bd 56 69 67 bc ab a3 d1 3c 1a ac 26 3d
       -0.05382559 -0.014124235 0.025590738 0.040691473
000330 f0 64 ed bc a2 e1 a7 bd de ac a1 3b 3c 10 89 bd
       -0.028978795 -0.08197333 0.0049339375 -0.066925496
000340 96 02 f5 bc b4 9f 79 3d 03 6b 1b bd 2b 45 61 bd
       -0.02990846 0.06094332 -0.03794385 -0.054997604
000350 87 2c 08 3d ec 13 ac bc 2d 6d dc bc 8e e5 91 bd
       0.03324559 -0.021005593 -0.026907528 -0.07123862
000360 0f f4 58 bd 44 84 53 bc f7 bf 44 3d a9 a9 8d bb
       -0.052967127 -0.012909953 0.048034634 -0.0043232036
000370 01 95 44 bd f4 44 90 b8 c3 7c 05 3d 59 3e 1c 3d
       -0.047993664 -6.8792986e-05 0.032589685 0.038145397
000380 b6 01 58 3d 93 41 13 3c 87 3f 4a bc 87 d3 9c 3c
       0.052736007 0.008987802 -0.012344248 0.019143833
000390 61 2a 2a 3d f3 8e da bb f7 2a 5e bd 1b 46 be 3c
       0.041544322 -0.006669873 -0.054240193 0.023226788
0003a0 e4 35 1d bc 95 42 18 bd 62 2c 5d bd 7a a1 90 3c
       -0.009595368 -0.037172873 -0.053997405 0.017655123
0003b0 4e aa a0 3c 2a 7c 30 3d c0 81 33 3d d6 fa c1 bd
       0.019612458 0.043087162 0.04382491 -0.09471671
0003c0 08 ed 91 bc 42 95 38 3d ac 2e a6 3d dd 8a 6b 3d
       -0.01781322 0.04506422 0.08114371 0.057505477
0003d0 d5 4c aa bc 2b d8 8d 3b 99 92 99 bc 95 0b 93 bd
       -0.02078859 0.0043287477 -0.018746661 -0.071799435
0003e0 22 a5 7d 3a 60 1b 4f 3d cf 4e ae 3d 86 bd c0 bd
       0.0009675791 0.050563216 0.08511125 -0.09411149
0003f0 3d 59 56 3d e8 95 48 bd c8 f1 e8 3c f1 f1 20 3d
       0.052331198 -0.048971087 0.028435603 0.039293233

encoder.convs.0.node_mlp.bias f4 [128]
000000 f3 7c 2f bd e0 12 11 3c d3 5a 3b 3c 89 62 4f 3d
       -0.04284377 0.008854598 0.011435228 0.05063108
000010 b1 11 d8 3c 3e c2 c8 bc 12 f1 70 38 28 6a 22 bd
       0.026375623 -0.024506684 5.7444973e-05 -0.03965202
000020 33 52 89 3b 2e 49 be 3b 00 15 43 3d 41 f9 41 3d
       0.004190707 0.0058070635 0.04762745 0.047356848
000030 c4 1a 1b bd 6a ce 6b 3d 2e 15 39 bd 9f 66 c9 3c
       -0.037867323 0.0575699 -0.045186214 0.024585066
000040 5d 0b e4 3c 03 25 de 3c 41 04 34 3d 0b d9 95 bc
       0.02783745 0.027117258 0.04394937 -0.01829197
000050 0a 34 46 3d 4f 3d 01 3c a0 b3 f9 ba d5 42 83 bc
       0.048389472 0.007888152 -0.0019050725 -0.016023079
000060 68 4e 77 bd 5a b9 6b bd 19 75 7a 3b d0 9c 75 3a
       -0.06037751 -0.057549812 0.0038216768 0.0009369375
000070 81 dc 82 bc 70 7a b5 3b 5a 27 99 bb 51 56 0f bd
       -0.015974285 0.0055382773 -0.0046738805 -0.034994427
000080 16 e9 25 bc bf f8 27 bd 8a 6d 99 ba 1e 8c 18 3d
       -0.010126373 -0.041008707 -0.0011705619 0.037243
000090 a1 d2 fa bc 72 25 17 3d e4 6f ab bc 6d 68 cb bc
       -0.030618014 0.036900945 -0.020927377 -0.024830068
0000a0 10 d4 c9 3c 2b 32 7f bd 90 c8 11 3d 05 f7 19 3d
       0.024637252 -0.062303703 0.035591662 0.03758909
0000b0 69 ce cb 3c 22 4d c3 bb 67 10 10 bd 2b 21 4c bd
       0.024878697 -0.0059601227 -0.035171892 -0.04983632
0000c0 9e 22 85 3d 22 59 b5 3c 69 5a b2 3c ae 10 21 bd
       0.06500743 0.022137228 0.021771627 -0.039322548
0000d0 23 fd 26 3d c7 a7 14 bd 57 98 29 3d ea c1 2e 3d
       0.040768754 -0.036292817 0.04140505 0.0426654
0000e0 11 cc 51 bd fe 95 5d bd d8 e0 5e bd 17 15 f5 bc
       -0.051220004 -0.05409812 -0.054413646 -0.029917283
0000f0 30 f6 94 3c 5d 00 4a bd f4 56 2c 3d b3 f8 04 bd
       0.018183798 -0.049316753 0.042075112 -0.03246374
000100 b2 4d 6f bc 02 15 d5 3c 42 49 10 bd 5a b2 22 bc
       -0.014605926 0.026010994 -0.035226114 -0.009930218
000110 b9 cf 6a bd 68 a3 55 bd 30 c0 99 3b c3 f0 01 bd
       -0.057327006 -0.05215779 0.0046921 -0.03172375
000120 b3 bf 39 3d 34 f6 05 bd 55 85 cf 3c 09 82 5b 3d
       0.045348834 -0.0327055 0.025332132 0.053590808
000130 1b 96 98 bc ce 67 a3 bc 7a 10 ee 3c cc a3 d0 bc
       -0.018626263 -0.019946959 0.029060591 -0.02546873
000140 8c 17 b2 3c 99 3b 94 bc e0 4c 6c bb 0f a5 3f bd
       0.021739744 -0.018094825 -0.0036056563 -0.04678827
000150 43 f7 6f 3d bc 1a 81 bd 33 6c f8 bb 2f 0f cb 3c
       0.058585417 -0.06303927 -0.0075812577 0.024787514
000160 b0 a9 11 bd f6 a7 c2 bb 14 ec 58 3d 4c d3 98 3c
       -0.035562217 -0.0059404327 0.052959517 0.018655442
000170 79 c4 f0 3c fe d7 25 bd a1 30 fb 3c a1 5e 58 3b
       0.02939056 -0.04048919 0.030662837 0.0033015388
000180 8d e2 92 3a 36 be 9d bc 01 ad 90 bb 44 fb 0b 3d
       0.0011206433 -0.019255739 -0.004415155 0.034175172
000190 c8 05 06 3d 06 12 49 bd 4f ce 4c 3d 95 55 85 3d
       0.032720357 -0.049089454 0.05000144 0.06510464
0001a0 b8 7f a8 bc ee 49 23 3c 8d 05 06 3d 8a 35 42 bd
       -0.020568714 0.009966357 0.032720137 -0.04741434
0001b0 7d c9 d7 3c ad f9 6e 3d 68 1d 9c bc 03 7a 75 bd
       0.026341194 0.058343578 -0.01905699 -0.059930813
0001c0 56 86 4b bd 68 21 08 3d 66 58 c2 ba 95 42 46 bb
       -0.04968866 0.033234984 -0.001482737 -0.0030252088
0001d0 4b de 16 3c d5 81 c9 3c 33 07 21 3d 97 de 5e bb
       0.009208272 0.024598042 0.039313506 -0.0034007186
0001e0 7d 12 7b bd eb ce e1 3c d3 80 01 3d e3 bd c4 3b
       -0.06129693 0.027564486 0.031616997 0.0060040816
0001f0 8f 95 1a bd 2e 56 90 bc 5b 3a da 3c 4b 3f 28 3d
       -0.037740286 -0.017619219 0.026639154 0.041075986

encoder.convs.0.edge_mlp.0.weight f4 [128, 7]
000000 e6 74 dc be 45 ab e0 bd f2 89 81 3d 0d 31 f8 3d
       -0.43057936 -0.10970167 0.06325139 0.12118731
000010 80 a4 33 bd b7 89 02 3d 21 bd fa be ee 14 4a bd
       -0.04385805 0.031869616 -0.4897242 -0.049336366
000020 96 99 0d bf f6 0f ac 3e 67 68 11 3e 16 38 b6 3d
       -0.5531248 0.33605927 0.14199983 0.08897416
000030 cf b4 5b be 9f 47 4b be 33 ec bf bb cc 57 aa 3d
       -0.21455692 -0.1985154 -0.0058570146 0.08317527
000040 44 00 b6 bc ca df db 3a 52 69 40 bc 57 86 a3 be
       -0.022216924 0.0016775068 -0.01174386 -0.3193843
000050 99 d7 d2 3e 47 ee 47 be 58 a2 40 be 6a e7 83 be
       0.41180113 -0.1952449 -0.18811929 -0.25762492
000060 85 de aa 3e 54 74 18 be 31 9c 52 3e 8d c2 44 3e
       0.33372894 -0.14888126 0.20567395 0.1921484
000070 4a a5 83 bc 5b b1 c6 bd c1 23 79 be d7 8d 93 be
       -0.016070027 -0.097017966 -0.24330045 -0.28819153
000080 79 d2 a5 3e 1a 00 7c 3e c4 c1 ae be f3 f5 23 be
       0.3238714 0.24609414 -0.34132206 -0.16011791
000090 5c 5c 00 bf 93 1d b6 be b1 01 60 3d 9e f0 b3 bd
       -0.5014093 -0.35569438 0.054689113 -0.087861285
0000a0 98 fb bf 3e 30 fe 9f 3e 35 06 05 be 3c 93 02 3f
       0.37496638 0.31248617 -0.12990649 0.5100591
0000b0 c0 13 82 3e a4 54 aa 3e 0b 6a c8 bd 98 c3 bb 3d
       0.25405693 0.332677 -0.09785851 0.09168166
0000c0 d8 84 46 be 79 d6 3b be ab 52 81 3e 62 1e c4 3e
       -0.19386613 -0.18343534 0.25258383 0.3830443
0000d0 6d fa b5 be 56 a0 0c 3e c1 f3 10 be f7 fb a4 be
       -0.35542622 0.13733038 -0.14155485 -0.32223484
0000e0 91 8f 39 3e c0 d0 99 3e 77 8e c1 bd 85 1f b8 3e
       0.18121172 0.30042076 -0.09451001 0.35961547
0000f0 62 d5 63 be ea 11 82 3e 37 b1 5a 3e d3 ba 85 be
       -0.22249368 0.25404292 0.21356665 -0.26119098
000100 e9 28 b8 bd 5e bd eb bd 5c ca b7 bd ca 8e a8 3e
       -0.08992178 -0.11510728 -0.08974144 0.3292144
000110 13 57 bf 3e ec 69 83 be 46 df d7 3e 51 99 47 be
       0.3737112 -0.2566675 0.42162532 -0.1949208
000120 f7 b9 51 3e 7e 1e 9e be 3c 34 30 bd a7 9e d9 be
       0.20481096 -0.3088264 -0.043018565 -0.42503855
000130 df 2d 90 3e 72 f5 2e be 33 da ec be 10 1f 19 be
       0.28159997 -0.17085817 -0.46260223 -0.14953256
000140 af 0f 85 3e 19 be 1f 3e 30 5c 13 3e 48 0f bf 3e
       0.25988528 0.1559986 0.14390635 0.37316346
000150 d7 39 98 bd 56 2e 95 3e 0f cd 9c be 16 5c a4 be
       -0.07432907 0.29136914 -0.30625197 -0.32101506
000160 62 a5 27 3e e0 e7 9c be b8 08 13 3e c0 ed 81 3e
       0.16371682 -0.30645657 0.14358795 0.253767
000170 0f d5 1e ba 7e 41 a1 3e 5f 52 ca 3d ef 5b e4 bd
       -0.000605897 0.3149528 0.09878992 -0.111503474
000180 a6 76 a1 be 9e 52 91 be f0 dd e7 bd d2 4e f1 3c
       -0.31535834 -0.28383344 -0.11321628 0.02945653
000190 b6 17 6d be c7 9c 01 bd 62 14 01 3d fa d5 3b 3c
       -0.23153576 -0.031643655 0.03151358 0.01146459
0001a0 26 d7 c3 be ff 96 7b 3e 5e ea 9f 3e 4f b3 94 3e
       -0.38250083 0.24569319 0.31233495 0.29043052
0001b0 a0 ce a2 be 47 bb 4d 3d fe a8 66 3e 69 9a 64 3e
       -0.31798267 0.05022743 0.22525403 0.22324528
0001c0 c2 f0 8a be 82 06 31 bb 35 90 02 bc e4 21 65 be
       -0.2713681 -0.0027011936 -0.007968952 -0.2237621
0001d0 d8 6d a3 be a8 9c ce 3d 63 f5 4b 3e 08 65 be be
       -0.31919742 0.100884736 0.19917826 -0.37186456
0001e0 e5 90 a8 bd 8f ce b9 be 2d 7f 92 3d 8a 47 da 3d
       -0.082307614 -0.36290404 0.07153163 0.10658176
0001f0 02 49 a9 be d4 bc 23 3e 1a 1b fb bd cc 88 89 be
       -0.33063513 0.15990001 -0.122610286 -0.2686218
000200 f5 ce 7c be ef 10 de bc 75 82 4c 3e 81 73 3f be
       -0.24688323 -0.027107684 0.1997164 -0.18696405
000210 8e e5 44 bd 2f 2f 90 be ae 05 8d be 8a a7 a3 3e
       -0.048070483 -0.28160998 -0.27543396 0.3196376
000220 d5 bf 70 3e ad 84 42 be ea 1c bd 3e 93 05 04 3d
       0.23510678 -0.18995924 0.36936122 0.03223188
000230 47 8f 5b 3e 9e c7 0b bf 75 8c bd bd 54 c4 af 3e
       0.21441375 -0.54601467 -0.09255306 0.34329474
000240 fe 2f 95 3e a4 70 48 3e 3f e7 14 be f5 4c f5 3c
       0.29138178 0.19574219 -0.14541338 0.029943923
000250 46 ce 8a bc 92 fe 51 3e 1f 92 b0 bd 8c 75 81 be
       -0.016944062 0.20507267 -0.086216204 -0.25284994
000260 d2 b4 a5 be 23 75 f3 be 2c 42 b2 bd 32 cd 36 3e
       -0.32364517 -0.47550306 -0.087040275 0.17851713
000270 a1 2d 4b be ba 07 40 3e b6 7e 5e be 97 d3 6c 3b
       -0.19841625 0.18752947 -0.21728024 0.003613686
000280 1c 03 77 be 68 17 a4 be b5 48 c0 3c 59 26 e1 3d
       -0.2412228 -0.32049108 0.02347217 0.10993642
000290 04 14 96 3e 0e 82 50 3d aa c5 0b 3c bb eb b1 3e
       0.29312146 0.05090528 0.0085310135 0.3475016
0002a0 d5 e9 4c be 31 0f 76 3d 7a 56 93 bc 26 de f0 3c
       -0.20011075 0.06007308 -0.017985571 0.029402804
0002b0 5f 0c 3f be 7f a6 b1 3c 66 f1 79 be 96 f3 8f 3e
       -0.18657063 0.021685837 -0.24408492 0.2811553
0002c0 6d fa 66 bd 81 2c 00 bd 3c 87 ba 3e 8c 36 b0 bc
       -0.05639117 -0.031292442 0.364313 -0.021510385
0002d0 e4 16 ad be 93 7f d0 3d db 93 33 3e f7 07 a0 bd
       -0.33806527 0.10180583 0.17536871 -0.07814019
0002e0 8e d8 a3 be 28 a5 9c be f4 a9 ab bd 88 ed 93 3c
       -0.32001156 -0.30594754 -0.08382025 0.0180576
0002f0 6d 68 c8 be 4c 7a a5 be b0 73 b5 bd c8 3b ac be
       -0.3914217 -0.32319868 -0.08859956 -0.3363936
000300 a7 a4 7c bc 65 62 f8 3d 3f 4a b6 3e c5 2b 83 bc
       -0.015420116 0.12128142 0.3560352 -0.016012082
000310 dd 72 8a 3d df 1b c8 3e 9d c9 04 3e 68 83 a3 3e
       0.0676019 0.39083764 0.12967534 0.31936193
000320 ae 3d d9 bd 41 45 bd 3e 1d 44 bc be fc 05 88 3e
       -0.106074676 0.369669 -0.36770716 0.26567066
000330 da 70 93 3e 35 9d f9 bb 79 f0 b7 3e 15 bd 3d 3e
       0.28797036 -0.0076176175 0.35925654 0.1852916
000340 fe 94 9b 3c de 09 ac bd 30 9a c8 3e 1c 0a 61 3e
       0.018991943 -0.084003195 0.39180136 0.21976513
000350 b8 4e 3c 3e 04 67 f6 3c ed 33 ca bd 91 5b 1d be
       0.18389404 0.030078419 -0.09873185 -0.15366961
000360 b7 03 4e 3e 41 64 1d 3e 72 9f 8e 3e 33 1a 77 3d
       0.20118605 0.15370275 0.27856022 0.06032772
000370 20 cf a2 bd d7 bc 0f 3d 34 fb 42 be ef a8 64 3d
       -0.07949662 0.0350922 -0.19041139 0.05582517
000380 b3 06 28 3e e8 5d 14 bf 3c 6e a6 3e 9a 56 13 be
       0.16408806 -0.5795579 0.32505977 -0.14388505
000390 a7 0f a0 3e 5a 43 a8 3e c7 fb 16 3e 05 44 e1 3e
       0.31261942 0.32863885 0.14744483 0.43997207
0003a0 0a bc 4d be 33 35 ba be 07 7f 21 3d 66 a3 af bd
       -0.20091262 -0.36368713 0.039427783 -0.08576088
0003b0 06 e9 8f be d5 93 86 bd 11 61 1d be 5e cd 37 be
       -0.2810747 -0.065711655 -0.15369059 -0.17949435
0003c0 53 e6 62 be 9f 81 22 3e dd e7 a0 3d 4e 33 8a be
       -0.22158174 0.15869759 0.078567244 -0.26992267
0003d0 f0 8e e4 bd f1 9f 21 bd 27 42 05 3f 60 94 b2 3e
       -0.11160076 -0.039459173 0.52054065 0.34878826
0003e0 c1 e1 ba 3d 8e 26 e7 bc 87 16 a6 3c 2d 16 b0 3e
       0.091250904 -0.028216626 0.020274414 0.3439192
0003f0 74 13 8d be 60 99 06 bf f7 73 db 3d 81 78 80 be
       -0.27553904 -0.5257778 0.10715478 -0.25091937

encoder.convs.0.edge_mlp.0.bias f4 [128]
000000 4b f8 22 3e eb d7 23 3e eb 30 82 be 1d 0c ab 3c
       0.15915029 0.16000335 -0.25427946 0.0208798
000010 c0 3d 74 bc ff 3a 58 3e 27 fe ef bb b1 26 f3 bd
       -0.0149073005 0.21116255 -0.0073239985 -0.11872614
000020 32 ac 33 3e d3 bb a0 bd 66 6d 28 3a 81 9a 5e bd
       0.17546156 -0.078483246 0.0006424993 -0.054346565
000030 a2 32 3d 3e 18 aa 1c bd 9d 03 35 3e 1e 3c 4e be
       0.18476346 -0.03824815 0.1767716 -0.2014012
000040 c8 65 76 bd b0 ce b3 3e df 74 4a be c9 b2 a7 bd
       -0.06015566 0.35118628 -0.19771145 -0.081883974
000050 03 cb e6 bb d8 5a d4 3d 72 ca d3 bd 67 0d f7 3d
       -0.007043244 0.103688896 -0.10341348 0.12063103
000060 39 64 ba bd e6 5a 41 3d 91 86 ae 3e 6d 3f 9b 3e
       -0.09101147 0.047205828 0.3408704 0.30321828
000070 9d 45 f7 bd 20 4b 5a be c5 4f 5b be b3 7a be 3b
       -0.120738246 -0.2131772 -0.21417148 0.0058129667
000080 78 d6 58 bc 2c 54 0b 3e 56 00 97 bd eb 78 19 3e
       -0.013234727 0.13606328 -0.07373111 0.14987533
000090 45 8d 39 3d 30 52 7f 3d 8f e0 af 3e 69 21 0a 3d
       0.04530074 0.06233424 0.34351012 0.03372327
0000a0 da c1 81 3c 5b de e9 bd 4c 8b 81 3e cf 41 a1 be
       0.015839506 -0.11419364 0.25301588 -0.3149552
0000b0 7f d8 27 be 47 56 ac 3d be c9 60 3e 9a fb aa be
       -0.1639118 0.084148936 0.21951959 -0.33395082
0000c0 bd ba 30 bd f2 fb 99 3d 39 ef 9c 3e 4c 4a 28 3e
       -0.043146838 0.07518758 0.30651262 0.16434592
0000d0 d0 d8 98 3e ed 92 be bd 5a 4e a9 be b5 7e a8 3d
       0.29852915 -0.093053676 -0.3306759 0.082272924
0000e0 9f 4b 7a 3e 14 4f 98 3c 06 7a 02 3e a5 88 ad 3e
       0.2444291 0.018592395 0.12741861 0.33893314
0000f0 93 06 98 be 83 8d fd 3d 75 f9 0a 3e ce d3 44 3d
       -0.29692516 0.12380507 0.13571723 0.048053555
000100 97 33 80 bd 2c d6 fc bd 0a b3 26 3e e9 03 9f 3d
       -0.0625984 -0.123455375 0.16279235 0.07764418
000110 e0 d3 db 3d 19 2e 50 3d 67 ab 6b be 21 35 18 3e
       0.10733771 0.050825212 -0.23014604 0.14864017
000120 57 65 02 be 15 a4 62 be 0d 23 1b be ba 60 8e be
       -0.1273397 -0.22132905 -0.1515009 -0.27808172
000130 93 0e 91 be d7 08 8e bc ca 20 b8 be 38 f8 82 3e
       -0.28331432 -0.0173382 -0.35962516 0.2558
000140 cd 5a 84 be 0f 1c c4 3d 7b 5c 0f 3e d6 a4 b4 bd
       -0.25850525 0.09575664 0.14000122 -0.088205025
000150 73 c8 2a 3e 30 04 a6 3e a0 d4 a7 be 22 7d e8 bc
       0.16678028 0.3242507 -0.32779408 -0.02837998
000160 92 85 77 3e 61 6a ad 3e 8f 52 1f 3e fd 54 a0 3e
       0.24172047 0.33870223 0.15558837 0.3131484
000170 a1 7c 41 be 90 e3 a3 3e 7a c0 e5 3d 46 ca 69 be
       -0.18895198 0.32009554 0.112183526 -0.22831067
000180 f1 6a 57 3e 54 56 8c 3e 6c 74 95 be 0a 19 1d 3e
       0.21036889 0.27409613 -0.29190385 0.15341583
000190 3d bd c9 3d 47 b2 96 3e 0b c9 a3 be e2 91 28 3e
       0.098505475 0.2943289 -0.3198932 0.164619
0001a0 0a b9 ab 3e a0 71 d8 bd e9 d0 19 3e d8 24 99 be
       0.3353961 -0.10568547 0.15021099 -0.29910922
0001b0 d0 12 93 3d 63 d3 37 be 2f 13 a9 be 48 ab 3d 3e
       0.071813226 -0.17951731 -0.33022448 0.1852237
0001c0 27 c9 37 3e f3 c1 40 3e 3b ac 88 3e 68 dc 95 bd
       0.17947827 0.18823986 0.266939 -0.0731743
0001d0 d1 86 81 be eb 43 4d 3e c7 e6 90 3e 82 10 81 be
       -0.2529817 0.2004544 0.2830107 -0.25207907
0001e0 09 f5 83 be 3e 9f 3a be e1 32 23 be a1 5d 53 3e
       -0.25772884 -0.18224809 -0.15937378 0.20641185
0001f0 53 ef 8a be 69 ff c1 3d d8 18 27 3d d9 61 82 be
       -0.27135715 0.09472544 0.040795177 -0.25465277

encoder.convs.0.edge_mlp.2.weight f4 [128, 128]
000000 9e 75 b7 3d 59 20 cc 3d b8 f3 bd bd 35 0e 39 bd
       0.089579806 0.09967107 -0.09275001 -0.045179565
000010 9c f0 80 3d ce 6b cf bd 57 06 0e 3d 7f cd 07 3d
       0.062958926 -0.10127984 0.034674015 0.03315496
000020 10 68 6b bd c8 fe bf 3b 50 34 d4 bc 44 d8 8e 3d
       -0.05747229 0.0058592297 -0.02590385 0.06974843
000030 f0 1c ba bd 02 bd 3b 3e 18 6d 2d 3e 59 05 62 bd
       -0.09087551 0.1833382 0.16936147 -0.05518088
000040 af dd d2 3c 75 70 a7 bd 6b 94 6c bd 38 fd db 3d
       0.025740473 -0.08175746 -0.05775873 0.10741657
000050 0b dd 98 3d e4 2a 03 3e c8 01 d8 bc 49 de 80 bd
       0.074640356 0.1280933 -0.026368037 -0.062923975
000060 e2 1d e3 3d 59 e9 d2 3d f2 b9 5c bd e8 6a d7 3c
       0.11089684 0.10298414 -0.05388827 0.026296094
000070 4e 6e e9 bc ef f1 34 bc bb bb 79 3d c1 af 2f bd
       -0.02849498 -0.01104401 0.06097005 -0.04289222
000080 0a 5b fa bb 35 6e 38 3c 7c ca ca 3d 18 df 90 bd
       -0.0076402472 0.011256744 0.09901902 -0.07073802
000090 a9 97 ee bc 84 a2 c9 3b fa 65 75 3d 2b 68 41 3d
       -0.029125052 0.0061534066 0.059911706 0.047218483
0000a0 56 7a ce 3c af 25 e9 bd 32 b3 1f 3d bd 25 33 bb
       0.025204819 -0.11384141 0.038989253 -0.0027335726
0000b0 98 57 09 bd 74 72 9c 3d 80 2f 49 bd bb 98 c5 bc
       -0.0335308 0.07639018 -0.049117565 -0.02412068
0000c0 c6 08 2e 3d c7 cf 36 3d 12 7c d1 bd 43 6f c6 3c
       0.042488836 0.044631746 -0.10228743 0.024222976
0000d0 e5 11 31 3d 85 2d 9d bd 19 38 89 bc e6 46 c6 bd
       0.043229956 -0.07674698 -0.016750382 -0.096814916
0000e0 42 5a 2f bc 84 cf 1f 3e f3 21 3f 3e 82 45 b9 3c
       -0.0107026715 0.15606505 0.18665294 0.022616152
0000f0 29 e5 ee bb f3 0b 00 bb b5 09 68 3d 09 cd d4 bd
       -0.0072905016 -0.0019538372 0.056649882 -0.1039067
000100 24 f6 0c bd 5c ce 81 3d d2 c0 8c 3d 44 51 54 3b
       -0.034414425 0.06338188 0.06872715 0.003239707
000110 c0 da c8 3b 53 f6 92 bc 04 22 8b 3c 3b 1f e1 bd
       0.0061295927 -0.017939722 0.016983993 -0.10992285
000120 55 4f b4 bc 0b 60 80 bd 97 69 0f bd 73 ad b7 3d
       -0.022010485 -0.06268319 -0.035012808 0.0896863
000130 4e 87 a4 bd b6 69 1f 3d 7e b0 6d bd 10 ff 05 3d
       -0.0803362 0.038919173 -0.058029644 0.03271395
000140 5f 91 b0 3d b2 d1 bf 3c 21 63 09 3d fc 9b dd 3d
       0.08621477 0.02341542 0.033541802 0.10820767
000150 5e 64 4d 3e 5a 33 93 bd 0c b2 8f bc e0 fc c9 3c
       0.20057818 -0.07187529 -0.017540954 0.024656713
000160 7d 00 57 bd cc dc af bc d9 21 51 3d ce fb 8d 3b
       -0.0524907 -0.021467589 0.05105767 0.004332996
000170 16 89 ac 3c b4 d9 ab 3d e6 e3 ea 3d ad a3 70 bc
       0.021061461 0.08391133 0.114692494 -0.014687461
000180 05 8a 08 bc d4 93 54 bc 74 87 57 bd 36 d7 36 bd
       -0.008333688 -0.012974698 -0.052619413 -0.044638835
000190 12 f1 d2 3d e0 93 b8 bd e3 ab f9 3c ad 88 9d bc
       0.10299887 -0.0901258 0.03047747 -0.019230211
0001a0 6f b1 b9 3d 3f 2a 1e bd 05 67 03 3e ca f7 3b bd
       0.09067046 -0.038614508 0.12832268 -0.045890607
0001b0 b8 bd 55 bd fc 2c 0a 3e 03 53 2b 3d 59 d2 da 3d
       -0.052182883 0.13493723 0.041827213 0.10684652
0001c0 cb 82 c4 bd 04 39 98 3d 6c 4b 03 3c 68 fd d4 3d
       -0.09595259 0.0743275 0.008013587 0.10399896
0001d0 6f df 89 bc 70 6f ba 3c 8d 80 38 3d ea 3f 67 bd
       -0.016830174 0.022758216 0.04504447 -0.056457438
0001e0 b3 8a 2b 3d da 79 9d bd 7a 5f a4 3d 63 13 d4 3d
       0.04188032 -0.07689257 0.08026023 0.1035526
0001f0 00 3e 7f bd a1 e4 1d bd e3 77 b2 3b 4b 72 dd 3c
       -0.062314987 -0.038548116 0.0054464205 0.027032038
000200 22 f7 13 be bf ea 0d bd d2 31 d7 3d 3b f2 1f bd
       -0.14449742 -0.0346477 0.10507549 -0.03904937
000210 3b 4b d5 3c df 39 33 3d 40 9c 3e 3d b7 55 e6 bc
       0.02603685 0.043756362 0.04653573 -0.028117044
000220 e0 85 4d bc 14 0e 0f be cd 6f b5 3d 6a 5b 91 bd
       -0.012544125 -0.13970214 0.08859215 -0.07097514
000230 6c a5 31 3d 4b c5 fd bd 3f e7 40 be bb 8e 84 3d
       0.04337065 -0.12391146 -0.18838213 0.06472536
000240 55 c4 52 bd c6 d6 31 bd e3 08 66 bd e5 59 02 3d
       -0.051456768 -0.043417715 -0.05616082 0.03182401
000250 7d 2b 93 bc 58 77 17 bd 24 54 98 bd 0d d0 6b bc
       -0.017965073 -0.03697905 -0.074379236 -0.014392865
000260 7d 69 16 3d 8f 6e c8 3d 4b be 8a bc 86 aa bb bd
       0.036721695 0.097867124 -0.016936442 -0.09163384
000270 07 3d 96 3d d9 55 50 bd 85 ce 8b bd 83 69 b9 3d
       0.07335859 -0.05086312 -0.068265 0.09053328
000280 83 85 b7 3c 4f 49 f9 3b b0 9c 1d 3d 45 d0 71 3d
       0.02240253 0.007607616 0.038479507 0.059036512
000290 23 84 85 3d d1 71 b2 3d c5 76 8f 3c 28 c0 ce 3d
       0.06519344 0.08713115 0.017512688 0.10095245
0002a0 c7 a9 9f bd 13 de 84 ba a9 63 90 bd ab cb a7 bc
       -0.07796054 -0.0010136984 -0.07050259 -0.020482859
0002b0 2d 49 60 3d 7f 94 ae bd 37 95 99 bb 3d 3a eb 3a
       0.054757286 -0.08524417 -0.0046869772 0.0017946434
0002c0 50 ca 14 bd 7a b1 2e bb 8a c6 ce 3d db b3 85 bd
       -0.036325753 -0.0026656077 0.10096462 -0.06528445
0002d0 8c d5 d4 3b 76 5c a7 3c 9b bd 97 3d 47 66 f0 bb
       0.0064951833 0.020429831 0.07409211 -0.007336411
0002e0 90 40 bc bd f4 87 de bd f1 6e ea bd 58 f9 73 bd
       -0.09192002 -0.10865775 -0.11446942 -0.059563965
0002f0 d4 a4 43 bd d0 af ee 3b 62 dc a3 bc 0f 25 71 3d
       -0.047764614 0.007284142 -0.020002548 0.058873232
000300 fd 9c ff 3b f0 aa f4 bc 17 d5 65 bd 60 65 ad bd
       0.007800697 -0.029866666 -0.05611142 -0.08466601
000310 35 92 d8 bc 36 db 0f 3d df 7e c1 3d 01 d9 e7 3d
       -0.026436904 0.035121165 0.09448027 0.11320687
000320 d0 a6 c7 3d 97 96 8d 3d 33 5e 8b 3d 7b c6 bd bb
       0.09748614 0.06913488 0.068050765 -0.005791483
000330 06 72 4c 3d 93 4e 87 bd 7d 79 3e bd 24 77 9c 3c
       0.04991343 -0.06606784 -0.04650258 0.01909978
000340 ba 99 97 3d fe c3 b5 bc 9d 9e df 3d 4a 26 10 bd
       0.07402368 -0.022188183 0.10918925 -0.035192765
000350 0c 18 fa bd a2 41 9a 3d 94 9c a2 bd 66 55 90 3d
       -0.12211618 0.0753205 -0.07940021 0.070475385
000360 10 58 90 3d fd 71 1b 3d 5d d4 5f bd 0a cf 13 be
       0.070480466 0.037950505 -0.054645885 -0.14434448
000370 22 10 e4 3d 29 44 65 3c f6 65 80 3d 9e b0 4e 3d
       0.111358896 0.013993301 0.062694475 0.050461404
000380 21 e8 c0 bc 31 ee 97 bd ef f3 9a 3d cb 99 d7 bd
       -0.023548188 -0.07418478 0.07566058 -0.105273806
000390 8b 97 a0 bd 2b 73 6a 3d ab b0 8c 3c 3a 93 bb 3c
       -0.078414045 0.05723874 0.017174086 0.022897352
0003a0 fb d3 92 bd 34 3f 9f bd 9a ea ae bd a5 75 c0 3c
       -0.07169338 -0.07775727 -0.085408404 0.023493597
0003b0 f7 bc 36 3d 3a 8c 73 3c 0c 33 78 3d e0 2f 92 3c
       0.044613805 0.014864976 0.060595557 0.017845094
0003c0 09 bb 1a ba 19 48 b2 bd 7d aa c9 bc ee 82 a7 3c
       -0.0005902504 -0.08705158 -0.024617428 0.020448174
0003d0 88 45 92 3c c9 8b 5f 3d 88 cc 92 3d f9 ad c0 3c
       0.01785542 0.05457667 0.071679175 0.023520457
0003e0 02 f5 aa bd 91 0d e2 bb c0 f6 1a 3d 5f 1f 53 3d
       -0.08347513 -0.00689859 0.037832975 0.05154359
0003f0 0b ae 4e 3d 3d df 49 bd 1c 12 36 3d 9a 26 86 bc
       0.05045895 -0.049285162 0.044450864 -0.016375829

encoder.convs.0.edge_mlp.2.bias f4 [128]
000000 05 33 8f 3c e1 cd 90 bd 13 ae a4 3b 08 ea d3 3c
       0.017480383 -0.07070518 0.005025634 0.02586843
000010 f4 9d 30 bd 8c dc d4 3c 69 3a 38 bc 4d db 90 bd
       -0.043119386 0.025984071 -0.011244395 -0.07073078
000020 01 00 98 bd 3c a3 84 3b 07 c4 9a bd f8 11 84 3d
       -0.07421876 0.0040477794 -0.075569205 0.0644874
000030 a8 cb fd 3c 30 bb 98 3d 09 2e 7a bc 34 c2 49 3d
       0.0309809 0.07457578 -0.015269765 0.049257472
000040 72 0f 9b bd 7c 17 15 3d d7 25 09 3d d9 7a aa 3c
       -0.07571305 0.03639935 0.033483353 0.020810531
000050 84 c7 3a bd 2a 26 0f bd 42 1f 21 bd 7f d7 8a 3d
       -0.04560043 -0.034948505 -0.03933645 0.06779384
000060 a0 4a aa 3c bb e2 0c bd 5b fa c3 bc 47 63 26 bc
       0.020787537 -0.034395915 -0.02392309 -0.0101555055
000070 0b ef f4 3c 61 22 9b 3d fd 7c 4c 3d 53 36 7e 3d
       0.02989914 0.07574917 0.049923886 0.062063526
000080 e2 c6 39 bd 94 c7 ba 3c a6 e2 73 3d ce 27 7b 3d
       -0.045355685 0.022800244 0.05954232 0.061317258
000090 95 9c 96 3c 91 aa 91 3d 49 c8 3f bd 39 a4 9f bd
       0.018385211 0.07112611 -0.046821866 -0.07794995
0000a0 94 27 a5 3b 98 98 59 3d d1 86 7f 3d cf cd 76 bd
       0.0050401185 0.05312404 0.06238443 -0.060254868
0000b0 33 20 94 3d dc 92 92 bd 61 60 80 3d 35 2e 1f bd
       0.07232704 -0.071569175 0.06268383 -0.038862426
0000c0 49 32 a2 3d b6 1d 50 3d 81 d5 37 3d 0d 41 06 bc
       0.079197474 0.050809585 0.044881348 -0.00819422
0000d0 5c 49 a9 bd 80 c1 70 bd 1b 1a ae bd 61 01 c0 bc
       -0.08265945 -0.058778286 -0.08501073 -0.023438158
0000e0 07 05 09 bd c8 21 81 3c e5 60 8e bd cd 48 87 bd
       -0.03345206 0.015763178 -0.06952075 -0.066056825
0000f0 d9 17 2c 3b 12 39 81 bc 62 09 9c bc 84 3b 9b bd
       0.0026259331 -0.015774284 -0.019047443 -0.07579711
000100 50 c6 9d bd 7d 51 b7 bd 7e c3 33 bd 33 f0 a8 bc
       -0.07703841 -0.089510895 -0.043887608 -0.020622348
000110 a5 0d 85 bd 4d 9f 82 bd 29 8a 43 bc bd c6 a3 3d
       -0.06496743 -0.063780405 -0.011934795 0.07996891
000120 25 0a 81 3d 62 31 2e bc dd e9 6e bd ed c7 69 3c
       0.06300763 -0.010631891 -0.0583285 0.014268857
000130 cd ca 9e bd ef 47 8a bd 7c d8 42 3b c4 a6 09 3c
       -0.07753525 -0.067520015 0.0029731086 0.008401576
000140 7d 0d 25 bd 50 8e 20 bc 46 55 9b 3b 8b d6 53 bc
       -0.040296067 -0.009799555 0.00474039 -0.012929569
000150 a0 54 a5 3c a0 c1 15 3d 82 61 42 bd 7b 79 51 3b
       0.020181954 0.03656161 -0.047456272 0.0031963277
000160 1c f1 8a bd 16 ce 40 bd c0 1c c4 bd 03 28 81 bd
       -0.06784269 -0.04707154 -0.09575796 -0.0630646
000170 f1 96 46 bd e5 0f 2c 3c 94 41 78 bc 53 ef 70 3c
       -0.048483793 0.010501836 -0.015152354 0.014705497
000180 54 e2 54 3d a2 90 9a 3c 84 71 59 3b e4 0c 19 3d
       0.051973656 0.018867794 0.0033179233 0.03736581
000190 26 de 58 bd a4 2e ac 3b a8 e8 bf 3c be 9a 89 3d
       -0.052946232 0.0052545834 0.023426369 0.06718968
0001a0 a9 a3 9c 3d 76 00 94 bd 8e af f0 3b b3 c8 a0 3d
       0.07648403 -0.072266504 0.0073451465 0.0785078
0001b0 a1 f9 be 3c e8 89 8d bd 2a 86 79 3d 4a a0 a0 bd
       0.023312392 -0.06911069 0.060918964 -0.07843073
0001c0 29 8b 6b bd f7 cf 80 bd c6 c2 93 3d 18 96 98 3d
       -0.05750576 -0.06289666 0.072148845 0.07450503
0001d0 65 e8 ad bc 45 48 8b 3c 67 79 ff 3c 78 1c b5 bd
       -0.021228978 0.017002234 0.031185819 -0.088433206
0001e0 3a 63 31 bd c6 a8 06 bd 3d 1b a8 ba 33 92 a5 bc
       -0.04330752 -0.0328758 -0.00128255 -0.020211315
0001f0 f9 80 71 3d 38 c6 7b bd 0b b9 ff bc 5b 06 06 3b
       0.05896089 -0.061468333 -0.031216165 0.0020450565

encoder.convs.0.norm.weight f4 [128]
000000 d9 27 74 3f 21 02 78 3f 90 c8 6f 3f 85 10 74 3f
       0.953733 0.9687825 0.9366541 0.95337707
000010 5c 5a 73 3f 38 98 74 3f a7 2b 73 3f 51 d1 74 3f
       0.9505975 0.9554477 0.94988483 0.9563189
000020 c2 90 72 3f 7c ea 70 3f b8 59 71 3f 70 09 71 3f
       0.9475213 0.94107795 0.94277525 0.94155025
000030 bb f4 6f 3f 79 61 81 3f 16 6c 75 3f 9e 3d 73 3f
       0.93732804 1.0107871 0.9586805 0.95015895
000040 72 9d 75 3f fa c8 73 3f 57 cc 74 3f 7a cf 72 3f
       0.9594337 0.9522854 0.956243 0.94847834
000050 27 3d 77 3f 66 1a 74 3f c4 5f 74 3f 77 80 7e 3f
       0.96577686 0.9535278 0.95458627 0.9941477
000060 7b af 73 3f 5b d5 71 3f 4f 41 75 3f 5e b1 73 3f
       0.95189637 0.9446618 0.9580278 0.95192516
000070 68 5c 73 3f 2a 68 75 3f 49 9f 72 3f 7b ed 73 3f
       0.95062876 0.95862067 0.947743 0.9528424
000080 9c 33 6f 3f 78 0d 75 3f 3e a5 72 3f ef 39 72 3f
       0.93438125 0.95723677 0.9478339 0.9461965
000090 a1 76 77 3f ab 3b 72 3f 85 30 74 3f a7 d3 6d 3f
       0.9666539 0.94622296 0.95386535 0.9290108
0000a0 3c e1 72 3f 75 7d 72 3f 2c 81 7a 3f 10 cb 78 3f
       0.9487493 0.9472268 0.9785335 0.9718485
0000b0 23 af 71 3f 33 87 74 3f 41 af 6f 3f 28 54 74 3f
       0.9440786 0.955188 0.9362679 0.9544091
0000c0 7c 4c 71 3f 17 65 73 3f 7e 84 71 3f 1d 72 71 3f
       0.9425733 0.95076126 0.9434279 0.9431475
0000d0 1c 02 75 3f 3d ce 75 3f 1b 79 72 3f b9 9c 73 3f
       0.95706344 0.9601782 0.9471604 0.95161015
0000e0 5b 18 77 3f 23 37 71 3f 14 b2 6f 3f 37 d8 72 3f
       0.9652154 0.94224757 0.936311 0.9486117
0000f0 62 12 7b 3f 7f be 76 3f ef 3e 74 3f c0 72 73 3f
       0.98074925 0.96384424 0.9540853 0.9509697
000100 71 14 76 3f dc e2 71 3f bc 22 74 3f ca 1a 75 3f
       0.9612494 0.94486785 0.953655 0.95744
000110 ee 6b 7b 3f 61 9b 75 3f 4f d1 70 3f 4a 4e 71 3f
       0.9821156 0.95940214 0.9406938 0.94260085
000120 0d b8 7f 3f f2 32 75 3f b9 b0 70 3f 20 ed 71 3f
       0.99890214 0.9578086 0.9401966 0.9450245
000130 35 a5 79 3f e3 34 6d 3f 2e c3 74 3f ab 55 73 3f
       0.9751771 0.92658824 0.9561032 0.95052594
000140 50 ed 6f 3f a1 4d 76 3f 89 36 73 3f 7a 1b 76 3f
       0.93721485 0.962122 0.9500509 0.96135676
000150 a3 5f 77 3f d1 db 73 3f 9f 33 72 3f a6 2d 76 3f
       0.96630305 0.9525729 0.9461002 0.96163404
000160 3c f1 72 3f 62 e4 72 3f 45 dc 6d 3f a7 e0 74 3f
       0.94899344 0.94879735 0.9291423 0.9565529
000170 55 bd 72 3f 90 28 71 3f 75 92 76 3f cd 84 6b 3f
       0.9482015 0.9420252 0.96317226 0.9199951
000180 f7 66 7b 3f de bd 71 3f eb 1a 70 3f 7b cc 74 3f
       0.98203987 0.9443034 0.93791074 0.9562451
000190 7f 94 7c 3f 72 db 7c 3f 56 7b 73 3f bc b0 6e 3f
       0.9866409 0.98772347 0.9511007 0.93238425
0001a0 37 cd 73 3f d1 3f 73 3f 0e dd 70 3f 8d cb 72 3f
       0.9523501 0.9501925 0.940873 0.94841844
0001b0 25 62 75 3f 5b 99 74 3f 5f d4 76 3f 8c af 72 3f
       0.9585288 0.955465 0.964178 0.94799113
0001c0 5e 35 72 3f 6f 40 6f 3f fa 0d 6d 3f a3 9d 72 3f
       0.9461268 0.9345769 0.9259945 0.94771785
0001d0 63 2e 73 3f 5c 03 73 3f 29 c2 74 3f 7f a9 6e 3f
       0.94992656 0.94927 0.95608765 0.9322738
0001e0 c0 9c 72 3f 38 c3 6e 3f 1a 17 75 3f 34 06 74 3f
       0.9477043 0.9326663 0.95738375 0.95321965
0001f0 e0 e9 70 3f 0a 9a 74 3f ab 90 74 3f 5f 11 6f 3f
       0.94106865 0.95547545 0.95533246 0.9338588

encoder.convs.0.norm.bias f4 [128]
000000 dc a6 c6 bc 95 66 9e 3c d3 7c 73 bc d5 32 2b 3b
       -0.024249487 0.019336024 -0.014861303 0.0026122828
000010 03 e6 54 3c f3 5e 3b 3d ff 42 85 3c 65 af 27 3c
       0.012994292 0.045744848 0.016267298 0.010234688
000020 90 f1 00 3e ca 5c 86 bc cf a5 08 3d fe dc 23 bc
       0.12592149 -0.016401667 0.033361252 -0.010001419
000030 c1 c2 96 3d 73 31 15 3d 37 0a 84 bb 91 5d 61 bd
       0.07361365 0.03642411 -0.004029538 -0.055020873
000040 d3 c3 b9 3d 18 41 a9 3c a7 8a 32 3c 32 26 45 3c
       0.09070554 0.020660922 0.010897315 0.012033032
000050 69 6e 3e be 80 19 6e bd 39 b9 63 bc 84 0f d3 bc
       -0.18596806 -0.058129787 -0.013899141 -0.025764234
000060 4e 0d bf bc f2 f0 38 bc 4c f4 21 bd 42 f4 3b 3c
       -0.023321774 -0.011287915 -0.03953962 0.01147181
000070 1e 32 86 bb 29 ed 81 3b 5e c4 a6 bc 7f 9e 6b bc
       -0.00409533 0.0039650393 -0.020357307 -0.01438105
000080 cd be aa bc 76 d0 5b bd 79 f5 86 bd d4 70 c4 bc
       -0.020842934 -0.0536656 -0.06589789 -0.023979582
000090 e5 7c d0 3d 48 7b 0d 3d 01 65 b2 3c d2 1e ad 3a
       0.10180072 0.0345414 0.021776678 0.0013208038
0000a0 cb 82 da 3c 7d 78 18 bc d4 ca 87 be a9 76 8e bb
       0.026673695 -0.00930607 -0.26521933 -0.0043476415
0000b0 32 63 1c 3d 27 1a a8 3d de 30 26 3d e5 9d f8 3c
       0.038180538 0.08208113 0.040573947 0.030348727
0000c0 a7 55 19 bc 07 bd af 3b 0f 8f 8b 3c 16 67 b3 3c
       -0.0093588 0.00536311 0.01703599 0.021899741
0000d0 73 0d 14 3d 2f fa a7 3c 94 5d d1 3d e8 bd c2 bc
       0.03614564 0.020505039 0.10222927 -0.023772195
0000e0 01 08 88 bc 66 97 45 3d 09 e0 cb bc cb d0 07 bd
       -0.016605379 0.048240088 -0.024887102 -0.033158105
0000f0 05 e0 22 3e 24 8f cf bd f1 3d 54 bc 34 f7 19 3d
       0.15905769 -0.10134724 -0.012954221 0.037589267
000100 11 bc cf 3c 43 0c 34 bd f5 0d 8b 3d 6d c1 86 3d
       0.025358232 -0.043957006 0.067897715 0.06579862
000110 89 2a 04 bd e6 6b 23 be 7c a4 6c 3c 48 40 36 3c
       -0.032267127 -0.15959129 0.014443513 0.011123724
000120 91 78 bc 3d 33 f5 73 bd a9 30 cd bd d3 74 dc 3a
       0.09202684 -0.059560012 -0.10019047 0.0016819484
000130 15 d0 23 3d 67 5b 44 bc 70 91 3d 3c 53 22 15 3c
       0.039993364 -0.011984683 0.0115703195 0.009102422
000140 a5 e4 40 3c a9 47 89 bc f5 d6 24 bb 67 a1 98 bd
       0.011773263 -0.016757803 -0.0025152538 -0.0745266
000150 5c cc 18 3d 64 59 d8 3b 8d d2 8e 3c 50 cd 46 3d
       0.037304267 0.006602453 0.017434383 0.048535645
000160 f1 b5 dd bc 25 1b 71 bc b7 d6 0e 3d 30 1a c1 3b
       -0.027064295 -0.014715944 0.034872737 0.0058930144
000170 2d 86 65 3d 9f 45 01 bd 77 a8 d8 3c d8 ae 11 bd
       0.056036163 -0.031560536 0.026447518 -0.035567135
000180 84 15 63 bd 26 34 b3 bc 43 08 c9 bc d6 0f 2b 3d
       -0.05544044 -0.021875452 -0.024540072 0.04176315
000190 70 fd 83 bc 99 f2 cf bb c9 5a 12 bc b4 85 2c 3d
       -0.01611206 -0.0063460586 -0.008932778 0.042119697
0001a0 30 05 eb 3d 18 80 2b bc 7c 1b ae bd 84 c4 7c 3c
       0.11475599 -0.010467552 -0.08501336 0.015427712
0001b0 ca 0b be bc 63 f9 dc bb c7 91 84 3c 41 3f 0b bc
       -0.02319898 -0.0067435964 0.016182793 -0.008498968
0001c0 b1 dd 8e 3d a8 ab 15 3c c6 fc 54 3b 91 14 da bb
       0.06975878 0.009135164 0.0032499298 -0.0066552837
0001d0 80 ba bd bc e3 1b 69 3c 24 a3 6f 3c 20 b3 32 3d
       -0.02316022 0.01422784 0.014626298 0.04362786
0001e0 a4 9d d6 bc d0 5f fe 3c 0b 61 35 bc 2f 78 8e 3d
       -0.026198216 0.031051546 -0.0110705 0.06956517
0001f0 b9 89 ce bb 55 08 07 3c c7 6c c3 bb 43 e8 07 be
       -0.006303039 0.008241733 -0.005963895 -0.13272195

encoder.convs.0.norm.mean_scale f4 [128]
000000 3c 54 94 3f 7d b6 8d 3f b9 a6 7d 3f cf b1 68 3f
       1.1588206 1.1071316 0.99082524 0.90896314
000010 ca 6f 85 3f 3f ce 81 3f 70 3e 80 3f 20 8b 67 3f
       1.042474 1.0141066 1.0019054 0.9044666
000020 8c 38 86 3f 7f 21 80 3f 3d 83 78 3f 62 35 6a 3f
       1.0486007 1.0010222 0.97075254 0.91487706
000030 a3 b1 86 3f 77 2d 7d 3f cf 24 87 3f 7d 4b 80 3f
       1.052296 0.988975 1.0558108 1.0023037
000040 7d 24 6a 3f 7b 4a 72 3f 54 8c 74 3f 73 52 87 3f
       0.91461927 0.946449 0.95526624 1.0572037
000050 07 da 79 3f fd 29 83 3f b2 d3 64 3f 4d a5 70 3f
       0.9759831 1.0247189 0.8938552 0.9400223
000060 37 3a 6e 3f da 17 6e 3f 40 9a 6b 3f c4 59 8d 3f
       0.9305758 0.93005145 0.9203224 1.1043019
000070 ad 58 7e 3f 66 6c 6f 3f 5c fb 81 3f 24 b0 64 3f
       0.9935406 0.9352478 1.0154834 0.8933127
000080 99 10 80 3f 5d 92 84 3f b2 a6 5c 3f 62 67 83 3f
       1.0005065 1.0357167 0.86191857 1.0265925
000090 c8 11 87 3f 08 a2 7d 3f c8 99 72 3f 56 a4 6d 3f
       1.0552301 0.99075365 0.947659 0.9282888
0000a0 12 d0 77 3f 9c e6 6c 3f f9 3f 96 3f 3c 43 72 3f
       0.96801865 0.9253938 1.1738273 0.9463384
0000b0 bf 96 84 3f 35 b3 8b 3f 42 85 85 3f 02 03 7a 3f
       1.0358504 1.0914065 1.0431292 0.9766084
0000c0 b3 54 70 3f a4 16 74 3f 1a 2e 7b 3f 1a 48 76 3f
       0.9387924 0.95347047 0.9811722 0.9620377
0000d0 44 93 7b 3f 1e 04 5f 3f b2 12 7a 3f 80 28 88 3f
       0.98271585 0.8711566 0.97684777 1.063736
0000e0 aa 71 89 3f bb 82 88 3f e1 48 7a 3f 91 bd 73 3f
       1.0737813 1.0664896 0.97767454 0.9521113
0000f0 8f 43 8f 3f 20 6e 8c 3f c1 75 6c 3f 3e ec 77 3f
       1.1192492 1.0971107 0.9236718 0.9684485
000100 51 12 63 3f 88 5f 7f 3f 6f c0 5d 3f 0e 08 83 3f
       0.88699824 0.99755144 0.86621755 1.0236833
000110 4c 23 7a 3f 4c 4c 93 3f 3b d9 83 3f 34 b3 7a 3f
       0.9771011 1.1507659 1.0300668 0.9792969
000120 0f 4f 89 3f ad c8 8a 3f 92 0b 63 3f ee ec 83 3f
       1.0727252 1.0842491 0.8868953 1.030668
000130 bb 9e 86 3f 4b 29 71 3f 9f b8 90 3f a0 af 84 3f
       1.0517191 0.94203633 1.1306342 1.0366096
000140 dd c4 85 3f 91 39 6d 3f 89 9d 7c 3f 14 87 58 3f
       1.0450703 0.92665964 0.9867788 0.8458111
000150 bc 42 7b 3f 67 25 7f 3f 50 0a 80 3f 8a 26 7c 3f
       0.98148704 0.99666446 1.0003147 0.98496306
000160 03 7e 79 3f e5 13 7f 3f 12 1f 87 3f c7 4e 84 3f
       0.97457904 0.9963973 1.0556357 1.0336541
000170 99 ce 80 3f b9 ab 72 3f 12 b5 67 3f 00 00 82 3f
       1.0063049 0.9479328 0.90510666 1.015625
000180 91 9a 44 3f b4 e1 6b 3f 3a 6f 83 3f 14 4e 80 3f
       0.7679835 0.9214127 1.0268319 1.0023828
000190 c7 a5 71 3f cb fd 5e 3f 14 2c 67 3f 67 d6 75 3f
       0.9439358 0.8710601 0.9030163 0.96030277
0001a0 c5 b1 89 3f a2 41 7d 3f 7d e4 88 3f 42 3a 74 3f
       1.0757376 0.9892827 1.0694729 0.95401394
0001b0 5f d7 7e 3f b5 6f 84 3f 4e cb 78 3f e5 b0 75 3f
       0.9954738 1.034659 0.9718522 0.95973045
0001c0 53 43 85 3f b4 6f 6f 3f c6 27 77 3f 82 ef 6e 3f
       1.0411171 0.9352982 0.96545064 0.9333421
0001d0 ff 9d 7f 3f b8 f9 72 3f 9e 25 6d 3f 7d e9 7b 3f
       0.9985046 0.9491229 0.92635524 0.9840315
0001e0 e1 d3 81 3f 7b a3 75 3f d7 3e 81 3f fd 1d 74 3f
       1.0142785 0.95952576 1.0097302 0.9535826
0001f0 97 b6 67 3f e4 45 77 3f ab 2c 69 3f 3a 53 5f 3f
       0.90512985 0.9659102 0.9108378 0.8723637
