checkpoints/model_A_epoch_39.pth (torch, 552443 bytes, 27 tensors)

encoder.node_embedding.weight f4 [1, 128]
0	0x3fe1f195	1.765185
1	0x3fb09fb6	1.379874
2	0x3f50e5a2	0.8160039
3	0xbff6b5c5	-1.9274222
4	0x3f17a378	0.5923381
5	0xbf8ea3ab	-1.1143698
6	0x3a92ff4c	0.0011215
7	0xbfbbb3b1	-1.4664212
8	0xbf266fc0	-0.65014267
9	0x3fc1ea79	1.514968
10	0xbe9ed094	-0.31018507
11	0xbfa21920	-1.2663918
12	0xbf21aeba	-0.63157237
13	0xbef6e0c4	-0.48218358
14	0xbf2db540	-0.6785469
15	0x3f294c03	0.6613161
16	0x3fbdeb92	1.4837515
17	0xbdef284f	-0.1167761
18	0xbecd02a6	-0.40041083
19	0x3ec5e982	0.38654715
20	0xbf29e064	-0.6635802
21	0x3f792a1d	0.97329885
22	0x3f314e19	0.6925979
23	0x3fc85f9a	1.5654175
24	0x3f968cae	1.1761682
25	0x3f96fef7	1.1796559
26	0x3f06cb3e	0.5265387
27	0x3f9af133	1.2104858
28	0xbe326d4a	-0.17424503
29	0x39aa1463	0.00032440116
30	0xbe3b7747	-0.1830722
31	0x3f442425	0.7661765
32	0xbf9c6eba	-1.2221291
33	0xbf41547b	-0.7551953
34	0xbe0c66cc	-0.13711089
35	0x3fcc1836	1.5944889
36	0x3e84ba5e	0.25923437
37	0xbeb9de39	-0.36302355
38	0x3e771881	0.24130441
39	0xbf28dc50	-0.6596117
40	0xbfb6ee10	-1.4291401
41	0x3f685bf5	0.90765315
42	0xbf4b306a	-0.7937075
43	0xbf0580a4	-0.52149415
44	0xbf96756d	-1.1754586
45	0x3ffd329a	1.9781067
46	0xbf8cf244	-1.1011434
47	0xbebca20d	-0.36842385
48	0xbf55e086	-0.8354572
49	0xbf163b56	-0.5868429
50	0x3d04eac9	0.03245047
51	0x3ee0feb5	0.43944326
52	0xbede735e	-0.43447393
53	0x3f8d3ad0	1.1033573
54	0xbf549f97	-0.83056015
55	0xbf266040	-0.64990616
56	0xbfa0871b	-1.2541231
57	0x3b8f7229	0.0043776226
58	0xbca9fe97	-0.02075128
59	0x3f1797aa	0.59215796
60	0xbd0bb63a	-0.03410933
61	0x3fd93751	1.6970006
62	0xbf887d5a	-1.0663254
63	0x3fa480c4	1.2851796
64	0x3faaeb1d	1.3353001
65	0x3f44d1d0	0.7688265
66	0x4003accd	2.057422
67	0x3ed9f539	0.42569903
68	0x3e85a8dc	0.26105392
69	0xbe181d3b	-0.148549
70	0xbf79c09d	-0.9755953
71	0x3f964602	1.1740115
72	0xbdd4e84f	-0.10395872
73	0x3ee30d85	0.44346252
74	0x3cffa9be	0.03120887
75	0x3eabfaca	0.33589774
76	0x3f01ac2a	0.50653327
77	0xbf0df112	-0.5544597
78	0xc002dac6	-2.0446029
79	0xbf2e479b	-0.6807801
80	0x3a152fa4	0.0005690998
81	0xbe93b8c6	-0.28851908
82	0xbf9cf0ca	-1.2260983
83	0xbefec96c	-0.49763048
84	0x3ef44213	0.4770666
85	0x3ef1ffbb	0.4726542
86	0x3f8215b6	1.0162876
87	0x3b854384	0.0040668864
88	0x3f2841d6	0.6572546
89	0xbed8c2d2	-0.42336136
90	0xbf6e53f2	-0.9309684
91	0x3f0e7d49	0.5565992
92	0xbfc9ba6f	-1.576002
93	0xbf3fba80	-0.7489395
94	0x3f972ce1	1.1810571
95	0x3ed1d7d6	0.40984982
96	0xc013eb2c	-2.3112288
97	0x3ed293eb	0.41128477
98	0x3f314cf9	0.69258076
99	0x3a948f92	0.0011334291
100	0x3f11a4f1	0.56892306
101	0x3efced5e	0.49399847
102	0x3f78f68a	0.9725119
103	0xbec67109	-0.38758114
104	0xbe02dd8f	-0.1277983
105	0x3f2950f2	0.6613914
106	0x3ea0283e	0.31280702
107	0x3debd941	0.11516047
108	0x3e48cb29	0.1960875
109	0x3f97a5c1	1.1847459
110	0xba34bc64	-0.00068945275
111	0xbe53f090	-0.20697236
112	0xbfaba1d2	-1.3408759
113	0xbd628622	-0.0553037
114	0xbf009fd0	-0.50243855
115	0x3ebf4bb9	0.3736246
116	0x3f227b1f	0.6346912
117	0x3d51dc72	0.051235624
118	0xbe9b63e6	-0.30349654
119	0x3ee18374	0.44045603
120	0x39e41f57	0.000435109
121	0x3e24e1bd	0.16101737
122	0x3d8f02b2	0.06982936
123	0x3f2edf5e	0.6830958
124	0x3f7c7bde	0.98626506
125	0x3e89bf26	0.26903647
126	0x3f275114	0.6535809
127	0x3ebb8c3b	0.36630425

encoder.convs.0.node_mlp.weight f4 [128, 256]
0	0x3d4a2eee	0.049361162
1	0xbc4249a5	-0.011858379
2	0x3d4fe819	0.050758455
3	0x3c97bbe5	0.018522212
4	0xbd4cf80f	-0.050041255
5	0x3d27e4d3	0.04098971
6	0xbc7dcbc4	-0.015490476
7	0xbcb83d27	-0.022490097
8	0xbd47e405	-0.04880144
9	0xbd70c9db	-0.058786254
10	0x3c8bb10b	0.017052194
11	0xbc5138a4	-0.012769852
12	0x3cbd15d4	0.023081698
13	0xbd45fd3c	-0.048337206
14	0x3d33cf6c	0.043898985
15	0xbd31f47c	-0.04344605
16	0xbc2901cc	-0.01031537
17	0x3c5548ef	0.013017877
18	0x3cfbc991	0.030735763
19	0x3d438bdd	0.047740806
20	0x3d5ce68d	0.053930808
21	0xbd406872	-0.046974607
22	0x3c6ee1ad	0.0145801725
23	0xbcd14c89	-0.02554919
24	0xbbd97ef6	-0.0066374494
25	0xbd3549f8	-0.044259995
26	0x3d5c1c65	0.053738017
27	0xbd31ccc0	-0.043408155
28	0x3d017a63	0.031610858
29	0x3d28a37e	0.041171543
30	0x3c9d5100	0.019203663
31	0xbd038e20	-0.032117963
32	0x3d5c19f2	0.05373568
33	0x3c566b6a	0.013087133
34	0x3bf88be7	0.007585037
35	0xbd55701f	-0.05210888
36	0x3ccc592f	0.02494487
37	0xbc11a26b	-0.008888821
38	0xbce00799	-0.027347373
39	0x3d5026c2	0.050818212
40	0x3c5a2ecc	0.013316821
41	0xbd05e032	-0.032684512
42	0xbcf3b362	-0.029748622
43	0xbb312633	-0.0027030825
44	0x3d0758ba	0.0330436
45	0xbc7952b7	-0.015217475
46	0xbd0986c9	-0.033575807
47	0xbca2a8a4	-0.019855805
48	0xbd342872	-0.043983884
49	0x3cacfde2	0.021117155
50	0x3d389f60	0.045073867
51	0xbd64644c	-0.055759713
52	0x3c6141ae	0.013748569
53	0x3cf8a49b	0.030351928
54	0x3c2f3c98	0.010695599
55	0xbcaa8cd3	-0.020819103
56	0x3cfe1512	0.031015906
57	0x3d03f054	0.032211617
58	0x3cb298fa	0.02180146
59	0xbc2b4150	-0.010452583
60	0xbc81f57a	-0.015864123
61	0x3bc9a190	0.006153293
62	0xbc298144	-0.010345761
63	0xbc9105d2	-0.01770297
64	0x3d1a163d	0.037618864
65	0x3d4efcd2	0.050534077
66	0xbbc46879	-0.0059938994
67	0xbc5b9d48	-0.013404198
68	0x3a273704	0.00063787424
69	0xbb5b15d6	-0.0033429763
70	0x3c698344	0.014252488
71	0x3c869be6	0.01643176
72	0xbd589537	-0.052876677
73	0xbcb4cec2	-0.022071246
74	0x3d47d237	0.04878446
75	0x3cbccc7c	0.023046724
76	0xbb47d391	-0.0030491094
77	0xbd10a9e1	-0.03531826
78	0xbd1363eb	-0.03598396
79	0xbd583522	-0.052785046
80	0xbd085207	-0.033281352
81	0x3ca45d0a	0.020063896
82	0x3d1a8d2b	0.037732285
83	0x3ce17d95	0.027525702
84	0xbd562cc8	-0.0522888
85	0xbd1163c2	-0.035495527
86	0xbc1a03df	-0.009400337
87	0x3d70cf55	0.058791477
88	0x3c0a676a	0.008447507
89	0xbc78d769	-0.0151880765
90	0x3cc8fd6c	0.024534903
91	0xbcb7d7b7	-0.022441728
92	0xbd1bdf07	-0.038054492
93	0x3d31066b	0.04321901
94	0xbcdca7b7	-0.026935441
95	0xbc4773a5	-0.012173568
96	0xbd6fbfca	-0.058532514
97	0x3d216aeb	0.039408606
98	0x3d36295f	0.04447305
99	0x3d0c9ef1	0.034331266
100	0xbd28fe4a	-0.041258134
101	0xbd6ebecc	-0.058287427
102	0xbd446afb	-0.047953587
103	0x3d350228	0.04419151
104	0x3ce933b4	0.028467037
105	0x3d4b42a7	0.04962411
106	0x3cfc6859	0.030811476
107	0x3c72032d	0.014771265
108	0xba4d9671	-0.0007842547
109	0xbd38335f	-0.044970866
110	0xbd0526cc	-0.032507703
111	0xbd60566a	-0.05476991
112	0x3cc72b68	0.02431269
113	0xbce6c0a6	-0.028168034
114	0xbc3eef75	-0.011653771
115	0xbd0ae7e2	-0.033912547
116	0xbc33ff07	-0.010986096
117	0xbd2c4497	-0.0420576
118	0xbd1e044f	-0.038578328
119	0x3c9f9503	0.019480234
120	0xbc81f06c	-0.015861712
121	0x3d150120	0.036378026
122	0xbc9de9e2	-0.019276563
123	0xbd3200e0	-0.043457866
124	0xbc2de55f	-0.010613768
125	0xbcea7007	-0.028617872
126	0xbc942eb0	-0.018088669
127	0xbd672aee	-0.056437425
128	0x3d92aa71	0.07161415
129	0xbce422a6	-0.027848553
130	0x3d915ada	0.07097407
131	0x3cdd402e	0.027008142
132	0x3d1d45d5	0.038396675
133	0x3c8645d0	0.016390711
134	0x3d5e7338	0.0543091
135	0xbcaf5450	-0.021402508
136	0xbd947ddf	-0.072505705
137	0x3d00a96b	0.03141157
138	0x3d019ad6	0.031641804
139	0xbdb21d66	-0.086970136
140	0xbd3b78ff	-0.045769688
141	0xbd88c764	-0.06678656
142	0x3dc77e77	0.09740918
143	0xbd922bbc	-0.07137248
144	0x3d0ea5d3	0.03482611
145	0xbd3745fe	-0.044744484
146	0x3cb8bbfc	0.022550575
147	0xbc9a462c	-0.018832289
148	0xbabfc4eb	-0.001463083
149	0x3d02894d	0.03186922
150	0x3d00dd17	0.031460848
151	0xbda83d17	-0.08214777
152	0xbc848e88	-0.016181245
153	0xbd661190	-0.056169093
154	0xbb880db4	-0.004152024
155	0xbe115fe6	-0.14196739
156	0xbbba8a29	-0.0056927395
157	0x3d1e1333	0.03859253
158	0xbcf65a64	-0.030072398
159	0xb92edbb8	-0.00016675785
160	0x3da69c15	0.08135239
161	0x3d49e76d	0.04929297
162	0xbc907f1d	-0.017638737
163	0xbd4a8c13	-0.04944999
164	0xbd3d59ce	-0.046228223
165	0xbd450f44	-0.04811026
166	0x3d8007f3	0.06251516
167	0x3d8448c6	0.06459193
168	0xbd0ed43f	-0.034870382
169	0x3d0762c8	0.03305319
170	0xbdb208c3	-0.086930774
171	0xbddc2838	-0.107498586
172	0x3d21ba47	0.03948429
173	0xbc6c5717	-0.014425061
174	0x3ca0de31	0.0196372
175	0x3d0244f2	0.031804033
176	0xbd90b2b2	-0.070653334
177	0x3dbf4926	0.09340124
178	0xbd05b7c5	-0.03264596
179	0x3d251b66	0.040309332
180	0xbd468488	-0.048466235
181	0xbcd3cf00	-0.025855541
182	0x3de29608	0.110637724
183	0x3c542475	0.012948145
184	0x3d352d2d	0.044232536
185	0x3b3cf8da	0.002883485
186	0xbd34363d	-0.04399704
187	0x3d7b002b	0.061279457
188	0x3d75fe69	0.060057078
189	0x3d3680d8	0.04455647
190	0xbd9878bb	-0.074449025
191	0xbc4149b8	-0.011797361
192	0x3c9dbeab	0.019255957
193	0xbc5d9f4a	-0.013526747
194	0x3d64e7d1	0.05588514
195	0xbc9779bd	-0.018490667
196	0xbd179250	-0.03700477
197	0xbd36e436	-0.044651233
198	0x39d7f611	0.0004119133
199	0xbde545c9	-0.11194951
200	0xbd5e5bae	-0.05428665
201	0xbbd0325b	-0.006353659
202	0xbd4c119d	-0.049821485
203	0x3cdc5731	0.026897045
204	0xbd5507f3	-0.052009534
205	0xbda3d376	-0.07999317
206	0xbdbf90a7	-0.09353762
207	0xbd5a83d8	-0.053348392
208	0x3d4e209f	0.05032408
209	0xbc852027	-0.016250683
210	0xbca32aba	-0.019917835
211	0xbb9b167f	-0.0047329064
212	0xbd08413c	-0.033265337
213	0x3c343a4c	0.011000227
214	0xbd13557c	-0.035970196
215	0x3cd2782d	0.02569207
216	0xbd6e0ffe	-0.05812072
217	0xbca59e88	-0.020217195
218	0x3d15f214	0.036607817
219	0xbc8a4be0	-0.016881883
220	0xbd575e12	-0.052579947
221	0x3baa36a5	0.0051945024
222	0x3db4f9a2	0.08836676
223	0x3d121f7c	0.035674557
224	0x3ceb5486	0.028726827
225	0xbdb1201f	-0.08648705
226	0xbdc064fd	-0.09394262
227	0xbced1c27	-0.028944088
228	0x3ca62876	0.020282965
229	0xbc0f9fa9	-0.008766093
230	0xbd83309c	-0.06405756
231	0x3dd5a04d	0.104309656
232	0xbd3de129	-0.046357308
233	0xbce6aa13	-0.02815727
234	0xbe11e606	-0.14247903
235	0x3cc71d63	0.024306005
236	0x3dbc5caf	0.091973655
237	0xbd389dda	-0.045072414
238	0x3c2365da	0.009973014
239	0xbc810e62	-0.015753929
240	0xbe1742ef	-0.14771627
241	0xbd501a12	-0.050806113
242	0xbc90a509	-0.01765682
243	0x3c8e3a07	0.017361654
244	0x3bdb65b4	0.0066954736
245	0xbcc830a9	-0.024437265
246	0xbd93821e	-0.07202552
247	0xbc88d4ce	-0.016703036
248	0x3d60d465	0.054890055
249	0x3d8ed8b7	0.06974929
250	0xbc07d55c	-0.008290615
251	0xbc36c96e	-0.011156423
252	0x3d421370	0.04738182
253	0xbd7e74e2	-0.062123187
254	0xbcf93e95	-0.03042535
255	0x3c903130	0.01760158

encoder.convs.0.node_mlp.bias f4 [128]
0	0xbd3e84b8	-0.04651329
1	0x3c6a0634	0.0142837055
2	0x3c6069bb	0.013697083
3	0x3d5f9350	0.054583848
4	0x3d16dab3	0.03682966
5	0xbcc458a9	-0.023968058
6	0xbb06f6f6	-0.0020593978
7	0xbd233513	-0.039845537
8	0x3939ef50	0.00017732126
9	0x3c0a097e	0.008425115
10	0x3d3e9f8a	0.046538867
11	0x3d9f3954	0.07774606
12	0xbd022d19	-0.03178129
13	0x3d527c7f	0.05138826
14	0xbd3af16a	-0.045640387
15	0x3c9e64f0	0.01933524
16	0x3c34f6e2	0.01104519
17	0x3d102f03	0.035201084
18	0x3d10cf28	0.03535381
19	0xbc485964	-0.012228344
20	0x3d655248	0.055986673
21	0x3c43a259	0.011940562
22	0x3bb4e9bf	0.005521029
23	0xbcbe8f0c	-0.02326157
24	0xbd643879	-0.05571792
25	0xbc36189e	-0.011114268
26	0x3c4e23d7	0.012581787
27	0x3adf11a3	0.0017018806
28	0xbc9834b5	-0.01857982
29	0xbac56dc0	-0.0015062615
30	0x3b8ab363	0.0042328103
31	0xbd0d5ba0	-0.03451121
32	0xbb0c4225	-0.002140173
33	0xbd44936c	-0.047992155
34	0x3bb31c31	0.005466007
35	0x3d032717	0.0320197
36	0xbcab2092	-0.020889554
37	0x3d0ff8af	0.035149273
38	0xbd0d2405	-0.03445818
39	0xbcb269d6	-0.021778982
40	0x3d359a1f	0.044336434
41	0xbd763344	-0.060107484
42	0x3d2f2c4c	0.042766854
43	0x3d8d1103	0.0688801
44	0x3ca5be95	0.020232478
45	0xbbde44ae	-0.0067830896
46	0xbcbebe44	-0.023284085
47	0xbd2ac554	-0.041692093
48	0x3d5a1c16	0.05324944
49	0x3b4d9576	0.0031369603
50	0x3cbde5fa	0.02318095
51	0xbcd6df8a	-0.026229639
52	0x3cf4915f	0.029854475
53	0xbcffe19c	-0.031235509
54	0x3d1e8423	0.038700234
55	0x3d5367cc	0.05161266
56	0xbd27ff25	-0.04101481
57	0xbd455a12	-0.0481816
58	0xbd6a3af4	-0.05718513
59	0xbd272db7	-0.04081508
60	0x3c2beda5	0.010493671
61	0xbd5de705	-0.054175396
62	0x3d1d2742	0.038367517
63	0xbd0b8d82	-0.0340705
64	0xbbdc30c3	-0.00671968
65	0x3cb00b95	0.021489898
66	0xbd2f9829	-0.04286972
67	0xbb32942a	-0.0027248957
68	0xbd6b991e	-0.05751907
69	0xbd5ecfbe	-0.054397337
70	0x3c19cd76	0.009387365
71	0xbcd1b3e9	-0.025598483
72	0x3d2211d6	0.03956779
73	0xbd1482f9	-0.036257718
74	0x3ca94f3b	0.020667663
75	0x3d407e9c	0.046995744
76	0xbc907b9a	-0.017637063
77	0xbc954cd0	-0.018225104
78	0x3ce2f481	0.02770448
79	0xbccbfb1c	-0.024900012
80	0x3c75473d	0.014970598
81	0xbc4095bd	-0.01175445
82	0xbb576cb3	-0.0032871186
83	0xbd40cd71	-0.047070924
84	0x3d441604	0.04787256
85	0xbd32698e	-0.043557696
86	0xbc52e248	-0.0128713325
87	0x3cd161f4	0.025559403
88	0xbd123a2a	-0.0357
89	0xbb2af3e5	-0.0026085314
90	0x3d737161	0.0594343
91	0x3cb955e9	0.022623973
92	0x3d44ce66	0.0480484
93	0xbd294f06	-0.04133513
94	0x3d06367d	0.032766808
95	0xbc943ef2	-0.01809642
96	0xba7c2730	-0.00096188765
97	0xbc8cd483	-0.017191177
98	0xbc66e5a7	-0.014092839
99	0x3d1f14ae	0.03883808
100	0x3d019791	0.031638686
101	0xbd6f6782	-0.058448322
102	0x3d39b557	0.045338955
103	0x3d7802d8	0.060549587
104	0xbca7b564	-0.020472236
105	0x3c4ecc8e	0.012622012
106	0x3ca52cf9	0.020163046
107	0xbd733b0d	-0.059382487
108	0x3c170749	0.0092180455
109	0x3d4a9ee2	0.04946793
110	0xbc1010d8	-0.008793078
111	0xbd23ac75	-0.03995939
112	0xbd13c570	-0.036076963
113	0x3d1b14a2	0.037861474
114	0xbbd5778f	-0.0065144966
115	0xbc0f239d	-0.008736518
116	0x3c882c2a	0.016622622
117	0x3c921738	0.017833337
118	0x3d0fc755	0.035102207
119	0xbaacf271	-0.0013194812
120	0xbd65b297	-0.05607852
121	0x3d264ccc	0.040600583
122	0x3d2738d3	0.040825676
123	0x3bab2803	0.0052232756
124	0xbcdb2a73	-0.02675364
125	0xbcc5e370	-0.024156302
126	0x3cc8ca77	0.024510605
127	0x3d4e8fea	0.050430216

encoder.convs.0.edge_mlp.0.weight f4 [128, 7]
0	0xbf01df34	-0.50731206
1	0x3e4bac36	0.19889912
2	0x3dce45ad	0.10071883
3	0x3b54378a	0.0032381737
4	0xbd1581ca	-0.03650073
5	0xbd11c665	-0.035589594
6	0xbf03cd2b	-0.51484936
7	0xbc6dddf0	-0.014518246
8	0xbec178c7	-0.37787458
9	0x3ed82e7b	0.42222962
10	0x3e3de7b7	0.18545423
11	0x3df2ae01	0.11849595
12	0xbe4bddd8	-0.19908845
13	0xbe72a8ca	-0.236972
14	0xbd56d24f	-0.05244666
15	0xbe2b1b4e	-0.16709635
16	0x3d5ce5a7	0.05392995
17	0x3c2d5689	0.010579714
18	0x3cf21d1b	0.029554894
19	0xbe905405	-0.28189102
20	0x3ee3a877	0.44464466
21	0xbe2d7202	-0.16938022
22	0x3dd24ae3	0.1026819
23	0xbe5ff918	-0.21872365
24	0x3eb8ce83	0.36095056
25	0xbdd91109	-0.10598952
26	0x3e467297	0.1937965
27	0x3e1469c6	0.14493474
28	0x3d3829aa	0.04496161
29	0xbdbc2492	-0.09186663
30	0xbebd9af2	-0.37032276
31	0xbea00b93	-0.3125883
32	0x3eaa78c1	0.33295253
33	0x3e9182e3	0.2842017
34	0xbe5d921a	-0.21637765
35	0xbe3ae7c4	-0.18252474
36	0xbe80a17b	-0.251232
37	0xbe9e3f33	-0.30907592
38	0x3d7a5fd3	0.06112654
39	0xbd8bc800	-0.06825256
40	0x3eb3168b	0.34978136
41	0x3e8b7f8b	0.27245745
42	0xbe89c98d	-0.26911584
43	0x3ed018a6	0.40643805
44	0x3ea25ae4	0.3170997
45	0x3ea43666	0.32072753
46	0xbd96e889	-0.07368571
47	0x3d1bc47b	0.038029175
48	0xbe85b6c1	-0.26115993
49	0xbe1c79dd	-0.15280862
50	0x3efe31a5	0.4964725
51	0x3eb492d7	0.3526828
52	0xbec0b6e5	-0.37639537
53	0x3e0c6422	0.13710073
54	0xbdcf4c38	-0.101219594
55	0xbe84c041	-0.25927928
56	0x3e4ff2e1	0.20307495
57	0xbd1e0075	-0.038574655
58	0xbe3ca26c	-0.18421334
59	0x3eab03f2	0.33401448
60	0xbe494754	-0.19656116
61	0x3e530c2c	0.20610112
62	0x3e67a04b	0.2261974
63	0xbe259a74	-0.161722
64	0x3e0f7c3d	0.14012237
65	0xbe2fa501	-0.17152788
66	0xbdb7f134	-0.08981553
67	0x3eb2e27e	0.34938425
68	0x3ead0cf7	0.33798954
69	0xbe709ca5	-0.23497255
70	0x3ed15f06	0.4089281
71	0xbebbc88f	-0.36676452
72	0x3e677d5a	0.22606412
73	0xbe96d9f5	-0.29463163
74	0x3c946675	0.018115262
75	0xbe80ef59	-0.25182608
76	0x3ea89a85	0.3293039
77	0xbe70da4b	-0.23520772
78	0xbe5c243b	-0.21498196
79	0xbe29b72d	-0.16573782
80	0x3e8a58f4	0.2702099
81	0x3e5b1238	0.21393669
82	0x3e260852	0.16214111
83	0x3e9ec0e3	0.31006536
84	0xbde072bf	-0.10959386
85	0x3e85dc96	0.26144856
86	0xbee24868	-0.44195867
87	0xbed477af	-0.4149756
88	0x3dda9fd3	0.10675015
89	0xbec3046e	-0.38089317
90	0x3e11c779	0.14236249
91	0x3e3e3327	0.185742
92	0x3e4d19e3	0.20029406
93	0x3ed1258c	0.40848958
94	0x3db34938	0.087542
95	0xbd3ecd93	-0.04658277
96	0xbe9c49f8	-0.30525184
97	0xbe3db4ec	-0.18526047
98	0x3cdb07b9	0.02673708
99	0x3e20efd6	0.1571649
100	0xbe918e40	-0.2842884
101	0xbcf04bb7	-0.029332979
102	0x3da17ba1	0.078849085
103	0x3bd8d090	0.0066166595
104	0xbea437a7	-0.3207371
105	0x3e8eef85	0.27917114
106	0x3d08fb70	0.033442914
107	0x3ebdda95	0.37080827
108	0xbe811177	-0.25208637
109	0xbd25cda6	-0.040479325
110	0x3dc644ee	0.09681116
111	0x3e85771d	0.2606744
112	0xbe848635	-0.25883642
113	0xbd26c384	-0.040713802
114	0xbe2317f7	-0.1592711
115	0xbe920902	-0.28522497
116	0xbee5fd47	-0.44919798
117	0x3c035c64	0.008017633
118	0x3e919c98	0.28439784
119	0xbed227e2	-0.41046053
120	0x3d38e956	0.0451444
121	0xbebc4f3f	-0.3677921
122	0x3daa8501	0.0832615
123	0x3e0909de	0.1338267
124	0xbeac39a9	-0.3363774
125	0x3e06d9ed	0.1316907
126	0xbe4a2168	-0.19739306
127	0xbd9da976	-0.07698338
128	0xbe4e955e	-0.20174167
129	0x3b3265dc	0.0027221357
130	0x3e5c4138	0.21509254
131	0xbe32886f	-0.17434858
132	0xbdb6b954	-0.08922067
133	0xbe5e2e7c	-0.2169742
134	0xbe68e6fc	-0.22744364
135	0x3ea92e2c	0.3304304
136	0x3e8c5db6	0.27415246
137	0xbe746474	-0.23866445
138	0x3eb581ae	0.354505
139	0x3d416448	0.047214776
140	0x3e364517	0.17799793
141	0xbedc3a1c	-0.43013084
142	0xbe050bd6	-0.12992796
143	0x3eacbe67	0.33739015
144	0x3e9f4d74	0.3111378
145	0x3e42ed00	0.19035721
146	0xbe0e7d57	-0.13915001
147	0xbe0252e9	-0.1272694
148	0x3e496687	0.19668017
149	0x3e313d59	0.17308559
150	0xbe950f53	-0.29113254
151	0xbe897158	-0.26844287
152	0xbea24100	-0.31690216
153	0xbeb8ef76	-0.36120194
154	0x3b66a659	0.0035194366
155	0x3f06bfd1	0.5263644
156	0xbe72dd99	-0.23717345
157	0x3e64d8ad	0.2234828
158	0xbe3fda73	-0.18735676
159	0x3d3d29e8	0.046182543
160	0xbe33fae6	-0.17576179
161	0xbe895335	-0.26821294
162	0x3ed3cfd8	0.4136951
163	0x3dd35d5d	0.10320542
164	0x3ebbb9bf	0.3666515
165	0x3db16b8b	0.0866309
166	0x3a99d47a	0.0011736297
167	0x3e806ea7	0.2508442
168	0xbe77c079	-0.24194516
169	0x3e63c679	0.2224368
170	0x3d9a99cd	0.075488664
171	0xbd166a81	-0.036722664
172	0xbea840dc	-0.32861984
173	0xbaf26987	-0.0018494584
174	0xbe858bce	-0.26083225
175	0x3ea54448	0.32278657
176	0xbe7b1e8b	-0.2452337
177	0xba1dd3c5	-0.0006020631
178	0x3e9bf579	0.30460718
179	0xbbe1df7d	-0.006893097
180	0xbee03bcf	-0.4379563
181	0x3d831129	0.063997574
182	0x3e35754f	0.17720531
183	0xbe8b4574	-0.27201426
184	0xbeb90dc7	-0.36143324
185	0xbeee2916	-0.4651572
186	0xbea296cd	-0.31755677
187	0xbd34eca9	-0.04417101
188	0xbeacac46	-0.33725184
189	0xbeab9f00	-0.33519745
190	0x3e564465	0.20924528
191	0xbea49d41	-0.32151225
192	0x3b952274	0.0045512263
193	0x3e0001b9	0.12500657
194	0x3e9a0f29	0.3008969
195	0x3c580b02	0.013186218
196	0x3e6bea46	0.23038587
197	0x3e8b1933	0.27167663
198	0x3dda598d	0.10661612
199	0x3e9d9949	0.3078101
200	0xbe47736a	-0.1947762
201	0x3eabc188	0.3354609
202	0xbe9af152	-0.30262238
203	0x3edd9fdf	0.43286034
204	0x3dd5c1c6	0.1043735
205	0xbda8e8aa	-0.08247502
206	0x3e9ef1d7	0.31043884
207	0x3e2b2c54	0.16716129
208	0xbd5f8575	-0.054570634
209	0xbcfc48e1	-0.03079647
210	0x3efb2610	0.49052477
211	0x3a822027	0.0009927795
212	0x3e69a741	0.22817709
213	0x3d54aac8	0.051920682
214	0xbca8d35c	-0.020608597
215	0xbe1e96aa	-0.15487161
216	0x3e2168c3	0.1576262
217	0x3c195bca	0.009360263
218	0x3e423898	0.18966901
219	0x3d754dfe	0.059888832
220	0xbe35f68e	-0.17769834
221	0xbd534e5f	-0.051588412
222	0xbe4a5f17	-0.19762836
223	0x3df60906	0.1201344
224	0x3dd39ae0	0.103322744
225	0xbee219b4	-0.44160235
226	0x3ed9beac	0.42528284
227	0xbdc5d0f6	-0.09658997
228	0x3e9f62af	0.31129977
229	0x3e946caa	0.28989154
230	0x3e11636a	0.1419808
231	0x3ee27a1f	0.44233796
232	0xbecf1d59	-0.40452078
233	0xbe739f98	-0.23791349
234	0x3d556d40	0.052106142
235	0xbda3511d	-0.079744555
236	0xbdfc5f39	-0.1232285
237	0xbd32c670	-0.043646276
238	0xbeb3baa3	-0.3510333
239	0x3d4e98be	0.050438635
240	0xbe40f3fc	-0.18843073
241	0x3dcb42d6	0.09924857
242	0x3d697421	0.056995515
243	0xbe74ff16	-0.23925433
244	0xbe0eac1e	-0.13932845
245	0xbddfeebe	-0.10934208
246	0x3e892437	0.26785442
247	0x3ee4400c	0.44580114
248	0x3ddcb619	0.1077692
249	0xbd8994c1	-0.06717826
250	0xbd1d682a	-0.038429417
251	0x3e94728d	0.28993645
252	0xbe97e4a8	-0.29666638
253	0xbe871d62	-0.26389605
254	0xbc8f36f4	-0.017482258
255	0xbe7fcf60	-0.24981451

encoder.convs.0.edge_mlp.0.bias f4 [128]
0	0x3def1e3d	0.11675689
1	0x3e2c7997	0.16843258
2	0xbe6a3722	-0.22872594
3	0x3d38d61a	0.04512606
4	0x3c842173	0.016129231
5	0x3e66502b	0.22491519
6	0x38ca10f1	9.635266e-05
7	0xbe09a3ea	-0.13441435
8	0x3e22b104	0.15887839
9	0xbe1b6bf1	-0.15177895
10	0xbb9f705a	-0.0048656883
11	0xbd7e2c57	-0.062054005
12	0x3e20ed57	0.15715538
13	0xbc7fea09	-0.015619763
14	0x3e2f33b6	0.1710957
15	0xbe5afeaa	-0.21386209
16	0x3d0d1b90	0.034450114
17	0x3eb61d06	0.35569018
18	0xbe2be940	-0.16788197
19	0xbdaa5b10	-0.0831815
20	0x3be8dace	0.0071061617
21	0x3d7082cf	0.0587185
22	0xbd4610de	-0.04835593
23	0x3de4fa0d	0.11180506
24	0xbd8a6c21	-0.06758905
25	0x3cb07efe	0.02154493
26	0x3ea213e9	0.31655815
27	0x3e93a9fa	0.2884062
28	0xbdb5566a	-0.08854373
29	0xbe059c73	-0.13047962
30	0xbe735525	-0.23762949
31	0xbd13bb8c	-0.03606753
32	0xbc2ba9cf	-0.010477497
33	0x3e041c72	0.12901476
34	0xbdcc8074	-0.09985438
35	0x3e2ce33c	0.16883558
36	0x3baa88ec	0.0052043106
37	0x3d903b11	0.07042516
38	0x3ea073cd	0.3133835
39	0x3c7d5555	0.015462239
40	0x3d087e42	0.033323534
41	0xbd3ccaa5	-0.046091694
42	0x3e62f8a1	0.22165157
43	0xbe4b79fb	-0.1987075
44	0xbe6a3fb9	-0.22875871
45	0x3d923279	0.07138533
46	0x3e4a38f2	0.19748285
47	0xbe89eb3c	-0.26937282
48	0xbd1daf71	-0.038497392
49	0x3dcf5521	0.10123659
50	0x3e8e981f	0.27850434
51	0x3dbfdc27	0.093681626
52	0x3e8a4465	0.27005306
53	0xbd8c98cc	-0.06865081
54	0xbe9a038b	-0.30080828
55	0x3ce54864	0.02798862
56	0x3e411e43	0.188592
57	0x3c096207	0.008385188
58	0x3dbccb69	0.09218485
59	0x3eb083ad	0.3447546
60	0xbe5fc0bf	-0.2185087
61	0x3da5badc	0.08092281
62	0x3dcb8b30	0.09938657
63	0x3d2191b7	0.039445605
64	0xbdada07e	-0.08477877
65	0xbe028100	-0.12744522
66	0x3e54d597	0.20784603
67	0x3d821ae5	0.06352786
68	0x3db411d7	0.08792465
69	0x3d21b9be	0.03948378
70	0xbe45bac7	-0.19309531
71	0x3e11758c	0.14204997
72	0xbe453298	-0.19257581
73	0xbe21dbf6	-0.15806565
74	0xbe1eb6df	-0.15499447
75	0xbe8dd338	-0.2770021
76	0xbe7d18a5	-0.24716432
77	0xbcc8a6d6	-0.024493616
78	0xbea30a7b	-0.31843933
79	0x3e64738b	0.22309701
80	0xbe731969	-0.23740162
81	0x3dd694c2	0.10477592
82	0x3df461c2	0.11932708
83	0xbda8353b	-0.08213278
84	0x3e40b444	0.18818766
85	0x3ea127ed	0.31475773
86	0xbe9397f6	-0.28826874
87	0xbccfe6c6	-0.025378596
88	0x3e77a9cb	0.24185865
89	0x3eb9a3e8	0.36257863
90	0x3e1087e2	0.14114335
91	0x3ea852a1	0.3287554
92	0xbe39f5a3	-0.18160109
93	0x3e9410fe	0.28919214
94	0x3db561b9	0.0885653
95	0xbe0518cb	-0.12997739
96	0x3e472897	0.19449078
97	0x3e82167e	0.25407785
98	0xbe99cec3	-0.3004056
99	0x3e561399	0.20905913
100	0x3da4d3c8	0.080482066
101	0x3e856de0	0.2606039
102	0xbe80fd20	-0.2519312
103	0x3e3fbaad	0.18723555
104	0x3eae6f46	0.3406927
105	0xbdb34cd5	-0.08754889
106	0x3e494f70	0.19659209
107	0xbe889071	-0.266727
108	0x3d9c8494	0.07642475
109	0xbe300af0	-0.17191672
110	0xbeacae1c	-0.33726585
111	0x3e557e7e	0.20849034
112	0x3e2169f6	0.15763077
113	0x3e2fd33c	0.17170423
114	0x3e8a667d	0.27031317
115	0xbd09a770	-0.033606946
116	0xbe73e574	-0.23817998
117	0x3e49c72f	0.19704889
118	0x3e8bf3e6	0.27334517
119	0xbe805627	-0.2506573
120	0xbe967577	-0.29386494
121	0xbe6d8d94	-0.23198539
122	0xbe072f54	-0.13201648
123	0x3e2e4ce1	0.17021514
124	0xbe8a0d42	-0.2696324
125	0x3db5ed72	0.0888318
126	0x3d18f7cc	0.037345693
127	0xbe2c89b6	-0.16849408

encoder.convs.0.edge_mlp.2.weight f4 [128, 128]
0	0xbe8a5545	-0.2701818
1	0x3d83b5ec	0.06431183
2	0x3cc0ae5b	0.02352064
3	0xbda8fa2b	-0.08250841
4	0x3d714363	0.058902156
5	0xbdbb9bc0	-0.09160566
6	0xbdc86cb9	-0.09786362
7	0xbd4cf832	-0.050041385
8	0xbcb4a9bc	-0.022053592
9	0xbd8bdc9d	-0.06829188
10	0xbd054e2d	-0.032545257
11	0x3d68b334	0.056811526
12	0xbda69239	-0.081333585
13	0x3dd89c9e	0.10576747
14	0x3e34038d	0.1757948
15	0x3dea230f	0.11432468
16	0xbcfeb448	-0.031091824
17	0xbdb51152	-0.08841194
18	0xbd5e8457	-0.054325428
19	0x3cee693c	0.029102914
20	0x3da147f1	0.0787505
21	0xbcec9bcc	-0.028882883
22	0xbd6d9dc6	-0.058011793
23	0xbd30340a	-0.04301838
24	0x3d3b41f5	0.0457172
25	0x3e2d3e1a	0.16918221
26	0xbdd1409d	-0.10217402
27	0x3c5a71a2	0.013332756
28	0xbd645f9e	-0.05575525
29	0x3c903f4f	0.017608313
30	0x3e5e9f5d	0.2174048
31	0xbc6d9b1b	-0.014502312
32	0x3bca1a2d	0.006167671
33	0x3c97c03b	0.01852428
34	0x3d88ee11	0.066860326
35	0xbd571c36	-0.05251714
36	0x3d30a7c1	0.043128733
37	0x3cb1687a	0.021656264
38	0x3d4d55fc	0.05013083
39	0x3de987da	0.11402865
40	0x3b9ef0b7	0.004850473
41	0x3d608dee	0.054822855
42	0x3d1710f0	0.036881387
43	0xbd5f2a5b	-0.054483753
44	0xbe00fa65	-0.12595518
45	0xbc988abe	-0.018620845
46	0xbde718f8	-0.11284059
47	0x3d4923d7	0.049106445
48	0x3c8622eb	0.016374072
49	0x3cc51da9	0.024061995
50	0xbd471908	-0.048607856
51	0x3d006e78	0.03135535
52	0x3c338948	0.010958023
53	0xbd8558f5	-0.06511108
54	0xbc59380f	-0.013257994
55	0xbcc0fced	-0.023558104
56	0xbcf1c8cb	-0.02951469
57	0x3d9417f5	0.07231132
58	0xbbbe9b42	-0.005816848
59	0xbc0f5af8	-0.008749716
60	0x3e01cad6	0.12675032
61	0x3e2c57c8	0.16830361
62	0x3c90959a	0.01764946
63	0xbd5d4d1f	-0.054028627
64	0xbdaf3b6b	-0.08556255
65	0x3e4386cc	0.1909439
66	0x3d8dfda6	0.06933145
67	0xbb60182d	-0.0034194097
68	0x3c7e2b90	0.015513316
69	0xbd267533	-0.040639114
70	0x3e4ee39a	0.2020401
71	0xbda43e48	-0.08019692
72	0x3d37209e	0.04470884
73	0xbddbe47d	-0.1073694
74	0xbcf30748	-0.029666558
75	0x3d368042	0.04455591
76	0xbd7fdc8f	-0.0624662
77	0xbd97bb71	-0.074087985
78	0xbbe390eb	-0.006944766
79	0x3cec81cf	0.028870491
80	0x3d53232c	0.051547214
81	0x3d908ecb	0.070584856
82	0x3d9e9481	0.077431686
83	0x3e445462	0.19172814
84	0x3e1c7e69	0.15282597
85	0xbcff0e61	-0.031134786
86	0xbd33a20e	-0.04385572
87	0x3db0bc42	0.08629657
88	0x3a7c11de	0.00096156995
89	0xbdf2812e	-0.11841045
90	0x3be8ecba	0.007108298
91	0xbd9ec038	-0.077515066
92	0x3d9d1aa3	0.07671096
93	0x3dffb226	0.12485151
94	0x3e6fd107	0.23419581
95	0x3da43d67	0.08019524
96	0x3d575879	0.05257461
97	0x3b9fd772	0.004877978
98	0xbcac864b	-0.02106013
99	0xbd97ffe6	-0.07421856
100	0x3dfa737b	0.122290574
101	0xbdcd953e	-0.10038231
102	0x3da52b09	0.08064849
103	0x3bb8b8de	0.0056372723
104	0x3c6e741a	0.014554048
105	0x3c429a36	0.011877587
106	0x3dea36e6	0.11436252
107	0xbd7f3308	-0.062304527
108	0xbccbe644	-0.024890073
109	0x3e9e5637	0.30925152
110	0x3d8cba20	0.06871438
111	0x3d56efce	0.05247479
112	0xbd4c7aa2	-0.04992164
113	0x3dc391fc	0.09549329
114	0xbd1c0cc1	-0.0380981
115	0x3dbb7be3	0.09154489
116	0xbd1e35c7	-0.038625505
117	0x3cf6b1c1	0.030114057
118	0x3cb1aeb9	0.02168976
119	0xbdaedc81	-0.085381515
120	0x3d2a887d	0.04163407
121	0xbd736070	-0.05941814
122	0x3d9ee15e	0.07757829
123	0x3dbfbdb0	0.09362352
124	0xbb6e060e	-0.0036319527
125	0xbd1ef6d9	-0.03880963
126	0x3d767e2b	0.060178917
127	0xbcad9a1b	-0.021191647
128	0x3d149fde	0.036285274
129	0xbd88f2de	-0.06686948
130	0x3d8a0e08	0.067409575
131	0xbc30e25a	-0.010796154
132	0x3ddccc02	0.10781099
133	0x3d8675b5	0.065654196
134	0x3da4b7e1	0.080428846
135	0x3c8f5181	0.017494919
136	0xbce2a2ad	-0.02766546
137	0xbd35a56e	-0.04434722
138	0x3dc59fd5	0.09649626
139	0xbda4954f	-0.08036291
140	0x3db17d0b	0.08666428
141	0xbc0c7ae7	-0.008574224
142	0xbdf79c3e	-0.12090348
143	0x3b9f94cd	0.0048700334
144	0x3d7483ff	0.059696194
145	0xbd5582ff	-0.05212688
146	0xbd6ede6d	-0.05831759
147	0x3de629d4	0.11238447
148	0xbc81f4dc	-0.015863828
149	0x3d9386db	0.07203456
150	0xbd595d75	-0.053067643
151	0xbd3fc1ca	-0.04681567
152	0x3d916e4d	0.07101116
153	0x3cacaf6f	0.021079747
154	0x3c7b04a7	0.015320933
155	0xbd6e03d9	-0.05810914
156	0x3e12a57c	0.1432094
157	0xbdcc575f	-0.09977602
158	0xbbd05edb	-0.006358964
159	0x3dc200db	0.094728194
160	0x3cdb7efe	0.026793953
161	0x3b262ac7	0.0025355087
162	0x3d13e703	0.03610898
163	0x3d0128e4	0.031533137
164	0x3e0c52f0	0.13703513
165	0x3d96ad43	0.07357266
166	0x3d30dc98	0.043179125
167	0x3d279f1e	0.04092323
168	0xbd886b69	-0.06661112
169	0xbd9eb867	-0.07750016
170	0xbd44e524	-0.048070088
171	0xbd501e1f	-0.050809976
172	0x3ce14901	0.027500631
173	0x3c3e74b0	0.0116245
174	0xbbce943c	-0.006304292
175	0x3d611003	0.05494691
176	0xbc2f0dae	-0.010684414
177	0x3babcb38	0.0052427314
178	0x3d81f9fc	0.06346509
179	0xbc631fba	-0.013862545
180	0x3ceea793	0.02913264
181	0x3d9ebbc8	0.0775066
182	0x3d899c8c	0.06719312
183	0xbd5abb5f	-0.053401347
184	0x3c2e45b0	0.010636732
185	0xbd8e0667	-0.06934815
186	0x3ce69f73	0.028152203
187	0xbcd3b656	-0.02584378
188	0x3d8c06a8	0.06837207
189	0x3d9b772c	0.075910896
190	0x3d44e083	0.048065674
191	0x3c823f26	0.015899252
192	0x3d2040e5	0.03912439
193	0xbdfa5be8	-0.12224561
194	0xbdc388c5	-0.09547571
195	0xbd8253b6	-0.06363623
196	0x3cf9b847	0.030483378
197	0x3d916f97	0.07101362
198	0xbd39d5fa	-0.04537008
199	0x3dc8b8d9	0.09800882
200	0x3e02f67f	0.12789343
201	0x3da071e9	0.07834227
202	0x3d8b795e	0.06810258
203	0xbd897d5c	-0.067133635
204	0x3cd130dd	0.025535995
205	0x3d135b9a	0.03597603
206	0xbe355fa7	-0.1771227
207	0x3cf2581d	0.029583031
208	0x3dc4261c	0.09577581
209	0xbd90aa32	-0.07063712
210	0x3d8fa95b	0.07014724
211	0x3ce24fbe	0.027625915
212	0xbe2ae62f	-0.1668937
213	0x3d529374	0.051410154
214	0xbda8f7c8	-0.082503855
215	0x3c3e76ca	0.011625001
216	0x3d0d1ed3	0.034453224
217	0x3d80c7d1	0.06288112
218	0xbd78474d	-0.060614873
219	0xbda66645	-0.08124975
220	0x3e564f4f	0.20928691
221	0xbd3d8185	-0.046266098
222	0x3d73b278	0.059496373
223	0x3dca2468	0.09870225
224	0xbda287c7	-0.07936054
225	0xbda16f89	-0.07882602
226	0x3d909740	0.07060099
227	0xbd99b847	-0.07505851
228	0xbd549833	-0.05190296
229	0x3dbaa5ea	0.09113677
230	0x3d8b2336	0.06793825
231	0x3d037066	0.032089613
232	0xbd9e592a	-0.077318504
233	0xbe2021be	-0.15637872
234	0xbd2bf8d4	-0.041985348
235	0x3d8f422b	0.069950424
236	0xbca1c88a	-0.019748945
237	0x3d960abb	0.073262654
238	0x3d990455	0.074715294
239	0xbce9516a	-0.028481204
240	0xbbd3d93e	-0.0064651063
241	0xbd361e3f	-0.04446244
242	0x3d449ad6	0.047999226
243	0x3d88ec9d	0.066857554
244	0x3c10c68f	0.008836403
245	0x3db2bb52	0.08727135
246	0x3d8ec41d	0.069709994
247	0x3d818a88	0.06325251
248	0xbdb529df	-0.08845877
249	0xbd123610	-0.03569609
250	0x3d0ea9e0	0.034829974
251	0x3da6c523	0.081430696
252	0xbc445af6	-0.011984577
253	0xbcf8f882	-0.030391935
254	0x3bf85139	0.007578042
255	0x3a9bea72	0.0011895432

encoder.convs.0.edge_mlp.2.bias f4 [128]
0	0x3c870d51	0.016485842
1	0xbd839b33	-0.06426086
2	0x3bbff0b5	0.005857552
3	0x3cf78adc	0.03021758
4	0xbca1183f	-0.019664882
5	0x3b2557a1	0.0025229233
6	0xbc95032a	-0.018189985
7	0xbd93ba05	-0.07213215
8	0xbd872ced	-0.06600366
9	0x3b86d742	0.004115016
10	0xbd8e5151	-0.069491036
11	0x3d8e64ed	0.06952844
12	0x3d19e7c8	0.03757456
13	0x3d9dcf19	0.07705516
14	0xbbf247c4	-0.007393809
15	0x3d5f00b5	0.054444034
16	0xbd86a298	-0.06573981
17	0x3d19fb06	0.03759291
18	0x3d3a50db	0.045487266
19	0x3caa8eb7	0.020820005
20	0xbd308537	-0.043095794
21	0xbcf313f8	-0.029672608
22	0xbd1a4d59	-0.03767142
23	0x3d8e5766	0.06950264
24	0x3c652438	0.013985686
25	0xbd323068	-0.043503195
26	0xbc9a389e	-0.018825825
27	0xba7b19de	-0.00095787446
28	0x3b7fc223	0.0039025627
29	0x3d986bc3	0.07442429
30	0x3d09a079	0.033600304
31	0x3d961a5c	0.073292464
32	0xbd192aa0	-0.037394166
33	0x3c5179e8	0.012785412
34	0x3d58743c	0.052845225
35	0x3d7cf652	0.061758347
36	0x3cae365f	0.02126616
37	0x3d7742c1	0.060366396
38	0xbd68e1d9	-0.05685601
39	0xbd9f1854	-0.07768312
40	0x3cab3900	0.020901203
41	0x3d170287	0.036867645
42	0x3d402099	0.046906088
43	0xbd5fd5dc	-0.05464731
44	0x3d8f3078	0.069916666
45	0xbd46a597	-0.048497763
46	0x3d3d7020	0.04624951
47	0xbd03420d	-0.032045413
48	0x3db83a4f	0.089954965
49	0x3d158248	0.0365012
50	0x3d3be91c	0.045876607
51	0xbbe0cfbf	-0.0068607028
52	0xbdb21edc	-0.08697292
53	0xbd66223d	-0.056184996
54	0xbd8501bc	-0.064944714
55	0xbccc1325	-0.024911473
56	0xbd23b3e0	-0.039966464
57	0x3ca8a8d0	0.020588309
58	0xbd603928	-0.05474201
59	0xbd93b71f	-0.07212662
60	0x3b9773bc	0.004621951
61	0xbbc5dedf	-0.006038531
62	0xbc57ae4f	-0.013164117
63	0xbda80339	-0.0820374
64	0xbd8d416c	-0.06897244
65	0xbd9470e3	-0.07248094
66	0xbd2f108b	-0.042740386
67	0xbc928c70	-0.017889231
68	0xbd801845	-0.06254629
69	0xbd67a10d	-0.056550074
70	0xbccdf5cb	-0.025141617
71	0x3d71daa2	0.059046395
72	0x3d306ed1	0.043074433
73	0xbcbe1971	-0.02320549
74	0xbd319a10	-0.043359816
75	0x3c609682	0.013707759
76	0xbd9a56e3	-0.075361036
77	0xbd8f9400	-0.07010651
78	0x3c168ba1	0.009188564
79	0x3ced9bf5	0.02900503
80	0xbd586f15	-0.05284031
81	0x3ac13f93	0.0014743678
82	0x3b99b41e	0.004690661
83	0xbccebbae	-0.025235977
84	0x3d0796d9	0.033102844
85	0x3ce8ffb6	0.028442245
86	0xbd5da651	-0.05411369
87	0xbc18f34c	-0.00933535
88	0xbd8559b8	-0.06511253
89	0xbd5c777d	-0.05382489
90	0xbd915cc3	-0.07097771
91	0xbd645db0	-0.05575341
92	0xbd1e5964	-0.03865947
93	0x3bd9dfde	0.0066490015
94	0xbbf4910f	-0.0074635814
95	0xbbee0b81	-0.007264555
96	0x3d903baf	0.07042634
97	0x3ccfa0bd	0.0253452
98	0x39af1578	0.00033394597
99	0x3d209449	0.039203916
100	0xbd687cbe	-0.05675959
101	0x3bcedf77	0.00631326
102	0x3d11c70e	0.035590224
103	0x3d4c505c	0.049881324
104	0x3d93d5fd	0.072185494
105	0xbd90395b	-0.0704219
106	0x3cbc2d78	0.0229709
107	0x3dab1756	0.0835406
108	0x3cc46ac9	0.0239767
109	0xbd81605b	-0.063172065
110	0x3d876455	0.06610934
111	0xbd9cec72	-0.07662286
112	0xbd79ebf6	-0.061016046
113	0xbd608f1e	-0.054823987
114	0x3d9cef4c	0.0766283
115	0x3d95add9	0.073085494
116	0xbcfd44f4	-0.030916668
117	0x3d07ba92	0.03313691
118	0x3c4282cf	0.0118720075
119	0xbdc30d4e	-0.09524022
120	0xbd2d23be	-0.042270415
121	0xbce604c5	-0.028078446
122	0xbc01e2c2	-0.007927598
123	0xbccb05a8	-0.02478297
124	0x3d3f6dec	0.04673569
125	0xbd2fe837	-0.042946067
126	0xbcdbea07	-0.026844991
127	0xbb6451c7	-0.0034838782

encoder.convs.0.norm.weight f4 [128]
0	0x3f71fcef	0.9452657
1	0x3f6c0969	0.9220186
2	0x3f6d3944	0.92665505
3	0x3f6d4f99	0.9269958
4	0x3f6cea02	0.9254457
5	0x3f6aa96d	0.91664773
6	0x3f647aed	0.8925007
7	0x3f689ba7	0.90862507
8	0x3f716d85	0.9430774
9	0x3f6cd14b	0.92506856
10	0x3f72f3e9	0.9490343
11	0x3f6b2dd1	0.91866785
12	0x3f647069	0.89234024
13	0x3f5f9f80	0.8735275
14	0x3f66ea40	0.9020119
15	0x3f647b70	0.8925085
16	0x3f629392	0.88506424
17	0x3f754921	0.9581471
18	0x3f65fafa	0.89836085
19	0x3f6bc9dc	0.9210489
20	0x3f6d7d03	0.9276888
21	0x3f6a2906	0.91468847
22	0x3f73f06f	0.9528875
23	0x3f6febca	0.9371916
24	0x3f67b17f	0.9050521
25	0x3f7e479b	0.9932801
26	0x3f62e874	0.88635945
27	0x3f71a401	0.94390875
28	0x3f682974	0.9068825
29	0x3f6cca3e	0.924961
30	0x3f685e46	0.9076885
31	0x3f73f5eb	0.95297116
32	0x3f68e3fd	0.9097288
33	0x3f6822ff	0.906784
34	0x3f6d9da6	0.9281868
35	0x3f662b9b	0.89910287
36	0x3f6f8201	0.93557745
37	0x3f7066eb	0.9390704
38	0x3f6829b8	0.9068866
39	0x3f6c1300	0.9221649
40	0x3f68dc61	0.9096127
41	0x3f758a2c	0.9591396
42	0x3f63ce31	0.889865
43	0x3f638de1	0.88888365
44	0x3f73fafb	0.9530484
45	0x3f6786b3	0.9043991
46	0x3f6a46d0	0.915143
47	0x3f6a19ef	0.9144582
48	0x3f625ff2	0.8842765
49	0x3f65d8ad	0.89783746
50	0x3f652468	0.89508677
51	0x3f6c4f3b	0.92308396
52	0x3f69baa7	0.91300434
53	0x3f6b7da1	0.9198857
54	0x3f85d0f7	1.0454396
55	0x3f6825af	0.906825
56	0x3f69553e	0.91145694
57	0x3f7035bb	0.93831986
58	0x3f6a49dd	0.91518956
59	0x3f68464e	0.90732276
60	0x3f6f61b3	0.9350845
61	0x3f747f95	0.95507175
62	0x3f68c3db	0.9092385
63	0x3f6b546d	0.919257
64	0x3f7c098c	0.9845207
65	0x3f6cd0a9	0.9250589
66	0x3f693341	0.9109383
67	0x3f6e5780	0.93102264
68	0x3f64a18b	0.89308995
69	0x3f63c27b	0.8896863
70	0x3f6cd631	0.9251433
71	0x3f7673bc	0.96270347
72	0x3f6a9764	0.91637254
73	0x3f684dcc	0.9074371
74	0x3f6853a7	0.90752643
75	0x3f6d8ffe	0.9279784
76	0x3f70b0be	0.9401969
77	0x3f6e9f78	0.9321208
78	0x3f699bc7	0.9125332
79	0x3f689e22	0.9086629
80	0x3f6fe8cf	0.9371461
81	0x3f69440b	0.9111945
82	0x3f607492	0.8767787
83	0x3f666200	0.89993286
84	0x3f66c809	0.9014898
85	0x3f6b334c	0.9187515
86	0x3f67ae57	0.90500396
87	0x3f6507c5	0.8946498
88	0x3f69f615	0.91391116
89	0x3f8659e8	1.0496187
90	0x3f66a5b3	0.90096587
91	0x3f6691eb	0.90066403
92	0x3f666b15	0.90007144
93	0x3f6a91ba	0.9162861
94	0x3f6529ff	0.89517206
95	0x3f6df3f0	0.92950344
96	0x3f6c4af2	0.9230186
97	0x3f631b4e	0.8871354
98	0x3f692aa3	0.91080683
99	0x3f674b4f	0.90349287
100	0x3f6d4335	0.92680675
101	0x3f688e23	0.90841883
102	0x3f670700	0.90245056
103	0x3f6a5857	0.91541046
104	0x3f6d8a25	0.92788917
105	0x3f6d43ae	0.92681396
106	0x3f69594c	0.9115188
107	0x3f71a119	0.9438644
108	0x3f672cfb	0.9030301
109	0x3f6e7c80	0.9315872
110	0x3f65407b	0.89551514
111	0x3f731cb6	0.94965684
112	0x3f6c81b4	0.9238541
113	0x3f748f36	0.9553102
114	0x3f688c48	0.9083905
115	0x3f6cdf0c	0.9252784
116	0x3f65c152	0.8974811
117	0x3f649bc8	0.89300203
118	0x3f65020d	0.89456254
119	0x3f649db6	0.8930315
120	0x3f671053	0.90259284
121	0x3f6b6b01	0.9196015
122	0x3f65e6ce	0.89805305
123	0x3f6c4645	0.9229472
124	0x3f72c641	0.9483376
125	0x3f6943f2	0.911193
126	0x3f6a1770	0.9144201
127	0x3f65bdee	0.89742935

encoder.convs.0.norm.bias f4 [128]
0	0x3bf617f0	0.007510178
1	0xbd547481	-0.05186892
2	0xbc276b7b	-0.010218496
3	0xbd0a3fba	-0.03375218
4	0xbcd0eacd	-0.025502587
5	0x3d63b643	0.05559374
6	0x3caaa12f	0.020828811
7	0xbc66cc80	-0.014086843
8	0xbd11e904	-0.03562261
9	0x3ceb57c7	0.028728379
10	0x3c2511b6	0.010075023
11	0xbe7fcfae	-0.24981567
12	0x3c7f703b	0.015590723
13	0x3d03d744	0.032187715
14	0xbd36a0e0	-0.044587016
15	0xbcced3be	-0.02524745
16	0x3d563222	0.052293904
17	0x3c3745f4	0.011186112
18	0x3d9833f6	0.07431786
19	0xbc893ec7	-0.016753567
20	0xbe3c44d9	-0.18385638
21	0x3b2e43ce	0.0026590708
22	0x3d233dc5	0.03985383
23	0xbddcefcf	-0.10787927
24	0xbc020a29	-0.007936993
25	0x3deb8a27	0.1150096
26	0x3cefcc42	0.029272202
27	0x3d6a19ea	0.05715362
28	0x3d21b520	0.039479375
29	0xbcb1f491	-0.021723064
30	0xbd89d0d4	-0.06729284
31	0x3c0a3e40	0.008437693
32	0x3ce43cb1	0.027860971
33	0xbd035150	-0.032059968
34	0xbce13acd	-0.027493859
35	0x3d55d026	0.05220046
36	0xbcc5d89d	-0.02415114
37	0x3cf643b9	0.03006159
38	0xbce495a4	-0.027903385
39	0x3c44d313	0.012013215
40	0xbd3cf1bf	-0.046128985
41	0xbcef11cd	-0.029183293
42	0xbd49d894	-0.04927881
43	0x3ce36039	0.027755843
44	0xbb2cc84f	-0.002636451
45	0x3d8eb671	0.06968392
46	0xbb54e98c	-0.0032487838
47	0x3d997cfb	0.07494541
48	0x3d419c49	0.047268186
49	0x3d750a86	0.05982449
50	0x3d6423b3	0.055698108
51	0xbe2c94b6	-0.16853604
52	0x3b74dee6	0.0037364303
53	0x3baf0d6e	0.005342177
54	0x3ce14578	0.027498946
55	0xbb1c2291	-0.0023824314
56	0xbd0c939e	-0.034320466
57	0x3d25e4c2	0.040501364
58	0xbc976a0b	-0.018483182
59	0x3cccbbb8	0.024991855
60	0xbcf03615	-0.029322663
61	0x3c468224	0.012115989
62	0xbdd25e7a	-0.10271926
63	0xbd015aca	-0.031580724
64	0xbced37f0	-0.028957337
65	0xbcfd107a	-0.030891646
66	0x3d7d9898	0.061913103
67	0x3c100865	0.008791064
68	0xbd39ef60	-0.0453943
69	0xbd14ad79	-0.03629825
70	0xbce8ad91	-0.028403075
71	0xbc21a2e0	-0.009865493
72	0x3c95ce13	0.01828674
73	0x3b0d2fe9	0.002154345
74	0x3ccc059b	0.024905017
75	0x3c84991b	0.016186288
76	0xbd15d16b	-0.03657667
77	0x3d62637c	0.055270657
78	0xbd21a785	-0.0394664
79	0xbd709b20	-0.05874169
80	0x3e2f4034	0.17114335
81	0x3d8d2cd7	0.06893318
82	0xbd5f1172	-0.054459997
83	0x3ceed708	0.02915527
84	0x3d262b16	0.040568434
85	0xbd499838	-0.049217433
86	0xbacde136	-0.0015707377
87	0xbd8667d4	-0.065627724
88	0xbd3a4564	-0.045476332
89	0xbb41eec1	-0.0029591771
90	0xbc5b9e29	-0.013404408
91	0xbd8fa3ef	-0.0701369
92	0xbd2c3623	-0.042043816
93	0x3aad65c8	0.0013229186
94	0x3ce100d1	0.02746621
95	0x3e0ac336	0.1355103
96	0xbc71eb43	-0.014765563
97	0xbd00781b	-0.03136454
98	0x3d00af33	0.031417083
99	0xbd496ac1	-0.049174074
100	0xbc4862eb	-0.012230615
101	0x3d592f45	0.053023595
102	0xbcaca2cb	-0.02107372
103	0x3d9b202a	0.07574494
104	0x3cf06420	0.029344618
105	0x3d0db1b3	0.034593295
106	0x3c8a3f80	0.016875982
107	0x3cdef871	0.027218075
108	0xbc355dba	-0.011069709
109	0xbb84d888	-0.004054133
110	0xbd764d0c	-0.06013207
111	0xbd3f4dd2	-0.046705075
112	0x3d2417ab	0.040061634
113	0x3c9bd4c1	0.019022347
114	0xbccee5a9	-0.025255995
115	0x3cdcca5f	0.026951967
116	0xbd145b0a	-0.036219634
117	0x3da3598d	0.07976065
118	0x3d71fb01	0.059077267
119	0x3c8c8f83	0.017158275
120	0xbd67c1fd	-0.056581486
121	0xba4ceb86	-0.0007817078
122	0x3be0e49f	0.0068631913
123	0x3d30b2ef	0.043139394
124	0xbc7c6720	-0.015405446
125	0x3aedae3d	0.0018133592
126	0x3d05838b	0.032596152
127	0xbddc3f54	-0.107542664

encoder.convs.0.norm.mean_scale f4 [128]
0	0x3f51e7df	0.8199443
1	0x3f756bdf	0.95867723
2	0x3f61db6a	0.88225424
3	0x3f50318c	0.813256
4	0x3f68b28b	0.90897435
5	0x3f829f17	1.02048
6	0x3f70df75	0.9409097
7	0x3f79b4df	0.9754161
8	0x3f5a925e	0.8537959
9	0x3f727666	0.9471191
10	0x3f5ebcff	0.87007135
11	0x3f96049a	1.1720154
12	0x3f766a6f	0.96256155
13	0x3f824134	1.0176148
14	0x3f7bfb89	0.9843069
15	0x3f687564	0.90804124
16	0x3f84ac18	1.0365019
17	0x3f478bac	0.779475
18	0x3f7d5244	0.9895365
19	0x3f78cf6a	0.9719149
20	0x3f90454a	1.1271145
21	0x3f6d1ffa	0.9262692
22	0x3f51b68b	0.81919163
23	0x3f594d71	0.8488379
24	0x3f7c3667	0.9852051
25	0x3f557520	0.83381844
26	0x3f6ae016	0.9174818
27	0x3f58cad2	0.8468448
28	0x3f7f9daf	0.9984998
29	0x3f60124f	0.87527937
30	0x3f82b782	1.0212252
31	0x3f614330	0.87993145
32	0x3f6f3dc2	0.9345361
33	0x3f793623	0.9734823
34	0x3f6ed899	0.9329925
35	0x3f8a6e48	1.0814905
36	0x3f6f0e71	0.9338141
37	0x3f5c5396	0.8606504
38	0x3f68701f	0.90796083
39	0x3f5f7c7a	0.8729931
40	0x3f81ee00	1.0150757
41	0x3f53455b	0.82527703
42	0x3f77acb1	0.9674788
43	0x3f6dda49	0.929112
44	0x3f48097a	0.7813946
45	0x3f77abd9	0.96746594
46	0x3f6a2f53	0.9147846
47	0x3f5858eb	0.8451068
48	0x3f7fe46b	0.99957913
49	0x3f850ded	1.0394875
50	0x3f7e8f2d	0.9943722
51	0x3f9019e4	1.1257901
52	0x3f671b53	0.9027607
53	0x3f6ed06c	0.93286777
54	0x3f404c9e	0.7511691
55	0x3f7c4c7e	0.9855422
56	0x3f7a91dc	0.97878814
57	0x3f744f70	0.9543371
58	0x3f6f062d	0.933688
59	0x3f6ed6e4	0.9329665
60	0x3f7c13e1	0.9846783
61	0x3f52f80e	0.8240975
62	0x3f873570	1.0563183
63	0x3f72cd7d	0.948448
64	0x3f6de169	0.92922074
65	0x3f6d167b	0.9261243
66	0x3f56e545	0.8394359
67	0x3f778609	0.96688896
68	0x3f79786a	0.9744936
69	0x3f751da0	0.9574833
70	0x3f7b9bd2	0.9828464
71	0x3f522ff4	0.8210442
72	0x3f6b5a49	0.9193464
73	0x3f5d7c4a	0.86517775
74	0x3f801a0d	1.000795
75	0x3f5d382d	0.8641384
76	0x3f717dd7	0.9433264
77	0x3f76951a	0.9632126
78	0x3f5c2eb0	0.8600874
79	0x3f6d54bb	0.92707413
80	0x3f8380d2	1.0273688
81	0x3f7508c2	0.9571649
82	0x3f796c7d	0.97431165
83	0x3f67a94a	0.9049269
84	0x3f778985	0.96694213
85	0x3f8033db	1.0015825
86	0x3f69cb32	0.91325676
87	0x3f711656	0.94174707
88	0x3f7c89ab	0.98647565
89	0x3f3bb5b4	0.7332413
90	0x3f647658	0.8924308
91	0x3f811bb8	1.0086584
92	0x3f771c5e	0.9652766
93	0x3f7345e0	0.95028496
94	0x3f622237	0.8833346
95	0x3f83c3da	1.0294144
96	0x3f45d63e	0.7728003
97	0x3f625ad0	0.8841982
98	0x3f790123	0.9726736
99	0x3f814c0c	1.0101333
100	0x3f6fa030	0.936038
101	0x3f72c93f	0.9483833
102	0x3f5fc2eb	0.87406796
103	0x3f542c6e	0.82880294
104	0x3f7045bc	0.93856406
105	0x3f6d2304	0.92631555
106	0x3f7a14bb	0.9768788
107	0x3f60a918	0.87758017
108	0x3f6ce5e4	0.92538285
109	0x3f5012a0	0.8127842
110	0x3f7f0c0d	0.99627763
111	0x3f60609b	0.8764741
112	0x3f78f291	0.97245127
113	0x3f675bd0	0.9037447
114	0x3f784867	0.9698548
115	0x3f709a6c	0.9398563
116	0x3f6c72b9	0.9236255
117	0x3f859c82	1.0438387
118	0x3f85b5e1	1.044613
119	0x3f6e8e78	0.9318614
120	0x3f825d59	1.0184737
121	0x3f5e2426	0.8677391
122	0x3f7766e7	0.9664139
123	0x3f5faa3a	0.8736912
124	0x3f74610a	0.9546057
125	0x3f76e6a9	0.9644571
126	0x3f5c4c59	0.86054
127	0x3f7bac14	0.98309445
