checkpoints/model_D_epoch_49.pth (torch, 552117 bytes, 26 tensors)

encoder.node_embedding.weight f4 [1, 128]
0	0x3fe164c8	1.7608881
1	0x3faa62a8	1.3311357
2	0x3f4da698	0.80332327
3	0xbff75d0d	-1.9325272
4	0x3f14a1d0	0.58059406
5	0xbf8d0c79	-1.1019431
6	0x399a2629	0.000294016
7	0xbfbc82ae	-1.472738
8	0xbf1ce3ef	-0.612853
9	0x3fbd2856	1.4777935
10	0xbea1478e	-0.31499904
11	0xbfa1ae1d	-1.263126
12	0xbf26be15	-0.6513379
13	0xbeeee19e	-0.46656507
14	0xbf2915c3	-0.6604883
15	0x3f27d0ca	0.6555296
16	0x3fb9a225	1.4502608
17	0xbdca23ac	-0.09870085
18	0xbecae845	-0.39630333
19	0x3eb0e3a0	0.34548664
20	0xbf2b16e2	-0.6683179
21	0x3f6e0247	0.92972225
22	0x3f2d870e	0.677842
23	0x3fc405ec	1.5314307
24	0x3f91eaab	1.139974
25	0x3f941743	1.1569599
26	0x3f088afe	0.53337085
27	0x3f9756f8	1.1823416
28	0xbe221bc1	-0.158309
29	0xb9e8c438	-0.00044396683
30	0xbe3d6c76	-0.18498406
31	0x3f4499e1	0.767973
32	0xbf9e9cc4	-1.2391591
33	0xbf40633f	-0.7515144
34	0xbe116b47	-0.1420108
35	0x3fcb7516	1.5895107
36	0x3e863d84	0.26218808
37	0xbea78007	-0.32714865
38	0x3e739eb4	0.23791009
39	0xbf2f74de	-0.685377
40	0xbfb5cb45	-1.4202658
41	0x3f5bbfa4	0.85839295
42	0xbf45c603	-0.77255267
43	0xbf03072f	-0.51182836
44	0xbf90f8da	-1.1325943
45	0x3ffa4f1e	1.9555395
46	0xbf8a7485	-1.0816809
47	0xbeb7f2ff	-0.3592758
48	0xbf50d2f1	-0.8157187
49	0xbf0ddf97	-0.55419296
50	0x3c59a867	0.013284779
51	0x3ee2b49f	0.44278428
52	0xbecd21af	-0.4006476
53	0x3f863b34	1.0486817
54	0xbf31d40a	-0.6946417
55	0xbf22e6e7	-0.6363358
56	0xbf9d8ed4	-1.2309213
57	0xb91e89b1	-0.00015119348
58	0x39fd7e47	0.00048350004
59	0x3f157f24	0.58397126
60	0xbccd2040	-0.025039792
61	0x3fd49c38	1.6610174
62	0xbf87a1e4	-1.059628
63	0x3fa31604	1.2741094
64	0x3fa84150	1.3144932
65	0x3f4237e1	0.75866514
66	0x4001f490	2.030552
67	0x3ee1424c	0.43995893
68	0x3e75d6bc	0.24007696
69	0xbdd557ee	-0.10417162
70	0xbf6b8d7b	-0.9201276
71	0x3f91f52a	1.1402943
72	0xbdcbe2e8	-0.09955388
73	0x3eec7431	0.46182397
74	0xb93b6db3	-0.00017874576
75	0x3ead01d6	0.33790463
76	0x3ef250a2	0.47327143
77	0xbf0c1bf5	-0.5473016
78	0xc00134cc	-2.0188475
79	0xbf21d723	-0.632189
80	0xba737dbc	-0.000928845
81	0xbe8207b8	-0.25396514
82	0xbf9936b7	-1.1969823
83	0xbefa0a10	-0.48835802
84	0x3eed48eb	0.46344694
85	0x3edd854a	0.43265754
86	0x3f82b4cf	1.0211428
87	0x3aa0b471	0.0012260807
88	0x3f24dbbd	0.64397794
89	0xbec44f68	-0.38341832
90	0xbf69b231	-0.91287524
91	0x3ef76747	0.48320982
92	0xbfc87a5e	-1.5662344
93	0xbf3b8dd8	-0.7326331
94	0x3f9a9925	1.2077986
95	0x3ebd7585	0.37003723
96	0xc0122767	-2.283655
97	0x3ed260a4	0.41089356
98	0x3f314400	0.69244385
99	0x3a3ff5ac	0.000732268
100	0x3f0e2aec	0.55534244
101	0x3efa04b6	0.4883172
102	0x3f73cce3	0.9523451
103	0xbeb52929	-0.35382965
104	0xbe057aac	-0.13035077
105	0x3f2367d1	0.63830286
106	0x3ea931b5	0.33045736
107	0x3dc939f4	0.09825507
108	0x3e3bf9f4	0.18357068
109	0x3f93b7c2	1.1540453
110	0xb9a9c6b8	-0.0003238225
111	0xbe6da65a	-0.2320799
112	0xbfa8a95d	-1.3176686
113	0xbd3a5016	-0.045486532
114	0xbf0528a7	-0.52015156
115	0x3eccd4c7	0.40006086
116	0x3f1ed51e	0.6204394
117	0x3ce281b7	0.027649743
118	0xbe906d8d	-0.2820858
119	0x3ee13ac0	0.43990135
120	0x3aa17c09	0.001232029
121	0x3e2ba787	0.16763125
122	0x3d4a248d	0.049351264
123	0x3f2ff02b	0.6872584
124	0x3f7a2971	0.97719485
125	0x3e762b35	0.2403992
126	0x3f1c67ad	0.61095697
127	0x3eb103c9	0.345732

encoder.convs.0.node_mlp.weight f4 [128, 256]
0	0x3d570b24	0.05250086
1	0xbc06c922	-0.008226665
2	0x3d5c970b	0.053854983
3	0x3c72c675	0.014817824
4	0xbd3d1cbd	-0.046169985
5	0x3d18068a	0.03711561
6	0xbd185590	-0.037190974
7	0xbcd3f726	-0.025874685
8	0xbd54ff73	-0.052001428
9	0xbd607e03	-0.054807674
10	0x3c594483	0.013260963
11	0xbc84edee	-0.016226735
12	0x3c9e85e9	0.019350963
13	0xbd52898a	-0.0514007
14	0x3d2467ce	0.04013806
15	0xbd21c264	-0.039492026
16	0xbbdbe8fc	-0.0067111235
17	0x3c117e52	0.008880215
18	0x3cdbd6e4	0.026835866
19	0x3d4f2df1	0.050580923
20	0x3d4ca58e	0.049962573
21	0xbd302b14	-0.043009833
22	0x3c945cd3	0.018110668
23	0xbcb28ccb	-0.021795651
24	0xbb460f3a	-0.0030221478
25	0xbd258aa4	-0.04041542
26	0x3d690c48	0.056896478
27	0xbd222947	-0.039590146
28	0x3ce642e4	0.028108068
29	0x3d0db239	0.034593794
30	0x3c80bd91	0.015715392
31	0xbce77d64	-0.028258033
32	0x3d4c1afa	0.049830414
33	0x3c1aee56	0.009456238
34	0x3b852402	0.0040631304
35	0xbd455497	-0.048176374
36	0x3ce62a71	0.02809641
37	0xbc46c8dc	-0.01213285
38	0xbcbfb781	-0.023402931
39	0x3d3fcae4	0.04682435
40	0x3c1de594	0.009637255
41	0xbced3c47	-0.028959407
42	0xbd07727a	-0.033068158
43	0xbbcb2d99	-0.006200504
44	0x3cefd490	0.029276162
45	0xbc3d4a40	-0.011553347
46	0xbd16b5b4	-0.03679438
47	0xbcbfe829	-0.023426132
48	0xbd415bfd	-0.047206867
49	0x3c8f4fb9	0.01749407
50	0x3d458495	0.048222143
51	0xbd539389	-0.051654372
52	0x3c29295c	0.010324802
53	0x3d09cac5	0.03364064
54	0x3be9d913	0.007136473
55	0xbcc706ed	-0.024295295
56	0x3cde9de5	0.0271749
57	0x3d15c7f9	0.036567662
58	0x3cc43477	0.023950798
59	0xbbdf869d	-0.006821467
60	0xbc9a7453	-0.018854296
61	0x3c1e6bff	0.009669303
62	0xbc6222c7	-0.013802237
63	0xbc65706e	-0.014003856
64	0x3d272a5b	0.040811878
65	0x3d5c56b8	0.05379364
66	0xbb1d4f9c	-0.002400375
67	0xbc1e8da6	-0.009677326
68	0x3b88d07b	0.0041752434
69	0xbbd1c29b	-0.0064013726
70	0x3c2e79bd	0.010649142
71	0x3ca27dcf	0.01983538
72	0xbd667c34	-0.056270793
73	0xbc947b89	-0.018125312
74	0x3ceaad6e	0.02864715
75	0x3cd6cffa	0.026222218
76	0x3a0fc384	0.0005484151
77	0xbd1eb59e	-0.038747422
78	0xbd20bf1d	-0.03924476
79	0xbd64d833	-0.055870246
80	0xbb60b02c	-0.0034284694
81	0x3c85df4e	0.016341832
82	0x3d0ae1db	0.0339068
83	0x3cc17d29	0.023619251
84	0xbd45a07a	-0.048248746
85	0xbd01e93f	-0.03171658
86	0xbbbd44f7	-0.0057760435
87	0x3d6b4166	0.057435416
88	0x3c439b04	0.011938814
89	0xbc97cf98	-0.018531606
90	0x3caa7f7e	0.020812746
91	0xbc9aa482	-0.018877272
92	0xbd292617	-0.04129609
93	0x3d20e111	0.03927714
94	0xbcbe0163	-0.02319402
95	0xbc08875a	-0.008333052
96	0xbd7c2348	-0.061557084
97	0x3d2eb142	0.042649515
98	0x3d43d57a	0.04781101
99	0x3cb0985d	0.021557027
100	0xbd1914ab	-0.037373226
101	0xbd5e5b8f	-0.054286536
102	0xbd34a9ca	-0.044107236
103	0x3d24e377	0.04025599
104	0x3ccc462c	0.024935804
105	0x3d57fac8	0.052729398
106	0x3d0c3c40	0.034237146
107	0x3c90d6d3	0.017680561
108	0x3b2bddf3	0.0026224821
109	0xbd2873b4	-0.041125968
110	0xbd76718a	-0.060166873
111	0xbd6e1998	-0.058129877
112	0x3ca8367d	0.020533795
113	0xbd04124d	-0.032244015
114	0xbc798d82	-0.015231492
115	0xbcf78f60	-0.030219734
116	0xbbee1c72	-0.0072665745
117	0xbd1a7506	-0.03770926
118	0xbd2aad89	-0.041669402
119	0x3cbc25b2	0.022967193
120	0xbcafe25c	-0.021470241
121	0x3d211d07	0.039334323
122	0xbc7ced7e	-0.015437482
123	0xbd21ca10	-0.039499342
124	0xbbe28180	-0.0069124103
125	0xbccbaa84	-0.024861582
126	0xbc6d0e43	-0.014468732
127	0xbd567000	-0.052352905
128	0x3d6dc504	0.058049217
129	0xbd2954e1	-0.041340712
130	0x3b958938	0.004563477
131	0x3d8949d9	0.067035384
132	0xbce6e17a	-0.028183687
133	0x3a6744ef	0.00088222226
134	0x3d3bc078	0.04583785
135	0x3c6dba9a	0.014509821
136	0xbd0cf971	-0.034417573
137	0x3d7b2862	0.06131781
138	0xbc930ef1	-0.01795146
139	0xbcb619c0	-0.022229075
140	0x3bcad2dd	0.0061896876
141	0xbd033ede	-0.032042377
142	0x3e010cda	0.12602559
143	0xbda8c9dd	-0.08241627
144	0x3c31c9aa	0.010851303
145	0x3e0fc421	0.14039661
146	0xbd9e16a7	-0.07719164
147	0xbc8ad00f	-0.016944913
148	0xbd334400	-0.04376602
149	0x3c05e28d	0.00817169
150	0xbc6a2c50	-0.0142927915
151	0xbd29320a	-0.041307487
152	0x3ce00d3b	0.027350059
153	0xbd7e7ef8	-0.062132806
154	0xbde246d5	-0.110486664
155	0xbafbe92e	-0.0019219273
156	0xbb92a9d4	-0.0044758115
157	0xbdd149ac	-0.1021913
158	0xbde645e0	-0.11243796
159	0xbd157e75	-0.036497552
160	0x3d89b4d2	0.06723942
161	0x3cd85eb6	0.02641235
162	0xbd91ca44	-0.07118657
163	0xbde02320	-0.109441996
164	0xbc94ed83	-0.01817966
165	0xbca5fe35	-0.020262817
166	0x3dd36ba5	0.10323266
167	0xbd521a53	-0.051294636
168	0xbdd22ac2	-0.10262062
169	0xbd576f30	-0.05259627
170	0x3d9159a9	0.070971794
171	0x3bb03556	0.005377452
172	0xbca41198	-0.02002792
173	0xbd456c5b	-0.04819904
174	0xbe278227	-0.16358243
175	0xbcef3d20	-0.029203951
176	0xbda525c3	-0.08063843
177	0x3ba32f1e	0.004979982
178	0xbdccba7e	-0.09996508
179	0xbc5ba03f	-0.013404905
180	0x3ca22703	0.019793993
181	0x3c087bf1	0.008330331
182	0x3d827b67	0.063711934
183	0x3d8a7265	0.067601
184	0xbe0d01e6	-0.13770255
185	0x3d9c403c	0.07629439
186	0x3e0de5be	0.13857171
187	0xbb476442	-0.0030424749
188	0x3c867da1	0.016417326
189	0x3e09171b	0.1338772
190	0x3cf1359c	0.029444508
191	0xbd68700b	-0.056747478
192	0x3dcd2c52	0.10018219
193	0xbd356be6	-0.044292353
194	0x3cfcda4d	0.030865813
195	0x3e287e87	0.16454516
196	0xbd43deca	-0.04781989
197	0xbd2bc23a	-0.041933276
198	0xbdd40255	-0.10352007
199	0xbd1ee1fb	-0.03878973
200	0x3b4521b6	0.0030079908
201	0xbbd83332	-0.0065979
202	0x3e1da985	0.15396698
203	0xbd2cead2	-0.04221613
204	0xbd20d9d5	-0.03927024
205	0xbd238738	-0.039923877
206	0x3d5c3d15	0.05376919
207	0xbe231312	-0.15925243
208	0x3d4bfcf5	0.049801785
209	0x3c407e7c	0.011748906
210	0x3d17ee91	0.03709275
211	0x3c7a1315	0.015263339
212	0x3dc7acb7	0.097497396
213	0xbd5802ea	-0.052737154
214	0xbc8c9c4f	-0.017164377
215	0x3dfe6991	0.12422479
216	0xbd62fe49	-0.055418286
217	0xbd069b9c	-0.032863244
218	0x3d0fc2b3	0.03509779
219	0xbd94d4cd	-0.07267151
220	0x3c287a1b	0.010283018
221	0x3d300098	0.042969316
222	0xbb8db70f	-0.004324801
223	0x3cc20e38	0.02368842
224	0xbcc1ee2d	-0.023673141
225	0x3d1f624a	0.038912095
226	0xbdaa549c	-0.08316919
227	0x3d935193	0.071932934
228	0xbda88016	-0.082275555
229	0xbbc12fc7	-0.005895588
230	0x3d946cc4	0.07247308
231	0x3d82fa9e	0.06395458
232	0xbd8473bc	-0.06467387
233	0x3c152212	0.009102361
234	0xbc1fdb9c	-0.009756949
235	0xbda5ed8b	-0.08101948
236	0x3bc322cb	0.0059550754
237	0x3c6010bd	0.013675866
238	0x3c204a3c	0.009783324
239	0xbd94be3b	-0.07262846
240	0xbd98b35e	-0.074560866
241	0x3d594239	0.05304167
242	0x3d8d1e4c	0.06890544
243	0x3d51972c	0.05116956
244	0xbdf7c9e4	-0.120990545
245	0xbd239a95	-0.039942343
246	0x3c096571	0.008386002
247	0xbc9e4555	-0.01932017
248	0x3bd7b95f	0.0065833773
249	0x3d08b49d	0.03337537
250	0x3d25fa4b	0.0405219
251	0xbda7c2ac	-0.081914276
252	0xbd8a3666	-0.06748657
253	0xbce24be7	-0.027624084
254	0x3d7ba83e	0.061439745
255	0x3e10d52a	0.14143816

encoder.convs.0.node_mlp.bias f4 [128]
0	0xbd2e109f	-0.04249632
1	0x3c9d0772	0.01916859
2	0x3b7795ec	0.003777857
3	0x3d4094ad	0.04701679
4	0x3d1baf15	0.038008768
5	0xbcbb3025	-0.022850106
6	0xbaa00cad	-0.0012210809
7	0xbd1c363e	-0.038137667
8	0x388e36ea	6.781316e-05
9	0xbbdc9dc6	-0.0067326752
10	0x3d63f227	0.055650856
11	0x3d61f95c	0.05516945
12	0xbd1978cb	-0.037468713
13	0x3d6e40b9	0.058167193
14	0xbd5d988a	-0.05410055
15	0x3cb544e1	0.02212757
16	0x3cdebdcd	0.027190113
17	0x3ce1c68e	0.027560499
18	0x3d1969b4	0.037454322
19	0xbc7a14da	-0.01526376
20	0x3d29ac23	0.041423928
21	0x3bdc01a5	0.006714063
22	0x3c265352	0.010151701
23	0xbc876d47	-0.0165316
24	0xbd3a0bcc	-0.045421407
25	0xbc199b45	-0.009375398
26	0xbb3c26bc	-0.002870961
27	0x3be5ec0d	0.007016665
28	0xba2821bb	-0.00064137176
29	0x3c800273	0.015626168
30	0x3ae88513	0.0017739855
31	0xbd1d88f4	-0.038460687
32	0xb9f411a6	-0.00046552456
33	0xbd3bacde	-0.045819156
34	0x3b8e3913	0.0043403
35	0x3d273e64	0.040830985
36	0xbcbfe9f3	-0.023426985
37	0x3d092743	0.03348471
38	0xbcb0b2bc	-0.021569602
39	0xbcbc69dd	-0.022999698
40	0x3cda561c	0.026652388
41	0xbd679124	-0.0565349
42	0x3d1ef65e	0.038809173
43	0x3d0e91f3	0.034807157
44	0x3c926835	0.017871955
45	0xbc011a9d	-0.00787988
46	0xbca05f32	-0.019576643
47	0xbcd4150d	-0.025888944
48	0x3d59bdf4	0.05315967
49	0x3c9c84dd	0.019106323
50	0x3cda8771	0.026675912
51	0xbd081c80	-0.033230305
52	0x3d1e43f2	0.038639016
53	0xbd024036	-0.031799518
54	0x3d2a49ac	0.041574165
55	0x3d28f71b	0.041251283
56	0xbd4124d5	-0.047154266
57	0xbd43579d	-0.047690976
58	0xbd709f63	-0.058745753
59	0xbcfe315a	-0.031029392
60	0x3c997d71	0.018736573
61	0xbd479a8f	-0.048731383
62	0x3d3ab237	0.045580115
63	0xbd191140	-0.037369967
64	0xbc6d75aa	-0.014493385
65	0x3c28af74	0.010295738
66	0xbd1aa4a3	-0.037754666
67	0xbb1a29e2	-0.00235235
68	0xbd756650	-0.059912026
69	0xbd75ae30	-0.05998057
70	0x3be866e4	0.0070923436
71	0xbce25255	-0.02762715
72	0x3d3a3caf	0.04546803
73	0xbd0ae375	-0.033908326
74	0x3cf297c3	0.029613381
75	0x3d167096	0.036728464
76	0xbcc6ac60	-0.024252117
77	0xbc8fd2f1	-0.01755664
78	0x3cf0b698	0.029383942
79	0xbcb5305c	-0.022117786
80	0x3c8a1162	0.016853992
81	0xbcb495ed	-0.022044146
82	0xbc3c1233	-0.011478948
83	0xbd19f4c9	-0.03758696
84	0x3d6bd734	0.05757828
85	0xbd64d3f7	-0.055866208
86	0xbc21e1a2	-0.009880455
87	0x3d18d5cc	0.037313268
88	0xbd13e7e1	-0.03610981
89	0x3bca562b	0.006174823
90	0x3d7b7e4a	0.061399736
91	0x3c961a2b	0.018323025
92	0x3d20cfc1	0.03926063
93	0xbd5c7f7a	-0.05383251
94	0x3d1092de	0.035296313
95	0x3a4a0b46	0.00077073683
96	0xbbe3560f	-0.006937749
97	0xbcca192f	-0.024670212
98	0xbc7a5176	-0.015278211
99	0x3cce5a83	0.025189644
100	0x3d1b9361	0.03798235
101	0xbd33f60a	-0.043935813
102	0x3cf13dc3	0.029448396
103	0x3d5d3f1f	0.054015275
104	0xbcc95c99	-0.024580287
105	0x3be3ae0f	0.0069482396
106	0x3c3593bf	0.011082589
107	0xbd48c3a2	-0.049014695
108	0x3c9afdf2	0.018919919
109	0x3d50d84b	0.050987523
110	0xbc819b78	-0.015821204
111	0xbd18a959	-0.037270878
112	0xbd0a35da	-0.033742763
113	0x3d0c249e	0.03421461
114	0xbbcc14cd	-0.0062280656
115	0xbc185a00	-0.009298801
116	0x3c911147	0.017708434
117	0x3cec4ec9	0.028846161
118	0x3d018208	0.031618148
119	0xbbde0ef8	-0.0067766868
120	0xbd73cb8b	-0.059520286
121	0x3d126015	0.035736162
122	0x3d151602	0.03639794
123	0x3aec1b40	0.0018013492
124	0xbd11e20f	-0.035615977
125	0xbc3024b1	-0.010750935
126	0x3cd978f2	0.026546929
127	0x3d419478	0.04726073

encoder.convs.0.edge_mlp.0.weight f4 [128, 7]
0	0xbf0b4cc4	-0.5441401
1	0x3e402e0b	0.18767564
2	0x3da85a50	0.08220351
3	0x3ddf6abb	0.10909029
4	0xbd542087	-0.051788833
5	0x3d60fa11	0.054925982
6	0xbe92e258	-0.28688312
7	0xbd8a59aa	-0.06755383
8	0xbef38f55	-0.4757029
9	0x3ec6475c	0.38726318
10	0x3e0ba746	0.13638029
11	0x3e02dd9f	0.12779854
12	0xbe86624b	-0.26246867
13	0xbdfdc7cd	-0.123916246
14	0xba558859	-0.00081456226
15	0xbde6d968	-0.11271936
16	0xbcaa0cae	-0.020758
17	0xbbdf8d22	-0.0068222443
18	0xbcb4056d	-0.021975243
19	0xbe8bfdf5	-0.2734219
20	0x3ed9332d	0.42421857
21	0xbe2e6de9	-0.17034115
22	0xbc9cb966	-0.019131374
23	0xbe2d2417	-0.16908298
24	0x3ec51cf5	0.38498655
25	0xbdcc6f44	-0.0998216
26	0x3e41f5ee	0.18941471
27	0x3e07949b	0.13240282
28	0xbb8f8fea	-0.0043811696
29	0xbe0b54dc	-0.1360659
30	0xbdec7f33	-0.11547699
31	0xbe944d4b	-0.2896522
32	0x3eace807	0.33770773
33	0x3e867d70	0.26267576
34	0xbeee14c9	-0.46500233
35	0xbdebb0cb	-0.1150833
36	0xbe2ddda6	-0.16979083
37	0xbef20661	-0.47270492
38	0x3d1634dd	0.036671508
39	0xbde1d994	-0.11027828
40	0x3eacc56a	0.33744365
41	0x3e628c59	0.22123851
42	0xbee79259	-0.45228842
43	0x3eb73842	0.3578511
44	0x3e8c3919	0.27387312
45	0x3e9b35f2	0.30314595
46	0xbd8fce90	-0.070218205
47	0xbc83b0a8	-0.016075447
48	0xbe8ac8bc	-0.27106273
49	0xbe05cfa5	-0.13067491
50	0x3e6f0e77	0.23345362
51	0x3ebd158e	0.36930507
52	0xbee85130	-0.4537444
53	0x3dcdf948	0.10057312
54	0xbdf4a4a9	-0.11945469
55	0xbe957d5d	-0.29197207
56	0x3e75398a	0.2394773
57	0x3e908f2c	0.2823423
58	0xbe4261e5	-0.18982656
59	0x3eb75ea1	0.35814384
60	0xbe375a4d	-0.17905541
61	0x3e629c3f	0.22129916
62	0x3e657862	0.22409204
63	0xbe1df69d	-0.15426107
64	0x3ee9741a	0.4559639
65	0xbe5da33d	-0.21644302
66	0xbe3bbaa9	-0.18332924
67	0x3eaae90c	0.33380926
68	0x3ec18241	0.37794688
69	0xbe9c6de5	-0.30552593
70	0x3ecee790	0.40411043
71	0xbf053924	-0.52040315
72	0x3e25c0f0	0.16186881
73	0xbe849a8d	-0.25899163
74	0xbd6adc6b	-0.057339113
75	0xbecb853e	-0.39750093
76	0x3e91a5c2	0.28446776
77	0xbe168645	-0.14699657
78	0xbecd74dd	-0.40128222
79	0xbe4a98e9	-0.19784893
80	0x3e629b9a	0.2212967
81	0x3dd90a3e	0.10597657
82	0x3e8676f6	0.26262635
83	0x3e8a0e97	0.26964256
84	0xbe4850e1	-0.19562103
85	0x3eb85a04	0.36006176
86	0xbe995494	-0.2994734
87	0xbf137567	-0.57601017
88	0x3e1a6ae5	0.1507984
89	0xbedbfb42	-0.42965132
90	0x3dd426d9	0.10358972
91	0x3e2148d0	0.15750432
92	0x3e8443c5	0.25832954
93	0x3eb3063d	0.34965697
94	0x3da2e657	0.0795409
95	0x3c334176	0.0109409
96	0xbe5128b7	-0.20425688
97	0xbe83f9b2	-0.2577644
98	0xbdce24b7	-0.100655966
99	0x3e33eb0f	0.17570136
100	0xbe59ac0c	-0.21257037
101	0xbe470728	-0.19436324
102	0xbe305396	-0.17219386
103	0xbd31a83b	-0.043373328
104	0xbe27390e	-0.16330358
105	0x3e9e56dc	0.30925643
106	0x3e7b715d	0.24554963
107	0x3e956071	0.2917514
108	0xbeaf2e64	-0.3421508
109	0x3e342668	0.17592776
110	0x3e0462d5	0.12928326
111	0x3e6e9c21	0.23301746
112	0xbf0e9bb0	-0.5570631
113	0xbe95bcbe	-0.2924556
114	0xbdf92bf8	-0.121665895
115	0xbe578699	-0.21047439
116	0xbe903643	-0.28166398
117	0xbbfcfa3e	-0.007720261
118	0x3e811a1f	0.2521524
119	0xbee5bf99	-0.4487274
120	0xbe0cd216	-0.13752016
121	0xbeb43fab	-0.35204825
122	0x3da0aa9c	0.07845041
123	0x3de873ef	0.113502376
124	0xbebe7f8d	-0.3720669
125	0x3d86e383	0.06586363
126	0xbe239daf	-0.1597812
127	0xbe5c77d0	-0.2153008
128	0xbe9369c9	-0.28791645
129	0x3d2a414c	0.04156618
130	0x3e4a8533	0.19777374
131	0xbe5d6f73	-0.21624546
132	0xbde22dcb	-0.110438906
133	0xbeb42e67	-0.35191652
134	0xbde55b1f	-0.111990206
135	0x3e984c4b	0.29745707
136	0x3e4d9f20	0.20080233
137	0xbe53de75	-0.2069033
138	0x3ec679e7	0.3876488
139	0x3e06ea8c	0.1317541
140	0x3e38b527	0.18037854
141	0xbe7993c5	-0.24372776
142	0x3d1f2d8b	0.038861793
143	0x3eacb928	0.33735013
144	0x3e89d93a	0.26923543
145	0x3e08d329	0.13361801
146	0xbe8ebb9f	-0.2787752
147	0xbcd57920	-0.026058733
148	0x3e42ed06	0.1903573
149	0x3e2b9aa9	0.16758217
150	0xbd9efcf1	-0.077630885
151	0xbdf6d262	-0.12051846
152	0xbeb4e59a	-0.35331422
153	0xbe9a7e4f	-0.3017449
154	0xbdca1545	-0.09867338
155	0x3e098f50	0.13433576
156	0xbe416ea2	-0.1888986
157	0x3e2a418f	0.16626571
158	0xbe9462a1	-0.28981498
159	0xbc765f48	-0.015037365
160	0xbe510ef0	-0.20415854
161	0xbe5ff981	-0.21872522
162	0x3e0b433a	0.13599864
163	0x3de84f55	0.113432564
164	0x3ea9e6e3	0.33183965
165	0x3ddfc100	0.10925484
166	0xbc258488	-0.010102399
167	0x3e8d1857	0.27557632
168	0xbe9b2272	-0.30299717
169	0x3ee22b18	0.44173503
170	0x3caf8579	0.02142595
171	0x3cc1f864	0.023678012
172	0xbe7a4b15	-0.24442704
173	0xbba414db	-0.005007369
174	0xbe576040	-0.2103281
175	0x3e610915	0.21976121
176	0x3dc05e73	0.09393015
177	0xbd6f81e0	-0.058473468
178	0x3eb9392b	0.36176428
179	0xbd47b76e	-0.048758917
180	0xbec40629	-0.3828595
181	0x3d9c3f2f	0.07629239
182	0x3d3d43f2	0.046207376
183	0xbe9705e1	-0.29496673
184	0xbeaa2d95	-0.332379
185	0xbecebacb	-0.40376887
186	0xbeb9eec8	-0.36314988
187	0xbd85c0cc	-0.06530914
188	0xbe99a961	-0.30012038
189	0xbec03f74	-0.3754841
190	0x3e4b9963	0.19882731
191	0xbea2b5db	-0.3177937
192	0xbb553603	-0.0032533414
193	0x3df12fb5	0.117766775
194	0x3e976962	0.29572588
195	0xbc251d48	-0.010077782
196	0x3df9eabf	0.122029774
197	0x3eea4e01	0.45762637
198	0x3e38a314	0.1803096
199	0x3ecfc08c	0.4057659
200	0xbd8b79f3	-0.06810369
201	0x3eb35bfe	0.35031122
202	0xbeb4af06	-0.35289782
203	0x3e90a78a	0.28252822
204	0x3e24d0ae	0.1609523
205	0x3d46ae47	0.048506048
206	0x3ec4e98c	0.38459432
207	0x3e5b3e78	0.21410549
208	0x3e394289	0.18091787
209	0xbdb6249b	-0.08893701
210	0x3ee5dd09	0.448952
211	0xbe16fa1a	-0.14743844
212	0xbcd2c2fc	-0.025727741
213	0xbc291f2e	-0.010322375
214	0xbcc22395	-0.023698607
215	0xbe841c36	-0.25802773
216	0x3e4c110a	0.19928375
217	0x3c877747	0.016536368
218	0xbdee100e	-0.11624156
219	0x3ddce71e	0.107862696
220	0xbe47c538	-0.19508827
221	0xbdc27022	-0.09494044
222	0xbe191c7a	-0.14952269
223	0xbc8efa6d	-0.017453397
224	0x3dea9742	0.114546314
225	0xbe9ae425	-0.30252185
226	0x3eaf06d9	0.34184912
227	0xbe50246e	-0.20326397
228	0x3e96f6cd	0.2948517
229	0x3e92e0f3	0.28687248
230	0x3e1e83b8	0.15479934
231	0x3edb4331	0.428247
232	0xbf387e4c	-0.72067714
233	0xbf124f2f	-0.57152075
234	0x3c90feaa	0.017699558
235	0xbe627d14	-0.22118026
236	0xbe28e7a8	-0.1649462
237	0xbd060b37	-0.03272554
238	0xbe94885c	-0.29010284
239	0xbe4a3a77	-0.19748865
240	0xbdf5549a	-0.11979027
241	0x3e0a082e	0.13479683
242	0xbc858cf6	-0.016302567
243	0xbe81a975	-0.25324598
244	0xbe278c29	-0.1636206
245	0xbc2a76b1	-0.010404275
246	0x3e944ac3	0.2896329
247	0x3ebe65d4	0.37187064
248	0x3e03b7ce	0.12863085
249	0xbcf73247	-0.030175341
250	0xbb900ab3	-0.0043958067
251	0x3e98eb63	0.29867086
252	0xbeaa6d9d	-0.33286753
253	0xbe8ca67f	-0.27470776
254	0x3de7ce8a	0.11318691
255	0xbe91e0bc	-0.2849177

encoder.convs.0.edge_mlp.0.bias f4 [128]
0	0x3e2374fa	0.15962592
1	0x3e0c6490	0.13710237
2	0xbe710a27	-0.23539029
3	0x3d8a464b	0.067516886
4	0xbd33f521	-0.043934945
5	0x3e1afc0f	0.15135215
6	0xbd43313b	-0.04765437
7	0xbe0a442a	-0.13502565
8	0x3e303f38	0.17211616
9	0xbddf3127	-0.10898047
10	0xbc43308b	-0.011913429
11	0xbe139904	-0.1441384
12	0x3e1186f8	0.14211643
13	0x3c3a57c0	0.01137346
14	0x3e311e34	0.17296678
15	0xbe52893a	-0.2056016
16	0xbc84bcfe	-0.0162034
17	0x3e9bff77	0.30468342
18	0xbe2f2f14	-0.17107803
19	0xbd959c3a	-0.073051885
20	0xbd282829	-0.041053925
21	0x3e3a0d67	0.18169175
22	0xbdf54d8f	-0.11977684
23	0x3dc4edc4	0.09615663
24	0xbd31faca	-0.04345206
25	0x3d3b9b77	0.04580256
26	0x3ea830ff	0.3284988
27	0x3e881ec1	0.26585963
28	0xbd91a991	-0.0711242
29	0xbe14e347	-0.14539824
30	0xbe7f3f28	-0.24926436
31	0xbcf06b3e	-0.029348012
32	0xbc32f79e	-0.010923294
33	0x3d8b4d62	0.06801869
34	0xbdb46c97	-0.08809774
35	0x3dec84f1	0.11548794
36	0x3d86cea6	0.06582384
37	0x3d8819a8	0.066455185
38	0x3e956a06	0.29182452
39	0x3d1eee68	0.03880158
40	0x3c5d7a7a	0.01351797
41	0xbda4eec9	-0.08053357
42	0x3e545afb	0.20737831
43	0xbe7f22ad	-0.24915572
44	0xbdbac03a	-0.091186956
45	0x3d1d1639	0.03835127
46	0x3e4c0d84	0.19927031
47	0xbe6d9ddb	-0.23204748
48	0xbd01cdfe	-0.03169059
49	0x3d8a48f4	0.06752196
50	0x3e6becab	0.230395
51	0x3e2900a6	0.16504154
52	0x3e813f21	0.25243476
53	0xbe0ca680	-0.1373539
54	0xbe9bd152	-0.30433136
55	0x3d87729c	0.06613657
56	0x3e843bf2	0.25826985
57	0x3d6e40bf	0.058167215
58	0x3d8d0028	0.068847954
59	0x3e86742c	0.26260507
60	0xbe80e6a0	-0.25175953
61	0x3df43231	0.11923636
62	0x3e064ad6	0.13114485
63	0x3d0e6164	0.034760848
64	0xbd8547ef	-0.06507861
65	0xbe428f80	-0.19000053
66	0x3e254cd6	0.16142592
67	0x3d5eea25	0.054422516
68	0x3db41975	0.08793918
69	0x3c0ee1e8	0.008720852
70	0xbe82a2ff	-0.2551498
71	0x3e305ee1	0.17223693
72	0xbe170afe	-0.14750287
73	0xbdb2f22e	-0.08737598
74	0xbe093441	-0.1339884
75	0xbe90edcc	-0.28306425
76	0xbe5a68b1	-0.21328999
77	0xbc7d73ff	-0.01546955
78	0xbe934fa2	-0.28771693
79	0x3e4d8e7c	0.20073885
80	0xbe42a263	-0.19007258
81	0x3dc902fe	0.09815024
82	0x3d94242a	0.0723346
83	0xbdcb1aa4	-0.09917191
84	0x3e142d2d	0.14470358
85	0x3e9ab935	0.30219427
86	0xbe8b63c9	-0.27224568
87	0xbc522f9a	-0.012828732
88	0x3e61b6ce	0.2204239
89	0x3ea31545	0.31852165
90	0x3dfa4e53	0.122219704
91	0x3eae4a22	0.34040934
92	0xbe2192f0	-0.15778708
93	0x3e9e86f2	0.3096233
94	0x3dc0b803	0.094100975
95	0xbe1c1b2f	-0.15244745
96	0x3e31f286	0.17377672
97	0x3e769c47	0.24083053
98	0xbe915e85	-0.28392425
99	0x3dec9b33	0.115530394
100	0x3e25a0b0	0.16174579
101	0x3e5f9b28	0.21836531
102	0xbe9641d8	-0.2934711
103	0x3e566bf4	0.20939618
104	0x3e9c14cb	0.30484614
105	0xbe230431	-0.15919568
106	0x3e449f90	0.19201493
107	0xbe8c17c4	-0.27361882
108	0x3d5b33ba	0.053516127
109	0xbe193f4e	-0.14965555
110	0xbea33bf0	-0.31881666
111	0x3e63d75c	0.22250122
112	0x3e1c8535	0.1528519
113	0x3e4178cb	0.18893735
114	0x3e83540b	0.25650057
115	0xbdff8cf9	-0.1247806
116	0xbe60c996	-0.21951899
117	0x3e7f5cd2	0.24937752
118	0x3e8ac603	0.27104196
119	0xbe727623	-0.23677878
120	0xbe338ec1	-0.17534925
121	0xbe7e0efa	-0.248104
122	0xbe0e9ae2	-0.1392627
123	0x3e4a09f0	0.19730353
124	0xbe75def3	-0.2401083
125	0x3d8e25eb	0.06940826
126	0x3cc0b590	0.023524076
127	0xbe30f52a	-0.17281023

encoder.convs.0.edge_mlp.2.weight f4 [128, 128]
0	0xbe34c804	-0.17654425
1	0x3d4a4fee	0.049392633
2	0xbd4b599a	-0.049645998
3	0xbd5210d8	-0.051285595
4	0x3babdf34	0.0052451137
5	0xbd936498	-0.07196921
6	0xbe249a23	-0.16074423
7	0xbd634791	-0.055488173
8	0xbca871ea	-0.020562131
9	0xbe04a201	-0.12952425
10	0xbdbe75b7	-0.09299796
11	0x3d0a01e1	0.033693198
12	0xbdb1fab4	-0.08690396
13	0xbdbb6f2d	-0.091520645
14	0x3da75cb6	0.0817198
15	0xbd4be666	-0.049780272
16	0x3db05195	0.086093105
17	0xbc85a51d	-0.016314084
18	0xbce0f873	-0.02746222
19	0xbde68c3f	-0.112572186
20	0x3d86060f	0.06544124
21	0xbde9c591	-0.11414636
22	0xbd8aa630	-0.06769979
23	0xbc915df4	-0.017744996
24	0x3c9154c8	0.017740622
25	0x3e0245ba	0.12721911
26	0xbd335812	-0.043785162
27	0x3d123f17	0.0357047
28	0xbe4b576d	-0.19857569
29	0x3be448d4	0.0069666896
30	0xbd6e9996	-0.05825194
31	0xbd9721a2	-0.07379462
32	0xbcb06d0e	-0.021536376
33	0x3b719181	0.0036860409
34	0x3db9f165	0.090792455
35	0xbd4659a2	-0.048425324
36	0xbda259c1	-0.079272754
37	0xbc862843	-0.01637662
38	0x3d9cad9d	0.076503016
39	0x3e021a81	0.12705423
40	0xbc89a871	-0.016803952
41	0xbcc9b295	-0.024621287
42	0x3d2e8012	0.042602606
43	0xbd0d9fe7	-0.034576323
44	0xbdadd4e8	-0.08487874
45	0xbdb38801	-0.08766175
46	0xbda6907d	-0.08133028
47	0xbcc524f4	-0.024065472
48	0x3d399c53	0.045315098
49	0x3d8f22b1	0.06989039
50	0xbd1524a7	-0.036411908
51	0x3c291f77	0.010322443
52	0xb9c34582	-0.00037245086
53	0xbe56bb98	-0.20969999
54	0x3b223c5a	0.002475521
55	0xbbdbcc0c	-0.006707674
56	0xbd94981f	-0.07255577
57	0x3da69d55	0.081354775
58	0x3dfa59b9	0.122241445
59	0xbbcfbd94	-0.006339738
60	0xbdb07b6a	-0.08617289
61	0xbd74dc8e	-0.05978065
62	0x3d55d748	0.05220726
63	0xbd86fd73	-0.0659131
64	0xbd99aacc	-0.0750328
65	0x3d9e6469	0.077339955
66	0x3d226361	0.039645556
67	0xbd8bb15f	-0.0682094
68	0xbdc980dd	-0.09839032
69	0x3d0ef6c3	0.0349033
70	0x3df3b54c	0.11899814
71	0xbd610643	-0.054937612
72	0xbd8fb240	-0.0701642
73	0xbe134363	-0.14381175
74	0x3c9694f9	0.018381583
75	0x3e0ff7b3	0.14059334
76	0xbd83c31d	-0.06433699
77	0xbe42b1b9	-0.19013108
78	0x3d705009	0.058670077
79	0x3c9cf82a	0.019161303
80	0x3ccec7fb	0.025241842
81	0x3d5df96d	0.05419295
82	0x3d98009a	0.0742199
83	0x3ba42fa8	0.005010564
84	0x3dc3287e	0.09529208
85	0xbd00d7b8	-0.031455725
86	0xbd802c37	-0.06258433
87	0x3d779edb	0.06045423
88	0x3cb5bbb5	0.022184232
89	0xbdd82a32	-0.10554923
90	0x3d64e580	0.05588293
91	0xbcfb04be	-0.03064191
92	0xbdbd941b	-0.092567645
93	0x3e01cbd7	0.12675415
94	0x3daf5e5b	0.08562919
95	0xbdf13aef	-0.11778819
96	0x3d713fae	0.05889862
97	0x3c97663d	0.018481368
98	0x3c8e4568	0.01736708
99	0xbdd95718	-0.10612315
100	0x3d9edbdc	0.077567786
101	0xbdce424c	-0.10071239
102	0x3c0434fd	0.008069274
103	0xbd88c6c6	-0.06678538
104	0x3d2188fd	0.039437283
105	0xbd1d3cdd	-0.038388122
106	0x3cf0a394	0.029374875
107	0xbd95c723	-0.07313373
108	0xbceeeb20	-0.02916485
109	0x3e26b265	0.1627899
110	0xbb9e9a23	-0.004840152
111	0x3e0ee5ce	0.13954851
112	0xbceda26e	-0.029008117
113	0x3d628376	0.055301152
114	0x3a936010	0.0011243839
115	0xbc8d99b2	-0.017285202
116	0xbd0811dd	-0.03322016
117	0xbda05c22	-0.07830073
118	0xbbe9c74e	-0.0071343547
119	0xbda85246	-0.082188174
120	0x3d17b7be	0.037040465
121	0xbd412af5	-0.047160108
122	0x3c002e21	0.007823498
123	0x3d6da32c	0.05801694
124	0xbd23b046	-0.03996303
125	0xbd192d2d	-0.0373966
126	0x3d62f59a	0.055410005
127	0xbd7e5ed0	-0.06210214
128	0x3d48991c	0.04897414
129	0xbc6dd527	-0.0145161515
130	0x3e8c8748	0.2744696
131	0x3a525355	0.00080232817
132	0x3e441039	0.19146813
133	0x3d71505a	0.05891452
134	0x3e1332be	0.14374825
135	0xba315298	-0.00067643216
136	0xbcb6ecf0	-0.022329777
137	0x3e145dd8	0.14488924
138	0x3df3674f	0.11884939
139	0x3da78701	0.08180047
140	0x3d08105e	0.033218734
141	0xbc8b6032	-0.017013643
142	0xbdf44294	-0.11926761
143	0x3cd9c56a	0.026583392
144	0xbd8c9428	-0.06864196
145	0xbd8f4d8b	-0.06997212
146	0xbd42d813	-0.047569346
147	0x3e4361c8	0.1908027
148	0xbd43f0af	-0.047836956
149	0x3da6735b	0.08127471
150	0xbd868f71	-0.06570328
151	0xbc1e62f7	-0.00966715
152	0x3d611401	0.054950718
153	0x3dba2c79	0.09090514
154	0xbd526415	-0.051364977
155	0xbd6d3f33	-0.0579216
156	0x3dc169fd	0.09444044
157	0xbe227abd	-0.15867133
158	0x3d99b265	0.07504729
159	0x3cf87e03	0.030333525
160	0x3d693ad4	0.05694087
161	0x3d13f621	0.0361234
162	0x3d15c8a8	0.036568314
163	0x3d2f0798	0.04273185
164	0x3e61801b	0.22021525
165	0x3dab4bfb	0.083641015
166	0x3d2fd7b5	0.042930324
167	0x3dbe980f	0.093063466
168	0xbd83fa21	-0.06444193
169	0xbd99ae21	-0.075039156
170	0xbd54e269	-0.051973734
171	0xbc429c86	-0.011878138
172	0x3d608eb2	0.054823585
173	0x3dc14bc5	0.0943828
174	0xbdd1d09f	-0.102448694
175	0xbbb46c50	-0.005506076
176	0xbcfedc87	-0.031111015
177	0x3cb0382f	0.021511165
178	0x3d9c8f82	0.076445594
179	0xbd6d1662	-0.057882674
180	0x3ce8a5dd	0.028399402
181	0x3e2a76f0	0.16646934
182	0x3dadfa6d	0.084950306
183	0xbccc7201	-0.024956705
184	0xba8db5b7	-0.0010811602
185	0xbb843a51	-0.004035272
186	0xbd294ede	-0.04133498
187	0xbd3a3e55	-0.0454696
188	0xbdf3aa70	-0.11897743
189	0x3c2eb15e	0.010662405
190	0xbcc7e69f	-0.02440196
191	0x3d3f879b	0.046760183
192	0x3bc79551	0.006090798
193	0xbdceb89b	-0.100938044
194	0xbd4db791	-0.05022389
195	0xbdacfe8f	-0.08446991
196	0x3c82ee8b	0.015982887
197	0xbbca48c8	-0.006173227
198	0x3dc51ca5	0.09624604
199	0x3d96a348	0.07355362
200	0x3d960a14	0.07326141
201	0x3d862ae9	0.06551153
202	0x3dcbfe1e	0.099605784
203	0xbd95ffbb	-0.07324167
204	0x3cd58560	0.026064575
205	0x3d877636	0.06614344
206	0xbde8a09d	-0.113587596
207	0x3d30700b	0.043075603
208	0x3dc843c4	0.0977855
209	0xbd270e9a	-0.04078541
210	0x3dbc535f	0.09195589
211	0xbdf02019	-0.11724872
212	0x3cc3e7fb	0.023914328
213	0x3d989f26	0.0745223
214	0xbdb22a8a	-0.0869952
215	0x3d5bcfe0	0.053665042
216	0x3d04350c	0.032277152
217	0xbc48afaf	-0.0122489175
218	0xbd9ca845	-0.07649282
219	0xbdf84df2	-0.12124242
220	0x3e56271a	0.20913354
221	0xbcef9ed0	-0.029250532
222	0x3e33a75d	0.17544313
223	0xbd6971f5	-0.056993444
224	0xbd7a8830	-0.061165035
225	0xbd66973c	-0.056296572
226	0x3dcad03d	0.099029996
227	0xbc9234e3	-0.017847484
228	0xbce5f838	-0.028072461
229	0x3d87aa77	0.066243105
230	0x3c0c846c	0.008576494
231	0x3db80651	0.0898558
232	0xbde8199b	-0.11333009
233	0x3db18991	0.08668817
234	0x3ca1d58d	0.01975515
235	0x3d3d5d6c	0.046231672
236	0x3ced238d	0.028947616
237	0xbda0abcd	-0.078452684
238	0x3d985119	0.07437343
239	0xbc8d17e6	-0.01722331
240	0x3ba39aa3	0.0049927994
241	0xbd3c13c2	-0.04591728
242	0xbd01ee87	-0.031721618
243	0x3e2f3f4f	0.17113994
244	0x3cba2d13	0.022726571
245	0x3e05653d	0.130269
246	0x3d1cb398	0.03825721
247	0x3d357533	0.044301223
248	0xbda2c2d8	-0.0794732
249	0xbced5942	-0.028973226
250	0x3d4cf934	0.050042346
251	0x3d6404c6	0.055668615
252	0xbc574fd4	-0.013141591
253	0xbceeb562	-0.029139224
254	0x3d05bae7	0.032648947
255	0x3bf339c3	0.007422657

encoder.convs.0.edge_mlp.2.bias f4 [128]
0	0x3cb4dd6c	0.022078238
1	0xbd96a16a	-0.07355006
2	0x3b7905ac	0.0037997765
3	0x3cbc575e	0.022990879
4	0xbd057ffc	-0.03259276
5	0x3c4a9c53	0.012366372
6	0xbc46a757	-0.012124858
7	0xbd9a99a1	-0.07548834
8	0xbda93f2e	-0.08264004
9	0x3beacd19	0.007165563
10	0xbd81f5ec	-0.06345734
11	0x3d9570e9	0.072969265
12	0x3d139c18	0.036037534
13	0x3da21976	0.079150125
14	0xbb688e48	-0.0035485197
15	0x3d5c9b8c	0.05385928
16	0xbd86d64d	-0.065838434
17	0x3cf8c451	0.030367048
18	0x3d08f9d2	0.033441372
19	0x3c94854d	0.018129969
20	0xbd1a4906	-0.037667297
21	0xbcfc278c	-0.030780576
22	0xbd1338eb	-0.035942953
23	0x3d912b27	0.07088309
24	0x3cb5dfe8	0.022201493
25	0xbd2eac57	-0.042644825
26	0xbce42a63	-0.027852243
27	0x3bcde32d	0.006283185
28	0x3c35a69d	0.011087087
29	0x3dad3e01	0.08459092
30	0x3d0e487a	0.034737088
31	0x3d89167e	0.06693743
32	0xbcf4baf5	-0.029874304
33	0x3c491600	0.012273312
34	0x3d5e1f03	0.054228794
35	0x3d55fb8c	0.052241847
36	0xbb52e073	-0.003217724
37	0x3d898c8a	0.06716259
38	0xbd34388d	-0.043999244
39	0xbd84cc53	-0.06484284
40	0x3c9fa39a	0.019487191
41	0x3d14ec6a	0.036358275
42	0x3d36bcea	0.044613756
43	0xbd6b691d	-0.05747329
44	0x3d9f1990	0.077685475
45	0xbd85e05d	-0.065369345
46	0x3d688442	0.056766756
47	0xbd071727	-0.032981064
48	0x3db16f02	0.08663751
49	0x3d246420	0.04013455
50	0x3d50a5f5	0.05093952
51	0xbc04b761	-0.008100362
52	0xbd941722	-0.07230975
53	0xbd72da9e	-0.05929052
54	0xbd8b3abb	-0.06798311
55	0xbc3cf46e	-0.011532886
56	0xbce82610	-0.028338462
57	0x3c508144	0.012726132
58	0xbd74fa6c	-0.059809133
59	0xbd8322eb	-0.064031444
60	0xbb839d4d	-0.0040165544
61	0xbbef2d03	-0.007299067
62	0xbceb2782	-0.028705362
63	0xbd9be405	-0.07611851
64	0xbd7f2add	-0.062296737
65	0xbd707001	-0.058700565
66	0xbd2b6a33	-0.041849326
67	0xbc30fc99	-0.0108024115
68	0xbd424e80	-0.047438145
69	0xbd7557e6	-0.05989828
70	0xbc8c4fb5	-0.017127851
71	0x3d797411	0.060901705
72	0x3d65aee7	0.056075003
73	0xbc9638d6	-0.018337648
74	0xbd28e0b6	-0.041229926
75	0x3ca1d971	0.019757004
76	0xbd990de3	-0.07473352
77	0xbd7d2099	-0.061798666
78	0x3aaacc94	0.001303094
79	0x3c9cd8e8	0.019146398
80	0xbd0d5de2	-0.03451336
81	0xbbcc1d3a	-0.00622907
82	0x3c5ba9b4	0.01340716
83	0xbc97f419	-0.018549012
84	0x3d0a74d9	0.03380284
85	0x3cfb97af	0.030711977
86	0xbd504413	-0.05084617
87	0xbbfef3e3	-0.0077805384
88	0xbd941f64	-0.0723255
89	0xbd5ab97a	-0.05339954
90	0xbda8f471	-0.082497485
91	0xbd486a0c	-0.04892926
92	0xbd33d4f8	-0.043904275
93	0x3c785d98	0.015159033
94	0xbb90983b	-0.0044126785
95	0x3b27ccb1	0.0025604183
96	0x3d5a1daf	0.053250965
97	0x3c936cb7	0.017996175
98	0x3b797c40	0.0038068444
99	0x3d201bb5	0.039088923
100	0xbd67e613	-0.0566159
101	0xbc09f511	-0.008420245
102	0x3cbe8835	0.023258308
103	0x3d7ce0f1	0.06173796
104	0x3d866240	0.065617085
105	0xbd8b2840	-0.067947865
106	0x3c3c7835	0.011503269
107	0x3da4d02a	0.08047517
108	0x3cb04916	0.021519225
109	0xbd952a0f	-0.07283413
110	0x3d63cbc5	0.05561425
111	0xbd8df7e8	-0.0693205
112	0xbd904b08	-0.07045561
113	0xbd7837b0	-0.060599983
114	0x3d95f8bc	0.07322833
115	0x3d9a15a3	0.07523658
116	0xbce309a8	-0.027714565
117	0x3ce2a771	0.027667733
118	0x3c8832c8	0.016625777
119	0xbda8c7a8	-0.082412064
120	0xbd245d82	-0.04012824
121	0xbcbac709	-0.022799985
122	0xbc1ddb09	-0.009634742
123	0xbc7e896a	-0.015535692
124	0x3d41a522	0.047276624
125	0xbd6b8e05	-0.057508487
126	0xbcf679a2	-0.030087296
127	0xbc5a4946	-0.013323134

encoder.convs.0.norm.weight f4 [128]
0	0x3f5c2592	0.8599483
1	0x3f68d742	0.9095346
2	0x3f61b192	0.88161576
3	0x3f622083	0.8833086
4	0x3f6479d8	0.8924842
5	0x3f68cf72	0.90941536
6	0x3f6a7e6e	0.91599166
7	0x3f64cf4b	0.89378804
8	0x3f6e06d7	0.92979187
9	0x3f6034a2	0.8758031
10	0x3f65298e	0.8951653
11	0x3f5dfffe	0.8671874
12	0x3f6302e9	0.88676316
13	0x3f611bc3	0.87932986
14	0x3f5f36ee	0.8719319
15	0x3f71e56a	0.94490683
16	0x3f764721	0.96202284
17	0x3f6caada	0.924482
18	0x3f7990c3	0.97486514
19	0x3f5de07c	0.8667066
20	0x3f673008	0.90307665
21	0x3f650a42	0.8946878
22	0x3f6183f5	0.88091975
23	0x3f66a21b	0.90091103
24	0x3f5d2ebf	0.86399454
25	0x3f6b5152	0.9192096
26	0x3f674c35	0.9035066
27	0x3f5a9458	0.85382605
28	0x3f5f30c4	0.87183785
29	0x3f65ef7e	0.8981856
30	0x3f6c380f	0.9227304
31	0x3f632909	0.8873449
32	0x3f597b31	0.849536
33	0x3f6a1a85	0.91446716
34	0x3f6d7ed9	0.9277168
35	0x3f646568	0.89217234
36	0x3f6574fa	0.8963162
37	0x3f737774	0.95104146
38	0x3f78122f	0.96902746
39	0x3f624f1f	0.8840198
40	0x3f605240	0.87625504
41	0x3f63b2ca	0.88944685
42	0x3f5dbaf7	0.8661341
43	0x3f6e27aa	0.9302927
44	0x3f7416d9	0.9534736
45	0x3f61ff43	0.88280123
46	0x3f6304e4	0.8867934
47	0x3f60dacf	0.87833875
48	0x3f63a98e	0.88930595
49	0x3f67e72a	0.90587103
50	0x3f5820d8	0.84425116
51	0x3f6cbca7	0.9247536
52	0x3f6b9772	0.9202796
53	0x3f650d87	0.89473766
54	0x3f771551	0.965169
55	0x3f66dfa8	0.9018502
56	0x3f60028d	0.8750389
57	0x3f608630	0.87704754
58	0x3f584ab3	0.8448898
59	0x3f689c82	0.9086381
60	0x3f73c87d	0.95227796
61	0x3f662ffa	0.89916956
62	0x3f61bad0	0.8817568
63	0x3f839cd3	1.0282234
64	0x3f80edd7	1.0072583
65	0x3f647e46	0.8925518
66	0x3f6bc94e	0.9210404
67	0x3f5fac56	0.8737234
68	0x3f6a9a85	0.9164203
69	0x3f6478c8	0.892468
70	0x3f5c47a4	0.86046815
71	0x3f6451c7	0.8918728
72	0x3f66482b	0.8995387
73	0x3f640544	0.89070535
74	0x3f5de6da	0.86680377
75	0x3f624931	0.8839293
76	0x3f5a3d08	0.85249376
77	0x3f77f15e	0.9685267
78	0x3f631a72	0.8871223
79	0x3f6b8ce8	0.9201188
80	0x3f6f03e9	0.9336534
81	0x3f5d4263	0.86429423
82	0x3f5a4b9b	0.85271615
83	0x3f5db744	0.86607766
84	0x3f6ecd2c	0.9328182
85	0x3f6304f0	0.8867941
86	0x3f6634fd	0.89924604
87	0x3f5f6c02	0.8727418
88	0x3f6e7339	0.93144566
89	0x3f5cf9b6	0.8631853
90	0x3f65e9f5	0.89810115
91	0x3f5537ce	0.83288276
92	0x3f67c773	0.9053871
93	0x3f5aeb1a	0.85514987
94	0x3f6aee03	0.9176943
95	0x3f64256f	0.8911962
96	0x3f65549e	0.8958224
97	0x3f5c4c77	0.86054176
98	0x3f629743	0.8851206
99	0x3f5c22a7	0.85990375
100	0x3f65fc33	0.8983795
101	0x3f61c6a6	0.8819374
102	0x3f60b8fd	0.8778227
103	0x3f666e1b	0.9001176
104	0x3f67b606	0.9051212
105	0x3f65c945	0.8976024
106	0x3f6089a0	0.8771
107	0x3f6eac12	0.9323131
108	0x3f6a5195	0.91530734
109	0x3f5631b5	0.83669597
110	0x3f6e6663	0.9312498
111	0x3f5ead2b	0.86982983
112	0x3f6b02fc	0.9180143
113	0x3f5d43a0	0.8643131
114	0x3f63c5f7	0.88973945
115	0x3f68ea44	0.9098246
116	0x3f6136e4	0.8797438
117	0x3f637edc	0.8886545
118	0x3f5c06db	0.8594796
119	0x3f66a76e	0.9009923
120	0x3f62eade	0.8863963
121	0x3f71a0da	0.94386065
122	0x3f6f19ea	0.93398917
123	0x3f5fa9f7	0.8736872
124	0x3f6630d6	0.8991827
125	0x3f5cf0d4	0.86304975
126	0x3f5aee09	0.8551946
127	0x3f6210f0	0.88307095

encoder.convs.0.norm.bias f4 [128]
0	0x3da5a606	0.08088307
1	0xbda9ec88	-0.08297068
2	0x3c8ca79a	0.017169762
3	0x3cbe3111	0.023216756
4	0xbd0306f3	-0.03198905
5	0x3e1419fc	0.14463037
6	0x3d24ea56	0.040262543
7	0xbd076cfe	-0.033062927
8	0x3bf0288d	0.007329053
9	0xbc912bc7	-0.01772107
10	0x3c738988	0.014864333
11	0xbd2be0b0	-0.041962326
12	0x3ceb44f3	0.028719401
13	0xbca93608	-0.020655647
14	0x3d52df61	0.051482562
15	0xbd115eea	-0.035490908
16	0xbd35026c	-0.044191763
17	0xbc3f3552	-0.011670427
18	0xbd3e00b8	-0.046387404
19	0xbcfd9a91	-0.030957492
20	0x3d3f9d1f	0.0467807
21	0x3b2bd29f	0.002621807
22	0x3c97a41c	0.01851087
23	0x3c42a46f	0.011880024
24	0xbd6847ed	-0.05670922
25	0x3ce1fdbb	0.027586808
26	0x3d13689d	0.03598844
27	0xbc6a7179	-0.014309281
28	0x3c66fc4f	0.014098241
29	0x3a48cde2	0.00076600735
30	0xbc74eaaf	-0.014948531
31	0x3ca29bce	0.019849684
32	0xbd04e4cc	-0.03244476
33	0x3c2a02fa	0.010376686
34	0x3d8b7c7f	0.06810855
35	0x3d3a6d7f	0.04551458
36	0x3cae7ce0	0.02129978
37	0xbc90d31a	-0.017678786
38	0x3d000fdb	0.03126512
39	0xbcdbdc3e	-0.026838418
40	0x3d50cc09	0.050975833
41	0x3d9c3087	0.07626443
42	0xbbedcca8	-0.007257063
43	0x3cae3249	0.021264212
44	0xbd822d8b	-0.06356343
45	0xbd609b8c	-0.05483584
46	0xbc83cba5	-0.016088316
47	0x3d91fce2	0.07128312
48	0xbd74bd4d	-0.059750844
49	0xbce24dd0	-0.027624995
50	0x3db13a1f	0.08653664
51	0x3dcf1510	0.10111439
52	0xbcfa8da4	-0.030585118
53	0xbd03088d	-0.031990577
54	0xbd8c92be	-0.06863926
55	0xbc93383c	-0.01797115
56	0xbbc6b78b	-0.0060643605
57	0x3d915ee6	0.070981786
58	0x3dcc92aa	0.099889114
59	0xbce992fe	-0.028512474
60	0x3c9f64ac	0.019457184
61	0xbc910372	-0.017701838
62	0xbcacb435	-0.021082023
63	0xbccff49b	-0.025385192
64	0x3c9826a9	0.018573122
65	0xbba7a7b7	-0.0051164287
66	0xbbf55896	-0.007487367
67	0xbddf2dec	-0.10897431
68	0xbcae84c9	-0.021303551
69	0x3dc19d87	0.09453874
70	0xbc3228a2	-0.010873945
71	0xbc2b42b2	-0.010452913
72	0x3d3e9d31	0.04653663
73	0x3d0ae08f	0.033905562
74	0xbb574dd2	-0.003285278
75	0x3d7a9bcc	0.061183736
76	0xbcdd7529	-0.027033405
77	0xbd14f22d	-0.03636377
78	0x3b7ab9c3	0.0038257695
79	0xbd2b4232	-0.041811176
80	0xbc0e0a59	-0.008669459
81	0x3d970cc3	0.07375481
82	0x3d3856b0	0.045004547
83	0x3d974285	0.073857345
84	0x3d08c4c9	0.033390794
85	0x3d12d560	0.03584802
86	0xbcdda7b7	-0.027057512
87	0xbc9926c2	-0.018695239
88	0x3d5d27e9	0.05399314
89	0xbdb41a39	-0.08794064
90	0xbd16017d	-0.036622513
91	0x3d886d67	0.06661492
92	0xbd9c937a	-0.076453164
93	0x3d7f4421	0.062320832
94	0xbd39eca8	-0.04539171
95	0x3afcf0fd	0.0019297894
96	0x3c8abe0e	0.016936328
97	0x3d860b59	0.06545133
98	0x3ced6769	0.028979974
99	0x3cf013a8	0.029306248
100	0xbd3ec57f	-0.046575066
101	0xbd0ff1bd	-0.03514265
102	0x3d67ee82	0.056623943
103	0xbcab91ea	-0.0209436
104	0x3d7b53b5	0.061359126
105	0x3c914417	0.017732663
106	0x3d05bccc	0.032650754
107	0xbc20f8b7	-0.009824923
108	0x3c220dd4	0.009890992
109	0xbb6e993b	-0.003640725
110	0x3c9b591f	0.018963395
111	0xbd06a86d	-0.032875467
112	0xbcbe2405	-0.023210535
113	0xba2899c2	-0.0006431603
114	0xbccac1fc	-0.024750702
115	0xbdc6d19f	-0.09707951
116	0xbc8ff99b	-0.017575076
117	0xbd138b45	-0.03602149
118	0x3dcf5b4f	0.101248376
119	0x3d3f19da	0.046655513
120	0xbd4c55d2	-0.049886532
121	0xbb88716b	-0.004163911
122	0x3ce0f6b5	0.02746139
123	0x3d61d86d	0.05513804
124	0x3cc45d33	0.023970222
125	0xbca24421	-0.019807877
126	0x3d4828bd	0.048866976
127	0xbd0308c4	-0.03199078

encoder.convs.0.norm.mean_scale f4 [128]
0	0x3f86c5a2	1.0529063
1	0x3f744e54	0.9543202
2	0x3f55a570	0.8345556
3	0x3f8477e8	1.0349092
4	0x3f74493d	0.9542425
5	0x3f893cb5	1.0721651
6	0x3f77d968	0.9681611
7	0x3f62ac6b	0.8854434
8	0x3f6e16bb	0.93003434
9	0x3f764931	0.9620543
10	0x3f6c9b34	0.9242432
11	0x3f859058	1.0434675
12	0x3f696214	0.9116528
13	0x3f77dced	0.9682148
14	0x3f814b0c	1.0101027
15	0x3f8deff5	1.1088854
16	0x3f72949a	0.94758
17	0x3f7a5982	0.9779283
18	0x3f5957cc	0.8489959
19	0x3f6b3d19	0.918901
20	0x3f857943	1.0427631
21	0x3f67e237	0.9057955
22	0x3f6e7fc2	0.9316369
23	0x3f8dfdc0	1.1093063
24	0x3f6a9cf5	0.9164575
25	0x3f60fd13	0.8788616
26	0x3f667e8c	0.90036845
27	0x3f7e77e1	0.9940167
28	0x3f561c54	0.83636975
29	0x3f6ae7c8	0.9175992
30	0x3f823acd	1.0174195
31	0x3f835c54	1.0262551
32	0x3f832101	1.0244447
33	0x3f856703	1.0422062
34	0x3f7bd734	0.9837525
35	0x3f810a69	1.0081302
36	0x3f74e0f5	0.9565576
37	0x3f7b851f	0.9825
38	0x3f61d33f	0.8821296
39	0x3f810b12	1.0081503
40	0x3f7ceaeb	0.98795956
41	0x3f847e95	1.035113
42	0x3f87f5f7	1.0621938
43	0x3f643632	0.89145195
44	0x3f4d4986	0.8019031
45	0x3f900c5c	1.1253772
46	0x3f6da0c9	0.92823464
47	0x3f68023b	0.90628403
48	0x3f5624c4	0.8364985
49	0x3f785b3f	0.9701423
50	0x3f80dd19	1.0067474
51	0x3f8a50ad	1.080587
52	0x3f8a7368	1.0816469
53	0x3f7eeaf5	0.99577266
54	0x3f8b2110	1.0869465
55	0x3f7bbaf7	0.9833216
56	0x3f6d72e7	0.9275345
57	0x3f7e6631	0.9937468
58	0x3f8364fa	1.0265191
59	0x3f67fe53	0.9062244
60	0x3f760773	0.96105117
61	0x3f5a7f39	0.85350376
62	0x3f7f2a49	0.996739
63	0x3f83da29	1.0300952
64	0x3f5dd7e3	0.8665754
65	0x3f5bdce0	0.85883904
66	0x3f64faa9	0.8944498
67	0x3f8ab827	1.0837449
68	0x3f7565ca	0.9585844
69	0x3f78f785	0.97252685
70	0x3f71605f	0.94287676
71	0x3f560a16	0.8360914
72	0x3f84e4b3	1.0382293
73	0x3f655853	0.895879
74	0x3f7469f3	0.95474166
75	0x3f6eb52d	0.932452
76	0x3f7def79	0.9919353
77	0x3f60fb0c	0.8788307
78	0x3f64b0cb	0.89332265
79	0x3f6728f5	0.9029687
80	0x3f72f4ac	0.9490459
81	0x3f7cf3b8	0.98809385
82	0x3f764624	0.96200776
83	0x3f72ddc6	0.9486965
84	0x3f83b521	1.0289651
85	0x3f7f8757	0.9981589
86	0x3f6deda7	0.92940754
87	0x3f786af9	0.9703823
88	0x3f8ea8ea	1.1145298
89	0x3f84a781	1.0363618
90	0x3f818e7d	1.0121609
91	0x3f7fbfb0	0.99901867
92	0x3f401659	0.750341
93	0x3f8b2003	1.0869144
94	0x3f85a9c1	1.044243
95	0x3f67fe19	0.906221
96	0x3f7a0295	0.9766019
97	0x3f794992	0.97377884
98	0x3f7e7a9a	0.99405825
99	0x3f6f8a90	0.93570805
100	0x3f849a46	1.035958
101	0x3f6aaff0	0.9167471
102	0x3f7ffcdc	0.9999521
103	0x3f685637	0.90756553
104	0x3f7d977c	0.9905927
105	0x3f80fc36	1.0076969
106	0x3f6d6c9f	0.9274387
107	0x3f814ccb	1.010156
108	0x3f63dada	0.89005816
109	0x3f6d5bf3	0.9271843
110	0x3f7aaba5	0.9791816
111	0x3f704a6d	0.93863565
112	0x3f727bb4	0.94720006
113	0x3f6c8494	0.923898
114	0x3f6c3326	0.92265546
115	0x3f89b6a5	1.0758864
116	0x3f7e07c1	0.9923058
117	0x3f65fe8d	0.8984154
118	0x3f8692f2	1.0513594
119	0x3f8283c2	1.0196459
120	0x3f842f86	1.0327003
121	0x3f4ccd9a	0.80001223
122	0x3f8f88b3	1.1213592
123	0x3f74eb84	0.9567187
124	0x3f635cce	0.88813484
125	0x3f754ec1	0.95823294
126	0x3f7ed77e	0.99547565
127	0x3f79c823	0.9757101
