checkpoints/model_B_epoch_10.pth (torch, 552117 bytes, 26 tensors)

encoder.node_embedding.weight f4 [1, 128]
00000000: eb31 f53f 2831 bc3f b982 633f 77ac 05c0
00000010: 1810 2d3f ae8b 9abf 04ab 07bd da96 cbbf
00000020: e649 3bbf 81c0 d03f 5b32 c2be 1713 b0bf
00000030: ab4e 37bf c512 0ebf 8f51 46bf 32de 3f3f
00000040: 38a3 ce3f cc6a 29be c335 f8be 9997 de3e
00000050: 43d9 43bf 6816 8b3f 1eeb 493f 09c1 d63f
00000060: 3b00 a03f ca30 a23f 901d 1a3f 1e8d a93f
00000070: 66a9 63be 8f88 153d f8b8 7ebe 3cb1 5a3f
00000080: d9be aebf e0bb 59bf 4096 64be 7b8c da3f
00000090: 1f77 a03e 2743 d6be 0140 9a3e 90e4 43bf
000000a0: 085f c7bf cf1e 7a3f aca8 60bf 645d 16bf
000000b0: 93ee a1bf 8b03 0640 6c89 9abf 0125 f2be
000000c0: 3591 65bf 7a97 26bf c9bf a03d 3474 023f
000000d0: 8d64 f7be bbb1 963f 8e78 4bbf 2307 39bf
000000e0: b0bd b1bf fe06 203d f173 86bd 54e5 293f
000000f0: 327e c7bd 0cd7 e73f fe97 96bf d854 b13f
00000100: a340 b53f 28fd 563f 9c6b 0d40 b061 003f
00000110: f191 b03e 070b 3cbe de7b 86bf f753 a13f
00000120: 133b 21be 810b 033f fccd 633d 4617 dd3e
00000130: 0283 123f 0cee 1dbf 101a 0cc0 fc0e 3dbf
00000140: 598a 743c a00e aabe 3b7a aabf 146a 13bf
00000150: a8b7 073f 74b8 033f bb8a 903f 5b0a 413d
00000160: 328c 393f 8379 e8be 9c53 84bf 61b3 183f
00000170: e6e6 dabf 48c1 51bf f665 a93f f32b f13e
00000180: 1205 1fc0 c63d fb3e 8239 433f 4598 0b3d
00000190: 4128 213f 7b4c 0f3f 6f2e 883f 4def debe
000001a0: f0a9 3dbe 433c 3e3f 2ffd d03e c43f 2e3e
000001b0: b80a 893e 4c59 a13f f737 03bb 5f97 98be
000001c0: 1888 b9bf be38 c2bd 5a69 15bf 775e f23e
000001d0: e098 373f 8946 943d 19ba c3be a6d6 053f
000001e0: f980 b6bc 99bd 733e f160 ef3d 0504 413f
000001f0: ce1c 893f 702d a93e f1b9 353f 1bab cd3e
1.9155859 1.4702501 0.8887134 -2.0886514 0.6760268 -1.2073877 -0.033122078 -1.5905411
-0.73159635 1.6308748 -0.37929043 -1.3755826 -0.7160441 -0.5549739 -0.774682 0.7494842
1.614356 -0.16544646 -0.48478517 0.43475035 -0.7650339 1.0866213 0.78874385 1.677766
1.250007 1.2671139 0.6020136 1.324619 -0.22232589 0.036507186 -0.24875247 0.8542669
-1.3651992 -0.850523 -0.22322941 1.7074121 0.31340882 -0.41848108 0.30126956 -0.76520634
-1.5575876 0.9770326 -0.8775737 -0.5873625 -1.2650932 2.0939662 -1.2073188 -0.47293857
-0.89674693 -0.65074885 0.0784908 0.5095856 -0.48318902 1.1772989 -0.79480827 -0.72276515
-1.3886013 0.03906917 -0.06565083 0.6636555 -0.09740867 1.8112502 -1.1765134 1.3854017
1.416035 0.83980036 2.209693 0.5014906 0.34486344 -0.18363582 -1.0506551 1.2603749
-0.15745191 0.5118943 0.055616364 0.4318182 0.5723115 -0.61691356 -2.1890907 -0.7385099
0.014925563 -0.33214283 -1.3318552 -0.5758374 0.5301461 0.5145333 1.1292337 0.047129016
0.72479546 -0.45405206 -1.0338016 0.5964871 -1.7101715 -0.8193555 1.3234241 0.47103843
-2.4846845 0.49070567 0.76259625 0.034080762 0.6295205 0.55976075 1.063917 -0.43541947
-0.18521857 0.743107 0.40818164 0.17016512 0.2676599 1.2605376 -0.0020022371 -0.29802987
-1.4494658 -0.09483479 -0.5836388 0.47337696 0.71717644 0.07240016 -0.3822792 0.5228065
-0.022278296 0.23802795 0.11688412 0.7539676 1.0711915 0.3304248 0.7098685 0.40169606

encoder.convs.0.node_mlp.weight f4 [128, 256]
00000000: 1576 493d 8ec1 77bc 5e0d 4f3d db21 b53c
00000010: 2297 62bd 0431 3b3d 9b26 6bbc 33d4 abbc
00000020: a67f 47bd 64f5 83bd dd9a a83c b554 30bc
00000030: eeb0 dc3c ede2 44bd 041c 483d 7015 46bd
00000040: 8831 5dbc 524c 823c f565 0e3d a555 413d
00000050: 7bcf 723d 3ef4 54bd 376d 523c 4c84 f1bc
00000060: 9fb5 1cbc ff78 49bd 6bf2 5b3d d6de 45bd
00000070: a192 133d 7c60 9a3c dab6 bc3c e3d8 14bd
00000080: 7746 723d f071 863c 57ba 313c 3047 6bbd
00000090: 3374 bd3c 30b5 d4bb 9091 ffbc a7ad 653d
000000a0: 282c 883c 4b07 18bd ec3b eabc cba7 1cb9
000000b0: 614a 193d 74b5 98bc c485 05bd 1eed 96bc
000000c0: 074b 32bd 614e cc3c 7bfe 383d e7b5 7abd
000000d0: 733d 8d3c f777 ef3c 457a 663c 0601 9ebc
000000e0: 6dfe 0f3d 9dd0 f03c 0eb8 d53c 2da3 60bc
000000f0: 3600 5abc 738d 7c3b 8aa9 05bc 864b aebc
00000100: c8fb 163d 33e6 4e3d f39a 12bc 12ac 88bc
00000110: 1e23 ffba 67c1 4cba 6bfc 903c 6cf4 6e3c
00000120: 4283 5abd dc5e d2bc 2287 473d 3e95 ae3c
00000130: b20d c2bb 63b3 0dbd 54e6 0fbd 0c16 58bd
00000140: f6c1 bcbc fe65 c23c 675d 2d3d c1cb 003d
00000150: 9a19 6cbd 035b 24bd d142 4ebc 05aa 673d
00000160: e188 c93b 8b07 59bc 1d2f e93c 314b d8bc
00000170: 79f5 18bd 8aed 443d 53d5 fdbc b58f 7abc
00000180: e231 71bd 2e51 1e3d fe06 353d 09e6 993c
00000190: 5a92 3cbd 0ef6 82bd 7dd6 59bd f70d 493d
000001a0: ee41 063d 8268 4a3d 804c f33c 935d 523c
000001b0: 14c1 62bb eda2 4cbd 63dc 46bd 17e4 61bd
000001c0: 27fb e63c 412f e1bc 6c89 1ebc 19c3 1dbd
000001d0: 8c22 67bc 66b9 3ebd c335 1abd 7588 913c
000001e0: 439c 6ebc 6102 113d c370 b9bc e9ab 45bd
000001f0: dfce 60bc 0fd1 06bd c44e b2bc 3e4b 7dbd
00000200: 6f28 4e3d 10c7 09bd 601c 0e3d 43a1 3e3d
00000210: 8e9c e43c 1d7d 14bd 82fb 083d b5c7 efbc
00000220: 79bc 423d 57d5 993d c93c 303c 21a8 5dbc
00000230: 9bd0 82bb 257d 48bd 0bd2 af3c d4cd 7cbd
00000240: 8b15 8a3d cdf8 4f3d a7f4 423d f268 febc
00000250: 734f 4ebd 5e7d 73bc c1aa 273d 44aa 8bbd
00000260: b063 11bc 38b4 30bd 72cd cebc e81a 45bd
00000270: e1e4 babc 55e4 efbc 63bb 68bd e1e9 863d
00000280: e9b5 d23c f632 8cbb 28f6 75bc 93de 0cbd
00000290: 765b 89bd 8881 a1bd e7a9 ea3c e03f 4bbd
000002a0: 6dd1 82bd 528c 2e3c 0cf3 18bc 55b7 34bb
000002b0: b5d3 7cb7 ad4b f0ba e08e f7bc b38b 85bc
000002c0: d1a6 82bd ddc3 043d 6b8c 9bbc 55d7 023d
000002d0: 878d 99bb b103 5d3c a2b2 993d e629 983c
000002e0: 1506 47bd 41ca 303c 28eb 7e3d c98d aa3b
000002f0: f45a 033d 7ec0 623d 1947 f73a 444a cdba
00000300: c89d 1ebd a33e 44bd 6ad3 433d 5195 2f3d
00000310: 4500 27bd 3def 64bd 5442 64bd 7a9a 9abd
00000320: ea78 32bd 74eb 97bc 8e48 153d 5efa 87bc
00000330: 259c a5bd 4c29 09bd 398b 3a3d 3343 5ebd
00000340: b493 f3bc d5ad ee3c 02ab a6bc a6ff b93c
00000350: 8def 3c3b 36d7 91bc f6e6 12bd 59dc 50bd
00000360: a523 2fbc 5ad1 c6bc aa34 3a3d 71a8 66bd
00000370: 9a74 45bd bc96 aa3c 9bb8 ad3c 9be4 b53c
00000380: c5c9 073d 3642 f03c afa4 bbbd 919a 59b9
00000390: 9b81 fc3c aa28 9c38 82c4 13bd a277 843d
000003a0: b06a 3bbd 1ce4 90bc 86ea 95bd 8b5f ea3c
000003b0: d597 e33c b3c3 0e3c d9ad 513b b3ca 8abd
000003c0: f63c 8fbd fdbb 183c a63c 613d 35d2 e23c
000003d0: 726c c5bc 243c c4bc ec47 51bd c9cc d9bc
000003e0: 40d6 fa3c d988 003c aa32 713d e39f 41bd
000003f0: 75e2 2c3d cd29 e8bc 1626 bc3c f353 7f3d
0.049184877 -0.015121831 0.050549857 0.02211087 -0.055319913 0.04570104 -0.014352466 -0.020975208
-0.04870572 -0.06443289 0.020581657 -0.010762383 0.026939835 -0.048067976 0.048854843 -0.04836029
-0.013500579 0.015905533 0.034765203 0.047200818 0.0592799 -0.05199074 0.012843422 -0.02948203
-0.009564786 -0.049187656 0.053697985 -0.048308216 0.036028508 0.018844835 0.02303641 -0.03633965
0.05914923 0.016411752 0.01084765 -0.057440937 0.023126697 -0.006491326 -0.03119734 0.05607381
0.016622618 -0.03711633 -0.028593026 -0.00014939827 0.03742445 -0.018641211 -0.032598272 -0.018423613
-0.043528583 0.024939718 0.045164566 -0.06120863 0.017241215 0.029232008 0.014067237 -0.019287597
0.03515475 0.02939635 0.02608874 -0.013710779 -0.013305714 0.0038536459 -0.008158097 -0.021276247
0.03686121 0.050512504 -0.008948076 -0.016683612 -0.0019465422 -0.00078108016 0.017698487 0.014584642
-0.053347833 -0.025679998 0.048712857 0.021311399 -0.0059220428 -0.034594905 -0.035131767 -0.0527554
-0.023041707 0.023730274 0.042325404 0.031444315 -0.057641603 -0.040125858 -0.012589172 0.056558628
0.0061503504 -0.013246427 0.028464848 -0.026403042 -0.037343476 0.048078097 -0.03098551 -0.0152930515
-0.058885463 0.038651638 0.04419612 0.018786447 -0.04603801 -0.063945875 -0.053183068 0.049085584
0.03277772 0.049416073 0.029699564 0.012839693 -0.0034599947 -0.049960066 -0.04855002 -0.055149164
0.02819593 -0.027488353 -0.009676319 -0.038516138 -0.014107358 -0.04656353 -0.037648927 0.017765263
-0.014563623 0.03540266 -0.022636777 -0.04825965 -0.013721197 -0.032914218 -0.021766074 -0.061839335
0.05033153 -0.033637106 0.03469503 0.04654051 0.027906682 -0.03625213 0.03344298 -0.029270032
0.047543023 0.075113945 0.01075668 -0.013528855 -0.003992153 -0.048947472 0.021462461 -0.06171973
0.0674239 0.050774384 0.0475966 -0.031055901 -0.050368737 -0.014861433 0.040934328 -0.06819585
-0.008873865 -0.04314062 -0.025244448 -0.048121363 -0.022814216 -0.029283682 -0.05681933 0.065875776
0.025721507 -0.004278536 -0.0150123015 -0.03439195 -0.06706898 -0.07886034 0.028645469 -0.049621463
-0.06387601 0.010653572 -0.009335291 -0.0027575095 -1.5069662e-05 -0.00183331 -0.030219495 -0.016301965
-0.06379474 0.032413352 -0.018987855 0.031943638 -0.004686061 0.01348965 0.07504775 0.018574666
-0.048589785 0.010790409 0.06223598 0.0052048904 0.03206916 0.055359356 0.0018865793 -0.0015662392
-0.03872469 -0.047911298 0.047809042 0.04286701 -0.04077174 -0.055892218 -0.055727318 -0.07548995
-0.043572344 -0.01854489 0.036446147 -0.016598877 -0.08086423 -0.03348665 0.04554293 -0.054263305
-0.029733516 0.029135624 -0.020345215 0.02270491 0.0028829307 -0.017802816 -0.035864793 -0.05099139
-0.010689651 -0.024269748 0.04546038 -0.056312982 -0.048206903 0.020823829 0.02120619 0.022203734
0.033151407 0.029328447 -0.0916227 -0.00020752313 0.03082352 7.446234e-05 -0.036076076 0.06468131
-0.045756042 -0.017686896 -0.073201224 0.028610012 0.02778236 0.0087136505 0.003199449 -0.06776943
-0.06994049 0.009322164 0.05498948 0.027688125 -0.024099562 -0.023954459 -0.05109398 -0.026586907
0.03061974 0.007845127 0.058886208 -0.04727162 0.042208154 -0.028340245 0.02296738 0.06233592

encoder.convs.0.node_mlp.bias f4 [128]
00000000: 8606 53bd 17a2 773c 6325 dc3b 9722 423d
00000010: d6c8 c53c 76f4 ebbc 0030 70bc af4a 4fbd
00000020: 25d9 283b d411 5d3c 6e6c 7c3d 0673 563d
00000030: 8ad0 10bd c2d0 693d 7504 3fbd 3c07 c73c
00000040: 010f 133d c4df 213d 49f8 4e3d 74bb d0bb
00000050: 72e6 433d f045 d53b 3b7b 64b9 9237 82bc
00000060: 09a2 82bd fc1e 2abc 0a9c 7f3b d835 57ba
00000070: 6a83 98bb c70b 98bb 8339 123c 64ab fdbc
00000080: 3e73 19bb fe5f 71bd 695f 833c 12c0 603d
00000090: 35cd b6bc 3fde f43c 9fba 6cbc ec32 f2bc
000000a0: dd1c d93c c8ca 69bd 2d7f ef3c b40d 203d
000000b0: a61f f23c 6c55 3fbc 8947 cfbc fed9 44bd
000000c0: 4b2c 343d b6bc 623c 326c 033d 9558 fcbc
000000d0: 80a2 143d c93c 21bd b295 223d 35b3 443d
000000e0: ce59 47bd 070b 3fbd fe71 83bd c271 2bbd
000000f0: a5b4 c83b 8e02 77bd f934 3e3d de17 1dbd
00000100: faaf a3bc f656 bf3c 9de6 41bd 5835 9dbb
00000110: cae3 84bd 15a8 83bd 7b78 9e3b c37c fdbc
00000120: 7b3e 423d 26e9 06bd 820d 2a3d 5278 563d
00000130: 6fe6 acbc 9a0c 91bc eb23 933c 33ef 0dbd
00000140: 8f77 b63c 0808 63bc ef1a f4bc 2dad 49bd
00000150: dbc8 2a3d 85cd 58bd 1fa7 5ebc a105 e83c
00000160: ed70 60bd 1518 403a c535 753d cc03 c13c
00000170: ad1c 103d 9121 45bd 6320 1e3d 096f c43b
00000180: 27dd 803b 99b6 eebc 0f83 77bc 5ee7 133d
00000190: 11e6 113d 56e2 0bbd 9f76 603d 07ae 7e3d
000001a0: b7e3 cebc af26 493c 49f8 ca3c 2cdf 4dbd
000001b0: 74e7 cf3c 5436 783d 6ed5 9dbc 388a 74bd
000001c0: e9c4 22bd d07b f73c 7c9d ebba 262b d0ba
000001d0: c6dd 713c 23f4 823c 1a48 1d3d fc4b 66bb
000001e0: 0639 77bd ebe0 4c3d 3c75 323d 861a 043c
000001f0: b7d9 19bd 6c64 8dbc c372 d83c d364 3b3d
-0.051519893 0.015114329 0.006718324 0.04739627 0.024143618 -0.028803091 -0.014659882 -0.050608333
0.0025764194 0.01349302 0.061626844 0.05235579 -0.03535513 0.057083853 -0.04663511 0.024295442
0.03590298 0.03952004 0.050529752 -0.0063700024 0.04782719 0.0065085813 -0.00021789681 -0.015895639
-0.06378562 -0.010383364 0.0039002919 -0.00082096225 -0.0046543377 -0.004640076 0.008924845 -0.030965514
-0.0023414637 -0.058929436 0.016036706 0.054870673 -0.022314647 0.029891131 -0.014448791 -0.029565297
0.02650302 -0.057078153 0.029235447 0.03907557 0.029556107 -0.011678081 -0.025302665 -0.048059456
0.043987554 0.0138389375 0.032085605 -0.030803958 0.036287785 -0.03936461 0.03969354 0.048022468
-0.04866963 -0.046641376 -0.06418227 -0.041856535 0.00612505 -0.06030517 0.046437237 -0.03835284
-0.019981373 0.023356896 -0.04733907 -0.004797619 -0.0648876 -0.064285435 0.0048361397 -0.03094328
0.047422867 -0.03293719 0.04151679 0.05236084 -0.021105973 -0.017706204 0.017961463 -0.034651946
0.022273807 -0.013856895 -0.029798 -0.04923742 0.041695457 -0.052930374 -0.013589649 0.028322997
-0.054795194 0.0007327807 0.05986573 0.02356138 0.035183597 -0.048127715 0.038605105 0.0059946817
0.0039326134 -0.029139804 -0.01510693 0.03610932 0.0356198 -0.034151398 0.054800626 0.062177684
-0.025255067 0.012277289 0.024776595 -0.05026166 0.02537892 0.060598686 -0.01926681 -0.05970213
-0.03973857 0.030210406 -0.0017976011 -0.0015882 0.014762348 0.015985554 0.03839884 -0.0035140505
-0.060357116 0.050019186 0.043568835 0.008062964 -0.037561145 -0.017259799 0.02642191 0.04575045

encoder.convs.0.edge_mlp.0.weight f4 [128, 7]
00000000: 0b63 acbe 8a81 303d d531 493d 6f3d 543d
00000010: 424b 25be cd18 edbc ee65 c6be e528 dcbc
00000020: f3a9 9bbe d3c1 a23e baea 213e 6cd5 173e
00000030: 8a59 42be 46dc 24be f224 8a3d 5c6a bbbb
00000040: 37ae 2abb d259 ab3d c9a4 2e3d ea0f 9bbe
00000050: 6b6d cc3e d679 16be 63ac a13d 11d3 6cbe
00000060: bcf1 b73e 6dad 1bbe e2dc 583e 562e 2a3e
00000070: 7dca b6bd 1257 463d 8023 85be 7c77 b6be
00000080: 25af 023e d9c6 743e a868 a1be 0e8c 0abe
00000090: f40d 9fbe 5581 a1be c6a2 da3d 8241 3bbd
000000a0: e310 b93e 14be 933e 15ff 5ebe ad00 973e
000000b0: 7073 7e3e a1aa ac3e 9294 ddbd 7a66 03bd
000000c0: b75e 65be 2458 3cbe 2377 a73e 7013 993e
000000d0: 532a ccbe 659b 2e3e 7547 1dbe 869b a3be
000000e0: a4d0 383e ec20 c93d 5710 f8bd 3da6 cf3e
000000f0: 6981 48be f38b 683e 3b0f 803e 4f74 6bbe
00000100: 736f 3a3e 4d66 24be fbea 41be 82c3 603e
00000110: 0723 a13e 4010 9bbe 13f8 c43e 5ab6 b1be
00000120: bce8 ef3d 4e82 9dbe d7b5 8bbd 13a8 99be
00000130: 4030 b83e 21f5 61be 1be4 96be 238e 29be
00000140: 8188 8c3e 74eb 363e 5df3 153e 6f3f 8e3e
00000150: c2bc bfbd b67d 763e 89af b5be 847b 6fbe
00000160: e1b8 823e 9f12 80be 03d2 013e 6042 f33d
00000170: db52 5f3e 7e2c 923e b610 b73d e8e4 03bd
00000180: 5d71 b5be 6bab 51be 7114 c5bd 26a5 113e
00000190: 4456 56be a14d e1bd a556 80bd c646 5c3c
000001a0: 9840 94be 224f 713e e7e7 663d d695 973e
000001b0: ea28 8dbe 7628 873c d329 1a3e bdf1 5a3e
000001c0: 929b 54be 1839 1cbe 7a83 2abd 44db 50be
000001d0: 481f 87be 90ad 6d3d 4d8a 923e 2c00 c4be
000001e0: cc6e b0bd f88e ccbe 3f8b db3d 33c7 2a3e
000001f0: b5f9 b3be a7db f33d ac9e d9bd f8d7 c7bd
00000200: 0d77 8fbe ec2a 79bd ecaf 203e 04f7 3abe
00000210: 4317 00be 0ea9 74be 43a2 13be 882f a03e
00000220: edb0 913e ea78 18be 2235 b23e 25c2 033e
00000230: 4c4a de3d 16a6 8dbe d3bb aabd cbe8 b03e
00000240: 8e34 883e 0c5a 4c3e 44d7 55be aedd fbbd
00000250: 9a1e 103e 8d63 1c3e 1456 01be 27cd 68be
00000260: ef60 9abe 39fa a9be 83a4 1dbe 9b7b 303e
00000270: 06d6 2dbe 07eb f13d ea46 88be 707b a4bc
00000280: 40bc 5cbe 7870 2cbe b374 853e e1ae bd3d
00000290: fad3 b83e efc3 033e 7861 e83b 06b0 9d3e
000002a0: 1f77 90be fd12 473e 3740 bd3c 4f28 29bd
000002b0: 87f8 85be 672f c13b 0211 91be b32f 5e3e
000002c0: 1ae8 60be 8c2b 68bd 597b c83e 3925 003b
000002d0: 75ac 94be 86e2 db3d 5610 9b3d 7bf5 61be
000002e0: 94e7 98be 2cf5 ccbe 94fc 87be d26f a43c
000002f0: b36a b8be c18f adbe 9545 023e 60d5 8dbe
00000300: 287e cf3b 39e1 c93d f82b ab3e 7a63 85bd
00000310: dfba 873d cfc5 883e c162 a13d 5687 a03e
00000320: 719a a5bd eefe b93e 471f 88be 9e7f 903e
00000330: 3ff7 e13d b374 3a3c fc42 ca3e 78ed 583e
00000340: 753e b13d 0fff 88bd c6db b53e 45f0 653d
00000350: 4c77 de3d f914 4d3a ec5f e5bd 727a 3bbe
00000360: f8bc 773e 5027 a83d d566 203d c710 c33b
00000370: 2836 18be ed72 0cbd 8e57 49be 05ac 913d
00000380: d51b 1d3e 44c3 b2be 1552 ac3e 3da5 f4bd
00000390: 979f 953e d444 a23e f438 0c3e 6932 b33e
000003a0: afd5 a1be 78ee bbbe 2dca 243d 91bc 27be
000003b0: 718b 48be c8b8 383c 47a4 5bbe f005 b1bc
000003c0: 04d2 4bbe 3ce7 ac3d 3d32 263d 0922 62be
000003d0: 18ca 05be 462c a2bb 226d 763e 7c89 9d3e
000003e0: 54ea 273e 61e3 163d 6fcd 2bbc 2cec c93e
000003f0: a7e5 55be 0ff5 52be ded6 773d 1004 7bbe
-0.33669314 0.043092288 0.04911979 0.0518164 -0.1614199 -0.02894249 -0.3874964 -0.026874969
-0.30403098 0.317885 0.15812197 0.14827508 -0.18979469 -0.16099653 0.06745328 -0.005719466
-0.0026043782 0.08366741 0.04263762 -0.3028558 0.3992723 -0.14694914 0.07894208 -0.2312739
0.35926616 -0.15202875 0.2117801 0.16619238 -0.0892534 0.04842288 -0.26003647 -0.35638034
0.12762125 0.2390398 -0.3152516 -0.13529989 -0.31065333 -0.31543985 0.10675578 -0.04571677
0.36145696 0.28855956 -0.21776994 0.29492703 0.24848723 0.3372393 -0.10819353 -0.03208015
-0.22399412 -0.18392998 0.32708082 0.29897642 -0.3987604 0.17051466 -0.1535929 -0.31954592
0.1804834 0.098207325 -0.121124916 0.40556517 -0.19580616 0.22709636 0.2501162 -0.22993587
0.18206577 -0.1605465 -0.18937294 0.2194958 0.31472036 -0.30285835 0.38470516 -0.34709436
0.117143124 -0.30763477 -0.068217926 -0.30011043 0.35974312 -0.22066166 -0.29470906 -0.16558127
0.27447894 0.17863256 0.14643617 0.2778277 -0.093621746 0.24071392 -0.35485485 -0.23386961
0.25531676 -0.25014207 0.1267777 0.118778944 0.2180895 0.2854957 0.08938734 -0.032200724
-0.35438052 -0.20475547 -0.096230395 0.14223155 -0.20931345 -0.11001135 -0.06266526 0.013444608
-0.2895553 0.23565343 0.056373503 0.29606503 -0.27570277 0.016498785 0.15055017 0.21381278
-0.2076247 -0.15256155 -0.041629292 -0.20396143 -0.26391053 0.05802685 0.2862114 -0.3828138
-0.08614883 -0.39952826 0.107199185 0.16677551 -0.3515145 0.1190713 -0.106259674 -0.0975799
-0.28020516 -0.06083195 0.15692109 -0.18258291 -0.12508874 -0.23892614 -0.14417367 0.31286263
0.28455296 -0.14889875 0.34806162 0.12867029 0.10854015 -0.27665776 -0.08336606 0.34552607
0.26602596 0.19956225 -0.20882899 -0.122981414 0.14074174 0.1527235 -0.12630492 -0.2273451
-0.3015208 -0.33198717 -0.15394787 0.17234652 -0.16976175 0.11812406 -0.26616603 -0.02007839
-0.21556187 -0.16839778 0.26065597 0.09261871 0.36099225 0.12867711 0.0070916973 0.30798358
-0.28215882 0.19440837 0.02310191 -0.041298207 -0.26166174 0.0058955434 -0.28333288 0.21697883
-0.2196354 -0.056682155 0.39156607 0.0019553436 -0.29037824 0.10736565 0.07571475 -0.220663
-0.2986418 -0.400308 -0.2655989 0.020072851 -0.36018905 -0.33898738 0.12721856 -0.27701855
0.0063321777 0.09857411 0.33431983 -0.06513114 0.0662744 0.26713416 0.07880164 0.31353253
-0.08086098 0.36327308 -0.26586363 0.28222364 0.110334866 0.011380362 0.3950423 0.21184337
0.08654491 -0.066892736 0.35519236 0.056137342 0.10862598 0.00078232546 -0.11199936 -0.18308428
0.2419318 0.08210623 0.03916057 0.0059529277 -0.14864409 -0.03428929 -0.19662306 0.07112888
0.15342648 -0.349146 0.33656374 -0.11945579 0.2922332 0.31693137 0.13693601 0.34999397
-0.3160834 -0.36705375 0.040231872 -0.16380526 -0.19584443 0.011274524 -0.21449386 -0.021609277
-0.19904333 0.08442542 0.040575255 -0.22083296 -0.13065374 -0.0049491255 0.24065068 0.30768955
0.16397983 0.03683794 -0.010485991 0.39437997 -0.20888387 -0.20601295 0.060507648 -0.24513268

encoder.convs.0.edge_mlp.0.bias f4 [128]
00000000: 582f c43d d8c2 343e 418b 7dbe afdc 1c3d
00000010: 2744 a1bd cc95 803e 2c71 0bbd 8f62 69be
00000020: 3fa8 663e 1665 28be 7ee7 98bc ccc1 9cbd
00000030: 9b1d 3a3e 3938 a6bd 416c 103e 5331 77be
00000040: 04cd 353b efda b13e 78e8 5abe 73bb 6bbd
00000050: ff73 183a c22b 843d f453 1bbe 0f03 113e
00000060: 8af4 dbbd 0dd1 453d 8c0c b03e 6d13 a63e
00000070: c3d7 fdbd 9e0e 20be ade4 4bbe fe8d 8cbd
00000080: 883e c73c b3bc fc3d 9c0d e4bd 32e6 3f3e
00000090: b577 eebc c583 ca3d bee2 b63e 0b7b 6c3d
000000a0: 3dc0 90b9 236a abbd ed8f 8a3e c64c 9fbe
000000b0: 8bcd 42be 5f78 963d b6b9 5a3e a544 c0be
000000c0: 75b2 8abd b930 e63d 95ce a73e 90f2 383e
000000d0: de87 a23e c045 8dbd 6777 afbe 375d c83d
000000e0: 4f1f 823e 08c8 0f3d fc94 753d 3f55 b23e
000000f0: 8019 a4be 46b2 893d 2dd5 c13d d28b 9c3d
00000100: 3736 cabd 2ac1 22be eb53 663e c201 a23d
00000110: 6310 e93d 359d c23c c1dd 56be 16ad 253e
00000120: 47db 2fbe 264b 72be 9c76 2dbe 62c8 97be
00000130: 97c8 94be b166 36bc 2e33 c1be 5729 873e
00000140: f665 9cbe 0d9d 153e d4d8 253e 6c27 febd
00000150: ea61 c33d 960b b83e 35d2 bbbe 964f d03c
00000160: e4b6 883e a8c4 b23e 5a34 f93d ca91 a53e
00000170: 42ff 46be ad8e b83e fb0f 133d 8ed6 83be
00000180: dd59 713e 9358 9b3e f021 98be 0fd3 3a3e
00000190: 8f3a de3d b986 973e 1ec2 b6be cc85 513e
000001a0: 5f49 b03e 6c79 e4bd 5475 113e 7425 b2be
000001b0: 6082 da3d 2a34 87be 1db9 aebe c26b 2a3e
000001c0: 40cc 553e c18d 4a3e ced5 933e da10 98bd
000001d0: 71b9 88be 9ead 5f3e ac97 963e fde8 92be
000001e0: d694 a1be 89c5 6dbe 213f 79be 15ad 733e
000001f0: 4f50 aebe 0eeb f33d 1790 963d 5a20 8dbe
0.095793426 0.17652452 -0.24760152 0.038296398 -0.07874327 0.25114286 -0.034043476 -0.22791503
0.22525118 -0.16444811 -0.018665072 -0.07654151 0.18175356 -0.08116192 0.14103796 -0.2413991
0.0027740607 0.34737346 -0.21377742 -0.057551812 0.00058156246 0.06453659 -0.15168744 0.14161323
-0.107400015 0.04829507 0.34384573 0.32436696 -0.12394669 -0.15630576 -0.19911452 -0.0686302
0.02432181 0.12340679 -0.11135408 0.18740156 -0.029109815 0.09888414 0.35719866 0.05773453
-0.0002760905 -0.08369853 0.27062932 -0.3111326 -0.19023721 0.07347178 0.21359906 -0.37552372
-0.06772319 0.11239762 0.32774797 0.1806128 0.31744283 -0.068980694 -0.34270784 0.09783404
0.25414512 0.035102874 0.059956536 0.34830663 -0.32050705 0.06723456 0.09464488 0.07643856
-0.09873622 -0.15893999 0.2249295 0.079104915 0.11380079 0.023756603 -0.2098303 0.16179308
-0.17173491 -0.2366148 -0.16939777 -0.29645067 -0.29059288 -0.011132882 -0.3773436 0.26398727
-0.3054654 0.14610691 0.16195995 -0.12409863 0.0954016 0.3594634 -0.36683813 0.025428575
0.26702034 0.34915662 0.121681884 0.3233779 -0.1943331 0.36046353 0.035903912 -0.2574963
0.23569436 0.30341014 -0.29713392 0.18244575 0.10851013 0.29594973 -0.35694975 0.20461196
0.34430978 -0.11155972 0.14204913 -0.347942 0.10669398 -0.26406986 -0.34125605 0.16642669
0.20878696 0.19780637 0.28874058 -0.07425089 -0.2670398 0.21843573 0.2941259 -0.2869338
-0.31558865 -0.23219885 -0.24340488 0.23796494 -0.34045646 0.119100675 0.07351702 -0.27563745

encoder.convs.0.edge_mlp.2.weight f4 [128, 128]
00000000: 9f92 90bd fedc 8e3d 36d8 8bbd 8de5 82bd
00000010: 5acc ba3c 4733 a9bd c76c 87bb 0ad4 89bc
00000020: ad2b 09bd 1c94 9fbd b431 70bd dbf9 7b3d
00000030: 3269 76bd 8c7b 4b3d e499 bb3d d362 463c
00000040: 6112 093d a776 80bd 0bf4 92bd e050 883d
00000050: 08b7 6c3d 4fd1 813c c30c 78bd 2433 1abd
00000060: 9312 9e3d e033 a63d a0f1 5dbd b35d 2b3d
00000070: db75 3abd f1ab 2ebc 1cf3 eebb dc09 99bd
00000080: 19df c73b db6d f8bc a203 8d3d bec7 2abd
00000090: 2421 5bbd a821 a63c 2f1b b13d 01a3 963d
000000a0: efcf fd3c 5f49 a6bd 83b8 4d3d abd3 b0bc
000000b0: a795 7fbd c1a2 bcbb dfdc 8cbd ffca 22bd
000000c0: 0d30 ef3c e7a7 833d e321 8abd a9a8 273d
000000d0: 8bb0 073d 78fc 45bd 39e7 dfbc 4f2b 8bbd
000000e0: 8d02 25bd 28ba c93d fbad cf3d 8e83 173d
000000f0: f8ea 9bbc f1a1 0dbd 7d75 1b3d b3b3 9fbd
00000100: bff9 87bd 9535 2b3d dfea 6f3d 8e31 a03b
00000110: 3122 c2bc eba9 cc3c cbe9 633d 2c77 b6bd
00000120: a46a f4bc a63c b1bd 65a9 88bc f1ac 913d
00000130: 487d afbd 1989 73bd 70ee 83bc cc83 223d
00000140: dee6 9d3d 0b4d 2e3d 1e33 453d e063 ad3d
00000150: eb56 5e3d f518 38bd 6250 5cbd 0860 593d
00000160: 5920 c4bc f8b8 84bd fb1b 473d 736d 6ebd
00000170: 0473 e33c 1dcc ba3d c4d9 b43d e6f1 1cbb
00000180: 7c77 593c 4d14 b23c 8806 23bd d2da 21bd
00000190: c2d1 c93d 5f4c 9abd 7585 6f3c d38f e7bc
000001a0: 8b19 3d3d 5896 46bd f1a4 823d 237d 75bd
000001b0: a772 13bd a338 963d 9219 383c 95f4 a73d
000001c0: 980a 66bd 1b7b 8b3d 2dc7 843c 82fe a23d
000001d0: 9813 12bd 89ea 883c f363 a33c ee9f 81bd
000001e0: 64c8 333c 70e5 76bd a8a8 3b3d 7a27 bd3d
000001f0: d285 d7bc 7711 50bc f305 e93c b4d8 74bb
00000200: 6441 45bd 4983 14bd e4bd af3d 72d2 0a3d
00000210: d633 8c3d 1fa9 b73d 8188 603d da4c 06bd
00000220: f1fe 6c3c a2ed 51bd 3540 b93d bf86 85bc
00000230: 345c 4a3d 212c d2bd e365 bfbd 3cbc eabb
00000240: 0720 9abc 294b 48bc 238e 6cbd efac b73d
00000250: 570e 0a3d 969f e7bc a3ba a8bd 0475 863c
00000260: f399 853c 8142 db3d 62e5 8dbc 6f0b 41bd
00000270: b75e d03d c95e 0cbd a578 0fbd 8f10 153d
00000280: ddc1 3c3d fa5e 8d3c 23b9 1b3d c6c1 7c3d
00000290: e2a9 a03d 2e37 9d3d abfe 583d 6495 003e
000002a0: 8333 62bd ea72 81bd 739e edbc 840f 00bd
000002b0: 7af0 d13d 39e7 263d fe80 f9bc e72c fcbc
000002c0: b30d 76bd 95ae ca3b e84e dd3d e368 6ebd
000002d0: 7c19 e13c 3c23 383c 1a8d a23d 80e1 303c
000002e0: 87e3 98bc 6eb9 29bc af63 22bd e78d 36bd
000002f0: 305d 1bbd 982f 8a3b 9931 933c b411 9b3d
00000300: 320e 36bc 5c98 0fbd 74f6 a3bd 2923 c1bd
00000310: e95b e2bc 5df0 333d 7fdc ab3d b10c de3d
00000320: a70b c43d 35da 233d b08d ae3d df4b c63c
00000330: 4cb5 a73c de58 46bd 7c7a 8dbd aa21 2f3d
00000340: 27a1 523d 7bcb 03bc 581c cf3d df48 c3bc
00000350: cebe d5bd fdd4 cd3d 1313 e5bd 52fe 523d
00000360: 37e0 b83d af73 da3c eacb 01bc 43fa b4bd
00000370: de33 d13d c293 333c 4482 233d 5e0a 31bd
00000380: aa17 84bc a8fc 64bd 0658 a83d bfba c0bd
00000390: ffb5 22bd a1bd 8c3d a8fc f9bb 1041 e6bb
000003a0: ad2e b4bd 925b 73bd 4b4a 393c e8c7 ce3c
000003b0: b8af 633d 0875 843c 6e5b 8b3d 3d44 993d
000003c0: d753 d43c 6e14 4cbd 86e9 e83a 4ed6 3f3c
000003d0: 55c7 b23c 152b 3f3d 9b45 8a3d db99 423c
000003e0: 0bf8 e0bd 567b 5bbd bf5a e7bb 8a93 9b3d
000003f0: b0a6 a8bc 70db 06bd 015c 9c3d 77ee 16bd
-0.07059216 0.06975745 -0.06828348 -0.063914396 0.02280252 -0.082617335 -0.0041328403 -0.01682474
-0.033488918 -0.077919215 -0.05864115 0.061517578 -0.060158916 0.04967837 0.09160212 0.0121085225
0.033464793 -0.06272631 -0.07175454 0.06656051 0.05779174 0.015846876 -0.060559046 -0.037646428
0.077183865 0.08115363 -0.05418551 0.041837405 -0.045522552 -0.010661111 -0.0072921645 -0.07472584
0.0060995934 -0.03032582 0.068854585 -0.041694395 -0.053498402 0.02027972 0.08647763 0.07355309
0.03098294 -0.08119463 0.050224792 -0.021585306 -0.06239858 -0.0057567065 -0.06878065 -0.039744373
0.029197717 0.06428509 -0.06744745 0.04093233 0.03312735 -0.048336476 -0.027331935 -0.0679537
-0.040285636 0.098499596 0.10140606 0.036990695 -0.01903294 -0.034578267 0.037953842 -0.07797947
-0.06639432 0.041799147 0.0585736 0.00488872 -0.023697944 0.024983367 0.055642884 -0.08909449
-0.029836006 -0.08654146 -0.016682336 0.07113064 -0.085688174 -0.05945692 -0.016104907 0.039676473
0.0771005 0.042553943 0.048144452 0.08466315 0.05428211 -0.044945676 -0.053787597 0.0530701
-0.023941206 -0.064805925 0.04861067 -0.058209848 0.027764805 0.09120963 0.08830598 -0.0023947894
0.013273116 0.021738196 -0.03980115 -0.039515324 0.09854461 -0.07534098 0.014619221 -0.028266823
0.046166938 -0.048483223 0.06379116 -0.059933793 -0.035998013 0.07335021 0.011236565 0.08200947
-0.056162447 0.0681059 0.016208256 0.079587 -0.035663217 0.016713398 0.01994512 -0.06329332
0.01097307 -0.060277402 0.04581514 0.09236045 -0.026308928 -0.012699476 0.02844522 -0.003736061
-0.048158064 -0.036258016 0.08581141 0.033892103 0.068458244 0.08967804 0.05481768 -0.032788135
0.01446508 -0.051252015 0.0904545 -0.016299604 0.049404338 -0.10262323 -0.09345605 -0.0071635526
-0.0188141 -0.012224951 -0.05775274 0.08968531 0.03370508 -0.028274339 -0.08238723 0.01641322
0.01630876 0.10706044 -0.017321292 -0.047130045 0.101743154 -0.03427008 -0.035027165 0.036392745
0.04608332 0.017257202 0.038018357 0.061708234 0.078449026 0.0767654 0.052977245 0.12556988
-0.055224907 -0.06320746 -0.029006219 -0.031264797 0.102509454 0.040747855 -0.030457016 -0.03078313
-0.06007166 0.0061853626 0.10806066 -0.058205497 0.027477972 0.011238869 0.07937069 0.010795951
-0.018663181 -0.010359151 -0.039645847 -0.044568922 -0.037930667 0.0042170994 0.017967986 0.07571736
-0.011111783 -0.03505741 -0.080059916 -0.094305344 -0.027631717 0.0439304 0.08391666 0.108422644
0.09572535 0.04000302 0.085231185 0.0242061 0.020472191 -0.048424594 -0.06908128 0.042756714
0.051423218 -0.008044119 0.10112828 -0.023838459 -0.10436784 0.1005039 -0.11185279 0.05151207
0.090271406 0.02666649 -0.007922152 -0.08836796 0.10214971 0.010960521 0.039919153 -0.043222778
-0.016124565 -0.055905014 0.08219914 -0.09410619 -0.039724346 0.06872106 -0.007628996 -0.007026799
-0.08797965 -0.0594135 0.011309217 0.025241807 0.0555875 0.016169086 0.06804548 0.074837185
0.025918884 -0.04982417 0.0017769791 0.011708809 0.021823565 0.046671946 0.067515574 0.011877502
-0.109848104 -0.05358442 -0.0070603783 0.075965 -0.020587295 -0.032924116 0.07634736 -0.03684851

encoder.convs.0.edge_mlp.2.bias f4 [128]
00000000: cc5b 043d a729 7fbd 2acd 03bb c3a5 f33c
00000010: 4bab 26bd 7380 033d f05d 83bc 05c8 a7bd
00000020: bd92 82bd 5f17 713b bd26 83bd 7682 9b3d
00000030: 0afc 0f3d 113c b53d 9903 abbc af8a 6e3d
00000040: 702c 84bd 531b 333d 511e fb3c c460 c5bb
00000050: 9077 22bd b7e7 0abd 2ee3 b5bc 5cb2 9e3d
00000060: bbde de3c 51be 05bd f75f 2ebd a47b ceba
00000070: 1658 013d a2d6 973d fad5 583d ff6e af3d
00000080: 3e19 0dbd 48b3 c13c f566 7a3d 4dc3 883d
00000090: 9251 5d3c 87a6 843d 59a7 8cbd 28f3 9bbd
000000a0: a6a0 7d3c 68c4 643d a7ec 5a3d 5934 46bd
000000b0: d34b c23d a42f 9ebd 6acd 833d db5c c9bc
000000c0: fff4 a73d 4c93 1b3d 3d59 483d 62cc 703c
000000d0: e331 d3bd 4e5f 89bd c9bc 81bd eb0d 2cbd
000000e0: f23c cebc 4299 963c 1f43 96bd 6c19 99bd
000000f0: 3ac2 eabb a5ca 78bc de68 4bbc e2d6 b4bd
00000100: ac82 93bd 46ba a6bd 0757 58bd 8a67 2dba
00000110: c3f7 6dbd bdbd acbd 7582 c9bc d834 a43d
00000120: 2a35 613d 0c97 a2bc 2d9f 7ebd b42e 6b3c
00000130: a6b3 a8bd 1956 61bd 30ed ee3c 827f ca3c
00000140: 83fc 79bd 44d9 07bc f9ec 733c 8974 5cbc
00000150: 2e9e fd3c f115 433d 7cd8 63bd 92a3 efba
00000160: 92cc a2bd 7fd2 64bd 15ea c5bd a807 7dbd
00000170: 254a 8dbd 8d42 f73b b99a 78bc fc82 f3b9
00000180: 3ebd 963d 8946 873c a7f9 fbba 5a13 2c3d
00000190: 6e2b 1ebd 0efd 15bb dae0 113d 5a35 873d
000001a0: 82e0 773d 9803 8abd 8e04 2538 7376 a63d
000001b0: 97ba f53c 0629 9cbd b664 6e3d e6f0 8fbd
000001c0: f668 87bd 63d3 40bd 77de ba3d 22f3 8f3d
000001d0: 297b a2bc 1b20 ed3c baef 003c 6a7c bdbd
000001e0: 79df 43bd b092 3ebd 0395 39bc 4068 3cbc
000001f0: bf3c 7b3d 149e 1fbd 0995 63bd 41f9 023c
0.032314107 -0.062295582 -0.00201113 0.029742127 -0.0406907 0.03210492 -0.016036004 -0.081924476
-0.06375644 0.0036787612 -0.06403873 0.07593243 0.035152473 0.088493474 -0.020875739 0.058237728
-0.06453788 0.04372723 0.030654104 -0.0060234983 -0.039664805 -0.033912387 -0.022203054 0.07748863
0.027205816 -0.032652203 -0.042571988 -0.00157534 0.031578146 0.07413985 0.05293844 0.08566093
-0.0344479 0.023645058 0.061133344 0.06677876 0.013508217 0.06477075 -0.068678565 -0.07614738
0.015480196 0.05585137 0.053448346 -0.048389766 0.094871186 -0.077239305 0.06435664 -0.02458041
0.08201026 0.03798227 0.04891323 0.014697166 -0.103122495 -0.06707631 -0.06334836 -0.04200546
-0.025175545 0.018383626 -0.07337021 -0.07475552 -0.007164267 -0.015185033 -0.012415139 -0.08830048
-0.07202658 -0.081409976 -0.05281737 -0.0006614855 -0.058097612 -0.08434627 -0.02459834 0.08017892
0.05498234 -0.019847415 -0.06216352 0.014354397 -0.0823739 -0.05501375 0.029165834 0.024719004
-0.06103183 -0.008291546 0.014888042 -0.0134555185 0.030959215 0.047628347 -0.055626377 -0.0018283001
-0.07949175 -0.055864807 -0.09663788 -0.06177488 -0.068989076 0.0075457753 -0.0151736075 -0.00046446163
0.07360314 0.016513126 -0.0019224182 0.042010643 -0.038615637 -0.0022886428 0.035614826 0.06601973
0.06051684 -0.06738967 3.9343307e-05 0.08128061 0.0299962 -0.07625012 0.058201514 -0.070283696
-0.066118166 -0.047076594 0.09124463 0.07028796 -0.019834118 0.028945973 0.007869655 -0.09252246
-0.047820542 -0.04652661 -0.011327031 -0.0114994645 0.06133723 -0.038969114 -0.055562053 0.007993997

encoder.convs.0.norm.weight f4 [128]
00000000: 4e8e 7a3f 7540 7a3f aeef 7c3f 552f 7b3f
00000010: 5a13 7f3f 9acd 7a3f 9571 7d3f a6b3 7a3f
00000020: d6b6 7a3f 4131 7b3f 20f7 7c3f efed 783f
00000030: af08 7d3f fe83 7a3f 041e 7a3f f669 7c3f
00000040: 1751 7d3f ed7d 7a3f 948c 7a3f 24ab 783f
00000050: 9788 803f 9c8c 7a3f 4bab 7a3f f8b0 7c3f
00000060: fa00 7c3f cbaa 7f3f 8c79 793f 9e6f 793f
00000070: 2e1c 7c3f da86 7a3f 2179 7d3f 485d 7d3f
00000080: 7f7d 7b3f d9b2 7b3f ed18 7c3f 26aa 7c3f
00000090: 0cfb 7c3f 78a7 7d3f d145 7a3f 1b84 783f
000000a0: 8016 7a3f d795 7b3f 90d0 7d3f 2d98 7b3f
000000b0: b34d 7d3f 743c 7b3f 6de6 7c3f 8236 7a3f
000000c0: 7e4a 7b3f d3a7 7a3f 3429 7a3f af3a 7b3f
000000d0: 9b41 7b3f efd2 7f3f 69f1 7a3f cc84 7d3f
000000e0: b9ee 7b3f 7c8a 7c3f f950 783f 8d92 7b3f
000000f0: 69f4 773f b572 7a3f 77dc 7a3f 8c1e 823f
00000100: 3ed4 793f 5dce 793f cd8b 7a3f bfca 7a3f
00000110: a325 7a3f 4a4e 7a3f 3621 803f 9125 7f3f
00000120: 49fa 7e3f 8da6 7b3f 1931 7b3f 9dee 7a3f
00000130: 0bb5 783f fb28 783f b936 7c3f 51e5 7c3f
00000140: 20d3 7b3f b861 7b3f 60b0 7e3f 191e 7a3f
00000150: 0d85 7c3f 3fdf 783f 296d 7b3f 992c 793f
00000160: c2f6 7b3f 6d14 7a3f 8ab9 793f 7e7d 7a3f
00000170: a9c4 7a3f 696d 7b3f 7be9 7c3f 85d1 783f
00000180: 109a 793f 0dbe 7a3f 593a 7d3f a354 7c3f
00000190: 7a20 793f 3a8d 7c3f a15e 7a3f 6a05 7b3f
000001a0: 7289 7d3f e80a 7e3f c8b9 793f 7897 7b3f
000001b0: 84d4 7e3f 50b5 7d3f 764f 7e3f 876b 7b3f
000001c0: 0e62 7b3f a7db 7c3f 046e 7b3f b3e8 7b3f
000001d0: 19bd 783f 2c95 7a3f 658f 7a3f ba0a 7d3f
000001e0: 61d8 7b3f 0db4 7d3f 06ec 7c3f be80 7b3f
000001f0: d2a2 7a3f 6df0 7b3f f714 7b3f 4055 793f
0.9787339 0.97754604 0.9880322 0.981191 0.99638903 0.97969973 0.9900144 0.9793037
0.97935236 0.9812203 0.9881458 0.9723806 0.98841375 0.97857654 0.9770205 0.98599184
0.9895186 0.978484 0.97870755 0.9713614 1.0041684 0.978708 0.9791762 0.9870753
0.9843899 0.99869984 0.9745109 0.9743594 0.984805 0.9786202 0.99012953 0.9897046
0.98238367 0.98319775 0.98475534 0.98697126 0.9882057 0.9908366 0.9776278 0.97076577
0.9769058 0.9827551 0.99146366 0.98279077 0.98946685 0.9813912 0.987891 0.9773942
0.9816054 0.9791233 0.9771912 0.9813642 0.9814698 0.99931234 0.9802461 0.99030757
0.98411137 0.9864881 0.96998554 0.98270494 0.96857315 0.9783128 0.9799265 1.0165572
0.9758948 0.9758051 0.9786957 0.97965616 0.9771368 0.9777571 1.0010135 0.99666697
0.99600655 0.9830101 0.9812179 0.98020345 0.9715125 0.9693753 0.98521 0.9878741
0.98369026 0.9819598 0.99487877 0.97702175 0.9864052 0.97215647 0.9821344 0.97333676
0.984234 0.9768742 0.97548735 0.97847736 0.9795633 0.9821382 0.9879376 0.971947
0.97500706 0.97946244 0.98917156 0.98566645 0.9731518 0.98652995 0.9780064 0.98055136
0.9903785 0.9923539 0.97549105 0.98278 0.99543023 0.99104786 0.9934 0.9821095
0.98196495 0.9877266 0.98214746 0.98401946 0.9716354 0.9788387 0.9787505 0.9884449
0.98377043 0.9910286 0.98797643 0.9824332 0.97904694 0.98413736 0.98078865 0.97395706

encoder.convs.0.norm.bias f4 [128]
00000000: a9d1 1bbd 8422 16bd a883 0f3c 24b3 36bb
00000010: c152 683c 61d5 50bb 13d7 0bbc 1fa5 2d3c
00000020: 61c4 563c 3fb9 2a3c 308e 583b 4af9 8ebc
00000030: 6114 7f3c d214 353d c947 cebc d1c0 21bd
00000040: 87c3 4f3c 014a 3dbb 4f66 0fbc a9b2 e4bc
00000050: ef8c ce3b dbf1 9abc 6490 4a3c 1197 a8bb
00000060: ec4d 8abc 7471 baba b3a3 b3bc a9f9 cb3a
00000070: 6e01 88bc 435b cc3a 1696 523b b0a4 4dbc
00000080: a51c c7bb 4cad 94bc 28f3 debc ca98 b4bb
00000090: 7b67 e8bb d659 1b3c 96e6 31bb 0c03 cd3c
000000a0: 6df9 75bb 0113 a0bc 6b55 9e3b b481 083c
000000b0: 374d 4a3c 67c8 713b e260 903c 614c 403d
000000c0: 6338 85bc e6da 303a 40ee d9ba da43 55bc
000000d0: 4b56 cabc c42f a2bb 7c25 403c e90b 693b
000000e0: 8c44 0cbc 2e43 dfbb 948f fc3c 8b2d 5cbb
000000f0: 04f6 753c bd01 28bd ddda eabb 18d3 2bbc
00000100: e2be df3c 3026 95bc 52a0 1d3d aea6 8d3c
00000110: cc7a b33b cc37 36bc 6c11 9b3b fa3e 4cbb
00000120: e3a3 f83c b8ce 82bc 4ae1 9d3b eab6 5a3b
00000130: 5377 533a 8c7c 0d3d 8f5b a0bc a0c4 b0bb
00000140: 431a 33bc a635 cebc fd51 9fbc c167 71bc
00000150: bea6 0d3d e69a 7cbc 5bc6 713b ff9b 97bc
00000160: a3a3 e2bc 4866 743c 57c8 ff3b 71c3 17bd
00000170: 65ce aabb ca06 02bc 349a a4bc baae 203c
00000180: 9302 16bc 8392 23bd 48f8 c73b 8ba1 a9bb
00000190: 2633 763c 85f2 8a3c e410 aa3b decd 31bc
000001a0: cd63 2abc d716 cbbc 545d c3bb 52d6 66bc
000001b0: 7975 3a3b 55a4 36bd 8729 6fbb 2796 23bd
000001c0: 4345 5eb9 1aa9 1bbc 25a1 033d f834 e23b
000001d0: f81f 79bc c4f9 313c ba1c 613c 95e7 35bc
000001e0: af1c 1b3c 5ddf 9ebc 69bd 2fbd 5df0 a13c
000001f0: bb07 39ba 9766 4cbc b066 6ebc 912e 02bd
-0.038041744 -0.03665401 0.008759417 -0.0027877772 0.014179886 -0.0031865465 -0.008535164 0.01059845
0.013108344 0.010420143 0.0033043735 -0.017452855 0.015568824 0.04420931 -0.025180714 -0.039490525
0.012680895 -0.002888322 -0.00875242 -0.027917223 0.0063034217 -0.018914154 0.012363527 -0.0051449616
-0.01688286 -0.0014224485 -0.021928644 0.0015562075 -0.016602244 0.0015591163 0.0032132915 -0.012551472
-0.0060764127 -0.01814904 -0.027215555 -0.005511378 -0.007092414 0.009481868 -0.0027145497 0.025025867
-0.0037532703 -0.019540312 0.00483196 0.008331705 0.012347511 0.003689313 0.017624322 0.04694784
-0.016262239 0.00067464856 -0.001662679 -0.013016665 -0.02469935 -0.0049495418 0.011727687 0.0035560078
-0.008561265 -0.0068134284 0.030830182 -0.0033596482 0.015012268 -0.041017283 -0.007167204 -0.01048734
0.0273127 -0.018206686 0.03848297 0.017291393 0.005477285 -0.011121701 0.0047323015 -0.0031165467
0.030351585 -0.015967712 0.0048181163 0.0033373185 0.0008066792 0.034542605 -0.019574909 -0.0053945333
-0.010931554 -0.025172066 -0.019448275 -0.0147342095 0.034582846 -0.01541779 0.003689191 -0.018507002
-0.027665919 0.014916964 0.007805865 -0.03705162 -0.0052125924 -0.007936189 -0.020093061 0.009807283
-0.009155887 -0.039934646 0.0061025955 -0.005176728 0.015026843 0.016961345 0.005190002 -0.010852305
-0.010399771 -0.024791164 -0.0059620533 -0.014089184 0.0028451367 -0.044590313 -0.0036493258 -0.03993812
-0.00021197372 -0.009500766 0.0321361 0.006903287 -0.015205376 0.010862771 0.013739759 -0.011102577
0.009467288 -0.019393617 -0.042905245 0.019767934 -0.0007058342 -0.012475631 -0.01455085 -0.03178269

encoder.convs.0.norm.mean_scale f4 [128]
00000000: 4960 773f e8a5 823f 8594 7e3f c58a 7c3f
00000010: be85 7c3f c439 833f 529c 7b3f 2877 793f
00000020: 9908 803f df56 7d3f 46d7 7d3f 032a 7b3f
00000030: 1468 813f 79b6 843f 109d 823f b758 783f
00000040: b79a 7b3f 637c 803f 14b5 7e3f 6325 813f
00000050: 2b5d 793f fac2 803f eef2 803f 2293 783f
00000060: f7bc 773f 794b 783f 0237 783f 072e 803f
00000070: d2f4 7a3f 2d5e 7c3f 36cb 7a3f 988c 763f
00000080: 1576 803f b8a1 793f 5bac 803f 8684 7f3f
00000090: c26d 783f 5d3a 7b3f 0733 803f 1782 783f
000000a0: cd0a 7d3f 77f5 7b3f 8eba 7a3f dc05 803f
000000b0: 503b 783f a7f6 793f f561 773f bf0d 773f
000000c0: 93a7 783f d7f2 783f 847e 7d3f aec0 793f
000000d0: 973f 763f bc78 793f 6afc 773f 9455 7a3f
000000e0: 2ef7 7e3f 3888 793f 6de3 813f 73cc 803f
000000f0: 61c0 813f 6d90 753f 14e7 7d3f c7ee 763f
00000100: 14a3 843f ce82 7e3f a2c8 783f 4510 7c3f
00000110: c706 803f 4948 7d3f 15db 803f 1ec8 823f
00000120: b181 813f 0991 813f 9f6d 7b3f 69d8 7b3f
00000130: 52df 7c3f cf5a 773f 439e 793f 77b8 7c3f
00000140: 2f09 803f f5a7 753f 9e2e 783f 142d 7b3f
00000150: 99d4 833f b8f3 813f d929 823f cd0e 7c3f
00000160: dfcd 763f a5f7 793f ba8e 803f 4540 783f
00000170: e1b7 793f 39ee 7e3f 89db 763f afc4 813f
00000180: ffd2 7c3f 053d 713f 662f 7f3f 02ff 7b3f
00000190: adbb 7b3f 3ab2 783f b94c 823f 6416 813f
000001a0: 6ffa 793f 175f 7d3f fd92 7e3f ab70 7b3f
000001b0: 7e5d 7f3f b23b 743f 2ca7 803f e5b5 723f
000001c0: a88b 7d3f 23db 793f 7814 793f fdd3 7c3f
000001d0: b11e 7b3f e56c 813f 6869 803f f042 773f
000001e0: 2407 793f 2fc9 813f 9117 853f 4aa7 7e3f
000001f0: e628 823f 3f22 7c3f fa3b 793f b77d 823f
0.96631294 1.020688 0.9944537 0.98649246 0.98641574 1.0252004 0.982854 0.97447443
1.0002624 0.9896068 0.99156606 0.9811098 1.0109887 1.0368186 1.0204182 0.9701037
0.9828295 1.003796 0.99495053 1.0089535 0.9740779 1.0059502 1.0074136 0.97099507
0.9677271 0.9699016 0.96958935 1.0014046 0.98029816 0.985812 0.97966325 0.9630828
1.0036036 0.9751239 1.0052599 0.9981159 0.9704248 0.9813593 1.0015572 0.970735
0.98844606 0.98421425 0.9794091 1.0001788 0.96965504 0.97641987 0.96633846 0.9650535
0.971307 0.97245544 0.9902117 0.9755963 0.9619078 0.9744985 0.9686953 0.9778683
0.99595916 0.9747348 1.014753 1.0062393 1.0136834 0.959235 0.9918072 0.96458095
1.0362267 0.9941834 0.9718114 0.98462325 1.0002068 0.98938423 1.0066859 1.0217321
1.0117704 1.0122386 0.98214144 0.9837709 0.9877826 0.9662294 0.97507113 0.9871897
1.0002803 0.9595941 0.9694613 0.9811566 1.0299255 1.0152502 1.0169021 0.98460084
0.96407884 0.976435 1.0043557 0.9697307 0.975462 0.9958225 0.96428734 1.0138148
0.98759454 0.94233733 0.996817 0.98435986 0.98333246 0.9714695 1.0179664 1.0084958
0.97647756 0.9897322 0.99443036 0.9821879 0.9975203 0.9540359 1.0051017 0.948088
0.99041224 0.976 0.9729686 0.9876097 0.98093706 1.0111357 1.0032167 0.96586514
0.9727652 1.0139521 1.0397817 0.9947401 1.0168731 0.98489755 0.9735714 1.0194615

encoder.convs.1.node_mlp.weight f4 [128, 256]
00000000: d076 96bc aef0 38bb a7c0 c7bc 3e22 0b3d
00000010: dbfd 043d ad46 4dbc 9dce 88bb 14e3 8b3d
00000020: b04a 9fb9 25c8 8cbc a40f 1dbd 53c4 1e3d
00000030: 2166 1bbd 2055 ae3c b1e3 e1bc 041e cd3c
00000040: 07af fd3c 50a4 423d 076f b338 8385 0dbd
00000050: ec17 be3c aa13 aebc b4a5 a73c 092d 52bc
00000060: 9bc4 d4bb 43c9 3d3d 3cc6 5abd 3d21 723d
00000070: 7915 a83c e857 27bd c1db 633d aeb5 05bd
00000080: 4b3e 43bd d854 afbc b761 aebb f922 4abd
00000090: 0397 c23a 5d58 fa3c 0c39 56bd 98b9 063d
000000a0: 8e70 533c af1b 6e3d 469b 683d b76a 9bbb
000000b0: 7949 82bc 65d0 85bd 234d b3bc 68a7 903c
000000c0: 6ef6 073d a599 403d e700 b73c 7b12 35bc
000000d0: 63df 373c a102 033d 1050 2c3d 4e5a 3a3d
000000e0: 068b 10bd 1b62 09bd 51ee 8c3b 3f15 313a
000000f0: 0aa8 84bd 931a 373d f853 293d 3609 063d
00000100: 9985 ba3c 91f9 6c3d 78cd c2bb 2dfc 0abc
00000110: 0760 463c b599 b73c 09ce 353c 1380 9c3b
00000120: 78b4 8fbc 620a 28bd a1ee b83b 38d3 033d
00000130: 0362 96ba 894f 6ebd d233 45bc df97 ddbc
00000140: de4b f53c c20f 2b3d fa93 2dbd 19ff 2b3c
00000150: 1435 3b3c ecff 14bd e4d0 b3bc 62ea 353b
00000160: be77 c53c 8483 69bc f200 1e3c a31e a53c
00000170: 4a50 4abd 72e4 1bbc 1993 6c3c 7f73 2d3d
00000180: 99bd 633c 7204 e0bc 43b3 05bd b5d1 5e3c
00000190: e0c3 f43c f4fd ddbb 7942 913d 30fa 7cb9
000001a0: a3f8 55bd 0a5d af3b 67f2 11bb 83f7 9cbc
000001b0: d55d 7e3c bfd2 adbc 854a 08bd 3ca0 063d
000001c0: 1def 1a3d 4240 2ebd 8380 603c b13b c03c
000001d0: a09b 37bc de66 80ba 62bc 9cbc 09ee 4abc
000001e0: fb76 40bd c45d 803d 23c3 7e3d 57ad 1c3d
000001f0: bffc 94bc 4166 a7bc 6069 133c a062 fc3c
00000200: f426 b5bd cdd0 363c a0b0 95bd 4dcb 5d3c
00000210: f216 b4bc 4fc3 7c3c 3b02 80bd 030a 5c3c
00000220: 476e a83d 0a4c 50bd 195b 95bd ac92 6b3d
00000230: 3aab c33d 64b8 92bd 6950 9b3d 7487 05bc
00000240: 0f5f 9d3d 7d3a 8cbc c57b de3d 4747 b13c
00000250: ed1c c8bd b4ae 0dbd 72db 183c 704c b73d
00000260: d9f9 7b3d 96b9 65bd 464f 7abc 644f d9bd
00000270: 9711 d43d b730 293d 9d98 80bd ae3f 6cbc
00000280: 4ae7 45bd 4a05 d33c 88d0 0b38 f503 703d
00000290: b389 033d cd1d c43d cd9c 8bbd baef 47bc
000002a0: 79fc 60bd 55ee d53d 43c6 adbd bcef 103c
000002b0: b43c 12bd be99 08bd 4fa8 4b3d 6d97 e73b
000002c0: 4a5f 23bd fe22 833d 8df9 9fbd 1e35 84bd
000002d0: fa01 15bc 5aab 453c 0131 2f3a 72dd 85bd
000002e0: 038f adbc ebed d73c 6798 e6bb 6fff a0bd
000002f0: f37c 90bd 57e1 4bbb 1bfb 97bd d2a3 4b3d
00000300: 8355 383d bc6c e8bd f2dd 87bd 8f18 0c3b
00000310: e552 993d f3a2 d6bc 69b6 aa3d 8e12 803d
00000320: 7379 cf3d fec5 fb3c bbca 4cbc a11e e73c
00000330: 5fcb 16bd b9bd f23b 3c4f bf3b aa60 0dbd
00000340: 99fc 3c3c 7fcb 84bd b34e 8ebb 1e8f a1bc
00000350: ef3d 333d 829a 29bc 4613 853d 998b 743c
00000360: c47b c33c 2165 c0bc bd4a 4abd e2c3 343c
00000370: 4cff 7db8 353e 123d 0ea0 0fbd 859f d9bc
00000380: 1ec3 3f3d f4c0 4abd aca6 a5bd 45a4 c43d
00000390: 2004 573d 189b 84bc e5d5 873d 642d 57bd
000003a0: 6507 92bd c9b0 4e3c f47c 14bd 6768 87bc
000003b0: c6a1 343d 203d de3c 7d04 4c3d 99ff 00bc
000003c0: 28d5 12bd 97c6 2ebd c17b 6bbd 59d9 843d
000003d0: b307 b13c 383f 873d 843f 66bd aec5 593d
000003e0: 0b78 8ebd cb85 66bd 7499 6b3d e094 41bd
000003f0: e6e0 acbd 681f 91bd c176 a2bd 472c eb3c
-0.018367201 -0.0028219628 -0.024383856 0.033968203 0.032468658 -0.012529057 -0.004175021 0.06830421
-0.0003038249 -0.01718528 -0.038344994 0.038761448 -0.037939195 0.021280825 -0.027574392 0.025038727
0.030967249 0.04751998 8.5560656e-05 -0.034551155 0.023204766 -0.02124961 0.020464756 -0.01282812
-0.0064931638 0.046334516 -0.053411707 0.05911373 0.020518051 -0.04085532 0.055629496 -0.032643966
-0.04766683 -0.021402761 -0.005321707 -0.04934976 0.001484603 0.030559713 -0.052300498 0.03289184
0.012905253 0.05813187 0.056788705 -0.004742946 -0.015904175 -0.06533889 -0.021887368 0.01765795
0.033193998 0.047021527 0.022339297 -0.011051769 0.011222693 0.03198493 0.04206854 0.045496278
-0.035288833 -0.033540826 0.0043008705 0.000675518 -0.064773634 0.044703078 0.041339844 0.032723628
0.022768782 0.057855193 -0.005944904 -0.008482975 0.012107856 0.02241216 0.011096486 0.00477601
-0.017542109 -0.041025527 0.005643681 0.032183856 -0.0011473302 -0.05818132 -0.012036281 -0.027049957
0.029943403 0.041763075 -0.04237745 0.010497832 0.011426229 -0.03637688 -0.021950193 0.0027758111
0.02410495 -0.014252547 0.00964378 0.02015621 -0.049392976 -0.009514915 0.014439368 0.042346474
0.013900184 -0.02734587 -0.03264166 0.013599803 0.029878557 -0.0067746583 0.07092757 -0.00024125795
-0.05223907 0.0053516673 -0.0022269727 -0.019160992 0.015525301 -0.021218656 -0.033274192 0.032867655
0.037825692 -0.04254175 0.013702515 0.023465963 -0.0112065375 -0.0009796282 -0.019132797 -0.012385854
-0.04698847 0.062678844 0.062197816 0.038251247 -0.018186925 -0.0204345 0.008997291 0.030808747
-0.0884532 0.01115818 -0.07309079 0.01353724 -0.021983597 0.015427425 -0.062504254 0.013430121
0.08224159 -0.050853767 -0.07292766 0.057512924 0.09554143 -0.07164076 0.075836964 -0.00814997
0.076841466 -0.017117733 0.10863451 0.021640433 -0.09771142 -0.034590438 0.009329664 0.08950126
0.06151757 -0.05608519 -0.015277689 -0.10610846 0.103549175 0.041306224 -0.06279109 -0.014419479
-0.048316278 0.025759358 3.3334392e-05 0.058597524 0.032113742 0.095759965 -0.06817017 -0.012203151
-0.054928277 0.10445849 -0.08485081 0.00884622 -0.035702422 -0.033349745 0.04972106 0.007067612
-0.039885797 0.064031586 -0.0781127 -0.06455444 -0.0090947095 0.012064779 0.00066830224 -0.06536378
-0.021186357 0.026358565 -0.0070372107 -0.0786122 -0.07055082 -0.0031109655 -0.074209414 0.049716778
0.045003425 -0.113488644 -0.066341296 0.0021376943 0.07486514 -0.026200747 0.08335573 0.06253539
0.101305865 0.030734058 -0.012499507 0.028212847 -0.036815044 0.0074078706 0.005838303 -0.034516014
0.011534833 -0.06484126 -0.004342878 -0.019721564 0.043760236 -0.010351779 0.06497817 0.014925861
0.023862727 -0.023485722 -0.049387682 0.01103303 -6.0557664e-05 0.035703856 -0.03506475 -0.026565323
0.046816938 -0.04950042 -0.08088431 0.096016444 0.05249417 -0.016187236 0.06632594 -0.052533522
-0.07130317 0.012615391 -0.036251977 -0.016529275 0.04409959 0.027128756 0.049808968 -0.007873439
-0.035847813 -0.04266986 -0.057491068 0.06486768 0.021610117 0.06603855 -0.056212917 0.053167038
-0.0695649 -0.05627994 0.05751939 -0.04726112 -0.084413335 -0.070860684 -0.07932807 0.028707637

encoder.convs.1.node_mlp.bias f4 [128]
00000000: 7086 e4bc eea5 423d 2e18 8dbc 47c1 0d3d
00000010: 67f6 033c 2c12 47bd 61d7 083d 7895 fbbc
00000020: 9ff6 113d baf5 263a 0536 9ebc 2d54 12bd
00000030: edde 283d fd1f 82bd 5157 523d 80ad dd3b
00000040: 329d be3d 16c2 9bbb d44e 4bb9 3b38 5fbd
00000050: ff67 53bd 3928 3a3b 3e21 89bd 5591 163d
00000060: 2f8b 3ebd 5dde 193c b12f 98bc 4d11 7e3d
00000070: 6e50 79bd 90ab db3a eff7 47bd 46e9 35bd
00000080: 73d6 3bbc f885 03bc 71de ad3c 3841 b1bc
00000090: 63f8 78bc 1d0e 073d d76a ee3b 77fc 803d
000000a0: 2d3a 633a f826 473c 017c 3a3d 56e5 dbbc
000000b0: 5d3b 87bc eac8 4b3d fac4 483c 7a93 353d
000000c0: 30f2 a23c a29f 18bd 9a12 733d 470b e5bc
000000d0: 5c48 8bbb ed52 a0bc bee1 d03b 570e b8bb
000000e0: e478 2f3d 5cb0 843c 84a6 543d 55ea 533d
000000f0: ffd8 073d 2e84 2fbd 91ad e9bb 8c75 813d
00000100: 3c89 efbc ae11 f7bc 5914 71bd 801c fa3c
00000110: 0d59 6dbd b2cc d2bc 50e5 c7bc 9471 18bc
00000120: 0a9d 813c 1fa8 963c 9e5e 543c 0df9 eabb
00000130: 6f90 163d 1977 47bd 3a56 13bd cd5d 8bbc
00000140: fc9a f23c 0298 3c3d e0b5 803c 423f 323d
00000150: 68d5 e4bc d32e dfbc af72 a63c df8f 8f3c
00000160: 9b3c 22bd 7b06 27bd 4796 433d 65a3 3f3b
00000170: feee 0ebd 8987 823c e7e2 063c 98ae cdbc
00000180: 7756 8dbc 08c3 f3bb a94d 9c3d 6555 40bd
00000190: 8284 9dbc d10a a23d 61e3 f73b eca9 5e3d
000001a0: 4ae2 02bd f159 2d3c 5469 4dbd 1d94 fb3c
000001b0: 0e19 40bd be8d a73b 66ae 523d 5ffa 6bbd
000001c0: e33f 06bc 7f83 02bd 8e26 233d 3562 593d
000001d0: 6d9c 5e3d 614b 6dbd d189 d63c aabd 723d
000001e0: 5a03 07bd 0e87 29bd 094f 0abd 04bb 0f3d
000001f0: c53d ba3b 6e05 5fbd 75fc 803b 6d45 913d
-0.027896136 0.047521524 -0.017223444 0.03460815 0.008054352 -0.048601314 0.033408526 -0.03071092
0.035635587 0.00063690136 -0.019312868 -0.035724808 0.041228224 -0.063537575 0.051352803 0.0067650676
0.093073264 -0.0047533615 -0.00019388954 -0.054496985 -0.05161285 0.0028405322 -0.066957936 0.036759693
-0.046519455 0.009391394 -0.018577429 0.062028218 -0.06086772 0.0016759504 -0.048820432 -0.04441192
-0.011464703 -0.008027546 0.021224232 -0.021637544 -0.015195939 0.032972444 0.00727592 0.06298154
0.00086680317 0.012155287 0.045528416 -0.026842754 -0.016507799 0.049752153 0.012253994 0.044330098
0.019890875 -0.037261613 0.05934391 -0.027959479 -0.0042505693 -0.019570792 0.006374567 -0.005616944
0.0428399 0.016197376 0.051916614 0.05173715 0.033165928 -0.042850666 -0.0071312864 0.063212484
-0.029240243 -0.030159798 -0.058857296 0.030531168 -0.057946254 -0.025732372 -0.024401337 -0.009304423
0.015821952 0.018390713 0.012962012 -0.0071708024 0.036758836 -0.048697565 -0.035970904 -0.017012501
0.029614918 0.046043403 0.015711725 0.04351736 -0.027933791 -0.027244007 0.020318357 0.017524658
-0.03960858 -0.040777665 0.047750738 0.0029241678 -0.03489589 0.015933769 0.008232809 -0.025107667
-0.017253144 -0.007439021 0.07632 -0.04695644 -0.019228224 0.07912219 0.0075649475 0.05436127
-0.031954087 0.010580526 -0.050149277 0.030710274 -0.046898894 0.0051133325 0.05143585 -0.05761182
-0.008193943 -0.031863686 0.03983169 0.053072173 0.054348398 -0.057933215 0.026188763 0.05926291
-0.03296218 -0.041388564 -0.03376678 0.03509046 0.005683633 -0.054448538 0.003936345 0.0709332
