checkpoints/model_B_epoch_5.pth (torch, 552085 bytes, 26 tensors)

encoder.node_embedding.weight f4 [1, 128]
000000 87 38 f6 3f 8a ac bc 3f 80 fd 63 3f 81 78 06 c0
       1.9236001 1.4740155 0.89058685 -2.101105
000010 7f 55 2f 3f 28 87 9b bf 36 d7 03 bd 9d 92 cc bf
       0.6848983 -1.2150621 -0.032187663 -1.5982243
000020 da 01 3c bf b5 43 d3 3f 97 a8 c5 be 06 13 b2 bf
       -0.73440325 1.6505038 -0.38605186 -1.3912055
000030 53 ad 36 bf 64 d8 0f bf bd 8e 47 bf 1e 48 41 3f
       -0.7135822 -0.5618956 -0.77952176 0.7550067
000040 1b bb d0 3f 21 51 2a be 13 55 f7 be cd 16 e1 3e
       1.63071 -0.1663251 -0.48307094 0.43962708
000050 34 9c 44 bf e2 cb 8a 3f d9 ff 4a 3f a3 44 d7 3f
       -0.7680085 1.084347 0.7929664 1.6817821
000060 7b 71 a0 3f 37 ee a3 3f c2 dc 1a 3f 6e d1 aa 3f
       1.2534631 1.2807072 0.604931 1.3345163
000070 3f b4 64 be 01 bd 22 3d c9 dc 80 be 77 a5 5b 3f
       -0.22334383 0.03973103 -0.25168446 0.85799354
000080 8e 2a b0 bf 12 5f 5d bf c5 c1 69 be ec 45 dc 3f
       -1.3762987 -0.8647319 -0.22827823 1.7208838
000090 2d c6 a1 3e cd d2 d9 be 23 00 9b 3e c6 eb 42 bf
       0.3159651 -0.4254364 0.30273542 -0.7614101
0000a0 fd 23 c8 bf aa 63 7b 3f ff 73 62 bf d8 e7 18 bf
       -1.5635983 0.9819895 -0.88458246 -0.59728765
0000b0 d1 b0 a2 bf ba da 06 40 38 36 9c bf 18 db f4 be
       -1.271021 2.1071 -1.2204046 -0.47823405
0000c0 ac 08 68 bf 6b c3 27 bf dd 67 a1 3d 83 60 04 3f
       -0.9063823 -0.6553256 0.078811385 0.51709765
0000d0 39 25 fd be 30 96 98 3f c1 24 4e bf e2 47 3c bf
       -0.4944246 1.1920834 -0.8052483 -0.73547184
0000e0 9a e2 b1 bf 01 d3 16 3d c7 ee 92 bd 18 de 2a 3f
       -1.3897278 0.036822323 -0.071744494 0.6674514
0000f0 96 06 c8 bd 9c ca e8 3f 13 25 97 bf b3 e3 b1 3f
       -0.09766881 1.8186831 -1.1808189 1.3897613
000100 5b 3d b6 3f 79 25 57 3f c4 da 0d 40 88 34 04 3f
       1.4237474 0.84041554 2.2164774 0.51642656
000110 d8 c3 b4 3e e8 01 4b be 56 12 87 bf b5 2a a2 3f
       0.35305667 -0.19824946 -1.0552471 1.2669283
000120 82 f2 24 be ce e5 02 3f df ca 77 3d db 01 de 3e
       -0.16108134 0.51131904 0.060496207 0.4336079
000130 22 dc 14 3f f6 e2 1f bf 50 fd 0c c0 d5 d8 3e bf
       0.58148396 -0.6245569 -2.202961 -0.7454961
000140 b8 e5 84 3c 29 4b ac be 75 b5 aa bf 77 20 13 bf
       0.01622282 -0.33651093 -1.3336626 -0.5747141
000150 c4 2e 08 3f f1 8a 05 3f 0d 81 92 3f e1 bc 3a 3d
       0.5319636 0.5216513 1.1445633 0.045590285
000160 53 21 3a 3f ad aa ef be 8c c6 84 bf d8 e8 18 3f
       0.727071 -0.46809903 -1.0373092 0.5973029
000170 05 62 dc bf 86 29 54 bf 1c 5a a9 3f 2f af f1 3e
       -1.7217413 -0.8287586 1.3230624 0.47203967
000180 7f 83 1f c0 a6 41 fa 3e 6e 8c 45 3f df c8 fa 3c
       -2.492401 0.4887821 0.77167404 0.03061336
000190 68 6c 22 3f b9 55 11 3f ce ec 89 3f 28 49 e4 be
       0.63446665 0.5677143 1.0775392 -0.44587064
0001a0 f9 ba 3e be 38 ce 3e 3f 8f 3b d4 3e 6a 04 33 3e
       -0.18626012 0.74533415 0.4145169 0.17482153
0001b0 f5 93 87 3e 08 6d a2 3f 32 1d fe b9 8b 1d 9a be
       0.2648007 1.2689524 -0.00048468407 -0.30100664
0001c0 1f 03 ba bf 00 c1 cf bd 8b 3d 16 bf e2 5f f6 3e
       -1.4532202 -0.10144234 -0.5868766 0.48120028
0001d0 33 2e 37 3f 6e 67 a6 3d da 0a c8 be 92 6a 07 3f
       0.7155487 0.081251964 -0.3907078 0.5289699
0001e0 32 f0 ae bc c6 fc 7a 3e 5c 67 f8 3d d0 c2 42 3f
       -0.021354768 0.24510488 0.12129089 0.7607851
0001f0 4f 5b 8a 3f 00 3a ae 3e f8 84 35 3f 57 0d d1 3e
       1.0809115 0.34028625 0.7090602 0.4083049

encoder.convs.0.node_mlp.weight f4 [128, 256]
000000 12 d8 56 3d ae eb 45 bc b1 79 5c 3d 34 72 9c 3c
       0.052452154 -0.012080116 0.05382699 0.019097425
000010 9c ba 56 bd 47 2d 2f 3d 26 ea 8f bc 1b ce c5 bc
       -0.05242406 0.04276779 -0.017567705 -0.02414613
000020 98 e9 54 bd 4a 3f 7c bd 0d cf 8f 3c 4f 8c 63 bc
       -0.051980585 -0.061583795 0.017554784 -0.013888433
000030 5f 08 c4 3c 67 3d 52 bd ce 30 3c 3d 94 20 3a bd
       0.023929773 -0.05132809 0.04594498 -0.045441225
000040 19 50 2b bc a0 64 53 3c b8 2b 02 3d 2a 9e 4e 3d
       -0.0104561085 0.012902409 0.031779975 0.050443806
000050 d4 06 67 3d 33 01 49 bd 6b d0 82 3c bd 0c d9 bc
       0.056402996 -0.04907341 0.015968522 -0.026495332
000060 04 20 d5 bb 71 89 3d bd 70 58 69 3d e3 e9 39 bd
       -0.0065040607 -0.046273652 0.056969106 -0.045389067
000070 9a 42 07 3d dc 84 b3 3c 1e 4e a4 3c 04 be 08 bd
       0.0330225 0.021913938 0.02005678 -0.033384338
000080 6b 77 66 3d a9 28 5b 3c 42 65 00 3c a5 7b 5f bd
       0.05626623 0.013376393 0.007836642 -0.054561276
000090 c3 8b d7 3c eb fd 1c bc 9c 07 e7 bc 2d d3 59 3d
       0.02631176 -0.009582023 -0.02820187 0.05317991
0000a0 14 a4 5e 3c 7b e5 0b bd 5d 2b 02 bd 6d e0 53 bb
       0.013588924 -0.034154397 -0.031779636 -0.0032329813
0000b0 ec 2b 0d 3d 39 da 7f bc 41 9d 12 bd 04 cb b0 bc
       0.034465715 -0.015615993 -0.0357945 -0.02158118
0000c0 87 89 3f bd 4e c3 b3 3c ab c2 45 3d 88 ff 6e bd
       -0.046762016 0.021943714 0.048281353 -0.058349162
0000d0 eb ec 68 3c 65 d3 04 3d f0 cf 34 3c 0a e7 b7 bc
       0.014216642 0.032428164 0.011035904 -0.022449035
0000e0 9c cc 03 3d b2 34 05 3d 20 b4 be 3c b9 f3 2e bc
       0.032177553 0.032520957 0.02327925 -0.010678225
0000f0 88 aa 86 bc 39 12 e4 3b b6 cb 38 bc 0b 98 95 bc
       -0.016438738 0.00696018 -0.011279037 -0.018260976
000100 dc 2e 24 3d 68 4c 5c 3d 6d e5 c0 bb 0f 31 60 bc
       0.04008375 0.053783804 -0.0058867247 -0.0136835715
000110 b3 64 94 3a 83 17 7c bb f9 57 70 3c 15 45 91 3c
       0.0011321515 -0.0038466163 0.014669412 0.017733136
000120 95 05 68 bd b5 e4 b9 bc 75 b8 54 3d 1c 67 c8 3c
       -0.05664595 -0.022692064 0.051933724 0.024463229
000130 c9 c5 3b bb 1a cf 1a bd f6 0c 1d bd 8e 80 65 bd
       -0.0028651825 -0.037795164 -0.03834244 -0.056030802
000140 cc df a1 bc cf de a9 3c 41 54 21 3d 6d 2a e9 3c
       -0.019760035 0.020736126 0.03938699 0.028462613
000150 4d 36 60 bd 9e 41 18 bd 4a 98 1c bc 96 cb 74 3d
       -0.054739285 -0.037171952 -0.009557793 0.059764467
000160 89 f8 17 3c 07 26 86 bc 59 a6 d0 3c 2c a3 bf bc
       0.009275564 -0.016375555 0.025469946 -0.023393236
000170 04 23 26 bd 86 ff 38 3d c0 6c e5 bc 19 cf 48 bc
       -0.040560737 0.04516556 -0.028005958 -0.012256407
000180 05 b7 7e bd ee 8c 2b 3d 16 51 42 3d e8 9c b4 3c
       -0.06218626 0.041882448 0.04744061 0.022047475
000190 76 9a 30 bd 13 3a 7a bd 5d f6 4d bd 38 16 3d 3d
       -0.043116055 -0.06109054 -0.05028378 0.046163768
0001a0 8d 31 f4 3c 65 cc 57 3d 3d a6 06 3d 66 f9 82 3c
       0.029808784 0.05268516 0.03287338 0.015988063
0001b0 bd 1d c1 b9 4e b2 40 bd 11 81 53 bd 4e 4a 6f bd
       -0.00036833985 -0.047045045 -0.05163676 -0.05842047
0001c0 86 72 ce 3c 5f 27 fa bc 80 c3 51 bc cc b3 11 bd
       0.025201093 -0.030536352 -0.0128029585 -0.03557186
0001d0 d3 3a 35 bc ef 3a 33 bd 1e 52 27 bd c7 3c ab 3c
       -0.011061388 -0.043757375 -0.040849797 0.020903004
0001e0 ad ad 91 bc 6f 27 1e 3d 9c b3 a0 bc 00 b9 39 bd
       -0.01778301 0.038611826 -0.019616894 -0.045342445
0001f0 46 ea 2e bc 52 bb f5 bc 37 92 99 bc 2a 88 71 bd
       -0.010675972 -0.029996548 -0.018746478 -0.058967747
000200 c5 72 6a 3d e2 f7 1c bd 7a f5 31 3d cf 45 05 3d
       0.05723836 -0.038322337 0.043446995 0.032537278
000210 86 20 d5 3c 16 d1 2f bd 74 1d 0c 3d f9 bc 86 bc
       0.026016485 -0.04292401 0.034207776 -0.016447531
000220 e3 db 48 3d f2 83 9e 3d 9f c0 32 3c 28 50 c4 bc
       0.049037825 0.0774001 0.010910182 -0.023964003
000230 1c a2 f4 bb ac fc 49 bd 08 36 c0 3c 05 9a 56 bd
       -0.007465614 -0.049313232 0.023463264 -0.05239298
000240 2a a9 8c 3d 9d d6 4f 3d 56 9c 3d 3d f0 2b 0c bd
       0.06868203 0.05074178 0.04629167 -0.03422159
000250 af 50 62 bd db de 77 bb b5 d5 35 3d de 84 6c bd
       -0.055252727 -0.0037822041 0.04439326 -0.0577439
000260 9b e6 38 bc 53 03 50 bd 2e ad eb bc 90 34 46 bd
       -0.011285449 -0.05078442 -0.028769102 -0.04838997
000270 57 54 a1 bc ad 5f 04 bd 1b 64 59 bd b1 2e 8a 3d
       -0.019693537 -0.032317806 -0.053073984 0.06747187
000280 09 c2 d5 3c d5 2a a8 bb 17 58 9f bc 30 08 eb bc
       0.0260935 -0.005132059 -0.019451184 -0.028690428
000290 33 11 6e bd 2f da b3 bd 11 d7 be 3c 0f 66 14 bd
       -0.05812187 -0.087818496 0.023295911 -0.036230143
0002a0 9c 83 7c bd 8c 4a d7 3b cb 1e bf bc 58 ac c7 b9
       -0.06164895 0.006570166 -0.023330113 -0.00038084644
0002b0 93 8b 0d bb 92 72 c3 bb 8b c8 f2 bc d3 cf 85 bc
       -0.0021598085 -0.0059645856 -0.029636642 -0.01633445
0002c0 a9 ab 7d bd c5 05 ef 3c ab 6a db bc 8b 8e 13 3d
       -0.061931286 0.029177556 -0.026784262 0.03602461
0002d0 39 d3 18 bc 67 0f 74 3c 68 2c 9f 3d d9 20 9c 3c
       -0.009327703 0.01489625 0.07772142 0.019058632
0002e0 32 db 2c bd d8 ba 04 3c 0d 91 87 3d 23 28 21 bc
       -0.04220123 0.008101188 0.06619463 -0.0098362295
0002f0 eb c2 0c 3d cd a0 49 3d d9 8e b9 3b b0 9f 98 ba
       0.034365576 0.049225617 0.0056627807 -0.001164427
000300 2a 1c 13 bd 48 5c 48 bd 23 ef 57 3d 82 a3 31 3d
       -0.03591553 -0.04891613 0.052718293 0.043368824
000310 4d f2 2d bd b3 b3 3b bd 1a b8 73 bd 13 b6 9f bd
       -0.042467404 -0.04582567 -0.059501745 -0.077984
000320 c6 0e 46 bd 09 98 56 bb 92 b3 09 3d c8 2e a6 bc
       -0.048353933 -0.0032744429 0.033618517 -0.020285979
000330 7f a3 a4 bd 07 08 13 bd 3e 3d 4a 3d 72 cb 84 bd
       -0.08038997 -0.035896327 0.04937481 -0.064841166
000340 14 25 ff bc 58 6c 0c 3d 87 6e b6 bc b9 52 bc 3c
       -0.03114561 0.034283012 -0.0222695 0.022988664
000350 94 c3 98 3b 7c 4f c9 bc 7a fd 29 bd 7e f9 50 bd
       0.0046619866 -0.024574034 -0.0415015 -0.051019184
000360 f0 63 af bc 81 0c 3e bd b2 66 3c 3d eb 93 2f bd
       -0.021409959 -0.046398643 0.045996375 -0.042865675
000370 0e 84 43 bd 36 e5 8d 3c 7f 7a e1 3c 4f 62 14 3c
       -0.04773336 0.01732121 0.027524231 0.009056642
000380 17 5c 00 3d dd 40 c1 3c a1 24 bc bd 24 17 95 3b
       0.031337824 0.0235905 -0.09186674 0.0045498777
000390 86 af 2b 3d 49 6f 05 3b fc a4 05 bd 66 e7 7c 3d
       0.04191544 0.002036052 -0.032628044 0.061744116
0003a0 bd 56 48 bd c6 50 75 bc 83 50 91 bd e6 73 fd 3c
       -0.048910845 -0.014972871 -0.070954345 0.030939054
0003b0 d9 23 ef 3c b6 36 10 3c 97 26 b1 3c e0 ac 91 bd
       0.029191898 0.008802107 0.021624846 -0.071130514
0003c0 45 97 83 bd 32 2a 7b 3c bd fb 81 3d 03 9d 85 3c
       -0.06425337 0.015329884 0.063468434 0.01631022
0003d0 37 d1 b8 bc 7d 6b 9f bc 98 ea 66 bd 57 f5 22 bd
       -0.022560699 -0.019460434 -0.05637607 -0.039784756
0003e0 31 82 1c 3d cf 3c c4 3b df 95 84 3d 25 db 39 bd
       0.038210098 0.0059886943 0.06473898 -0.045375008
0003f0 69 9a 5a 3d 4c d7 d9 bc 30 f5 c4 3c 2b 9b 8c 3d
       0.053369913 -0.02659192 0.024042696 0.068655334

encoder.convs.0.node_mlp.bias f4 [128]
000000 d4 18 47 bd fb 03 81 3c 5a 7a 1d 3c 34 1c 50 3d
       -0.048607662 0.015748968 0.00961169 0.050808147
000010 75 f9 d9 3c 96 32 e4 bc a2 3d 90 bc 3f a3 2d bd
       0.026608208 -0.027856153 -0.017607514 -0.04239201
000020 aa 12 ca bb 6e 5b 02 3c e4 89 6d 3d 9f 4d 7a 3d
       -0.0061667757 0.007956369 0.05799283 0.06110918
000030 d9 84 27 bd 02 ec 79 3d 58 34 44 bd 98 79 56 3c
       -0.040898178 0.06101609 -0.04790148 0.013090514
000040 f7 69 2e 3d ce 58 28 3d 73 03 40 3d 44 d9 39 bc
       0.042581525 0.041100316 0.04687829 -0.011343304
000050 b5 a0 45 3d f9 b7 03 3c 09 0d 6e 39 8e 71 ca bc
       0.048248965 0.008039468 0.00022702305 -0.02471235
000060 42 df 79 bd 1a 95 8e bc 4d 28 15 bb 00 92 e2 3b
       -0.06100393 -0.017405082 -0.0022759617 0.006914377
000070 12 f5 d6 bb c8 44 52 bc fa 17 da 3b b0 2d 12 bd
       -0.0065599764 -0.012833782 0.0066556903 -0.035688102
000080 31 e2 1b bb 80 ab 84 bd 95 35 4b 3c 19 9b 6e 3d
       -0.0023785944 -0.064780235 0.012402912 0.05825338
000090 1d 26 29 bd af 47 05 3d 5a b0 be bc 27 b4 09 bd
       -0.041296113 0.032539066 -0.02327745 -0.033619072
0000a0 36 08 b4 3c 14 83 64 bd c2 5b 02 3d f7 68 1e 3d
       0.021976572 -0.05578907 0.03182579 0.03867432
0000b0 a4 72 f9 3c a5 a4 eb bb 2b fc f8 bc 8c 5f 0b bd
       0.030450173 -0.007191258 -0.03039368 -0.034026667
0000c0 22 5f 3b 3d 6d 0d f8 3c 3a a3 d8 3c d4 e9 04 bd
       0.045745023 0.03027984 0.02644502 -0.03244956
0000d0 2f c2 ed 3c a9 dc 0e bd 53 52 29 3d 41 ce 42 3d
       0.029023258 -0.034878407 0.041338276 0.04755998
0000e0 d3 de 7d bd fb 54 52 bd 18 4d 7b bd b2 9e 2a bd
       -0.06198008 -0.051350575 -0.06135282 -0.04165525
0000f0 dc 70 a1 3b fd ee 85 bd 98 d6 4a 3d 41 a6 25 bd
       0.004926784 -0.06539724 0.04952106 -0.040441755
000100 04 5c 8e bc d1 a8 49 3c 61 46 18 bd ee 5c bc bb
       -0.01737786 0.012308315 -0.037176494 -0.005748383
000110 50 45 80 bd 5e 82 73 bd 8a 09 15 3b d0 4a d0 bc
       -0.0626322 -0.0594505 0.0022741281 -0.025426298
000120 29 d3 43 3d 7e b0 0c bd d5 eb 1e 3d 20 0d 44 3d
       0.0478088 -0.034348004 0.038799126 0.04786408
000130 02 66 33 bc 0e 1d 1b bc 2c 60 4b 3c 4a 5c 09 bd
       -0.0109496135 -0.009467376 0.012413066 -0.03353528
000140 cf df b8 3c 1d 58 d6 bc d2 79 e3 bc 73 51 48 bd
       0.022567658 -0.026165063 -0.02776805 -0.0489058
000150 11 85 1d 3d af a4 5c bd 2a a0 5c bc bd db cb 3c
       0.03845698 -0.053867992 -0.01346592 0.024885053
000160 e1 3b 4b bd 3c fb 1d 3b f5 b2 6e 3d 0c 24 68 3c
       -0.04961765 0.0024106046 0.058276135 0.0141687505
000170 8c 01 0e 3d 51 da 1a bd b2 f4 1d 3d 6f 45 94 bb
       0.034669444 -0.03780586 0.038563438 -0.0045248787
000180 f5 6d 86 3b 02 23 d0 bc 7d 62 49 bc a3 db 26 3d
       0.0041024634 -0.025407318 -0.012291548 0.040736806
000190 18 a4 1b 3d a5 96 1f bd 5d 14 6c 3d f4 7c 7f 3d
       0.03799829 -0.038962025 0.057636607 0.062375024
0001a0 2c ed be bc 81 ca 30 3c 93 03 fb 3c 56 73 81 bd
       -0.023306452 0.010790468 0.030641353 -0.06320827
0001b0 8f 7d de 3c 41 ff 5b 3d c1 87 7d bc f2 7c 63 bd
       0.02715948 0.053710226 -0.015474261 -0.05553908
0001c0 bc bc 34 bd 8d c7 07 3d c8 a9 69 ba 41 28 a9 3a
       -0.044125304 0.03314929 -0.0008913544 0.0012905673
0001d0 b6 02 e1 3b 0b 28 98 3c 77 7b 10 3d d4 ba 1e 3a
       0.0068667782 0.018573781 0.035273995 0.0006055061
0001e0 da 27 74 bd e5 d8 32 3d bc b1 34 3d 1c 51 4d bb
       -0.059608318 0.043663878 0.044114813 -0.0031328863
0001f0 c0 f1 23 bd 58 57 8e bc c1 8c e3 3c 9f 82 39 3d
       -0.040025473 -0.017375633 0.027777078 0.045290586

encoder.convs.0.edge_mlp.0.weight f4 [128, 7]
000000 cd 4d ab be 8e 95 48 3d 1d 3f 13 3d d9 6c 57 3d
       -0.33457795 0.04897075 0.03594886 0.05259404
000010 b0 bc 11 be 8d 72 e3 bc a8 25 bb be 4c a1 da bc
       -0.14232135 -0.027764583 -0.36552167 -0.02668824
000020 f8 a3 98 be 35 e1 9f 3e 15 54 14 3e de f1 0d 3e
       -0.29812598 0.31226507 0.144852 0.13861796
000030 11 e4 4b be cf 07 1b be 9a de 6b 3d 5f 17 91 bc
       -0.19911219 -0.15139697 0.057585336 -0.01771134
000040 b0 4e 10 bb 07 8a 95 3d aa 19 2c 3d 4e 71 a6 be
       -0.0022019558 0.07301717 0.042016663 -0.3250832
000050 5d 3b c5 3e 5a 74 1f be 26 5d 91 3d b1 3f 68 be
       0.38521853 -0.15571728 0.07097845 -0.22680546
000060 df 07 b4 3e eb 39 20 be 0b 6e 52 3e 42 1a 16 3e
       0.35162255 -0.15647094 0.2054979 0.14658454
000070 29 b8 9f bd b8 44 72 3d 98 c2 89 be 46 f5 b7 be
       -0.07798798 0.059147567 -0.26906276 -0.35929316
000080 6e 67 20 3e 95 cc 72 3e 4d 91 9f be 1f bc 03 be
       0.15664455 0.23710854 -0.31165543 -0.12864731
000090 da 84 a5 be 79 fc 9f be 8f d1 c5 3d a0 8e 5a bd
       -0.3232792 -0.3124731 0.09659111 -0.053358674
0000a0 ce 45 b7 3e 4f 36 8e 3e ff e2 65 be 5f 1b 9a 3e
       0.35795444 0.2777581 -0.22449873 0.30099007
0000b0 ca f6 6a 3e 3d ec a9 3e c8 5c df bd d4 8b b7 bc
       0.22945705 0.33188048 -0.109063685 -0.022405542
0000c0 69 4a 5a be 2b 6d 37 be 48 8b a9 3e ab 00 98 3e
       -0.21317448 -0.17912738 0.33114076 0.2968801
0000d0 57 e5 c9 be c6 8b 35 3e 07 83 12 be 7b 71 97 be
       -0.39432785 0.177291 -0.14307795 -0.29578766
0000e0 a6 f0 39 3e 4a 8b b7 3d 25 de e5 bd ed 17 cc 3e
       0.18158206 0.08962114 -0.11224011 0.39862004
0000f0 0c 00 4e be f0 a8 60 3e b0 38 6b 3e de 15 56 be
       -0.20117205 0.21939445 0.22970843 -0.20906779
000100 da 6c 4f 3e ae f5 33 be 82 28 3d be 29 d0 7c 3e
       0.20256367 -0.17574188 -0.18472484 0.24688782
000110 83 73 a4 3e b8 fe 8f be 1b fd be 3e 8c 03 b9 be
       0.32119378 -0.28124022 0.3730248 -0.3613552
000120 7b bf 0b 3e 3f 72 a0 be 1d a9 5e bd 3d e5 a5 be
       0.13647263 -0.31337163 -0.054360498 -0.32401457
000130 b5 e2 ab 3e 85 2a 70 be ec 80 93 be d5 71 15 be
       0.335714 -0.2345372 -0.28809297 -0.14594205
000140 88 93 89 3e 59 38 33 3e 87 4c 0e 3e ae 97 87 3e
       0.2687037 0.17501964 0.1389638 0.2648291
000150 ba b0 bd bd ef 70 74 3e e3 1c a8 be 28 b2 7c be
       -0.092622235 0.23871206 -0.3283454 -0.24677336
000160 de b4 81 3e b5 e3 87 be 53 10 e4 3d c7 e9 da 3d
       0.25333303 -0.26540914 0.11135926 0.10689121
000170 79 25 52 3e 32 8e 8d 3e 35 0e a5 3d 16 85 1f bd
       0.20522107 0.2764755 0.080593504 -0.03894528
000180 8d 78 ac be 3e f1 4d be 6e 19 d2 bd c2 d1 11 3e
       -0.33685723 -0.20111558 -0.102587566 0.14240173
000190 39 58 5b be ec 77 f9 bd fe 5d 01 bd ad 77 54 3c
       -0.21420373 -0.121810764 -0.03158378 0.012967986
0001a0 91 7d 95 be a4 00 64 3e 12 97 2d 3d f1 7a a0 3e
       -0.29197362 0.2226587 0.0423804 0.31343797
0001b0 ec c6 92 be 34 6e 2d ba 57 12 ea 3d f6 eb 3d 3e
       -0.2866739 -0.0006615848 0.11429279 0.18547043
0001c0 7a 8b 85 be 82 e1 2e be 76 1c 99 bc 15 cb 62 be
       -0.26082975 -0.17078212 -0.018690329 -0.22147782
0001d0 36 e6 90 be 2e 66 20 3d c7 58 7c 3e 60 b8 bc be
       -0.28300637 0.039159946 0.24643241 -0.36859417
0001e0 40 2f b4 bd e7 0f c8 be 18 fa cc 3d cf a6 26 3e
       -0.08798075 -0.39074633 0.10008639 0.1627457
0001f0 13 19 b3 be 4e 6b e2 3d 47 cf e5 bd 24 be 98 bd
       -0.34980068 0.11055623 -0.11221176 -0.074581414
000200 c8 59 91 be ec 44 54 bd e6 c7 2d 3e c8 46 45 be
       -0.2838881 -0.05182354 0.16970786 -0.19265282
000210 91 d3 0b be d5 4c 6a be ec 53 18 be 9e 13 9f 3e
       -0.13654925 -0.22880872 -0.14875764 0.31069654
000220 b4 f3 8a 3e 88 70 1b be b9 25 b7 3e e0 a5 0e 3e
       0.27139056 -0.15179646 0.35770968 0.13930464
000230 26 73 f1 3d 7c 09 8a be c9 67 aa bd 57 10 ac 3e
       0.11789541 -0.2696036 -0.08320577 0.33606216
000240 5a e5 83 3e 8e 14 47 3e ba 42 45 be 0a 8d e1 bd
       0.2576092 0.19441435 -0.19263735 -0.11013229
000250 47 78 10 3e ba 9a 16 3e 07 fe fc bd 20 1a 5a be
       0.14108382 0.14707461 -0.12353139 -0.21299028
000260 19 5d 97 be 9c c4 a1 be 82 03 28 be 76 f8 3c 3e
       -0.29563215 -0.31595314 -0.16407588 0.18454155
000270 9b 2a 35 be c0 0c fe 3d 7e 0b 88 be 8c 47 9b bc
       -0.17692034 0.124047756 -0.26571268 -0.018955015
000280 a7 8d 54 be af 96 2c be 48 42 80 3e 41 33 c9 3d
       -0.20757161 -0.16854356 0.2505057 0.09824229
000290 72 06 b3 3e 69 93 f4 3d 70 41 7f 3b 97 08 9b 3e
       0.34965855 0.11942179 0.0038948916 0.3027999
0002a0 61 9b 8d be 12 1a 4b 3e bc b3 26 3c 75 45 19 bd
       -0.27657607 0.19834164 0.010174688 -0.037419755
0002b0 4d d9 82 be 11 9d 57 3c 9f c0 85 be 8c 4f 64 3e
       -0.25556412 0.013160006 -0.2612352 0.2229597
0002c0 1e 8c 62 be c8 9d 48 bd 38 5e c3 3e 69 77 58 bb
       -0.22123763 -0.048978597 0.3815782 -0.0033030158
0002d0 c6 d7 97 be 9a 27 c7 3d 06 f1 9e 3d 14 03 5b be
       -0.2965681 0.0972435 0.07760815 -0.21387893
0002e0 34 40 9b be 28 09 ce be 61 5d 79 be 8b bf 99 3c
       -0.3032242 -0.4024136 -0.24352027 0.018768093
0002f0 54 0d b3 be 5e 2d a3 be a5 fd fd 3d a0 7b 92 be
       -0.34971106 -0.3187055 0.124018945 -0.28609943
000300 78 9b 57 b9 2b a3 d4 3d 7b 45 ae 3e b7 49 2c bd
       -0.00020561914 0.10382684 0.34037384 -0.042062487
000310 c8 c2 a1 3d 3d 9b 8b 3e f1 13 b2 3d 9b 9d 9d 3e
       0.0789848 0.27266875 0.0869521 0.30784306
000320 7b 8d a3 bd 5a 9b bd 3e d9 cf 7e be 92 9d 90 3e
       -0.0798597 0.37032586 -0.24883975 0.28245217
000330 e3 66 cd 3d 1c 22 56 3b 42 1c c4 3e 62 ba 4e 3e
       0.1002939 0.003267414 0.3830281 0.20188287
000340 77 cf 87 3d 95 95 81 bd 0c 5d ae 3e db 44 48 3d
       0.06631368 -0.06327359 0.34055364 0.04889379
000350 90 1b c8 3d 2f e3 94 39 0d 93 e0 bd e2 30 4e be
       0.09770882 0.00028398025 -0.10965548 -0.20135835
000360 ab eb 61 3e cc b4 86 3d 56 f3 56 3d 68 7c 25 3c
       0.22062556 0.06577453 0.052478157 0.010100462
000370 9c 64 0a be ef 2a c6 bc 61 1a 49 be 29 b2 68 3d
       -0.13514942 -0.024190394 -0.19638969 0.05681053
000380 82 e0 2b 3e b5 2b b7 be 84 b0 a8 3e 96 7a fd bd
       0.16784862 -0.35775533 0.3294717 -0.12376897
000390 a1 eb 92 3e b7 dd 9d 3e ca 1d 1a 3e c2 a1 ab 3e
       0.28695396 0.30833218 0.15050426 0.3352185
0003a0 1d 35 a9 be 4f 31 b6 be e3 de 1a 3d 23 ea 30 be
       -0.33048335 -0.35584494 0.037810218 -0.17276816
0003b0 99 29 48 be b8 0d a7 bc 49 44 72 be 7f e3 61 bc
       -0.19547118 -0.020392284 -0.23658861 -0.013787149
0003c0 c8 20 4a be 67 65 c1 3d 99 0e 51 3d 46 ff 71 be
       -0.19739068 0.09443169 0.051039312 -0.23632535
0003d0 43 a6 19 be 19 08 e5 bb 79 6f 6e 3e 96 3f a2 3e
       -0.1500483 -0.0069894907 0.23284711 0.31689137
0003e0 ac 4a 1e 3e 20 8e e9 3c 03 05 9d bc 52 bc c1 3e
       0.15458173 0.028510153 -0.019167429 0.3783899
0003f0 14 67 5b be 83 dc 55 be 18 b6 93 3d 67 c4 81 be
       -0.2142604 -0.208849 0.07212466 -0.25345156

encoder.convs.0.edge_mlp.0.bias f4 [128]
000000 c3 d1 b2 3d 5f 7a 2b 3e 33 b3 83 be 83 2f c7 3c
       0.08731415 0.167459 -0.25722656 0.024314648
000010 b3 7c 93 bd 1c 94 7d 3e 84 61 4f bd fe 82 63 be
       -0.07201519 0.2476353 -0.050630108 -0.22217938
000020 de ea 61 3e 7a 5b 22 be ec 90 b9 bc bd 26 c4 bd
       0.22062251 -0.15855208 -0.022652112 -0.09577701
000030 1b ea 2d 3e 48 da b4 bd e9 f6 09 3e 7c 47 82 be
       0.16983835 -0.08830696 0.13473095 -0.25445163
000040 f4 85 fb bc 11 60 b3 3e c7 5c 60 be 90 0b 7b bd
       -0.030703522 0.3503423 -0.21910392 -0.061290324
000050 6d 8b a4 bb 3c c6 7f 3d 6c 2e 1a be 6a 45 0f 3e
       -0.0050215037 0.06244491 -0.15056771 0.13991323
000060 f5 a9 d6 bd b3 ea 3c 3d c0 83 b3 3e 93 6a aa 3e
       -0.104816355 0.046122264 0.35061455 0.33284435
000070 c6 dc f7 bd 73 15 31 be e4 f5 5d be 2c 86 91 bd
       -0.12102656 -0.17293338 -0.21675831 -0.071056694
000080 a9 33 cf 3c ce 2d e3 3d d6 76 f9 bd 0c 80 39 3e
       0.025293188 0.11092721 -0.12180869 0.18115252
000090 58 b4 c8 bc b5 66 d2 3d 7e ec ba 3e 0b 3c 1f 3d
       -0.024500057 0.10273496 0.36508554 0.03887562
0000a0 7e 6f 1c ba 9f 90 c3 bd e3 ad 8a 3e 80 b5 a4 be
       -0.00059675414 -0.09549069 0.2708579 -0.32169724
0000b0 55 3c 4a be 69 08 83 3d 40 d1 61 3e 68 86 c1 be
       -0.19749577 0.063980885 0.22052479 -0.37797856
0000c0 c3 11 87 bd e7 a5 be 3d d0 d7 a6 3e 2e a6 3d 3e
       -0.06595185 0.09308987 0.32586527 0.18520424
0000d0 96 d6 a8 3e 7d 1c 93 bd 49 aa b1 be 64 91 a2 3d
       0.32976216 -0.07183168 -0.3470023 0.07937887
0000e0 6d 47 82 3e 92 70 ee 3c a4 e5 96 3d c2 00 b8 3e
       0.2544512 0.029106412 0.07368019 0.35938078
0000f0 7c 06 b3 be 32 e0 79 3d 82 63 d1 3d bd 63 91 3d
       -0.34965885 0.061004825 0.10224058 0.07099102
000100 77 dc cb bd 84 7d 21 be 1e 61 62 3e 64 34 aa 3d
       -0.0995416 -0.15770537 0.2210736 0.08310774
000110 98 67 e8 3d 29 ba fd bb 6a 06 62 be 2b 8f 22 3e
       0.11347884 -0.0077431393 -0.2207276 0.15874927
000120 97 b6 44 be 8f a2 7a be 56 55 2c be 34 91 9b be
       -0.19210277 -0.24476074 -0.16829428 -0.3038422
000130 12 7e 99 be fd 1a b2 bc 4a 95 c2 be 46 fb 86 3e
       -0.29978997 -0.021741385 -0.38004524 0.2636358
000140 12 06 9c be f9 a1 11 3e d4 ed 23 3e c9 ac 16 be
       -0.3047338 0.14221944 0.16008693 -0.1471435
000150 21 b0 b2 3d 86 5a b5 3e ab 0c bc be 2a 13 7c 3c
       0.08725 0.35420626 -0.36728415 0.015385428
000160 fb fb 84 3e 6a fd b5 3e 1d 66 e3 3d c5 3d a9 3e
       0.25973496 0.35544902 0.11103461 0.3305494
000170 63 c1 47 be f3 45 b7 3e 5c f5 1f 3d 40 21 80 be
       -0.19507365 0.35795555 0.039052352 -0.25025368
000180 ed 95 6f 3e 88 0b 9c 3e f3 59 9e be d7 44 40 3e
       0.23397036 0.30477548 -0.30928 0.1877626
000190 3e 51 d4 3d 9d b7 9a 3e c9 00 bc be 19 07 44 3e
       0.10367058 0.3021821 -0.3671935 0.19143333
0001a0 24 42 b5 3e 20 4b f5 bd c3 b4 10 3e e2 69 af be
       0.35402024 -0.119772196 0.14131455 -0.3426047
0001b0 4f 09 d5 3d d3 f1 85 be 45 7c b7 be 09 60 18 3e
       0.10402166 -0.2616106 -0.35836998 0.14880385
0001c0 b0 c2 56 3e 68 54 59 3e 53 49 93 3e 8b de 9d bd
       0.20972705 0.21223605 0.2876688 -0.07708462
0001d0 40 99 89 be f0 cd 5d 3e 15 a2 9c 3e 8d bc 93 be
       -0.26874733 0.2166059 0.3059241 -0.2885479
0001e0 a8 7c a1 be 6f 90 68 be 1d 94 6e be 4f 75 7d 3e
       -0.31540418 -0.22711347 -0.23298688 0.24751781
0001f0 e9 44 b0 be 4e db fc 3d 0c ff 84 3d 03 1c 8b be
       -0.34427574 0.123465165 0.06493959 -0.2716981

encoder.convs.0.edge_mlp.2.weight f4 [128, 128]
000000 ba 62 92 bd 90 c8 88 3d 42 ac 90 bd da 84 8f bd
       -0.07147737 0.06678879 -0.070641056 -0.07007761
000010 66 db c8 3c 3e b6 b0 bd 9e 6a 87 bb 7d ea 48 bc
       0.02451868 -0.0862851 -0.004132583 -0.012262938
000020 a0 b2 1e bd 51 d8 98 bd e8 a5 84 bd 02 38 6d 3d
       -0.03874457 -0.07463134 -0.064769566 0.05791474
000030 ef 93 75 bd d9 f5 3d 3d fc 8a b0 3d 1c f0 2d 3b
       -0.059955534 0.046377037 0.08620259 0.0026540821
000040 b6 30 0b 3d 71 fc 84 bd 77 b8 8a bd bc 87 81 3d
       0.033982 -0.06493462 -0.06773465 0.063247174
000050 d2 5f 53 3d da 70 72 3c 96 54 6c bd cf 16 25 bd
       0.051605053 0.014797414 -0.057697855 -0.040304955
000060 b5 da a5 3d f3 37 9f 3d 56 49 77 bd ad 53 1f 3d
       0.08098356 0.07774343 -0.060372673 0.03889816
000070 2d 83 4f bd c3 62 83 bc d4 ac 8c bc ee 16 93 bd
       -0.05066221 -0.016038304 -0.017172255 -0.07182108
000080 ff 63 47 3b 30 3f 07 bd b7 ee 96 3d 5f 55 37 bd
       0.0030424593 -0.033019245 0.0736975 -0.04475915
000090 7f 44 57 bd 6f bd 8a 3c 7e 7e ad 3d 81 1c 91 3d
       -0.052555557 0.016936032 0.08471392 0.07085515
0000a0 94 33 df 3c 38 0a 9f bd 22 69 3d 3d 59 5e 89 bc
       0.027246274 -0.07765621 0.04624284 -0.016768621
0000b0 67 3f 83 bd b9 7f 83 bc 3d 22 9c bd 53 6a 15 bd
       -0.064085774 -0.016052114 -0.07623718 -0.03647835
0000c0 33 cb 0f 3d e4 30 85 3d 5b 34 92 bd e7 eb 14 3d
       0.035105895 0.06503466 -0.07138892 0.036357787
0000d0 99 e1 f5 3c 04 80 56 bd 65 f3 be bc 6e ce 90 bd
       0.0300148 -0.05236818 -0.023309419 -0.07070623
0000e0 10 ab 32 bd 26 63 b3 3d b6 af c9 3d 2e 18 0b 3d
       -0.04362017 0.087591454 0.09847967 0.033958606
0000f0 bd 4b c1 bc 77 87 09 bd 0d ef 08 3d 2e 57 a9 bd
       -0.023595685 -0.033576455 0.0334311 -0.08268581
000100 0a 26 7c bd d9 a5 12 3d ab 5a 60 3d 63 bb be 39
       -0.061559714 0.035802696 0.054773968 0.00036379238
000110 dd 4d fb bc 23 f6 db 3c 7c 0e 5f 3d 07 a6 bc bd
       -0.030676777 0.026850766 0.054457173 -0.09211355
000120 04 40 ef bc b8 e2 a7 bd a6 c6 37 bc 4b f2 87 3d
       -0.02920533 -0.0819754 -0.011216795 0.066380106
000130 cc 66 a9 bd 59 96 78 bd 08 fb 1e bc 24 a5 14 3d
       -0.0827156 -0.060690258 -0.009703405 0.036290303
000140 46 c1 a8 3d a7 9d 15 3d 01 a3 38 3d 09 1f 99 3d
       0.08239989 0.036527302 0.045077328 0.074766226
000150 6d b7 63 3d 4c 2d 4a bd a7 88 50 bd b9 16 4f 3d
       0.05559485 -0.049359605 -0.05091157 0.05055878
000160 a5 2e e7 bc 34 10 8e bd 5d db 2e 3d c7 19 80 bd
       -0.028220484 -0.06936684 0.04268967 -0.06254917
000170 a6 e5 e2 3c f5 7b b1 3d 37 6e b0 3d 7a 7b ee ba
       0.027697396 0.08666221 0.08614772 -0.0018194758
000180 83 35 f9 3b ea 03 9d 3c 94 35 10 bd 61 38 28 bd
       0.007605256 0.019166905 -0.035207346 -0.041069392
000190 97 2e c0 3d d5 8b a0 bd 03 0d 93 3c 29 4d 00 bd
       0.09383886 -0.07839171 0.01795054 -0.031323586
0001a0 9d e8 2b 3d fe 99 53 bd 64 6b 4c 3d 9b f8 68 bd
       0.041969884 -0.05166053 0.049907103 -0.056877714
0001b0 4a 75 22 bd 8e 91 9a 3d c1 3a 2f 3c 53 4a 97 3d
       -0.039662637 0.075472936 0.01069516 0.07387223
0001c0 ac 39 72 bd 26 19 83 3d 99 86 60 3c 84 78 9e 3d
       -0.05913703 0.06401281 0.013703966 0.0773783
0001d0 c7 fd fe bc 9a b7 4e 3c 76 db 71 3c 5b c4 6d bd
       -0.03112687 0.012617016 0.014761796 -0.058048587
0001e0 3d e3 64 3c d4 22 68 bd 81 ba 42 3d 4d 95 b1 3d
       0.013970193 -0.05667384 0.047541145 0.08671055
0001f0 18 4c c5 bc 9c cb 74 bc 9f 3b c0 3c 7c b0 02 3a
       -0.024084136 -0.014941122 0.02346593 0.00049854047
000200 65 95 d1 bc 56 ea c0 bc f6 2e 9e 3d 4b f6 0c 3c
       -0.025583932 -0.02354924 0.07723801 0.008603643
000210 ec 26 85 3d cc 97 8c 3d 05 1e 87 3d 11 37 1d bc
       0.065015644 0.068648905 0.06597523 -0.009595648
000220 d1 e9 a0 bb 18 16 56 bd 37 29 9b 3d 8e 81 11 bd
       -0.0049106856 -0.052267164 0.075762205 -0.035523944
000230 b9 16 e5 3c c2 3a a9 bd a7 76 b6 bd 80 2f 6c bc
       0.027964937 -0.0826316 -0.0890935 -0.014415622
000240 7a 80 43 bd 1b 98 02 bd 43 e1 5a bd 67 97 b7 3d
       -0.047729947 -0.03188334 -0.053437483 0.089644246
000250 3c 4d ca 3c b3 05 e8 bb d9 40 96 bd 96 be 00 3a
       0.024695031 -0.0070807575 -0.073365875 0.0004911212
000260 64 7b 16 3d 13 14 c3 3d 8d 14 86 bc 38 f3 78 bd
       0.03673877 0.09525313 -0.016367221 -0.060778826
000270 46 f0 bf 3d b9 77 24 bd f0 28 4d bd 0d fe 36 3d
       0.093720004 -0.04015324 -0.05008787 0.044675875
000280 f0 6a 26 3d aa 60 0a 3b 4f 1d 3e 3d b9 ca 58 3d
       0.040629327 0.0021114745 0.04641467 0.052927706
000290 e5 e2 b1 3d 18 c7 9e 3d d2 2f 1f 3d 5a c2 d4 3d
       0.08685855 0.07752818 0.038863964 0.10388632
0002a0 be 76 8f bd ea fa 32 bd d7 ee 39 bd 40 95 96 bc
       -0.0700507 -0.04369632 -0.04539379 -0.018381715
0002b0 c4 4b c4 3d 2d 0b e8 3c 08 04 d8 bc 06 15 a0 bc
       0.09584764 0.028325642 -0.02636911 -0.019541275
0002c0 c7 75 56 bd 5b 10 87 bc d6 12 c7 3d 33 94 82 bd
       -0.052358415 -0.016487291 0.097203895 -0.06375923
0002d0 e1 08 fc 3c a6 e8 13 3b aa aa ab 3d b2 2b 81 bc
       0.030765953 0.002256909 0.08382161 -0.015767906
0002e0 10 b9 ad bc ba cc de bc f5 dd 14 bd 3f 84 50 bd
       -0.021206409 -0.02719723 -0.036344487 -0.05090737
0002f0 9d 50 55 bd b6 5f a6 b9 a6 f4 37 3c f5 34 80 3d
       -0.052078832 -0.00031733298 0.011227762 0.06260101
000300 e6 92 29 3b 29 6b 15 bd ff e4 a2 bd 6e 94 b9 bd
       0.0025874912 -0.03647915 -0.07953834 -0.09061514
000310 10 7d 9b bc 35 a5 4d 3c 90 64 b6 3d 6d aa b5 3d
       -0.018980533 0.012551595 0.089058995 0.08870397
000320 25 d9 aa 3d 8b ab 67 3d 20 5f a2 3d 51 b6 57 3c
       0.08342198 0.05656008 0.079283 0.013166026
000330 91 5a e6 3c 61 a5 00 bd 69 38 78 bd eb 71 25 3d
       0.028119357 -0.031407718 -0.060600672 0.040391844
000340 fd 11 7d 3d 2b 13 8f bc c1 04 ad 3d 1d 3c 1e bd
       0.061784733 -0.017465195 0.08448172 -0.038631547
000350 b7 15 aa bd 78 d0 b1 3d e3 07 bf bd da 4e 2e 3d
       -0.08304923 0.086823404 -0.09327676 0.042555667
000360 91 a5 89 3d 70 9b 23 3d bf bb 39 bc a2 8b a5 bd
       0.067210324 0.03994316 -0.011336266 -0.080832735
000370 35 52 b8 3d 33 a4 05 3c a7 03 23 3d 0d 58 e6 bc
       0.09000055 0.008156824 0.039798405 -0.028118158
000380 90 95 df bc fa e6 87 bd 81 53 9c 3d ff 4d b4 bd
       -0.027292997 -0.06635852 0.076331146 -0.08803939
000390 c2 8f 33 bd b4 78 7d 3d 22 74 bb 3b de 91 30 ba
       -0.04383827 0.06188269 0.005720631 -0.0006735603
0003a0 35 b7 98 bd ed a2 86 bd b8 86 13 3b 76 77 d4 3c
       -0.07456819 -0.065740444 0.0022510719 0.02593587
0003b0 a6 d7 64 3d 7d 31 cf 3c 73 1a 93 3d cf d2 3e 3d
       0.05586972 0.025292153 0.07182779 0.04658776
0003c0 21 08 cb 3b d7 57 5b bd b9 2a ec bb 96 a3 8c 3c
       0.0061960374 -0.053550567 -0.0072072414 0.017167848
0003d0 8e 8f d9 3c 89 c5 67 3d 77 ab 9b 3d 3a 73 6b 3c
       0.02655771 0.05658487 0.07601064 0.014370734
0003e0 4b 20 c9 bd 29 f9 3f bd cf 20 bd 3b db 94 9e 3d
       -0.098206125 -0.046868477 0.0057717334 0.07743236
0003f0 a8 59 5f bc af ef 2f bd 46 fc 66 3d 47 1c 91 bc
       -0.013632216 -0.04295319 0.05639293 -0.017713679

encoder.convs.0.edge_mlp.2.bias f4 [128]
000000 cf 79 e8 3c c9 ee 8c bd bd 4f 5d bb 25 21 da 3c
       0.028378395 -0.06881482 -0.0033769452 0.026627133
000010 ef 82 32 bd 86 a6 bd 3c 46 cc 33 bc 8d 60 b1 bd
       -0.0435819 0.023150694 -0.010973996 -0.08660994
000020 8c 33 8e bd 72 db 08 3c 78 d3 8c bd 56 5a 98 3d
       -0.069434255 0.008353101 -0.06876272 0.07439105
000030 da 4c 11 3d dd 3a a1 3d c7 a1 c1 bc a5 a8 7f 3d
       0.035473682 0.078725554 -0.023636712 0.06241669
000040 00 4e 95 bd 85 5c 32 3d c2 a4 0d 3d cc ce 88 bb
       -0.07290268 0.043545265 0.034580953 -0.0041750427
000050 82 86 3e bd c9 28 e3 bc 11 2f d5 bc 10 d1 a9 3d
       -0.046514995 -0.027729409 -0.02602342 0.08291829
000060 2f 59 b0 3c 7e 95 07 bd 71 8e 29 bd 31 ec ce 3b
       0.021526901 -0.03310155 -0.04139561 0.0063147773
000070 6f b9 2c 3d 38 30 96 3d 09 b6 6a 3d 13 8b ae 3d
       0.04216903 0.07333416 0.05730251 0.0852262
000080 b8 93 23 bd bb ec a7 3c 0d 2e 7f 3d 41 58 8d 3d
       -0.039935797 0.020498624 0.062299777 0.06901599
000090 48 56 2d 3c 7d 2d 84 3d 65 6b 77 bd 49 93 a9 bd
       0.010579653 0.06453989 -0.060405154 -0.082800455
0000a0 c1 2b a0 3c bb 11 55 3d 1a 3e 3b 3d 5e f7 69 bd
       0.019552113 0.052018862 0.04571352 -0.057120673
0000b0 37 39 bc 3d 31 ef 9d bd 11 31 8c 3d 75 07 17 bd
       0.091906 -0.07711638 0.06845296 -0.036872346
0000c0 35 65 ac 3d 63 3e 3a 3d 68 16 4d 3d 17 c9 28 3c
       0.08417741 0.045469653 0.050070196 0.01030185
0000d0 01 1f b9 bd d1 93 94 bd c6 26 95 bd c7 a7 1f bd
       -0.09039117 -0.07254756 -0.07282786 -0.038978364
0000e0 2e 78 b5 bc 2e 76 8d 3c eb e6 a5 bd 8c ef 96 bd
       -0.022152033 0.017268267 -0.08100685 -0.07369909
0000f0 e8 70 9d ba 9a f9 bc bc 05 33 52 bc 45 d9 a8 bd
       -0.0012011798 -0.023068238 -0.012829547 -0.08244566
000100 6f b9 a6 bd 46 84 9e bd 37 99 43 bd b2 ec 81 bb
       -0.081408374 -0.07740073 -0.04775354 -0.003964984
000110 00 49 72 bd cb 0c a3 bd cf ce b9 bc d5 00 a1 3d
       -0.05915165 -0.079614244 -0.022681622 0.07861487
000120 da 91 58 3d ae 6e 85 bc f9 14 73 bd a1 91 a4 3c
       0.05287347 -0.016288128 -0.059346173 0.020088973
000130 d9 12 9c bd d3 3a 68 bd 7f 67 d7 3c 9e 53 d3 3c
       -0.076207824 -0.056696724 0.026294468 0.025796708
000140 df 83 65 bd 35 e0 9f 3a 43 c9 1e 3c 8d 55 89 bc
       -0.056033965 0.0012197556 0.009691539 -0.016764427
000150 18 ce f7 3c e2 d2 43 3d 5a bc 6b bd e1 01 2f bc
       0.03024964 0.047808535 -0.057552673 -0.0106816
000160 7c 02 ab bd f9 13 53 bd d5 db c8 bd 26 76 66 bd
       -0.08350083 -0.05153272 -0.09807555 -0.05626502
000170 ab 27 8a bd 2c 95 9e 3a c2 ae 41 bc a2 31 44 3b
       -0.06745847 0.00120989 -0.011821451 0.002993681
000180 ae 1e 9a 3d d5 70 a7 3c 37 cc 91 39 29 59 36 3d
       0.07525383 0.020439545 0.00027808707 0.044518624
000190 a3 52 00 bd b5 37 ca bb bf 5f f5 3c 44 45 94 3d
       -0.03132881 -0.0061711916 0.029952882 0.07239774
0001a0 60 f3 80 3d dd 4c 9c bd 2f 38 88 bb 46 90 a4 3d
       0.0629642 -0.07631848 -0.004157088 0.080353305
0001b0 66 67 ec 3c 0a 6a 9b bd c8 46 80 3d 00 74 8c bd
       0.028857898 -0.07588585 0.062635005 -0.06858063
0001c0 08 ca 6c bd 06 cc 3c bd f0 57 c3 3d 2e 0a 96 3d
       -0.05780986 -0.04609301 0.09538257 0.0732616
0001d0 bb b1 9a bc f9 52 06 3d 2a 46 65 3c 34 43 b7 bd
       -0.018883577 0.032793973 0.013993779 -0.08948365
0001e0 ce 02 4f bd 16 2b 1a bd 1f 15 ea bb c8 fd 8b bc
       -0.050539784 -0.037638746 -0.007143631 -0.017088786
0001f0 4e 2e 76 3d 49 9c 40 bd 2c a7 5f bd 07 5d 24 3c
       0.060102753 -0.047024045 -0.054602787 0.010031945

encoder.convs.0.norm.weight f4 [128]
000000 45 89 7d 3f 8a 43 7b 3f a2 ff 7d 3f cd af 7c 3f
       0.9903758 0.9814993 0.9921819 0.9870575
000010 37 c3 7e 3f ec 29 7e 3f f7 7c 7e 3f e8 63 7b 3f
       0.99516624 0.9928272 0.9940943 0.9819932
000020 85 1f 7e 3f dc 12 7c 3f 0e 08 7f 3f 8a d8 7b 3f
       0.99266845 0.9846628 0.99621665 0.9837729
000030 4e af 7f 3f d9 2e 7c 3f 5d 2f 7c 3f 23 79 7d 3f
       0.9987687 0.98508984 0.9850977 0.99012965
000040 3f 28 7f 3f 5a 37 7d 3f d0 46 7c 3f 48 e7 7b 3f
       0.99670786 0.98912585 0.9854555 0.9839978
000050 52 96 80 3f 42 8c 7e 3f a6 90 7c 3f c4 30 7e 3f
       1.0045874 0.99432766 0.98658216 0.9929316
000060 03 2a 7e 3f a6 35 7f 3f 7b c1 7b 3f 29 e9 7b 3f
       0.99282855 0.99691236 0.983421 0.9840265
000070 7c 1f 7f 3f 1f 40 7e 3f 95 da 7e 3f d4 fe 7e 3f
       0.99657416 0.9931659 0.9955228 0.99607587
000080 c6 c1 7c 3f fc a1 7d 3f 97 df 7c 3f a5 90 7e 3f
       0.98733175 0.99075294 0.9877867 0.9943946
000090 26 34 7e 3f 5e a7 7e 3f 40 e7 7b 3f a3 9d 7d 3f
       0.9929832 0.9947413 0.98399734 0.9906866
0000a0 8c 4c 7c 3f 43 c9 7d 3f 84 70 7e 3f 84 d1 7c 3f
       0.985543 0.99135226 0.99390435 0.98757195
0000b0 ad 5e 7e 3f 4f d4 7e 3f 1f de 7e 3f 7f 6b 7d 3f
       0.99363214 0.9954271 0.9955768 0.9899215
0000c0 35 80 7c 3f 92 77 7d 3f a9 47 7e 3f c6 bb 7e 3f
       0.9863313 0.99010575 0.99328095 0.9950527
0000d0 23 a8 7e 3f 86 5d 7e 3f 9d 1f 7c 3f 50 3d 80 3f
       0.99475306 0.99361455 0.9848574 1.0018711
0000e0 de d4 7d 3f f6 f8 7e 3f f9 08 7b 3f b1 29 7c 3f
       0.99152935 0.99598634 0.98060566 0.98501116
0000f0 d0 1e 7b 3f 6f 10 7c 3f 5b c4 7e 3f 57 7f 7f 3f
       0.9809389 0.98462576 0.99518365 0.9980368
000100 f7 d5 7c 3f c9 21 7c 3f d4 b6 7d 3f 95 ba 7b 3f
       0.98763984 0.9848905 0.991071 0.98331577
000110 3e 52 7e 3f 0b 1e 7d 3f f1 f9 7f 3f 79 56 7f 3f
       0.9934424 0.98873967 0.99990755 0.9974132
000120 6e 07 7f 3f 41 ab 7d 3f 31 1a 7d 3f a7 94 7e 3f
       0.9962071 0.9908944 0.9886809 0.99445575
000130 f9 57 7b 3f ef 7b 7b 3f c6 19 7e 3f c2 39 7f 3f
       0.9818111 0.9823598 0.9925808 0.99697506
000140 be 90 7d 3f 0e d0 7d 3f 15 90 7f 3f 2e da 7c 3f
       0.99048984 0.9914559 0.99829227 0.98770416
000150 26 35 7e 3f d7 5e 7b 3f 7b 26 7d 3f 72 a4 7c 3f
       0.9929985 0.9819159 0.9888684 0.98688424
000160 74 b3 7c 3f c1 e3 7c 3f d5 83 7b 3f 59 86 7c 3f
       0.98711324 0.98785025 0.98248035 0.986425
000170 92 92 7e 3f a0 48 7d 3f 99 46 7f 3f 4a 7b 7c 3f
       0.994424 0.9893894 0.997171 0.98625624
000180 56 cc 7c 3f 26 8d 7c 3f 24 b1 7e 3f 41 f8 7f 3f
       0.9874929 0.98652875 0.99489045 0.9998818
000190 03 8b 7b 3f 9b 1f 7e 3f 7b 1a 7b 3f 4f 24 7d 3f
       0.9825899 0.99266976 0.9808728 0.9888353
0001a0 66 80 7e 3f 11 83 7e 3f cd 88 7c 3f 4a 76 7d 3f
       0.9941467 0.9941874 0.9864624 0.9900862
0001b0 ae 3f 80 3f 8d 18 80 3f 15 77 7e 3f ed e2 7d 3f
       1.0019433 1.0007492 0.99400455 0.99174386
0001c0 69 ed 7e 3f 43 8a 7e 3f 82 5f 7d 3f c6 02 7e 3f
       0.9958101 0.9942972 0.9897386 0.9922298
0001d0 71 d5 7b 3f 1e 31 7c 3f 1c 66 7e 3f d6 24 7f 3f
       0.9837256 0.98512447 0.99374557 0.9966558
0001e0 43 77 7d 3f 49 89 7e 3f ad a0 7d 3f 89 07 7d 3f
       0.99010104 0.9942823 0.99073297 0.9883962
0001f0 0a b5 7d 3f 4e 17 7d 3f 8f 1d 7d 3f 9b 9a 7b 3f
       0.9910437 0.98863685 0.9887323 0.98282784

encoder.convs.0.norm.bias f4 [128]
000000 d0 04 db bc 73 1a 9c bc a4 51 1f 3c 07 2c ce ba
       -0.026735693 -0.01905558 0.0097240545 -0.0015729674
000010 6d 38 57 3c 7f 3b 31 bb 0d f5 25 bc a8 2d 2d 3b
       0.013136012 -0.002704352 -0.010129225 0.0026424918
000020 10 1d 5a 3b 90 31 c9 3b 93 0d 9f 39 87 f9 97 bb
       0.0033281483 0.0061399415 0.00030336957 -0.0046379003
000030 2b 9c 65 3c f3 4b 11 3d 1b 40 92 bc 49 cf e7 bc
       0.014014284 0.03547282 -0.017852833 -0.028297083
000040 cc 1d 2c 3c 11 ee fb bb a8 0f 3b bb 38 8b 7f bc
       0.010505151 -0.007688292 -0.0028543267 -0.015597157
000050 e9 69 17 3c 35 f1 99 bb 9c a9 10 3a ce 98 fb bb
       0.00924156 -0.0046979436 0.0005518438 -0.007678128
000060 fb ef 64 bc 55 9e f7 ba 61 8b 69 bc 2e 63 ce ba
       -0.013973231 -0.0018891791 -0.014254422 -0.0015746111
000070 d5 4a 98 bc 30 7e 8a bc 6d 94 24 3b 26 f8 14 bc
       -0.01859037 -0.016905874 0.0025112883 -0.009092366
000080 b7 ab cd 3b 9d fd a0 bc 1a 58 a3 bc 65 c9 fe ba
       0.0062765735 -0.019652182 -0.019939471 -0.0019438682
000090 05 69 09 bb d3 8d 20 3c 2c b8 9f 3a 1d 65 b7 3c
       -0.0020967138 0.0097994385 0.0012185625 0.022387082
0000a0 cd 62 0f bc 63 29 36 bc 79 30 da 3b a2 7f c0 3b
       -0.008751583 -0.011118266 0.0066586104 0.00587459
0000b0 86 09 45 3c b3 34 86 3b 21 39 9d 3c a2 64 0c 3d
       0.012026196 0.0040956377 0.01919228 0.03427566
0000c0 af 85 72 bc 02 1a 3a 3c a1 36 90 bb 11 9e 2c bc
       -0.01480238 0.01135874 -0.0044010435 -0.010535733
0000d0 7a 3b 90 bc 4a 08 a5 bb ed 94 9e 3c 97 c9 0f 3c
       -0.017606486 -0.0050363885 0.019358123 0.00877609
0000e0 44 7c 41 3a fa 89 40 bc 03 c8 c8 3c 54 0a d7 bb
       0.0007380883 -0.011751646 0.024509436 -0.0065625105
0000f0 68 94 07 3c 60 f8 fc bc 9b 71 e0 3b c5 0a e1 bb
       0.008275129 -0.030880153 0.0068494803 -0.006867739
000100 9a 4c b1 3c 18 ad 8f bc 0f 61 7f 3c 14 0e 36 3c
       0.021642972 -0.017538592 0.015587105 0.011111755
000110 30 fb 22 3b 4f e1 0d bc 92 be 80 3b 1f 7a 82 bb
       0.0024868958 -0.008659675 0.0039289678 -0.003981843
000120 f7 5b c6 3c 5a 36 88 bc 2a e7 84 3a ba 31 db b9
       0.024213774 -0.01662748 0.0010139693 -0.00041807984
000130 bf a6 80 3b ce eb 6f 3c 43 27 90 bb 27 04 34 bc
       0.0039261277 0.014643623 -0.0043992116 -0.010987318
000140 ac 4c 12 bc 11 f8 b4 bc 85 07 4b bc 56 4e 7d bc
       -0.008929413 -0.022090944 -0.0123919295 -0.015460571
000150 8e ab 35 3c 1d eb 36 bc aa 8c a4 3b c8 7c 5c bc
       0.011088265 -0.011164454 0.0050216513 -0.013457485
000160 ad 57 bd bc fc 42 00 3c f6 0e 04 3c a4 1b cf bc
       -0.023113096 0.00782847 0.008060208 -0.025281735
000170 eb 78 b2 bb 57 10 a2 3a 3b 6f a0 bc dc e5 2a 3c
       -0.0054465435 0.0012364489 -0.019584289 0.010430779
000180 a7 55 14 bb 6c c4 bb bc 3a 6a 10 3c 05 45 d2 bb
       -0.002263406 -0.02292081 0.008814389 -0.006416919
000190 1c 50 a3 3b 51 71 e9 3b 93 d2 aa 3b 5e 92 df bb
       0.004983915 0.007124104 0.0052130907 -0.0068228683
0001a0 30 2b 0b bc d6 a6 8a bc 3f e8 0c ba 61 06 38 bc
       -0.008494183 -0.016925257 -0.00053751835 -0.01123199
0001b0 89 57 c8 3a 6d f8 f1 bc ad 0d f5 ba 03 68 ff bc
       0.0015284877 -0.029537404 -0.0018696092 -0.031177526
0001c0 2a ec 8e b9 c6 1d cd bb bc b6 b2 3c ae db 57 3c
       -0.00027260307 -0.006259653 0.02181565 0.013174934
0001d0 a5 0d ce bb cd a5 1f 3c f2 19 fc 3b a1 77 fe bb
       -0.0062882476 0.00974412 0.0076935226 -0.0077657257
0001e0 fe de 4b 3c 3d d4 be bc d1 d6 00 bd 43 b1 90 3c
       0.012443302 -0.023294562 -0.031454865 0.01766265
0001f0 df a4 11 38 a7 fa 0a bc 67 aa 8b bc d1 dd d7 bc
       3.4724242e-05 -0.008482612 -0.017049028 -0.026350887

encoder.convs.0.norm.mean_scale f4 [128]
000000 b5 bb 7b 3f db 88 80 3f 27 30 7b 3f 71 8e 7f 3f
       0.98333293 1.0041765 0.9812035 0.99826723
000010 03 98 7b 3f 68 f7 82 3f fd 6a 7c 3f 84 8d 7a 3f
       0.98278826 1.0231752 0.9860075 0.97872186
000020 ce 07 7f 3f 45 d4 7d 3f 05 80 7e 3f bd 4a 80 3f
       0.99621284 0.9915202 0.9941409 1.0022808
000030 03 83 80 3f 06 4b 83 3f 5b 29 81 3f 7a 82 77 3f
       1.0039982 1.025727 1.0090746 0.96683466
000040 1a 23 7d 3f 88 1d 81 3f 93 66 7d 3f 40 e7 7f 3f
       0.98881686 1.0087137 0.9898464 0.99962234
000050 ec ce 7c 3f ac 4f 80 3f 1f 5d 7f 3f 72 39 7b 3f
       0.9875324 1.0024314 0.99751467 0.9813453
000060 0c bc 79 3f 7b 44 7a 3f 1a 43 7a 3f 14 ae 7e 3f
       0.9755256 0.9776074 0.9775864 0.9948437
000070 6d 80 7b 3f 55 10 79 3f 5f a4 7b 3f f1 cd 76 3f
       0.9824284 0.97290546 0.98297685 0.9640799
000080 a0 3f 7e 3f 26 26 7a 3f de d1 7f 3f 84 32 7e 3f
       0.99315834 0.9771446 0.99929607 0.9929583
000090 33 45 7d 3f 92 33 7c 3f ee 35 80 3f e0 9e 78 3f
       0.98933715 0.9851619 1.0016458 0.97117424
0000a0 c0 7e 7d 3f d0 69 7a 3f 0b 2c 7c 3f 7d da 80 3f
       0.9902153 0.9781771 0.98504704 1.0066677
0000b0 66 9c 79 3f 4e 52 7c 3f bb 99 78 3f 80 49 75 3f
       0.9750427 0.98563087 0.97109574 0.9581528
0000c0 2a 12 7a 3f 6d d4 7a 3f bc bd 7d 3f 2c cf 79 3f
       0.97683966 0.97980386 0.99117637 0.97581744
0000d0 69 ec 79 3f 15 0b 7b 3f 5d 5c 7b 3f 81 32 7a 3f
       0.9762636 0.98063785 0.9818781 0.9773331
0000e0 1b 99 7f 3f 9a cf 79 3f 58 2d 81 3f eb ca 80 3f
       0.99842995 0.975824 1.0091963 1.0061926
0000f0 c4 10 81 3f 86 83 79 3f 3f 07 7c 3f aa 3d 7a 3f
       1.0083241 0.97466314 0.98448557 0.9775034
000100 cf 52 83 3f 84 99 7e 3f f1 83 7a 3f 3e 4b 7e 3f
       1.0259646 0.99452996 0.97857577 0.9933356
000110 5c 55 7f 3f a6 fc 7e 3f a8 90 7f 3f f8 ac 80 3f
       0.99739623 0.9960426 0.998301 1.0052786
000120 13 ff 80 3f 2b 3b 82 3f 70 04 7d 3f 4e 35 7d 3f
       1.0077842 1.0174307 0.98834896 0.9890946
000130 60 28 7e 3f 2a 79 7a 3f 7f fb 7c 3f 17 01 7b 3f
       0.9928036 0.9784113 0.9882125 0.9804854
000140 0a 20 7f 3f c2 5d 79 3f 7d 74 7a 3f 3b 8e 7a 3f
       0.9965826 0.9740869 0.97833997 0.97873276
000150 74 48 81 3f 21 ab 81 3f 91 84 81 3f 40 cd 7d 3f
       1.0100236 1.0130349 1.0118581 0.9914131
000160 ff 68 79 3f 9c df 7c 3f 6f 13 80 3f 34 dc 79 3f
       0.97425836 0.987787 1.0005931 0.9760163
000170 f9 bb 7a 3f f8 a9 7d 3f 59 ca 78 3f a0 51 81 3f
       0.97943074 0.99087477 0.9718376 1.0103035
000180 06 b8 7d 3f bf 87 77 3f 35 15 7f 3f 7c ac 7e 3f
       0.9910892 0.9669151 0.99641734 0.9948194
000190 f4 0e 7f 3f 50 4b 7c 3f ec a4 82 3f da 08 81 3f
       0.9963219 0.9855242 1.020658 1.0080826
0001a0 f5 01 7b 3f 17 09 7b 3f b5 20 7e 3f e4 4d 7d 3f
       0.9804986 0.98060745 0.99268657 0.98946977
0001b0 a6 a6 7f 3f 9c ec 75 3f ed 36 7f 3f 3c 25 76 3f
       0.9986366 0.9606416 0.99693185 0.96150565
0001c0 3d ab 7f 3f 9e 80 7b 3f a3 b3 7b 3f 74 17 7c 3f
       0.99870664 0.9824313 0.9832098 0.98473287
0001d0 fc c4 7a 3f 08 a4 81 3f 1f 1f 80 3f 4c 7e 79 3f
       0.97956824 1.0128183 1.0009497 0.9745834
0001e0 48 4c 79 3f 38 6e 82 3f 6c 71 83 3f b9 da 7f 3f
       0.9738202 1.0189886 1.0268989 0.9994312
0001f0 fc e3 80 3f bf b5 7e 3f 39 fe 79 3f c9 f4 82 3f
       1.0069575 0.9949607 0.9765354 1.0230953
