checkpoints/model_B_epoch_20.pth (torch, 552117 bytes, 26 tensors)

encoder.node_embedding.weight f4 [1, 128]
1.8941443 1.4530241 0.87821025 -2.0675244 0.6661124 -1.1940407 -0.031764887 -1.5715307
-0.7215157 1.6088812 -0.3630586 -1.3566482 -0.7100661 -0.54549956 -0.7559175 0.73666704
1.5975087 -0.1562874 -0.47648117 0.4294958 -0.75729954 1.0709323 0.778931 1.664019
1.2374897 1.2527498 0.5982832 1.309024 -0.20589426 0.03698186 -0.24605715 0.8399417
-1.3471378 -0.8401497 -0.22319223 1.688351 0.30663523 -0.41536275 0.2941537 -0.7555089
-1.540324 0.9592844 -0.86201304 -0.5795961 -1.2449348 2.077343 -1.1904404 -0.46418974
-0.8884772 -0.6426435 0.07316408 0.4986703 -0.4717618 1.1640996 -0.77890086 -0.7089912
-1.3701776 0.031798195 -0.06377506 0.6554656 -0.097821236 1.792233 -1.1568731 1.36709
1.3977084 0.82522345 2.1841896 0.49037108 0.33542308 -0.17413697 -1.0360954 1.243759
-0.1506566 0.51002896 0.04387367 0.42273048 0.56102836 -0.6049024 -2.1666155 -0.72498286
0.008289283 -0.31625426 -1.321435 -0.5664917 0.52025133 0.50317097 1.1168956 0.038908225
0.7108778 -0.43880472 -1.0192593 0.582572 -1.6867527 -0.81008154 1.3085206 0.45894137
-2.4607763 0.47767407 0.7525704 0.029087413 0.6162982 0.54360145 1.0503598 -0.41876847
-0.17435062 0.735218 0.40018728 0.15540259 0.25678405 1.2468724 -0.00037939512 -0.2856274
-1.4290246 -0.084509216 -0.5722419 0.46908092 0.7051402 0.06341394 -0.37098658 0.5158866
-0.012636763 0.22692834 0.10875893 0.7439918 1.0501212 0.31449515 0.7030344 0.38651702
00000000: 5273 f23f b2fc b93f 63d2 603f 5252 04c0
00000010: 5886 2a3f 53d6 98bf e61b 02bd eb27 c9bf
00000020: 41b5 38bf d2ef cd3f d1e2 b9be a6a6 adbf
00000030: e4c6 35bf dca5 0bbf cf83 41bf 3696 3c3f
00000040: 2a7b cc3f ce09 20be 57f5 f3be e0e6 db3e
00000050: 62de 41bf 4f14 893f 0668 473f 93fe d43f
00000060: 1066 9e3f 1b5a a03f 1629 193f 198e a73f
00000070: f2d5 52be 4a7a 173d 68f6 7bbe 6b06 573f
00000080: 036f acbf 0d14 57bf 818c 64be e31b d83f
00000090: 4bff 9c3e 6daa d4be 509b 963e 0869 41bf
000000a0: 5629 c5bf aa93 753f e3ac 5cbf 6960 14bf
000000b0: 065a 9fbf 30f3 0440 5a60 98bf 47aa edbe
000000c0: 3e73 63bf 4984 24bf 0dd7 953d b751 ff3e
000000d0: c38a f1be 3701 953f 0c66 47bf 7380 35bf
000000e0: fb61 afbf d33e 023d 809c 82bd 98cc 273f
000000f0: 8056 c8bd e467 e53f 6b14 94bf cefc ae3f
00000100: 1ce8 b23f d841 533f c3c9 0b40 eb11 fb3e
00000110: 93bc ab3e f650 32be c69e 84bf 7f33 9f3f
00000120: b945 1abe 4291 023f e1b4 333d 2170 d83e
00000130: 8e9f 0f3f e2da 1abf d4a9 0ac0 7a98 39bf
00000140: c6cf 073c 14ec a1be c824 a9bf 9a05 11bf
00000150: 312f 053f d0cf 003f 6ff6 8e3f 3b5e 1f3d
00000160: 16fc 353f 03ab e0be 1777 82bf 7023 153f
00000170: 83e7 d7bf 8161 4fbf 9a7d a73f 5dfa ea3e
00000180: 5c7d 1dc0 b291 f43e 74a8 403f ba48 ee3c
00000190: b8c5 1d3f 7729 0b3f 3172 863f d268 d6be
000001a0: f888 32be 3f37 3c3f 59e5 cc3e db21 1f3e
000001b0: 3379 833e 8499 9f3f 8de9 c6b9 c13d 92be
000001c0: 47ea b6bf 2b13 adbd 727e 12bf 602b f03e
000001d0: 1184 343f 2bdf 813d f4f1 bdbe 2511 043f
000001e0: 6d0a 4fbc e75f 683e 00bd de3d 3f76 3e3f
000001f0: 5f6a 863f 8205 a13e 10fa 333f 8fe5 c53e

encoder.convs.0.node_mlp.weight f4 [128, 256]
0.048843633 -0.015006475 0.050200842 0.021956343 -0.054938436 0.045383643 -0.014071964 -0.020824926
-0.048363935 -0.0639648 0.020406222 -0.010687466 0.026765158 -0.047716986 0.04847952 -0.04803993
-0.013395489 0.015734578 0.034532625 0.04688969 0.058862425 -0.05161152 0.0127558755 -0.029273808
-0.009496375 -0.0488386 0.053315237 -0.047962543 0.035791878 0.01860059 0.02293727 -0.03608144
0.058720224 0.016299242 0.010840101 -0.057036318 0.022971228 -0.0064435033 -0.030940624 0.05565527
0.016494462 -0.036858156 -0.028394392 -0.00012326635 0.03716183 -0.018510872 -0.032366484 -0.018295882
-0.0432206 0.024766274 0.04465159 -0.060777646 0.017119335 0.029031798 0.013960911 -0.019137612
0.034914352 0.029235188 0.026049474 -0.013622801 -0.013034836 0.0038303782 -0.0081068855 -0.021127312
0.03659868 0.05014983 -0.0088839345 -0.016569404 -0.0019075876 -0.0007350145 0.017563185 0.014481484
-0.05292401 -0.02549228 0.048061896 0.021181755 -0.005892801 -0.034348406 -0.03489365 -0.052389383
-0.022920629 0.023557715 0.042014744 0.031238148 -0.05722473 -0.039857898 -0.012499228 0.056217734
0.006121642 -0.013176433 0.028257823 -0.026226003 -0.037086114 0.04774302 -0.030744966 -0.015202265
-0.05847451 0.03840855 0.04387023 0.018800696 -0.04570828 -0.0634769 -0.052799042 0.048726663
0.03258123 0.049074903 0.029488882 0.012696009 -0.0034394076 -0.049598783 -0.038256608 -0.05477166
0.027988981 -0.02715692 -0.009634136 -0.03823335 -0.014012695 -0.046208855 -0.037366576 0.017633498
-0.015080629 0.035212204 -0.0225217 -0.047913514 -0.013624203 -0.032659505 -0.02161433 -0.06138498
0.04983271 -0.05721966 0.032254968 0.044937104 0.04672677 -0.052407693 0.06923566 -0.05025669
0.02922244 0.061831344 0.00063467806 -0.02135384 -0.019754298 -0.072914585 -0.00572942 -0.044437114
0.042096805 0.028956203 0.06922211 -0.008677824 -0.07304333 -6.4771644e-05 0.016389523 -0.071254954
-0.027540784 -0.05640757 -0.008391427 -0.02080934 -0.0080103185 -0.018628493 -0.04847433 0.06543318
-0.0030227846 -0.0270917 0.008468024 -0.028039921 -0.064582214 -0.065138206 0.039124012 -0.066147044
-0.045351226 -0.0016089422 0.0013587913 -0.027124874 -0.02090201 0.02163619 -0.0063215964 -0.045113347
-0.043594755 0.048364222 0.016070256 0.015668731 0.016736109 -0.008118219 0.05290668 0.041880924
-0.052943334 -0.0032120927 0.035871353 0.019043833 0.052307803 0.04442998 -0.01304123 0.019809777
-0.060029484 -0.024859926 0.06717816 0.019703362 -0.069224 -0.041432355 -0.037253134 -0.09712978
-0.07075519 -0.018282488 0.042240012 0.0070296237 -0.08258951 -0.046757415 0.03161743 -0.05744326
-0.015489952 0.054363478 -0.04302136 -0.00020296744 0.01133364 0.0024925165 -0.010286781 -0.08380833
-0.023888988 -0.006414819 0.0651746 -0.05720672 -0.028096426 -0.010399797 0.0074881865 0.03690305
0.04151318 0.038827002 -0.074140914 0.021792768 0.030870974 -0.024453145 -0.05771182 0.07678317
-0.027952412 -0.04384117 -0.10587354 0.008176596 0.004067331 -0.0101532955 -0.002399455 -0.044098105
-0.051237565 -0.0070873196 0.062309872 0.030347645 -0.044183277 -0.0029797787 -0.01975545 -0.017253075
0.013227346 0.029458761 0.0469587 -0.053051144 0.0240274 -0.052838165 0.0282648 0.047198955
00000000: 4310 483d b8dd 75bc 669f 4d3d cadd b33c
00000010: 2007 61bd 33e4 393d 188e 66bc 0999 aabc
00000020: 4319 46bd faff 82bd f32a a73c 7b1a 2fbc
00000030: 9b42 db3c e372 43bd 7692 463d 85c5 44bd
00000040: c178 5bbc cde5 803c 1572 0d3d 670f 403d
00000050: ba19 713d 9a66 53bd 05fe 503c a0cf efbc
00000060: af96 1bbc fc0a 48bd 1461 5a3d 5f74 44bd
00000070: 819a 123d 4460 983c f1e6 bb3c 22ca 13bd
00000080: 9e84 703d fd85 853c ae9a 313c ea9e 69bd
00000090: 282e bc3c 0624 d3bb 3177 fdbc c8f6 633d
000000a0: 651f 873c 94f8 16bd 5b9b e8bc 0f41 01b9
000000b0: 0137 183d 1da4 97bc b892 04bd 3fe1 95bc
000000c0: 1508 31bd a4e2 ca3c 96e4 363d fbf1 78bd
000000d0: d93d 8c3c 18d4 ed3c 4ebc 643c 7bc6 9cbc
000000e0: 5a02 0f3d a27e ef3c b565 d53c 2b32 5fbc
000000f0: 1190 55bc 1507 7b3b bed2 04bc 2f13 adbc
00000100: 7fe8 153d e869 4d3d ec8d 11bc 8fbc 87bc
00000110: 0508 faba fdad 40ba abe0 8f3c bf43 6d3c
00000120: d9c6 58bd 30d5 d0bc 8ddc 443d 5c85 ad3c
00000130: 6618 c1bb eab0 0cbd a5ec 0ebd 4096 56bd
00000140: 0bc4 bbbc 1cfc c03c a717 2c3d 25e7 ff3c
00000150: 7a64 6abd 0942 23bd 90c9 4cbc 9144 663d
00000160: 0e98 c83b f7e1 57bc f37c e73c ead7 d6bc
00000170: 9ce7 17bd 2f8e 433d dedc fbbc ec12 79bc
00000180: f882 6fbd 4952 1d3d 45b1 333d eb03 9a3c
00000190: 9b38 3bbd 2d00 82bd cf43 58bd 9c95 473d
000001a0: e573 053d c402 493d ab92 f13c ec02 503c
000001b0: af67 61bb 1828 4bbd f6b2 1cbd 4058 60bd
000001c0: 2649 e53c 3078 debc 7fd8 1dbc 939a 1cbd
000001d0: 8195 65bc 7f45 3dbd b20d 19bd 2074 903c
000001e0: be14 77bc ac3a 103d 6e7f b8bc f640 44bd
000001f0: 0d38 5fbc f9c5 05bd 8910 b1bc d16e 7bbd
00000200: 621d 4c3d 2a5f 6abd c91d 043d f80f 383d
00000210: 9264 3f3d 73a9 56bd 6dcb 8d3d f5d9 4dbd
00000220: e663 ef3c dd42 7d3d 8660 263a 40ee aebc
00000230: c4d3 a1bc 3e54 95bd dcbd bbbb b103 36bd
00000240: b36d 2c3d 8f35 ed3c 52c4 8d3d 6f2d 0ebc
00000250: be97 95bd 03d6 87b8 5243 863c 1eee 91bd
00000260: 369d e1bc a00b 67bd 327c 09bc 5978 aabc
00000270: b63d 03bc c89a 98bc 058d 46bd d501 863d
00000280: e919 46bb 6aef ddbc 78bd 0a3c fab3 e5bc
00000290: ae43 84bd 2e67 85bd 8040 203d 1a78 87bd
000002a0: 35c2 39bd 24e3 d2ba 7819 b23a fc34 debc
000002b0: b13a abbc 613e b13c 6525 cfbb c6c8 38bd
000002c0: 6a90 32bd 9019 463d c5a5 833c b65b 803c
000002d0: 2a1a 893c 4702 05bc adb4 583d 558b 2b3d
000002e0: 1cdb 58bd f981 52bb d7ed 123d d001 9c3c
000002f0: b540 563d 36fc 353d e2aa 55bc 1d48 a23c
00000300: 7ae1 75bd 0ba7 cbbc b494 893d f268 a13c
00000310: 50c5 8dbd f9b4 29bd be96 18bd faeb c6bd
00000320: 19e8 90bd 28c5 95bc dd03 2d3d c258 e63b
00000330: b024 a9bd b484 3fbd 4781 013d a049 6bbd
00000340: 91c9 7dbc 3dac 5e3d 2a37 30bd a8d3 54b9
00000350: bbb0 393c 7d59 233b e389 28bc b4a3 abbd
00000360: d7b2 c3bc 6733 d2bb 437a 853d 9851 6abd
00000370: 7a2a e6bc e963 2abc 765f f53b a727 173d
00000380: b909 2a3d 1009 1f3d 31d7 97bd bf86 b23c
00000390: 20e5 fc3c f651 c8bc 3b63 6cbd 7f40 9d3d
000003a0: 75fc e4bc cc92 33bd 3ad4 d8bd 21f7 053c
000003b0: 3f47 853b 025a 26bc 2d40 1dbb 37a0 34bd
000003c0: 7bde 51bd bf3c e8bb a338 7f3d a09b f83c
000003d0: 86f9 34bd 6448 43bb 2ed6 a1bc 5256 8dbc
000003e0: 83b7 583c 8053 f13c c457 403d 284c 59bd
000003f0: 1cd5 c43c d56c 58bd 958b e73c b153 413d

encoder.convs.0.node_mlp.bias f4 [128]
-0.05115157 0.014392753 0.0027803392 0.047670003 0.021315012 -0.016296467 0.009412403 -0.048092976
-0.00033505246 0.013022424 0.06241927 0.060723115 -0.025431791 0.048966896 -0.03212263 0.02894035
0.03253836 0.041685533 0.050782677 -0.008439956 0.046293315 0.009834689 -0.0010866703 -0.015422758
-0.05525558 -0.0048802174 0.0034185408 0.00062826456 0.0010180773 -0.0019822738 0.016220141 -0.030991567
-0.0021945676 -0.06092285 0.013842327 0.05411438 -0.016261328 0.02535322 -0.017972881 -0.02801634
0.02684728 -0.05914409 0.023137212 0.039466534 0.027526425 -0.010661683 -0.027557654 -0.04875119
0.056657903 0.0067428704 0.029848075 -0.027899943 0.0350601 -0.041800424 0.034107205 0.05193534
-0.060777575 -0.03522501 -0.079455666 -0.04322966 0.008549808 -0.057137758 0.044934798 -0.0421254
-0.014729048 0.021253042 -0.032975275 0.0036711092 -0.07154214 -0.062655464 0.005796006 -0.024145769
0.037061058 -0.04286138 0.034175925 0.058744095 -0.02242671 -0.020648131 0.008470802 -0.030314637
0.014816946 -0.010212454 -0.051356055 -0.049730003 0.041082337 -0.043718334 -0.019042706 0.030586097
-0.043110058 0.00084747066 0.06332057 0.02995677 0.024419209 -0.044493135 0.030076673 0.012321896
0.0015919568 -0.012661861 -0.017387468 0.03291251 0.035279978 -0.03957035 0.054748505 0.06078354
-0.020384315 0.02208506 0.01868986 -0.05203148 0.022702707 0.07121738 -0.0237979 -0.049948603
-0.04216381 0.03231783 0.008818419 -0.0031619242 0.009598527 0.016029133 0.037564572 -0.005613708
-0.063572645 0.039458 0.044847973 0.010358822 -0.030612279 -0.018082066 0.028423935 0.03389091
00000000: 4f84 51bd 95cf 6b3c 5a36 363b 9f41 433d
00000010: d29c ae3c 2b80 85bc 7b36 1a3c 24fd 44bd
00000020: fba9 afb9 015c 553c 59ab 7f3d cdb8 783d
00000030: 5556 d0bc 8391 483d 0593 03bd 5014 ed3c
00000040: f246 053d 73be 2a3d 7f01 503d be47 0abc
00000050: 0f9e 3d3d ad21 213c 9b6e 8eba bcaf 7cbc
00000060: ad53 62bd 3bea 9fbb 9909 603b 1fb2 243a
00000070: 0171 853a 09e9 01bb 1ae0 843c 07e2 fdbc
00000080: bcd2 0fbb 3d8a 79bd edca 623c 0aa7 5d3d
00000090: 7a36 85bc 8eb1 cf3c dd3b 93bc 8682 e5bc
000000a0: d4ee db3c 1341 72bd 408a bd3c a9a7 213d
000000b0: 197f e13c 57ae 2ebc 97c0 e1bc 54af 47bd
000000c0: 1e12 683d 4cf3 dc3b f383 f43c 6c8e e4bc
000000d0: 2e9b 0f3d ec36 2bbd ffb3 0b3d 27ba 543d
000000e0: e8f1 78bd 1a48 10bd a7b9 a2bd 9511 31bd
000000f0: 7e14 0c3c 4809 6abd 8d0d 383d af8b 2cbd
00000100: 1b52 71bc dc1a ae3c 1511 07bd fe96 703b
00000110: af84 92bd 8251 80bd 6cec bd3b 59cd c5bc
00000120: 56cd 173d 6a8f 2fbd 0efc 0b3d a69d 703d
00000130: 38b8 b7bc 4526 a9bc 1ec9 0a3c 6756 f8bc
00000140: c7c2 723c 2352 27bc ba5a 52bd b0b1 4bbd
00000150: f445 283d ff11 33bd 73ff 9bbc b28f fa3c
00000160: 2c94 30bd cb28 5e3a 37ae 813d e667 f53c
00000170: cb0a c83c 6f3e 36bd 5b63 f63c c7e1 493c
00000180: 35a9 d03a b273 4fbc 2a70 8ebc 45cf 063d
00000190: bd81 103d 8514 22bd f83f 603d 29f8 783d
000001a0: 02fd a6bc baeb b43c 7a1b 993c f61e 55bd
000001b0: 07fb b93c 6bda 913d d0f3 c2bc e896 4cbd
000001c0: f6b3 2cbd b35f 043d 217b 103c 4938 4fbb
000001d0: 2443 1d3c 874f 833c 4fdd 193d 32f3 b7bb
000001e0: 6032 82bd b69e 213d 82b2 373d 0cb8 293c
000001f0: 9ac6 fabc d720 94bc 50d9 e83c 32d1 0a3d

encoder.convs.0.edge_mlp.0.weight f4 [128, 7]
-0.31780037 0.040614154 0.04575538 0.021005776 -0.186646 -0.03791435 -0.39454472 0.015056204
-0.33801037 0.32345402 0.16330111 0.16907492 -0.18010467 -0.17152008 0.0616834 -0.014301581
-0.005325757 0.08373844 0.042013355 -0.27524635 0.41066056 -0.17019568 0.1059756 -0.2436092
0.35916263 -0.18427715 0.20599514 0.17717764 -0.074461795 0.012025481 -0.25786513 -0.35599133
0.124128595 0.24302268 -0.27611747 -0.1845066 -0.29358047 -0.31207818 0.109377354 -0.064551145
0.3567232 0.2923637 -0.21039717 0.31005543 0.24779962 0.35153303 -0.08238155 0.0024562057
-0.22584003 -0.12866697 0.31566754 0.33482817 -0.3995357 0.1511204 -0.1514058 -0.3268949
0.12591453 0.11854049 -0.12809461 0.4102997 -0.2083684 0.22157684 0.25265363 -0.20616046
0.17955066 -0.16197574 -0.18418507 0.1790202 0.34181577 -0.28687182 0.3418936 -0.31547865
0.077729285 -0.3052077 -0.12380817 -0.27089596 0.3798815 -0.22301616 -0.28825915 -0.1631169
0.27959457 0.16495806 0.13172138 0.28736025 -0.14954287 0.2497699 -0.42641172 -0.25401524
0.19880188 -0.2276889 0.13764988 0.19552378 0.20791548 0.285204 0.050495733 -0.065476656
-0.36258453 -0.19635549 -0.00236331 0.15243393 -0.2615272 -0.06366203 -0.0213548 0.026973115
-0.29819852 0.28075457 0.08888744 0.3505338 -0.2597085 -0.015762484 0.13382447 0.22138493
-0.18380308 -0.1311362 -0.12503015 -0.18473352 -0.26742297 0.046388086 0.31777647 -0.4572181
-0.059320442 -0.4193517 0.10327563 0.1370695 -0.3569804 0.11310321 -0.09166041 -0.10387224
-0.2864357 -0.06358036 0.13898246 -0.1677482 -0.105949305 -0.25417826 -0.16089433 0.3024725
0.27944228 -0.15367803 0.3419442 0.12405422 0.13972314 -0.29878128 -0.08161314 0.3535349
0.27279845 0.19377574 -0.2286332 -0.052680153 0.13981088 0.17258182 -0.13936205 -0.23838285
-0.3002735 -0.3171305 -0.11705221 0.14292844 -0.15701322 0.10462549 -0.2620661 -0.012775278
-0.20864186 -0.2140524 0.2928963 0.09218311 0.37355098 0.121552095 0.005363044 0.2954248
-0.23578931 0.18151999 0.034465455 -0.04177998 -0.24513483 0.0069399695 -0.29006878 0.16934259
-0.18238294 -0.06199105 0.40007406 -0.009047519 -0.2889227 0.11377208 0.12511872 -0.24797449
-0.27227193 -0.37988082 -0.230392 0.032421328 -0.39587086 -0.3672893 0.119239084 -0.29069787
-0.011612689 0.08307372 0.32317007 -0.09761747 0.037544575 0.28802198 0.05456176 0.3266737
-0.07588507 0.36589232 -0.30758014 0.27762648 0.14409713 0.046721235 0.40715054 0.2263358
0.07395203 -0.0991168 0.38740563 0.08169474 0.16168961 -0.014919914 -0.11525495 -0.15701194
0.26329684 0.08991253 0.00213862 0.021423683 -0.14609866 -0.03366033 -0.19568706 0.103275076
0.19137107 -0.3607905 0.33668998 -0.11743821 0.31090224 0.31408003 0.11451521 0.30193
-0.27105457 -0.4525942 0.036746975 -0.21522623 -0.17484891 0.03191622 -0.2531888 0.0054075257
-0.1927738 0.1001768 0.031864684 -0.21245345 -0.10956455 -0.05633471 0.26428843 0.29651606
0.16986407 0.026522484 -0.0107036615 0.39609358 -0.20092528 -0.17612945 0.051177833 -0.23267213
00000000: bbb6 a2be 075b 263d fe69 3b3d 4e14 ac3c
00000010: 2120 3fbe 144c 1bbd c401 cabe 4cae 763c
00000020: b20f adbe c49b a53e 6838 273e fa21 2d3e
00000030: 5c6d 38be f6a2 2fbe bca7 7c3d 2e51 6abc
00000040: b083 aebb 0f7f ab3d 3216 2c3d 17ed 8cbe
00000050: 1a42 d23e c747 2ebe bc09 d93d b174 79be
00000060: 2ae4 b73e 26b3 3cbe 64f0 523e 0e6e 353e
00000070: 6d7f 98bd 8606 453c e606 84be 7f44 b6be
00000080: 2237 fe3d f0da 783e 455f 8dbe 4cef 3cbe
00000090: 2e50 96be b6c8 9fbe 3c01 e03d 6433 84bd
000000a0: 6ca4 b63e b2b0 953e 5b72 57be 96bf 9e3e
000000b0: 2fbf 7d3e 23fc b33e a8b7 a8bd 4bf8 203b
000000c0: 9c42 67be 46c1 03be 2d9f a13e 996e ab3e
000000d0: f18f ccbe 4ebf 1a3e 1f0a 1bbe c55e a7be
000000e0: bdef 003e 5bc5 f23d 3c2b 03be cd12 d23e
000000f0: 875e 55be 0ae5 623e d15b 813e ba1b 53be
00000100: 21dc 373e f8dc 25be 039b 3cbe 1251 373e
00000110: 7a02 af3e dde0 92be ae0c af3e 6b86 a1be
00000120: 8830 9f3d 2f44 9cbe 238f fdbd e0b2 8abe
00000130: d47f c23e 595e 64be b496 93be 1e08 27be
00000140: 0527 8f3e c4ea 283e f8e1 063e e220 933e
00000150: c421 19be aec3 7f3e a352 dabe 490e 82be
00000160: b892 4b3e 4727 69be 17f4 0c3e 6337 483e
00000170: cce7 543e 4206 923e 9dd4 4e3d a018 86bd
00000180: aea4 b9be 6a11 49be c3e1 1abb a417 1c3e
00000190: e5e6 85be 3d61 82bd 43f0 aebc b9f6 dc3c
000001a0: 7aad 98be 10bf 8f3e 9e0a b63d 2b79 b33e
000001b0: 83f8 84be 5320 81bc 4809 093e bbb2 623e
000001c0: e036 3cbe 9148 06be e707 00be c92a 3dbe
000001d0: aaeb 88be 6f01 3e3d 99b3 a23e 7e18 eabe
000001e0: fef9 72bd 44b5 d6be 2c82 d33d f25b 0c3e
000001f0: 23c6 b6be a8a2 e73d 74b8 bbbd f8ba d4bd
00000200: b3a7 92be 6b36 82bd 6b51 0e3e 2fc6 2bbe
00000210: f3fb d8bd a723 82be 7cc1 24be addd 9a3e
00000220: 0f13 8f3e c65d 1dbe 4f13 af3e 2410 fe3d
00000230: 9513 0f3e dcf9 98be ca24 a7bd 8702 b53e
00000240: 3dac 8b3e 266d 463e d21e 6abe 25c7 57bd
00000250: 952a 0f3e 4ab9 303e edb4 0ebe a21a 74be
00000260: 73bd 99be ee5e a2be 12b9 efbd d55b 123e
00000270: 13c8 20be e445 d63d 872d 86be 664f 51bc
00000280: 36a6 55be 8d30 5bbe 81f6 953e 80ca bc3d
00000290: 1342 bf3e 4ef0 f83d 79bc af3b eb41 973e
000002a0: c172 71be 60e0 393e a62b 0d3d 7c21 2bbd
000002b0: a004 7bbe af68 e33b e583 94be 2568 2d3e
000002c0: 98c2 3abe 54ea 7dbd 82d6 cc3e 0c3c 14bc
000002d0: aded 93be 5601 e93d 1f1f 003e 06ed 7dbe
000002e0: 3a67 8bbe bd7f c2be e1eb 6bbe 3acc 043d
000002f0: 96af cabe 580d bcbe 9f33 f43d 5ad6 94be
00000300: 2643 3ebc 8e22 aa3d 8c76 a53e abeb c7bd
00000310: 57c8 193d 9e77 933e 277c 5f3d c641 a73e
00000320: a269 9bbd 3d56 bb3e 257b 9dbe 0f25 8e3e
00000330: 338e 133e c45e 3f3d 0976 d03e 92c4 673e
00000340: 2974 973d c0fd cabd 085a c63e 924f a73d
00000350: f691 253e a872 74bc ca0a ecbd bdc7 20be
00000360: d8ce 863e 0f24 b83d 1728 0c3b b880 af3c
00000370: e39a 15be 6adf 09bd 3062 48be e281 d33d
00000380: c7f6 433e 88b9 b8be a162 ac3e 7283 f0bd
00000390: 942e 9f3e 19cf a03e f386 ea3d 9296 9a3e
000003a0: aac7 8abe 6dba e7be ff83 163d 4464 5cbe
000003b0: 980b 33be 95ba 023d f6a1 81be 9d31 b13b
000003c0: 7f66 45be 7e29 cd3d 8b84 023d 668d 59be
000003d0: 6163 e0bd 3abf 66bd d050 873e f4d0 973e
000003e0: d9f0 2d3e ae45 d93c 695e 2fbc c7cc ca3e
000003f0: 5bbf 4dbe 475b 34be d99f 513d 9a41 6ebe

encoder.convs.0.edge_mlp.0.bias f4 [128]
0.07889988 0.17928715 -0.24522592 0.045123644 -0.09252742 0.2456503 -0.035028163 -0.19554676
0.21528956 -0.14869295 -0.019445721 -0.06372276 0.18504646 -0.07256093 0.15980916 -0.21858291
0.029222608 0.3347724 -0.1973089 -0.06492855 0.029367395 0.0924844 -0.13803498 0.13322608
-0.10147468 0.030770559 0.34055215 0.3031188 -0.106986776 -0.17410314 -0.17846188 -0.05513935
0.02100741 0.12522118 -0.094204664 0.17969275 -0.031215245 0.09587038 0.34371468 0.05769364
0.009894435 -0.03768702 0.26122844 -0.31324854 -0.19423501 0.10334572 0.21373671 -0.36564338
-0.062187165 0.103454046 0.31563485 0.18250112 0.31429803 -0.055962324 -0.33457926 0.09193932
0.25356066 0.04533661 0.044845704 0.33664048 -0.33239472 0.060034662 0.0923499 0.06864499
-0.09603187 -0.14456321 0.21602099 0.0792881 0.1298466 0.03536373 -0.19504936 0.1598658
-0.12031977 -0.22873008 -0.17161842 -0.28194338 -0.25556856 -0.007857081 -0.34221166 0.25514516
-0.2915632 0.1374063 0.15435588 -0.12854317 0.14375915 0.34742615 -0.35579062 0.016980542
0.26519668 0.34472057 0.12823728 0.31848225 -0.18137616 0.35046056 0.09490473 -0.24500133
0.22584148 0.28785655 -0.29359674 0.18557969 0.13136825 0.2912175 -0.3438481 0.19888626
0.34077454 -0.08397656 0.16204995 -0.33649713 0.10013454 -0.24818115 -0.3113677 0.20772748
0.20052382 0.18213244 0.29792377 -0.07645392 -0.24221192 0.21875982 0.28988856 -0.27948564
-0.30549982 -0.25026292 -0.23892729 0.21593517 -0.32884035 0.108103566 0.064946 -0.2676733
00000000: 4396 a13d 0d97 373e 811c 7bbe 92d3 383d
00000010: 047f bdbd c18b 7b3e b179 0fbd 693d 48be
00000020: de74 5c3e f742 18be a24c 9fbc 1481 82bd
00000030: d27c 3d3e d39a 94bd 03a5 233e 33d4 5fbe
00000040: 4064 ef3c 4a67 ab3e 580b 4abe 42f9 84bd
00000050: e493 f03c 7668 bd3d 0b59 0dbe 6b6c 083e
00000060: f5d1 cfbd 8a12 fc3c da5c ae3e 6332 9b3e
00000070: e21b dbbd 1848 32be b6be 36be cdd9 61bd
00000080: bb17 ac3c fb39 003e 60ee c0bd 6001 383e
00000090: 1db7 ffbc b157 c43d 5ffb af3e 2b50 6c3d
000000a0: 451c 223c b45d 1abd bcbf 853e 1d62 a0be
000000b0: 8be5 46be eca6 d33d ccdd 5a3e 9c35 bbbe
000000c0: f8b7 7ebd b7df d33d e49a a13e 93e1 3a3e
000000d0: aceb a03e c038 65bd f94d abbe af4a bc3d
000000e0: b4d2 813e e2b2 393d 21b0 373d 245c ac3e
000000f0: a42f aabe e8e6 753d f221 bd3d bf95 8c3d
00000100: 5bac c4bd 6108 14be 9b34 5d3e cd61 a23d
00000110: 82f6 043e 8fd9 103d 05bb 47be dcb3 233e
00000120: 366a f6bd 3838 6abe bdbc 2fbe e25a 90be
00000130: e2d9 82be fcba 00bc 5e36 afbe 63a2 823e
00000140: c647 95be 3db4 0c3e 780f 1e3e d2a0 03be
00000150: 9935 133e d7e1 b13e 302a b6be c71a 8b3c
00000160: dcc7 873e 377f b03e a250 033e 1b10 a33e
00000170: acba 39be 916f b33e 695d c23d a1e1 7abe
00000180: fd42 673e ef61 933e 5052 96be 9a08 3e3e
00000190: 6685 063e 761a 953e dc0c b0be d7a8 4b3e
000001a0: 007a ae3e e7fb abbd 6cf0 253e 5a49 acbe
000001b0: 5613 cd3d 3323 7ebe 966b 9fbe 83b6 543e
000001c0: 1e56 4d3e ed80 3a3e 7789 983e df93 9cbd
000001d0: 6706 78be 9302 603e 466c 943e be18 8fbe
000001e0: 796a 9cbe 7622 80be 5ba9 74be 1c1e 5d3e
000001f0: c35d a8be 6765 dd3d 6902 853d 7a0c 89be

encoder.convs.0.edge_mlp.2.weight f4 [128, 128]
-0.07902223 0.07587019 -0.00043545684 -0.077287056 0.031164218 -0.09154863 -0.03579817 -0.009535433
-0.037106544 -0.07318905 -0.044827618 0.05741732 -0.06747944 0.06133571 0.16906077 0.08114909
0.0053821704 -0.073751934 -0.06853631 0.06705293 0.0906379 0.008867275 -0.057946995 -0.04993682
0.076860994 0.086181164 -0.01585963 0.03544358 -0.017499175 0.01729882 0.075611845 -0.048966676
0.011027999 -0.028143648 0.06541012 -0.051221572 -0.045170814 0.026603855 0.072753176 0.07453461
0.012106952 -0.043421153 0.04377742 -0.015019214 -0.05178464 0.04484952 -0.025390001 -0.028308313
0.015049653 0.05119428 -0.06726288 0.057736762 0.037597295 -0.053088695 -0.026066672 -0.07184491
-0.016731957 0.14989178 0.11856758 0.026886737 0.019728873 0.00045205423 0.0890226 -0.07687905
-0.08425882 0.08139833 0.056122016 0.022753948 0.037992872 -0.0045590163 0.07707767 -0.093309894
-0.04000466 -0.09493243 -0.033544943 0.11210882 -0.07907808 -0.07011227 -0.007320818 0.04936247
0.065317914 0.05728941 0.042893317 0.12869056 0.07937648 -0.04338867 -0.047581136 0.049290784
-0.02779615 -0.049015082 0.07851585 -0.03406361 0.035945896 0.09782372 0.18866576 0.012472334
0.025323898 0.0148279155 -0.044782314 -0.041919895 0.13895452 -0.080547474 0.025012717 -0.020571955
0.05836549 -0.053255744 0.12418183 -0.05699924 -0.03001288 0.09393473 0.031336702 0.08356705
-0.060346395 0.102398686 0.0067797867 0.10349487 -0.04883279 0.056331314 0.036083806 -0.07895152
0.024682933 -0.06878448 0.05598522 0.124355815 -0.01730074 -0.023793291 0.033113703 -0.006901849
-0.03658606 -0.046642385 0.035289705 0.046755098 0.066122405 0.09484038 0.09040559 -0.04097966
0.015375789 -0.055639446 0.08165619 -0.02422576 0.05953717 -0.11359893 -0.12611012 -0.027360436
0.022162978 0.0068956264 -0.054123852 0.08585001 0.019423187 -0.034745235 -0.073432356 0.023517951
0.024177346 0.09642298 -0.029855862 -0.041033104 0.11326019 -0.025710376 -0.08720093 0.02049664
0.032649677 0.021770125 0.045651138 0.062263846 0.08704167 0.06060096 0.05828681 0.114314325
-0.0414777 -0.09698996 -0.023204934 -0.031017113 0.13734457 0.036017675 -0.046939295 -0.035738066
-0.050734747 0.025722206 0.10143397 -0.0650795 0.020433884 0.009475131 0.08393556 0.008101428
-0.025702989 -0.026964558 -0.031360973 -0.03874351 -0.0393609 -0.028701883 0.0033112264 0.06648932
0.0004663443 -0.08444894 -0.084757 -0.10812229 -0.057652786 0.08862625 0.059359275 0.11713375
0.091332324 0.046445247 0.10156154 0.016046459 0.019212112 -0.05316132 -0.074588284 0.033736255
0.06392856 -0.022199944 0.10194633 -0.01373256 -0.120680764 0.09368296 -0.11106366 0.04523291
0.09142457 0.019937744 -0.0033386238 -0.094320856 0.116817795 0.0007334461 -0.019504428 -0.049526107
-0.028516145 -0.056242682 0.087490454 -0.097002774 -0.061804462 0.06667046 -0.010362088 -0.023562657
-0.093595624 -0.04716812 0.002352644 0.029248308 0.045503467 0.00887454 0.07993484 0.10248927
0.022926938 -0.064464584 0.012831503 0.00021640322 0.03447088 0.024811894 0.053357836 0.028621439
-0.11519419 -0.05358315 -0.013181306 0.061396528 -0.020275744 -0.032460287 0.06781842 -0.02970201
00000000: 68d6 a1bd d561 9b3d 074e e4b9 ad48 9ebd
00000010: 1a4c ff3c d97d bbbd 1aa1 12bd 813a 1cbc
00000020: 08fd 17bd 24e4 95bd 2a9d 37bd 6c2e 6b3d
00000030: a932 8abd 273b 7b3d 441e 2d3e 7e31 a63d
00000040: eb5c b03b 410b 97bd c45c 8cbd 0c53 893d
00000050: 5da0 b93d 0c48 113c d459 6dbd 8d8a 4cbd
00000060: 4c69 9d3d c07f b03d 0eec 81bc 4a2d 113d
00000070: 6e5a 8fbc 41b6 8d3c 62da 9a3d 4891 48bd
00000080: c8ae 343c 828d e6bc bef5 853d b6cd 51bd
00000090: 0805 39bd 54f0 d93c 9eff 943d 9aa5 983d
000000a0: 3d5c 463c 61da 31bd f44f 333d 2613 76bc
000000b0: 211c 54bd 21b4 373d b1fe cfbc d6e6 e7bc
000000c0: d292 763c 18b1 513d 1fc1 89bd 627d 6c3d
000000d0: 9fff 193d 8873 59bd c689 d5bc 6d23 93bd
000000e0: 7511 89bc 3b7d 193e 8fd3 f23d 9341 dc3c
000000f0: 729e a13c b101 ed39 7b51 b63d c372 9dbd
00000100: e38f acbd 2bb4 a63d 33e0 653d 7d66 ba3c
00000110: 6a9e 1b3d cd63 95bb e6da 9d3d 4219 bfbd
00000120: eddb 23bd ef6b c2bd 6c66 09bd 4f99 e53d
00000130: b0f3 a1bd 0697 8fbd 79e3 efbb 4d30 4a3d
00000140: 66c5 853d 4da8 6a3d e7b0 2f3d 75c7 033e
00000150: 2390 a23d 51b8 31bd 70e4 42bd 22e5 493d
00000160: c0b4 e3bc 0ac4 48bd ebcc a03d 4986 0bbd
00000170: 013c 133d cd57 c83d 9931 413e c358 4c3c
00000180: 1074 cf3c c9f0 723c a96d 37bd 32b4 2bbd
00000190: 184a 0e3e 13f6 a4bd 78e7 cc3c 8486 a8bc
000001a0: a710 6f3d b222 5abd 0b53 fe3d 0978 69bd
000001b0: 92dd f5bc da60 c03d ea5a 003d 3425 ab3d
000001c0: c82d 77bd 67b6 d13d f928 de3b 1ef5 d33d
000001d0: e404 48bd aabb 663d 9dcc 133d 56b1 a1bd
000001e0: dd33 ca3c e1de 8cbd c250 653d 43ae fe3d
000001f0: 48ba 8dbc 26ea c2bc 3ca2 073d e828 e2bb
00000200: 44db 15bd 160c 3fbd f08b 103d 4682 3f3d
00000210: 2f6b 873d ac3b c23d 9126 b93d 4ada 27bd
00000220: bcea 7b3c 30e6 63bd 5c3b a73d 1a75 c6bc
00000230: 3fdd 733d 8ea6 e8bd 0323 01be fe22 e0bc
00000240: 228f b53c b5f4 e13b f9b0 5dbd 21d2 af3d
00000250: 601d 9f3c 0551 0ebd b463 96bd b8a8 c03c
00000260: 920f c63c 6979 c53d 4894 f4bc 5412 28bd
00000270: f5f4 e73d 919e d2bc 6796 b2bd 92e8 a73c
00000280: abbb 053d 4357 b23c b0fc 3a3d 6008 7f3d
00000290: e742 b23d b638 783d 26be 6e3d a11d ea3d
000002a0: 85e4 29bd aca2 c6bd 4618 bebc 9a17 febc
000002b0: 0ea4 0c3e 4587 133d 6b43 40bd 1462 12bd
000002c0: 3dcf 4fbd 60b7 d23c 9dbc cf3d 6748 85bd
000002d0: f664 a73c 943d 1b3c 68e6 ab3d dabb 043c
000002e0: 138f d2bc c7e4 dcbc 5d74 00bd 84b1 1ebd
000002f0: e538 21bd 3620 ebbc 2901 593b 8d2b 883d
00000300: ac7f f439 91f3 acbd 1495 adbd 386f ddbd
00000310: 5425 6cbd ae81 b53d b622 733d d2e3 ef3d
00000320: 710c bb3d 5f3d 3e3d 7fff cf3d dd73 833c
00000330: b862 9d3c afbf 59bd bec1 98bd 072f 0a3d
00000340: faec 823d a8dc b5bc 3dc9 d03d 88fe 60bc
00000350: 7a27 f7bd dadc bf3d 5875 e3bd 2546 393d
00000360: ce3c bb3d 7b54 a33c d0cc 5abb 4b2b c1bd
00000370: 2b3e ef3d bc44 403a c0c7 9fbc e3db 4abd
00000380: b19a e9bc ba5e 66bd 322e b33d 64a9 c6bd
00000390: ad26 7dbd 868a 883d bfc5 29bc 7906 c1bc
000003a0: 10af bfbd 5c33 41bd d12e 1a3b 269a ef3c
000003b0: d861 3a3d 8566 113c e1b4 a33d e5e5 d13d
000003c0: 46d1 bb3c 0206 84bd 393b 523c 4cea 6239
000003d0: 5631 0d3d 5042 cb3c bf8d 5a3d 8277 ea3c
000003e0: eeea ebbd 017a 5bbd 68f6 57bc ed7a 7b3d
000003f0: 5119 a6bc 14f5 04bd 62e4 8a3d a151 f3bc

encoder.convs.0.edge_mlp.2.bias f4 [128]
0.030067397 -0.06428891 -0.0007635476 0.026854694 -0.031594146 0.030242106 -0.013296221 -0.07852321
-0.06365097 -0.0021985134 -0.06293986 0.072118945 0.030381098 0.08378839 -0.019660031 0.0609957
-0.06782332 0.038595144 0.033201966 0.0005675771 -0.041614607 -0.032031976 -0.02518532 0.071587004
0.02351648 -0.033528768 -0.040602554 0.00036425973 0.03076109 0.079325184 0.0495514 0.07806725
-0.035310417 0.019812584 0.06447979 0.0661193 0.011128874 0.06641528 -0.061262902 -0.07678789
0.021292487 0.05171959 0.050763164 -0.05379304 0.087783456 -0.07330405 0.059256434 -0.024951965
0.083989814 0.04056568 0.05228034 0.009887842 -0.097430944 -0.06882981 -0.065079376 -0.035214722
-0.025843373 0.015483541 -0.06804824 -0.072691955 -0.0055871396 -0.017174464 -0.018685134 -0.08319999
-0.07341748 -0.07695259 -0.04911567 -0.0064294483 -0.06092432 -0.08214443 -0.021545026 0.076490104
0.05149118 -0.018913118 -0.057101674 0.014949778 -0.08360986 -0.05284808 0.020162784 0.020243803
-0.060532987 -0.0061616297 0.008834616 -0.015926369 0.03287814 0.037958916 -0.049722638 -0.004739792
-0.08253408 -0.05707204 -0.089678645 -0.059389655 -0.061032817 0.008313942 -0.016012881 -0.00015046001
0.07247616 0.013550122 0.0027308369 0.044555034 -0.038382277 -0.0056010876 0.027787443 0.064574465
0.0627388 -0.068358034 0.0036619075 0.07498638 0.027012946 -0.07902157 0.058715984 -0.066412725
-0.06336292 -0.049340244 0.09225598 0.06662441 -0.023994053 0.030811485 0.008677164 -0.092489734
-0.04761986 -0.044422492 -0.00776834 -0.015760286 0.05805579 -0.047248323 -0.048710186 0.0035271763
00000000: e74f f63c e7a9 83bd d028 48ba 60fe db3c
00000010: dd68 01bd 4bbe f73c 65d8 59bc c7d0 a0bd
00000020: 715b 82bd ef14 10bb 9de6 80bd 19b3 933d
00000030: c8e1 f83c 3f99 ab3d 130e a1bc a1d6 793d
00000040: f4e6 8abd f115 1e3d c9fe 073d 74c9 143a
00000050: 1474 2abd f633 03bd 7251 cebc 359c 923d
00000060: a2a5 c03c 7655 09bd dd4e 26bd 1dfa be39
00000070: aefe fb3c 3e75 a23d 69f6 4a3d b9e1 9f3d
00000080: a8a1 10bd 004e a23c fb0d 843d 8e69 873d
00000090: e155 363c bc04 883d cfee 7abd f842 9dbd
000000a0: 956d ae3c ecd7 533d 09ed 4f3d 1756 5cbd
000000b0: d0c7 b33d 6f20 96bd e0b6 723d 1068 ccbc
000000c0: da02 ac3d 3328 263d e923 563d 9e00 223c
000000d0: e089 c7bd a5f6 8cbd 5648 85bd 503d 10bd
000000e0: 7bb5 d3bc aeae 7d3c e05c 8bbd 85df 94bd
000000f0: 5314 b7bb 76b1 8cbc 9111 99bc c264 aabd
00000100: e75b 96bd 5299 9dbd 832d 49bd 1fae d2bb
00000110: c88b 79bd 573b a8bd 327f b0bc d8a6 9c3d
00000120: 6ae8 523d afef 9abc 72e3 69bd eaef 743c
00000130: a53b abbd 3a77 58bd 6c2c a53c 55d6 a53c
00000140: 70f1 77bd 7fe7 c9bb 11bf 103c 0478 82bc
00000150: 3bab 063d cf7a 1b3d f7a9 4bbd 4250 9bbb
00000160: a107 a9bd 5fc4 69bd 70a9 b7bd 9142 73bd
00000170: 8cfd 79bd 3337 083c 722d 83bc cdc4 1db9
00000180: 626e 943d 5501 5e3c d7f7 323b 577f 363d
00000190: bc36 1dbd 5489 b7bb 7ea2 e33c 9e3f 843d
000001a0: 337d 803d 4cff 8bbd 9dfc 6f3b 7692 993d
000001b0: 414a dd3c 10d6 a1bd 2c80 703d 6503 88bd
000001c0: 6bc4 81bd ff18 4abd b4f0 bc3d 6172 883d
000001d0: 2d8f c4bc 5e68 fc3c aa2a 0e3c 426b bdbd
000001e0: 0b0d 43bd 5cf4 35bd 8f8d febb b71b 81bc
000001f0: e8cb 6d3d 7587 41bd 5584 47bd 3328 673b

encoder.convs.0.norm.weight f4 [128]
0.9573441 0.9556069 0.9733044 0.9749785 0.9792977 0.95852214 0.97233194 0.96811056
0.9711486 0.96137464 0.9746468 0.95292205 0.9757363 0.96120286 0.96184665 0.9739488
0.9763759 0.963966 0.9640858 0.95561564 1.0017822 0.9729356 0.96603686 0.972895
0.9678962 0.98999774 0.9441809 0.9564442 0.9717617 0.9754834 0.9732898 0.9838482
0.97639066 0.97172475 0.9769433 0.97180504 0.9812208 0.9768735 0.97069895 0.9663344
0.9771164 0.9785244 0.9804321 0.9887638 0.9735115 0.96581566 0.99444705 0.9668001
0.9806602 0.9655023 0.96328026 0.96755946 0.96682435 1.0008048 0.9608993 0.9652288
0.96649134 0.96972954 0.96457595 0.96731716 0.95799553 0.9690384 0.9733915 1.0331364
0.9697332 0.96649 0.9652033 0.9670928 0.9671948 0.9706482 0.9932615 0.9980785
0.9797891 0.984218 0.95308405 0.96782506 0.95939827 0.9560979 0.9660661 0.9894921
0.9974588 0.9637203 0.97430396 0.975602 0.97324324 0.9609154 0.96826154 0.9553229
0.9863905 1.0111936 0.96422845 0.9635128 0.9662616 0.96361107 0.96913064 0.94925535
0.9627923 0.95360154 1.003661 0.9701719 0.9654907 0.9701069 0.9774342 0.9838083
0.96934605 0.97469956 0.9697134 0.97960114 1.0071516 0.97307855 1.0035853 0.965626
0.97376144 0.9740278 0.96763176 0.9722506 0.97040045 0.9681637 0.96807456 0.96714765
0.9659195 0.9620572 0.9701652 0.97252536 0.96845436 0.98148197 0.99839145 0.9534202
00000000: 8114 753f a7a2 743f 7a2a 793f 3198 793f
00000010: 41b3 7a3f b561 753f bfea 783f 18d6 773f
00000020: 329d 783f a61c 763f 7482 793f b3f2 733f
00000030: dbc9 793f 6411 763f 953b 763f b554 793f
00000040: c5f3 793f 7ac6 763f 54ce 763f 3aa3 743f
00000050: 663a 803f 4f12 793f 314e 773f a60f 793f
00000060: 0cc8 773f 7e70 7d3f d7b5 713f 87d9 743f
00000070: 60c5 783f 48b9 793f 8529 793f 7add 7b3f
00000080: bdf4 793f f4c2 783f f518 7a3f 37c8 783f
00000090: 4931 7b3f 6214 7a3f ba7f 783f b161 773f
000000a0: 4d24 7a3f 9380 7a3f 99fd 7a3f a01f 7d3f
000000b0: 0d38 793f b23f 773f 1594 7e3f 3680 773f
000000c0: 8c0c 7b3f 292b 773f 8999 763f fab1 773f
000000d0: cd81 773f 5f1a 803f 7ffd 753f 3c19 773f
000000e0: fa6b 773f 3240 783f 73ee 763f 19a2 773f
000000f0: 323f 753f e712 783f 2f30 793f d03d 843f
00000100: 6f40 783f e36b 773f 9017 773f 6593 773f
00000110: 149a 773f 677c 783f 6346 7e3f 1382 7f3f
00000120: 75d3 7a3f b6f5 7b3f 51fd 733f 62c3 773f
00000130: 209b 753f d5c2 743f 1c50 773f 5b4f 7d3f
00000140: 7659 7f3f 60b6 763f fc6b 793f 0dc1 793f
00000150: 7826 793f 8dfe 753f fddf 773f 0b90 743f
00000160: 1684 7c3f cb6e 813f add7 763f c6a8 763f
00000170: ec5c 773f 37af 763f f218 783f 6602 733f
00000180: 8e79 763f 3b1f 743f f777 803f 305d 783f
00000190: 662a 773f ed58 783f 2139 7a3f dcda 7b3f
000001a0: 1027 783f e985 793f 233f 783f 24c7 7a3f
000001b0: 58ea 803f ad1b 793f 7c75 803f 4433 773f
000001c0: 6e48 793f e359 793f b7b6 773f 6ae5 783f
000001d0: 2a6c 783f 94d9 773f bcd3 773f fd96 773f
000001e0: 8046 773f 6149 763f bf5c 783f 6cf7 783f
000001f0: a0ec 773f 6742 7b3f 9596 7f3f 5913 743f

encoder.convs.0.norm.bias f4 [128]
-0.03313946 -0.051706523 0.0028632642 -0.0025499968 0.009251499 -0.0036013164 -0.002666815 0.013494055
0.017001078 0.0127788205 5.1057605e-06 -0.030287676 0.012681353 0.040760234 -0.028747058 -0.0391539
0.0061439667 0.013105839 -0.009027523 -0.056558907 0.020367797 -0.036106657 0.025756061 -0.0047346405
-0.015434679 -0.0013137055 -0.025739638 0.013643196 -0.015242095 0.027817117 -0.015823854 -0.0074223545
-0.027887652 -0.029257063 -0.032778498 -0.02388084 -0.00424687 0.012767617 -0.0046049864 0.011100043
0.01680672 -0.017993944 0.003652225 0.018046083 0.0041964976 0.0045912527 0.014363128 0.07203822
-0.0074961213 -0.01930378 0.0070663067 -0.014251766 -0.021188678 -0.00034597257 0.0054139667 0.004027701
-0.022150258 -0.004370235 0.027708488 -0.0009933334 0.019861858 -0.018688822 -0.035309467 -0.0052993586
0.023080256 -0.04543747 0.06801687 0.0400923 0.0063482514 -0.0076092216 0.006950799 -0.01470167
0.035236385 -0.0169947 -0.005394767 0.012663112 0.000772837 0.049549837 -0.025024055 -0.007744103
-0.0031387259 -0.014156949 -0.016276486 -0.008116389 0.03971484 -0.021616433 -0.0043683453 -0.023858497
-0.017132308 -0.007824109 -0.0066534034 -0.03935293 -0.0073499354 -0.009823838 -0.013500129 -0.00249317
-0.027692081 -0.05481812 0.008679341 -0.019233298 0.01917137 0.012124221 -0.0020604827 -0.02872047
-0.018443618 -0.024118714 -0.0062982254 -0.02753323 -0.010764038 -0.047620974 0.0043062377 -0.054489385
0.0060947794 0.0016525969 0.044592828 -0.034162976 -0.02182208 0.0058051865 0.021520797 -0.009407946
-0.004848629 -0.044512 -0.04587475 0.029145276 -0.013477756 -0.013587558 -0.014568236 -0.031304944
00000000: 3ebd 07bd 38ca 53bd 9aa5 3b3b d91d 27bb
00000010: 9993 173c 1004 6cbb bbc5 2ebb 2b16 5d3c
00000020: d845 8b3c 425e 513c 2652 ab36 dc1d f8bc
00000030: 73c5 4f3c 34f4 263d f37e ebbc d75f 20bd
00000040: 5453 c93b dfb9 563c 2de8 13bc 50aa 67bd
00000050: 5eda a63c 93e4 13bd 60fe d23c 0b25 9bbb
00000060: bce1 7cbc a430 acba efdb d2bc b687 5f3c
00000070: fbb9 79bc b9e0 e33c 07a1 81bc 3937 f3bb
00000080: a574 e4bc 82ac efbc bf42 06bd c0a1 c3bc
00000090: 5429 8bbb 442f 513c 6de5 96bb f4dc 353c
000000a0: 3fae 893c 0968 93bc 2b5a 6f3b 61d5 933c
000000b0: c682 893b 3872 963b 5353 6b3c c688 933d
000000c0: 06a2 f5bb f622 9ebc 7a8c e73b 3d80 69bc
000000d0: e193 adbc a763 b5b9 a567 b13b cefa 833b
000000e0: 7574 b5bc 3034 8fbb e9fc e23c bd32 82ba
000000f0: 56b5 a23c 4d19 99bc a9a0 10bd 3ea6 adbb
00000100: ce12 bd3c a41c 3abd 6e4c 8b3d d337 243d
00000110: fe04 d03b c756 f9bb 87c3 e33b 46df 70bc
00000120: 0754 103d 7838 8bbc 96c6 b0bb f178 4f3c
00000130: 3798 4a3a c5f4 4a3d 3fff ccbc 3fc2 fdbb
00000140: 15b3 4dbb 8cf2 67bc 4456 85bc 9afa 04bc
00000150: 07ac 223d f214 b1bc 5624 8fbb e572 c3bc
00000160: 0e59 8cbc b130 00bc cb04 dabb 8a30 21bd
00000170: bad7 f0bb 2af4 20bc a52f 5dbc 7464 23bb
00000180: 81da e2bc f788 60bd cb33 0e3c 268f 9dbc
00000190: 470d 9d3c aba4 463c 2a09 07bb 3147 ebbc
000001a0: 1217 97bc 9c94 c5bc 5861 cebb 5e8d e1bc
000001b0: a65b 30bc 360e 43bd 571b 8d3b 4330 5fbd
000001c0: b7b6 c73b f39b d83a f8a6 363d 7aee 0bbd
000001d0: 38c4 b2bc 6f39 be3b 624c b03c c923 1abc
000001e0: 3fe1 9ebb 3752 36bd 29e7 3bbd 13c2 ee3c
000001f0: ced1 5cbc 599e 5ebc 9caf 6ebc 9d39 00bd

encoder.convs.0.norm.mean_scale f4 [128]
0.97177595 1.0426327 0.9794155 0.94781506 0.96487486 1.0104522 0.96169406 0.9599741
1.0013088 0.9880482 0.968958 0.94381577 0.9959318 1.0631285 1.0004689 0.949774
0.98379964 0.9746324 0.99511623 1.040832 0.9563783 0.9874275 1.0137453 0.93881494
0.9540405 0.9371112 0.96474177 1.0049781 0.94597405 1.005942 1.0063196 0.92286867
1.0080123 0.9442697 0.98692477 1.0308696 0.94652224 0.9572478 0.9702338 0.9465754
0.98626274 0.95182705 0.9461201 0.9881892 0.9816025 0.9744018 0.9741198 0.9634067
0.9757988 0.9615678 0.98113555 0.9442317 0.9724656 0.94600064 0.9386273 0.9886323
0.98136705 0.95049506 0.9859554 0.9993045 1.0143934 0.97524923 1.0242597 0.9325069
1.0147965 0.99899614 0.9497594 0.9412969 0.9714226 0.96264005 0.9847758 1.0205479
0.9963813 1.010524 0.9837971 0.95980775 0.9855183 0.9770771 0.9724529 0.9972943
0.98469466 0.9454257 0.97983307 1.0068485 1.0184071 0.9963263 0.9867334 0.97116446
0.91552544 0.94686544 1.0169795 0.97556704 0.95076 1.0043179 0.9675844 1.0408912
1.0243086 0.92777663 0.96733737 0.9618818 0.9747798 0.9684871 0.98749405 1.021083
0.9827131 0.9879802 0.97845715 0.9658043 1.0008649 0.9494289 0.9844773 0.9431358
0.95834875 0.9628342 0.9398159 1.0274452 0.977193 0.97261506 1.0097958 0.9685677
0.9957044 1.0257567 1.0330521 0.9801501 0.99467397 0.95237935 0.9371771 1.0088161
00000000: 4fc6 783f fd74 853f f9ba 7a3f 02a4 723f
00000010: 0a02 773f 7f56 813f 9531 763f ddc0 753f
00000020: e32a 803f baf0 7c3f a20d 783f e99d 713f
00000030: 63f5 7e3f 9814 883f 5d0f 803f 6424 733f
00000040: 4bda 7b3f 8281 793f f0bf 7e3f fc39 853f
00000050: 35d5 743f 0cc8 7c3f 68c2 813f 2d56 703f
00000060: 003c 743f 85e6 6f3f 51f9 763f 1fa3 803f
00000070: 5b2b 723f b5c2 803f 15cf 803f 1f41 6c3f
00000080: 8c06 813f a9bb 713f 1aa7 7c3f 89f3 833f
00000090: 484f 723f 310e 753f 3e61 783f c452 723f
000000a0: b77b 7c3f f0aa 733f ed34 723f f8f9 7c3f
000000b0: 4d4a 7b3f 6572 793f ea5f 793f d2a1 763f
000000c0: f3cd 793f 4f29 763f b32b 7b3f 2bb9 713f
000000d0: 81f3 783f 192d 723f e149 703f 0217 7d3f
000000e0: df3a 7b3f a553 733f 9367 7c3f 6bd2 7f3f
000000f0: a5d7 813f efa9 793f f11a 833f c6b8 6e3f
00000100: dae4 813f 36be 7f3f 6f23 733f d5f8 703f
00000110: 27af 783f 946f 763f 441a 7c3f 50a1 823f
00000120: d812 7f3f da58 813f 20da 7b3f f6b5 753f
00000130: ed4a 7c3f ba21 7a3f acf2 783f ae4e 7f3f
00000140: f314 7c3f 6b07 723f 57d6 7a3f 69e0 803f
00000150: 2a5b 823f 3e0f 7f3f 8f9a 7c3f 3c9e 783f
00000160: e05f 6a3f c665 723f 622c 823f c3be 793f
00000170: 0265 733f 7d8d 803f 9cb3 773f ec3b 853f
00000180: 8b1c 833f c582 6d3f 6ca3 773f e33d 763f
00000190: 2b8b 793f c5ee 773f 69cc 7c3f d9b2 823f
000001a0: 1693 7b3f 45ec 7c3f 2b7c 7a3f f33e 773f
000001b0: 571c 803f c60d 733f b406 7c3f 5971 713f
000001c0: 5856 753f 4d7c 763f c697 703f 5383 833f
000001d0: 5229 7a3f 4dfd 783f fd40 813f 0ef4 773f
000001e0: 7ce6 7e3f ff4b 833f 0d3b 843f 1eeb 7a3f
000001f0: f4a2 7e3f 22cf 733f d7ea 6f3f e320 813f

encoder.convs.1.node_mlp.weight f4 [128, 256]
-0.016945997 -0.0038744868 -0.023948247 0.03659003 0.032482468 -0.011602632 -0.00853315 0.06863941
0.00014274205 -0.018783914 -0.038954124 0.037674207 -0.038963 0.021914998 -0.028217165 0.023093006
0.028828427 0.04509994 -0.0015731137 -0.036243636 0.027090225 -0.02351891 0.022644907 -0.0147619955
-0.003614642 0.043616086 -0.054374088 0.056607224 0.01807156 -0.038107853 0.052863874 -0.038007885
-0.05027549 -0.019256884 -0.0073186364 -0.05039698 -5.138787e-05 0.032253657 -0.054864835 0.034923438
0.01321774 0.048984036 0.058780905 -0.0055491137 -0.017514197 -0.061486002 -0.0069725835 0.021496613
0.026094101 0.047882386 0.022745818 -0.013193371 0.011456859 0.015088203 0.043795742 0.042969212
-0.030019222 -0.034643546 0.005411225 0.0025623187 -0.06250167 0.045996692 0.039457604 0.019122228
0.026947564 0.054412536 -0.00986008 -0.009713885 0.013904012 0.024305325 -0.002517508 0.019010998
-0.016921643 -0.052328303 0.013353374 0.030680306 -0.00077737804 -0.05729147 -0.009679962 -0.02775202
0.015108256 0.039877012 -0.040233683 -0.0012641775 0.0128395995 -0.037082978 -0.020319693 0.0021942395
0.012255839 -0.009826875 0.009619146 0.018029364 -0.047914058 -0.01351345 0.013514135 0.040256355
0.0116139855 -0.027342547 -0.0492309 0.015301439 0.025988847 -0.007995511 0.074933976 0.002154476
-0.05163059 0.004922071 -0.0028086174 -0.022535563 0.022804862 -0.022381844 -0.044622313 0.03430865
0.040778354 -0.039310876 0.012015535 0.02028613 -0.028433736 0.002230635 -0.019295894 -0.010356141
-0.04723736 0.060680185 0.060516667 0.03646978 -0.0072058854 -0.0146042975 0.0072935387 0.02812805
-0.096762985 0.015854388 -0.07620844 0.038406514 -0.048552092 0.029554678 -0.07611544 0.0028076172
0.08574872 -0.05243873 -0.07095241 0.06964437 0.10897273 -0.07535308 0.09069148 -0.0050112107
0.098472744 -0.017728455 0.11507856 0.0148678385 -0.105625845 -0.028412817 0.02413662 0.116880596
0.067208976 -0.081326194 -0.017824532 -0.13375029 0.108304344 0.056524515 -0.083060585 -0.01509364
-0.055889085 0.043795858 -0.011664217 0.07692223 0.034139134 0.10414128 -0.08316455 -0.008508855
-0.061786905 0.113818936 -0.09265657 0.00024231736 -0.03874528 -0.04473363 0.05975125 -0.01970255
-0.031683914 0.06120793 -0.07059027 -0.0699867 -0.010681404 0.0039366763 0.013160027 -0.08910648
-0.016331399 0.041390155 -0.0012756271 -0.097101204 -0.07554676 -0.004055746 -0.081327856 0.05384895
0.05232283 -0.11560925 -0.081132695 0.01742657 0.0739474 -0.03574623 0.09732511 0.06533275
0.13027012 0.03560721 -0.012390367 0.01365469 -0.049708094 0.0020248245 0.0044850972 -0.037854135
-0.0003983072 -0.06517923 -0.021794664 -0.029759401 0.044088002 0.0072693964 0.08084646 0.0070356578
0.02625032 -0.014287592 -0.058355782 0.01781541 0.015195184 0.053336456 -0.049174484 -0.021413269
0.047931395 -0.050605685 -0.09828446 0.100697435 0.070552126 -0.016255463 0.06988561 -0.067677006
-0.07934195 0.012618354 -0.039844584 -0.023596862 0.047480553 0.02604148 0.04550984 0.014229369
-0.03877275 -0.042571973 -0.05638007 0.07675316 0.013085507 0.0682517 -0.05663348 0.0579321
-0.07277394 -0.06991398 0.062458906 -0.048156146 -0.09016529 -0.084754564 -0.10512692 0.028219238
00000000: 55d2 8abc 1aeb 7dbb 1d2f c4bc 6ddf 153d
00000010: 560c 053d f718 3ebc a0ce 0bbc d292 8c3d
00000020: 07ad 1539 b9e0 99bc 5c8e 1fbd 4550 1a3d
00000030: ab97 1fbd 1587 b33c af27 e7bc 8b2d bd3c
00000040: 9829 ec3c b7ba 383d f030 ceba 3574 14bd
00000050: 52ec dd3c bbaa c0bc d081 b93c 4cdc 71bc
00000060: a1e3 6cbb c8a6 323d 5db7 5ebd fadc 673d
00000070: cf0a 943c fb16 1cbd ca87 583d 28ae 1bbd
00000080: aced 4dbd 9dc0 9dbc 2cd1 efbb 106d 4ebd
00000090: 4e89 57b8 691c 043d f3b9 60bd e10b 0f3d
000000a0: 388f 583c 7ca3 483d 3fc4 703d 57d5 b5bb
000000b0: ef79 8fbc bfd8 7bbd 457a e4bb aa19 b03c
000000c0: 4cc3 d53c 5220 443d 7055 ba3c 0229 58bc
000000d0: 8db5 3b3c 8334 773c 2a63 333d 7c00 303d
000000e0: dfea f5bc 64e6 0dbd a550 b13b 93ec 273b
000000f0: e000 80bd 0767 3c3d 4c9e 213d 38a6 9c3c
00000100: 23c1 dc3c aedf 5e3d 2c8c 21bc fd26 1fbc
00000110: a7cd 633c f61b c73c c7fc 24bb f4bc 9b3c
00000120: 429f 8abc 3456 56bd 1cc8 5a3c 4455 fb3c
00000130: f5c8 4bba 76aa 6abd b498 1ebc 3458 e3bc
00000140: 9e88 773c 1456 233d 13cc 24bd c2b2 a5ba
00000150: 2f5d 523c 52e4 17bd 7c75 a6bc 3bcd 0f3b
00000160: b7cc 483c e700 21bc 9f99 1d3c 51b2 933c
00000170: 8841 44bd 8467 5dbc 646a 5d3c d9e3 243d
00000180: 9648 3e3c 7afd dfbc 57a6 49bd e3b2 7a3c
00000190: 90e6 d43c 9bff 02bc fc76 993d 1c32 0d3b
000001a0: 997a 53bd 5349 a13b c810 38bb 809c b8bc
000001b0: 43d1 ba3c 215a b7bc e3c5 36bd 3a87 0c3d
000001c0: 3407 273d 7104 21bd cedc 443c 192f a63c
000001d0: deed e8bc d82f 123b 6c12 9ebc ceac 29bc
000001e0: f67b 41bd c98b 783d 53e0 773d 5661 153d
000001f0: 591f ecbb dd46 6fbc a3fe ee3b cc6c e63c
00000200: ac2b c6bd 10e1 813c 2c13 9cbd 2650 1d3d
00000210: 8fde 46bd a71c f23c 69e2 9bbd 0000 383b
00000220: 069d af3d fec9 56bd 7f4f 91bd b5a1 8e3d
00000230: 182d df3d b752 9abd 74bc b93d 1535 a4bb
00000240: 14ac c93d 443b 91bc 4fae eb3d 3c98 733c
00000250: 5d52 d8bd ffc1 e8bc 29ba c53c 185f ef3d
00000260: dca4 893d 598e a6bd c104 92bc d6f5 08be
00000270: abce dd3d 4086 673d ab1b aabd 514b 77bc
00000280: f4eb 64bd 4963 333d 461b 3fbc 6789 9d3d
00000290: 7ad5 0b3d 0648 d53d 2d52 aabd b968 0bbc
000002a0: 4414 7dbd e719 e93d bac2 bdbd 9216 7e39
000002b0: 5fb3 1ebd 9c3a 37bd babd 743d 3e67 a1bc
000002c0: fec6 01bd 2bb5 7a3d a291 90bd 3055 8fbd
000002d0: 0e01 2fbc 3cff 803b 279d 573c 757d b6bd
000002e0: 6dc9 85bc b988 293d f132 a7ba ffdc c6bd
000002f0: 42b8 9abd 10e6 84bb 388f a6bd b790 5c3d
00000300: 7750 563d 8bc4 ecbd e628 a6bd 2bc2 8e3c
00000310: bc71 973d a46a 12bd 6352 c73d 2dcd 853d
00000320: 8865 053e ded8 113d f700 4bbc ecb7 5f3c
00000330: b79a 4bbd ebb2 043b b9f7 923b f00c 1bbd
00000340: e3d3 d0b9 b07c 85bd b98a b2bc fdc9 f3bc
00000350: 9f95 343d 1e34 ee3b d492 a53d 608b e63b
00000360: e90a d73c 8116 6abc 7906 6fbd 9ff1 913c
00000370: 39f5 783c 5477 5a3d 2f6b 49bd e16a afbc
00000380: b653 443d e847 4fbd 5d49 c9bd 753a ce3d
00000390: a27d 903d 2d2a 85bc 3020 8f3d 3e9a 8abd
000003a0: 087e a2bd 36bd 4e3c 1334 23bd 354e c1bc
000003b0: f87a 423d f154 d53c 8768 3a3d 4d22 693c
000003c0: 2dd0 1ebd f35f 2ebd caee 66bd c330 9d3d
000003d0: 9864 563c 8cc7 8b3d 82f8 67bd 364a 6d3d
000003e0: 810a 95bd 102f 8fbd e9d4 7f3d 613f 45bd
000003f0: 94a8 b8bd cd93 adbd c84c d7bd 082c e73c

encoder.convs.1.node_mlp.bias f4 [128]
-0.024455564 0.03908091 -0.025502758 0.027189149 0.0037741824 -0.040325206 0.032451548 -0.030978926
0.049930062 0.009196729 0.0044577043 -0.052520968 0.047793865 -0.060746923 0.046183966 0.0015367331
0.11226316 -0.040180612 0.011510308 -0.056490198 -0.053561 -0.03051978 -0.05061326 0.025473377
-0.051233128 0.03824315 -0.018948967 0.059509024 -0.07021014 -0.00645199 -0.08466174 -0.043462
0.004361116 -0.01382393 0.008337089 -0.037495557 -0.0032626088 0.03447832 0.013414617 0.060176115
-0.01163892 0.02135087 0.03997507 -0.03786475 0.014686206 0.0799143 0.001803186 0.056059565
0.03028319 -0.0077365343 0.06310003 -0.012773985 -0.009841713 -0.033246152 0.011079867 -0.00369543
0.04929071 0.020048903 0.046505973 0.042406864 0.04144275 -0.05054359 -0.009088719 0.0730055
-0.036887605 -0.04010107 -0.0644373 0.044428058 -0.04634665 -0.028001186 -0.032930497 -0.01811484
0.025640108 0.0015396544 0.0070433496 -0.00031183608 0.019307781 -0.05124788 -0.04197028 -0.011482226
0.03387228 0.057656262 0.0068199895 0.052629564 -0.03393496 -0.03152842 0.016848547 0.016598748
-0.039190114 -0.03698649 0.04999107 0.0069335815 -0.03373445 0.018474841 -0.0036465244 -0.021857278
-0.016388807 -0.015207849 0.09559781 -0.057563473 -0.02341328 0.09437284 -0.022075042 0.06059487
-0.028275022 0.012681353 -0.06621275 0.046845093 -0.05147645 -0.0025923715 0.06077309 -0.0608269
0.010915457 -0.04157749 0.05993842 0.05170448 0.07190756 -0.0584967 0.04945909 0.06226002
-0.033287175 -0.05913994 -0.028167125 0.069389805 0.027989116 -0.05410121 0.0053660143 0.060846638
00000000: 0957 c8bc 4e13 203d 29eb d0bc c7bb de3c
00000010: 4658 773b 0b2c 25bd eaeb 043d 84c7 fdbc
00000020: 7783 4c3d e1ad 163c ef11 923b 3a20 57bd
00000030: 80c3 433d c4d1 78bd 662b 3d3d 356c c93a
00000040: 3aea e53d 6d94 24bd bb95 3c3c 4462 67bd
00000050: c762 5bbd 9e04 fabc da4f 4fbd 8bad d03c
00000060: d4d9 51bd d9a4 1c3d dd3a 9bbc bcbf 733d
00000070: 55ca 8fbd 376b d3bb 2263 adbd 3605 32bd
00000080: b1e7 8e3b c47d 62bc 4998 083c f194 19bd
00000090: 7ed1 55bb 2439 0d3d fbc8 5b3c 3b7b 763d
000000a0: 2bb1 3ebc 05e8 ae3c e6bc 233d 1118 1bbd
000000b0: 6a9e 703c 1caa a33d e258 ec3a b79e 653d
000000c0: 7414 f83c c182 fdbb 973a 813d fa49 51bc
000000d0: 233f 21bc 1e2d 08bd 5588 353c 072f 72bb
000000e0: 0ee5 493d 993d a43c 0c7d 3e3d d2b2 2d3d
000000f0: dfbf 293d cc06 4fbd dae8 14bc e883 953d
00000100: 7517 17bd 0541 24bd b4f7 83bd 32fa 353d
00000110: fcd5 3dbd be62 e5bc 21e2 06bd 9365 94bc
00000120: 340b d23c 3bce c93a e6cb e63b ee7d a3b9
00000130: 5a2b 9e3c 4ce9 51bd 07e9 2bbd f21f 3cbc
00000140: a9bd 0a3d f928 6c3d 387a df3b 1992 573d
00000150: 62ff 0abd f223 01bd f705 8a3c 19fa 873c
00000160: d085 20bd 257f 17bd 70c3 4c3d 1933 e33b
00000170: 222d 0abd 8d58 973c 87fa 6ebb 090e b3bc
00000180: d241 86bc 582a 79bc c9c8 c33d adc7 6bbd
00000190: 35cd bfbc 8c46 c13d b8d6 b4bc 5432 783d
000001a0: 05a1 e7bc 73c5 4f3c 8d9a 87bd a4e0 3f3d
000001b0: f8d8 52bd c7e4 29bb 34ed 783d a125 79bd
000001c0: bfd6 323c 284d 2abd fd81 753d 14c8 533d
000001d0: 4544 933d 3c9a 6fbd 9d95 4a3d 5d04 7f3d
000001e0: 2258 08bd b93c 72bd bebe e6bc 3e1c 8e3d
000001f0: 6e49 e53c 3b99 5dbd 64d5 af3b 533a 793d
