checkpoints/model_D_epoch_9.pth (torch, 552410 bytes, 27 tensors)

encoder.node_embedding.weight f4 [1, 128]
000000 d0 ad f1 3f c2 ed ba 3f 62 68 5e 3f 75 6f 04 c0
       1.8881168 1.4603808 0.86878026 -2.0693028
000010 94 93 27 3f 75 71 9b bf ec d2 14 bd 75 39 ca bf
       0.6545956 -1.2143999 -0.036333963 -1.5798784
000020 63 8b 3c bf 6f 6d cf 3f 05 b0 c0 be f4 fb af bf
       -0.7365019 1.6205271 -0.37634292 -1.3748765
000030 58 20 37 bf 05 ba 09 bf b1 a7 3d bf 96 34 3d 3f
       -0.7153373 -0.5379947 -0.74084 0.73908365
000040 91 f8 cd 3f b9 b2 25 be 8d 3d f6 be bb ea db 3e
       1.6091481 -0.16181459 -0.48093835 0.42952523
000050 6d 21 39 bf 47 61 86 3f d3 da 49 3f 4b f4 d4 3f
       -0.7231663 1.0498437 0.78849524 1.6637052
000060 bf c0 a0 3f ce e5 a2 3f 78 d7 18 3f a1 0a a8 3f
       1.2558821 1.2726381 0.5970378 1.3128244
000070 68 21 58 be 8e a8 08 3d 43 91 69 be 78 aa 55 3f
       -0.21106493 0.03336387 -0.22809319 0.8346324
000080 da e7 ad bf 5e e0 57 bf c1 81 5e be 7d 46 d9 3f
       -1.358638 -0.8432673 -0.21729185 1.6974636
000090 cf 90 97 3e 79 0d d2 be fd 08 8c 3e be 86 3e bf
       0.29602668 -0.41025904 0.27350608 -0.7442435
0000a0 17 46 c3 bf 3d b8 78 3f c5 0d 5c bf 4a 79 19 bf
       -1.5255765 0.97156125 -0.8595851 -0.599507
0000b0 bb d4 9e bf d9 34 06 40 f1 0c 9b bf 41 3c f6 be
       -1.240867 2.0969756 -1.2113324 -0.48092845
0000c0 1c c5 66 bf fa 33 23 bf 93 c7 a9 3d 51 16 02 3f
       -0.90144515 -0.63751185 0.08290019 0.508153
0000d0 e3 2b f2 be 94 3e 95 3f 75 2a 49 bf ad 4f 34 bf
       -0.47299108 1.1659722 -0.7858041 -0.70434076
0000e0 69 48 b1 bf 96 a9 e8 3c e3 0d 51 bd 27 d4 2a 3f
       -1.3850223 0.028401177 -0.051038634 0.6672997
0000f0 c6 0d a8 bd fb 07 e9 3f 94 73 95 bf 83 56 ae 3f
       -0.08205752 1.820556 -1.1675897 1.3620151
000100 27 0e b4 3f c8 a0 56 3f b6 e7 0b 40 48 e9 00 3f
       1.4066819 0.8383908 2.1860175 0.5035596
000110 d7 67 a4 3e f1 af 3d be 2a d5 82 bf 79 04 9f 3f
       0.32110474 -0.18524148 -1.0221303 1.242324
000120 29 31 26 be 72 91 fb 3e f5 eb 3c 3d a2 52 ce 3e
       -0.1622969 0.49134403 0.046123464 0.4029742
000130 a8 60 11 3f 5a 8f 1f bf 92 1f 0b c0 51 09 39 bf
       0.5678811 -0.6232811 -2.173802 -0.7227984
000140 34 20 92 3b 92 bf a3 be b1 1a a9 bf 95 55 12 bf
       0.0044594053 -0.31982094 -1.321127 -0.5716184
000150 61 04 06 3f 5e 92 02 3f d3 35 8f 3f d2 2d 15 3d
       0.5235043 0.5100459 1.1188301 0.03642065
000160 f3 60 36 3f f9 0f ea be da fb 83 bf ce 75 17 3f
       0.7124168 -0.4571531 -1.0311234 0.5916413
000170 5f bb d7 bf ee 31 50 bf 2b 55 a7 3f 6a fc ee 3e
       -1.6854056 -0.81326187 1.3072866 0.46676952
000180 78 fd 1e c0 33 53 ec 3e 63 47 45 3f a0 ad 4a 3c
       -2.4842205 0.46157226 0.7706205 0.012370497
000190 bc 4e 1e 3f 91 30 12 3f 0f 11 84 3f 22 b9 dd be
       0.6183889 0.57105356 1.0317706 -0.43305308
0001a0 bd cf 27 be ab 6c 3c 3f 37 e0 c5 3e 19 7f 18 3e
       -0.1638784 0.73603314 0.38647625 0.14892234
0001b0 2f 90 7b 3e 61 26 a0 3f d3 7f cc ba 13 19 95 be
       0.2456672 1.2511712 -0.001560206 -0.29120693
0001c0 a1 bc b7 bf d6 d6 b7 bd 7d 91 13 bf 3e 77 e8 3e
       -1.435444 -0.089765236 -0.5764387 0.45403475
0001d0 0a 2f 32 3f 02 d2 b3 3d 97 57 bb be c9 ef 02 3f
       0.69603026 0.0878029 -0.36590263 0.51147133
0001e0 90 8e 93 b6 cf f8 51 3e d7 e0 f2 3d 23 fd 3d 3f
       -4.397538e-06 0.20505069 0.11859291 0.7421438
0001f0 58 1b 8b 3f 41 8d a7 3e 1f 29 32 3f 10 c9 c9 3e
       1.086772 0.32724956 0.69593996 0.3941121

encoder.convs.0.node_mlp.weight f4 [128, 256]
000000 71 31 65 3d 95 6e 03 bc 23 8e 6a 3d aa 90 75 3c
       0.055955354 -0.00802197 0.05726446 0.014988104
000010 74 dc 44 bd 2d 96 1d 3d 12 5a ab bc 49 7c e4 bc
       -0.048061803 0.038473297 -0.020916972 -0.027891295
000020 db 14 63 bd 7d db 69 bd 57 c6 5c 3c 96 f9 90 bc
       -0.05543981 -0.057094086 0.013475022 -0.017697137
000030 b3 31 a2 3c 5c 73 60 bd 56 7b 2a 3d 40 59 28 bd
       0.019799089 -0.054797515 0.04162153 -0.04110074
000040 ee d4 d2 bb a6 7e 0d 3c 2d 9d e2 3c ec 07 5d 3d
       -0.0064340746 0.008636152 0.027662838 0.053962633
000050 80 25 55 3d ec 14 37 bd b8 b0 a1 3c 36 b3 b6 bc
       0.052037716 -0.044697687 0.019737586 -0.022302251
000060 04 69 26 bb 56 d2 2b bd 42 68 77 3d 8a 2a 28 bd
       -0.0025392184 -0.04194864 0.060402162 -0.041056193
000070 dd 74 eb 3c 12 86 d5 3c 2f 00 82 3c cc c6 ee bc
       0.028742248 0.026064906 0.015869228 -0.029147528
000080 e9 5a 54 3d 71 48 19 3c d8 9d 71 3b ce 58 4d bd
       0.05184451 0.00935565 0.0036867764 -0.05013352
000090 3a e6 f5 3c ac b6 5c bc a3 92 c5 bc f7 ea 47 3d
       0.030017007 -0.013471287 -0.024117773 0.048808064
0000a0 93 0a 1c 3c 6e 1e f5 bc 47 33 11 bd 06 07 eb bb
       0.009524005 -0.029921737 -0.035449293 -0.007172468
0000b0 48 a4 f7 3c 3b f7 3c bc c4 71 21 bd f3 79 cf bc
       0.030229703 -0.011533554 -0.039415136 -0.025326705
0000c0 d7 0f 4e bd 7e 06 92 3c 6c 4e 55 3d 44 b0 5c bd
       -0.050308075 0.017825361 0.052076742 -0.053879037
0000d0 af da 25 3c b9 d7 13 3d a6 49 e5 3b 8b 4d d6 bc
       0.010122939 0.0360944 0.006997305 -0.026160022
0000e0 ad 16 e5 3c f2 a8 13 3d bf 8d 9b 3c 26 e7 d8 bb
       0.027964914 0.03604979 0.018988488 -0.006619352
0000f0 71 80 a8 bc 25 a8 31 3c 11 87 77 bc 8e e8 67 bc
       -0.020569058 0.010843311 -0.015107886 -0.014154566
000100 21 cf 32 3d 68 66 6a 3d 85 eb f3 ba a5 25 1e bc
       0.043654565 0.05722657 -0.0018609619 -0.00965253
000110 4c 35 a4 3b 8b e9 01 bc e7 19 2e 3c a3 26 b0 3c
       0.0050112363 -0.007929216 0.010626293 0.021502798
000120 9a ab 76 bd 55 6a 98 bc 04 8e 65 3d c2 22 e7 3c
       -0.060222246 -0.01860539 0.05604364 0.028214816
000130 f6 d3 96 3a 81 9d 29 bd 37 f2 2b bd ac 80 73 bd
       0.0011507261 -0.041409973 -0.04197904 -0.059448883
000140 7f 9c 83 bc 1f 88 88 3c 2d d3 0f 3d c6 e3 c6 3c
       -0.016065834 0.01666647 0.035113502 0.024278533
000150 19 2b 4e bd 9a b5 06 bd da e2 b4 bb 87 ad 82 3d
       -0.05033407 -0.032888032 -0.005520207 0.06380754
000160 7a d0 56 3c 39 33 a5 bc f4 81 ae 3c 33 23 9e bc
       0.013111228 -0.020166026 0.0213022 -0.019303894
000170 5e d0 34 bd c8 1f 27 3d 25 49 c3 bc b2 10 06 bc
       -0.044144027 0.040801793 -0.023838589 -0.008182691
000180 a2 59 86 bd 2b 1e 3a 3d 5a aa 50 3d d5 ca e3 3c
       -0.06560065 0.045438927 0.05094371 0.027806679
000190 59 10 1f bd 8a 29 68 bd a0 f6 3b bd d0 63 2b 3d
       -0.03883395 -0.05668024 -0.045889497 0.041843235
0001a0 f9 ba d0 3c 0c d3 65 3d ad 5f 15 3d af 9b a1 3c
       0.02547978 0.056109473 0.036468197 0.019727556
0001b0 e4 9e 6a 3b a1 e1 2e bd e7 36 5c bd a7 4c 7d bd
       0.0035800273 -0.042695645 -0.053763296 -0.06184068
0001c0 ad 2a ac 3c 29 bd 0c bd 60 3f 88 bc 14 4f 00 bd
       0.021016443 -0.034360085 -0.016631782 -0.031325415
0001d0 51 de e6 bb ce 34 20 bd 4b ed 35 bd 07 0f ca 3c
       -0.007045545 -0.03911286 -0.044415753 0.024665369
0001e0 be b0 74 bc 7d 7c 2c 3d 0e 40 7f bc 9f 38 28 bd
       -0.014934717 0.04211091 -0.015579237 -0.041069623
0001f0 34 ee d9 bb 19 b6 d2 bc bd a5 70 bc 74 53 5f bd
       -0.0066507105 -0.025721597 -0.014687953 -0.054522946
000200 29 1a b9 3c 18 64 81 3b 77 80 31 3d fa 16 8d 3b
       0.022595482 0.0039486997 0.043335404 0.0043057175
000210 94 7a 84 3d 93 a5 81 bd 15 73 30 3d 8c db 34 3c
       0.064686924 -0.06330409 0.0430785 0.011038672
000220 0f a5 3e bc 44 91 13 3d 1c f9 a4 bc ec fc 89 3b
       -0.011636033 0.036027208 -0.020138316 0.004211059
000230 9a 54 ab bc 58 20 5a bd 35 3a 60 3d bf 9f 9b bd
       -0.020914365 -0.0532535 0.05474301 -0.075988285
000240 c8 b2 67 3d 8a 34 89 bb 70 41 72 bc ec 70 22 bc
       0.056566983 -0.0041871713 -0.014786109 -0.009914618
000250 be b7 c8 bc 29 05 dd 3c ea ce 97 3c b3 94 db bd
       -0.024501678 0.02698 0.018531282 -0.107217215
000260 b9 33 25 bd f8 1f be bc 6d aa 78 3c eb 5c d7 bd
       -0.04033253 -0.023208603 0.015177351 -0.105157696
000270 12 1a 1a bd b9 34 a2 3c 73 ef a3 bd d6 38 91 3d
       -0.03762252 0.01980053 -0.08004656 0.07090919
000280 c2 cb 9c 3d 63 81 26 3d f5 2e 04 bd 94 ab fb bc
       0.07656051 0.040650737 -0.032271344 -0.030721463
000290 5f 08 56 bd 04 31 29 bd 57 2a 46 3c 3f b4 c2 3c
       -0.052254077 -0.04130651 0.012095056 0.023767589
0002a0 de 74 55 3b df 40 bb 3c ff 53 91 bd ac 4d 3f bd
       0.003257088 0.022858081 -0.07096099 -0.046704933
0002b0 a2 10 4b 3d 51 22 82 bd 0a d3 ed bc 12 d4 b2 bc
       0.04957641 -0.063542016 -0.029031295 -0.021829639
0002c0 2c 09 2f bd 12 ee 25 3d 36 52 12 bd 4b 0d fd 3c
       -0.042733356 0.040510245 -0.035722934 0.030890128
0002d0 8c 0e 67 bd 2b 33 b8 3c f0 2d 8c 3d 33 d9 58 3c
       -0.056410357 0.022485336 0.068446994 0.013235378
0002e0 89 93 1a bd d6 e6 f8 3c a1 fc 22 3d ab 1b 0a 3c
       -0.037738357 0.030383509 0.039791707 0.008429448
0002f0 27 78 ae 3d 5a 8c 87 3d a1 91 b2 bc 69 a1 85 bc
       0.08519011 0.06618567 -0.021797957 -0.016312318
000300 a0 6b 4b bd c3 58 c9 ba 08 f2 4d 3c 9a 69 de 38
       -0.049663186 -0.0015361536 0.012569912 0.00010605455
000310 7b d6 8d bc 31 1a 72 bd 89 ea 89 bd 4b 1c 73 bd
       -0.017314186 -0.05910701 -0.06734187 -0.059353154
000320 2d 65 24 bd 3f d6 2c bd c6 b8 0e 3d df f7 03 3d
       -0.04013555 -0.04219651 0.034844182 0.03221881
000330 cf 87 b7 bc 2d 37 99 bd d3 6e 87 bc 63 b8 f7 bc
       -0.022403626 -0.07481227 -0.016532337 -0.03023929
000340 be 72 6f 3c cc 5a 1b 3d 7f 13 a4 bc db 24 27 bd
       0.014614759 0.037928388 -0.020028828 -0.040806632
000350 21 0e c8 bc 35 46 26 bd 88 1c 35 bd e8 94 24 bd
       -0.0244208 -0.0405943 -0.044216663 -0.04018107
000360 27 b8 ad bd 1a d1 53 bd 67 3a a5 3d 24 66 1e bc
       -0.0848239 -0.051713087 0.0806778 -0.009667907
000370 7a 1f 04 bd 35 2c 29 3c 65 f3 1f 3d eb 9b 24 3b
       -0.03225658 0.010325481 0.03905048 0.0025117348
000380 a8 f5 7b 3c 27 b7 4f 3d 4b ce 70 bd ba 30 df bc
       0.015378393 0.050711777 -0.058790486 -0.027244914
000390 9d 45 0b 3d 3e 7a c0 3c 9e bb 16 bd 66 ae 4c 3d
       0.034001935 0.02349579 -0.03680002 0.049971007
0003a0 02 d5 e2 bb c7 b2 4c bd 95 2c 28 bd 35 6e 43 3d
       -0.006922365 -0.049975183 -0.04105814 0.047712523
0003b0 e2 20 59 3d 42 0a d6 3c c5 97 f7 bb 08 f7 df bc
       0.053009875 0.026127938 -0.007555934 -0.027339473
0003c0 a1 c0 89 bd 09 c4 e3 bc cb 23 cf 3c ab 2b 0e bb
       -0.06726194 -0.027803438 0.025285622 -0.0021693509
0003d0 a5 b5 09 bc 27 55 8a 3b 93 55 ae bd b0 54 57 bd
       -0.008405124 0.0042215767 -0.08512416 -0.052571
0003e0 fa 91 5e 3d a1 2e 7c 3d 60 37 8e 3d da 28 a0 bc
       0.054338433 0.061567906 0.06944156 -0.01955073
0003f0 8f 4f 4e 3d 34 2f 4b bd 99 73 0a 3c 2a 19 2c 3c
       0.05036884 -0.049605563 0.008450412 0.010504046

encoder.convs.0.node_mlp.bias f4 [128]
000000 e4 2d 35 bd e5 e4 1c 3c ab fc 10 3c ea 0e 5c 3d
       -0.044233218 0.009576057 0.008849303 0.05372516
000010 0e 37 05 3d 8d 2c 8d bc 4d 4f 57 3a 8c 2d 38 bd
       0.032523207 -0.017233158 0.0008213416 -0.044965312
000020 be 84 87 3b e6 73 79 3b 95 22 55 3d a1 2a 64 3d
       0.004135697 0.0038063466 0.052034933 0.055704717
000030 31 ad 28 bd f7 31 7a 3d d9 7c 5b bd 41 cc 08 3c
       -0.041180793 0.061082806 -0.05358586 0.008349479
000040 29 f8 f3 3c 25 51 01 3d 1d 1c 22 3d e5 df a6 bc
       0.029781418 0.031571526 0.039577592 -0.020370433
000050 52 93 58 3d 65 50 c2 3b c3 05 10 3c 14 33 a9 bc
       0.05287487 0.005929994 0.008790436 -0.020654239
000060 b8 55 5a bd ec aa 70 bc 27 be 86 3b 99 8a e6 ba
       -0.053304404 -0.014689188 0.0041120234 -0.0017588913
000070 af e7 47 bc 81 64 97 3a 05 29 50 bb 0d 7e e8 bc
       -0.012201234 0.0011550338 -0.003176273 -0.028380418
000080 bd f9 67 bb 9a 13 4e bd ba d2 af 3b d3 c8 38 3d
       -0.0035396658 -0.050311662 0.0053656967 0.045113396
000090 d1 70 d0 bc 2d 1a 11 3d 41 79 d4 bc a1 31 14 bd
       -0.02544442 0.035425354 -0.025936725 -0.036180142
0000a0 94 ce f3 3c 32 4c 6e bd 3d dc 08 3d af 42 26 3d
       0.02976159 -0.058178134 0.03341316 0.04059094
0000b0 92 2e 81 3c 03 86 21 bb af 8f 07 bd 39 c9 22 bd
       0.015769277 -0.0024646528 -0.03309601 -0.039742682
0000c0 f3 eb 84 3d 33 3c a1 3c dd 9e fc 3c 58 40 02 bd
       0.06490316 0.019682026 0.03083747 -0.031799644
0000d0 8d ea 2b 3d 17 60 21 bd 3c 31 21 3d 3c 7e 28 3d
       0.041971732 -0.03939828 0.039353594 0.04113601
0000e0 16 98 55 bd 1b 9a 3c bd 00 e9 5a bd 55 90 06 bd
       -0.052146994 -0.046045404 -0.053444862 -0.03285249
0000f0 28 0d 81 3c 29 e2 50 bd ad a9 26 3d f9 e2 19 bd
       0.015753344 -0.050996933 0.04068916 -0.037569974
000100 6c c5 22 bc f0 6b 78 3c a6 92 28 bd 48 1b be bb
       -0.009934764 0.015162453 -0.04115548 -0.005801592
000110 ac 40 6e bd fb 9c 52 bd 8f ff bc 3b 79 46 f4 bc
       -0.058167145 -0.05141924 0.0057677696 -0.02981876
000120 1b 9e 53 3d 26 a1 23 bd ba f9 f5 3c d0 90 1c 3d
       0.051664453 -0.039948605 0.030026305 0.03822404
000130 7b 6e 96 bc 24 87 56 bc 02 2e ca 3c e8 14 00 bd
       -0.018363228 -0.0130937435 0.024680141 -0.031269938
000140 49 46 c8 3c 0b dd 9f bc 00 2e 1a bc b2 48 38 bd
       0.024447577 -0.019514581 -0.009410381 -0.044991203
000150 d0 37 62 3d e9 fa 44 bd f5 2f 53 bc ac b9 e6 3c
       0.05522901 -0.04809085 -0.012889852 0.028164707
000160 5b a4 35 bd 6f 44 45 bb 4b ed 84 3d ba 1d 9b 3c
       -0.044346195 -0.0030100604 0.064905725 0.018935073
000170 d9 eb 3d 3d 89 a1 47 bd d4 2b 02 3d f3 3e b1 bb
       0.0463675 -0.048738036 0.03178008 -0.0054091155
000180 ee c6 bd ba d8 5e 8c bc 39 36 9b bc 6d e9 1f 3d
       -0.0014478841 -0.017135069 -0.018946754 0.03904097
000190 69 dc 07 3d b6 2f 5e bd bb 54 59 3d b1 f2 7b 3d
       0.033169184 -0.05424472 0.05305932 0.061510745
0001a0 73 18 86 bc 5d f7 26 3c 58 c5 91 3c 83 50 59 bd
       -0.01636908 0.010190812 0.017794296 -0.053055298
0001b0 bc bf a0 3c bb c2 74 3d 98 a2 98 bc 2e 26 3b bd
       0.019622676 0.059756022 -0.018632218 -0.045690708
0001c0 fc 05 08 bd 9e 04 26 3d a6 45 60 3b 03 1e 10 bc
       -0.033208832 0.040531747 0.0034221201 -0.008796218
0001d0 f1 24 46 3c d5 98 ce 3c 1c d9 28 3d b5 57 6e 3b
       0.012093768 0.02521936 0.041222677 0.0036368195
0001e0 2c 65 7d bd 6d 51 2a 3d 2b b1 0e 3d f8 f2 92 3b
       -0.061864063 0.04158156 0.03483693 0.0044845305
0001f0 71 cf 01 bd c6 66 73 bc a1 f8 0c 3d 32 f6 3b 3d
       -0.031691972 -0.014856046 0.0344168 0.045889087

encoder.convs.0.edge_mlp.0.weight f4 [128, 7]
000000 16 43 90 be 71 26 48 3e a8 1c 9f 3d a5 44 e7 3d
       -0.28176183 0.19545914 0.077691376 0.1129239
000010 07 10 df bd 8d 06 54 bc b5 4a 9e be b9 78 2a bc
       -0.10891729 -0.012941015 -0.30916372 -0.010404759
000020 fb 88 8f be ae 2d a6 3e 73 2a 17 3e 69 91 e6 3d
       -0.28034195 0.32456726 0.14762287 0.112582035
000030 bb 67 71 be 53 cf 47 be 3a 0b 9d bc c7 c6 30 be
       -0.23574726 -0.19512682 -0.019170392 -0.17263328
000040 3b 77 15 3c 75 d7 25 3c 82 ff 2f bc a9 f1 9b be
       0.009122665 0.01012217 -0.01074207 -0.3045781
000050 f1 c3 ab 3e 4d ae 1b be 2a 20 87 3c 8d 91 48 be
       0.3354793 -0.15203209 0.01649483 -0.19586773
000060 77 4b a9 3e 35 87 21 be 99 79 65 3e 6a ac 23 3e
       0.33065388 -0.15774234 0.22409667 0.1598374
000070 33 8c 57 bd af 3a 2a bc 5a e8 69 be ef 56 af be
       -0.05262394 -0.010389968 -0.22842541 -0.34246013
000080 a8 24 67 3e cc fc 72 3e 6d e7 b6 be 88 b1 c9 bd
       0.22572577 0.23729247 -0.3572344 -0.098483145
000090 2f 0b b1 be 53 c4 9b be 31 d8 78 3d 9f c6 88 bd
       -0.34578845 -0.3042322 0.06075305 -0.06678509
0000a0 b5 7e bc 3e f2 00 99 3e 11 b3 8f be 16 67 be 3e
       0.3681542 0.29883534 -0.28066304 0.37188023
0000b0 f3 c6 81 3e 80 8b a1 3e 8b ef 11 be 07 d9 e5 bb
       0.253471 0.31551743 -0.14251535 -0.007014397
0000c0 53 39 7b be 79 dd 4b be 9e 88 7b 3e a7 79 a3 3e
       -0.24533586 -0.19908704 0.24563834 0.3192875
0000d0 85 1e c0 be 99 9f 26 3e 59 4d 15 be 54 e8 97 be
       -0.37523285 0.16271819 -0.14580287 -0.2966944
0000e0 b5 9b 58 3e 4e 78 4a 3e a6 7c 0e be 3d e8 bb 3e
       0.21153148 0.19772455 -0.13914737 0.3670062
0000f0 14 3c 70 be 63 03 6a 3e 77 45 6e 3e 62 96 74 be
       -0.23460418 0.22852854 0.23268686 -0.23885491
000100 66 0e a2 3e 99 e3 2d be c3 77 49 be e0 43 62 3e
       0.3165161 -0.16981353 -0.19674592 0.22096205
000110 e5 ca aa 3e e8 7d 81 be 59 9b c4 3e 0d 72 aa be
       0.3335792 -0.2529137 0.3839977 -0.3329014
000120 75 ef 3a 3e 17 ec 9e be 2c 61 1d bd d9 65 a3 be
       0.18255408 -0.31039497 -0.03842275 -0.3191364
000130 c8 c8 86 3e c4 59 82 be 79 6b c0 be 3d 3a 40 be
       0.2632506 -0.2545911 -0.37581995 -0.18772216
000140 ab e9 72 3e 61 a4 1a 3e 62 30 27 3e a6 81 8d 3e
       0.2372195 0.15101768 0.1632705 0.27637976
000150 79 72 43 be 70 dd 3d 3e 82 a1 93 be db f1 c3 be
       -0.19086637 0.18541503 -0.28834158 -0.3827046
000160 7c 4a 14 3e 58 86 85 be d2 9f b8 3d d1 94 05 3e
       0.14481539 -0.2607906 0.09014858 0.1304505
000170 10 37 92 3e 5a 58 b1 3e 3e 23 93 3d f5 d9 6e bd
       0.28557634 0.3463772 0.07184456 -0.05831333
000180 fe e6 8d be aa c2 58 be f0 80 e2 bd 7a 75 d4 3d
       -0.27715296 -0.21168008 -0.11059749 0.103739694
000190 a9 1a 5c be 2f 34 1d be 86 2d b9 bd a6 b3 f7 bc
       -0.21494545 -0.15351938 -0.09041886 -0.03023703
0001a0 69 cc 30 be ab 06 8d 3e b3 86 13 3e 8a d7 a2 3e
       -0.17265476 0.2754415 0.14406852 0.31805068
0001b0 f6 dd 8d be 4e f6 bb bc 3d 6d da 3d 8e 80 7a 3e
       -0.27708405 -0.022944596 0.10665367 0.24463102
0001c0 a1 2d b1 be 5b 90 af be 76 28 53 3c 29 ea 9a be
       -0.34605125 -0.34289822 0.012888065 -0.30256775
0001d0 ba 08 b5 be 9c bb 4e 3d c9 82 80 3e 4f 0c e5 be
       -0.3535822 0.050471887 0.2509978 -0.44735953
0001e0 a7 e5 02 be 88 40 b4 be a8 f2 5b 3d 7b 2d de 3d
       -0.12782918 -0.35205483 0.053698212 0.108485185
0001f0 bc f8 af be ce d9 cf 3d 64 fe 2c be f5 89 00 be
       -0.34369457 0.10148965 -0.16893917 -0.12552626
000200 50 32 8a be 5a fa 55 bd 36 d4 2a 3e bb 46 5a be
       -0.2699151 -0.052240707 0.16682515 -0.21316044
000210 c7 64 fc bd 00 19 84 be 40 f7 7a bd 4d 08 a2 3e
       -0.12323909 -0.25800323 -0.061270952 0.31646958
000220 3d 26 60 3e 09 50 79 be 34 9a bf 3e b2 e8 fc 3d
       0.21889587 -0.24346937 0.37422335 0.123490706
000230 ec 30 23 3e 2e 8e 8d be ad 4d 49 bd 1d 02 aa 3e
       0.15936631 -0.27647537 -0.049146343 0.33204737
000240 a2 11 82 3e 1f 35 46 3e 5b 3a 80 be c4 79 98 bd
       0.25404078 0.19356202 -0.25044522 -0.074451
000250 18 f0 74 3e 08 da 43 3e b4 13 9d bd f8 c1 58 be
       0.23919713 0.19126141 -0.07669774 -0.21167743
000260 34 11 97 be da bf a8 be 2f 37 3c be 91 ca 0e 3e
       -0.29505312 -0.3295887 -0.18380426 0.1394446
000270 a3 f4 42 be dc 03 f5 3d 5d dc 87 be a9 3f 48 bc
       -0.19038634 0.11963627 -0.2653531 -0.012222209
000280 fa 06 4f be 9d dc 26 be 8f 9b 3f 3e 6a 38 97 3d
       -0.20217505 -0.16295095 0.18711685 0.07383807
000290 34 f0 a6 3e d7 c4 c9 3d 52 d1 b7 3c 9c c4 9e 3e
       0.32605135 0.09851997 0.022438679 0.31009376
0002a0 16 82 8a be 56 5d 49 3e 3f 1c a0 3c ae 9c 3e 3c
       -0.27052373 0.19664511 0.019544719 0.011634035
0002b0 97 eb 85 be 7f b1 67 bc 7d b6 77 be ff 45 83 3e
       -0.26156303 -0.014141439 -0.24190708 0.2563934
0002c0 6f 4a 29 be 2c d0 5f bd 29 30 ac 3e fc 01 e1 bc
       -0.165323 -0.054641888 0.33630493 -0.027466767
0002d0 e5 1c ab be 73 98 bb 3d 3a ea f1 3c 07 33 6b be
       -0.33420482 0.09159937 0.029530633 -0.22968684
0002e0 fb 5a b0 be bc e1 d0 be ac 96 95 be 38 f2 f7 bc
       -0.34444413 -0.40797222 -0.29216516 -0.030266866
0002f0 f2 a8 9a be f0 01 ba be a7 b9 56 3d 61 ed 99 be
       -0.3020702 -0.36329603 0.052423146 -0.30063918
000300 ed c2 f6 bb 32 52 cf 3d 2f 94 a0 3e 18 4d 2e 3c
       -0.007530561 0.101230994 0.31363055 0.010638498
000310 20 86 3e 3c 44 5d bd 3e b4 14 01 3e 1a 3d 9c 3e
       0.011628658 0.3698522 0.12605554 0.30515367
000320 8d 2c c8 bd 0a 07 ba 3e fd ae 9b be d4 57 97 3e
       -0.097741224 0.36333495 -0.30406943 0.29559195
000330 1a 27 6d 3d 1c ac de bc 0a 38 b8 3e 2f 5f 40 3e
       0.05789862 -0.027181678 0.35980254 0.1878631
000340 e5 4f 19 3e b1 9a d1 bd b7 32 a3 3e 48 7e 24 bc
       0.14971884 -0.10234583 0.3187463 -0.010039873
000350 19 2a 18 3d 71 05 1a bd b2 e3 fb bd 03 61 3e be
       0.037149522 -0.037602846 -0.12299289 -0.18591695
000360 26 22 75 3e 31 0f 21 bb 8b 62 65 bd c6 8b 53 3d
       0.23938808 -0.0024575705 -0.05600218 0.05164697
000370 d5 a1 03 be 26 4a fe bc d3 bf 49 be 22 a3 7e 3c
       -0.12854703 -0.031041216 -0.19702081 0.015541824
000380 33 4a 2e 3e af 84 ba be e4 16 ad 3e 82 5f ef bd
       0.17020492 -0.36429355 0.33806527 -0.116881385
000390 2c 2e 9c 3e 17 df 94 3e 76 9b 18 3e a3 d4 ca 3e
       0.30503976 0.29076454 0.14903054 0.39615354
0003a0 77 c9 cc be 0b d0 cf be 4f 53 7f 3d 7f ca af bd
       -0.39997455 -0.40588412 0.06233531 -0.08583545
0003b0 18 9a 3f be ce c0 85 bc 03 75 94 be 3f 9d c5 bd
       -0.18711126 -0.016327288 -0.28995523 -0.09649133
0003c0 fe ba 4b be 3c f5 b8 3d b5 fc 18 3d 94 b1 84 be
       -0.1989555 0.0903115 0.037350375 -0.2591673
0003d0 36 4b 25 be f5 cf 24 3d 25 31 91 3e 49 4b a4 3e
       -0.16141972 0.040237386 0.28357807 0.32088688
0003e0 b8 d0 1c 3e 40 e2 f6 3c 87 7b d2 3b a4 ef ac 3e
       0.15313995 0.030137181 0.006423417 0.3377658
0003f0 fd 24 75 be 33 09 51 be c3 0a e3 3d 39 49 75 be
       -0.23939891 -0.20413665 0.11086037 -0.23953713

encoder.convs.0.edge_mlp.0.bias f4 [128]
000000 07 c4 11 3e c8 84 11 3e 30 e3 8c be b8 50 6b 3d
       0.14234935 0.14210808 -0.2751708 0.057450026
000010 16 9c 1f bd ef 02 7d 3e 72 a4 54 bd 79 32 4b be
       -0.038967215 0.2470815 -0.05191464 -0.19843473
000020 ac 72 4c 3e 3b fe 1d be c3 41 2e bd e8 f9 c3 bd
       0.19965619 -0.15429012 -0.042543184 -0.0956915
000030 28 a4 3e 3e 03 63 0f bd e6 d9 3d 3e 2f 29 63 be
       0.18617308 -0.035006534 0.18540153 -0.22183679
000040 6d 72 68 3c 11 1d ad 3e 60 fe 65 be 68 fe 8b bd
       0.0141874375 0.33811238 -0.22460318 -0.068356335
000050 c6 f6 85 bd 87 bd c8 3d 1d b0 1b be ac 40 f7 3d
       -0.06541209 0.098017745 -0.152039 0.12072882
000060 d8 f6 bd bd c6 b6 f9 3c 5c 3b ad 3e 58 22 99 3e
       -0.09275597 0.030482661 0.3383435 0.29909015
000070 fc 5d 18 be 69 a3 63 be 02 b2 6e be 7c a0 7a bd
       -0.14879602 -0.22230305 -0.23310092 -0.061188206
000080 fc 86 6f 3c f3 fb c8 3d 9e eb 06 be b1 15 36 3e
       0.014619585 0.098136805 -0.13175818 0.17781712
000090 ff 69 07 3d 64 03 bf 3d a1 44 af 3e b8 47 60 3d
       0.03306007 0.093268186 0.34232047 0.054755896
0000a0 43 a6 8b 3c d8 6b d7 bd 0d 6a 85 3e 51 e7 a2 be
       0.017047053 -0.105186164 0.26057473 -0.31817105
0000b0 4d af 1f be ce 6b 27 3d 5d 2a 59 3e 4b 82 b5 be
       -0.15594216 0.040874295 0.21207567 -0.35450968
0000c0 3d 94 67 bd 23 94 93 3d 6f 5f 9a 3e 24 cd 20 3e
       -0.056537855 0.07205989 0.30150935 0.15703255
0000d0 e7 dc 9c 3e ad a1 e5 bd a1 2c b3 be e6 86 68 3d
       0.30637285 -0.11212478 -0.34994987 0.056769274
0000e0 02 ad 82 3e 2f 71 52 3d e9 a5 8c 3d 0b da aa 3e
       0.2552262 0.05137747 0.06867582 0.3336948
0000f0 af e2 be be 64 4d e9 3d e4 49 06 3e 3a c6 83 3d
       -0.3728232 0.11391714 0.13114125 0.06434293
000100 02 55 d7 bd 32 36 3f be 9a d9 2e 3e 09 9b b3 3d
       -0.10514261 -0.18673018 0.17075196 0.08769805
000110 a1 a6 07 3e 0a 24 aa 3c df a4 88 be 05 c1 0e 3e
       0.13247158 0.020769138 -0.26688287 0.13940819
000120 8f 2c 43 be f3 49 56 be 54 f8 2d be 4f 52 95 be
       -0.19059967 -0.20926647 -0.16989261 -0.2916436
000130 1d ab 91 be 7a bf 05 bd c6 09 b5 be b7 5c 82 3e
       -0.28450862 -0.03265331 -0.3535902 0.2546136
000140 a1 b0 83 be 9a ff f6 3d af 15 e8 3d 6f ee 18 be
       -0.25720695 0.12060471 0.11332261 -0.14934705
000150 a9 05 02 3e 32 9d b0 3e 3f 64 a3 be 4b c5 3a 3c
       0.12697472 0.3449493 -0.3191242 0.011399577
000160 11 b3 85 3e 41 5a ad 3e d2 46 e6 3d bf b7 b5 3e
       0.2611318 0.3385792 0.11243977 0.3549175
000170 db 5d 45 be b4 2e a7 3e e3 04 01 3e d9 c5 53 be
       -0.19274084 0.3265282 0.1259952 -0.20680942
000180 8c c4 51 3e 74 6e 93 3e 58 b8 a1 be a4 71 36 3e
       0.20485133 0.28795207 -0.31585956 0.17816788
000190 05 af 8e 3c f5 9c 98 3e 3f ea b2 be 2d f5 43 3e
       0.01741744 0.2980725 -0.3494434 0.19136496
0001a0 fa 14 a6 3e bf b3 38 bd 27 52 42 3e ab 66 9d be
       0.3243788 -0.045093294 0.18976651 -0.30742392
0001b0 8d e0 ab 3d 4d 02 8d be 45 9d 93 be db f4 5a 3e
       0.08392439 -0.27540818 -0.28830925 0.21382467
0001c0 8e 1b 46 3e 7b f9 59 3e a8 61 8e 3e bf 46 a7 bd
       0.19346449 0.21286575 0.2780888 -0.081677906
0001d0 b9 b8 8c be 11 5e 71 3e 11 fc 97 3e 6a bf 90 be
       -0.27484682 0.2357104 0.296845 -0.28271037
0001e0 6e 27 9f be 53 01 86 be d1 f3 72 be cd 38 6d 3e
       -0.3108477 -0.26172885 -0.23725821 0.23166199
0001f0 02 76 99 be 7f bf c9 3d b6 b3 6a 3d b4 86 7d be
       -0.29972845 0.09850978 0.057300292 -0.24758416

encoder.convs.0.edge_mlp.2.weight f4 [128, 128]
000000 d9 2d de bd ab b7 1c 3d 8e 79 42 bd f0 01 b8 bd
       -0.108485885 0.038261097 -0.047479205 -0.089847445
000010 1e 4d 58 3d 72 06 8d bd 22 06 33 bd 4c 26 d8 bc
       0.05280792 -0.06885995 -0.04370702 -0.026385449
000020 2b 2f 06 bd e9 36 6b bd 83 d0 4b bd 12 ed e9 3c
       -0.032759827 -0.057425413 -0.0497594 0.028555427
000030 3a 25 30 3c b3 96 e3 bc 52 2b d2 3d 5f 32 9d 3c
       0.010751063 -0.02778182 0.10262169 0.019189058
000040 d3 e2 be 3d e6 67 21 bd d0 1f 4e bd eb db e4 3c
       0.09320607 -0.039405726 -0.050323308 0.027936896
000050 6e d1 63 3d 6e fd 64 bd 48 87 6f bd e8 58 13 bd
       0.05561965 -0.055905752 -0.058478624 -0.03597346
000060 07 ef 82 3d ef 8c b5 3d e6 3c 45 bd 49 d7 38 3d
       0.06393247 0.088647716 -0.04815378 0.045127187
000070 ce 88 f6 bb fc dc 80 3c 82 4f 90 3c a4 42 73 bd
       -0.0075236326 0.015730374 0.017616037 -0.059389725
000080 d5 17 19 bc 86 19 c1 bc ad 6e a9 3d 96 86 50 bd
       -0.009344061 -0.02357174 0.08273063 -0.0509096
000090 d4 c0 74 bd 92 4d 0d 3b 26 af c1 3d 91 40 ae 3d
       -0.059754208 0.0021561128 0.09457235 0.08508409
0000a0 e2 87 1f 3a 5a 57 9d bd f7 64 50 3d b2 34 9c bc
       0.0006085617 -0.076826766 0.050877538 -0.019068096
0000b0 1f f3 38 bd bf 24 3b bc 66 31 9e bd 66 de 13 bd
       -0.045153733 -0.011422335 -0.07724266 -0.036100768
0000c0 03 37 4f 3d 69 f5 d5 3d b7 72 7b bd 1b 42 17 3d
       0.050589573 0.10447199 -0.061388697 0.036928277
0000d0 42 14 0e 3c 01 a7 9d bd 67 8b 1b bc 8a 98 52 bd
       0.008671822 -0.07697869 -0.009493685 -0.051415004
0000e0 13 7b 1e bd e1 9e 8b 3d 78 ba 01 3e de 5b cf 3c
       -0.03869159 0.06817413 0.12668788 0.02531236
0000f0 f6 8f 2b bc cf f4 c5 3c 56 8f 82 3d 54 4f b1 bd
       -0.010471335 0.024164585 0.063749954 -0.08657709
000100 58 dd 83 bd a1 5c 6a 3d c5 ce 37 3d 00 3c d3 bc
       -0.06438702 0.057217244 0.044874925 -0.025785446
000110 c4 f7 82 bd e0 ed b6 3d 74 91 33 3d 6d c5 6c bd
       -0.06394914 0.0893209 0.043839887 -0.057805467
000120 5e 5e 0f bc 75 35 c7 bd be 07 6f 3c c1 b3 9c 3d
       -0.008750526 -0.09726993 0.014589248 0.07651473
000130 82 e0 9b bd 54 cc ec bd fc 16 9c 3b e6 ec ce 3c
       -0.07611181 -0.1156241 0.004763482 0.025259446
000140 b1 12 a3 3d dd 85 01 3d 4d 85 97 3d fb 1f e5 3d
       0.079625495 0.031621803 0.07398472 0.111877404
000150 f1 dd 85 bb 90 16 3c bd d8 c5 8d bd 4b af 81 3d
       -0.0040852954 -0.045919955 -0.06922501 0.063322626
000160 97 a1 86 bb 61 70 d1 bd cb d1 87 3d 27 56 91 bd
       -0.0041086185 -0.10226513 0.06631812 -0.070965104
000170 26 bb 9b 3d c3 ac b1 3d 90 53 dc 3d d0 e3 6d bc
       0.07604055 0.0867553 0.10758126 -0.014519647
000180 a8 c4 8a 3c e5 8d b2 3c e2 2c d4 bb 80 75 77 bd
       0.016939476 0.021796176 -0.006475077 -0.06041479
000190 b0 af d1 3d 89 c0 9e bd 2b 11 4f 3c 6a 80 09 bd
       0.10238588 -0.07751567 0.0126383705 -0.03356973
0001a0 3d 31 da 3b ba f3 8d bd 22 c6 2c 3d 27 b3 45 bd
       0.0066587017 -0.06931253 0.04218114 -0.048266556
0001b0 6e bf 46 bd 00 bc 93 3d 14 ba 37 3d 36 ca 8d 3d
       -0.048522405 0.072135925 0.044855192 0.06923334
0001c0 08 15 13 bd 0a 45 68 3d 1b 1b 1a 3d 19 49 b4 3d
       -0.03590873 0.056706466 0.037623506 0.08803005
0001d0 a0 5e f6 bc 66 70 50 bc 20 7d 5b bc 24 41 5b bd
       -0.030074418 -0.01272211 -0.013396531 -0.05352892
0001e0 77 fc 99 3c 84 0a 38 bd 48 c3 3b 3d d9 05 84 3d
       0.018797142 -0.044931903 0.04584053 0.06446428
0001f0 d2 3d 8a bc 0c a2 a0 bc aa 52 ed 3c d2 db d4 bc
       -0.016875181 -0.01960852 0.028970081 -0.025983725
000200 f3 6e 21 3c cd 62 d1 bc 4c 41 44 3d e3 94 d3 bb
       0.0098531125 -0.025559807 0.047913834 -0.0064569577
000210 d0 92 9e 3d 93 d2 69 3d a9 7a f8 3d f3 4b 33 3b
       0.07742846 0.057085585 0.121327706 0.0027358502
000220 7a 6e 1e bc 53 4d a8 bc 17 00 8e 3d f8 47 0c bd
       -0.009669894 -0.020544684 0.06933611 -0.034248322
000230 6b 21 5d 3b 00 7d 4e bd f4 a2 cf bd a5 f4 6d 3d
       0.0033741842 -0.050412178 -0.10138503 0.05809464
000240 4f 77 e3 bd 29 62 82 bd 18 06 5f bd c3 83 e9 3d
       -0.11106741 -0.06366379 -0.05444917 0.11402085
000250 df 35 1d bc 56 07 25 3c a6 0d 89 bd af 6b 81 bc
       -0.009595363 0.01007255 -0.06692056 -0.015798418
000260 e5 78 37 3d 7e fd a5 3d af 44 00 bd 01 23 84 bd
       0.04479303 0.081049904 -0.0313155 -0.06451989
000270 87 d3 d6 3d 97 14 b9 bd f1 e7 55 bc 2a a5 23 3d
       0.104895644 -0.0903713 -0.013055787 0.039952435
000280 ca 2c 2e 3d 66 1e 9c 3c be 45 1a 3d c9 fc 35 3d
       0.042523183 0.019057464 0.037664168 0.044430528
000290 21 2b ff 3d 2c e9 b7 3d 43 dc dc 3c fe 64 c3 3d
       0.12459398 0.08980021 0.026960498 0.09540747
0002a0 fa 2e c2 bd ad fd 7e bd 42 da 28 bd aa 87 8a bc
       -0.09481616 -0.062253643 -0.041223772 -0.016910393
0002b0 e6 e3 4b 3d c1 51 25 3d 17 e7 6b bd 82 b1 08 bc
       0.049777888 0.04036117 -0.05759343 -0.008343102
0002c0 b2 d6 70 bd 23 82 b4 bc ba 4e c4 3d 66 22 44 bd
       -0.0587985 -0.02203471 0.095853284 -0.047884367
0002d0 81 53 1a 3d 13 35 85 3d cd 7c a8 3d 4f af b0 bc
       0.03767729 0.06504264 0.08226929 -0.021567969
0002e0 c3 3d 10 3c c8 7e 98 bc 0c 67 06 bd 44 bc 4b bd
       0.008803788 -0.018615142 -0.032813117 -0.04974009
0002f0 06 6f 5c bd 76 1b ac bc a6 ab 67 bc e3 22 6b 3d
       -0.053816818 -0.021009188 -0.014140045 0.057406317
000300 08 07 8b bc 6d 09 83 bd ae 34 a7 bd 66 21 91 bd
       -0.016971126 -0.06398282 -0.08164345 -0.07086448
000310 7b c8 17 3d 81 b7 22 bd 5e df 83 3d 9b f3 a6 3d
       0.037056427 -0.039725784 0.06439088 0.08151933
000320 d7 44 86 3d 86 75 16 3d 97 bb 83 3d 07 97 57 bd
       0.06556099 0.036733173 0.06432264 -0.052634265
000330 64 e4 fa 3c 8b bd 29 3d 8a 9d ee bd 2d 46 60 3d
       0.030626483 0.041440528 -0.11651142 0.054754425
000340 e3 3a 81 3d d0 01 a2 bb 89 c8 98 3d 80 05 7c bd
       0.0631006 -0.0049440637 0.07460124 -0.061528683
000350 dc d2 d8 bd ae aa b5 3d 68 70 ab bd c6 e8 22 3d
       -0.10587093 0.08870445 -0.08371049 0.03977277
000360 46 ca 5c 3d f3 52 07 3c 1a 1e 22 bd c7 c1 d9 bd
       0.05390384 0.008259523 -0.03957949 -0.10632663
000370 3f 52 e2 3d 34 4e e9 3b a5 57 f1 3d ac 39 0a 3d
       0.110508434 0.0071199182 0.11784295 0.033746406
000380 18 bd 8b bc 9f a2 8d bd 1c 72 93 3d f7 35 84 bd
       -0.01705794 -0.06915783 0.07199499 -0.064556055
000390 28 f1 36 bd e9 6b 75 3d 26 21 7e 3c 4f d8 80 3c
       -0.04466358 0.059917364 0.015510833 0.015728144
0003a0 a7 d2 d4 bd 7f 45 c8 bd c8 39 d4 3c de 65 00 3d
       -0.10391741 -0.0977888 0.025906458 0.031347148
0003b0 db 99 60 3d fd 6e 1f 3d 42 e8 3d 3d a2 5e 00 3b
       0.054834228 0.038924206 0.046364076 0.0019587656
0003c0 3b b9 b9 bb 13 3c 11 bd ea 69 21 bd 1f c8 2c 3d
       -0.005667833 -0.035457682 -0.03940765 0.042183038
0003d0 c0 dc 60 3a 0f 07 fc 3d 4c a4 a9 3d a5 60 08 3c
       0.0008577816 0.12306034 0.0828329 0.008323823
0003e0 44 0d ab bd c4 f4 84 bd 62 92 b0 3c 38 03 ca 3d
       -0.083521396 -0.06491998 0.021554176 0.09863895
0003f0 31 a0 60 3c 80 5c 4c bd ca ac 70 3d 44 ca 02 bc
       0.013710068 -0.049892902 0.058758534 -0.007982794

encoder.convs.0.edge_mlp.2.bias f4 [128]
000000 5f f0 c0 3c c4 f1 8b bd 73 b5 01 3b c2 29 e7 3c
       0.023552118 -0.068332225 0.001979199 0.028218154
000010 32 43 e6 bc 5c be d5 3c ef 6d a0 bc 73 32 b0 bd
       -0.028108213 0.026091747 -0.01958367 -0.086033724
000020 38 1f 91 bd 83 1a 69 bb 00 d8 95 bd 50 36 8b 3d
       -0.07086033 -0.003556878 -0.07316589 0.06797469
000030 52 c6 16 3d 3b ad b0 3d 9b 23 15 bc 44 27 5f 3d
       0.036810227 0.08626791 -0.009102727 0.054480806
000040 44 b6 93 bd 20 b3 f3 3c 47 32 18 3d 23 13 92 3c
       -0.07212499 0.0297485 0.037157323 0.01783139
000050 09 4d 48 bd 85 7a 11 bd 81 64 0b bd 88 7b 94 3d
       -0.04890159 -0.035517234 -0.034031395 0.07250124
000060 0b 0f a4 3c ba 27 dd bc 6c b7 e5 bc c5 3c 9e ba
       0.020026704 -0.026996482 -0.028041564 -0.0012072554
000070 6c 1a c9 3c ec 7e a1 3d 11 8d 3b 3d d9 e4 8b 3d
       0.024548732 0.078855366 0.04578883 0.068307586
000080 e1 74 01 bd 5a a2 8e 3c 7b 06 90 3d 8f 98 6d 3d
       -0.031605605 0.0174114 0.07032486 0.05800682
000090 22 bf 91 3c 44 ad 9f 3d eb fd 42 bd 35 84 9c bd
       0.017791335 0.0779672 -0.047605436 -0.07642404
0000a0 6a 3a bf 3c 13 cb 20 3d 58 16 48 3d 1c 71 80 bd
       0.023343284 0.039256167 0.048849434 -0.06271574
0000b0 42 84 a1 3d 0d 7d 91 bd 56 49 6c 3d 95 51 c0 bc
       0.07886554 -0.0710393 0.057687126 -0.023476401
0000c0 32 9e aa 3d 1e ed 2c 3d 6f 05 62 3d 00 bb 4b 3b
       0.083309546 0.04221832 0.055180963 0.0031086802
0000d0 bc 58 a9 bd 5e ab 83 bd 6b 5c 98 bd 1f 83 c4 bc
       -0.08268878 -0.0642917 -0.07439502 -0.023988305
0000e0 2f 4f 01 bd 4f cd c2 3c 71 6d 92 bd a3 0d 8f bd
       -0.031569656 0.02377954 -0.071497805 -0.06985023
0000f0 a8 ae 16 bc f2 b8 83 bc b4 10 cd bc 9c dc 9b bd
       -0.009196915 -0.0160794 -0.025032379 -0.07610437
000100 e4 63 a5 bd e2 59 91 bd 90 ee 34 bd 17 6d de bc
       -0.08075693 -0.07097222 -0.044172823 -0.027151627
000110 43 2f 84 bd 2a 57 8d bd 97 8f c3 bc 0d 3d 9b 3d
       -0.06454327 -0.06901391 -0.02387218 0.07580004
000120 95 6a 7e 3d 72 f6 cd bc 52 e2 7b bd 62 a1 12 3c
       0.062113363 -0.025141928 -0.061495133 0.0089496095
000130 20 6b 9b bd 5a 63 95 bd a2 49 15 b8 5a e4 bc 3c
       -0.07588792 -0.072943404 -3.5592944e-05 0.023058105
000140 10 d5 27 bd bf bf 58 bb 93 b4 9c 3b b4 e5 a6 bc
       -0.040974677 -0.0033073274 0.0047822683 -0.020373203
000150 63 7d b8 3c 96 35 92 3c 7e 4b 23 bd f2 26 41 bc
       0.022520727 0.017847817 -0.039866917 -0.01178907
000160 d8 7d 9f bd 2b 4b 42 bd e7 c7 bd bd d9 35 7f bd
       -0.07787675 -0.047434967 -0.09266644 -0.062307213
000170 c5 57 4f bd 40 16 ca bb cf 40 e6 bb e8 4b 86 3b
       -0.050620813 -0.006167203 -0.0070267688 0.004098404
000180 00 9c 6e 3d ba 71 7f 3c 94 ae 69 3b c8 5d f1 3c
       0.058254242 0.015591079 0.0035657035 0.029463664
000190 ba dc 61 bd 1a eb 2d ba 89 3a 41 3c 3c f9 93 3d
       -0.055142142 -0.0006634459 0.011793741 0.07225272
0001a0 9e 68 a9 3d 17 11 95 bd b1 ab 53 3c 09 f6 95 3d
       0.08271907 -0.0727865 0.012919352 0.07322318
0001b0 25 1f bd 3c 72 2f 87 bd 4e aa 6d 3d 54 f3 85 bd
       0.02308614 -0.06600846 0.058023743 -0.06540552
0001c0 f4 3f 8f bd 71 33 72 bd f1 a8 91 3d a6 6a ac 3d
       -0.0699462 -0.05913109 0.07112301 0.08418779
0001d0 a6 01 d4 bc dd b6 0f 3d c2 7c af 3c 23 3b b7 bd
       -0.025879692 0.0350865 0.021421794 -0.08946826
0001e0 a3 31 50 bd b2 d4 14 bd 48 28 a1 ba 03 6f ae bc
       -0.050828587 -0.036335655 -0.001229533 -0.021293169
0001f0 6e 49 5c 3d 33 bd 83 bd 7d 87 18 bd ce 7b 83 3a
       0.053780966 -0.06432571 -0.037238587 0.0010031404

encoder.convs.0.norm.weight f4 [128]
000000 d3 d6 7a 3f 99 3d 7c 3f 06 43 7b 3f a2 23 79 3f
       0.97984046 0.9853149 0.98149145 0.97319996
000010 02 4f 7b 3f 10 4b 78 3f 23 f2 77 3f eb 9b 79 3f
       0.9816743 0.96989536 0.96853846 0.97503537
000020 44 5e 7a 3f a3 cf 79 3f aa d3 79 3f 7d ef 79 3f
       0.9780009 0.97582453 0.975886 0.97631055
000030 b7 9a 78 3f 8b f1 7a 3f 68 01 7a 3f 2b df 79 3f
       0.97111076 0.98024815 0.97658396 0.9760615
000040 57 78 7a 3f 19 9f 7d 3f 2b 61 79 3f af c2 77 3f
       0.97839874 0.9907089 0.9741389 0.9678144
000050 9c 02 79 3f 5a 74 79 3f a5 00 78 3f 1a 07 7b 3f
       0.97269607 0.97443163 0.96875983 0.9805771
000060 35 3f 78 3f b5 1f 79 3f 57 89 78 3f da 6e 7b 3f
       0.96971446 0.97314006 0.97084564 0.9821602
000070 7e d1 74 3f 45 e6 79 3f 98 7d 79 3f 68 68 7b 3f
       0.9563216 0.9761699 0.97457266 0.98206186
000080 cc 13 78 3f 55 75 79 3f 82 4f 7c 3f e1 b1 7c 3f
       0.9690521 0.9744466 0.9855882 0.9870892
000090 45 e4 78 3f e8 15 79 3f a9 cd 78 3f e0 f0 79 3f
       0.9722331 0.9729905 0.9718881 0.9763317
0000a0 65 d9 7b 3f 8c 59 79 3f 3d 96 7a 3f 3f 3e 79 3f
       0.9837859 0.9740226 0.97885495 0.97360605
0000b0 a6 ef 78 3f 14 77 79 3f 8d a1 77 3f db 8d 79 3f
       0.97240674 0.97447324 0.9673088 0.9748208
0000c0 86 ed 78 3f 72 36 7b 3f 36 99 7d 3f a3 9e 7a 3f
       0.9723743 0.9812995 0.99061906 0.9789831
0000d0 34 5f 76 3f 76 ed 7c 3f 78 14 7a 3f 8b 33 7b 3f
       0.9623902 0.98799837 0.9768748 0.98125523
0000e0 3d 08 80 3f 1e ab 78 3f 38 6b 78 3f a1 4c 79 3f
       1.0002514 0.97136104 0.970386 0.9738255
0000f0 f5 a5 76 3f 41 cb 7a 3f 61 9d 77 3f 4a 07 7b 3f
       0.9634698 0.9796639 0.96724516 0.98058
000100 29 6d 79 3f 52 35 7d 3f 53 2d 7d 3f 7d f9 78 3f
       0.9743219 0.98909485 0.98897284 0.9725569
000110 fc 8e 7c 3f e1 59 77 3f 36 0c 79 3f 2f 59 7d 3f
       0.98655677 0.9662152 0.9728426 0.9896421
000120 20 9f 7a 3f 9f 8d 7b 3f 9a ba 77 3f 94 89 7a 3f
       0.97899055 0.9826297 0.96769106 0.9786618
000130 19 91 7a 3f 71 ab 79 3f e2 69 7a 3f 15 6a 79 3f
       0.9787765 0.97527224 0.97817814 0.97427493
000140 53 9b 7c 3f 26 87 7c 3f 96 84 76 3f 31 66 7a 3f
       0.98674506 0.9864372 0.9629606 0.9781218
000150 74 bb 79 3f 50 a8 7a 3f e0 28 78 3f 5f bf 7c 3f
       0.97551656 0.97913074 0.9693737 0.9872951
000160 ed b3 79 3f 3b b0 78 3f 09 c5 79 3f 5d 04 7d 3f
       0.9754017 0.97143906 0.97566277 0.9883478
000170 f9 ed 77 3f d9 71 79 3f 5d 3a 77 3f 02 5c 78 3f
       0.9684749 0.9743934 0.9657343 0.9701539
000180 61 82 7e 3f de 5b 79 3f 09 64 7b 3f b6 61 76 3f
       0.9941769 0.97405803 0.98199517 0.96242845
000190 5a e7 79 3f 06 90 74 3f 62 38 7c 3f a8 40 78 3f
       0.9761864 0.9553226 0.98523533 0.9697366
0001a0 7c ac 79 3f e7 74 7d 3f ae 6e 7a 3f 03 cf 77 3f
       0.97528815 0.99006504 0.97825134 0.9680025
0001b0 c0 cf 78 3f c9 b9 78 3f 00 c9 7b 3f de 83 7b 3f
       0.97192 0.97158486 0.98353577 0.9824809
0001c0 ac 6e 79 3f b9 63 77 3f 77 af 77 3f cf 8c 78 3f
       0.97434497 0.9663654 0.96752113 0.97089857
0001d0 8e b9 7a 3f e0 af 78 3f bd 15 77 3f cc 14 7b 3f
       0.97939384 0.97143364 0.96517545 0.9807861
0001e0 71 62 79 3f bd 0d 79 3f 38 24 7f 3f 06 33 79 3f
       0.97415835 0.9728659 0.9966464 0.9734348
0001f0 ec 7c 79 3f ee 8a 79 3f 8a a9 78 3f 53 42 7e 3f
       0.9745624 0.97477615 0.97133696 0.9931995

encoder.convs.0.norm.bias f4 [128]
000000 92 d4 9e 3b ee 22 d4 3a 10 db 39 3c 3c 47 9f 3c
       0.0048471177 0.0016184726 0.0113437325 0.019443147
000010 ac 6f d3 bc 44 34 38 3d a7 06 53 3b ab 99 da bc
       -0.025810085 0.04497172 0.003220001 -0.026684603
000020 55 34 93 3c 64 d0 99 bb e9 aa b8 bb db d0 53 3c
       0.01796929 -0.0046940316 -0.0056356085 0.012928213
000030 75 b8 1f 3d 73 47 f1 3c 07 52 3a ba 58 62 9f bc
       0.03899427 0.029453015 -0.000710756 -0.019456074
000040 87 89 a6 bd 47 47 9e bc 95 91 c3 bc 20 55 f7 3b
       -0.081317 -0.019321097 -0.02387313 0.0075479895
000050 7d f5 7f 3a 59 39 1a 3b 27 ef 87 3c ab a9 22 3d
       0.00097640586 0.0023532717 0.016593529 0.03971259
000060 a3 e9 27 bc 0e ee 32 bc dd 0b ab ba 2d 15 a5 3c
       -0.010248574 -0.0109210145 -0.00130498 0.020151699
000070 ee a1 ea ba 34 75 4e 3c b5 34 1f 3d 65 5f 9a 3c
       -0.0017901042 0.012601186 0.038868625 0.018844316
000080 41 b2 2e bc 80 68 ce b9 87 f8 d1 3d 4c e9 23 bb
       -0.010662616 -0.0003936924 0.10252481 -0.0025010882
000090 62 ab 6a 3b 5e 41 eb bb 3b ee a5 3c a3 41 a2 3c
       0.0035807719 -0.0071794232 0.020255199 0.019806689
0000a0 78 d8 00 3d ea 54 ab 3d 4f fb 49 3c 37 bb 08 bd
       0.03145644 0.083658054 0.012327983 -0.033381667
0000b0 a7 bc db bc 31 28 47 bd 21 02 5f bc 98 25 d2 3b
       -0.026823355 -0.048622314 -0.013611347 0.006413173
0000c0 4c 83 9c ba bf ad 18 3b 61 c6 cd 3c c8 49 78 bb
       -0.0011940985 0.002329692 0.025119008 -0.0037885774
0000d0 85 97 97 3b 09 26 84 bc 1e 3a 9f ba 5a d8 06 bd
       0.004626217 -0.016131418 -0.0012148058 -0.032921173
0000e0 ea b6 60 bc a3 bf 12 bd 21 0a c5 bb 0d 51 07 3c
       -0.013715485 -0.03582729 -0.0060131704 0.00825907
0000f0 5c 2d 7c 3d a5 75 57 3c 22 85 7a bb f3 cc 1c bd
       0.061566696 0.013150607 -0.0038226326 -0.038281392
000100 2b 77 57 3c 84 27 fc bb 2d 3d 95 bb 82 c1 13 bd
       0.01315097 -0.0076951403 -0.004554412 -0.036073215
000110 d2 cd de bc dc 9d 6b 3c c0 28 a9 3c 67 c6 98 3b
       -0.027197752 0.014380898 0.020649314 0.0046623233
000120 e4 c4 02 3d ca a6 93 3b 46 c6 90 bc ce eb b0 bc
       0.03192605 0.004505967 -0.01767267 -0.021596815
000130 3b ab 43 3c 7e 75 42 bd 86 2f 61 bc 9b 35 99 bb
       0.01194268 -0.04747533 -0.013744241 -0.0046755797
000140 8b 18 cd bd 22 d4 43 3d c2 ca 12 3d dc 69 c0 3b
       -0.10014447 0.047809727 0.035837896 0.0058719944
000150 fb 5e 01 3e 68 09 84 bb 2d ba 30 3c a1 e2 2e 3d
       0.12633888 -0.0040294416 0.010786575 0.0426966
000160 d5 ed df 3c 5e 6f 0f bd 84 86 0c 3d 18 f9 32 3c
       0.027335087 -0.035018317 0.03430797 0.010923646
000170 3e 03 83 bc 52 d7 a5 bc f5 6d 04 3d 1a 05 7a 3c
       -0.015992757 -0.020244274 0.032331426 0.015260005
000180 41 7a 8d 3b b5 71 0d bc a5 68 23 3c c9 30 97 3b
       0.0043175523 -0.008633067 0.00997368 0.00461397
000190 9b 29 96 3b 32 de fc bc 26 68 77 3d 84 c5 97 bc
       0.0045825965 -0.03086767 0.060402058 -0.0185268
0001a0 17 b3 d1 bc 89 ad 88 3c cd ff 22 bc fc 6e 58 3d
       -0.025598092 0.01668431 -0.009948683 0.052840218
0001b0 91 72 46 3b d3 91 6e 3c 0d 25 88 3c 51 f0 96 ba
       0.003028069 0.014561134 0.01661923 -0.0011515712
0001c0 d5 56 d9 3c 6e c9 8e bc fc e3 03 bd 6f 8a 9f bc
       0.026530663 -0.017430034 -0.032199845 -0.01947519
0001d0 4a 08 53 bb 91 b5 60 bd 12 f6 0d 3d d3 98 04 3c
       -0.0032200986 -0.054860655 0.0346585 0.008093077
0001e0 43 28 0f bd 56 04 ac bc d3 19 0b 3d 69 12 4a bd
       -0.034950506 -0.020998161 0.033960175 -0.049333964
0001f0 61 fc 89 bc 00 ca b9 bc 71 f0 db bb d3 bf 14 bc
       -0.016843976 -0.022679329 -0.0067120125 -0.009078938

encoder.convs.0.norm.mean_scale f4 [128]
000000 f0 c2 6f 3f d8 30 6d 3f d4 b0 6f 3f b3 b4 88 3f
       0.93656826 0.92652655 0.93629193 1.0680145
000010 9e a1 7e 3f 52 1a 76 3f ce fa 7e 3f 38 c9 75 3f
       0.9946536 0.9613391 0.9960145 0.9601016
000020 87 1b 81 3f d9 d9 6e 3f a8 b9 73 3f 6a fe 80 3f
       1.0086526 0.9330116 0.95205164 1.0077641
000030 ec bd 84 3f c2 5b 82 3f 8d 9f 74 3f 7b 12 7a 3f
       1.037046 1.0184252 0.95555955 0.9768445
000040 54 55 8b 3f 37 eb 78 3f 58 25 83 3f 76 81 7d 3f
       1.0885415 0.9723391 1.0245771 0.99025667
000050 e1 b2 7b 3f d3 4c 71 3f 40 2e 83 3f e1 c0 85 3f
       0.9831982 0.9425785 1.0248489 1.0449487
000060 a0 fb 76 3f e5 19 7a 3f 8d 91 78 3f 9c 75 72 3f
       0.964777 0.9769576 0.9709709 0.9471071
000070 3d 07 79 3f da 4e 81 3f ac e0 80 3f bd e0 84 3f
       0.9727667 1.0102189 1.0068564 1.0381085
000080 92 b1 79 3f f6 45 7d 3f 4f 5a 8a 3f ea 28 6c 3f
       0.97536576 0.98934877 1.080881 0.9224993
000090 cb aa 7a 3f 98 f9 80 3f 38 71 7f 3f 1f 2c 82 3f
       0.9791686 1.007617 0.99782133 1.0169715
0000a0 4d 09 87 3f 40 cb 88 3f 75 0a 7e 3f 4e b4 83 3f
       1.0549713 1.0687027 0.99234706 1.02894
0000b0 13 7b 73 3f fa b1 89 3f 25 b4 76 3f 10 95 7e 3f
       0.9510967 1.0757439 0.9636863 0.994462
0000c0 ed 8a 78 3f 32 92 7a 3f de 08 80 3f 78 c2 7b 3f
       0.97086984 0.97879326 1.0002706 0.9834361
0000d0 b9 f4 7e 3f 02 96 83 3f d9 a2 81 3f bd ab 81 3f
       0.9959217 1.0280154 1.0127822 1.0130535
0000e0 9a b8 6a 3f d6 83 78 3f fc b6 7d 3f 29 c0 74 3f
       0.9168793 0.97076166 0.99107337 0.95605713
0000f0 8f 86 87 3f 71 06 65 3f 40 9c 84 3f 62 70 71 3f
       1.0587939 0.89462954 1.0360184 0.9431211
000100 17 f7 73 3f c9 5c 6d 3f 6d 72 68 3f 5b f1 80 3f
       0.95298904 0.92719704 0.907996 1.0073656
000110 66 24 81 3f b4 78 80 3f bd 73 82 3f 72 3a 80 3f
       1.0089233 1.0036836 1.019157 1.0017836
000120 59 b3 77 3f a2 79 7e 3f d0 95 7e 3f 6b 76 77 3f
       0.9675804 0.99404347 0.99447346 0.96665066
000130 5e a3 70 3f df d0 84 3f 2a 9c 7c 3f 1d 94 70 3f
       0.9399928 1.0376242 0.9867579 0.93976
000140 05 dc 8b 3f 51 96 82 3f be fc 7d 3f d1 92 74 3f
       1.092652 1.0202123 0.9921378 0.95536524
000150 02 2b 89 3f 2f de 79 3f 0c 41 82 3f 5d a6 82 3f
       1.071625 0.9760465 1.0176101 1.020702
000160 83 ad 7c 3f d4 cc 71 3f ac ae 82 3f 12 cf 6b 3f
       0.9870226 0.9445317 1.0209556 0.9211284
000170 2c a3 80 3f c0 67 80 3f d0 8e 82 3f e8 fc 7a 3f
       1.0049796 1.0031662 1.0199833 0.98042154
000180 3b 16 92 3f a6 17 7d 3f a1 ec 7e 3f e4 49 7f 3f
       1.1413034 0.9886421 0.9957982 0.99722123
000190 d1 c4 82 3f 20 50 83 3f cc 48 83 3f 73 b5 83 3f
       1.0216314 1.0258827 1.0256591 1.0289749
0001a0 f3 11 81 3f 37 b5 6f 3f ab b2 7d 3f cd 19 84 3f
       1.0083603 0.93635887 0.9910075 1.0320374
0001b0 c1 bb 80 3f 73 f2 70 3f 15 82 7e 3f cc ea 76 3f
       1.0057298 0.9411995 0.9941724 0.9645202
0001c0 4f e6 7c 3f f9 61 7f 3f 4f 80 82 3f 87 72 7a 3f
       0.98788923 0.9975887 1.0195407 0.97831005
0001d0 ee 9b 79 3f 43 f6 83 3f 50 15 83 3f fa 12 7e 3f
       0.97503555 1.0309528 1.0240879 0.99247706
0001e0 36 de 84 3f a5 99 80 3f 86 1f 77 3f cd fe 84 3f
       1.0380313 1.0046889 0.96532476 1.0390259
0001f0 05 26 7f 3f b1 5e 78 3f 37 f4 81 3f 2a 53 7c 3f
       0.9966739 0.9701949 1.0152653 0.985644
