checkpoints/model_B_epoch_19.pth (torch, 552443 bytes, 27 tensors)

encoder.node_embedding.weight f4 [1, 128]
1.8921878 1.457624 0.87534773 -2.0634906 0.65261465 -1.1965835 -0.045088425 -1.5648533
-0.7144657 1.6088537 -0.35934073 -1.3654151 -0.7210125 -0.545697 -0.75444186 0.7403443
1.6144279 -0.13720895 -0.4648235 0.4299416 -0.7367521 1.0526744 0.77638906 1.6413016
1.237465 1.2747352 0.5817355 1.2908248 -0.22327048 0.043686982 -0.23328292 0.83217674
-1.3499951 -0.8399021 -0.20599094 1.6934184 0.30988035 -0.39226717 0.290483 -0.7648247
-1.5252826 0.97924465 -0.8638882 -0.5766443 -1.2448151 2.0727837 -1.2145232 -0.4503454
-0.89220536 -0.6291267 0.06979906 0.5066848 -0.47320986 1.1610305 -0.8009927 -0.7056528
-1.3658229 0.035685103 -0.05295827 0.65082026 -0.07746881 1.7954295 -1.1535516 1.3493823
1.4073395 0.8226549 2.1698203 0.48494485 0.31779462 -0.17751057 -1.0245547 1.2565827
-0.14723338 0.49993277 0.031408012 0.4094632 0.5426816 -0.6185663 -2.1565208 -0.7384231
0.00040261203 -0.3327583 -1.3226117 -0.5787124 0.5013519 0.49715889 1.11139 0.047297925
0.7259724 -0.4584812 -1.0367571 0.57491386 -1.7076387 -0.8041042 1.2990483 0.47413164
-2.4572127 0.48824933 0.7687569 0.013447875 0.6089228 0.5488724 1.0447922 -0.42236808
-0.1782395 0.74093115 0.37687704 0.16446528 0.25027457 1.2442032 0.00095078326 -0.29202953
-1.4268798 -0.08831999 -0.5884929 0.4715285 0.6950137 0.06078224 -0.37205347 0.50769377
-0.00027274707 0.23110712 0.11461476 0.73448026 1.0695685 0.31158417 0.7033908 0.38769814
00000000: 3633 f23f 6c93 ba3f ca16 603f 3b10 04c0
00000010: c111 273f a629 99bf a4ae 38bd 1d4d c8bf
00000020: 39e7 36bf ebee cd3f 82fb b7be ecc5 aebf
00000030: 4694 38bf ccb2 0bbf 1a23 41bf 3487 3d3f
00000040: 93a5 ce3f 8180 0cbe 59fd edbe 4e21 dc3e
00000050: c99b 3cbf 09be 863f 6fc1 463f 2c16 d23f
00000060: 4165 9e3f 862a a33f 9eec 143f bf39 a53f
00000070: 04a1 64be 1ff1 323d b8e1 6ebe 8909 553f
00000080: a4cc acbf d303 57bf 4aef 52be efc1 d83f
00000090: a3a8 9e3e 3ed7 c8be 30ba 943e 8dcb 43bf
000000a0: 763c c3bf c7af 7a3f c727 5dbf f69e 13bf
000000b0: 1a56 9fbf 7da8 0440 7f75 9bbf ac93 e6be
000000c0: 9267 64bf 730e 21bf cff2 8e3d 18b6 013f
000000d0: 9048 f2be a69c 943f dc0d 4dbf a9a5 34bf
000000e0: 49d3 aebf 8b2a 123d c5ea 58bd 289c 263f
000000f0: f8a7 9ebd a2d0 e53f 94a7 93bf 8fb8 ac3f
00000100: b323 b43f 8399 523f 56de 0a40 b14a f83e
00000110: fab5 a23e 55c5 35be 9c24 83bf b4d7 a03f
00000120: 59c4 16be 30f7 ff3e b0a5 003d 29a5 d13e
00000130: 2eed 0a3f 5c5a 1ebf 7004 0ac0 4c09 3dbf
00000140: ac15 d339 4c5f aabe 574b a9bf 7f26 14bf
00000150: 9958 003f 9c8b fe3e 0742 8e3f 78bb 413d
00000160: 54d9 393f 0cbe eabe 75b4 84bf 8e2d 133f
00000170: e893 dabf c6d9 4dbf 3747 a63f 62c1 f23e
00000180: f942 1dc0 d1fb f93e 41cd 443f 7a54 5c3c
00000190: 5de2 1b3f e782 0c3f c0bb 853f a140 d8be
000001a0: 6a84 36be aaad 3d3f 07f6 c03e 9669 283e
000001b0: fd23 803e 0d42 9f3f fc3d 793a e584 95be
000001c0: ffa3 b6bf 1ce1 b4bd 78a7 16bf 2f6c f13e
000001d0: 6bec 313f ccf6 783d cb7d bebe 38f8 013f
000001e0: 7eff 8eb9 58a7 6c3e 25bb ea3d e606 3c3f
000001f0: 9fe7 883f f687 9f3e 6b11 343f 5f80 c63e

encoder.convs.0.node_mlp.weight f4 [128, 256]
0.06149775 -0.0023894233 0.062837265 0.009378996 -0.04236456 0.03282077 -0.0270677 -0.033428676
-0.060922932 -0.05141991 0.007665088 -0.023297234 0.014165434 -0.06036971 0.035907306 -0.03542492
-0.00080872927 0.0031912755 0.02195545 0.059600208 0.046278946 -0.039036553 0.025303265 -0.016661659
0.0030590086 -0.036301214 0.06597467 -0.0353572 0.022965154 0.03168023 0.010265506 -0.023447508
0.0461695 0.0037036326 -0.0018725673 -0.044465903 0.035701163 -0.019100627 -0.018431544 0.043078255
0.0038964725 -0.024256214 -0.041034542 -0.012741015 0.024578378 -0.005899468 -0.044978596 -0.030933715
-0.055851463 0.012148149 0.057421762 -0.04814528 0.004485633 0.041644096 0.0013353716 -0.031803396
0.022337183 0.042167336 0.012938471 -0.0009762738 -0.026181383 0.01642305 -0.020747373 -0.0085457675
0.049218416 0.06274921 0.0037345807 -0.003965098 0.010675829 -0.013747279 0.0050105443 0.027092297
-0.065752365 -0.012869264 0.060873426 0.033836972 0.006791675 -0.046970233 -0.047539003 -0.06502087
-0.006548282 0.0109117 0.029426854 0.01857701 -0.044587795 -0.02720796 0.00012404406 0.069550864
0.018755112 -0.025854522 0.015671782 -0.013672457 -0.04970402 0.0351284 -0.018184924 -0.0025194457
-0.071116894 0.051046934 0.056524094 0.031820867 -0.033073034 -0.050977748 -0.040211193 0.03607433
0.01982766 0.061689116 0.042157724 0.025476014 0.00926638 -0.037026495 -0.05622634 -0.06750565
0.015386603 -0.04038707 -0.022230433 -0.025596008 -0.0013804191 -0.033560835 -0.05011826 0.030274445
-0.019914888 0.047925502 -0.0100100385 -0.03536537 -0.0010366618 -0.019933423 -0.009000246 -0.048779484
0.037199125 -0.07331858 0.029479342 0.047192603 0.049712237 -0.06303469 0.049486376 -0.053086076
0.018503964 0.06178141 -0.016347265 -0.0062256274 -0.01959392 -0.046199687 0.0033731149 -0.05069979
0.016039371 0.046217754 0.08010379 -0.0068094735 -0.081731215 0.002313923 0.025349 -0.057887856
-0.0234803 -0.042837035 -1.0370702e-05 -0.0025716035 0.017124828 -0.039255276 -0.050044812 0.067399256
0.057968907 -0.039442286 0.023617702 -0.0030897693 -0.07175598 -0.032166414 -0.014209176 -0.06360308
-0.04394263 -0.0052426974 -0.018159319 -0.032576516 -0.0034896003 0.008642586 -0.0123374155 -0.030875873
-0.042319432 0.039218105 -0.02374373 -0.0007317177 -0.038961634 -0.0003223194 0.03549828 0.03505744
-0.036928587 0.011403652 0.075103134 0.004433579 0.041156814 0.05321799 -0.005817979 0.023814667
-0.07295452 -0.0054400004 0.060761858 -0.0025934794 -0.023130149 -0.04234998 -0.028183158 -0.0534713
-0.054807507 -0.024235085 0.039920863 0.026191263 -0.05778205 -0.038451694 0.0100977635 -0.0517532
-0.015198147 0.034275215 -0.0574639 -0.015122339 -0.02679948 -0.0005890335 -0.0083017545 -0.07213086
-0.022657856 -0.042475954 0.07001649 -0.032189194 -0.03758251 -0.019136267 0.046488218 0.069361895
0.09193342 0.02280563 -0.065873645 0.013486527 0.06250886 -0.033602748 -0.04084851 0.058215518
-0.027983727 -0.043124985 -0.06025123 -0.025906028 0.026082492 -0.0072632628 0.0075203897 -0.032894734
-0.02472037 -0.00063128315 0.08313894 0.023756295 -0.028405987 -0.014225559 -0.02436341 -0.050404143
-0.03197703 0.024694357 0.06853287 -0.06703763 0.043308362 -0.10683293 0.023832362 0.033795383
00000000: 11e5 7b3d df97 1cbb d3b0 803d 5caa 193c
00000010: 7686 2dbd 126f 063d 15bd ddbc 82ec 08bd
00000020: 538a 79bd af9d 52bd 6b2b fb3b d7d9 bebc
00000030: 2316 683c 3b46 77bd 8a13 133d b919 11bd
00000040: e700 54ba b824 513b eadb b33c 591f 743d
00000050: fe8e 3d3d cbe4 1fbd cb48 cf3c 087e 88bc
00000060: a679 483b 95b0 14bd ba1d 873d b6d2 10bd
00000070: 6b21 bc3c 21c3 013d a730 283c fd14 c0bc
00000080: 3b1c 3d3d a5b8 723b ef70 f5ba e121 36bd
00000090: 623b 123d eb78 9cbc c0fd 96bc d372 303d
000000a0: f65b 7f3b f8b4 c6bc d613 28bd b1bf 50bc
000000b0: 9858 c93c 5350 c1bb 7a3b 38bd b468 fdbc
000000c0: 81c4 64bd 0809 473c 1533 6b3d fc33 45bd
000000d0: 38fc 923b 0093 2a3d a307 af3a 4744 02bd
000000e0: 78fc b63c a8b7 2c3d e1fb 533c a0ec 7fba
000000f0: 577a d6bc a289 863c 65f6 a9bc 8c03 0cbc
00000100: 4099 493d a882 803d debf 743b a7ed 81bb
00000110: ace9 2e3c 443c 61bc 7e2f a43b aaf0 dd3c
00000120: 2da9 86bd 9bd9 52bc 6a56 793d a398 0a3d
00000130: b38c de3b dc63 40bd 42b8 42bd a929 85bd
00000140: f992 d6bb fdc6 323c 9610 f13c d02e 983c
00000150: b1a1 36bd 3ae3 debc d311 0239 af70 8e3d
00000160: 52a4 993c ddcc d3bc 1c62 803c 7102 60bc
00000170: 7196 4bbd cce2 0f3d 8df8 94bc 491d 25bb
00000180: bca5 91bd 9716 513d cf85 673d 9956 023d
00000190: 9777 07bd 0bce 50bd 7eb4 24bd adc2 133d
000001a0: 9e6d a23c baad 7c3d 94ad 2c3d 13b3 d03c
000001b0: 04d2 173c 18a9 17bd 974d 66bd 6740 8abd
000001c0: 1718 7c3c ea6c 25bd 991c b6bc b8ae d1bc
000001d0: 2eef b4ba 1677 09bd ce48 4dbd 1d02 f83c
000001e0: 8c24 a3bc 884d 443d 2501 24bc 47db 10bd
000001f0: 99e0 87ba 6b4b a3bc c575 13bc ffcc 47bd
00000200: 1c5e 183d 0d28 96bd a97e f13c 084d 413d
00000210: 0f9f 4b3d 5518 81bd 3ab2 4a3d c970 59bd
00000220: a095 973c 810e 7d3d b3ea 85bc 5900 ccbb
00000230: 6e83 a0bc e23b 3dbd 7a0f 5d3b 95aa 4fbd
00000240: 0065 833c d44e 3d3d 750d a43d 0122 dfbb
00000250: b262 a7bd 30a5 173b b5a8 cf3c d11b 6dbd
00000260: c259 c0bc e375 2fbd d3fd 2db7 5988 28bb
00000270: 5e49 8c3c 24ca 20bd cafb 4cbd 9f08 8a3d
00000280: ce70 6d3d 3c8e 21bd e979 c13c ba7d 4abb
00000290: cdf4 92bd eec0 03bd 9bcd 68bc 5542 82bd
000002a0: 30fd 33bd efca abbb dac2 94bc f46e 05bd
000002b0: c7b1 64bb a299 0d3c df22 4abc 66ef fcbc
000002c0: 2457 2dbd 2aa3 203d 3682 c2bc bed0 3fba
000002d0: 3c96 1fbd fafc a8b9 a566 113d 6498 0f3d
000002e0: 6e42 17bd 62d6 3a3c accf 993d 8e47 913b
000002f0: 0c94 283d 1bfb 593d bfa4 bebb fa16 c33c
00000300: 2e69 95bd 0842 b2bb 6de1 783d 5df7 29bb
00000310: 707b bdbc 2c77 2dbd 5ee0 e6bc b904 5bbd
00000320: d67d 60bd a888 c6bc 0f84 233d 0f8f d63c
00000330: dfac 6cbd 867f 1dbd 1771 253c 2afb 53bd
00000340: a601 79bc 2b64 0c3d 445f 6bbd b0c3 77bc
00000350: 958a dbbc 5e69 1aba 1504 08bc 58b9 93bd
00000360: f89c b9bc 44fb 2dbd ce64 8f3d d1d8 03bd
00000370: 1ef0 19bd a9c3 9cbc 6e6a 3e3d 9c0d 8e3d
00000380: 9747 bc3d dfd2 ba3c c3e8 86bd 98f6 5c3c
00000390: a504 803d 09a3 09bd c450 27bd 6573 6e3d
000003a0: 213e e5bc d3a3 30bd fec9 76bd e138 d4bc
000003b0: f3aa d53c aa00 eebb 9a6d f63b a1bc 06bd
000003c0: 6082 cabc b27c 25ba c044 aa3d 909c c23c
000003d0: acb3 e8bc 5212 69bc c695 c7bc 9374 4ebd
000003e0: 59fa 02bd d24b ca3c f65a 8c3d 064b 89bd
000003f0: 1c64 313d 39cb dabd 163c c33c 076d 0a3d

encoder.convs.0.node_mlp.bias f4 [128]
-0.038581837 0.012791728 0.025417639 0.04967246 0.022581786 -0.022371093 0.007670623 -0.041728977
0.013737014 0.0186047 0.04886099 0.06354067 -0.02573765 0.057306133 -0.05030521 0.010534588
0.022798061 0.017274888 0.026066244 -0.015372417 0.052933324 0.011785857 0.0021628526 -0.0149416495
-0.047344554 -0.008552882 0.009749721 0.00730943 -0.011726898 -0.0070508556 0.009429597 -0.036718875
-0.00048171263 -0.054890167 0.0064251237 0.05455589 -0.035410456 0.017378481 -0.012553425 -0.018113483
0.036549218 -0.07123101 0.022377314 0.025340727 0.03611354 -0.013481501 -0.031527042 -0.027350755
0.050826356 0.024875158 0.031419057 -0.04082927 0.030410318 -0.034241214 0.052662533 0.039416105
-0.04777521 -0.05044333 -0.05853038 -0.028704286 0.021479193 -0.047727015 0.056871228 -0.035304103
-0.00660071 0.020819474 -0.046017263 -0.0049198135 -0.06739606 -0.059255682 0.0027324848 -0.02761999
0.04776105 -0.038522802 0.04004335 0.050450165 -0.010754688 -0.011352558 0.020289794 -0.022637928
0.017434575 -0.02024268 -0.01399141 -0.03799254 0.045242053 -0.04804457 -0.020810034 0.025521118
-0.04367856 0.018755453 0.056485113 0.02538409 0.045028973 -0.035717443 0.046978377 -0.001974461
0.022345753 -0.021929378 -0.012972749 0.027203785 0.03199708 -0.04804906 0.05669557 0.05782007
-0.0294215 0.007676652 0.01764649 -0.044309568 0.0226348 0.055427663 -0.026025895 -0.034701645
-0.043464478 0.04371665 -0.00043988507 -0.00039496465 0.007827797 0.019041555 0.03885484 0.0036908968
-0.06672241 0.043445967 0.052449875 0.0057920995 -0.029502643 -0.025213152 0.014681938 0.043781687
00000000: fd07 1ebd 6594 513c a738 d03c 5975 4b3d
00000010: 70fd b83c 9543 b7bc d959 fb3b 01ec 2abd
00000020: 3611 613c e268 983c 7622 483d 9c21 823d
00000030: c4d7 d2bc d6b9 6a3d d60c 4ebd 4499 2c3c
00000040: 00c3 ba3c 1184 8d3c e088 d53c 97dc 7bbc
00000050: 9dd0 583d 7819 413c a5be 0d3b d2cd 74bc
00000060: 5dec 41bd 6321 0cbc 4bbd 1f3c f183 ef3b
00000070: 2d22 40bc dd0a e7bb 997e 1a3c 8866 16bd
00000080: 608e fcb9 83d4 60bd d889 d23b ff75 5f3d
00000090: 8e0a 11bd 515d 8e3c e1ac 4dbc ba62 94bc
000000a0: a2b4 153d 90e1 91bd a150 b73c 5b97 cf3c
000000b0: cbeb 133d 83e1 5cbc 8022 01bd b10e e0bc
000000c0: 4c2f 503d fdc6 cb3c 45b1 003d 983c 27bd
000000d0: 0f1f f93c 8440 0cbd abb4 573d c872 213d
000000e0: f0af 43bd aa9d 4ebd 8dbd 6fbd 4025 ebbc
000000f0: 22f5 af3c 677d 43bd cef1 683d 099b 10bd
00000100: c54a d8bb 9a8d aa3c 997c 3cbd 6336 a1bb
00000110: f206 8abd 16b6 72bd 7d13 333b 5143 e2bc
00000120: 17a1 433d 16ca 1dbd 7f04 243d d5a4 4e3d
00000130: 6e34 30bc 1400 3abc c836 a63c 2d73 b9bc
00000140: f4d2 8e3c fad3 a5bc 3a3c 65bc 119e 1bbd
00000150: bb4f 393d 62ca 44bd ce79 aabc aa11 d13c
00000160: 4ae8 32bd 09a5 993c ef5c 673d 4cf2 cf3c
00000170: 4d70 383d 744c 12bd 666c 403d f565 01bb
00000180: 710e b73c 3da5 b3bc a78b 54bc 79da de3c
00000190: 5f0f 033d 17cf 44bd 9d39 683d bdd4 6c3d
000001a0: 5c05 f1bc 6d8c fb3b 5f8f 903c f37d 35bd
000001b0: 9e6c b93c 1e08 633d 4234 d5bc 5023 0ebd
000001c0: cf07 32bd 3b10 333d 60a0 e6b9 4213 cfb9
000001d0: 2940 003c 09fd 9b3c 4126 1f3d f9e2 713b
000001e0: c2a5 88bd 66f4 313d aed5 563d a7cb bd3b
000001f0: 87af f1bc d08b cebc 838c 703c 6d54 333d

encoder.convs.0.edge_mlp.0.weight f4 [128, 7]
-0.3259631 0.0518768 0.054184884 0.0386365 -0.19932577 -0.029009808 -0.36866617 0.0033518854
-0.37258375 0.3461212 0.14589326 0.14774917 -0.23636103 -0.21154469 0.006218346 -0.044496503
-0.053805593 0.029322611 0.035713572 -0.3062283 0.3107022 -0.13892047 0.09056584 -0.2765733
0.33444878 -0.18560831 0.20447095 0.18194984 -0.09382506 0.041555315 -0.2680358 -0.3626679
0.10971655 0.23307443 -0.29225978 -0.16913182 -0.34002775 -0.32436037 0.069340214 -0.092319906
0.37326792 0.3235717 -0.18286715 0.3239317 0.25375032 0.3225842 -0.120337516 -0.040669933
-0.20938477 -0.13126175 0.30121407 0.34618685 -0.39721298 0.12555026 -0.13030975 -0.2914448
0.13280067 0.082451925 -0.15221633 0.39078584 -0.19981551 0.21146247 0.2561493 -0.22069728
0.18539298 -0.15987371 -0.18281485 0.13083844 0.3687955 -0.2391329 0.3176396 -0.3791913
0.057060525 -0.34512165 -0.1277325 -0.20473346 0.3786982 -0.16438816 -0.3507615 -0.17884038
0.2686223 0.18838406 0.15359734 0.30896485 -0.12783672 0.22082691 -0.49181843 -0.31187043
0.20439939 -0.19625506 0.17050326 0.22509162 0.19682811 0.293787 0.09447361 0.010360001
-0.36166388 -0.1459855 0.010449373 0.14068575 -0.1754147 -0.048484076 -0.020559123 0.019922744
-0.32870004 0.26574695 0.0098004015 0.36329538 -0.28116223 -0.070567176 0.07728564 0.22353016
-0.17769894 -0.13654721 -0.16740334 -0.20495826 -0.31135345 0.026568688 0.31729805 -0.42955053
-0.110437244 -0.43242937 0.096945584 0.16172706 -0.3584028 0.120698854 -0.10460143 -0.07387443
-0.27297747 -0.007268147 0.22091964 -0.18828712 -0.12840654 -0.2716931 -0.18105967 0.2940819
0.25359342 -0.1887349 0.33097222 0.16158234 0.16785976 -0.30370995 -0.07309951 0.34354064
0.26111317 0.17703022 -0.1884524 -0.039140854 0.1648594 0.17242014 -0.1469411 -0.24208936
-0.29848757 -0.30285883 -0.18924905 0.1888399 -0.19523536 0.0741591 -0.32428062 -0.005586798
-0.19805272 -0.19706348 0.26612765 0.11999903 0.34405535 0.14053383 -0.0044866907 0.23160367
-0.2265975 0.22110023 0.046040747 -0.04450973 -0.28398427 -0.005697911 -0.27006623 0.22433671
-0.2500923 -0.055148818 0.39789748 0.0020892096 -0.30833367 0.10064889 0.0898429 -0.20515281
-0.2933433 -0.37543175 -0.2922223 0.0222221 -0.3513995 -0.34668696 0.13542743 -0.28955203
-0.041172605 0.07331081 0.3138908 -0.03816111 0.116907395 0.26363677 0.15263936 0.30991843
-0.06835321 0.35670787 -0.23398481 0.30564705 0.09914748 0.044944983 0.40901896 0.21719146
0.029272733 -0.06356007 0.3998704 0.037038155 0.17546262 0.010844625 -0.089502 -0.18104124
0.24536404 0.12127815 0.06927199 0.08811171 -0.093627885 -0.027515424 -0.18376361 0.09650649
0.19796489 -0.36008185 0.3633768 -0.10581125 0.2915819 0.29691306 0.11868926 0.3061531
-0.25805432 -0.4644034 0.013433802 -0.222321 -0.15472192 0.03215834 -0.25817513 0.0092985295
-0.24085882 0.08834685 0.066979624 -0.21942215 -0.12320465 -0.060116906 0.22819293 0.31587
0.15602964 0.051944602 -0.017318768 0.3756642 -0.17622799 -0.19888034 0.08964029 -0.33226874
00000000: a3e4 a6be c47c 543d f8f0 5d3d 4e41 1e3d
00000010: 0e1c 4cbe faa5 edbc d0c1 bcbe 4eab 5b3b
00000020: 4cc3 bebe cc36 b13e 0b65 153e 8f4b 173e
00000030: a008 72be 2c9f 58be 44c3 cb3b f741 36bd
00000040: 4163 5cbd f935 f03c 6548 123d f5c9 9cbe
00000050: 5c14 9f3e 2b41 0ebe 957a b93d 049b 8dbe
00000060: df3c ab3e 1b10 3ebe d560 513e 0f51 3a3e
00000070: 5a27 c0bd e835 2a3d fd3b 89be 9baf b9be
00000080: 12b3 e03d 10ab 6e3e 13a3 95be e430 2dbe
00000090: 1e18 aebe 9012 a6be 3e02 8e3d 3812 bdbd
000000a0: f91c bf3e 31ab a53e 8741 3bbe 60da a53e
000000b0: 90eb 813e c229 a53e 8473 f6bd 8495 26bd
000000c0: f668 56be 7b69 06be bb38 9a3e 673f b13e
000000d0: 805f cbbe 3f90 003e eb6f 05be 4138 95be
000000e0: e6fc 073e 8edc a83d 99de 1bbe 1515 c83e
000000f0: 709c 4cbe 9e89 583e 0026 833e 78fe 61be
00000100: a8d7 3d3e efb5 23be d133 3bbe 83fa 053e
00000110: c4d2 bc3e 41df 74be a8a1 a23e 5d25 c2be
00000120: 4cb8 693d c9b3 b0be 4fcc 02be a6a5 51be
00000130: bbe4 c13e 5f55 28be 0397 b3be ef21 37be
00000140: dd88 893e c0e7 403e 9f48 1d3e a430 9e3e
00000150: a1e7 02be 7320 623e a0cf fbbe 7bad 9fbe
00000160: 134e 513e 16f7 48be 6898 2e3e 6b7e 663e
00000170: 4f8d 493e 406b 963e 617b c13d febc 293c
00000180: 022c b9be 397d 15be d933 2b3c ed0f 103e
00000190: e99f 33be 3d97 46bd 9b6b a8bc 0635 a33c
000001a0: 5f4b a8be fc0f 883e dd91 203c da01 ba3e
000001b0: 7ff4 8fbe 8685 90bd ef47 9e3d 17e5 643e
000001c0: b6f6 35be 08d3 0bbe c86b 2bbe 94e0 51be
000001d0: b869 9fbe 94a6 d93c e474 a23e 0cee dbbe
000001e0: ec2c e2bd 6267 ddbe 688b c63d c79b 253e
000001f0: 9280 b7be f630 f73d 4639 d6bd 7a4b 97bd
00000200: b4c3 8bbe a329 eebb c238 623e 57ce 40be
00000210: 017d 03be 5c1b 8bbe b567 39be e791 963e
00000220: ffd6 813e b943 41be 3175 a93e d775 253e
00000230: 6ee3 2b3e df7f 9bbe 32b5 95bd 8fe4 af3e
00000240: a0b0 853e 6947 353e aaf9 40be 2952 20bd
00000250: e7d0 283e e88e 303e ba77 16be 46e6 77be
00000260: 5dd3 98be 5010 9bbe 81ca 41be 3f5f 413e
00000270: c7eb 47be bae0 973d 1c08 a6be 7511 b7bb
00000280: 55ce 4abe 02cb 49be e241 883e 0dc2 f53d
00000290: 0628 b03e 1ae8 0f3e 1705 93bb 8329 6d3e
000002a0: 2d09 68be 1968 623e 3995 3c3d d64f 36bd
000002b0: 6366 91be 8bb5 babb 1f46 8abe 86b8 653e
000002c0: 190c 80be bae3 61bd 38b9 cb3e 1feb 083b
000002d0: e9dd 9dbe 0121 ce3d 8eff b73d 9413 52be
000002e0: 1831 96be 9738 c0be 299e 95be 1f0b b63c
000002f0: a3ea b3be f480 b1be 7dad 0a3e 2a40 94be
00000300: 9ba4 28bd fa23 963d 4cb6 a03e d34e 1cbd
00000310: 256d ef3d 66fb 863e 7e4d 1c3e a1ad 9e3e
00000320: c5fc 8bbd 6aa2 b63e b799 6fbe c57d 9c3e
00000330: d60d cb3d 3b18 383d ef6a d13e 7067 5e3e
00000340: 5fcd ef3c c82b 82bd d0bb cc3e 52b5 173d
00000350: 79ac 333e a7ad 313c d34c b7bd e062 39be
00000360: b640 7b3e ae60 f83d 79de 8d3d ea73 b43d
00000370: fabf bfbd 0768 e1bc 872c 3cbe 32a5 c53d
00000380: 4fb7 4a3e a65c b8be 860c ba3e 92b3 d8bd
00000390: 394a 953e fd04 983e 5b13 f33d 19c0 9c3e
000003a0: b21f 84be 48c6 edbe 7319 5c3c 1ea8 63be
000003b0: 6c6f 1ebe 77b8 033d 882f 84be dc58 183c
000003c0: b2a3 76be 31ef b43d 9d2c 893d 33b0 60be
000003d0: b852 fcbd 253d 76bd 68ab 693e b6b9 a13e
000003e0: 3cc6 1f3e ddc3 543d 17e0 8dbc 0f57 c03e
000003f0: 1c75 34be 4aa7 4bbe 5495 b73d 211f aabe

encoder.convs.0.edge_mlp.0.bias f4 [128]
0.08861291 0.14428718 -0.30205876 0.044979475 -0.08247274 0.2521229 -0.041041844 -0.20206961
0.19712359 -0.14236511 -0.008908203 -0.042972196 0.17610042 -0.03187994 0.17493394 -0.22584556
0.03521795 0.3234031 -0.20696753 -0.09226235 0.03681163 0.093207166 -0.14606719 0.11153085
-0.09469203 0.030505437 0.35972857 0.31156775 -0.1271191 -0.15008414 -0.19179541 -0.034696534
0.009680161 0.13570926 -0.12551157 0.16449311 -0.00891586 0.08277007 0.3386866 0.051678516
0.020946592 -0.02550818 0.25090235 -0.24516273 -0.12691547 0.10740529 0.22074614 -0.3784942
-0.048998635 0.08326928 0.29503334 0.19549535 0.3141792 -0.08622373 -0.34385097 0.092945196
0.24565692 0.06750091 0.10801272 0.34210497 -0.33753964 0.06821144 0.11994063 0.055854768
-0.10440359 -0.12164406 0.19299127 0.08096533 0.13015853 0.020182414 -0.19758302 0.16019897
-0.18859074 -0.23198348 -0.17264974 -0.28407517 -0.28215015 0.012178078 -0.31286243 0.23924252
-0.2727562 0.12132576 0.1402189 -0.12893459 0.16179557 0.32407373 -0.3296058 -0.0059006955
0.25406942 0.36010918 0.13171692 0.32514903 -0.18836233 0.3183366 0.10832116 -0.25058597
0.20968075 0.2760815 -0.31205285 0.18723032 0.1362279 0.30010673 -0.3446233 0.18181087
0.3696658 -0.13345626 0.16938272 -0.30432543 0.07334035 -0.22386463 -0.3045924 0.17168285
0.18786934 0.19634734 0.30062988 -0.073999025 -0.27109736 0.21714257 0.28195876 -0.2762149
-0.3062739 -0.24034894 -0.23378514 0.20507051 -0.32043177 0.10352231 0.039691027 -0.2644859
00000000: af7a b53d 05c0 133e 72a7 9abe 663c 383d
00000010: 78e7 a8bd 4116 813e 7e1b 28bd 56eb 4ebe
00000020: c4da 493e 29c8 11be b6f3 11bc 9d03 30bd
00000030: ab53 343e 8a94 02bd e221 333e 0f44 67be
00000040: b240 103d 1795 a53e 4cef 53be 0bf4 bcbd
00000050: cbc7 163d 66e3 be3d a392 15be 496a e43d
00000060: e5ed c1bd 8ae6 f93c 582e b83e cf85 9f3e
00000070: 822b 02be a8af 19be 0466 44be f41d 0ebd
00000080: 8a99 1e3c 5ef7 0a3e 1b86 00be e270 283e
00000090: d413 12bc 5b83 a93d 5468 ad3e daac 533d
000000a0: 3098 ab3c 88f6 d0bc 4676 803e f00b 7bbe
000000b0: 21f6 01be 4ef7 db3d 470b 623e fec9 c1be
000000c0: cbb2 48bd 1689 aa3d 9c0e 973e ef2f 483e
000000d0: 19dc a03e 1196 b0bd 3c0d b0be 0d5a be3d
000000e0: 7d8d 7b3e eb3d 8a3d c635 dd3d 6228 af3e
000000f0: ffd1 acbe 71b2 8b3d 6fa3 f53d f8c7 643d
00000100: 8dd1 d5bd 8520 f9bd 819f 453e 27d1 a53d
00000110: 4748 053e 9755 a53c 3453 4abe 330b 243e
00000120: ee1d 41be 148d 6dbe 18cb 30be 4d72 91be
00000130: fc75 90be 9086 473c 812f a0be fefb 743e
00000140: b3a6 8bbe a479 f83d 8b95 0f3e 6e07 04be
00000150: bdad 253e feec a53e 17c2 a8be 9f5a c1bb
00000160: 6315 823e 3b60 b83e cde0 063e ef79 a63e
00000170: 0ee2 40be 04fd a23e 7cd7 dd3d ce4c 80be
00000180: 8db6 563e 8e5a 8d3e 64c5 9fbe 4eb9 3f3e
00000190: 547f 0b3e 97a7 993e 7772 b0be a12c 3a3e
000001a0: d644 bd3e c2a8 08be aa72 2d3e 8bd0 9bbe
000001b0: 7733 963d c53c 65be 89f3 9bbe a1cd 2f3e
000001c0: d260 403e 470f 493e 29ec 993e cd8c 97bd
000001d0: 46cd 8abe 9f5a 5e3e e65c 903e 0a6c 8dbe
000001e0: efcf 9cbe 081e 76be 5f65 6fbe 01fe 513e
000001f0: a20f a4be 8103 d43d 0f93 223d b26a 87be

encoder.convs.0.edge_mlp.2.weight f4 [128, 128]
-0.068405986 0.11017307 -0.04141294 -0.09956198 0.006658214 -0.11248732 -0.019920953 0.0034076502
-0.049603544 -0.06457115 -0.04877867 0.045693684 -0.0966882 0.102246396 0.14417534 0.049994886
-0.026816212 -0.08691089 -0.07119645 0.08900052 0.057985287 0.05455329 -0.061292905 -0.045416
0.083662406 0.10238237 -0.05487784 0.011913187 -0.067677446 -0.01878871 0.10901766 0.007341387
0.010837825 -0.03983374 0.07195469 -0.039833214 -0.04957434 0.042497143 0.06499303 0.06848155
0.019880652 -0.010049176 0.02286428 -0.026556056 -0.11181964 -0.023654982 -0.05597641 -0.022902545
0.028763667 0.02831917 -0.06950708 0.019954631 0.038021386 -0.04688759 -0.029942913 -0.07790573
-0.044462908 0.07873203 0.083748624 0.025356933 -0.014969933 0.04160597 0.011100113 -0.07388807
-0.055688113 0.11031509 0.08671192 0.019286023 0.029659746 -0.04411382 0.13952012 -0.10960651
-0.04720797 -0.06904227 -0.04496182 0.07890501 -0.07194405 -0.004928028 -0.0052503836 0.035356916
0.0780787 0.048668332 0.048159704 0.054575216 0.16302015 -0.052532088 -0.032855008 0.06771977
-0.036937363 -0.037266962 0.030058747 -0.0412353 -0.025638519 0.10553767 0.16386355 0.018941648
0.015766941 0.010850575 -0.058583044 -0.035454605 0.110097125 -0.0842548 0.02970942 0.020104775
0.081277855 -0.004647299 0.06342473 -0.070085384 -0.02041084 0.072212055 -0.0054743914 0.042925417
-0.06969182 0.07816408 -0.022983726 0.09888991 -0.03510449 0.06019129 0.04674009 -0.07360743
0.025480844 -0.03743204 0.061311595 0.10803048 -0.01903211 -0.019655755 0.018181311 0.013825051
-0.05155939 -0.06616927 0.08317405 0.013552021 0.072248116 0.07636735 0.07083532 -0.009835184
-0.011583054 -0.07221862 0.08840139 -0.03170373 0.067218 -0.10847116 -0.1612937 -0.0052035046
0.020618934 -0.028573258 -0.037017968 0.047085352 0.0054270085 -0.044678792 -0.06723711 -0.013545345
0.035278153 0.070551954 -0.030829351 -0.060946103 0.07172189 -0.046558198 -0.10046054 0.022380121
0.0341891 0.023482952 0.05094154 0.037968155 0.09161891 0.062129274 0.039272163 0.1044871
-0.08136224 -0.08156434 -0.05014684 -0.005651706 0.122524284 0.010094114 -0.03895506 -0.008813151
-0.032755017 0.024073036 0.08647667 -0.05927254 0.010623305 -0.006665423 0.0936835 -0.0067774677
-0.037919864 -0.03998432 -0.021313839 -0.063414544 -0.061502315 -0.05373995 0.020676088 0.049012505
0.011784635 -0.07844532 -0.10713144 -0.1033663 -0.06488406 0.08545956 0.022738207 0.110029764
0.10550616 0.057099443 0.10530252 0.00075623457 0.038599305 -0.092327476 -0.07191251 0.026756752
0.07585583 -0.038077414 0.08650773 -0.043752518 -0.19417742 0.076336645 -0.09748041 0.03340139
0.0675943 0.0024298283 -0.01851425 -0.13450935 0.13205528 -0.018730966 0.004826498 -0.014774205
-0.046474952 -0.07446539 0.10816602 -0.101508714 -0.06675751 0.06482758 0.0057070935 -0.037054673
-0.113944866 -0.10849226 -0.044627775 0.049022622 0.029980034 0.04339846 0.08417489 0.055097576
0.010651845 -0.091807514 0.0080611 -0.014160722 0.029587194 0.018620085 0.040704247 0.03770853
-0.08387944 -0.04133637 0.023742964 0.03775147 -0.006036658 -0.044113327 0.050688278 -0.02422774
00000000: 7018 8cbd 6ba2 e13d 9da0 29bd 27e7 cbbd
00000010: 262d da3b c15f e6bd 4431 a3bc e252 5f3b
00000020: 162d 4bbd e13d 84bd 25cc 47bd 4d29 3b3d
00000030: 7704 c6bd 8f66 d13d b3a2 133e 70c7 4c3d
00000040: acad dbbc 56fe b1bd 72cf 91bd e845 b63d
00000050: fb81 6d3d 4573 5f3d 450e 7bbd 2106 3abd
00000060: 3257 ab3d d9ad d13d 96c7 60bd 872f 433c
00000070: 799a 8abd c8ea 99bc a744 df3d 0590 f03b
00000080: 2291 313c b428 23bd fb5c 933d 2728 23bd
00000090: 770e 4bbd 7c11 2e3d 111b 853d 0e40 8c3d
000000a0: c0dc a23c 4da5 24bc df4d bb3c 168c d9bc
000000b0: b201 e5bd 18c8 c1bc 8547 65bd 1e9e bbbc
000000c0: c8a1 eb3c 9bfd e73c ba59 8ebd e577 a33c
000000d0: 50bc 1b3d 340d 40bd d74a f5bc 0a8d 9fbd
000000e0: bd1e 36bd 423e a13d 6684 ab3d 58b9 cf3c
000000f0: 7344 75bc 066b 2a3d 40dd 353c a152 97bd
00000100: 3819 64bd e1ec e13d 0596 b13d b9fd 9d3c
00000110: fff8 f23c b1b0 34bd 5dde 0e3e 6179 e0bd
00000120: 255d 41bd 0966 8dbd e329 38bd f398 a13d
00000130: 6757 93bd 4c7b a1bb 690b acbb 6ad2 103d
00000140: bae7 9f3d 7258 473d 1c43 453d 438a 5f3d
00000150: c1ee 263e e32b 57bd f992 06bd aab0 8a3d
00000160: a24b 17bd 3ea5 18bd c33d f63c 59e6 28bd
00000170: df07 d2bc 2224 d83d d9cb 273e 842b 9b3c
00000180: ac29 813c 9cc6 313c c6f4 6fbd d938 11bd
00000190: 9a7a e13d c88d acbd 2b61 f33c c5b2 a43c
000001a0: 0175 a63d 5f48 98bb d3e4 813d ed88 8fbd
000001b0: a234 a7bc eae3 933d 8662 b3bb 90d2 2f3d
000001c0: 96ba 8ebd 7d14 a03d 5e48 bcbc cb86 ca3d
000001d0: bac9 0fbd 248b 763d 8972 3f3d 7ebf 96bd
000001e0: 34bd d03c 5752 19bd de21 7b3d 163f dd3d
000001f0: 3ae9 9bbc 1b05 a1bc f9f0 943c 7782 623c
00000200: f02f 53bd c183 87bd 2857 aa3d 4c09 5e3c
00000210: d2f6 933d 7c66 9c3d 1c12 913d c023 21bc
00000220: dac6 3dbc 5be7 93bd ca0b b53d c5db 01bd
00000230: 97a9 893d 2126 debd 2d2a 25be 2982 aabb
00000240: 0ae9 a83c 7712 eabc 27a0 17bd 92dc 403d
00000250: 0cd5 b13b 1c01 37bd 9cb3 89bd 4bed 5dbc
00000260: d37f 103d 8b7d 903d d68d fcbc 9fa2 79bd
00000270: ede2 923d cfb3 3ebd 41be cdbd 8456 b73c
00000280: df09 0c3d 525f c03c 14a8 503d 7f84 1b3d
00000290: b2a2 bb3d 447b 7e3d d9db 203d 55fd d53d
000002a0: 3fa1 a6bd 340b a7bd c666 4dbd f231 b9bb
000002b0: 03ee fa3d c861 253c 578f 1fbd 0965 10bc
000002c0: 202a 06bd d134 c53c ae1a b13d c3c7 72bd
000002d0: 5f0d 2e3c 9f69 dabb 23dd bf3d 8515 debb
000002e0: dc51 1bbd 99c6 23bd 5c9a aebc 7cdf 81bd
000002f0: dae9 7bbd 6c1e 5cbd e660 a93c 56c1 483d
00000300: 5714 413c f1a7 a0bd ba67 dbbd b6b1 d3bd
00000310: efe1 84bd 6c05 af3d 7a45 ba3c 4957 e13d
00000320: 9d13 d83d 1be1 693d d9a8 d73d 0b3e 463a
00000330: 4e1a 1e3d 3016 bdbd de46 93bd fa30 db3c
00000340: 4d5a 9b3d 10f7 1bbd f72a b13d d735 33bd
00000350: 72d6 46be 6356 9c3d cfa3 c7bd e5cf 083d
00000360: e16e 8a3d c13d 1f3b 32ab 97bc d2bc 09be
00000370: 8039 073e af71 99bc 9a27 9e3b 820f 72bc
00000380: 855c 3ebd 4f81 98bd 2586 dd3d cde3 cfbd
00000390: 29b8 88bd 52c4 843d 9202 bb3b a4c6 17bd
000003a0: ed5b e9bd 3131 debd 9dcb 36bd f2cb 483d
000003b0: b098 f53c 95c2 313d e263 ac3d ffad 613d
000003c0: 1385 2e3c 9405 bcbd b412 043c 5f02 68bc
000003d0: d860 f23c 2689 983c 7fb9 263d 4274 1a3d
000003e0: fcc8 abbd 5350 29bd 9b80 c23c 49a1 1a3d
000003f0: 28cf c5bb 2db0 34bd 839e 4f3d 4179 c6bc

encoder.convs.0.edge_mlp.2.bias f4 [128]
0.028549783 -0.08361016 0.011503799 0.02428196 -0.031901944 0.004685696 -0.017619254 -0.085647814
-0.06770822 0.0016565865 -0.0730253 0.06919733 0.031862337 0.07564599 -0.018181331 0.054631427
-0.07934207 0.02225667 0.037171528 0.014933618 -0.04937984 -0.035367172 -0.0325578 0.0753433
0.014532571 -0.0341365 -0.025923602 0.0048250444 0.01964721 0.08634935 0.044110328 0.06716808
-0.030156888 0.01473841 0.060257476 0.062875204 0.0015558556 0.07731596 -0.058426358 -0.08056024
0.011235718 0.044143416 0.061019484 -0.067717165 0.07450873 -0.06561421 0.069427334 -0.042144794
0.07585101 0.045242555 0.053005386 -0.01456681 -0.077635445 -0.07104433 -0.06977445 -0.02312999
-0.028341712 0.013073218 -0.05690609 -0.07090107 0.01067366 -0.010130446 -0.01372807 -0.07601468
-0.073445015 -0.07669335 -0.041376647 -0.020031743 -0.059413046 -0.085813254 -0.007656806 0.06860107
0.054738924 -0.024333477 -0.05401744 0.01853996 -0.07953781 -0.06736714 0.002778944 0.016310554
-0.040899027 -0.008148445 0.0038834426 -0.010771205 0.029838681 0.026109133 -0.053877585 -0.00876227
-0.07498442 -0.053545892 -0.08939635 -0.060816195 -0.049762152 0.009499857 -0.007951253 0.0065338383
0.06399804 0.016121352 0.011871954 0.031060796 -0.05000214 -0.0036832318 0.017136255 0.06065767
0.07120848 -0.0741009 0.01960907 0.07242454 0.02880762 -0.0820108 0.0547991 -0.06259061
-0.06031032 -0.07540109 0.077097006 0.07961875 -0.028184155 0.024692541 0.03172169 -0.08072604
-0.05460655 -0.039676603 0.00036008458 -0.025832906 0.0629639 -0.06496486 -0.041603368 -0.003944855
00000000: 3ce1 e93c ce3b abbd 6e7a 3c3c f6ea c63c
00000010: 9dab 02bd 788a 993b 4156 90bc 1f68 afbd
00000020: 9baa 8abd d221 d93a 4a8e 95bd 54b7 8d3d
00000030: 1582 023d 49ec 9a3d 04f1 94bc 34c5 5f3d
00000040: 187e a2bd 9f53 b63c 2c41 183d 22ac 743c
00000050: 8442 4abd 2bdd 10bd 545b 05bd 974d 9a3d
00000060: 051a 6e3c b7d2 0bbd bc5d d4bc 681b 9e3b
00000070: 30f3 a03c eed7 b03d 08ad 343d 6b8f 893d
00000080: 940b f7bc 5f79 713c 8bd0 763d b7c4 803d
00000090: daed cb3a d457 9e3d 7a50 6fbd c4fc a4bd
000000a0: 0416 383c bacf 343d 91ef 793d 4caf 8abd
000000b0: 0898 983d be60 86bd eb2f 8e3d 05a0 2cbd
000000c0: c657 9b3d 4250 393d 2d1c 593d a1a9 6ebc
000000d0: 55ff 9ebd b17f 91bd e8e5 8ebd 1b7b bdbc
000000e0: e12c e8bc 0d31 563c 5c16 69bd 9534 91bd
000000f0: 93e0 2e3c 2cfa 25bc b3eb 60bc 96ad 9bbd
00000100: 576a 96bd 6711 9dbd 8f7a 29bd 9c19 a4bc
00000110: 185b 73bd dcbe afbd f2e5 fabb b87e 8c3d
00000120: ec35 603d 0057 c7bc 6441 5dbd 1de1 973c
00000130: b8e4 a2bd c8f7 89bd f21e 363b b69d 853c
00000140: bd85 27bd 0e81 05bc 5b81 7e3b b579 30bc
00000150: 4070 f43c d2e2 d53c beae 5cbd a08f 0fbc
00000160: 6e91 99bd f052 5bbd 6f15 b7bd 671a 79bd
00000170: 66d3 4bbd 4aa5 1b3c f945 02bc cf19 d63b
00000180: 6811 833d ed10 843c 9682 423c 3673 fe3c
00000190: 0bcf 4cbd 6062 71bb 5561 8c3c 2d74 783d
000001a0: c0d5 913d 36c2 97bd 33a3 a03c 5153 943d
000001b0: f5fd eb3c 47f5 a7bd 0575 603d 812f 80bd
000001c0: f407 77bd e36b 9abd 09e5 9d3d 280f a33d
000001d0: 75e2 e6bc 0348 ca3c 9aee 013d b253 a5bd
000001e0: 1eab 5fbd ef83 22bd bcc9 bc39 889f d3bc
000001f0: 38f3 803d 4c0c 85bd 4b68 2abd d843 81bb

encoder.convs.0.norm.weight f4 [128]
0.9819778 0.9799137 0.9698362 0.9693864 0.9767622 0.97679824 0.9668075 0.9775915
0.9662336 0.9763805 0.9710891 0.9781774 0.96405613 0.970169 0.97117347 0.96686953
0.9670207 0.9781362 0.97259897 0.97952294 0.9621714 0.97385037 0.9724129 0.9723445
0.962354 0.9654566 0.9797074 0.95539504 0.9745801 0.9641789 0.9736828 0.964162
0.9635476 0.95240855 0.9972877 0.98083556 0.9666224 0.9791657 0.9606268 0.9641086
0.9673312 0.984207 0.9844683 0.96808505 0.9727535 0.95850533 0.9630736 0.96982604
0.96538496 0.9651303 0.96157485 0.9738756 0.97353023 1.0011362 0.9728643 0.96936536
0.9724884 0.975162 0.99035025 0.9645021 1.0126617 0.9735304 0.97552466 1.0091511
0.9747134 0.97178626 0.9618185 0.9970425 0.9726151 0.98106104 1.0026761 1.0120059
0.9726497 0.99511486 0.9740317 0.99484086 0.9690035 0.9700558 0.9740952 0.96241665
1.0113484 0.96466833 0.973798 0.96702284 0.9622126 0.9699714 0.9750834 0.97792083
0.9691428 0.97322863 0.95821315 0.95609665 0.9768591 0.97118145 0.97892845 1.003785
0.9717004 0.96837336 0.9928874 0.97173715 0.9875794 0.9707702 0.9861286 0.9740998
0.9690571 1.0111663 0.97750634 0.9642415 0.99202555 0.9730281 0.9696129 0.97847015
0.97615 0.9599132 0.97801 0.96458906 0.9854259 0.9658004 0.97087455 0.9765676
0.9848462 0.9701699 0.9598421 1.0085791 0.9689544 0.9644095 0.96572214 0.9665781
00000000: e662 7b3f a0db 7a3f 2f47 783f b529 783f
00000010: 160d 7a3f 730f 7a3f b280 773f 7043 7a3f
00000020: 165b 773f 13f4 793f 4c99 783f d669 7a3f
00000030: 62cc 763f ff5c 783f d39e 783f c384 773f
00000040: ab8e 773f 2267 7a3f 3ffc 783f 04c2 7a3f
00000050: dd50 763f 424e 793f 0df0 783f 92eb 783f
00000060: d55c 763f 2a28 773f 1bce 7a3f c594 743f
00000070: 157e 793f 6ed4 763f 4743 793f 52d3 763f
00000080: 0eab 763f 0cd1 733f 3f4e 7f3f 0a18 7b3f
00000090: 9174 773f 9aaa 7a3f a3eb 753f d2cf 763f
000000a0: 04a3 773f fdf4 7b3f 1d06 7c3f 6cd4 773f
000000b0: 6006 793f 9b60 753f fe8b 763f 8546 783f
000000c0: 7823 773f c812 773f c529 763f e94f 793f
000000d0: 4739 793f 3b25 803f a20d 793f 5428 783f
000000e0: 00f5 783f 38a4 793f 9887 7d3f 9ce9 763f
000000f0: e69e 813f 4a39 793f fcbb 793f dd2b 813f
00000100: d186 793f fcc6 783f bd39 763f 2d3e 7f3f
00000110: 4efd 783f d126 7b3f b157 803f 6989 813f
00000120: 92ff 783f d9bf 7e3f 245a 793f e4ad 7e3f
00000130: 9d10 783f 9455 783f 4e5e 793f f060 763f
00000140: dd73 813f 81f4 763f d34a 793f cf8e 773f
00000150: 9153 763f 0c50 783f 119f 793f 0559 7a3f
00000160: be19 783f 8325 793f 754d 753f c0c2 743f
00000170: 7013 7a3f 599f 783f 0e9b 7a3f 077c 803f
00000180: 5bc1 783f 51e7 773f de2d 7e3f c4c3 783f
00000190: 01d2 7c3f 6584 783f ed72 7c3f 9b5e 793f
000001a0: 2014 783f e66d 813f db3d 7a3f 88d8 763f
000001b0: 63f5 7d3f 5f18 793f 8d38 783f 057d 7a3f
000001c0: f7e4 793f dfbc 753f dd5e 7a3f 4fef 763f
000001d0: df44 7c3f b23e 773f 3c8b 783f 5600 7a3f
000001e0: e11e 7c3f 0e5d 783f 36b8 753f 1f19 813f
000001f0: 650d 783f 8ae3 763f 9139 773f aa71 773f

encoder.convs.0.norm.bias f4 [128]
-0.035301995 -0.050312508 0.022937808 -0.0003819273 0.008924623 0.0016795045 -0.035897497 -0.018907936
0.022759948 0.03431332 0.021425564 -0.024565082 0.0058840904 0.055573475 0.0016073873 -0.023687512
0.0034125596 0.03555186 -0.04393387 -0.035120387 -0.013305882 -0.04072609 -0.0060371724 -0.014705651
-0.013624526 0.005100207 -0.02895372 -0.005992523 0.01622629 -0.013643901 0.021317877 0.0058423677
-0.018396253 0.0075912294 -0.0013216633 -0.0030856943 0.0030598089 0.020509904 -0.0049368455 0.037389796
-0.07719784 -0.010310242 0.005984014 -0.017444264 0.005537332 0.004365617 -0.019798553 0.0066208825
-0.0347886 0.0100834025 0.012838942 -0.0042018373 0.008933721 0.0066306037 0.028398184 0.007750169
-0.030159015 -0.011023201 0.04937556 -0.021234723 0.006054537 -0.016851459 0.003681065 0.009347886
-0.021098189 -0.019026758 0.026422048 -0.0015556482 -0.00051131943 0.0036164385 0.009516509 -0.012374241
0.028949225 0.014400609 0.0023466423 -0.0048398008 0.026299918 0.0060239867 0.0025499715 0.005553849
0.0016094665 -0.023083102 0.0014003691 -0.07526401 0.009892601 -0.010986579 0.010386932 0.010869296
-0.028974596 -0.022003632 0.037623685 0.01236519 -0.026631061 -0.03406447 0.020396737 0.005229624
0.030584153 -0.01195597 0.007515984 0.0071001956 0.015061754 -0.00934607 -0.018695371 0.031609878
0.038376164 -0.021679308 -0.030186996 0.026930789 -0.025746293 -0.009306417 0.0033994764 -0.016068062
-0.014013444 -0.009853939 0.00089920504 0.011870721 -0.007982913 0.02381552 0.013054957 -0.017230293
0.03310384 -0.020742564 -0.021704508 -0.014457548 -0.01438713 -0.010754377 -0.012186511 -0.015809732
00000000: d398 10bd 7d14 4ebd 12e8 bb3c 6a3d c8b9
00000010: 9538 123c d222 dc3a 4109 13bd d1e4 9abc
00000020: 1273 ba3c 208c 0c3d aa84 af3c b63c c9bc
00000030: 54cf c03b 03a1 633d f8ae d23a 500c c2bc
00000040: 40a5 5f3b d49e 113d 00f4 33bd 65da 0fbd
00000050: ea00 5abc 67d0 26bd 79d3 c5bb f9ef 70bc
00000060: 6739 5fbc a31f a73b 5a30 edbc ed5c c4bb
00000070: ffec 843c ab8a 5fbc d4a2 ae3c 5571 bf3b
00000080: bdb3 96bc d9bf f83b a93b adba 5c39 4abb
00000090: 1387 483b 6304 a83c 43c5 a1bb 0b26 193d
000000a0: e719 9ebd 4aec 28bc 8c15 c43b 46e7 8ebc
000000b0: 8272 b53b 730d 8f3b 9330 a2bc fdf3 d83b
000000c0: 7e7e 0ebd db34 253c 6d5a 523c 91af 89bb
000000d0: be5e 123c 8945 d93b 4fa3 e83c 21f5 fd3b
000000e0: 0a10 f7bc a89a 34bc 073e 4a3d 71f4 adbc
000000f0: 2365 c63b 120c 8abc 063e 713b e027 193c
00000100: 1cd6 acbc 01de 9bbc 0d73 d83c e4e6 cbba
00000110: 110a 06ba c501 6d3b 22eb 1b3c 54bd 4abc
00000120: ed26 ed3c 88f0 6b3c 20ca 193b 3197 9ebb
00000130: ed72 d73c dd64 c53b 6c1d 273b 10fd b53b
00000140: bcf4 d23a c618 bdbc 978c b73a 0424 9abd
00000150: 9314 223c 0d01 34bc f32d 2a3c 2215 323c
00000160: 225c edbc f640 b4bc 4b1b 1a3d 5e97 4a3c
00000170: 6229 dabc 3087 0bbd 0f17 a73c 445d ab3b
00000180: 9e8b fa3c f9e2 43bc a548 f63b c2a8 e83b
00000190: 93c5 763c 4220 19bc 0927 99bc 5c79 013d
000001a0: 5330 1d3d ce98 b1bc b84a f7bc f59d dc3c
000001b0: e4e9 d2bc f179 18bc c0c9 5e3b 2ba1 83bc
000001c0: a598 65bc 6a72 21bc a1b8 6b3a 6a7d 423c
000001d0: c4ca 02bc c418 c33c 75e4 553c 8b26 8dbc
000001e0: e497 073d 4fec a9bc a7cd b1bc 5adf 6cbc
000001f0: ffb7 6bbc 2033 30bc efa9 47bc 6983 81bc

encoder.convs.0.norm.mean_scale f4 [128]
0.92386514 1.0408233 0.93710274 0.95820206 1.001282 1.0169746 0.9767563 1.0069433
0.9610156 0.9743241 0.97198594 0.96358335 0.9838864 1.0033474 1.010953 0.9658796
0.9525377 0.9897084 0.9565813 0.99607414 0.9951203 1.0323375 0.9871055 0.98028827
0.9528353 0.97271097 0.9134901 0.9991196 1.0079881 1.0013468 0.95656997 0.96296054
1.0155324 0.97971445 0.9707234 0.98095566 1.0299203 0.955348 0.9849602 0.9206275
0.8997464 0.9783769 0.93267274 0.9690742 0.9632001 0.9800442 0.9860442 0.9939401
0.9650384 0.97069716 0.98563564 0.968673 1.0094489 0.951347 0.9584027 0.9813125
1.0001315 0.94923806 0.9289377 0.9920279 1.0090469 0.92009395 0.9829667 0.9569442
0.9542768 1.0127536 0.9951142 0.9946633 0.9933796 0.9527774 1.0322961 1.0252994
1.0309979 0.9870372 0.94730234 0.95518464 0.94944435 0.97940046 0.96460557 0.9854452
1.0268798 0.9732882 0.97645015 1.0705203 0.99193555 1.007752 1.0048926 1.0043446
0.99154544 1.018114 0.9769712 0.95226544 0.97864294 1.0042063 0.96036786 0.9721042
0.9434323 0.9474357 0.962317 1.0194635 0.9798048 0.97643423 1.0530018 1.0397705
1.0416344 0.91673905 1.009796 0.99923384 1.0226067 0.9675375 0.9895883 0.9422477
1.0198067 0.98292243 0.98528063 0.94705343 0.9572906 1.0141801 0.99471325 1.0155804
0.98292124 0.98329467 0.9815394 1.0338689 1.0180902 0.9949575 0.99759185 1.000967
00000000: 6d82 6c3f b339 853f f7e5 6f3f bb4c 753f
00000010: 022a 803f 392c 823f b30c 7a3f 85e3 803f
00000020: 1e05 763f 4e6d 793f 12d4 783f 66ad 763f
00000030: fbdf 7b3f b06d 803f e866 813f e343 773f
00000040: 83d9 733f 885d 7d3f 83e2 743f b7fe 7e3f
00000050: 34c0 7e3f a323 843f f2b2 7c3f 2cf4 7a3f
00000060: 04ed 733f 9603 793f 7dda 693f 4dc6 7f3f
00000070: c105 813f 222c 803f c5e1 743f 9584 763f
00000080: f7fc 813f 91ce 7a3f 5481 783f e91f 7b3f
00000090: 6ed4 833f b091 743f 5a26 7c3f 3eae 6b3f
000000a0: c855 663f e976 7a3f a4c3 6e3f 3f15 783f
000000b0: 4894 763f 2de4 7a3f 656d 7c3f dc72 7e3f
000000c0: c20c 773f 9c7f 783f 9e52 7c3f f4fa 773f
000000d0: 9f35 813f 7a8b 733f e159 753f 4c37 7b3f
000000e0: 4f04 803f 4401 733f dcce 6d3f 8af5 7d3f
000000f0: 7328 813f 478b 6b3f b5a3 7b3f 4cfa 743f
00000100: 7c4b 743f e9a1 813f cebf 7e3f 41a2 7e3f
00000110: 204e 7e3f 38e9 733f 4722 843f 033d 833f
00000120: bdf7 833f 78ae 7c3f 6882 723f fb86 743f
00000130: c90e 733f fdb9 7a3f 64f0 763f 2346 7c3f
00000140: cc70 833f 6a29 793f a3f8 793f cf06 893f
00000150: 7def 7d3f 04fe 803f 52a0 803f 5d8e 803f
00000160: ecd5 7d3f 8f51 823f c91a 7a3f abc7 733f
00000170: 5888 7a3f d589 803f abda 753f d2db 783f
00000180: c784 713f 258b 723f 685a 763f c87d 823f
00000190: 7dd4 7a3f 98f7 793f c3c8 863f 3317 853f
000001a0: 4754 853f 69af 6a3f ff40 813f cacd 7f3f
000001b0: c7e4 823f 8ab0 773f a955 7d3f 2537 713f
000001c0: 0789 823f cea0 7b3f 5a3b 7c3f 1872 723f
000001d0: ff10 753f a7d0 813f 87a5 7e3f 8afe 813f
000001e0: baa0 7b3f 33b9 7b3f 2b46 7b3f d155 843f
000001f0: c850 823f 89b5 7e3f 2e62 7f3f b01f 803f

encoder.convs.1.node_mlp.weight f4 [128, 256]
0.0015403874 0.0013733357 -0.032235187 0.04924913 0.050970085 -0.0059855958 0.010058227 0.07203301
0.020682547 -0.027865278 -0.04896868 0.042355195 -0.03994512 0.026219295 -0.03276674 0.04124236
0.020165348 0.04721121 -0.014349354 -0.01014618 -0.0010303562 -0.026110249 0.010944286 -0.013668172
0.0073293694 0.05532365 -0.052886747 0.044751972 0.020482795 -0.025454314 0.04612121 -0.033864643
-0.06168882 -0.008933803 0.01658344 -0.056104023 0.010307766 0.035352245 -0.053871848 0.034795176
0.004807323 0.04734226 0.06924566 -0.0018842614 -0.025963744 -0.066257596 -0.006930005 0.0026923928
0.041066498 0.048906986 0.023187762 -0.0223788 0.01917799 0.007766804 0.05114531 0.03978861
-0.025769167 -0.021528173 0.003422847 -0.009565602 -0.043958828 0.06109708 0.042524304 0.030953523
0.02282623 0.073654786 0.0014721121 -0.00028052757 0.025825055 0.03194351 0.014405594 0.009343567
0.016703974 -0.034561016 0.009919054 0.044855542 -0.006216762 -0.04934534 -0.013877866 -0.014010003
0.04237999 0.04286145 -0.036894217 0.019366417 0.024103284 -0.06039214 -0.0017103769 0.016755402
0.014980469 -0.02560778 0.013857912 0.011189249 -0.034053057 -0.016473057 0.012447446 0.033242803
0.0061044684 -0.017711416 -0.034417417 0.047705494 0.0056711775 -0.025232712 0.08385321 0.0077237664
-0.04554332 0.024106247 -0.019379798 -0.02127553 0.0041527515 -0.02103817 -0.037050787 0.03415156
0.057969935 -0.027511341 0.0015235296 0.014451211 -0.013307241 0.0069761034 -0.00059423764 0.0025816984
-0.06909513 0.05941992 0.05235665 0.059582762 -0.031847645 5.1845785e-05 0.003849457 0.022534953
-0.02897549 -0.019572543 -0.034979634 -0.031354863 -0.013153512 0.010342695 -0.035267964 0.03329773
0.043335464 -0.08180053 -0.06601261 0.042167835 0.0582386 -0.0774547 0.06762647 -0.04929471
0.048716083 -0.009013946 0.086856335 0.024886232 -0.08326922 -0.03269895 0.0137217585 0.0755895
0.06402688 -0.051925678 0.029496154 -0.07214142 0.06274589 -0.003441281 -0.028266717 -0.033801723
-0.03130858 -0.0032599 0.032201212 0.021698881 -0.0040125046 0.10566593 -0.044162504 -0.003761826
-0.053660788 0.059507105 -0.05635252 0.0043790676 -0.0007351269 -0.0293922 0.03794579 0.019783711
-0.075195774 0.059013046 -0.034456957 -0.029342478 0.0044604926 -0.023159092 -0.053451475 -0.042279
-0.06440701 0.03314821 -0.056089565 -0.046328146 -0.0048335465 -0.004483671 -0.001731378 0.078609385
0.067364305 -0.060002245 -0.037823025 -0.0450702 0.038787667 -0.03603534 0.03638339 0.014591969
0.07305691 0.022966381 0.009471233 0.035750907 -0.04505272 -0.016446168 0.03341156 -0.010588265
0.002626814 -0.084157385 0.01506284 0.013495271 0.0653731 -0.010355905 0.040318027 0.031210382
0.025738548 -0.046808258 -0.025671734 -0.024950303 -0.024462627 0.0147554455 -0.0419941 -0.042698458
0.05664026 0.0016646218 -0.03214543 0.051266916 0.03900089 -0.02712925 0.013776069 -0.073163114
-0.03320922 0.03243721 -0.037305284 0.0108521655 0.012708266 -0.009021148 0.02983473 0.0048167123
-0.020139555 -0.061862268 -0.07160656 0.05239991 0.010151587 0.005184028 -0.07031018 0.08173837
-0.07350141 -0.03437864 0.03226298 -0.047923345 -0.054599993 -0.07007905 -0.047077082 0.04461154
00000000: d3e6 c93a 8001 b43a 0b09 04bd 75b9 493d
00000010: 02c6 503d d122 c4bb 43cb 243c 0b86 933d
00000020: 726e a93c b945 e4bc 6293 48bd a47c 2d3d
00000030: 7f9d 23bd d9c9 d63c 6b36 06bd c0ed 283d
00000040: cd31 a53c 8b60 413d 8e19 6bbc 2a3c 26bc
00000050: 040d 87ba 29e5 d5bc aa4f 333c 78f0 5fbc
00000060: 352b f03b 0d9b 623d c69f 58bd d84d 373d
00000070: 89cb a73c 9185 d0bc 98e9 3c3d a7b5 0abd
00000080: 6bad 7cbd 165f 12bc ffd9 873c 55cd 65bd
00000090: e7e1 283c 84cd 103d baa8 5cbd 6385 0e3d
000000a0: c086 9d3b f5e9 413d abd0 8d3d 52f9 f6ba
000000b0: ebb1 d4bc 10b2 87bd 1815 e3bb db72 303b
000000c0: 5835 283d b152 483d 43f4 bd3c bf53 b7bc
000000d0: 291b 9d3c ad80 fe3b bf7d 513d 62f9 223d
000000e0: dc19 d3bc da5b b0bc d851 603b 0bb9 1cbc
000000f0: 2c0e 34bd ef40 7a3d f72d 2e3d 3e92 fd3c
00000100: 13fe ba3c 52d8 963d e3f3 c03a c613 93b9
00000110: 118f d33c 33d7 023d 7105 6c3c c315 193c
00000120: c6d6 883c da8f 0dbd 8783 223c 72ba 373d
00000130: fbb5 cbbb 571e 4abd fd5f 63bc 368a 65bc
00000140: a496 2d3d 7d8f 2f3d 641e 17bd 52a6 9e3c
00000150: 4074 c53c c05d 77bd ba2e e0ba a042 893c
00000160: a470 753c 68c7 d1bc 4c0c 633c 1d53 373c
00000170: 387b 0bbd 81f2 86bc 5ff0 4b3c 9b29 083d
00000180: fe07 c83b 8817 91bc 47f9 0cbd d666 433d
00000190: 49d5 b93b d5b4 cebc 3bbb ab3d a617 fd3b
000001a0: a28b 3abd 777a c53c 62c2 9ebc 054a aebc
000001b0: ce13 883b 3e58 acbc 91c2 17bd 82e2 0b3d
000001c0: e271 6d3d 775f e1bc 2cb1 c73a c6c4 6c3c
000001d0: 9d06 5abc cc97 e43b 9dc6 1bba b631 293b
000001e0: bf81 8dbd 4d62 733d ed73 563d 0e0d 743d
000001f0: ad72 02bd fd74 5938 2c47 7c3b 399b b83c
00000200: 025e edbc 9956 a0bc ce46 0fbd f56d 00bd
00000210: d481 57bc 6874 293c 2475 10bd 3363 083d
00000220: 8780 313d 0987 a7bd 9f31 87bd 2eb8 2c3d
00000230: 998b 6e3d 92a0 9ebd bf7f 8a3d 40e9 49bd
00000240: 848a 473d 3baf 13bc bce1 b13d 36de cb3c
00000250: 0e89 aabd 56ef 05bd 3ad1 603c abce 9a3d
00000260: 8620 833d 05b0 54bd eba1 f13c e1be 93bd
00000270: eb80 803d 1d87 61bb 9a8f e7bc ad73 0abd
00000280: 6d3d 00bd 0ca4 55bb 6be5 033d dac1 b13c
00000290: 547b 83bb 6167 d83d bee3 34bd f888 76bb
000002a0: 6acb 5bbd b9bd 733d e6d1 66bd 487e 8f3b
000002b0: 88b5 40ba e9c7 f0bc 0b6d 1b3d 7311 a23c
000002c0: 3e00 9abd aab7 713d bd22 0dbd a35f f0bc
000002d0: 5329 923b 23b8 bdbc efef 5abd bf2c 2dbd
000002e0: d3e7 83bd 6bc6 073d 2cbe 65bd 95c2 3dbd
000002f0: ba62 9ebb c2eb 92bb 68ef e2ba f5fd a03d
00000300: 4cf6 893d eac4 75bd 51ec 1abd 889b 38bd
00000310: d1df 1e3d cb99 13bd c006 153d 2713 6f3c
00000320: dc9e 953d fe23 bc3c 3b2d 1b3c 8b6f 123d
00000330: 3389 38bd 1dba 86bc 8fda 083d 677a 2dbc
00000340: a026 2c3b b55a acbd 21ca 763c 451b 5d3c
00000350: 55e2 853d d0ab 29bc 8424 253d eaac ff3c
00000360: a6d9 d23c 04ba 3fbd 874d d2bc 9464 ccbc
00000370: d965 c8bc d3c0 713c 0102 2cbd 94e4 2ebd
00000380: 9eff 673d 702f da3a edaa 03bd 42fd 513d
00000390: 66bf 1f3d 293e debc 05b5 613c 8bd6 95bd
000003a0: 6406 08bd e1dc 043d 6dcd 18bd 48cd 313c
000003b0: 5536 503c 70cd 13bc f767 f43c 83d5 9d3b
000003c0: b5fb a4bc 4a63 7dbd 76a6 92bd 4aa1 563d
000003d0: d852 263c c7de a93b c9fe 8fbd 7266 a73d
000003e0: e887 96bd 9ed0 0cbd 3026 043d 454b 44bd
000003f0: 3ea4 5fbd 9b85 8fbd e6d3 40bd 97ba 363d

encoder.convs.1.node_mlp.bias f4 [128]
-0.0516683 0.050916787 0.015506024 0.016233139 -0.03603325 -0.0462753 0.013313147 -0.011707251
0.010404092 -0.0109198475 -0.006690491 -0.038718432 0.044370603 -0.058219347 0.045022637 -0.0053854054
0.095399536 -0.012844441 0.0077726324 -0.04036257 -0.03926766 0.020108141 -0.08963912 0.064728394
-0.0778713 -0.015617709 -0.030087685 0.06381446 -0.028498007 -0.007296565 -0.035523307 -0.052308813
-0.02956382 -0.0063710692 0.036226932 -0.030004106 -0.035236657 0.06438473 -0.016242348 0.06745891
-0.0033838518 0.020828472 0.058986794 0.009739044 -0.007079176 0.06276 0.032225247 0.049793616
0.029629959 -0.069881774 0.04554125 -0.02593683 0.004909885 -0.011446666 -0.0055038407 -0.012639739
0.02391536 9.1243055e-05 0.06263344 0.004660131 0.021912958 -0.033854697 0.0068906327 0.02105511
-0.039947852 -0.01404537 -0.07156994 0.01200541 -0.05467299 -0.04434325 -0.006184663 -0.013420277
-0.019003348 0.018771533 0.0022668564 -0.018242816 0.05530134 -0.07007407 -0.0103393905 -0.007101128
0.0350084 0.045424346 0.0025475472 0.02265555 -0.04520952 -0.01906613 0.040725395 0.04865901
-0.026699753 -0.038006116 0.05196544 0.0049140514 -0.04410259 -0.012241204 -0.008754379 -0.046267472
0.010652597 -0.026476586 0.08862518 -0.018280774 -0.029892094 0.08598091 0.006149018 0.05070334
-0.034414154 0.02067333 -0.062196523 0.051035378 -0.011216695 -0.00970474 0.0070530563 -0.060666874
-0.039477758 0.0032911075 0.07271347 0.06819707 0.02931869 -0.061144263 0.0025371527 0.074867316
-0.0670176 -0.07918415 -0.07234399 0.0050610956 0.032237567 -0.08257169 -0.004949494 0.042461984
00000000: 24a2 53bd 1f8e 503d fa0c 7e3c 5cfb 843c
00000010: 9a97 13bd 2b8b 3dbd 631f 5a3c c5cf 3fbc
00000020: ed75 2a3c 29e9 32bc e83b dbbb 3897 1ebd
00000030: f3bd 353d 6977 6ebd a869 383d 0e78 b0bb
00000040: d560 c33d 7e71 52bc 91b1 fe3b 3953 25bd
00000050: 20d7 20bd d4b9 a43c b794 b7bd 5290 843d
00000060: fd7a 9fbd 6be1 7fbc 737a f6bc 28b1 823d
00000070: a774 e9bc 0618 efbb e380 11bd c441 56bd
00000080: d32f f2bc 67c4 d0bb b162 143d 2ccb f5bc
00000090: 5054 10bd 24dc 833d ac0e 85bc e627 8a3d
000000a0: 9dc3 5dbb 79a0 aa3c 239c 713d 8390 1f3c
000000b0: 6ff8 e7bb 5188 803d 9ffe 033d 64f4 4b3d
000000c0: 87ba f23c 2d1e 8fbd 7689 3a3d 7a79 d4bc
000000d0: 1ae3 a03b cc8a 3bbc 9059 b4bb e816 4fbc
000000e0: 25ea c33c be59 bf38 f645 803d 03b4 983b
000000f0: ce82 b33c 39ab 0abd d1ca e13b c47b ac3c
00000100: 5ca0 23bd 8d1e 66bc 4393 92bd 57b2 443c
00000110: c9f0 5fbd 45a1 35bd b7a8 cabb b9e0 5bbc
00000120: e9ac 9bbc c2c6 993c 8a8f 143b f571 95bc
00000130: a883 623d fe82 8fbd 8c66 29bc 94b0 e8bb
00000140: f864 0f3d e10e 3a3d c0f4 263b 2298 b93c
00000150: 9e2d 39bd 9330 9cbc accf 263d ac4e 473d
00000160: 71b9 dabc 4dac 1bbd b7d9 543d 0d06 a13b
00000170: eba4 34bd 558f 48bc 876e 0fbc f682 3dbd
00000180: 3b88 2e3c 6de5 d8bc 1e81 b53d 90c1 95bc
00000190: 44e0 f4bc c216 b03d b47d c93b 4eae 4f3d
000001a0: dbf5 0cbd 1e5b a93c c8c1 7ebd 790a 513d
000001b0: 3bc6 37bc a100 1fbc 531d e73b d47d 78bd
000001c0: 6eb3 21bd 9faf 573b cdea 943d e8aa 8b3d
000001d0: c02d f03c 6872 7abd 5c46 263b 0954 993d
000001e0: 8640 89bd 4d2b a2bd 1629 94bd 8cd7 a53b
000001f0: 8a0b 043d 591b a9bd 5d2f a2bb 9eec 2d3d
