checkpoints/model_D_epoch_9.pth (torch, 552085 bytes, 26 tensors)

encoder.node_embedding.weight f4 [1, 128]
00000000: 8a8e f23f f37a b93f 3d77 623f 5a04 05c0
00000010: e5ff 283f c251 9abf 2fbe 0cbd 0a24 cabf
00000020: 6087 37bf 977d ce3f 2301 bfbe c227 b0bf
00000030: bf99 39bf 984b 0abf f54c 3ebf 70e6 3c3f
00000040: 204e cd3f 1842 1ebe 402a f4be 841d d43e
00000050: d93e 3bbf 8a30 873f f67d 483f 7a8a d23f
00000060: 18cb 9f3f 2137 a33f 1f20 1b3f d5f6 a63f
00000070: 0fbf 53be c28c 1b3d 1506 6dbe 12fd 573f
00000080: e9f0 acbf c894 58bf 521b 53be 1e08 da3f
00000090: 9932 a13e 62e9 ccbe 754a 903e 8f92 41bf
000000a0: 82cd c4bf 1f10 783f 47f4 5dbf 6208 14bf
000000b0: a285 a0bf 0dca 0540 393b 9abf 4c5d eebe
000000c0: c28d 67bf a901 23bf 06c7 8e3d 9369 003f
000000d0: 49f6 edbe 7bcb 933f 434b 4cbf 50ed 37bf
000000e0: 2b78 aebf e845 973c ddda 40bd b196 2a3f
000000f0: dc4e a7bd 2f0e e73f 7ac8 95bf b930 b03f
00000100: 4d0d b63f 0dd3 583f a3c0 0b40 1dfe 023f
00000110: e852 a23e a56b 2bbe 663a 83bf bb80 a03f
00000120: 96f6 23be 3d1d 053f d551 133d 4bff d03e
00000130: 683c 103f 363e 1ebf 47b3 0ac0 c46d 39bf
00000140: ad1c e83b ebf2 a1be a502 a8bf 3619 11bf
00000150: fa52 063f 7227 023f 2cf4 8f3f 3538 1f3d
00000160: 1f0e 383f e02a f0be a467 83bf 5e94 163f
00000170: aca2 d7bf 64df 4ebf c7c8 a73f b05e ea3e
00000180: 15a5 1ec0 36f3 ed3e c16d 453f 0435 913c
00000190: 1af1 1f3f 4363 123f 7192 853f cd0b dbbe
000001a0: a434 30be 9a68 3b3f bdc3 cb3e 8a67 1e3e
000001b0: 99c2 743e c443 a03f 36ae a3b9 87ce 94be
000001c0: 2a9b b6bf 050d c5bd 6813 14bf 8941 ec3e
000001d0: 361d 353f def8 af3d de49 babe 799c 043f
000001e0: b053 7e39 71d5 6b3e 01a9 f63d cce0 413f
000001f0: 7fb8 893f 141c a43e 69fe 323f 6dc2 cc3e
1.894975 1.4490646 0.88463193 -2.0783906 0.66015464 -1.20562 -0.03436106 -1.5792248
-0.7169094 1.6132077 -0.37305555 -1.3762133 -0.7250022 -0.54021597 -0.7433618 0.7378912
1.6039467 -0.154549 -0.47688484 0.4142877 -0.7314277 1.0561688 0.783172 1.644851
1.2483854 1.2751199 0.6059589 1.3044077 -0.20678352 0.037976034 -0.23146851 0.8437053
-1.351102 -0.8460202 -0.2061589 1.7033727 0.31483915 -0.40021807 0.28181806 -0.75614256
-1.5375216 0.968996 -0.8670086 -0.5782529 -1.2540781 2.0904572 -1.2049323 -0.46555555
-0.9045068 -0.6367441 0.069715545 0.50161093 -0.46476963 1.1546472 -0.7980234 -0.71846485
-1.3630422 0.018465951 -0.047083724 0.66636187 -0.08169338 1.8051203 -1.1701806 1.3764869
1.4222809 0.8469704 2.1836326 0.51168996 0.31703877 -0.16740282 -1.0252197 1.2539285
-0.16012034 0.5199774 0.035966713 0.40819773 0.5634217 -0.61813676 -2.1671922 -0.72433114
0.0070834965 -0.31630644 -1.3125807 -0.56679094 0.5247036 0.5084144 1.124639 0.038871963
0.7189655 -0.4690771 -1.0266004 0.5882014 -1.6846519 -0.8080962 1.3108147 0.45775366
-2.4788258 0.46474618 0.77120596 0.017725475 0.62477267 0.5718271 1.0435315 -0.4278244
-0.17207581 0.73206484 0.39797774 0.15469185 0.23902358 1.252068 -0.0003121958 -0.29063818
-1.4266102 -0.09621624 -0.5784211 0.4614375 0.707477 0.085923895 -0.3638448 0.5180126
0.00024254504 0.2303064 0.12043954 0.7573364 1.0759429 0.32052672 0.6991945 0.39992085

encoder.convs.0.node_mlp.weight f4 [128, 256]
00000000: c704 633d e0f4 0bbc 67cf 683d 1342 7e3c
00000010: 83a6 46bd 52a6 1f3d 81b4 a6bc 0319 e0bc
00000020: c7fe 60bd 1608 6cbd 302b 633c 4ebf 8cbc
00000030: 17cb a53c b8af 5ebd 296d 2c3d 6325 2abd
00000040: 5c03 e4bb d481 143c 0125 e63c 9234 5b3d
00000050: 72f6 563d cd25 39bd 14c3 9d3c 8829 bbbc
00000060: cae5 47bb 47e3 2dbd 86b7 753d 125d 2abd
00000070: 1587 ef3c ce10 ce3c 9f19 863c 24c6 f2bc
00000080: 8d89 563d a49f 203c 3020 893b bb79 4fbd
00000090: acd5 f33c 7b87 55bc 8a48 c8bc 029f 493d
000000a0: 7363 243c 7ae3 f8bc 6c42 0fbd ae70 dabb
000000b0: 72b5 fb3c 0ad6 45bc 5b5d 1fbd a9d4 cbbc
000000c0: e32d 4cbd ec9c 953c 986a 523d 678c 5ebd
000000d0: f8fc 2d3c 55c3 113d 801c f33b 14b9 d2bc
000000e0: 336d e93c 80ce 0f3d 4fba a03c 3776 e7bb
000000f0: 6f3b a3bc aab5 283c a09d 6fbc 5e27 70bc
00000100: 29b4 303d 458d 683d dbad 1ebb 22be 24bc
00000110: dcea 973b f07d f1bb 4411 363c 7b25 ac3c
00000120: 19e3 74bd b184 9bbc 1bc3 613d 63cd e33c
00000130: a6fb 383a 00a5 27bd ffb2 29bd 05ba 71bd
00000140: 613d 93bc 7c7e 8b3c 20e5 113d 12c4 ca3c
00000150: 66c1 4fbd 727b 08bd 0084 c4bb 936c 813d
00000160: 259e 4f3c 19d6 a1bc b474 b23c 699a a1bc
00000170: 02b1 32bd 6d18 293d 2b58 c7bc 183f 0dbc
00000180: 7f3a 85bd e183 383d 0fca 4e3d c2de d43c
00000190: cacf 20bd 6aec 69bd 7ae9 3dbd 1309 2d3d
000001a0: f42b d43c cb0d 643d 7622 143d 7b96 9d3c
000001b0: cd66 4b3b cc00 31bd 98ce 44bd 6ee3 7bbd
000001c0: de85 b03c c3ad 0bbd 8599 84bc c404 02bd
000001d0: 0288 f5bb c98a 22bd 8d49 34bd a8df c63c
000001e0: ee17 89bc 9b8e 2b3d f620 82bc b3f9 29bd
000001f0: 705d eabb 582b d6bc 6993 77bc 4df7 60bd
00000200: ab79 673d 4281 89bd 7d30 073d 2651 0a3d
00000210: 808e 7f3c bcbd 30bd c082 c03c 2d29 d9bc
00000220: f4e5 b83c e7ff 7b3d 65a9 a4bc a4ed 98bc
00000230: e103 32bc 5e86 c5bc ed9c 903c 43f4 08bd
00000240: 77cc 4b3d 08f7 cf3d 7c9c e03c 5f15 e5bc
00000250: bf3d aabd d698 ad3c ead7 213d 6c30 89bc
00000260: 424d 0ebc 93bd c4bd e147 79bd 9b24 0cbd
00000270: a9eb 88bc 6ad5 f9bc 8592 a5bd 1a80 ed3c
00000280: 363e 0a3d 90b5 08bd fc31 bfbc 3a31 89bd
00000290: a7eb 2dbd 11e7 87bd c2f1 8f3c 419a 37bd
000002a0: 053b a0bd 6dee 85bd d669 4dbc 7c25 0dbc
000002b0: 5676 16bb 3b6c f8bb a87e 75bd 5e33 75bc
000002c0: 9c58 8bbd 0b53 163d e4e9 2dbd 7d49 7d3c
000002d0: ba92 593c b679 793d bb0c 4c3d aea9 363d
000002e0: f48b dabd 106e 023d 63d2 9a3d 025c cdba
000002f0: e2b8 dc3c afd4 653d bb9c 393c e987 a8bb
00000300: 9fdc f33b 6896 d5bc 8f16 513d 57bc 803d
00000310: 3f77 50bd 9cca 20bd 274c 15bd 7304 a4bd
00000320: 8c25 8dbd 2124 aa3b c88c 3f3d a561 b0bc
00000330: cbb4 aebd 1a00 10bd 6896 933d 5c45 dbbd
00000340: 7a59 7cbc 6e4a 023d 09a3 dabc 7899 c13c
00000350: 4281 f43c bc83 9dbc 1fe6 d3bc 1dfb 0bbd
00000360: 806a fdbc 5804 4ebd f3dc 2e3d 6d3b 1abd
00000370: 4705 1abd 7f53 d43b b54d bc3b fb93 393d
00000380: fd57 eeb9 49a4 eb3c 7d4d a7bd c3f0 203d
00000390: eab6 0e3d d25a a7bb 1d42 55bc 2e38 7f3d
000003a0: 451e 30bd 0815 863c 5edf 1bbd 300e 453c
000003b0: 247d b43b 4317 1e3c a3e8 433c 3ea2 aabd
000003c0: 7b63 d7bd 975d 2d3d 1463 8a3d 0f8d 803c
000003d0: 5c73 95bd b4e1 d3bb 81db eabc 7f0f 15bd
000003e0: 6b6f 703c 25ff 963c effb 8d3d a185 83bd
000003f0: 628b bc3c 2479 1fbd e50a 4f3d f7f3 ab3d
0.055424478 -0.0085422695 0.05683842 0.015518683 -0.04849864 0.038976975 -0.020349743 -0.027355677
-0.054930475 -0.0576249 0.013865277 -0.017181065 0.020238442 -0.054366797 0.04209629 -0.04153956
-0.0069584083 0.009064157 0.028093817 0.05351693 0.052481122 -0.045202065 0.01925806 -0.022846952
-0.0030501955 -0.042453077 0.059989475 -0.041592665 0.029239217 0.025154497 0.016369639 -0.029635496
0.052377272 0.009803686 0.0041847453 -0.0506532 0.029764973 -0.013032789 -0.024448652 0.049223907
0.010033476 -0.030381907 -0.034975454 -0.0066662645 0.030726168 -0.012074957 -0.03890739 -0.024881678
-0.04984845 0.018263303 0.051371187 -0.054333117 0.0106193945 0.035586674 0.007419169 -0.025723018
0.028494453 0.035109043 0.019620089 -0.007063653 -0.019925801 0.010297218 -0.014624983 -0.014657823
0.043140564 0.05677535 -0.0024212513 -0.010055097 0.0046361517 -0.0073697492 0.011112515 0.021013966
-0.05978689 -0.01898417 0.055117708 0.027807897 0.00070565415 -0.04092884 -0.04143047 -0.059015293
-0.017973604 0.017028086 0.0356189 0.024751697 -0.05072155 -0.03332085 -0.005997181 0.06319537
0.012671982 -0.01975541 0.021784164 -0.019726949 -0.04362584 0.04128306 -0.024334034 -0.008621
-0.06505298 0.045047645 0.050485667 0.025985125 -0.039260663 -0.057110228 -0.04636524 0.042244982
0.025899865 0.055677217 0.036165677 0.019236794 0.0031036616 -0.04321365 -0.048048586 -0.06149619
0.021548208 -0.03410126 -0.016186485 -0.031742826 -0.00749302 -0.039683137 -0.044015456 0.02427657
-0.016735043 0.041884046 -0.015884858 -0.041497897 -0.007152252 -0.026143715 -0.015110829 -0.054923344
0.056512516 -0.06714107 0.033005226 0.033768795 0.0155979395 -0.043149695 0.023499846 -0.026508892
0.022570588 0.061523344 -0.020100305 -0.018668003 -0.010865183 -0.024111923 0.017652953 -0.03343607
0.04975554 0.10154539 0.027418368 -0.027964292 -0.083125584 0.021191042 0.039512552 -0.016746722
-0.008685412 -0.09606471 -0.060859565 -0.034214597 -0.016713934 -0.030497272 -0.08084587 0.028991748
0.033750735 -0.033376276 -0.023339264 -0.06698842 -0.042461064 -0.06635869 0.017571334 -0.044824842
-0.07823757 -0.06539617 -0.01253744 -0.008614894 -0.0022958717 -0.0075812615 -0.059935242 -0.01496586
-0.0680401 0.03670029 -0.042459384 0.0154594155 0.013279611 0.06090709 0.04981683 0.044595413
-0.10671225 0.031843245 0.07559659 -0.0015667679 0.026943628 0.056111034 0.011328871 -0.005143155
0.0074420716 -0.026072696 0.051046904 0.06285923 -0.050894972 -0.039255723 -0.036449578 -0.08008661
-0.06891927 0.005192295 0.04676512 -0.021530936 -0.08530577 -0.035156347 0.07206422 -0.107065886
-0.015402192 0.031809263 -0.02668907 0.02363275 0.029846791 -0.019227855 -0.025866566 -0.034175027
-0.030934572 -0.05029711 0.042691182 -0.03765433 -0.03760269 0.00647968 0.005746568 0.04530714
-0.00045460454 0.02876486 -0.081690766 0.03929211 0.03484241 -0.005107262 -0.013016251 0.062309437
-0.042997617 0.01636745 -0.038054816 0.012027308 0.005508082 0.009649101 0.01195732 -0.083317265
-0.10517021 0.042325582 0.06757179 0.015692262 -0.07297394 -0.006466115 -0.02866912 -0.03639173
0.014675002 0.01843221 0.06932818 -0.06421972 0.023015682 -0.038933888 0.0505475 0.08396142

encoder.convs.0.node_mlp.bias f4 [128]
00000000: a81c 37bd dc4e 643c f1c2 e13a d73a 673d
00000010: a019 0d3d 0951 8cbc ebee dc3a d2d4 3cbd
00000020: f098 013c cb00 103b 3a73 483d e723 8f3d
00000030: 4ec3 1cbd 8e97 873d 2373 5bbd 0e6e b53c
00000040: f0ec e03c 681f fc3c b0ce 243d 94d9 38bc
00000050: 6b34 413d 1666 843c 3f60 dc3b 5889 99bc
00000060: ebcf 40bd c044 51bc df66 033a aff1 803c
00000070: c5b8 07bb 0508 5f3b e386 083b 5720 f0bc
00000080: 46b6 51bb f8c3 3ebd 08bb b03b 4a98 273d
00000090: 6573 f2bc 0694 063d ad3a d4bc 99d1 c6bc
000000a0: 9597 e33c d25f 7bbd e93b 0c3d d530 173d
000000b0: 5ff1 a33c 5956 b7bb 792a f5bc d7b6 2bbd
000000c0: 339e 653d 6fe9 af3c 56ba dc3c 4a52 1cbd
000000d0: ee40 133d 108e 06bd 7132 373d 4e85 433d
000000e0: eada 3bbd caae 63bd 7841 58bd bf50 0bbd
000000f0: 0ffb 8a3c f1ca 3cbd 335a 2c3d e81c 13bd
00000100: b18a 6bbc 543a 333c 8680 1cbd 95a5 5ebb
00000110: ab89 65bd 7ec1 76bd b517 923b 4bc1 eabc
00000120: 033a 343d 82bb 00bd 1981 e13c 2363 123d
00000130: 9d8c 76bc b4ea 7bbc 4589 c83c e9cc bfbc
00000140: 7f0d 763c 8d3d c9bc eccb 34bc 08d3 40bd
00000150: 1ad2 3f3d f4a9 68bd 2f83 0ebc ab4f e43c
00000160: b6ce 27bd 6e9f da3b a300 8a3d d89e 9d3c
00000170: 9593 1b3d 808a 3ebd af9a 183d c360 133b
00000180: b5d6 0b39 812e cbbc 80f8 c4bc 775e 273d
00000190: 28bf 193d 9e14 62bd 7718 403d 3b0f 573d
000001a0: 4557 d4bc f75f c03b 6c5c bd3c 5414 7ebd
000001b0: 481c b43c cd25 5c3d 9238 b1bc 4eb2 35bd
000001c0: 8445 0cbd b748 2d3d afb1 08bc 5340 16bc
000001d0: 8f1f 333c e2ee 853c 9979 1f3d e954 583b
000001e0: 6821 81bd 9a74 1d3d 0fc3 143d f854 423b
000001f0: b1a9 cabc 540a b4bc 269f d13c a9a3 4a3d
-0.044705063 0.013934817 0.0017224235 0.0564526 0.034448266 -0.017128484 0.0016855871 -0.0461014
0.007909998 0.002197313 0.048938014 0.0698927 -0.038272195 0.06620704 -0.0535766 0.022147205
0.02745673 0.030776694 0.040236175 -0.011282343 0.04716913 0.01616196 0.0067253406 -0.018742248
-0.047073286 -0.012772739 0.00050125824 0.015740244 -0.0020709496 0.003403188 0.0020832352 -0.029312296
-0.0031999513 -0.04657361 0.0053933896 0.04091672 -0.02959604 0.03285601 -0.025906885 -0.024269866
0.02778224 -0.06137068 0.034236822 0.036911804 0.020012556 -0.0055950102 -0.02992748 -0.041922417
0.056059074 0.021473614 0.02694432 -0.038164414 0.035950594 -0.032850325 0.04472584 0.04773455
-0.04586307 -0.055586614 -0.05279681 -0.034012552 0.016965417 -0.046091978 0.04207821 -0.03591624
-0.014376328 0.0109391995 -0.038208507 -0.0033973206 -0.056039494 -0.060243122 0.0044583925 -0.028656622
0.044000637 -0.03142882 0.027527379 0.035739075 -0.015048173 -0.015375782 0.024479518 -0.023413138
0.015017866 -0.024565483 -0.011034947 -0.047076255 0.046831228 -0.056802705 -0.008698269 0.02787002
-0.04096862 0.0066718375 0.06738403 0.019240782 0.037982542 -0.046518803 0.037256893 0.0022488094
0.00013336058 -0.024802448 -0.024044275 0.040861573 0.037535816 -0.055195443 0.04689833 0.05250476
-0.02592052 0.005870815 0.02311536 -0.062031105 0.021986142 0.053746987 -0.02163342 -0.044359498
-0.034245983 0.042305674 -0.008343144 -0.0091706095 0.010932817 0.01634926 0.038934324 0.0033009595
-0.063052 0.038441278 0.036318835 0.0029652696 -0.024739118 -0.021977581 0.025588583 0.049472485

encoder.convs.0.edge_mlp.0.weight f4 [128, 7]
00000000: 55a4 a4be 33b3 4a3e fe01 d93d 4408 2a3e
00000010: fe6c 24bd fcf4 693c 1886 a4be d598 2fbd
00000020: a3f5 87be f3f4 9f3e 7a44 123e 58c2 f73d
00000030: b29b 77be 395b 34be 18eb 3f3d 41bc 0bbe
00000040: 720a 05bb b371 823b 7b7b 62bb f446 96be
00000050: dd28 b63e 34db 4bbe 71c4 b03b 40c1 43be
00000060: 5e86 ab3e 323b 2dbe c1d7 4f3e 24e7 173e
00000070: 7f14 59bd d81b f038 a2bf 7bbe 2c01 abbe
00000080: 651e 6c3e e873 803e 9644 b1be bdbc e8bd
00000090: a4b2 9fbe 8871 99be 901d 8d3d d0c2 a0bd
000000a0: 2ede b63e 6efa 8e3e 0c77 9dbe c6f5 b73e
000000b0: e6d2 8a3e bb44 a33e 7ea9 e9bd 47dd bf3c
000000c0: 955e 8fbe e30a 51be 4d99 873e 5b41 8f3e
000000d0: f277 c3be 9657 143e 5f3e 13be de14 9bbe
000000e0: 9d39 763e 4acf 533e f677 ffbd 8ebc c13e
000000f0: f637 57be ca2b 693e ced4 793e 1084 41be
00000100: 378c a63e 159e 31be 3cf5 0ebe 3998 923e
00000110: 79bd b53e 3213 73be 8217 cb3e 8d6e bbbe
00000120: 114f 343e dbd6 a6be 7d3e 3dbd 8ec0 95be
00000130: ce69 923e d36c 66be 8bc7 c6be d5b5 75be
00000140: adb7 733e 4cf1 083e d8ec 143e c4c8 913e
00000150: 132a 27be 2cac 283e 10d7 8bbe 311f c6be
00000160: dc09 193e e512 b5be 5672 9b3d 5818 e13d
00000170: ddec 973e 5daf b33e 0263 bc3d c616 86bc
00000180: dfe4 84be d658 6cbe fd79 bebd 88c1 eb3d
00000190: 9616 63be b132 12be b913 9fbd 877c d8bc
000001a0: b5b5 32be c838 9b3e 7ee3 033e 5876 a73e
000001b0: 68e4 6fbe 861c bd3d 354b f53d f36c 7d3e
000001c0: 464a c7be 10c8 9fbe 1345 84bc 6ff7 7bbe
000001d0: 9d37 9cbe 9a19 6a3d ec12 523e 6f08 dcbe
000001e0: ce4b f5bd 5c02 b8be c404 3e3d 26f7 cb3d
000001f0: 5446 b1be 6aae bc3d c243 36be 7578 03be
00000200: 959c 8bbe 7a8f 32bd c87d 283e d001 62be
00000210: 65bf 0cbe 6d2b 95be 282d c6bd 842c a23e
00000220: b9a5 623e 62c4 6abe dbb5 be3e d6ef da3d
00000230: de9d 313e 2051 72be b8de 34bd 94d2 a03e
00000240: 0122 823e 5f6e 473e f419 53be ac3a babd
00000250: 3407 823e 6ef6 4c3e a2b3 dabd 4ed9 27be
00000260: c945 90be 8393 aebe cb1a 25be e26a 0d3e
00000270: 745a 48be e136 f53d cd5f 8dbe 7b83 94bc
00000280: a416 54be 2e93 37be 6f4d 523e d6bd ab3d
00000290: df23 a63e b0a3 d33d 0059 2a3c d891 a13e
000002a0: f2a5 83be 72b6 ab3e 0efb f73c 8dc9 fa3a
000002b0: 1c8f 78be 1504 7bbb be55 7fbe 766c 863e
000002c0: 67c6 05be 3dae 36bd 0f4e b13e 9424 bebc
000002d0: 469e 95be bab1 ad3d 45e8 2d3d 5632 51be
000002e0: a0f1 abbe b33f c2be c9ae 95be c9ef 18bd
000002f0: 6ff4 a3be 1769 abbe 3e69 d83d 2d19 9abe
00000300: 2ac4 02bb 5fd8 d83d 6209 a43e 454d 683c
00000310: a8c5 b53c ec3c b13e d9b1 c23d 6ae1 9f3e
00000320: 59ef a6bd 6917 b93e b021 98be 99bd 8a3e
00000330: 989f 333c cccc 29bd f5ab b13e 364b 463e
00000340: b96a 063e 99f6 c7bd f22f af3e 68df b23b
00000350: 80c5 cc3d f2f0 94bc 5960 c4bd caf1 6fbe
00000360: e9ab 6e3e 21c0 c23c e478 3dbd d263 363d
00000370: 3c62 07be ea74 1fbd 9039 37be e67c 9c3c
00000380: fd08 253e bae8 aabe 829c a93e beea f8bd
00000390: 11e4 9a3e 335c 993e 8e25 153e 3db9 be3e
000003a0: c2d1 c2be f234 c9be b2bd 003d b66a 08be
000003b0: 23bf 1cbe cbde 0ebd 3b2e 9cbe f3e1 0abe
000003c0: 347e 39be 3324 9c3d 19ed 823c 76bd 85be
000003d0: 5f0f 36be e9f3 883c 0293 a33e e99a b43e
000003e0: ad70 1c3e 201b 52bb c7e2 14bb cd52 a23e
000003f0: 3290 81be a78c 3cbe 9bdc 8b3d 791c 64be
-0.32156625 0.19794922 0.10596083 0.16604716 -0.040143006 0.0142796 -0.32133555 -0.04287036
-0.26554593 0.3124157 0.14283934 0.12097615 -0.24180487 -0.17612924 0.046855062 -0.13646032
-0.0020300415 0.003980839 -0.0034558463 -0.29351008 0.3557805 -0.19907838 0.0053945114 -0.19116688
0.33500952 -0.16917112 0.20297147 0.14834267 -0.052998062 0.00011449278 -0.24584821 -0.33399332
0.2305847 0.2508843 -0.3462264 -0.11364124 -0.3119098 -0.2996943 0.06890404 -0.078496575
0.35716385 0.27925438 -0.30754888 0.35929698 0.27114028 0.31888375 -0.11409281 0.023420943
-0.28001848 -0.20414309 0.26484147 0.2797955 -0.3817745 0.14486536 -0.14379261 -0.30289358
0.24045415 0.20684543 -0.124740526 0.37839168 -0.21017441 0.2277061 0.24397585 -0.18898034
0.3252885 -0.1734546 -0.13960737 0.28631762 0.3549612 -0.23737791 0.39666373 -0.3660778
0.17608286 -0.32585797 -0.04620217 -0.2924847 0.28596348 -0.2250245 -0.38824114 -0.23995145
0.23800536 0.13373297 0.14543474 0.28473485 -0.16324644 0.16471928 -0.27312517 -0.38695672
0.14945167 -0.35365978 0.07590167 0.10990971 0.296729 0.3509473 0.09198572 -0.016368281
-0.25955865 -0.23080763 -0.09300611 0.115115225 -0.22176585 -0.1427715 -0.07767434 -0.026426567
-0.17452128 0.30316758 0.1287975 0.32707477 -0.23426974 0.09233956 0.11977235 0.24748592
-0.38923854 -0.31207323 -0.016146218 -0.24606107 -0.3051118 0.05715332 0.2051503 -0.42975184
-0.11977349 -0.359393 0.046391264 0.09959249 -0.3462397 0.09212954 -0.17799285 -0.1283892
-0.272679 -0.04359386 0.16454232 -0.22071004 -0.13744886 -0.29134694 -0.096765816 0.31674588
0.2213353 -0.22926477 0.3724812 0.10690276 0.17345378 -0.23663759 -0.044157714 0.31410658
0.25416568 0.19475697 -0.20615369 -0.09093222 0.2539612 0.2001588 -0.106787935 -0.16391489
-0.28178242 -0.34096918 -0.16123502 0.13810304 -0.19565755 0.11973358 -0.27612153 -0.018129101
-0.20711762 -0.17927238 0.20537351 0.08385818 0.32449242 0.10333955 0.010397196 0.31556582
-0.25712544 0.33537632 0.03027108 0.0019133553 -0.24273342 -0.0038301994 -0.24935052 0.26254624
-0.13063966 -0.04459976 0.34629866 -0.023210801 -0.29222316 0.08481164 0.042457838 -0.20429358
-0.33582783 -0.37939224 -0.29234913 -0.037338052 -0.32022426 -0.33478615 0.10566948 -0.30097333
-0.0019953349 0.105881445 0.3203841 0.014178579 0.022188976 0.34616792 0.09506578 0.31226665
-0.08151121 0.36150673 -0.29713202 0.27097777 0.010963343 -0.041455075 0.34701505 0.19364628
0.13126649 -0.09763832 0.34216267 0.005458761 0.09998608 -0.018181298 -0.09588689 -0.23432079
0.23307766 0.023773255 -0.04625787 0.04452879 -0.13221067 -0.038929857 -0.17893052 0.019102525
0.1611671 -0.3338068 0.33127218 -0.121541485 0.30252126 0.29953155 0.14565107 0.372507
-0.38050658 -0.39298207 0.031430908 -0.13321957 -0.15307288 -0.03488044 -0.3050402 -0.13562755
-0.18114549 0.07624092 0.015982198 -0.2612111 -0.17779301 0.016717868 0.31948096 0.35274437
0.15277357 -0.0032059625 -0.0022718178 0.31703797 -0.25305325 -0.1841303 0.068291865 -0.22276486

encoder.convs.0.edge_mlp.0.bias f4 [128]
00000000: dbb4 2c3e ff9a f93d b357 82be d773 933d
00000010: b2a8 50bd 1420 783e 4bd3 e3bc 294b 60be
00000020: a2be 503e 4a3b ffbd 2607 1bbd 3238 0ebe
00000030: 8bf3 143e 9f21 01bd 4e9c 443e 8749 5cbe
00000040: 242d 4bbd 7788 b23e ac8f 5fbe 5f87 68bd
00000050: bf82 50bd 9817 e43d af6d 15be 67ce fd3d
00000060: e059 abbd b1ed 033d 0449 b53e 691f 9f3e
00000070: 514f 02be 3b5f 61be c5ea 73be 7e77 87bd
00000080: b5a5 073c 6144 b83d d075 04be 0114 2d3e
00000090: 3cf8 d03c 1a92 c03d 8224 af3e d5d7 603d
000000a0: 18d5 073b ca81 d7bd 2d02 843e 6654 a1be
000000b0: 1f7e 1bbe b249 a43d 457c 603e c235 b6be
000000c0: fdf9 4abd c028 5b3d 3e8e 9f3e abba 293e
000000d0: 563a a13e b03b e2bd 4b5d b4be e14f 9e3d
000000e0: b582 783e 5cb2 743d 6433 853d 0ca0 ac3e
000000f0: df36 9bbe ac13 d43d 010e 0c3e c6b3 6c3d
00000100: e2bb c2bd 7d83 44be 41cc 363e c82f b03d
00000110: 0f56 ca3d 52d3 1f3c 96ba 91be e14c 233e
00000120: 0efc 37be 907e 28be 0bbd 35be b435 9fbe
00000130: 9406 97be 2015 15bd 3d6c babe 5c16 813e
00000140: 6983 82be dfff 003e 9edc de3d 205c 16be
00000150: 27c6 9b3d 2f11 b13e fe95 afbe 5ebe 6cbc
00000160: 0f7a 893e be16 a03e df2b d43d d1b0 b43e
00000170: 5379 61be da5b a93e 235c 993d 811d 1dbe
00000180: 9b25 5e3e 6a66 8f3e b88c 9cbe dfd7 0c3e
00000190: ee0c 053e 3617 963e 01d4 a3be 2cb1 413e
000001a0: 9510 ae3e 3bd1 14be 2f49 323e e6a0 a1be
000001b0: 64ba a23d ca32 30be 9c47 babe a6da 6d3e
000001c0: 51fc 473e fd5b 653e 2a2b 8e3e 7bfa 0dbe
000001d0: ce5a 89be d2f6 743e 7d1d 963e 4c1e 8dbe
000001e0: d02d 95be a773 84be 4572 1cbe aff2 693e
000001f0: 04c4 97be 79b2 e03d eb81 293d 7272 5dbe
0.16865866 0.12187766 -0.25457534 0.07199829 -0.05094213 0.24230987 -0.027810713 -0.21903671
0.2038522 -0.1246248 -0.037848614 -0.13888624 0.1454603 -0.031526204 0.1920025 -0.21512423
-0.049603596 0.3486974 -0.2183215 -0.056769725 -0.05090594 0.11137313 -0.14592622 0.12392884
-0.08366752 0.032209102 0.3540727 0.31078652 -0.1272557 -0.22008984 -0.23820026 -0.06614588
0.008279254 0.08997417 -0.12935567 0.16902162 0.025508992 0.09402867 0.3420754 0.054893333
0.002072638 -0.10522802 0.2578291 -0.31509703 -0.1518483 0.08021869 0.21922405 -0.3558789
-0.049554814 0.05350566 0.3116321 0.16575114 0.3148982 -0.11046541 -0.35227427 0.077300794
0.24268611 0.05974041 0.065039426 0.33715856 -0.303153 0.103553146 0.13677217 0.057788633
-0.09508492 -0.19190784 0.17851354 0.086028636 0.098796956 0.0097549725 -0.28462666 0.15947296
-0.17967245 -0.1645453 -0.17747895 -0.3109566 -0.29497206 -0.0363971 -0.36410704 0.2521237
-0.25490883 0.12597607 0.10881923 -0.1468358 0.07606154 0.34583423 -0.34294122 -0.014449684
0.26850936 0.3126735 0.1035993 0.3529115 -0.22018938 0.3307789 0.07488277 -0.15343286
0.21694033 0.28007823 -0.3057611 0.13754223 0.12993214 0.29314584 -0.31997684 0.18915242
0.33997026 -0.1453294 0.1741073 -0.31568068 0.079457074 -0.17206874 -0.3638276 0.23227939
0.19529845 0.22398372 0.27767307 -0.13865082 -0.2682709 0.2392228 0.29319373 -0.27562177
-0.29136515 -0.25869486 -0.15277965 0.22846483 -0.29641736 0.10971541 0.041383665 -0.21625689

encoder.convs.0.edge_mlp.2.weight f4 [128, 128]
00000000: bbb7 20be 4e62 613d d39a 16bd bb86 89bd
00000010: 316c 823c aaf6 9abd e65b bfbd e9ae 0cbd
00000020: 1b2b d4bc fc88 cbbd 55ce 83bd 727f 273d
00000030: a454 09bd 4955 6d3b 0c78 b73d 806a 013d
00000040: a057 583d fc7f 53bd 0f25 71bd 9fb7 633c
00000050: 0dbc 513d b7a9 24bd df9b 89bd 8402 f1bc
00000060: b2c8 663d bb56 d13d 9c10 3ebd cfa2 0c3d
00000070: 4562 9dbd 9761 323c 1c19 efbc 3dc3 6abd
00000080: bfa7 1f3a cc8b 0cbd b41b 993d 1a7c 20bd
00000090: c938 c4bd 37bc 503c c27b b33d b60d b63d
000000a0: 608b b63c 7aa9 30bd 2b23 2d3d 1a16 a5bc
000000b0: a2a0 88bd 1df0 87bd 56b7 86bd 8edb f8bc
000000c0: 0bf9 313d cc83 923d 2bb3 78bd 1995 233d
000000d0: 79bb 1b3c 5fa8 bebd 524b 8fbc f984 5ebd
000000e0: b7d4 8abd c849 4e3d 97d8 bf3d 983b a43c
000000f0: c960 e53c b4c5 b2bc 19a3 673d 8e01 94bd
00000100: bef9 78bd c043 ac3d cde2 663d ab6f a1bc
00000110: 606d 9dbd 226b 5d3d 5333 b23d 9666 9bbd
00000120: d8cd 16bc bd8b c9bd 2173 643a 9b80 f23d
00000130: 4a90 93bd 6869 f9bd 888d 323d 2eb0 9b3c
00000140: 5413 a03d acfa 133d 8f2b 953d dea0 b73d
00000150: 311c 1f3d ab6c 34bd e26f 7ebd 9720 9b3d
00000160: 9a18 1939 8402 92bd 0833 2e3d ba6d 55bd
00000170: fff1 773b a229 b83d 382e 7b3d b2fc 88bc
00000180: 9ae0 8e3c 4dc7 aa3c 32c0 5dbc 9d20 a4bd
00000190: f9e3 8c3d 5e24 a4bd a33c 243c f0d9 26bd
000001a0: 497c 253d a8b8 75bd bce2 e33a 3afb 66bd
000001b0: 1c4c 3cbd 040c 1c3e 34ff 1e3b e118 b33d
000001c0: ea51 24bd 2be2 5d3d d591 2d3d 27f8 683d
000001d0: df16 c5bc b65e 33bd c845 c4bb cca3 5bbd
000001e0: 4d7d 923c fdf2 1ebd 5619 7d3d c4ac 703d
000001f0: e74e c7bc a852 32bc 3b89 193d 5037 ebbc
00000200: c981 4c3d f852 a1bc 28e9 7e3d 9e40 3bbb
00000210: c780 be3d cfee 483d 8c2f 143e 713e 9e3c
00000220: 85aa bbbc e3e2 cfbb 6591 9d3d 3599 f93b
00000230: 5940 45bc 836b 22bc 6a5a f9bd 57e5 a43c
00000240: 5433 80bd 65cf 8dbd 3463 51bd 7f3a 023e
00000250: b420 a23b 5fbd 533d 96f6 81bd 0b7f 7ebc
00000260: 3ec3 6e3d 6c17 933d 5e85 32bd 9116 90bd
00000270: 9fa3 af3d 14c3 bdbd 0a78 e03b 2657 373d
00000280: cd5d 453d 8f6d 86ba 5bb9 303d 473e 323d
00000290: bbfc 0e3e b3ce b13d 3361 e93c 7ddd b73d
000002a0: f33a a1bd 9d69 3dbd f61f 6bbd cdbb 0ebc
000002b0: c021 8b3d b606 543d d7d5 78bd 4891 86bb
000002c0: 5be1 5dbd 4914 c9bc adaa a73d 67da 70bd
000002d0: a1be 193d 41f8 873d f6d3 b63d 4da4 dcbc
000002e0: 3fb0 aabb d60e 08bb 0c3a 52bd d648 5bbd
000002f0: 6f75 dfbd ad7e dcbc 0b52 d6bc df90 5d3d
00000300: c1d8 ad39 0404 6cbd 148b b4bd 269b 98bd
00000310: 9cac 0d3d 591d 97bc 4a85 a53d 3c39 883d
00000320: 8940 693d 68ec 963d e93c 983d 9955 40bd
00000330: cdc7 093d e9d8 703d 44f1 cabd db94 4b3d
00000340: 06a5 a13d f681 a7bc 1729 803d f012 a9bd
00000350: 8599 72bd f176 a13d 8b88 9fbd 4a88 083d
00000360: 40ae 0f3d 40fb 5f3c 505c f8bc 9b76 eebd
00000370: 0f13 d23d 33f5 12bc 7963 a53d 1434 213d
00000380: 4324 35bd 8f95 8ebd f550 9f3d 41ad 47bd
00000390: ab5a e9bc 8b15 663d ef60 c43c 5cda 2a3c
000003a0: 4cc3 c1bd 0420 12bd bb79 b93c 7a69 0e3d
000003b0: ec9e 633d 1c6e c0bc f81d 9f3d 0f3b 403c
000003c0: bdcd 29bc b8da 58bd 08b4 1fbd 1631 6d3d
000003d0: c022 a83c 2325 f83d eaee 933d c462 b53c
000003e0: 1a8e b2bd 2602 42bd b73f 343d 8917 ab3d
000003f0: 41f5 373c a3bf 43bd ceeb 313d e329 5f3c
-0.15695088 0.05502539 -0.036768746 -0.06715151 0.01592073 -0.07566579 -0.093437 -0.034346495
-0.02589946 -0.09938237 -0.06435839 0.040893026 -0.033527985 0.0036214164 0.08958444 0.031595707
0.05281794 -0.051635727 -0.058873232 0.013898759 0.05120473 -0.040200915 -0.06719183 -0.029420145
0.05634374 0.10221621 -0.04640256 0.034334954 -0.07684759 0.010887525 -0.029186778 -0.0573151
0.0006090365 -0.03431301 0.07475987 -0.039180852 -0.095811434 0.012740186 0.08763839 0.08889334
0.022283256 -0.043130375 0.042269867 -0.02015214 -0.06671263 -0.06637595 -0.06577937 -0.03037813
0.043450397 0.071540445 -0.060717743 0.039937112 0.009505146 -0.09309458 -0.01749197 -0.05432603
-0.067788534 0.050363332 0.09367483 0.020047948 0.028000252 -0.021822788 0.056552026 -0.07226859
-0.060785048 0.0841136 0.056368638 -0.019706568 -0.07686877 0.054057248 0.087011956 -0.07587926
-0.00920435 -0.09841106 0.00087146653 0.11840936 -0.07205255 -0.12178308 0.043592006 0.019004907
0.078161865 0.03612773 0.07283699 0.0896623 0.038845245 -0.044048946 -0.06211842 0.075745754
0.00014600382 -0.07129386 0.042529136 -0.052106597 0.003783345 0.08992316 0.061323375 -0.016722057
0.017441083 0.020846987 -0.013534592 -0.08014033 0.0687942 -0.08014749 0.010024223 -0.040735185
0.04040173 -0.059990555 0.0017386298 -0.056391932 -0.04597102 0.15238959 0.0024261 0.0874498
-0.04011718 0.05417077 0.042375404 0.05687728 -0.024058757 -0.043791495 -0.005989764 -0.053623006
0.017882014 -0.03880595 0.06179174 0.058758512 -0.024329616 -0.010883965 0.03748439 -0.028712898
0.04992846 -0.019692883 0.062234074 -0.002857245 0.09301906 0.04905587 0.14471263 0.019316884
-0.022908458 -0.0063441857 0.076937474 0.0076171407 -0.012039267 -0.009913328 -0.12175448 0.020128889
-0.0625979 -0.06924323 -0.051119998 0.12717627 0.004947746 0.05169427 -0.06345861 -0.015533219
0.058291666 0.07182202 -0.04358422 -0.07035554 0.0857613 -0.09265724 0.0068502473 0.044760846
0.04818516 -0.001025604 0.04314552 0.043516424 0.13963597 0.08682003 0.028488731 0.089777924
-0.07872572 -0.0462433 -0.057403527 -0.008711767 0.06793547 0.051764213 -0.06075081 -0.0041066743
-0.054169994 -0.024545806 0.08186851 -0.058802035 0.037535314 0.066391475 0.08927147 -0.026933813
-0.0052089985 -0.0020760796 -0.05132489 -0.05353626 -0.109110706 -0.026915872 -0.026162168 0.054093238
0.00033158626 -0.057621017 -0.088155895 -0.07451467 0.03458844 -0.018446611 0.080820635 0.066515416
0.05694631 0.0736931 0.07433493 -0.046956632 0.03363781 0.05880061 -0.09909299 0.049702507
0.07892804 -0.020447712 0.06257837 -0.08255565 -0.05922844 0.078840144 -0.077897154 0.0333331
0.035078287 0.0136707425 -0.030317456 -0.11643716 0.102575414 -0.008969593 0.080756135 0.039356306
-0.044224035 -0.0696212 0.07779113 -0.048749212 -0.028485617 0.05617289 0.023972003 0.0104280375
-0.09461078 -0.035675064 0.022641053 0.03476856 0.05557148 -0.023490004 0.07769388 0.011732831
-0.010363993 -0.05294296 -0.03899005 0.05790814 0.020524383 0.12116458 0.072233036 0.022141822
-0.0871851 -0.04736533 0.044006076 0.08354098 0.011227907 -0.04779018 0.04343777 0.013620826

encoder.convs.0.edge_mlp.2.bias f4 [128]
00000000: db83 af3c 13b9 9abd 6acc 2abc 5019 c73c
00000010: aeef fdbc c9e6 a83c 5518 9abc be94 abbd
00000020: c211 acbd 2461 033c adc8 a2bd 71c2 943d
00000030: 3dc7 1a3d 315b b73d 6dca 2cbc 46a9 733d
00000040: 9dc7 97bd 2c78 043d 91ac 393d e204 313c
00000050: f59e 25bd ae2d 28bd 45e1 12bd 2ae5 9e3d
00000060: f2a3 a83c 671e 2fbd c872 f8bc 77ef 4e3b
00000070: f025 f83c 27f6 b13d 7e0a 373d d1d7 a43d
00000080: a79f fdbc 3389 523c f427 8f3d 6643 583d
00000090: acbf a3bb fd8a 763d 2fd7 4ebd f640 afbd
000000a0: fcb4 c93c 0743 363d 819c 563d aec7 79bd
000000b0: c309 943d 6c0c 75bd 73b0 8d3d d9ca cbbc
000000c0: 73ab ab3d 5976 333d 4e8d 533d e2b7 f63b
000000d0: 6b2a 9ebd ad0a 86bd 82b3 a4bd 3900 b9bc
000000e0: 888b cbbc ecf4 f23c 0db3 a1bd 858d 89bd
000000f0: 1782 10bc f24a f5bb e279 babc e9dd a1bd
00000100: 1324 95bd 9576 8dbd 1b82 41bd dab6 71bc
00000110: b633 70bd 8727 94bd 9e1f 7fbc ba8e ad3d
00000120: c396 8e3d d147 83bc 0f79 68bd 68f6 673c
00000130: a13b 9cbd e321 7ebd 03d8 023b fbdd ca3c
00000140: 1872 4fbd 90cf 47bc f1b1 9b3b 44f7 8dbc
00000150: 77ad 043d c7a1 fb3c 7d3b 35bd 8eeb fcbb
00000160: 7e64 91bd a16f 3fbd 5694 b4bd f230 86bd
00000170: 1504 7fbd aeb1 f8bb 3ab3 dfbb 42d3 223c
00000180: 9de7 743d 1220 5a3c 248b 81ba f541 293d
00000190: 5232 5cbd cbd5 4dbc 97b0 ab3c bd8b 953d
000001a0: 600c 963d 6a50 93bd 5b42 4d3c 783d a33d
000001b0: c9de ae3c 5ece adbd 0d4a 663d 0e68 92bd
000001c0: af9c 8fbd d23e 7ebd abea 9b3d 725e 973d
000001d0: 1884 cfbc dea3 0d3d 6e6d af3c ff19 acbd
000001e0: 2ecf 4abd dafc 15bd c003 21bb 00e3 e5bc
000001f0: dc10 803d fc7e 8cbd 66e6 19bd 374b f0bb
0.021425178 -0.07554831 -0.010424713 0.024304062 -0.030998077 0.02061786 -0.01881043 -0.0837798
-0.084018245 0.008018766 -0.07948432 0.07263649 0.037787665 0.0895294 -0.010546309 0.059487604
-0.0741112 0.032341167 0.045330588 0.010804387 -0.040434796 -0.04105919 -0.035859365 0.07758553
0.020585988 -0.042753603 -0.03032817 0.0031575838 0.030291528 0.08689528 0.04468774 0.08048976
-0.030959917 0.012850094 0.06990042 0.05279865 -0.0049972143 0.060191143 -0.050498184 -0.08557312
0.024622433 0.044497516 0.052395348 -0.060981445 0.072284244 -0.0598263 0.06918421 -0.024876999
0.08382311 0.043814037 0.05164843 0.0075292448 -0.07722934 -0.06545005 -0.08042051 -0.022583114
-0.024846807 0.029657803 -0.07895479 -0.06716446 -0.008820078 -0.007485741 -0.022763196 -0.07903654
-0.07282271 -0.06907383 -0.04724322 -0.014753068 -0.058643065 -0.07234102 -0.015571503 0.084744886
0.06962349 -0.016025456 -0.056756075 0.014157869 -0.07628561 -0.062044036 0.0019965179 0.024764052
-0.050645918 -0.012195483 0.004751437 -0.01732982 0.03239199 0.03071679 -0.044246186 -0.00771851
-0.070992455 -0.046737317 -0.08817355 -0.06552304 -0.062259752 -0.0075895404 -0.0068267854 0.009938063
0.059791196 0.01331331 -0.0009883386 0.041322667 -0.053758927 -0.012563179 0.020958228 0.073020436
0.07326579 -0.07193072 0.012528027 0.079707086 0.021346467 -0.08486627 0.056222964 -0.07148753
-0.07012307 -0.06207163 0.07613119 0.07391061 -0.025331542 0.034580104 0.021414485 -0.08403396
-0.04951399 -0.03661809 -0.0024568886 -0.028062344 0.06253216 -0.06860158 -0.03757324 -0.007333185

encoder.convs.0.norm.weight f4 [128]
00000000: 7702 793f 3b82 7b3f a2c1 763f 6129 783f
00000010: 7d37 7a3f bd95 7a3f d655 7b3f 2b58 783f
00000020: 77cc 7b3f 012f 783f 5eac 7b3f 905c 783f
00000030: dc16 783f c6ab 773f 662e 783f 480c 793f
00000040: 6d44 7d3f d822 793f 58fc 7d3f fd27 773f
00000050: 355a 793f 3aca 793f 576d 7a3f 17b5 793f
00000060: 3f0b 763f 6973 7b3f 1b83 793f 01ed 773f
00000070: a781 793f be39 7b3f 40e8 793f be3e 7b3f
00000080: c531 773f 3847 7c3f 8fa0 7b3f 3da5 7d3f
00000090: b95d 7a3f 4343 7b3f 021c 7a3f 984a 783f
000000a0: a95a 783f 0361 7c3f 70a6 7a3f cad8 7a3f
000000b0: 833d 793f 6bc1 763f 0bca 7c3f f88f 793f
000000c0: eeff 793f 039b 7b3f 894a 773f 974b 7d3f
000000d0: 30bd 783f fc81 793f eb96 793f 32f3 793f
000000e0: 8ef4 793f 045e 793f 849d 763f 08de 783f
000000f0: a5b9 7d3f 9400 783f 6f11 7b3f ab28 7f3f
00000100: a364 7b3f 5a92 7a3f 1049 7a3f 4c89 783f
00000110: 109a 7a3f 39ef 773f 4d7b 773f 1d86 793f
00000120: 763e 7b3f f2f0 783f 9ed7 783f 300d 7a3f
00000130: 4b82 773f 6ab5 7b3f 8584 793f 83bd 7c3f
00000140: f151 7e3f 7ab4 773f e379 783f 2266 773f
00000150: 9b67 7e3f 5dca 7a3f 763c 793f 0769 783f
00000160: 2591 7a3f 0196 793f 2f70 7a3f fe1c 783f
00000170: 12d0 793f a740 783f 0b55 793f b08f 783f
00000180: 8a9e 793f 6ad3 793f b8e1 783f 4ec4 793f
00000190: 43d8 7a3f 860a 783f 6ed1 7b3f edc6 7a3f
000001a0: b5ee 7b3f f976 793f 5a87 773f ee59 7c3f
000001b0: 70e7 7b3f f28b 773f 1782 7c3f 0ce6 773f
000001c0: 800f 7c3f 0598 783f 668d 7c3f 2401 793f
000001d0: 05e5 793f f036 7a3f 7de5 773f 080c 7d3f
000001e0: d8d6 7c3f 6482 7c3f 1046 793f 4116 7b3f
000001f0: fa94 793f bdfa 773f 4b0c 793f 7f95 7a3f
0.97269386 0.9824559 0.9638921 0.9693814 0.9774092 0.9788473 0.9817785 0.97009534
0.98358864 0.9694672 0.98309886 0.9701624 0.9690988 0.9674648 0.969458 0.97284365
0.98932534 0.9731879 0.9921317 0.9654539 0.9740327 0.975742 0.9782309 0.97541946
0.9611091 0.98222977 0.97465676 0.96846014 0.9746346 0.9813498 0.9762001 0.9814261
0.9656032 0.9854617 0.9829187 0.9908026 0.9779926 0.9814951 0.97698987 0.9698882
0.97013336 0.9858553 0.97910213 0.97987044 0.97359484 0.9638888 0.98745793 0.97485304
0.9765614 0.98283404 0.96598107 0.98943466 0.9716368 0.97463965 0.9749591 0.9763671
0.97638786 0.9740908 0.963341 0.9721379 0.99111396 0.9687588 0.98073477 0.9967143
0.98200434 0.97879565 0.97767735 0.970845 0.9789133 0.968494 0.9667252 0.97470266
0.9814218 0.97242653 0.97204006 0.9767637 0.96683186 0.9832369 0.97467834 0.9872667
0.9934378 0.9675976 0.97060984 0.9664022 0.9937684 0.9796503 0.9735788 0.9703526
0.9787772 0.9749451 0.9782743 0.9691924 0.97583115 0.9697365 0.9739539 0.9709425
0.97507536 0.9758822 0.9721942 0.9756516 0.9798624 0.9689106 0.9836644 0.97959787
0.98411113 0.9744716 0.96690905 0.9857472 0.9840002 0.96697915 0.98636 0.968354
0.9846115 0.97106963 0.98653257 0.97267365 0.9761508 0.9774008 0.96834546 0.98846483
0.98765326 0.9863646 0.9737253 0.9808083 0.97492945 0.9686697 0.9728438 0.9788436

encoder.convs.0.norm.bias f4 [128]
00000000: 7b93 8d39 3251 b5bc 3b63 d23b 6194 903c
00000010: 6e37 2ebb cd51 023d d631 b13c 8878 0fbd
00000020: 23ac 843c ee6b 64bc f01e 053b 5627 bebc
00000030: 0333 be3c 6bd1 b7bb fcd5 dc3b d43d 91bc
00000040: f0cd 5bbc e786 cebb 1d2c c1bc 3c03 6ebc
00000050: c297 1fba ea7e 983a 4585 cc3c 6f95 173d
00000060: 3cf2 bfbc bba8 e23c 7b18 9d3c ba45 ac3a
00000070: 0854 223d 6314 783c 4732 233d 02a2 53bc
00000080: 0a67 b2bc 1d1a d93c f736 423d e3c9 0cbb
00000090: 6b94 a83c 3083 59bb 49aa 773c 5925 f23a
000000a0: 348b 97bb 558e 043d 7931 d73c 76bb 033c
000000b0: eee5 c2bc f44a 68bd 9f70 823c 1156 3d3d
000000c0: 000f 5cbd 1cce dfba 4683 263d a797 d43c
000000d0: 9202 143c bf54 a3bb 0a3c 89bd 1e9d a53a
000000e0: d4d1 2b3b 648c 52bb e058 883b 18e7 ffbb
000000f0: 9f4c b23c 91d8 093c d9ac 543b 0e73 f3bc
00000100: 74ca 963c ad71 76bc a9ac 2e3c 2aa6 eebc
00000110: 3bb8 7dbc 0ff9 373b 0461 8c3b 84f5 eaba
00000120: 78e5 3d3d 5b7b 25bc ecab 12bc ac9e 07bc
00000130: 512b 0ebd c7fb 0fbd bb6d 803c 5e78 24bc
00000140: 83d7 82bc 140a b23c 149e d13c 9de0 f83c
00000150: 8f35 483d e45a a03c 01e1 ebbb 9230 863b
00000160: dbfd c33c 54a6 77bd 16d6 d43c 0650 1c3c
00000170: 6284 2bbc fdc0 fdbb a38c 07bc 31d5 2d3c
00000180: 53cf 6e3c a561 bb3c 26e6 d93a 120d ab3c
00000190: 2917 4bbc 95f2 e1bc 5c02 053d 5930 88bc
000001a0: 1dc7 b43b 040e 483a 6b0b 913b 71bd 413c
000001b0: 8197 b33b ada8 c23c b127 2d3c 1f26 c23b
000001c0: f577 ab3b a984 cfbb 8f31 eabb 3a67 6fbd
000001d0: e826 a33c 9e2a 34bd d234 213d 1120 6b3c
000001e0: 94e4 d5bc c162 223c ca9c 043c 87e6 083c
000001f0: 2161 d7ba dbf7 993b 8f66 253c 0ca8 acbc
0.00027003497 -0.022133444 0.0064205206 0.017648878 -0.0026583332 0.031816293 0.021630209 -0.035027057
0.016195362 -0.013941748 0.002031263 -0.023212116 0.023217684 -0.0056096814 0.006739376 -0.017729677
-0.013415799 -0.0063027027 -0.023580605 -0.014527138 -0.00060879823 0.0011634503 0.024965892 0.037007745
-0.023430936 0.027668348 0.019176712 0.0013143339 0.03963092 0.015141579 0.03984287 -0.012917044
-0.021777648 0.02650171 0.0474157 -0.0021482639 0.020578584 -0.0033189766 0.015116283 0.0018474265
-0.0046247486 0.0323623 0.026268708 0.0080403 -0.02379128 -0.056712106 0.015922843 0.046224657
-0.053725243 -0.0017074975 0.040652536 0.02595122 0.009033816 -0.0049844678 -0.06700905 0.0012635326
0.0026217597 -0.0032127136 0.0041609854 -0.007809531 0.021765051 0.00841345 0.0032451658 -0.029717948
0.018407084 -0.015041751 0.010661283 -0.029131968 -0.0154858185 0.0028072034 0.004284026 -0.0017925953
0.046361417 -0.010100211 -0.008952122 -0.008277576 -0.03470928 -0.035152223 0.015677324 -0.010038463
-0.015971905 0.021733321 0.025588073 0.030380541 0.048879202 0.01957459 -0.0071984534 0.0040951455
0.023924759 -0.060461357 0.02598099 0.009540563 -0.010468574 -0.0077439533 -0.0082732765 0.010609911
0.014575797 0.022873709 0.0016624376 0.020880256 -0.0123956585 -0.027581492 0.032472953 -0.016624616
0.0055169 0.0007631483 0.00442641 0.0118249515 0.005480707 0.023762072 0.010568545 0.0059249545
0.005232806 -0.006332953 -0.007147021 -0.058448054 0.019916013 -0.043985955 0.039357014 0.014350907
-0.026109971 0.00991124 0.008094022 0.008355743 -0.0016432145 0.004698736 0.010095253 -0.021076225

encoder.convs.0.norm.mean_scale f4 [128]
00000000: 5ff4 803f 08f6 7e3f 4df4 753f 3a03 853f
00000010: c776 7a3f 024d 773f 0576 7c3f d7d9 703f
00000020: 0f6c 803f 6c3f 803f 9ee7 793f cda4 823f
00000030: 6fe4 7c3f 500a 803f 7e87 7c3f 7e0a 7a3f
00000040: 7ff4 7e3f c7bb 803f dd6e 813f 51c8 7b3f
00000050: f807 813f 651c 773f 6f77 753f 3d81 8b3f
00000060: 4bb1 723f 1a85 813f 2ac1 7b3f 2f25 813f
00000070: 07d5 6c3f 9cf3 7d3f 8a88 743f c335 853f
00000080: 103d 813f fff8 843f 295a 853f fcce 803f
00000090: eb9d 7e3f 4e44 833f fea7 783f 9cd6 7e3f
000000a0: 85db 7f3f f4a7 833f c6b4 7f3f 9b1f 843f
000000b0: 6d01 7a3f 74c6 893f 52a3 793f 60d7 823f
000000c0: e2a1 673f a7bc 7c3f 1ee9 833f 51f2 813f
000000d0: 9b33 803f 475b 813f 5cb9 843f a926 833f
000000e0: a4fe 7a3f 60b7 753f 152b 7a3f c276 7c3f
000000f0: b0a3 843f 1ca9 733f debf 7f3f 2164 8b3f
00000100: 75d8 7b3f b85d 703f ee18 753f 9dc1 833f
00000110: fe9e 813f c715 783f ce2a 7e3f 5dba 723f
00000120: 797c 853f efe6 813f cda7 7c3f 82f2 783f
00000130: 7ae1 803f 549d 843f 38e9 7a3f eeaf 793f
00000140: 6ccf 7b3f 0ce8 7a3f f676 813f 05fb 833f
00000150: f216 853f c2be 7e3f 5f9e 773f 8d2c 793f
00000160: a736 823f 8ca6 863f b22e 843f afb0 803f
00000170: d338 703f 6235 813f 64cc 863f c405 773f
00000180: 27e8 833f 5b7a 7f3f 7150 7c3f ac5b 7c3f
00000190: b32b 843f 9b5e 803f 3a18 833f 0244 793f
000001a0: 6820 7b3f 059d 813f 1183 743f 19a5 803f
000001b0: a9b2 773f e66c 7f3f 2a0a 803f 7d0d 783f
000001c0: 2e76 783f e832 793f 903b 733f 215a 833f
000001d0: 01ba 7e3f 39a6 713f a401 863f fb03 833f
000001e0: 0fc0 843f 2932 703f 9267 823f d97f 7e3f
000001f0: 19f7 763f 3439 7a3f 562b 7d3f 7163 833f
1.0074576 0.99594164 0.960759 1.039161 0.9783749 0.9660188 0.98617584 0.940824
1.0032977 1.0019355 0.97619045 1.0206543 0.9878606 1.0003147 0.98644245 0.9767226
0.9959182 1.0057305 1.0111958 0.98352534 1.0080557 0.965277 0.95885366 1.0898815
0.9480178 1.0118744 0.9834162 1.0089473 0.92512554 0.99199843 0.9552084 1.0407032
1.009676 1.0388488 1.041814 1.0063167 0.99459714 1.025522 0.97131336 0.9954622
0.99944335 1.028563 0.99885213 1.0322145 0.97658426 1.0763688 0.9751483 1.0221977
0.9048139 0.9872536 1.0305517 1.0152074 1.0015749 1.0105981 1.0369067 1.0246173
0.980448 0.95982933 0.9772199 0.9861871 1.0362453 0.95179915 0.9990214 1.0889932
0.9837716 0.93893003 0.95741165 1.0293461 1.0126646 0.9690823 0.99284065 0.9481562
1.0428611 1.01486 0.98693544 0.9724504 1.006881 1.0360513 0.98012114 0.9753407
0.98363376 0.98010325 1.0114429 1.031098 1.0397627 0.99509823 0.9672603 0.97333604
1.0172929 1.0519576 1.032675 1.005392 0.93836707 1.0094416 1.0531125 0.9649317
1.0305222 0.99796075 0.98560244 0.9857738 1.0325836 1.0028871 1.0241768 0.97369397
0.98096323 1.0126044 0.9551249 1.0050384 0.9675699 0.9977554 1.0003102 0.9689558
0.9705533 0.973433 0.9501276 1.026188 0.9950257 0.9439426 1.0469251 1.023559
1.0371112 0.9382654 1.0187857 0.9941383 0.9647079 0.97743535 0.9889425 1.0264722

encoder.convs.1.node_mlp.weight f4 [128, 256]
00000000: c37a c0bb 3a7c 1fbc 1831 adbc c5ea 253d
00000010: f5b5 543d fdb6 bc3b f6a8 da3a a32a 503d
00000020: eebb 71ba fedc a1bc 2d4c 3cbd cf53 cb3c
00000030: 10d5 f7bc 619c b53c deca 0ebd d7ce ab3c
00000040: 659a eb3c fa1b 303d 8bee a9bb ffde 1cbd
00000050: 2c88 063c 828f 7bbc e543 8d3c fe28 ffbb
00000060: ba66 36bc 7e63 613d 53ae 24bd a4d5 3d3d
00000070: 7c0f 923c 7817 2abd ec7e 593d b4a6 13bd
00000080: d689 41bd dcf6 5bbc 84c4 febb e6d5 04bd
00000090: 7bbb d93b 6a84 403d bf83 32bd 7a68 303d
000000a0: c4cc 3e3c 7a8f 763d 4669 863d 40db 233c
000000b0: e1f7 c4bc 935d 74bd 9fea dabc c7e5 c03c
000000c0: fdd6 1d3d 2ff1 3d3d c7cf dc3c e090 02bc
000000d0: 4f45 a23c 87ef bb3c e5d6 2c3d 20ba 593d
000000e0: 801d 1ebd d805 10bd efd4 13bc cbb7 bc39
000000f0: 0803 3bbd 927e 533d 792a 443d fdc4 d53c
00000100: d50a 283d 8a9a 6f3d 7dcd 623b 40bf fcbb
00000110: 85ab 9e3c 0b39 c83c e1dc 813c 6d96 a33b
00000120: cb52 2f3c d61e 41bd bcf5 023a 3a15 013d
00000130: 6d93 da3a 376c 7cbd cef5 31bc 1370 c5bc
00000140: 0fc1 f63c f589 203d 8f5b 2cbd e913 c63c
00000150: 1bd7 983b cf50 16bd 3df9 0abd a828 6f3b
00000160: b203 9f3c ae38 ddbc fb6b 873c 3a57 ad3c
00000170: c268 3abd 5d31 89bc eb6d 133a fe22 143d
00000180: 9998 a53c 53f4 c0bc 7edd b5bc 0a90 d33c
00000190: 04f2 6a3c f7ec adbc 7dc5 893d 1acc d9ba
000001a0: 5f8d 81bd 8622 5dbb 49fb 11bb 85bf d6bc
000001b0: db8b 263c 5278 88bc cc34 34bd 937f 123d
000001c0: fcb6 ea3c 0e39 0abd 5cc1 6f3c 80a7 cd3c
000001d0: 8ab2 cdbb 2c08 1c3b 38b1 46bc d0ea 36bc
000001e0: 451e 77bd d5c7 653d a252 5d3d 20af 1c3d
000001f0: 28ad 8fbc fa6a 98bc 5acc 953c 1bc2 c93c
00000200: bd2c 69bd 1ab5 31bd e161 56bd 10b7 0f39
00000210: 2b71 a8bc 9789 3d3d d13d 383d 8828 00bd
00000220: 679e c83d 0112 89bd 81fb 54bd c4fa 15bd
00000230: 04f7 2cbd aebb 98bd e2ef 543d 168c ba39
00000240: ee99 08bc 260b 1c3b 224f a13d db98 be3c
00000250: d3ef cebd 6004 89bc 7e1c 0bbc 0f46 af3d
00000260: 6de9 763d bf91 69bd a2b7 8a3c 62f1 e0bd
00000270: e55b 9b3d 916e 5c3d 45f0 babd 9423 31bd
00000280: 5ded 24bd 9988 153c 28dc e83c 3de6 1ebd
00000290: 8c0e a7bc 959f cb3d 5cb6 16bd 6efc 9f3d
000002a0: f10c 34bd 899e 59bc e663 a6bd f69c 223b
000002b0: 646c bdbc 45a0 203c e497 8e3d a8b2 cf3c
000002c0: d1a4 05be 82a9 af3d 4704 13bb 3c77 56bd
000002d0: 15b4 103c 7c0e f43c 2b6a 97bd 8dbb 3abd
000002e0: 6e34 bebd 3546 113d 5481 70bd 769c d1bd
000002f0: 1e06 63bd 4d7c a5bd 2e8a 4e3c 213a 973d
00000300: 8797 8b3d d7f6 1bbd deb0 7fbc f173 5cbd
00000310: 3d90 593d cd29 3dbd af53 903d 7fb1 e1bc
00000320: 6189 6f3d 3bfe a93c fa12 cd3c ed29 a33c
00000330: b687 71bd a97c 90bb ba70 633d bfc7 b2bc
00000340: 7917 9d3b 9d7a abbd 1c8c b7bc 290a 77bd
00000350: 4bba 7d3d ae55 4bbc 7063 133d 7b4f d33d
00000360: 8817 443d 6bb1 00be 8baf 8abd f611 8dbd
00000370: 7fd5 27bd 1965 c63c 5249 e0bc 4424 993d
00000380: 7527 523d ed63 83bc 9358 39bd ab6a da3c
00000390: c7e4 9d3d 303f c4bc ec0f f73c e851 b6bd
000003a0: 5d45 7cbd 5e69 e03c 7525 53bd 9528 99bd
000003b0: 50a5 a7bc 418b c2bc 51f7 4ebc df7c f23c
000003c0: 7469 22bc be1c 5bbd 1849 9abd d3c6 b03d
000003d0: 41c5 173d 495c 913d d5d5 81bd 1d83 df3d
000003e0: 5894 74bd e684 89bd a292 3b3d 82cf a4bd
000003f0: 9c01 06bc faae e7bd 142b 8fbd daaf d73c
-0.0058740093 -0.009734208 -0.021141574 0.040507097 0.05193134 0.0057591186 0.0016682434 0.05082191
-0.0009221424 -0.019758698 -0.045971084 0.024820236 -0.030252963 0.022169294 -0.034861438 0.020972652
0.028760144 0.04299543 -0.0051859072 -0.038298603 0.008211177 -0.015354039 0.017244289 -0.007786869
-0.01113289 0.055026524 -0.04020531 0.04634632 0.01782965 -0.041526288 0.053099558 -0.036047652
-0.04725059 -0.013425555 -0.0077748913 -0.032430552 0.006644664 0.04700128 -0.043582674 0.043068387
0.0116455 0.060195424 0.06563048 0.010001004 -0.02404398 -0.05965955 -0.026723204 0.023547066
0.038535107 0.04637259 0.026954545 -0.007969111 0.01980844 0.022941364 0.042197127 0.05315602
-0.038602352 -0.035161823 -0.009022935 0.0003599509 -0.045657188 0.05163438 0.047892068 0.026094908
0.041025955 0.05849699 0.0034607344 -0.0077132285 0.019368896 0.024441263 0.015852394 0.0049922974
0.010700892 -0.047148548 0.0004995724 0.031514384 0.0016676016 -0.06162664 -0.010861827 -0.024101293
0.030121354 0.039194066 -0.042079505 0.024179416 0.0046643144 -0.03669816 -0.0339291 0.003649274
0.019410942 -0.027004566 0.016530981 0.021159757 -0.04551006 -0.016747171 0.0005623984 0.036166184
0.020214366 -0.023554003 -0.022200342 0.02582552 0.014339928 -0.021231158 0.06727121 -0.0016616613
-0.063257925 -0.0033742501 -0.0022275022 -0.02621437 0.01016518 -0.016658936 -0.043995664 0.035766196
0.028651707 -0.033745818 0.014633503 0.025104284 -0.006277387 0.0023808582 -0.012127213 -0.011164382
-0.0603316 0.056098778 0.054033883 0.03825295 -0.017538622 -0.018605698 0.018285919 0.02462869
-0.05692743 -0.043385603 -0.05233944 0.00013705739 -0.020561775 0.046273794 0.044980828 -0.031288654
0.09795838 -0.06692887 -0.051997665 -0.0366161 -0.04222776 -0.07457672 0.051986583 0.00035581057
-0.008337481 0.0023810356 0.078764215 0.023266247 -0.101043366 -0.016725719 -0.00849068 0.085582845
0.060281206 -0.05702376 0.016933266 -0.1098354 0.07585887 0.05381638 -0.09127859 -0.04324682
-0.04026543 0.009126806 0.028425291 -0.03879379 -0.020392679 0.09942547 -0.036795005 0.07811819
-0.043957654 -0.013282427 -0.08124523 0.0024812794 -0.023122974 0.009803836 0.069625646 0.025353745
-0.13051154 0.08577253 -0.002243297 -0.052359805 0.008831997 0.029792063 -0.07393297 -0.04558902
-0.09287344 0.035467345 -0.058717087 -0.10234921 -0.055425756 -0.08080349 0.012606187 0.07384134
0.06816011 -0.0380772 -0.015606133 -0.053821508 0.053116072 -0.046182442 0.070472114 -0.027550457
0.058480624 0.02075111 0.025033463 0.019917453 -0.058967315 -0.004409392 0.055527426 -0.021823762
0.004794058 -0.08372996 -0.022405677 -0.060312424 0.06194524 -0.012410564 0.035983503 0.10317894
0.047874004 -0.1256768 -0.067717634 -0.068881914 -0.04097509 0.024218129 -0.027378712 0.0747762
0.05130716 -0.01603886 -0.045250487 0.026662191 0.077096514 -0.023955911 0.03015896 -0.08902341
-0.061589587 0.027393993 -0.051549394 -0.074784435 -0.02046457 -0.023748042 -0.012632207 0.029600559
-0.009912837 -0.053494208 -0.07533473 0.08631673 0.03705335 0.0709768 -0.06339613 0.1091368
-0.059711784 -0.067148015 0.045794137 -0.080473915 -0.008179095 -0.11312671 -0.069906384 0.02632897

encoder.convs.1.node_mlp.bias f4 [128]
00000000: b8a0 0ebd 54d2 053d fb3d 063b 1baf 113d
00000010: ab9d ac3c 6d56 e2bc 18f2 113d 1993 9cbc
00000020: 023a 0a3d 5817 513c 5a10 a1bb 1779 11bd
00000030: 4425 063d cac8 6cbd 2a7e 423d 9b96 7039
00000040: cc80 4d3d 3191 a43b 484d 58bc e7bd 08bd
00000050: 7147 84bd c58d c93c a3e2 8fbd 69df 1e3d
00000060: 29b8 54bd 3ad6 8e3a 3b69 cfba 6e1d 623d
00000070: f56c 23bd 66d0 78bc fea9 23bd 0266 08bd
00000080: df65 0ebc bb8f 01bb 47f4 843d 3111 00bc
00000090: 072b 6ebc f18e 853d 339c c43c bba6 7d3d
000000a0: 843d 673b 09f4 d6bc 0dec 0c3d b0b7 08bb
000000b0: 9d42 81bc 1146 773d fa4b c33c aab3 423d
000000c0: c79a d93c 57c8 4dbd d7f6 2f3d 668a bdbb
000000d0: 378a cb3c fbf7 9cbb 3406 cd3b 1808 793b
000000e0: 13e8 683d bcc9 333d ad60 6b3d f841 5a3d
000000f0: 0185 073d 37a5 44bd f81d e1bc a665 d8bb
00000100: d22a 03bd f93b c5bc 3bc3 68bc 27e1 483d
00000110: 203b 20bd 9654 2dbd 3815 29bd 8bad 5bbc
00000120: 5025 11bc f6e0 193d 0fbb af3c 08bc 4c3b
00000130: 1198 2c3d 0438 21bd 2aa3 22bb 42b3 22bd
00000140: fe6d 323d 984f 213d 7e84 973c 0f66 623d
00000150: 38fd 2d3c 6421 41bd e5c2 073d 923e 853c
00000160: bd9b f3bc 0a93 30bd d518 4c3d 0b60 a33c
00000170: c397 00bd c99f 893c c460 de3c 6e13 dfbb
00000180: e273 60bc 442d 41bc cd45 9a3d 4899 41bd
00000190: cbbf b2bc 1f44 9b3d 724b c13b c6c8 083d
000001a0: c4ed cebc f243 f13c 7fea 92bd 48c0 413c
000001b0: 2167 29bd f5b6 9cbc f1ce ce3c 907a 4abd
000001c0: 9cb0 cfbc fd9b 3dbc 126e 213d f54b 273d
000001d0: 665c 523d 990e 0bbd 9d7c 303d 7055 803d
000001e0: aafd 61bd 76d5 60bd 15af 88bd 5b17 6f3d
000001f0: 1b77 aa3c b6bf 9fbd 42c0 52bb 9ec6 0c3d
-0.034821242 0.032671288 0.002048372 0.035567384 0.021071276 -0.027629102 0.03563127 -0.01911311
0.033746727 0.012761913 -0.0049152793 -0.03551587 0.032750383 -0.057808675 0.0474836 0.00022944289
0.05017166 0.005022191 -0.013202019 -0.03338423 -0.06458939 0.024603734 -0.070256494 0.03878728
-0.05193344 0.0010897585 -0.0015824208 0.055203848 -0.03989883 -0.015186405 -0.03995704 -0.033300407
-0.00869128 -0.0019769508 0.06491905 -0.007816599 -0.014536626 0.065214045 0.024000263 0.061926585
0.003528447 -0.026239412 0.034404803 -0.002086144 -0.015778834 0.060369555 0.02383994 0.047534622
0.026563061 -0.050239887 0.042960014 -0.0057843206 0.02484618 -0.0047903038 0.006256843 0.003799921
0.05686195 0.04389356 0.057465244 0.05328557 0.033085827 -0.048009124 -0.02748011 -0.0066039143
-0.03202326 -0.024076449 -0.014206703 0.049042847 -0.039118886 -0.042316996 -0.04128 -0.013408075
-0.008858994 0.037568055 0.021451501 0.0031240005 0.04213721 -0.03936006 -0.0024816492 -0.039721735
0.043561928 0.039382547 0.018495794 0.055273112 0.010619454 -0.047150984 0.03314485 0.016265187
-0.029737348 -0.043108977 0.04982837 0.019943258 -0.03139473 0.016799824 0.02714575 -0.006807736
-0.013699504 -0.011790577 0.07532845 -0.04726532 -0.02181997 0.075813524 0.0058988864 0.033394597
-0.02525986 0.029451344 -0.07173633 0.011825629 -0.041358117 -0.01913021 0.025245162 -0.04943329
-0.025352769 -0.011572835 0.03941161 0.040843923 0.05135765 -0.03394947 0.04308759 0.06266296
-0.055173554 -0.054891072 -0.06674019 0.058371883 0.020808747 -0.07800238 -0.0032158052 0.034369104
