checkpoints/model_D_epoch_19.pth (torch, 552117 bytes, 26 tensors)

encoder.node_embedding.weight f4 [1, 128]
0	0x3fedea33	1.8587097
1	0x3fb58321	1.4180642
2	0x3f5dca85	0.86637145
3	0xc002738d	-2.0383027
4	0x3f2458d6	0.6419805
5	0xbf97539e	-1.1822393
6	0xbcc15424	-0.023599692
7	0xbfc6b7f1	-1.5524884
8	0xbf2fea74	-0.6871712
9	0x3fc9f338	1.577735
10	0xbeb75103	-0.35803995
11	0xbfac6896	-1.3469417
12	0xbf3543eb	-0.7080676
13	0xbf05e55d	-0.52303106
14	0xbf3809f6	-0.718902
15	0x3f367a4c	0.7128036
16	0x3fc8df2c	1.5693107
17	0xbe0e8272	-0.13916948
18	0xbee95758	-0.4557445
19	0x3eca0966	0.39460295
20	0xbf372356	-0.71538293
21	0x3f82f607	1.0231332
22	0x3f417bfa	0.755798
23	0x3fce9f53	1.6142372
24	0x3f9c857a	1.2228234
25	0x3f9ed67d	1.2409207
26	0x3f15b67c	0.58481574
27	0x3fa2c1a4	1.2715344
28	0xbe46d7bb	-0.19418232
29	0x3cd38aef	0.025823085
30	0xbe605d7b	-0.2191066
31	0x3f52dbab	0.82366437
32	0xbfa92d06	-1.3216865
33	0xbf526743	-0.82188815
34	0xbe41ef0f	-0.1893885
35	0x3fd61f9b	1.6728395
36	0x3e9be86a	0.30450755
37	0xbec17112	-0.37781578
38	0x3e8b240c	0.2717594
39	0xbf3c7a19	-0.73623806
40	0xbfc134c9	-1.5094234
41	0x3f71bd19	0.94429165
42	0xbf586ea8	-0.8454385
43	0xbf0f1d3a	-0.5590397
44	0xbf9cefcc	-1.226068
45	0x4003c2f3	2.0587738
46	0xbf956267	-1.1670655
47	0xbee2bb9b	-0.44283757
48	0xbf6163eb	-0.8804309
49	0xbf1d8aa1	-0.61539656
50	0x3d743adf	0.059626456
51	0x3ef8198f	0.48457
52	0xbee543ee	-0.4477839
53	0x3f90280b	1.126222
54	0xbf43ab47	-0.76433223
55	0xbf32adfe	-0.6979674
56	0xbfaa23b3	-1.3292145
57	0x3b8c58df	0.004283055
58	0xbd06d3c9	-0.032916818
59	0x3f2585e2	0.64657414
60	0xbd8b9765	-0.068159856
61	0x3fe23f0b	1.7675489
62	0xbf9247e9	-1.1428195
63	0x3faddd4b	1.3583158
64	0x3fb29578	1.3951864
65	0x3f54361d	0.8289507
66	0x40098342	2.1486363
67	0x3efbf6ea	0.49211818
68	0x3e9a2876	0.30108994
69	0xbe18f73f	-0.14938067
70	0xbf800601	-1.0001832
71	0x3f9caa99	1.2239562
72	0xbe11f05d	-0.14251848
73	0x3f01ad30	0.5065489
74	0x3ca50ddb	0.020148208
75	0x3ec52458	0.3850429
76	0x3f0ae678	0.5425792
77	0xbf1a179e	-0.60192287
78	0xc00849ef	-2.1295125
79	0xbf345a34	-0.7045014
80	0x3a33664c	0.00068435515
81	0xbe9b4880	-0.3032875
82	0xbfa4f138	-1.2886114
83	0xbf0cb443	-0.5496256
84	0x3f02ddc0	0.51119614
85	0x3efb0fbc	0.49035442
86	0x3f8c75ad	1.0973412
87	0x3cf9abed	0.030477488
88	0x3f33325a	0.69998705
89	0xbee5d880	-0.4489174
90	0xbf7f77c2	-0.9979211
91	0x3f0f816e	0.5605687
92	0xbfd3e5d4	-1.6554513
93	0xbf49c2a6	-0.78812635
94	0x3fa4c068	1.2871218
95	0x3ee0900f	0.43859908
96	0xc01b1737	-2.423292
97	0x3ee7b5d6	0.45255917
98	0x3f40d539	0.7532535
99	0x3aa223aa	0.0012370248
100	0x3f1b8401	0.60748297
101	0x3f0c7291	0.54862314
102	0x3f828a5d	1.0198475
103	0xbed29056	-0.41125745
104	0xbe20a159	-0.15686549
105	0x3f3655cb	0.7122466
106	0x3ec22448	0.37918305
107	0x3e0db182	0.13837245
108	0x3e62afb4	0.22137338
109	0x3f9d43a8	1.2286272
110	0x39e99103	0.00044549265
111	0xbe8d0368	-0.2754166
112	0xbfb35f23	-1.4013408
113	0xbdaa7924	-0.08323887
114	0xbf10908f	-0.5647058
115	0x3ee44b2e	0.44588608
116	0x3f2f8250	0.68558216
117	0x3d923ca6	0.07140474
118	0xbeafa445	-0.34305015
119	0x3efddba5	0.49581638
120	0x399e4ad0	0.00030191848
121	0x3e5b76fe	0.2143211
122	0x3dd2e5db	0.10297748
123	0x3f3d2478	0.7388377
124	0x3f86e524	1.0538678
125	0x3e9ba476	0.3039891
126	0x3f2d70f3	0.6775047
127	0x3ec5d4d6	0.38638943

encoder.convs.0.node_mlp.weight f4 [128, 256]
0	0x3d637f6c	0.05554144
1	0xbbf900d8	-0.0075989775
2	0x3d693c9b	0.056942564
3	0x3c6d4b43	0.014483276
4	0xbd40b541	-0.047047857
5	0x3d1a2890	0.03763634
6	0xbca96c95	-0.020681659
7	0xbce4071c	-0.027835421
8	0xbd616e5d	-0.05503689
9	0xbd6591b0	-0.05604714
10	0x3c52e398	0.012871645
11	0xbc91c7e7	-0.017795516
12	0x3c9cd9d2	0.019146834
13	0xbd5f2008	-0.054473907
14	0x3d26de17	0.040739145
15	0xbd249867	-0.040184405
16	0xbbc5b3d3	-0.0060333996
17	0x3c05af34	0.008159447
18	0x3cdc7a0e	0.026913669
19	0x3d5ba2c4	0.053622022
20	0x3d50cdb1	0.050977413
21	0xbd336280	-0.04379511
22	0x3ca2818c	0.019837163
23	0xbcb1e944	-0.021717675
24	0xbb0e69ec	-0.0021730615
25	0xbd284497	-0.041081037
26	0x3d75fe31	0.06005687
27	0xbd24cafb	-0.04023264
28	0x3ce5deee	0.028060403
29	0x3ccfb279	0.025353657
30	0x3c7b5bc1	0.0153417
31	0xbce8dbcd	-0.028425122
32	0x3d506448	0.050876886
33	0x3c111e0e	0.008857263
34	0x3b5ad63d	0.0033391856
35	0xbd4959fd	-0.049158085
36	0x3cf7721a	0.030205775
37	0xbc6006fb	-0.013673539
38	0xbcbf17cc	-0.023326777
39	0x3d43a603	0.047765743
40	0x3c149051	0.009067611
41	0xbceeece1	-0.029165687
42	0xbd10d04c	-0.035354897
43	0xbbf2a4c7	-0.007404897
44	0x3cf19f3d	0.029494876
45	0xbc3583a6	-0.011078751
46	0xbd20a81c	-0.03922282
47	0xbccfc6cb	-0.025363347
48	0xbd4ceac2	-0.05002857
49	0x3c8cd942	0.01719344
50	0x3d52764f	0.05138236
51	0xbd583edc	-0.052794322
52	0x3c1e8301	0.009674788
53	0x3d13415c	0.035951003
54	0x3bd52534	0.006504679
55	0xbcd6ca7d	-0.0262196
56	0x3cdf96d6	0.027293604
57	0x3d0d2961	0.03446329
58	0x3c9a0344	0.018800385
59	0xbbc9aad7	-0.006154399
60	0xbca78096	-0.020447057
61	0x3c342fc4	0.010997716
62	0xbc7a313b	-0.0152705265
63	0xbc5f4ff9	-0.013629907
64	0x3d31cc11	0.043407504
65	0x3d68f708	0.056876212
66	0xbacbba7e	-0.001554325
67	0xbc14f986	-0.009092694
68	0x3bb15003	0.0054111495
69	0xbc035098	-0.0080148205
70	0x3c26100c	0.010135662
71	0x3cb0ae44	0.021567471
72	0xbd74e82e	-0.059791736
73	0xbc92a3a9	-0.017900305
74	0x3d5f3090	0.054489672
75	0x3ce77b14	0.02825693
76	0x3ac6f1dc	0.0015178281
77	0xbd28e0fa	-0.04123018
78	0xbd2af6b5	-0.041739184
79	0xbd71f08c	-0.059067294
80	0xbc9b4936	-0.018955808
81	0x3c8328af	0.01601061
82	0x3d0c8fd3	0.03431685
83	0x3cc173da	0.023614813
84	0xbd49a43d	-0.049228895
85	0xbd03477a	-0.032050587
86	0xbba681be	-0.0050813844
87	0x3d81110e	0.06302081
88	0x3c5a6e46	0.013331955
89	0xbca65d65	-0.020308206
90	0x3ca9555f	0.02067059
91	0xbc98d26e	-0.018655028
92	0xbd33c7dd	-0.043891776
93	0x3d2389f3	0.03992648
94	0xbcbde320	-0.02317959
95	0xbbfc40b2	-0.007698142
96	0xbd852d6a	-0.06502803
97	0x3d398dac	0.045301124
98	0x3d4f7ebd	0.050657976
99	0x3cce2a9e	0.025166806
100	0xbd1b5357	-0.037921276
101	0xbd637a9e	-0.05553686
102	0xbd38126b	-0.04493944
103	0x3d2766e7	0.04086962
104	0x3ccb39fd	0.024807924
105	0x3d64868b	0.055792373
106	0x3d15892d	0.036507774
107	0x3ca15ec4	0.019698508
108	0x3b7c653e	0.0038512493
109	0xbd2b46ec	-0.041815683
110	0xbd5a397e	-0.053277485
111	0xbd7be62a	-0.0614988
112	0x3ca76421	0.020433487
113	0xbd0d3028	-0.034469754
114	0xbc89a9ff	-0.016804693
115	0xbcf9ba04	-0.030484207
116	0xbbd73efb	-0.006568787
117	0xbd1d1751	-0.038352314
118	0xbd352ae6	-0.044230364
119	0x3ccaf3ff	0.02477455
120	0xbc9c2e12	-0.019064937
121	0x3d2c91fc	0.04213141
122	0xbc759d88	-0.014991172
123	0xbd246171	-0.04013199
124	0xbbcc45aa	-0.0062338905
125	0xbccc7638	-0.024958715
126	0xbc66de8c	-0.014091145
127	0xbd5aa796	-0.05338248
128	0x3d73507b	0.059402924
129	0xbd8cb176	-0.068697855
130	0x3cf90b75	0.030400971
131	0x3d28b62f	0.04118937
132	0xbc05c278	-0.008164041
133	0xbd195a16	-0.03743943
134	0x3cdd98c1	0.027050378
135	0xbb9be40f	-0.0047574113
136	0xbbb99cfb	-0.0056644655
137	0x3d6d55ec	0.05794327
138	0xbc8d7b81	-0.017270805
139	0xbc19bfa0	-0.009384066
140	0xbc2b5642	-0.010457577
141	0xbd034845	-0.032051343
142	0x3d4d317d	0.050096024
143	0xbd24bb2d	-0.040217567
144	0x3d2367b5	0.039893825
145	0x3df2a864	0.11848524
146	0x3a2e58c9	0.0006650803
147	0xbcab5621	-0.020915093
148	0xbd9b9fd6	-0.07598846
149	0x3cce492d	0.025181377
150	0x3c755dfc	0.014976021
151	0xbcc598f1	-0.02412078
152	0x3ba81a4b	0.0051300875
153	0xbde82d56	-0.11336772
154	0xbd976fa9	-0.07394344
155	0xbca9bd1c	-0.020720057
156	0xbc7e6906	-0.015527969
157	0xbd2e2497	-0.042515364
158	0xbdbd9cd3	-0.092584275
159	0x3c0adc01	0.008475305
160	0x3d396eb3	0.045271587
161	0xbc7e1c35	-0.015509655
162	0xbd509533	-0.050923537
163	0xbd95a998	-0.07307738
164	0xbcdec03b	-0.027191272
165	0xbd2ebe5b	-0.042662006
166	0x3d1e39bb	0.038629275
167	0xbd11ca65	-0.03559341
168	0xbdbe7282	-0.092991844
169	0xbda099e2	-0.07841851
170	0x3c63761a	0.013883138
171	0xbbdd0dca	-0.0067460285
172	0xba8bdf4d	-0.0010671407
173	0xbcc693b6	-0.024240356
174	0xbda79580	-0.08182812
175	0xbd0604f5	-0.03271957
176	0xbd965496	-0.07340352
177	0x3cf0cc66	0.02939434
178	0xbd483c3a	-0.04888556
179	0xb9c6675f	-0.0003784252
180	0x3c55a66b	0.013040165
181	0x3d27008c	0.040772006
182	0x3d5dd546	0.05415847
183	0x3d707b29	0.058711205
184	0xbe06f01a	-0.13177529
185	0x3d244347	0.040103223
186	0x3db60c01	0.08889008
187	0xbc933b46	-0.0179726
188	0x3cd29fef	0.025711028
189	0x3d826c26	0.06368284
190	0x3c3bfa50	0.011473253
191	0xbcd89b70	-0.026441306
192	0x3d45c4c4	0.048283353
193	0xbcd13c59	-0.025541471
194	0x3d445686	0.047934078
195	0x3dd1eff7	0.10250848
196	0xbd510c1d	-0.051036943
197	0xbd0ea68b	-0.034826797
198	0xbd7b9059	-0.061416958
199	0xbd86a9c7	-0.06575351
200	0xbd30809f	-0.043091413
201	0x3ae771fc	0.0017657871
202	0x3dbf3e2c	0.0933803
203	0xbcd3b254	-0.02584187
204	0xbd9edaf3	-0.07756605
205	0xbd1dd75e	-0.03853547
206	0x3da48242	0.08032657
207	0xbe09321a	-0.13398018
208	0x3c572edc	0.013133731
209	0x3cda39be	0.026638862
210	0xbb8cbbea	-0.004294862
211	0x3cb864ca	0.022508997
212	0x3d87ab6b	0.06624492
213	0xbcb68a46	-0.02228273
214	0xbcd4e1fd	-0.025986666
215	0x3cc33e1e	0.02383333
216	0xbd24cc52	-0.040233918
217	0xbd640fe7	-0.05567923
218	0x3d44208e	0.04788261
219	0xbd3cdf89	-0.046111617
220	0xbc804588	-0.015658155
221	0x3c9e4bd8	0.019323274
222	0x3bef91d2	0.0073110843
223	0x3d244d2e	0.040112667
224	0xbc9ea5ea	-0.019366223
225	0x3d36bbba	0.044612624
226	0xbd9c16c6	-0.07621531
227	0x3d8cfa20	0.06883645
228	0x3c33b11e	0.010967521
229	0xbb906b0f	-0.0044072936
230	0x3c9711ea	0.01844116
231	0x3d82a17e	0.063784584
232	0xbd833849	-0.0640722
233	0x3c0687c0	0.008211076
234	0xbcb60f82	-0.022224192
235	0x3aa3c547	0.0012494706
236	0xbc0aa83c	-0.008462962
237	0x3ba6b47b	0.005087433
238	0x3c86cca4	0.016455002
239	0xbda920c3	-0.08258202
240	0xbdbfce9b	-0.09365579
241	0x3d4956bb	0.04915498
242	0x3dac25e1	0.08405662
243	0x3cff49cb	0.031163117
244	0xbdb0d052	-0.08633484
245	0xbc179687	-0.009252197
246	0xbc561e9f	-0.013068824
247	0xbd2fe521	-0.042943124
248	0x3c86cee2	0.016456071
249	0x3d07705f	0.03306615
250	0x3d7ad318	0.06123647
251	0xbd80e1f6	-0.06293099
252	0xbc089239	-0.008335643
253	0xbcf76cb0	-0.030203193
254	0x3d8b83b2	0.06812228
255	0x3dcf95b7	0.10135978

encoder.convs.0.node_mlp.bias f4 [128]
0	0xbd314379	-0.043277238
1	0x3c402dd6	0.011729678
2	0x3b1615fc	0.0022901287
3	0x3d469409	0.04848102
4	0x3d05184f	0.032493886
5	0xbcb43eb8	-0.022002563
6	0x3a49a030	0.00076914113
7	0xbd3c7ab3	-0.046015453
8	0x3bfa09bb	0.0076305545
9	0x3b6a8eee	0.003579076
10	0x3d6f6187	0.05844262
11	0x3d797627	0.060903694
12	0xbd1abdb7	-0.037778582
13	0x3d8610ce	0.06546174
14	0xbd52a6fc	-0.05142878
15	0x3caf3ca5	0.021391222
16	0x3ce0d842	0.02744687
17	0x3cf70688	0.030154482
18	0x3d215177	0.03938433
19	0xbc4364a7	-0.011925853
20	0x3d3ae60b	0.045629542
21	0x3bbd2f5e	0.005773469
22	0x3c0cffdd	0.008605924
23	0xbc507b1a	-0.012724662
24	0xbd397731	-0.045279685
25	0xbc2660e9	-0.010154941
26	0x3a2ee01b	0.00066709676
27	0x3bf76159	0.0075494465
28	0x3a3a13b1	0.0007098271
29	0x3b9fc933	0.0048762797
30	0x3b084ca4	0.0020797634
31	0xbd101b80	-0.035182476
32	0xbbef4eb7	-0.0073030847
33	0xbd3f2b2e	-0.04667204
34	0x3babfd61	0.005248711
35	0x3d273245	0.040819425
36	0xbce2a16c	-0.027664863
37	0x3d0cf4ef	0.034413274
38	0xbcc6f615	-0.024287263
39	0xbcb52437	-0.022111995
40	0x3ce249a6	0.027623009
41	0xbd6de214	-0.058076933
42	0x3d0766ce	0.033057027
43	0x3d166cae	0.03672474
44	0x3ca8a678	0.020587191
45	0xbaf77e25	-0.0018882198
46	0xbcdfa2a9	-0.027299242
47	0xbd17aafe	-0.037028305
48	0x3d455386	0.048175357
49	0x3caf74e6	0.021418046
50	0x3cf76ce4	0.03020329
51	0xbd0d4a0a	-0.034494437
52	0x3d2871c2	0.041124113
53	0xbd0fe378	-0.03512904
54	0x3d319dd3	0.043363404
55	0x3d39fc83	0.04540683
56	0xbd433e93	-0.047667097
57	0xbd5b5fba	-0.05355809
58	0xbd5a9653	-0.053366017
59	0xbd142ddc	-0.036176547
60	0x3c97f8db	0.01855128
61	0xbd3e3de4	-0.046445742
62	0x3d2c7811	0.04210669
63	0xbd129d0f	-0.035794314
64	0xbc835b74	-0.01603482
65	0x3c3237d2	0.010877566
66	0xbd21c6b8	-0.039496154
67	0xbbced7b1	-0.0063123335
68	0xbd7c5a81	-0.06160975
69	0xbd6bc99c	-0.057565317
70	0x3b14c7e3	0.002270215
71	0xbcef3036	-0.029197793
72	0x3d384b5e	0.04499375
73	0xbd18bcf4	-0.037289575
74	0x3d10b37b	0.035327416
75	0x3d263a17	0.040582743
76	0xbc8e91c2	-0.017403487
77	0xbc803cee	-0.015654054
78	0x3cf424c0	0.02980268
79	0xbcbf792e	-0.023373213
80	0x3c998669	0.01874085
81	0xbcbee7b4	-0.023303844
82	0xbc88b9a0	-0.016690075
83	0xbd3a919f	-0.04554903
84	0x3d787465	0.060657877
85	0xbd614102	-0.054993637
86	0xbc1e3613	-0.009656447
87	0x3d0911e6	0.033464335
88	0xbd22ecd0	-0.039776623
89	0x3c8c3521	0.017115178
90	0x3d8ab2dd	0.06772397
91	0x3c8f34e1	0.01748127
92	0x3d1a64b4	0.037693694
93	0xbd6db100	-0.05803013
94	0x3d148be2	0.036266215
95	0x38d30d00	0.000100636855
96	0x3b6092b8	0.0034267139
97	0xbcadd1e5	-0.02121825
98	0xbc7c124b	-0.015385221
99	0x3d012c9d	0.031536687
100	0x3d197566	0.037465475
101	0xbd3cd2dc	-0.04609953
102	0x3d3752b6	0.044756614
103	0x3d679c06	0.05654528
104	0xbca99a85	-0.020703563
105	0x3bff1d6a	0.007785489
106	0x3cb1e43f	0.021715282
107	0xbd6307f5	-0.05542751
108	0x3cb04e2c	0.02152165
109	0x3d500685	0.050787468
110	0xbc8c9884	-0.017162569
111	0xbd1b3bc0	-0.03789878
112	0xbd0ad765	-0.033896822
113	0x3d20a452	0.039219208
114	0xbbef4b25	-0.007302659
115	0xbc2a65f5	-0.010400285
116	0x3ca4415e	0.0200507
117	0x3c98435a	0.018586803
118	0x3d0debac	0.034648582
119	0x3889dd86	6.573931e-05
120	0xbd7d1e78	-0.061796635
121	0x3d1a9327	0.03773799
122	0x3d1ac712	0.037787504
123	0x3b5f4054	0.0034065442
124	0xbd13f7ea	-0.0361251
125	0xbc92318e	-0.017845895
126	0x3cd576c5	0.02605761
127	0x3d46f0ac	0.048569366

encoder.convs.0.edge_mlp.0.weight f4 [128, 7]
0	0xbebf92bd	-0.3741664
1	0x3e4bdc86	0.19908342
2	0x3dc1881c	0.09449789
3	0x3e1ee966	0.15518722
4	0xbd2724fb	-0.04080675
5	0x3cf07754	0.029353775
6	0xbe9bdece	-0.30443424
7	0xbd586dbf	-0.052839037
8	0xbe6f35ec	-0.23360413
9	0x3eb90011	0.36132863
10	0x3e13fbc5	0.14451511
11	0x3df8843e	0.12134598
12	0xbe82a188	-0.25513864
13	0xbe1cbb86	-0.1530591
14	0x3cab9162	0.020943347
15	0xbdd885b7	-0.10572379
16	0x3ba66ee3	0.0050791367
17	0x3bf5d2f3	0.0075019537
18	0xbcf22865	-0.029560277
19	0xbe947afa	-0.29000074
20	0x3ecf78ca	0.40521842
21	0xbe402571	-0.18764283
22	0xbdd0677d	-0.10175989
23	0xbe61b395	-0.22041161
24	0x3eb586ff	0.35454556
25	0xbdff0918	-0.12452906
26	0x3e4fd1bf	0.20294856
27	0x3e156e5b	0.14592879
28	0xbce9fb13	-0.028562104
29	0x3d1ffb67	0.039058115
30	0xbe15c30b	-0.14625184
31	0xbe9c2b41	-0.3050175
32	0x3e87f1ea	0.26551753
33	0x3e8d36e9	0.27580956
34	0xbed7463c	-0.42045772
35	0xbdd1d086	-0.10244851
36	0xbea20d0f	-0.31650588
37	0xbea7d6e2	-0.3278113
38	0x3d855142	0.06509639
39	0xbd9f9f8e	-0.077941045
40	0x3eb4b0f2	0.3529125
41	0x3e837157	0.2567241
42	0xbeb675e6	-0.35636824
43	0x3ebab9c7	0.36469862
44	0x3e8b02b9	0.27150515
45	0x3ea0c601	0.31401065
46	0xbdbced8d	-0.09224997
47	0x3c018038	0.007904105
48	0xbe8f38b2	-0.27972943
49	0xbe3e2fc9	-0.18572916
50	0x3e82086e	0.25397056
51	0x3eaa3e7c	0.33250797
52	0xbec53ba3	-0.38522062
53	0x3e052169	0.13001026
54	0xbe0f31d7	-0.13983856
55	0xbe982204	-0.29713452
56	0x3e745956	0.23862204
57	0x3e626ddd	0.22112222
58	0xbe2b5501	-0.16731645
59	0x3ebbf761	0.36712173
60	0xbe4565f6	-0.19277176
61	0x3e68c536	0.2273148
62	0x3e783931	0.24240567
63	0xbe214f3c	-0.15752882
64	0x3ee6caf4	0.45076716
65	0xbdf063cb	-0.11737784
66	0xbe101ad8	-0.1407274
67	0x3e9a5e40	0.30150032
68	0x3ec5342c	0.38516366
69	0xbe9ed7f9	-0.3102415
70	0x3ed41c0d	0.4142765
71	0xbec9931c	-0.39370048
72	0x3e38e9e0	0.18057966
73	0xbe9768e0	-0.295722
74	0xbd046b9c	-0.032329187
75	0xbea517af	-0.32244632
76	0x3e93bd6c	0.28855455
77	0xbe535959	-0.20639552
78	0xbedb3b08	-0.42818475
79	0xbe70e925	-0.23526438
80	0x3e754245	0.23951061
81	0x3e002714	0.12514907
82	0x3e45dbe7	0.19322167
83	0x3e8ef874	0.2792393
84	0xbe3708c1	-0.17874433
85	0x3e60c832	0.21951368
86	0xbe8beabf	-0.27327535
87	0xbed9f4b8	-0.42569518
88	0x3de2bab5	0.11070768
89	0xbec84674	-0.3911625
90	0x3dad3eaa	0.08459218
91	0x3deeb8ae	0.116563186
92	0x3e9582ab	0.29201254
93	0x3eb4c02f	0.35302874
94	0x3db726da	0.08942957
95	0x3b2012a5	0.0024425176
96	0xbe7ef0cd	-0.24896546
97	0xbe727c52	-0.23680237
98	0xbdcefaa2	-0.10106398
99	0x3d9f6fcf	0.07784998
100	0xbe60440a	-0.21900955
101	0xbe24730c	-0.16059512
102	0xbdf82a66	-0.12117462
103	0xbd0bbdd6	-0.03411659
104	0xbe2e59db	-0.17026465
105	0x3e92dc04	0.28683484
106	0x3e7e12d0	0.24811864
107	0x3eaa1a3a	0.33223134
108	0xbe82b0ba	-0.25525457
109	0x3dd94ba3	0.1061013
110	0x3df8715d	0.12130997
111	0x3e83ba7d	0.25728217
112	0xbedfcf23	-0.4371272
113	0xbe967909	-0.29389217
114	0xbcba65bb	-0.022753587
115	0xbe55a92a	-0.20865312
116	0xbe9894df	-0.2980108
117	0x3d015d73	0.03158326
118	0x3e66a915	0.22525437
119	0xbedcbfb2	-0.43115002
120	0xbe132a02	-0.14371493
121	0xbeb598dd	-0.35468188
122	0x3d79ee79	0.06101844
123	0x3dcc3379	0.09970755
124	0xbeb7ed4a	-0.35923225
125	0x3dae8547	0.085215144
126	0xbe233eb1	-0.15941884
127	0xbe1e1d3b	-0.15440838
128	0xbe93a001	-0.2883301
129	0xbb6ab3fb	-0.0035812843
130	0x3e41febf	0.18944834
131	0xbe5e76b5	-0.2172497
132	0xbe025233	-0.12726669
133	0xbea30192	-0.31837136
134	0xbdf037f0	-0.11729419
135	0x3e9b3539	0.30314043
136	0x3e5e66d8	0.2171892
137	0xbe6ccaa2	-0.23124173
138	0x3ebf470a	0.37358886
139	0x3df620cb	0.120179735
140	0x3e259915	0.16171677
141	0xbe27de35	-0.16393359
142	0x3c1737f3	0.009229648
143	0x3ea393d4	0.3194872
144	0x3e852a19	0.2600868
145	0x3e30a9ee	0.17252323
146	0xbe86efbe	-0.26354784
147	0xbdb20891	-0.0869304
148	0x3e81f067	0.25378725
149	0x3e54926d	0.20758982
150	0xbdf46bca	-0.11934622
151	0xbe1c90fe	-0.15289685
152	0xbe926f10	-0.2860036
153	0xbea660cd	-0.32495728
154	0xbe0d9826	-0.13827571
155	0x3d89f20b	0.06735619
156	0xbe49dcdb	-0.19713156
157	0x3e1349ed	0.14383669
158	0xbe8e3ac1	-0.277792
159	0xbc71fa49	-0.014769145
160	0xbe558ce1	-0.20854522
161	0xbe3ff0b1	-0.1874416
162	0x3e7e5a00	0.2483902
163	0x3dddbcc8	0.10827023
164	0x3ea87332	0.32900387
165	0x3dd7a8ee	0.10530268
166	0x3bd590bc	0.006517498
167	0x3e9b48c3	0.3032895
168	0xbe88e58a	-0.26737624
169	0x3ed397dc	0.41326797
170	0x3d58bd56	0.05291494
171	0x3bd92306	0.0066264896
172	0xbe7a44da	-0.24440327
173	0xbb673e65	-0.0035284993
174	0xbe6d5cda	-0.23179951
175	0x3e7bc349	0.24586214
176	0x3c546edd	0.012965885
177	0xbd49990d	-0.049218226
178	0x3eb7f142	0.35926253
179	0xbca4e930	-0.020130724
180	0xbeb35e1c	-0.35032737
181	0x3db47c04	0.088127166
182	0x3d0a9314	0.03383167
183	0xbe854050	-0.2602563
184	0xbea965d1	-0.33085492
185	0xbec5f0df	-0.38660333
186	0xbeb13760	-0.3461256
187	0xbd41e833	-0.047340583
188	0xbea00478	-0.3125341
189	0xbead2ac0	-0.33821678
190	0x3e0b07a3	0.13577132
191	0xbe94cd48	-0.29062867
192	0x3ab90c6f	0.0014118085
193	0x3dd61d95	0.10454861
194	0x3ea3218c	0.31861532
195	0x3b98b782	0.0046605477
196	0x3d167fa3	0.036742818
197	0x3ef33b46	0.4750616
198	0x3e14cd35	0.14531405
199	0x3eb2393b	0.34809288
200	0xbd8af367	-0.067847066
201	0x3eb9742d	0.36221448
202	0xbeba0136	-0.3632905
203	0x3e8e3eae	0.27782196
204	0x3dac0b29	0.08400566
205	0xba8deb98	-0.0010827659
206	0x3eb99649	0.3624747
207	0x3e549a92	0.20762089
208	0x3e2b705e	0.16742083
209	0xbdb972ca	-0.090550974
210	0x3ec2c59e	0.38041395
211	0xbd0cc7a6	-0.034370087
212	0x3d3b593b	0.045739394
213	0xbc7cfc7d	-0.015441057
214	0xbd8ca75b	-0.06867858
215	0xbe80c22c	-0.2514814
216	0x3e5f021b	0.21778147
217	0x3cdd5f4f	0.027022986
218	0xbd5ee959	-0.054421756
219	0x3dc2b49a	0.09507103
220	0xbe11d3e4	-0.14240986
221	0xbd88f86f	-0.0668801
222	0xbe2a33f9	-0.16621388
223	0x3c6f9f77	0.014625422
224	0x3e132018	0.14367712
225	0xbea30baf	-0.3184485
226	0x3eae4c92	0.34042794
227	0xbe254e26	-0.16143093
228	0x3e9731ed	0.29530278
229	0x3e953263	0.29140005
230	0x3e1bce3c	0.15215391
231	0x3ec9369e	0.39299482
232	0xbf02f998	-0.511621
233	0xbeea2bea	-0.4573663
234	0x3b9c4397	0.0047687995
235	0xbdedf124	-0.116182595
236	0xbe2d9c6a	-0.16954198
237	0xbcef27e4	-0.029193826
238	0xbe99a9d0	-0.3001237
239	0xbe23f41e	-0.16011092
240	0xbe1b546d	-0.15168925
241	0x3dbf0291	0.093266614
242	0x397502c1	0.00023366047
243	0xbe840863	-0.2578765
244	0xbe3655d0	-0.17806172
245	0x3bdad394	0.006678054
246	0x3e9dd847	0.3082907
247	0x3eb53ffe	0.35400385
248	0x3e133715	0.14376481
249	0xbb4f2931	-0.0031610245
250	0xbb3aca6a	-0.0028501996
251	0x3ea08824	0.31353867
252	0xbe88820c	-0.26661718
253	0xbe270e12	-0.16313961
254	0x3d97c30e	0.074102506
255	0xbe81aa14	-0.25325072

encoder.convs.0.edge_mlp.0.bias f4 [128]
0	0x3e2f5e2b	0.17125766
1	0x3e09515e	0.13409945
2	0xbe6c0407	-0.23048411
3	0x3d865fdb	0.06561252
4	0xbce34ca8	-0.027746513
5	0x3e5a63db	0.21327154
6	0xbd2f35e2	-0.042775996
7	0xbe3c7958	-0.18405664
8	0x3e48414a	0.19556156
9	0xbdc580c9	-0.096437044
10	0xbcfe085a	-0.031009842
11	0xbe18465d	-0.14870591
12	0x3e15a109	0.14612211
13	0xbca91b78	-0.020642981
14	0x3e3e3b01	0.18577196
15	0xbe63eee7	-0.22259103
16	0xbcda7a02	-0.026669506
17	0x3eab94b2	0.33511883
18	0xbe501e16	-0.20323977
19	0xbd8b5a2a	-0.06804307
20	0xbd63f4e5	-0.05565347
21	0x3e145f3b	0.14489453
22	0xbe0ddf17	-0.13854633
23	0x3df02fb1	0.117278464
24	0xbd7c1de5	-0.061551947
25	0x3d17f6a0	0.037100434
26	0x3eb1d740	0.34734535
27	0x3e99e39c	0.30056465
28	0xbddbf7d9	-0.107406326
29	0xbe476722	-0.19472936
30	0xbe79f2c4	-0.24409014
31	0xbd37924e	-0.04481726
32	0x3b6efc71	0.0036466385
33	0x3da88681	0.082287796
34	0xbdf8647c	-0.12128541
35	0x3e1f8e73	0.15581684
36	0x3d5c5199	0.053788755
37	0x3db4364b	0.08799418
38	0x3ea543f9	0.32278422
39	0x3d2b31d9	0.041795585
40	0x3c451fd6	0.012031516
41	0xbdcd1b97	-0.10015028
42	0x3e7215d4	0.2364114
43	0xbe9301da	-0.2871235
44	0xbe0149b0	-0.12625766
45	0x3d8dd460	0.06925273
46	0x3e56df8b	0.20983712
47	0xbea8bed5	-0.32958093
48	0xbd362710	-0.044470847
49	0x3d6fb86e	0.058525495
50	0x3e9378e2	0.28803164
51	0x3e301e4f	0.17199062
52	0x3e97f02a	0.29675418
53	0xbdfc257e	-0.123118386
54	0xbeafa826	-0.34307975
55	0x3d86d70a	0.06583984
56	0x3e75e6d8	0.24013841
57	0x3d7802b0	0.060549438
58	0x3d84c9a1	0.0648377
59	0x3e9d7500	0.30753326
60	0xbe94be6a	-0.29051524
61	0x3ddd712a	0.108126
62	0x3e0b263f	0.13588808
63	0x3d58de39	0.052946303
64	0xbdc72d3b	-0.09725424
65	0xbe43646c	-0.19081277
66	0x3e2532d6	0.16132674
67	0x3da74198	0.08166808
68	0x3dc84a8a	0.09779842
69	0x3c224e79	0.009906405
70	0xbe96c6d7	-0.29448578
71	0x3e1fd650	0.15609097
72	0xbe24f798	-0.16110075
73	0xbdf621cd	-0.12018166
74	0xbe2ad7f8	-0.16683948
75	0xbe9f5508	-0.3111956
76	0xbe8a7951	-0.27045682
77	0xbcda860e	-0.02667525
78	0xbeb36862	-0.35040575
79	0x3e77f59a	0.24214783
80	0xbe5e616e	-0.21716854
81	0x3df39196	0.11893003
82	0x3d97242a	0.073799446
83	0xbe11c4a0	-0.14235163
84	0x3d9b1115	0.075716175
85	0x3eabcd78	0.33555198
86	0xbea6810f	-0.3252034
87	0xbcd64368	-0.026155189
88	0x3e7d9037	0.24762045
89	0x3ea392e0	0.31947994
90	0x3df00650	0.11719954
91	0x3eb24e11	0.34825185
92	0xbe1bf33c	-0.15229505
93	0x3ea551d7	0.32289
94	0x3daa395b	0.08311721
95	0xbe22616f	-0.1585748
96	0x3e47a4ed	0.19496508
97	0x3e8a1848	0.2697165
98	0xbe942358	-0.28933215
99	0x3e048c3b	0.12944119
100	0x3e1ddb18	0.15415609
101	0x3e87f8db	0.2655705
102	0xbe9ee519	-0.31034163
103	0x3e43edc5	0.1913367
104	0x3eaa202e	0.33227676
105	0xbe18c86b	-0.14920203
106	0x3e37e83f	0.17959689
107	0xbe967bfe	-0.29391474
108	0x3d95e94b	0.07319888
109	0xbe26adec	-0.16277283
110	0xbeb2fa41	-0.34956554
111	0x3e74400f	0.23852561
112	0x3e38db37	0.18052374
113	0x3e512c6a	0.20427099
114	0x3e8c5bf0	0.27413893
115	0xbde790b8	-0.113069
116	0xbe861e99	-0.2619522
117	0x3e7e7674	0.24849874
118	0x3e94cb67	0.29061434
119	0xbe8825ce	-0.26591343
120	0xbe64af3a	-0.22332469
121	0xbe85a731	-0.2610412
122	0xbe1621e4	-0.14661366
123	0x3e624f08	0.2210046
124	0xbe91f960	-0.2851057
125	0x3dc1711f	0.09445404
126	0x3d1c96c2	0.03822971
127	0xbe5e8ebc	-0.21734136

encoder.convs.0.edge_mlp.2.weight f4 [128, 128]
0	0xbe313c9a	-0.17308274
1	0x3d4d495f	0.0501188
2	0xbdc64663	-0.09681394
3	0xbd810369	-0.062994786
4	0x3cbb7bed	0.02288624
5	0xbd9ec606	-0.07752614
6	0xbe0058cf	-0.12533878
7	0xbd292a54	-0.041300133
8	0xbccdb400	-0.025110245
9	0xbdd5b1a8	-0.10434276
10	0xbdaf3ecf	-0.08556902
11	0x3d50ed8d	0.051007796
12	0xbd5adb6a	-0.053431906
13	0xbccbaff0	-0.024864167
14	0x3dbbe6f1	0.09174908
15	0x39acfa31	0.00032992804
16	0x3d07f154	0.033189133
17	0xbd3011cb	-0.04298572
18	0xbd2a215b	-0.041535717
19	0xbd24edf7	-0.040266003
20	0x3d6f35d1	0.058400933
21	0xbda28f26	-0.0793746
22	0xbd8b0e56	-0.06789844
23	0xbce43c28	-0.027860716
24	0x3d29d223	0.041460168
25	0x3df17596	0.11790006
26	0xbd32d243	-0.043657552
27	0x3d12c65e	0.03583371
28	0xbe069f1e	-0.13146636
29	0x3c7a38a3	0.015272292
30	0xbd78adac	-0.0607125
31	0xbd852895	-0.06501881
32	0xbb99e3df	-0.004696354
33	0xbcd2acc8	-0.025717154
34	0x3daa36a0	0.083112
35	0xbd47a3b7	-0.048740115
36	0xbdd9ec2f	-0.106407516
37	0x3abee2d7	0.0014563453
38	0x3da409d8	0.0800969
39	0x3ddac9fc	0.10683057
40	0xbbbbd614	-0.005732307
41	0xbcebafac	-0.02877029
42	0x3d2b1349	0.04176644
43	0xbc76cb3d	-0.015063104
44	0xbd9ea247	-0.07745796
45	0xbd94f60f	-0.072734945
46	0xbd872d21	-0.066004045
47	0xbc9eb065	-0.01937122
48	0x3d2168ab	0.03940646
49	0x3d8ab37b	0.067725144
50	0xbd4a03fe	-0.049320213
51	0x3d02991f	0.03188431
52	0x3bc4fddc	0.0060117077
53	0xbe1a8878	-0.15091121
54	0xbb793de5	-0.0038031277
55	0xbd045b05	-0.032313365
56	0xbd8ebb09	-0.06969268
57	0x3d8697b2	0.06571902
58	0x3dcf2a2c	0.101154655
59	0x3b842374	0.0040325467
60	0xbc044a36	-0.008074334
61	0xbccc7f9e	-0.024963196
62	0x3d6b87ef	0.057502683
63	0xbd8f17cd	-0.069869615
64	0xbd9b5bb1	-0.07585848
65	0x3dab9354	0.0837771
66	0x3d32c7ea	0.043647684
67	0xbd225350	-0.039630234
68	0xbda6bc94	-0.08141437
69	0x3ced64b8	0.02897869
70	0x3dcb670b	0.09931763
71	0xbd979ca8	-0.07402927
72	0xbd1aa6bc	-0.037756667
73	0xbe0ad7dc	-0.13558906
74	0x3c2a852e	0.010407729
75	0x3e0da7ad	0.13833494
76	0xbd8648f5	-0.06556884
77	0xbe2720d1	-0.16321112
78	0x3d6e2b7c	0.05814694
79	0x3cc7a6f2	0.024371598
80	0x3d62fee6	0.05541887
81	0x3d4e85e8	0.05042067
82	0x3d89da8c	0.06731138
83	0x3d8cc26f	0.06873023
84	0x3d90a09f	0.07061886
85	0xbd15821f	-0.036501046
86	0xbd7f0aea	-0.062266268
87	0x3d8aaa0c	0.06770715
88	0x3bfd904d	0.0077381493
89	0xbdbe5a1c	-0.09294531
90	0x3d1886b8	0.037237853
91	0xbd356ac9	-0.04429129
92	0xbcce19c3	-0.025158769
93	0x3de04f13	0.10952582
94	0x3db97d74	0.090571314
95	0xbd410f20	-0.047133565
96	0x3d2be85d	0.041969646
97	0x3c9994f4	0.018747784
98	0x3c109bbd	0.008826193
99	0xbdc3ca4c	-0.095600694
100	0x3d9cfead	0.07665763
101	0xbdba55d5	-0.090984024
102	0x3c64a401	0.013955117
103	0xbd643be4	-0.05572118
104	0x3d320bb8	0.043468207
105	0xbd8cf63a	-0.068829015
106	0x3c3e1048	0.011600561
107	0xbd7bdd46	-0.06149032
108	0xbd1d96ce	-0.038473897
109	0x3e40f31c	0.18842739
110	0x3c16d716	0.009206554
111	0x3dddcc48	0.10829979
112	0xbd0ddc7c	-0.0346341
113	0x3d7531ac	0.059861824
114	0x3cd9b7b2	0.02657685
115	0x3d0d9de0	0.03457439
116	0xbd0c5875	-0.034264047
117	0xbd7b079e	-0.06128656
118	0xbc079e8f	-0.008277549
119	0xbd90c523	-0.07068851
120	0x3d481e96	0.048857294
121	0xbd46a68e	-0.048498683
122	0x3d81629b	0.063176356
123	0x3d83e880	0.0644083
124	0xbcc38694	-0.023867883
125	0xbcdc1d80	-0.026869535
126	0x3d502e85	0.050825614
127	0xbd4de3fe	-0.05026626
128	0x3d3e4645	0.046453733
129	0xbc85d199	-0.016335296
130	0x3e208ff5	0.15679915
131	0xbb57a5f3	-0.003290531
132	0x3def2e36	0.11678736
133	0x3d52d6e1	0.051474456
134	0x3e1154af	0.1419246
135	0x3c95dd63	0.018294042
136	0xbcbdcc5b	-0.023168733
137	0x3d0d6576	0.03452059
138	0x3dc7de3b	0.09759184
139	0x3d019328	0.03163448
140	0x3bcff1a5	0.006345945
141	0xbc1767a8	-0.009241022
142	0xbdf805af	-0.12110459
143	0x3d650411	0.05591208
144	0xbd4dc04b	-0.050232213
145	0xbd89edf9	-0.06734843
146	0xbd4fc8b6	-0.050728522
147	0x3e1a1f52	0.1505101
148	0xbcf55faf	-0.029952852
149	0x3d7050b4	0.058670714
150	0xbd855a29	-0.06511337
151	0xbc6dc68f	-0.014512672
152	0x3d760b9e	0.060069673
153	0x3da3ff4a	0.08007677
154	0xbd493750	-0.049125016
155	0xbd8b347c	-0.0679712
156	0x3dbab205	0.09115986
157	0xbe0bc819	-0.1365055
158	0x3d5f26f6	0.054480515
159	0x3d4f63b7	0.050632205
160	0x3d42b48f	0.047535475
161	0x3bd89751	0.006609835
162	0x3d2652a1	0.040606145
163	0x3d366945	0.044533987
164	0x3e2ed99d	0.170752
165	0x3db1648c	0.08661756
166	0x3d06dfac	0.032928154
167	0x3dbdccb5	0.092675604
168	0xbd9820b9	-0.07428116
169	0xbd7d926c	-0.061907217
170	0xbd6a1466	-0.05714836
171	0xbc516a3d	-0.012781677
172	0x3d427324	0.047473088
173	0x3d76c5c6	0.060247205
174	0xbd921761	-0.071333654
175	0xbb830690	-0.003998585
176	0xbd217d66	-0.03942623
177	0xbbd0746f	-0.006361536
178	0x3da8b1e2	0.082370535
179	0xbd7d1d3f	-0.06179547
180	0x3cfb0c24	0.030645438
181	0x3ddb3c63	0.10704877
182	0x3db24bcf	0.087058656
183	0xbcc32d86	-0.023825418
184	0xbba25613	-0.0049541085
185	0xbab1d776	-0.0013568241
186	0xbd2d50b2	-0.042313285
187	0xbd515efd	-0.05111598
188	0xbe0fe148	-0.14050782
189	0xbc0acfd5	-0.008472403
190	0xbcdf9019	-0.02729039
191	0x3d4d06ad	0.050055195
192	0x3beba7c6	0.007191631
193	0xbd9289d1	-0.07155193
194	0xbd9de537	-0.07709735
195	0xbda739c5	-0.081653155
196	0x3d1bd787	0.03804734
197	0xbc78e452	-0.015191155
198	0x3dabfa23	0.08397319
199	0x3d923a2d	0.071400024
200	0x3d79d47a	0.06099365
201	0x3d914712	0.07093634
202	0x3da4de5b	0.080502234
203	0xbd97c2b0	-0.074101806
204	0x3d0d029d	0.03442632
205	0x3d81d67e	0.06339739
206	0xbdf7263b	-0.12067839
207	0x3d351270	0.044207036
208	0x3dba791d	0.09105132
209	0xbcf6b20c	-0.030114196
210	0x3d9bb8ed	0.07603631
211	0xbdf2e09b	-0.11859246
212	0xbd2fb13d	-0.042893637
213	0x3d9d22bd	0.076726414
214	0xbda65588	-0.081217825
215	0x3d3584f5	0.04431625
216	0x3d16f68b	0.036856215
217	0x3ad0dffa	0.0015935891
218	0xbd5a8e31	-0.05335826
219	0xbdfc7423	-0.12326839
220	0x3dfba173	0.12286653
221	0xbc71bc78	-0.014754407
222	0x3e1579e6	0.14597282
223	0x3d3e82ed	0.04651158
224	0xbd46fe1b	-0.048582178
225	0xbd870c57	-0.065941505
226	0x3db2520e	0.08707057
227	0xbd27ed17	-0.04099759
228	0xbd031a06	-0.03200724
229	0x3d7571ba	0.05992291
230	0x3ca4d395	0.020120421
231	0x3d22ebff	0.039775845
232	0xbdcded6f	-0.100550525
233	0x3ce707a8	0.028201893
234	0x3cd135b0	0.025538296
235	0x3d1b3860	0.03789556
236	0x3d23aa2e	0.039957218
237	0xbd8275e8	-0.06370145
238	0x3d8feac6	0.07027201
239	0x3b3557fd	0.0027670853
240	0xbb961a95	-0.0045808055
241	0xbd5812f6	-0.052752458
242	0xbd2e649c	-0.042576417
243	0x3db69304	0.0891476
244	0x3c9e548d	0.019327426
245	0x3e07d813	0.1326602
246	0x3d772a8d	0.060343314
247	0x3d043a85	0.03228237
248	0xbdabc01d	-0.08386252
249	0xbd1c1dfa	-0.038114525
250	0x3da80d29	0.08205635
251	0x3d9155ce	0.07096444
252	0x3bd314fd	0.006441711
253	0xbd2c7ccd	-0.042111207
254	0x3d1986db	0.037482124
255	0x3c49f976	0.0123275425

encoder.convs.0.edge_mlp.2.bias f4 [128]
0	0x3c9f1925	0.01942117
1	0xbd98316b	-0.07431301
2	0xbb8c0dab	-0.0042740903
3	0x3cac99c3	0.021069413
4	0xbcf7783e	-0.030208703
5	0x3c869db6	0.016432624
6	0xbc7650e8	-0.015033938
7	0xbda31b80	-0.079642296
8	0xbdb065c5	-0.08613161
9	0x3bda00e2	0.0066529373
10	0xbd95fce7	-0.07323628
11	0x3d9d7a71	0.076893695
12	0x3d1166ae	0.035498314
13	0x3dabe0c9	0.08392484
14	0xbaf34718	-0.0018560616
15	0x3d5f5c67	0.05453148
16	0xbd91496b	-0.070940815
17	0x3cffd36e	0.031228747
18	0x3d21a39b	0.039462667
19	0x3c8170ec	0.015800916
20	0xbd198e41	-0.03748918
21	0xbd0b0905	-0.03394415
22	0xbd1c0717	-0.0380927
23	0x3d9a9d03	0.07549479
24	0x3cab593e	0.020916577
25	0xbd2c863e	-0.04212021
26	0xbcf2f62b	-0.029658398
27	0x3bcb0fc5	0.0061969482
28	0x3cb3711d	0.021904523
29	0x3daf56b6	0.08561461
30	0x3d2bae4d	0.041914273
31	0x3d9e1aeb	0.07719978
32	0xbcfa3fb9	-0.030547963
33	0x3c4b0cda	0.012393201
34	0x3d7eeed5	0.062239487
35	0x3d5c60c7	0.05380323
36	0xbad554cc	-0.0016275882
37	0x3d853e9b	0.06506082
38	0xbd393ebd	-0.045225848
39	0xbda14519	-0.078745075
40	0x3cc648d5	0.02420465
41	0x3d320f93	0.043471884
42	0x3d45dc37	0.048305716
43	0xbd7dfad1	-0.062006775
44	0x3d95acb6	0.073083326
45	0xbd7c717d	-0.06163167
46	0x3d849d04	0.06475261
47	0xbd02bd91	-0.031919066
48	0x3db384fd	0.087656
49	0x3d3e376e	0.04643958
50	0x3d4daafe	0.0502119
51	0x3b00e86d	0.0019669787
52	0xbd9d83bb	-0.07691141
53	0xbd850140	-0.06494379
54	0xbd974a42	-0.073872104
55	0xbc9447f8	-0.018100724
56	0xbcd20748	-0.025638238
57	0x3ccd2a7e	0.025044676
58	0xbd945308	-0.072423995
59	0xbd840f66	-0.064482495
60	0xbbe96d26	-0.007123607
61	0xbb803ce5	-0.003913509
62	0xbcd8c208	-0.026459709
63	0xbd9e5653	-0.07731309
64	0xbd904eb6	-0.07046263
65	0xbd82d1a7	-0.06387644
66	0xbd395905	-0.04525091
67	0xbc74200a	-0.014900217
68	0xbd5b23b6	-0.053500853
69	0xbd8bf7bb	-0.0683436
70	0xbc872e3a	-0.016501535
71	0x3da1bdc3	0.07897522
72	0x3d8b0cce	0.06789552
73	0xbca15eac	-0.019698463
74	0xbd44157e	-0.04787206
75	0x3c8ea784	0.017413862
76	0xbd996dc5	-0.0749164
77	0xbd82f161	-0.063936956
78	0x39aaf00d	0.00032603779
79	0x3cbf077c	0.023318999
80	0xbd26bc92	-0.04070718
81	0xbc1e39c8	-0.009657331
82	0x3c1c2c55	0.009532054
83	0xbca78dd1	-0.020453366
84	0x3d06ee70	0.032942235
85	0x3cf49399	0.029855536
86	0xbd47a506	-0.048741363
87	0xbbec1c81	-0.0072055464
88	0xbd92a82f	-0.07160985
89	0xbd545c77	-0.051845994
90	0xbdac674a	-0.08418138
91	0xbd71e1e6	-0.059053324
92	0xbd6629bb	-0.05619214
93	0x39d4e9c9	0.00040609975
94	0xbbce21a4	-0.0062906314
95	0x3ba34aaf	0.004983268
96	0x3d735477	0.059406724
97	0x3c8e8da4	0.017401524
98	0x3aab439a	0.0013066411
99	0x3d25416b	0.04034559
100	0xbd6a8ffc	-0.05726622
101	0xbc156392	-0.009117978
102	0x3caf0b9d	0.021367842
103	0x3d8b3e8c	0.06799039
104	0x3d95d456	0.073158905
105	0xbd94bca3	-0.07262542
106	0x3c566c8d	0.013087404
107	0x3da2c4cb	0.079476915
108	0x3cbd5905	0.023113737
109	0xbda3a16e	-0.07989775
110	0x3d75b224	0.05998434
111	0xbd8fb033	-0.07016029
112	0xbd928f03	-0.071561836
113	0xbd826925	-0.06367711
114	0x3d99dada	0.07512446
115	0x3d9d838f	0.076911084
116	0xbcd1ff17	-0.025634332
117	0x3d058cde	0.032605045
118	0x3c937efe	0.01800489
119	0xbdabb8c7	-0.08384853
120	0xbd3469a7	-0.04404607
121	0xbcf0e627	-0.02940662
122	0xbbf558f9	-0.007487413
123	0xbcbf4ce9	-0.023352103
124	0x3d6cf80d	0.057853747
125	0xbd7f6527	-0.062352326
126	0xbd1572e2	-0.036486514
127	0xbc22ae44	-0.0099292435

encoder.convs.0.norm.weight f4 [128]
0	0x3f729375	0.9475625
1	0x3f767e72	0.9628669
2	0x3f6f5c40	0.9350014
3	0x3f723355	0.94609576
4	0x3f7471be	0.95486057
5	0x3f73ed50	0.95283985
6	0x3f763ad8	0.9618354
7	0x3f7451a4	0.95437074
8	0x3f7a2b67	0.97722477
9	0x3f714498	0.9424529
10	0x3f73959f	0.9515018
11	0x3f711bfd	0.9418333
12	0x3f72e679	0.94882923
13	0x3f7292d5	0.947553
14	0x3f743174	0.9538796
15	0x3f73c0af	0.95215887
16	0x3f7c6126	0.98585737
17	0x3f741338	0.95341825
18	0x3f7dab22	0.9908925
19	0x3f7122fe	0.9419402
20	0x3f739750	0.9515276
21	0x3f746208	0.95462084
22	0x3f7599bb	0.959377
23	0x3f758586	0.95906866
24	0x3f6f0d1e	0.9337939
25	0x3f7370f3	0.9509422
26	0x3f755f82	0.9584886
27	0x3f70d38b	0.9407279
28	0x3f720be6	0.94549406
29	0x3f770e47	0.9650616
30	0x3f7436e8	0.9539628
31	0x3f74e29c	0.9565828
32	0x3f6dd8be	0.9290885
33	0x3f75d3d9	0.9602638
34	0x3f7650c1	0.9621697
35	0x3f7722c6	0.96537435
36	0x3f7428ba	0.95374644
37	0x3f75f2db	0.96073693
38	0x3f787724	0.97056794
39	0x3f71eee0	0.9450512
40	0x3f7287e3	0.94738597
41	0x3f75a5fd	0.95956403
42	0x3f71e742	0.94493496
43	0x3f75670b	0.95860356
44	0x3f75527c	0.95828986
45	0x3f717545	0.94319564
46	0x3f77cf0a	0.9680029
47	0x3f7383b9	0.9512287
48	0x3f74b05d	0.9558161
49	0x3f75d0c8	0.960217
50	0x3f6f74a8	0.9353738
51	0x3f78b7af	0.9715528
52	0x3f6eada3	0.932337
53	0x3f73656b	0.95076627
54	0x3f795d95	0.9740842
55	0x3f75cb1b	0.9601304
56	0x3f73d10e	0.9524087
57	0x3f73e6e1	0.9527417
58	0x3f6f8614	0.9356396
59	0x3f76bbd5	0.9638036
60	0x3f7bc25a	0.9834343
61	0x3f71ff2e	0.9453
62	0x3f752821	0.95764357
63	0x3f7e136a	0.99248374
64	0x3f7f93a1	0.9983464
65	0x3f73c53d	0.95222837
66	0x3f746bf0	0.954772
67	0x3f726c9e	0.94696987
68	0x3f753b2e	0.95793426
69	0x3f70c2b2	0.9404708
70	0x3f6f0a15	0.9337476
71	0x3f74ae1d	0.95578176
72	0x3f73627b	0.95072144
73	0x3f729bc7	0.9476895
74	0x3f727fc0	0.9472618
75	0x3f73d45e	0.9524592
76	0x3f6d5b81	0.9271775
77	0x3f75af3b	0.95970505
78	0x3f7360a9	0.95069367
79	0x3f752a78	0.9576793
80	0x3f7b5e3a	0.98190653
81	0x3f70f800	0.9412842
82	0x3f714e38	0.9425998
83	0x3f701145	0.9377635
84	0x3f79b31f	0.9753894
85	0x3f75b73d	0.95982724
86	0x3f7586cb	0.959088
87	0x3f7228bc	0.94593406
88	0x3f758b6d	0.9591587
89	0x3f72acd5	0.9479497
90	0x3f7355aa	0.9505259
91	0x3f6b2939	0.91859776
92	0x3f757f21	0.9589711
93	0x3f6fb58f	0.9363641
94	0x3f7287d2	0.94738495
95	0x3f731085	0.9494708
96	0x3f74f8ef	0.9569234
97	0x3f7403ac	0.953181
98	0x3f7209f9	0.9454647
99	0x3f71a1fe	0.94387805
100	0x3f71ee45	0.94504195
101	0x3f702a02	0.938141
102	0x3f74edda	0.9567543
103	0x3f7593a3	0.959284
104	0x3f78a639	0.97128636
105	0x3f723e93	0.9462673
106	0x3f710b18	0.9415755
107	0x3f7926c9	0.97324806
108	0x3f780f65	0.9689849
109	0x3f6e9c5f	0.93207353
110	0x3f7a28f2	0.9771873
111	0x3f704c9a	0.93866885
112	0x3f774a9e	0.9659823
113	0x3f722f59	0.94603497
114	0x3f75eafb	0.96061677
115	0x3f748b27	0.9552483
116	0x3f73b68c	0.9520042
117	0x3f756549	0.95857674
118	0x3f6ebf3b	0.93260545
119	0x3f7729e4	0.96548295
120	0x3f77778a	0.9666678
121	0x3f799312	0.97490036
122	0x3f741b77	0.9535441
123	0x3f758846	0.9591106
124	0x3f73c37d	0.95220166
125	0x3f718bef	0.94354147
126	0x3f70967a	0.9397961
127	0x3f732c3b	0.94989365

encoder.convs.0.norm.bias f4 [128]
0	0x3c77c79f	0.015123277
1	0xbd1fdcf8	-0.03902909
2	0x3b4c089d	0.0031133064
3	0x3c8042db	0.01565688
4	0xbbdeb785	-0.0067967796
5	0x3d8930bb	0.06698748
6	0x3ce29760	0.027660072
7	0xbd4b84fd	-0.049687374
8	0x3c9a8ccc	0.018865965
9	0xbcd7943d	-0.026315803
10	0x3cbf0d65	0.023321817
11	0xbd0c33a2	-0.03422893
12	0x3c8f0bfa	0.017461766
13	0xbc999e29	-0.018752174
14	0x3cada6bf	0.021197675
15	0xbc5c45af	-0.013444348
16	0xbcbf80aa	-0.023376781
17	0xbc6e26d1	-0.014535622
18	0xbd2a845d	-0.041630138
19	0xbc92ce97	-0.017920775
20	0x3ce53877	0.027981026
21	0xb99536c5	-0.000284603
22	0x3d173a1f	0.036920663
23	0x3d7cc514	0.061711386
24	0xbd13cf40	-0.03608632
25	0x3cdf8c41	0.027288558
26	0x3d315d40	0.04330182
27	0xba9c02a7	-0.0011902646
28	0x3d3eaf2b	0.046553772
29	0x3c30a2c7	0.010780997
30	0x3d0eec54	0.03489335
31	0xbc5a776d	-0.013334137
32	0xbd0134fb	-0.031544667
33	0x3cce3d11	0.025175603
34	0x3d4eace7	0.05045786
35	0x3c1e2e93	0.009654659
36	0x3d0204c8	0.03174284
37	0xbbececa5	-0.0072303587
38	0x3cb3fdef	0.02197167
39	0xbacb6371	-0.0015517307
40	0x3c377993	0.011198419
41	0x3d287fb8	0.041137427
42	0x3cb8b36f	0.022546498
43	0x3c9bafa4	0.01900465
44	0xbd1ab3e5	-0.037769217
45	0xbd896289	-0.06708247
46	0x3c195bdf	0.009360283
47	0x3d888ef9	0.06667895
48	0xbd5e8897	-0.05432948
49	0x3b139bce	0.0022523287
50	0x3d7e815d	0.06213509
51	0x3d63ea3c	0.055643305
52	0x3b57fe20	0.0032957867
53	0xbcae607d	-0.021286244
54	0xbd8e5f3e	-0.0695176
55	0xbaa81513	-0.0012823663
56	0xba2f23f7	-0.00066810794
57	0x3c9b9b19	0.018994855
58	0x3c01a0b7	0.007911853
59	0xbc80aec4	-0.015708335
60	0x3cc479e1	0.023983898
61	0x3bf29547	0.007403049
62	0xba252537	-0.0006299796
63	0xbd1b42e8	-0.037905604
64	0x3ca1949c	0.019724183
65	0xbc404a68	-0.01173649
66	0x3bd3ea32	0.0064671272
67	0xbd4c4d7d	-0.049878586
68	0xbcb7b260	-0.022423923
69	0x3ceb788f	0.02874401
70	0xbb72d174	-0.0037051113
71	0xbb9654d1	-0.0045877476
72	0x3d56c2d0	0.05243188
73	0x3bebb999	0.007193756
74	0xbbb7acc9	-0.0056053144
75	0x3be95959	0.007121247
76	0xbcbd91bb	-0.023140779
77	0xbd2be347	-0.041964795
78	0x3c942021	0.018081727
79	0xbc94e06b	-0.018173417
80	0xbc8b9090	-0.017036706
81	0x3d209744	0.03920676
82	0x3cc2bad8	0.023770735
83	0x3d78e5ce	0.060766034
84	0x3d812ba8	0.06307155
85	0x3cb8479a	0.02249508
86	0xbc9fd1ff	-0.019509314
87	0xb9a46a5d	-0.00031359764
88	0x3cc925f3	0.024554228
89	0xbd8e7cbb	-0.06957384
90	0x3be540a1	0.0069962298
91	0x3c8e5f81	0.017379524
92	0xbd157058	-0.036484092
93	0x3b9a9754	0.0047177467
94	0xbc9c8018	-0.019104049
95	0x3c867b31	0.016416164
96	0x3c359945	0.011083906
97	0x3d17042d	0.036869217
98	0x3c0eb159	0.008709275
99	0x3c88f20a	0.016716976
100	0xbca0dfc8	-0.019637957
101	0xbcebd09e	-0.028786
102	0x3d14b896	0.036308847
103	0xbcbfbdd6	-0.02340595
104	0x3c59925e	0.013279526
105	0x3b89910d	0.0041981996
106	0xbb99d22c	-0.004694244
107	0x3c233072	0.009960281
108	0x3c2abc75	0.010420908
109	0x3c471534	0.012151051
110	0x3bf92fb5	0.007604564
111	0xbb125599	-0.0022328852
112	0xbb3998a5	-0.0028319743
113	0xbcd2b58d	-0.025721336
114	0xbb5488fa	-0.0032430277
115	0xbda79312	-0.08182348
116	0x3c6c826e	0.014435394
117	0xbd235065	-0.039871592
118	0x3d8d4c2c	0.06899294
119	0x3c841348	0.016122475
120	0xbd0e4fe8	-0.034744173
121	0x3b9f7566	0.00486629
122	0x3cf8d4cc	0.030374907
123	0x3d0a0d9f	0.033704396
124	0x3c8079e1	0.015683116
125	0x3bb6afe1	0.0055751656
126	0x3c8eda69	0.01743813
127	0xbca94080	-0.020660639

encoder.convs.0.norm.mean_scale f4 [128]
0	0x3f80e68a	1.0070355
1	0x3f7a322a	0.97732794
2	0x3f701608	0.93783617
3	0x3f869408	1.0513926
4	0x3f76948b	0.9632041
5	0x3f7eca17	0.99527115
6	0x3f7c2a1b	0.9850175
7	0x3f6e8eda	0.93186724
8	0x3f7d78a2	0.99012196
9	0x3f81bd4b	1.0135893
10	0x3f7aa912	0.9791423
11	0x3f84ccfc	1.0375056
12	0x3f70eb83	0.9410936
13	0x3f8021a8	1.0010271
14	0x3f7b0df1	0.9806815
15	0x3f7b22f5	0.98100215
16	0x3f7693a2	0.9631902
17	0x3f7e38a5	0.9930518
18	0x3f818fb4	1.012198
19	0x3f768716	0.96299875
20	0x3f83d900	1.0300598
21	0x3f6f8ca5	0.9357398
22	0x3f6eebb6	0.93328416
23	0x3f8d43b1	1.1036283
24	0x3f71c3b0	0.9443922
25	0x3f819651	1.0123998
26	0x3f772867	0.96546024
27	0x3f800f98	1.0004759
28	0x3f5feedc	0.87473845
29	0x3f78081f	0.9688739
30	0x3f73c1a0	0.95217323
31	0x3f8587f2	1.0432112
32	0x3f8175f0	1.0114117
33	0x3f84d71f	1.037815
34	0x3f84b074	1.0366349
35	0x3f786340	0.97026443
36	0x3f7b10fc	0.9807279
37	0x3f823063	1.0171016
38	0x3f7155be	0.9427146
39	0x3f7ecd9d	0.9953249
40	0x3f7dd524	0.9915335
41	0x3f83dae3	1.0301174
42	0x3f8240e7	1.0176057
43	0x3f7f6a5c	0.99771667
44	0x3f72cc31	0.9484282
45	0x3f8f330a	1.1187451
46	0x3f728a1f	0.94742006
47	0x3f807181	1.0034639
48	0x3f60fcae	0.8788556
49	0x3f78c01d	0.9716814
50	0x3f8510de	1.0395772
51	0x3f86d9aa	1.0535176
52	0x3f8514c4	1.0396962
53	0x3f83f9b4	1.0310578
54	0x3f87a743	1.0597919
55	0x3f80e61a	1.0070221
56	0x3f76c4a3	0.96393794
57	0x3f75fe7b	0.9609143
58	0x3f7570b8	0.9587512
59	0x3f756863	0.95862406
60	0x3f83180a	1.0241711
61	0x3f650aa3	0.89469355
62	0x3f7ea76f	0.99474233
63	0x3f8c9c8e	1.0985277
64	0x3f6f3cdb	0.93452233
65	0x3f6dec2f	0.9293851
66	0x3f70c518	0.9405074
67	0x3f861939	1.0476447
68	0x3f7f295d	0.9967249
69	0x3f784a72	0.96988595
70	0x3f7a03fb	0.97662324
71	0x3f65b506	0.89729345
72	0x3f86db4f	1.0535678
73	0x3f7b8d1f	0.9826221
74	0x3f7b95ac	0.98275256
75	0x3f7469ac	0.9547374
76	0x3f80b42d	1.0054985
77	0x3f865f70	1.0497875
78	0x3f743dd8	0.95406866
79	0x3f75a6e8	0.95957804
80	0x3f7554c3	0.9583246
81	0x3f785871	0.9700995
82	0x3f7f0c15	0.9962781
83	0x3f87adde	1.0599935
84	0x3f84fb85	1.0389258
85	0x3f801828	1.0007372
86	0x3f7349dd	0.9503458
87	0x3f787fb7	0.9706988
88	0x3f83572a	1.0260975
89	0x3f874af6	1.0569751
90	0x3f834f2e	1.0258539
91	0x3f7c3dda	0.9853188
92	0x3f585b2c	0.8451412
93	0x3f835df5	1.0263048
94	0x3f87fc8f	1.062395
95	0x3f6e79cf	0.93154615
96	0x3f818147	1.0117577
97	0x3f7ebd41	0.9950753
98	0x3f7d05db	0.9883706
99	0x3f796636	0.97421587
100	0x3f8516d0	1.0397587
101	0x3f788801	0.97082525
102	0x3f8345e1	1.02557
103	0x3f6f4a3c	0.9347265
104	0x3f77f879	0.96863514
105	0x3f82bd7e	1.0214078
106	0x3f732808	0.9498296
107	0x3f7b2a47	0.98111385
108	0x3f71213d	0.9419134
109	0x3f7d8472	0.9903022
110	0x3f79145d	0.97296697
111	0x3f749aeb	0.95548886
112	0x3f774380	0.9658737
113	0x3f7642f8	0.96195936
114	0x3f6a577d	0.91539747
115	0x3f880d12	1.0628989
116	0x3f7db66b	0.9910647
117	0x3f6d01f7	0.92581123
118	0x3f897d84	1.0741429
119	0x3f831e57	1.0243634
120	0x3f855af2	1.0418379
121	0x3f645d8c	0.8920524
122	0x3f89493c	1.0725474
123	0x3f7d010d	0.9882973
124	0x3f67d9cb	0.905667
125	0x3f75367e	0.95786273
126	0x3f7ade7f	0.9799575
127	0x3f81ebe4	1.0150113
