checkpoints/model_B_epoch_49.pth (torch, 552117 bytes, 26 tensors)

encoder.node_embedding.weight f4 [1, 128]
00000000: 7345 e63f f807 b23f 22e8 533f c93b 00c0
00000010: 98d7 243f 7e22 92bf 4b40 adbc b72e c4bf
00000020: e248 31bf a704 c53f 3a05 b7be 2e44 a6bf
00000030: ba58 2fbf 1060 02bf 49e2 37bf b791 353f
00000040: cf34 c53f 3428 d3bd 149e e8be 891f c73e
00000050: c93d 32bf 2f4c 843f 31f2 3b3f d360 cc3f
00000060: be39 9b3f 9ef2 973f 8d11 123f 74a6 a03f
00000070: ab56 44be 7feb 8d39 9462 56be 1631 4c3f
00000080: fb52 a3bf 3a06 4fbf 20b1 33be 4c41 d23f
00000090: d926 8d3e afd9 b9be 9d02 903e beb1 36bf
000000a0: 352e bdbf 07a9 6f3f 80c2 57bf 8960 08bf
000000b0: 8f72 98bf 7c8b 0040 6b37 93bf 9970 dbbe
000000c0: 1f1c 56bf 129e 1cbf cfff 323d 8da8 f73e
000000d0: 222b d9be be84 8c3f f0aa 41bf 6efc 2cbf
000000e0: ae82 a8bf cf45 5f3c b782 b0bc d6f3 1f3f
000000f0: 8c0c 81bd 3f98 de3f 1e66 90bf 4e64 a93f
00000100: af21 ad3f dd80 4b3f 3b8e 0540 8fec e93e
00000110: 4c9d 993e ecfd 14be 7dfe 7dbf bd06 993f
00000120: 3b08 0dbe 3847 ee3e 4c84 fd3c 3cb8 b93e
00000130: 8ffa 053f 2a2c 13bf c17b 04c0 280f 34bf
00000140: 7eff 36ba b35a a4be 43f9 a2bf 1276 08bf
00000150: de6b 023f 8278 f53e 71d8 8a3f 4264 d23c
00000160: 7044 313f 2106 d5be 667d 7fbf bcb9 0d3f
00000170: ba0a d1bf 6601 44bf 44d7 a03f a07a d83e
00000180: a128 18c0 5f39 d33e f95e 3c3f 84e6 8aba
00000190: fa05 183f 45d5 043f b4b4 803f 8dc9 c7be
000001a0: 85c3 14be 31f3 2e3f 9508 c53e 86d0 f13d
000001b0: 387d 613e 62ca 983f ba07 11ba 77c4 86be
000001c0: 20b3 b2bf 2f4f 87bd 1da6 09bf 0b70 d03e
000001d0: cd20 2a3f 3d10 233d 34ad aabe b8df fb3e
000001e0: 4139 9338 b5ac 483e 245c cd3d 6d86 2f3f
000001f0: 04c1 873f 74c7 9b3e 0ede 283f a5c7 ba3e
1.7989944 1.3908682 0.8277608 -2.003649 0.6439147 -1.1416776 -0.021148821 -1.5326756
-0.69251835 1.5392045 -0.35746175 -1.2989557 -0.6849476 -0.5092783 -0.7182966 0.7092547
1.5406741 -0.103104025 -0.45433104 0.38891247 -0.69625527 1.0335749 0.7341643 1.5967048
1.2126997 1.1870916 0.5705803 1.2550797 -0.19173686 0.00027069074 -0.20936042 0.797624
-1.2759699 -0.80868876 -0.17548037 1.6426177 0.275687 -0.36298892 0.28126994 -0.71364963
-1.4779726 0.9361729 -0.8428116 -0.532723 -1.190996 2.0085135 -1.1501287 -0.42859343
-0.8363666 -0.61178696 0.04370099 0.48370782 -0.4241572 1.097801 -0.75651455 -0.6757268
-1.316488 0.0136274835 -0.021546705 0.6248144 -0.06301221 1.7390212 -1.1281164 1.3233736
1.3525904 0.79493505 2.086806 0.45688292 0.3000282 -0.14549989 -0.99216443 1.1955181
-0.13772671 0.4653871 0.030946873 0.36273372 0.5233545 -0.57489264 -2.0700533 -0.70335627
-0.00069808203 -0.32100448 -1.2732319 -0.5330516 0.5094584 0.47943503 1.0847303 0.025682572
0.6924505 -0.41606238 -0.9980072 0.55361533 -1.6331398 -0.76564634 1.2565694 0.42281055
-2.3774798 0.41254708 0.73582417 -0.0010597263 0.5938412 0.51887923 1.0055146 -0.3902096
-0.1452771 0.6833983 0.3848311 0.11807351 0.22020423 1.1936762 -0.00055324624 -0.26321766
-1.3960915 -0.066069 -0.53769094 0.40710482 0.664563 0.039810408 -0.33335268 0.4919412
7.0201706e-05 0.19597133 0.1002734 0.6856449 1.0605779 0.30425608 0.6596383 0.36480442

encoder.convs.0.node_mlp.weight f4 [128, 256]
00000000: 5d8b 533d e516 32bc f7fb 583d 3132 913c
00000010: a326 4cbd 4e93 263d e0d3 90bc 2e2c c6bc
00000020: a69b 51bd 042e 71bd 0173 843c 0e2b 69bc
00000030: 5a9a b63c 283f 4fbd 22ad 323d a4af 30bd
00000040: 1148 19bc d2df 463c 7bcc f43c 6480 4b3d
00000050: 041e 5c3d 5c36 3fbd 2e9c 853c d063 cbbc
00000060: a010 b5bb e06a 34bd dcc1 653d ccc3 30bd
00000070: 09bd fe3c 89fa 9ebc e71d 983c 0cd7 00bd
00000080: 6219 5c3d ec55 463c 2d7d da3b 403f 55bd
00000090: 690d d73c 4ba8 26bc 306d d9bc 008a 4f3d
000000a0: 43a8 4a3c 4dda 03bd b2c2 01bd d8d8 84bb
000000b0: 637e 053d 6e18 6bbc 6359 11bd 7d34 b2bc
000000c0: 6911 3dbd ef36 a63c 2363 423d afb7 63bd
000000d0: d56e 523c c9ce 033d 46b1 203c 12f1 b9bc
000000e0: 92c1 f83c b47d 023d aa9b b53c cf6f 1abc
000000f0: 3004 89bc 7f9a f63b 68fd 40bc aaf6 89bc
00000100: 7c7f 223d 68ed 583d abc4 a0bb 5ef3 4bbc
00000110: 8560 f43a d1a3 8cbb de35 5b3c fe71 933c
00000120: 56b8 63bd 4bdd acbc 6fbc 523d 9420 c93c
00000130: e2c9 ffba ac90 19bd cd65 1bbd 0f20 62bd
00000140: 6eb2 f1bb 5fb8 9c3c 03ee 183d 8095 da3c
00000150: f9fd 55bd 0e8a 0fbd 764f 09bc 9e40 6f3d
00000160: 09f3 213c 4f13 89bc 47f2 c23c 2108 b2bc
00000170: 4657 24bd aedd 2f3d 1896 d7bc aa9d 32bc
00000180: 2107 7abd 5f73 293d dadd 3f3d a133 a63c
00000190: c1a9 27bd 983e 6fbd 77ef 43bd 3bbd 333d
000001a0: ab10 e23c c7b4 543d 9366 063d 78ff 853c
000001b0: 2ad8 213a 4d62 37bd cc26 16bd ae91 6bbd
000001c0: 1b4c c13c e37e fabc b8b8 59bc 042c 09bd
000001d0: 441b 22bc 4528 2bbd 1034 26bd 6e50 ad3c
000001e0: da65 67bc add1 1b3d 599d 94bc f94d 30bd
000001f0: 9346 1bbc 80b6 e5bc 194b 8dbc 1d04 67bd
00000200: 6d40 5e3c fdc7 e1bd 6fd5 463d aba3 c1ba
00000210: 8eb6 0f3e 1cb8 08be 8fc3 e53d 61b7 68bc
00000220: 07a7 4bbc 2ddb 303d 9ecf 3d3d 3be2 57bd
00000230: c348 d5bc f819 c5bd d67a 973d 3027 8ebc
00000240: 3b29 793c 3e52 90bc 5442 d93d 9478 0a3d
00000250: 2091 8fbd 12b1 643d e14c 193b 3ac0 60bd
00000260: 9873 62bd 9c1a 05be 3c65 94bc edf3 1cbb
00000270: 8383 9a3b 9ff6 e03c 04b4 17bd 4799 d73d
00000280: f5e5 8f3d dc9e bcbd ab31 163d 78a6 4e38
00000290: 6d14 98bd 6309 00be df65 2cbd 671a dcba
000002a0: 8d4d 6c3b f71e 7ebd a307 35bd 31d8 39bd
000002b0: fee2 68bb 9a60 d53d c380 153c 3897 d5bd
000002c0: 787e 80bc f0de a83d daa8 46bd c1a8 01bd
000002d0: 8cf6 cabc 8d52 c93d bf06 21bc 5d73 fb3d
000002e0: 0f35 98bb aab7 11bd 6e93 d43d 9592 a0bc
000002f0: 16b0 d63c 1c62 133d 9d41 a03c 7013 643d
00000300: f71f 6abd 007d 463d f9f3 d13d 7c00 3bbd
00000310: 4e39 183d c010 b03c 8bcd 6ebd 09a7 cebd
00000320: 103c 15be 9b2b 58bc 2a80 333c b830 2f3d
00000330: 9cc3 93bd 0dc7 dabd 34c3 77bc 86d6 873b
00000340: 51a0 003b 0f16 a43d d217 9bbd 77c6 40bd
00000350: 49a4 88bb 510c c6bc 5fae ed3b 77b9 13be
00000360: 24ec 45bd 3f73 1cbd bfe1 313d 6b88 b73c
00000370: 1eb4 2fbb 7432 68bc ea3b a13d 3a1b ba3b
00000380: d4d5 a23d da71 3cbc 04ee 12bd 586d 193d
00000390: cc3f 8a3d 431a b7bb 509e 8abd 41e2 b23c
000003a0: ae91 edbb eee6 43bd 0b25 54bd 6015 28bd
000003b0: 2ce2 343d 6f01 503d 36bc a73c 6c0f 69bd
000003c0: 495f 28bd e9ee f7bc 3300 103e 2382 6d3c
000003d0: f8ee bcbc f0f4 c93b 4960 dbbb b9ff 6d3c
000003e0: cf04 02bc 17dd 3e3d b157 9e3d 43d9 16bd
000003f0: cb37 023d 3610 77bd 8397 0c3d 6ddb bcbc
0.05164658 -0.010869716 0.052974667 0.017724128 -0.049841534 0.040667824 -0.017679155 -0.024190988
-0.05117383 -0.058881775 0.01616812 -0.014231456 0.022290397 -0.05059734 0.043622144 -0.043136254
-0.009355561 0.012138324 0.02988266 0.04968299 0.053739563 -0.0466827 0.016309824 -0.024827868
-0.0055256635 -0.044047236 0.05609308 -0.043155476 0.031095998 -0.019406574 0.018568946 -0.031455085
0.053735144 0.012105446 0.006667754 -0.052062273 0.026251512 -0.01017196 -0.026541322 0.050668716
0.012369218 -0.03219061 -0.031679817 -0.00405417 0.032591235 -0.014349086 -0.035485636 -0.021753544
-0.04615918 0.020289866 0.047457825 -0.055595096 0.012843807 0.032179628 0.00980789 -0.02269796
0.030365739 0.03185816 0.022168953 -0.009426071 -0.01672563 0.0075257416 -0.011779167 -0.016841251
0.03967236 0.052960783 -0.004906257 -0.01244816 0.0018644488 -0.0042919894 0.013379542 0.017998692
-0.05559572 -0.021101614 0.051449236 0.024551667 -0.0019515122 -0.037491485 -0.03793888 -0.055206355
-0.007376007 0.019130884 0.03733636 0.026682615 -0.05224416 -0.03504377 -0.008380761 0.058411233
0.009884604 -0.01673284 0.023797167 -0.021732392 -0.040122293 0.04293602 -0.026316687 -0.010901848
-0.061041955 0.041369792 0.046842434 0.02028829 -0.040933374 -0.058409303 -0.047835793 0.043881636
0.027595839 0.051930215 0.032812666 0.016357169 0.00061738736 -0.04477148 -0.036658093 -0.057511978
0.02359586 -0.030578082 -0.013288669 -0.033489242 -0.009894196 -0.04178645 -0.040576994 0.021156516
-0.014123404 0.03804176 -0.018141435 -0.04304311 -0.009477275 -0.028041124 -0.017247723 -0.056400407
0.013565165 -0.11024473 0.04854339 -0.0014773508 0.14034483 -0.13351482 0.112189405 -0.014203877
-0.012429959 0.043177772 0.046340577 -0.052705985 -0.026035672 -0.09624094 0.07396476 -0.01735267
0.015207584 -0.017617341 0.10608354 0.0338064 -0.07010102 0.05583293 0.002339177 -0.05487082
-0.05528602 -0.12998432 -0.018114679 -0.0023949102 0.0047153844 0.027461348 -0.03703691 0.10527282
0.07026283 -0.092099875 0.03666846 4.9269263e-05 -0.07425771 -0.12503581 -0.04208934 -0.0016792536
0.0036056966 -0.06204125 -0.044196736 -0.04537219 -0.0035535689 0.10418816 0.0091249375 -0.10429233
-0.015685305 0.08245647 -0.048500873 -0.031655077 -0.024775766 0.098301984 -0.009828269 0.12277863
-0.004644997 -0.035575546 0.103796825 -0.019601146 0.026207011 0.035982236 0.019562537 0.0556826
-0.05715939 0.048459053 0.10251612 -0.04565476 0.037164025 0.021492362 -0.05830149 -0.10090453
-0.14573693 -0.01319399 0.01095585 0.04277107 -0.07215044 -0.10682497 -0.015122224 0.0041454462
0.0019626806 0.0801202 -0.07572903 -0.04706427 -0.004169975 -0.024175795 0.0072534527 -0.14426218
-0.048320904 -0.038195845 0.04342818 0.022403916 -0.002681024 -0.014172185 0.07872756 0.005679515
0.07950941 -0.011501754 -0.03587152 0.037457794 0.067504495 -0.0055878474 -0.06768477 0.021836402
-0.0072500324 -0.047827654 -0.05179314 -0.04103601 0.044161007 0.050782617 0.020475488 -0.056899473
-0.041106496 -0.030265288 0.14062576 0.014496359 -0.023063168 0.006163232 -0.0066948277 0.014526301
-0.007935717 0.046597566 0.077315696 -0.03682829 0.03179149 -0.060318194 0.03432418 -0.02305385

encoder.convs.0.node_mlp.bias f4 [128]
00000000: b274 3dbd e4ff 783c e9af 2b3a 1b7d 633d
00000010: 6e6d e23c eaca febc a7fc 7dbb 4d69 4dbd
00000020: 7e27 f43a 5489 643c c399 3d3d d963 7a3d
00000030: d614 06bd 20e5 593d 857d 2bbd 8542 5d3c
00000040: 6752 063d d840 d63c 6fec 413d 1904 bfbc
00000050: 6756 583d b41d c9bb a9c6 06ba c3cf 67bc
00000060: 5dd0 62bd 8c07 92bc 8c0a 333c d225 113c
00000070: 4a39 abbb 1d5d b5b9 3729 383b 0665 c5bc
00000080: 531a 5ebc a3b0 3ebd f5f1 a53b 2b42 043d
00000090: afec bfbc efbe a53c 7416 bdbc 281b a6bc
000000a0: c49b 1d3d be07 46bd 6c15 623c 0872 483d
000000b0: cfaa 6b3c 5e8d 033b b2ad e3bc 8ee0 4abd
000000c0: 8d7b 5c3d 7e3d c53c 7862 aa3c 4993 1abd
000000d0: caa5 033d 7cf9 12bd 4088 423d 0fc4 f43c
000000e0: 06b5 37bd 4752 2cbd 922a 3dbd bfda aebc
000000f0: 7bc7 04bc b730 82bd cc3f 4e3d 8a8c 22bd
00000100: 5b22 34bc c377 a83c e423 56bd 0ba8 39bc
00000110: 6b59 80bd ff6d 4abd b954 3c3b 77a9 bfbc
00000120: 9d2e 243d 4982 bcbc fc47 2b3d b755 513d
00000130: c445 e4bc 4616 83bb aaf8 b63c b3c8 9ebc
00000140: 5a2a e33c 7235 80ba 4862 8cba 0d09 47bd
00000150: 22b8 4b3d b1c8 70bd 5766 07bc e290 1d3d
00000160: 59a6 f7bc 01b6 803b ba9a 5c3d 5beb cc3c
00000170: fbca eb3c 95f2 49bd c85a ed3c 09e5 f13b
00000180: 3829 10bc c16f b5bc 6d82 99bc 8e4d e93c
00000190: 15bf 243d a059 33bd d87d 493d 189b 7f3d
000001a0: e035 bebc 30d0 7bbb 9791 d63c 5098 42bd
000001b0: eb31 b23c 4e92 823d 596b a1bc 6d29 44bd
000001c0: 0c90 48bd adc8 383d dc8b babc aee0 7bbc
000001d0: e4b2 883c 871e 623c 21ab 0b3d 3e53 a5ba
000001e0: d592 62bd ec38 ce3c 6c09 283d 8bb8 bc3b
000001f0: eab3 e3bc 9598 85bc eaea 283d 4ec8 0d3d
-0.046253867 0.015197728 0.0006549345 0.05553923 0.02764007 -0.031102616 -0.003875533 -0.05014925
0.0018627492 0.013948757 0.046289217 0.06113038 -0.032734714 0.053197026 -0.04186775 0.013504629
0.03279343 0.026153967 0.04734462 -0.023317384 0.052816775 -0.006137574 -0.0005141297 -0.014148655
-0.055374492 -0.017825864 0.010927808 0.008859115 -0.0052253352 -0.00034592385 0.0028100738 -0.024096023
-0.013556081 -0.046555173 0.005064244 0.032289665 -0.02342829 0.020232646 -0.023081996 -0.020276621
0.038478628 -0.048347227 0.013799053 0.048936874 0.014383986 0.0020073275 -0.027792785 -0.04953056
0.053828765 0.024077173 0.020798907 -0.03773812 0.03214053 -0.035882458 0.04749322 0.029878644
-0.04485037 -0.042070653 -0.046183176 -0.02134454 -0.0081042005 -0.06356948 0.05035381 -0.03968481
-0.010994519 0.02056492 -0.05228032 -0.0113315685 -0.06267055 -0.049421307 0.0028737022 -0.023396237
0.040083516 -0.023011344 0.041816697 0.051107135 -0.027865298 -0.004000458 0.02233537 -0.01938281
0.027730156 -0.0009781553 -0.0010710442 -0.048592616 0.04973615 -0.058785144 -0.008264146 0.03846825
-0.030230688 0.0039279466 0.053858496 0.02501457 0.028783312 -0.04930361 0.028973952 0.0073820394
-0.00879889 -0.022148015 -0.01873895 0.028479364 0.040221293 -0.043786645 0.04919228 0.06240377
-0.023219049 -0.003842365 0.02619247 -0.047508538 0.021752318 0.06375562 -0.019704508 -0.04789107
-0.0489655 0.045113254 -0.022771768 -0.015373392 0.016686864 0.013801224 0.034098748 -0.0012613309
-0.05531581 0.025173627 0.04102461 0.005759304 -0.02779575 -0.016308108 0.041239657 0.034614854

encoder.convs.0.edge_mlp.0.weight f4 [128, 7]
00000000: 7724 81be 3b21 9c3d 06e1 52bc 0f6c 643d
00000010: f0fd 2fbe 43ed bb3c 1125 d5be 82a5 a13c
00000020: 2bf9 dfbe d6d6 a13e 91ad 693e c3a1 523e
00000030: 657e 65be 8a11 38be e12f 37bc 1380 ddbd
00000040: 0fe8 c23a bf72 c93d 5416 923d 742e 81be
00000050: 73ea e53e 74e0 0cbe 8746 2b3e f152 aebe
00000060: 7684 9a3e a758 62be d1c5 563e 6b92 353e
00000070: 3ad9 ccbd 731f 163d 0036 67be ae78 a8be
00000080: cc58 ea3d c858 903e f127 8cbe e7eb 33be
00000090: b86f 8bbe 41fa 9abe f7ca 903c a404 ecbd
000000a0: 99a9 b63e 67ce 883e ad3f 0fbe 1828 803e
000000b0: c5e0 783e 5923 a13e baa7 49be e020 75bc
000000c0: afc4 3fbe 3102 e8bd cc9a 813e d0da bf3e
000000d0: eaf9 bdbe a5b0 113e 80d2 03be c714 a3be
000000e0: 03c5 153e 4c40 273e 5c91 2ebe 2764 bf3e
000000f0: 44b8 43be 6b84 5e3e a4db 803e 0497 5dbe
00000100: b4af 483e a3a7 fcbd cc98 0cbe 9c30 c73d
00000110: 1533 c73e 3aed 53be e755 bb3e f563 41be
00000120: 0d1b 033e 0032 91be ff36 03be 4568 57be
00000130: dcf8 d13e 045b f1bd 5f17 51be 7ec9 77be
00000140: e7d9 6b3e a959 283e d2ee 1f3e d878 a93e
00000150: 859c e2bd e0da ab3e fdac 11bf 094c 96be
00000160: e71e 6f3e f03a 4abe db33 283e 0fc3 803e
00000170: 1fbb e03c 4d66 9d3e 694c c23d b1c5 9cbc
00000180: 7ad6 cdbe 790a 3cbe 2bfb 803c 3ae7 073e
00000190: 69c9 97be 1870 a73c c52d 3bbc ddcb f93c
000001a0: 6b61 9dbe dff2 a63e d54b 903d 1627 cb3e
000001b0: 3fa2 67be 66eb 54bd 565c 193d b63a 5d3e
000001c0: a0c2 24be e45a b4bd b393 37be cd72 56be
000001d0: 0aa5 8abe 7c7c c63c a911 9f3e cbdb e6be
000001e0: 68d1 803d 33d6 e1be d149 6c3d f6b4 ff3d
000001f0: abb3 bbbe 94bd de3d 6bcb 54bd 9a62 613b
00000200: 6e9c a8be 5f1d 3cbd 96f8 653e 2a28 16be
00000210: 533e c4bd b6f2 8bbe 0bba 4bbe e267 b63e
00000220: 7717 8d3e 6392 2cbe e98c b03e 9b2d 0a3e
00000230: 5563 b03d 69ef 9cbe 6d2b 80be b519 a13e
00000240: a731 7b3e b16d 393e 7110 a0be 347f 8fbc
00000250: 8af6 3b3d bee5 3c3e c9c1 b5bd 0e69 62be
00000260: 5aa6 83be d113 7bbe bb2d f4bd ded6 a13e
00000270: e771 3bbe d6e5 f23d 6411 95be 6421 2d3c
00000280: 1b34 31be 5a72 5ebe 54ef 993e ce5a 853d
00000290: 0646 9b3e 4575 bc3d 820d 143c 2e43 933e
000002a0: ace6 7ebe a1a6 d93d 6e7a 543d 9723 8abc
000002b0: c50e 86be e793 1abc fb1d 92be 1f89 653e
000002c0: 9fbf 4bbe 7f90 0ebe ede1 c33e 1598 c4bc
000002d0: a962 91be 8517 023e 62fc e83d 167e 86be
000002e0: a6e1 75be 5610 adbe a6fd 8ebe dcbe 503d
000002f0: e877 e5be f618 c3be c812 413e 4245 bfbe
00000300: e56d 96bd 0892 3f3d fe4d 9e3e d2c4 e9bb
00000310: 344f ea3d 9cb2 963e 1252 803d f1c5 a73e
00000320: f8b1 d1bd cd90 ba3e 14c5 bbbe c00e 953e
00000330: 8fd4 1a3e 1354 38bc b8d2 cf3e 0e66 743e
00000340: 6dba 243d 718d c9bd e2bf ce3e 3ab1 083d
00000350: 1c7a 003e 8dcd 7ebc fbdb 18be b1b9 31be
00000360: 433c 973e b702 2d3e 22a5 11bd 1a36 ba3d
00000370: 12b1 febd 5589 47bd 3587 40be 8471 cd3d
00000380: fd76 563e 5ff5 d9be 5ccf a43e 1fa5 dbbd
00000390: 74f9 a43e a39c a83e 5f85 c53d 310d 9b3e
000003a0: 2030 99bd 669f f8be e7bd c03c 7ced 51be
000003b0: d7fd 24be a854 0e3d 6e5b 74be a753 fa3d
000003c0: 709f a2be aea2 803e 63f0 443e ce2f 6bbe
000003d0: 353e c2bd 5b65 33bd 2e95 763e a6d5 8e3e
000003e0: 0db1 1d3e ce63 6b3d 3f49 4abd c84a b93e
000003f0: f7bf 31be 3ea6 07be 287e c73c b0a5 7ebe
-0.25223133 0.07623526 -0.012871033 0.055767115 -0.17186713 0.022940284 -0.41629842 0.01973224
-0.43744788 0.3160922 0.22820117 0.2056952 -0.22411497 -0.1797544 -0.011180849 -0.10815444
0.0014870184 0.09836339 0.07133165 -0.25230753 0.44905433 -0.13757497 0.16726123 -0.34047654
0.30179185 -0.2210413 0.20973898 0.17731635 -0.1000237 0.036651086 -0.22579193 -0.3290457
0.11442718 0.28192735 -0.27374223 -0.17570458 -0.27233672 -0.30269054 0.017674906 -0.11524323
0.35676268 0.26719972 -0.13989134 0.2503059 0.24304493 0.3147228 -0.19692889 -0.014961451
-0.18727373 -0.11328543 0.25313413 0.37471628 -0.37104732 0.14227541 -0.12873268 -0.3185179
0.14625935 0.16333121 -0.17047638 0.37381098 -0.1911326 0.21730201 0.25167572 -0.21639639
0.19598275 -0.12336662 -0.13730162 0.097260684 0.3890616 -0.20695964 0.36588976 -0.18885787
0.12803288 -0.2835846 -0.12813948 -0.2103587 0.41010177 -0.11784938 -0.20419072 -0.24197957
0.23032342 0.16440453 0.15618446 0.3310001 -0.1106501 0.33565426 -0.56904584 -0.29354885
0.23351632 -0.19749045 0.16426031 0.25148818 0.027432976 0.30742112 0.0948723 -0.019137235
-0.40202695 -0.1836337 0.015744766 0.132718 -0.2964585 0.020439193 -0.0114244865 0.030492717
-0.30738387 0.3260717 0.07045714 0.39678258 -0.22620486 -0.051982306 0.037441574 0.21604428
-0.16089869 -0.088063985 -0.17927437 -0.2094223 -0.2707904 0.02422928 0.3106816 -0.45089564
0.06289941 -0.44108734 0.057687584 0.124856874 -0.36660513 0.10876003 -0.051951807 0.0034391047
-0.32931846 -0.045926448 0.2245811 -0.14663759 -0.095822 -0.2733361 -0.19895189 0.3562613
0.27556965 -0.16852717 0.34482506 0.1349396 0.08612696 -0.30651405 -0.2503313 0.31464925
0.2453066 0.1810825 -0.31262544 -0.01751671 0.045889415 0.18447015 -0.08874852 -0.22110388
-0.25712854 -0.24519278 -0.11922785 0.31609243 -0.18305169 0.11860244 -0.2911483 0.010567043
-0.17305033 -0.21723309 0.30065405 0.0651146 0.3032686 0.09202055 0.009036424 0.28762192
-0.24892682 0.10627485 0.05187457 -0.016862674 -0.26183143 -0.009434677 -0.28538498 0.22415589
-0.19897316 -0.13922308 0.38258305 -0.0239983 -0.28395584 0.12704284 0.11376263 -0.2626807
-0.2401186 -0.33801526 -0.27927893 0.050963268 -0.44818044 -0.3810498 0.1885482 -0.37357527
-0.073451795 0.046770126 0.30918878 -0.0071340585 0.11440888 0.29433143 0.06265654 0.32768205
-0.10239023 0.364386 -0.36673796 0.29112816 0.15120147 -0.011250514 0.40590453 0.23867056
0.040216852 -0.09841431 0.4038077 0.03337214 0.12546581 -0.015551937 -0.14927666 -0.17355992
0.29538164 0.16895567 -0.035557874 0.0909235 -0.12436117 -0.048714954 -0.18801577 0.10031417
0.20943828 -0.42570016 0.32189453 -0.10724854 0.32221568 0.32932004 0.09644579 0.30283502
-0.07479882 -0.4855911 0.023528052 -0.2050075 -0.16112457 0.034748703 -0.23863003 0.12222987
-0.31762266 0.25124115 0.19232325 -0.22967455 -0.09484521 -0.043797832 0.24080345 0.27897376
0.15399571 0.057468228 -0.04938626 0.36189866 -0.17358385 -0.1324701 0.024352148 -0.24867892

encoder.convs.0.edge_mlp.0.bias f4 [128]
00000000: a07a e03d 244e 1f3e 3497 7abe 1a5b 033d
00000010: f921 a6bd 87bb 6d3e 1031 56bd 5f5b 43be
00000020: 5cf7 473e e85f 15be 73fc 16bb 0bb2 13bd
00000030: 6c6b 403e 8789 bdbc 9770 203e 42c7 4fbe
00000040: 8742 083d f647 a63e 13b6 37be 6c52 62bd
00000050: c26a 27bd d150 f63d f3c5 debd 019b f43d
00000060: 0103 d6bd 81c4 d73c 0fe1 a23e 69e5 933e
00000070: cd33 c2bd e819 2abe 59a4 2fbe c9a9 3bbd
00000080: 388d 4f3c d202 093e 373e 62bd ecce 273e
00000090: 70df 89ba 3537 9c3d 515c a83e f76a 193d
000000a0: 8fcf 213c 3923 6bbd 4064 733e 8e32 8abe
000000b0: 1491 15be b436 a43d b8f2 5a3e 9387 afbe
000000c0: 3430 dfbc 9378 a13d 15a0 983e abf3 303e
000000d0: 7fe4 983e a5c9 c3bd 6977 a0be 431f af3d
000000e0: aa33 6f3e 1041 c33c 63bc cf3d 77f4 a23e
000000f0: e9d5 9dbe acca 803d 9b14 de3d b85b e13c
00000100: a1d7 c7bd 2fc6 f6bd 36ba 483e 5216 8b3d
00000110: 49c6 fa3d dedd b13c 9364 43be b850 2d3e
00000120: 0cf6 1fbe 4628 3cbe 9512 25be e37c 92be
00000130: bc8c 7fbe a439 4a3b 03c4 aebe 5462 643e
00000140: e2bb 73be 2813 d63d 7702 203e 6f9e f7bd
00000150: bf59 e73d fb79 9e3e 6396 a8be 82c3 a93c
00000160: bbd3 843e 4df4 ae3e 2da9 ee3d b5e5 a03e
00000170: b822 0cbe eb18 a63e 4208 c83d 3b1c 7fbe
00000180: 44cc 473e 3deb 8d3e 6788 91be 7823 2f3e
00000190: 169c b83d 7936 883e d721 90be dbfb 2f3e
000001a0: 273f bb3e 6585 a2bd 7c3b fb3d d752 95be
000001b0: b1db 833d 246a 56be 603d 9cbe f72c 533e
000001c0: ebe7 2c3e e0e7 3a3e f231 8a3e a247 8ebd
000001d0: f5ed 65be 721c 5c3e 360d 8f3e db5c 85be
000001e0: 5e6e 67be 2cf3 3cbe cadf 68be 7f4e 473e
000001f0: 9f57 88be 5435 ca3d 8f88 173d cc58 64be
0.10960889 0.15557152 -0.24471742 0.032069303 -0.081119485 0.23216067 -0.052292883 -0.19077824
0.19527954 -0.14587367 -0.0023038655 -0.036058467 0.18790978 -0.023136867 0.1566795 -0.20290855
0.03326657 0.32476777 -0.1794055 -0.055254385 -0.040873297 0.12027133 -0.108775996 0.11943627
-0.10449792 0.026338818 0.3181233 0.28885964 -0.094825365 -0.16611445 -0.17152537 -0.045816217
0.0126679465 0.13379982 -0.055235114 0.16387528 -0.001051886 0.076277174 0.32882932 0.037455525
0.009876146 -0.057406638 0.23768711 -0.26991695 -0.14606124 0.08018246 0.21381652 -0.34283122
-0.027244665 0.07884326 0.29809633 0.17280452 0.2986183 -0.09559945 -0.31341103 0.085508846
0.23359552 0.023834735 0.10143354 0.31827137 -0.30827263 0.062886566 0.10843774 0.027509555
-0.09757925 -0.12049519 0.19602284 0.06791367 0.12244851 0.02171224 -0.19081335 0.16925323
-0.15621203 -0.18374738 -0.1612037 -0.28610906 -0.2495603 0.003085711 -0.3413392 0.22303134
-0.2380214 0.104528725 0.1562594 -0.12090766 0.112964146 0.3095244 -0.32927236 0.020723108
0.25942788 0.34170762 0.116533615 0.31425253 -0.13685119 0.32440886 0.097672 -0.24913113
0.19511515 0.27718535 -0.2842438 0.17103374 0.09014146 0.2660406 -0.28150818 0.17185919
0.3657162 -0.07935599 0.12267205 -0.29164764 0.06438387 -0.20938927 -0.30515575 0.20622621
0.16885345 0.18252516 0.2699123 -0.069472566 -0.22454055 0.21495226 0.27939767 -0.26047406
-0.22600695 -0.18452138 -0.22741619 0.19463538 -0.2662935 0.09873453 0.036995467 -0.22299498

encoder.convs.0.edge_mlp.2.weight f4 [128, 128]
00000000: ccb6 1abc e16d ae3c 068f 97bd 3c0d eebc
00000010: f34e 75bb b87e 91bd 1e79 f6ba 0711 debc
00000020: 2577 05bd 7d0c 2bbe 0509 263d 6da9 3b3d
00000030: b004 013d 6f94 743d 209b 623d b34c db3d
00000040: 688c 1b3e 7658 b23c af72 7fbd e3fd 39bb
00000050: 7ff8 d7bb 3a78 093d 891c 19bd 7cef 07bd
00000060: b12f b23d d4aa aa3d 1c35 65bd 7897 383d
00000070: e0e2 bfbd 7f24 d9bc 8de3 a83d 369a 793a
00000080: a9c6 5bbd 26ba be3c f602 bc3d 9949 19bd
00000090: b026 86bd f56a c8bc 3a4c b43d da76 543d
000000a0: 65f9 4b3d 7632 e3bd ada6 543d e4a7 a0bd
000000b0: be9d 0cbe 0e68 e93b 8737 18bd 3ec9 2cbd
000000c0: 4ecc af3d 7993 373e 9a5d 8cbd 902c 8c3c
000000d0: cd30 54bc d92f b4bd 082f a7bc 2415 38bd
000000e0: 2068 86bd 94b7 d23d d5bf 453e 4179 333d
000000f0: 91b9 86bc 1ec1 c5bc 47cb b73d 0e52 e1bd
00000100: a96e 25bc f8b4 373d 57a0 973d 6585 36bd
00000110: 5ba0 a6bd f288 323e 5e12 d83b 9889 79bc
00000120: 9013 453c 127a 8fbd 419a 913c cfac aa3d
00000130: 39f4 8ebd 0ed4 69bd ddb1 3fbd 8cba 06bc
00000140: 4905 e93d 974f cfbb 144b ee3d 7326 d53d
00000150: 9fb0 b13c ba23 90bd a4e8 50bd a0f4 9a3d
00000160: cbca 1d3c bbec 39bd bcf2 cc3d dcbc 93bd
00000170: 3a6f 40bd df07 aa3d 0aaa 3d3c bf03 423c
00000180: 156c b5ba 87bf e13b 5a05 90bc cb5f bebd
00000190: c978 103c fbac 92bd 6a2b 91bc 8fc6 67bd
000001a0: bb07 883d 298b aebb e992 d93d 9dbc 53bd
000001b0: 767b bfbd 930f f83d f4e6 6eba 5944 393e
000001c0: 6ce5 66bd cc97 b93c dad8 dd3c 435d 563d
000001d0: 0b7c 553c 1f52 46bd 433b f0bb 1d56 97bc
000001e0: 2fc8 5b3c f852 93bd 289b 953d 6a1d 183d
000001f0: 30dd 96bc 4f26 87bc e4f6 02bc 5466 b0bb
00000200: 50c7 ddbc d399 71bd 7e02 73bd df26 eb3b
00000210: 6027 ac3d 256a aa3d 3bb1 783d 4480 2ebd
00000220: 9589 38bc 9bd4 88bd 2cae 803d 5a56 9cbb
00000230: 32ee 993d 67e3 e7bd a9e2 1bbe f402 01be
00000240: 0836 efbc ba2d e4bc e6bf 19bd ffaa 423d
00000250: 4e59 f63c a205 6d3b 7d5e a2bd ff6b 80bc
00000260: 2eee bb3c f482 fb3c 63fd 26bc 5d75 0ebd
00000270: 1211 8a3d 143f 71bd c0db 30be 62cc c0bc
00000280: a23e 593d 8554 a73c 91c2 493d 97f3 043d
00000290: 04ba 0b3e 8de6 8e3d 8006 6e3d 7fe3 ec3d
000002a0: 9354 d8bd cd50 debd f515 13bd 7f56 78bd
000002b0: 4498 0c3e b4cf fa3c d23e a0bc 6606 b6bc
000002c0: c0ec 38bd 175a 26bc 5270 cd3d f2eb 39bd
000002d0: 2643 f93c 507c f23b cb16 ab3d d901 033b
000002e0: c0af 07bc df53 343d f5f7 7dbd 53e6 5abd
000002f0: bd9b 51bd b0ed 253d 92de 67bc bd3a 4a3d
00000300: 87c4 90bc cc81 31be b1a0 fdbd e53f bbbd
00000310: 4c52 19bd 1889 443d 80ec fbbc b731 d93d
00000320: bb76 bd3d b477 63bc 9c0e cb3d 6b6d ae3a
00000330: bc61 a93c db6f 9abd a0b3 edbd 1818 763d
00000340: 2f9c 503d 38f8 cabc 9318 813d 821b 1dbd
00000350: ddb6 d8bd ecc9 b93d fde6 ecbd 0856 2b3c
00000360: 2787 6f3d cd64 5a3c 9703 5c3c e4f4 0bbe
00000370: 0f45 123e 1ac4 3dbc 7b6e 373d c693 2ebd
00000380: f029 ddbc abaf 5ebd ff81 d93d 147f 97bd
00000390: 6c34 c8bc 3eef b43d eabb e3bc 8f8c 08bd
000003a0: 37ae c8bd fb37 02be 432e 3bbd f744 523d
000003b0: 7fd2 fa3c c0eb 5ebc b816 623d 77a8 563d
000003c0: 33fd 123d cac6 abbd 4359 093b 9496 5dbd
000003d0: 4818 7dbc 666c 643d f667 473d d006 a43c
000003e0: 4be7 b1bd eec9 81be 5c54 113c f3ef 503d
000003f0: 47ac ddbc df55 00bd 11b5 7b3d 2144 a1bd
-0.009442996 0.021292629 -0.074003264 -0.029059045 -0.003743109 -0.07104248 -0.0018804406 -0.027107729
-0.03258433 -0.16703983 0.040535945 0.045815874 0.03149861 0.05971187 0.05532372 0.107079886
0.1519028 0.021770697 -0.06236523 -0.0028380088 -0.0065909023 0.033561923 -0.03738073 -0.033187374
0.08700503 0.08333364 -0.055958852 0.045066327 -0.09369445 -0.02650666 0.08246527 0.00095215754
-0.053656254 0.023282122 0.09180252 -0.037423704 -0.06550348 -0.024465064 0.088036016 0.05187116
0.049798388 -0.11093609 0.051916767 -0.078445226 -0.13732049 0.007123 -0.03716233 -0.042184107
0.0858389 0.1792735 -0.068537906 0.017111093 -0.012951088 -0.08798189 -0.020408168 -0.044942036
-0.06562829 0.10288921 0.1931146 0.04381681 -0.016445907 -0.024139937 0.08974319 -0.11001979
-0.010097184 0.04485032 0.07403629 -0.04456081 -0.08136054 0.17435053 0.0065939864 -0.015230559
0.01202859 -0.07005705 0.01777375 0.08333742 -0.069801755 -0.057086997 -0.046800483 -0.008223187
0.11377961 -0.0063266265 0.11635414 0.10407724 0.021690665 -0.07038064 -0.051003113 0.0756619
0.009630869 -0.04539178 0.100072354 -0.072137564 -0.046981074 0.083022825 0.011576185 0.011841713
-0.0013841415 0.006889287 -0.017580677 -0.09295615 0.00881786 -0.071619 -0.017720897 -0.056585845
0.066420995 -0.005326648 0.10623724 -0.051693548 -0.0934972 0.121123455 -0.0009113394 0.18092479
-0.056371137 0.02265539 0.027080942 0.052335035 0.013030062 -0.04841816 -0.0073312833 -0.01847368
0.013414427 -0.071935594 0.07304984 0.037137426 -0.018416017 -0.01649776 -0.007993434 -0.005383292
-0.027072579 -0.05898459 -0.05932855 0.0071762647 0.08405948 0.08321027 0.060715895 -0.042602792
-0.011263271 -0.06681176 0.06283221 -0.004771036 0.07516135 -0.113226704 -0.15223183 -0.12598783
-0.029200569 -0.027853835 -0.037536524 0.047526356 0.03007188 0.0036166687 -0.079281785 -0.015676497
0.022940721 0.030702092 -0.010192248 -0.034779895 0.06741537 -0.058898047 -0.17271328 -0.023534957
0.053038247 0.020426044 0.04925782 0.032458868 0.13645178 0.06977568 0.058111668 0.11566829
-0.10563006 -0.10855255 -0.03590961 -0.060629364 0.1372996 0.030616619 -0.019561205 -0.022219848
-0.045147657 -0.010153315 0.10031189 -0.04539103 0.030427527 0.007400073 0.08353957 0.0019990115
-0.008281648 0.0440253 -0.06200405 -0.05344231 -0.051173914 0.04050988 -0.014152186 0.049372423
-0.017671837 -0.1733467 -0.12384165 -0.09143046 -0.037432 0.047982305 -0.03075242 0.106051855
0.09251162 -0.01388352 0.09914896 0.0013307756 0.020676486 -0.07540866 -0.116065264 0.06008157
0.0509302 -0.024776563 0.06303515 -0.03835631 -0.105817534 0.09071717 -0.11567495 0.010457523
0.0584785 0.013329697 0.01342859 -0.13667637 0.14284156 -0.011582399 0.044783097 -0.042621396
-0.026997536 -0.05436675 0.10620498 -0.07397285 -0.02443906 0.08834694 -0.027799565 -0.033337172
-0.09798854 -0.12716667 -0.045698415 0.0513353 0.03061795 -0.013606012 0.055197448 0.052406754
0.035886 -0.083875254 0.0020957745 -0.05409868 -0.015447684 0.05576744 0.04868313 0.02002278
-0.08686694 -0.25349373 0.0088702105 0.051010083 -0.027059687 -0.031331893 0.061451975 -0.07874323

encoder.convs.0.edge_mlp.2.bias f4 [128]
00000000: d455 eb3c 3b7b 88bd 6fd1 fc3b 1693 013d
00000010: 52e7 32bd dd13 fd3c 692e d4bc fb0f 9fbd
00000020: 1c77 84bd 8dcb 86bb eba9 abbd a117 9e3d
00000030: a7bc f23c a849 a73d 9f9a 3dbc 2a82 703d
00000040: 9aff 8ebd 38e8 143d 346e 1d3d 194c 293c
00000050: 4f31 32bd aa82 00bd 3953 e7bc ae7e 9d3d
00000060: 9877 843c 96d0 f1bc 08f5 ccbc 9af8 053b
00000070: 6ac8 973c 4d66 a83d 9e68 3d3d ca01 793d
00000080: d994 1dbd bdb6 b83c cf9d 693d ff32 6f3d
00000090: df51 873a c287 a33d 34d2 43bd 040e 9ebd
000000a0: 26c9 823c af82 6d3d 6acf 283d fb2a 87bd
000000b0: 4726 9f3d 7e89 9bbd 6665 773d 8538 98bc
000000c0: e84e a33d 9266 2a3d 23e9 513d c0cc 30bb
000000d0: 0420 a4bd 4de3 8abd cb55 84bd 9f1d 20bd
000000e0: 5255 3abd efe0 ba3c 0bcd 94bd 92c7 8dbd
000000f0: b7cb 903b fb9a a3bc 339b 6abc 1c7a a8bd
00000100: ab87 89bd 2b10 abbd e280 5dbd e9de 8abc
00000110: 5de7 88bd a3ac 90bd e529 aabc f758 893d
00000120: 238f 933d 9ab2 9ebc 12db 81bd 7895 9c3c
00000130: 1736 acbd 8fb8 80bd 88c2 8abb 40b7 bd3c
00000140: 83fe 03bd 52ac 8ebc 3603 1b3c e57f 8cbc
00000150: 6ae8 d83c 34bd 083d 46c6 4ebd 8c76 e1bb
00000160: 2c78 9ebd 34b8 1abd d4c2 bcbd a989 7cbd
00000170: 06fa 7bbd a13a 0f3c 09b1 87bc 1bd6 5b3c
00000180: 2e75 673d b6f7 723c 86ad e738 8ab3 093d
00000190: 7e3f 55bd 06ce bebb 9f5c ba3c 02c4 843d
000001a0: 791e a93d a000 90bd 13cc 333c c3a6 9f3d
000001b0: ffb3 603c 8e73 a4bd ae2d 713d 1de4 92bd
000001c0: 8d06 86bd f374 72bd 0640 7e3d 314d a13d
000001d0: edf5 f0bc 752c fe3c fbec b93c 7462 babd
000001e0: 99b0 4dbd 7ac4 09bd b259 de39 39a2 d0bc
000001f0: ff75 4b3d 4023 48bd f20f 1ebd fe81 85ba
0.02872745 -0.06664129 0.007715396 0.031634413 -0.043677635 0.03089326 -0.025901036 -0.0776672
-0.06468031 -0.0041136206 -0.08382019 0.077193506 0.029630972 0.08168346 -0.011572509 0.058717884
-0.06982346 0.036354274 0.038435176 0.0103330845 -0.043504056 -0.03137461 -0.028237926 0.07690178
0.016170308 -0.029518407 -0.025019184 0.0020442368 0.018528182 0.08222637 0.04624235 0.06079272
-0.03847203 0.022548074 0.057035264 0.058398243 0.0010324082 0.07984878 -0.047807887 -0.07717517
0.015965056 0.057985958 0.04121343 -0.06599995 0.07770973 -0.07594584 0.060399435 -0.018581638
0.079740345 0.041601725 0.051247727 -0.002697751 -0.08013919 -0.067816354 -0.06461676 -0.03909075
-0.045491524 0.022812335 -0.07265671 -0.06922831 0.004418816 -0.019971361 -0.014319229 -0.082264155
-0.0671533 -0.08352693 -0.05407799 -0.016951995 -0.06684754 -0.07064178 -0.02077193 0.06706422
0.072050355 -0.019372273 -0.063406125 0.019114241 -0.08408754 -0.06285202 -0.0042346157 0.02315867
-0.032225143 -0.017416153 0.009461215 -0.017150829 0.026478011 0.033383563 -0.050482057 -0.006880587
-0.07737765 -0.037773326 -0.09216848 -0.06165472 -0.061517738 0.008742006 -0.01656391 0.013417746
0.056508236 0.014829567 0.000110472596 0.033618487 -0.052062504 -0.0058228998 0.022749243 0.06482698
0.08257765 -0.07031369 0.010973948 0.07795479 0.013714789 -0.08029853 0.058881454 -0.071724154
-0.06544218 -0.059193563 0.062072776 0.07876051 -0.029414142 0.031027058 0.022696009 -0.0910081
-0.050217245 -0.03363464 0.00042409968 -0.025467979 0.049673077 -0.048861742 -0.038589425 -0.0010185835

encoder.convs.0.norm.weight f4 [128]
00000000: bdbe 6d3f 70ce 803f 0792 743f c705 783f
00000010: 8da2 773f 61da 753f 52bf 783f f09e 6b3f
00000020: 41b4 703f 870d 723f a45c 753f 5648 6e3f
00000030: a6c2 713f e902 713f 97d4 6f3f 0f14 773f
00000040: 4295 6f3f 7b04 703f c2ce 713f 5ed7 723f
00000050: 7ad7 6c3f cfbb 773f baac 773f 47f6 693f
00000060: 43ef 723f 934f 713f 5a40 703f 807a 743f
00000070: f9df 6a3f f0b4 7f3f 0e95 713f fccb 743f
00000080: a256 6d3f d5f6 6b3f e81e 7c3f 81f9 713f
00000090: e888 6d3f 9546 6e3f 9a3e 703f 3433 6a3f
000000a0: 08b0 6f3f cc20 753f 3f71 703f 6195 6e3f
000000b0: 39cc 7b3f 6a07 6e3f 9db4 6a3f 3e21 6f3f
000000c0: a7f2 6c3f 6a60 6d3f 7194 693f c76c 803f
000000d0: 2e23 743f c746 6f3f b2a7 813f 8b26 743f
000000e0: 7db7 6e3f 97ed 703f f092 743f 5387 723f
000000f0: 46d5 6c3f 6567 6b3f 412f 6c3f 9d3d 813f
00000100: 017d 6d3f 30b7 6e3f fbe7 6b3f 52c5 6f3f
00000110: 8d34 6e3f 33ac 743f f37e 833f aa32 723f
00000120: 94f4 6f3f d5a1 6b3f a95b 6f3f dc31 743f
00000130: 4a13 733f 64f1 6c3f c3be 6d3f 86a7 6c3f
00000140: 3308 723f 0497 6f3f bee5 6e3f 1c94 723f
00000150: 80f3 6a3f 5b1f 6f3f 2b6e 753f cf3e 763f
00000160: 5237 773f bbdb 763f c8cc 6b3f 5f1b 723f
00000170: 690e 6b3f e3dc 713f 3a1e 723f f83e 6d3f
00000180: bf14 723f adf6 803f cdde 803f 70df 7c3f
00000190: 131f 6c3f 7afc 6a3f 73fe 693f d573 773f
000001a0: be5d 723f 099a 6b3f f38f 773f 819e 6b3f
000001b0: b117 753f 7f1b 6d3f 636e 773f f0d7 723f
000001c0: e3a3 6c3f 7f66 6f3f 9fc9 723f fe96 6e3f
000001d0: 047e 713f 0d90 6c3f 5ef6 763f 671a 713f
000001e0: 4f5b 6f3f a705 6b3f 1c8d 6e3f d68d 733f
000001f0: af0a 6d3f 5682 6e3f c911 6d3f 9c0d 6b3f
0.9286917 1.0063 0.9553532 0.96883816 0.9673241 0.96036345 0.9716693 0.92039394
0.94025046 0.9455189 0.95844483 0.93079126 0.94437635 0.94145066 0.9368376 0.9651498
0.93587124 0.93756837 0.9445611 0.94859874 0.9251629 0.9677095 0.96747935 0.91391414
0.94896334 0.94262046 0.9384819 0.9549942 0.91748005 0.99885464 0.94368064 0.95623755
0.92710316 0.9217351 0.9848466 0.9452134 0.9278703 0.9307645 0.9384552 0.9148438
0.9362798 0.9575317 0.939228 0.93196684 0.98358494 0.9298006 0.91681844 0.934101
0.9255776 0.9272524 0.9124213 1.0033196 0.9536618 0.9346737 1.0129302 0.9537131
0.9324873 0.94112533 0.9553671 0.9473774 0.9251293 0.9195464 0.92259604 1.0096928
0.92768866 0.9324827 0.9215085 0.9366046 0.93048936 0.95575255 1.0273117 0.9460856
0.9373257 0.9204381 0.9349924 0.9538858 0.9495131 0.9255583 0.92869204 0.9244312
0.9454376 0.93589807 0.9331931 0.94757247 0.917778 0.9340722 0.9587123 0.9618959
0.9656879 0.9642903 0.92109346 0.94573015 0.91818863 0.9447767 0.9457737 0.9267421
0.94562906 1.007528 1.0067993 0.9877844 0.92234915 0.917915 0.91403884 0.9666112
0.9467429 0.92031914 0.96704024 0.9203873 0.95739275 0.9262008 0.9665281 0.94860744
0.9243757 0.9351577 0.948389 0.93199146 0.9433291 0.92407304 0.96469676 0.9418091
0.934987 0.918055 0.93184066 0.951383 0.92594427 0.93167627 0.92605263 0.9181764

encoder.convs.0.norm.bias f4 [128]
00000000: 845c 77ba e888 90bc 5f4c e03c 41f7 fbbc
00000010: 0cfb 4a3c 74b8 253d e6b4 aabc 4709 1cbc
00000020: 4f6b f13c 5b08 c03c 6b3a a03c 7b8c 47bd
00000030: a2dd 573d 6d61 ef3d 5cd2 d63b d9d0 babc
00000040: 0dee dc3c fea0 033b d348 97bb 9c8b b9bb
00000050: 0d5c 0f3d 59c2 9bbc 2964 b9bc eeed 3dbd
00000060: 3da7 5cbd 7e32 18b9 f8db 5abd f942 c1bd
00000070: 9c11 203d 840a cbbc 8c07 b43c ab8e 6fbd
00000080: b1a0 ea3c aa6e abbc 345a 96bc bf48 683c
00000090: 02f1 603c 4bef 81bc abe0 183d 6396 d5bc
000000a0: 5a3d adbd 5b7e 31bd 369f be3c 4748 53bd
000000b0: 9e01 1b3d 064b 223c c587 8fbc 4004 ed3c
000000c0: 14eb 14bc bb6c 2e3d b143 f53b f6b3 63bb
000000d0: d552 72bd cbd6 3abc 01e5 a73c 7ba3 663c
000000e0: 2202 91bd c12a 67bd 7971 48bd 07d1 57bc
000000f0: 92eb e33b 332d 6abd 96a9 06bc e6c7 c53b
00000100: 6a60 0f3c c12d 0fbd 4ef8 d03c 9956 e43d
00000110: fb82 7e3b 2975 153c a236 903b 62fe 1ebb
00000120: 37d7 4d3d 089e 37bd 8404 4ebd cfed 6dbc
00000130: 5b6a 4b3d a412 883c e6e3 103d c2cc 1bbd
00000140: 8fe4 88bb e7b7 a3bd 69c5 d2bd b31f 2cbd
00000150: ae13 97bc c43e 203c f59e 253d a268 a0bd
00000160: 4a92 39bd 5e8c 69bd cf71 0a3d d5e1 cabc
00000170: a81a 7fbb 2284 393d f1b7 8b3a 14a8 06bc
00000180: 81c0 873a 56fb 8d3b 514e b83c dbec ab3c
00000190: a85c 70bc b24f 2c3d df40 b43b b5cb 88bc
000001a0: c528 8c3c d22e 59bd 5882 2abd 3a0a f2bc
000001b0: 0227 8cbc 2cf3 2abd ca28 ba3b dd71 823d
000001c0: fbd8 d13c 925e 87bc 08c2 ad3c 5abd 743d
000001d0: 4576 2cbd 09ea 57bb 3e51 d4bb c501 f63c
000001e0: 763a 2bbb f30a 9fbb bdf7 52bd 58d9 1dbd
000001f0: ea29 623b 3fd6 49bd 2949 ad3b dad9 ca3c
-0.0009436088 -0.017643407 0.027380167 -0.030757548 0.012388956 0.04045911 -0.020838212 -0.009523696
0.029470114 0.023441484 0.019559106 -0.048717957 0.0527016 0.11688504 0.0065558385 -0.022804664
0.02696898 0.0020084972 -0.0046168356 -0.0056623947 0.034999896 -0.01901357 -0.022630768 -0.046369486
-0.05387043 -0.0001451466 -0.053432435 -0.09436602 0.039079294 -0.024785288 0.021976255 -0.05848567
0.028641077 -0.020926792 -0.01835356 0.0141775 0.013729336 -0.015861174 0.037323635 -0.026072687
-0.084589675 -0.043333393 0.023269277 -0.0515826 0.03784334 0.009905582 -0.017520795 0.02893269
-0.00908925 0.042584162 0.007484876 -0.0034744716 -0.059161026 -0.01140375 0.02049494 0.014077063
-0.07080485 -0.056437258 -0.04893634 -0.013172395 0.0069555724 -0.05717201 -0.008219143 0.0060357926
0.008751014 -0.034955744 0.025509026 0.1114933 0.0038835395 0.009122171 0.004401044 -0.002426051
0.050254073 -0.044828445 -0.050297275 -0.01452203 0.049661975 0.016610451 0.03537359 -0.03803707
-0.004177637 -0.07994061 -0.10291559 -0.04202242 -0.018442001 0.0097805895 0.040434796 -0.07832457
-0.045305528 -0.05701863 0.033799943 -0.024765888 -0.00389258 0.045292027 0.0010659677 -0.008218784
0.0010357053 0.00433294 0.022498282 0.020986965 -0.0146705285 0.04206819 0.0055008973 -0.016698698
0.017109284 -0.053023167 -0.04162821 -0.029545892 -0.017108444 -0.041735813 0.005681132 0.06369374
0.02561616 -0.016524587 0.021210685 0.059750892 -0.042104978 -0.0032945892 -0.0064794114 0.03003014
-0.0026127375 -0.0048536 -0.051505793 -0.038537353 0.0034509846 -0.049276587 0.0052882624 0.024762083

encoder.convs.0.norm.mean_scale f4 [128]
00000000: 54b5 753f 13b2 763f e424 713f 48bf 643f
00000010: 38ce 6b3f c9db 823f 18f4 653f 3578 793f
00000020: 9c46 743f 6209 663f 62b0 723f 5d79 7f3f
00000030: c99a 773f f3fc 8f3f 03b5 6f3f 916b 6f3f
00000040: 2973 703f 116e 773f bb2c 7f3f 93fc 783f
00000050: cbd6 743f ecf4 6b3f 68d4 643f 5e16 843f
00000060: 80a2 593f c82c 713f e9dc 6e3f 0234 8d3f
00000070: 0695 7c3f 1c13 6b3f e6b9 6c3f b3c3 7b3f
00000080: 7b15 833f 559b 803f 2448 6b3f 3185 753f
00000090: 9589 753f 7664 683f 345f 703f 3397 7a3f
000000a0: 9c39 873f 2888 743f b725 7a3f 9028 823f
000000b0: 0d89 7d3f 7fc6 793f a460 833f 0974 743f
000000c0: fa9b 7a3f 1193 693f 0088 743f ebac 613f
000000d0: 2b62 5d3f f105 703f 1772 5d3f bf3b 663f
000000e0: fe76 6f3f 78d5 7c3f 851b 7a3f cbe5 713f
000000f0: b295 783f d141 653f 0a87 703f 03e9 733f
00000100: 7f6a 743f c242 763f 290a 733f 2203 8f3f
00000110: d1d3 803f 14c4 693f 4cb1 7e3f 14b4 723f
00000120: 90ac 793f 2c92 783f 7f83 813f 6e98 5c3f
00000130: 5df0 763f 95e4 703f 6315 833f aaf9 833f
00000140: db35 6b3f 1d61 833f 4520 823f 83fe 5a3f
00000150: 6e1d 793f cb49 773f 44f9 753f b880 873f
00000160: a613 7a3f 3a18 873f 4b8e 823f a02e 763f
00000170: 8a9a 663f 606d 793f 2298 623f 531a 703f
00000180: 0b5a 6d3f 2340 6a3f d135 733f 9618 623f
00000190: 946f 7a3f 232c 613f ce23 7e3f 919f 803f
000001a0: e510 823f 2d50 853f 9e47 843f 7273 803f
000001b0: e98a 683f 4d2d 733f 3221 663f ff74 7c3f
000001c0: e6e5 763f 2e30 6d3f 356b 673f a0a1 683f
000001d0: 7efc 6f3f 92e1 763f c840 683f f3c5 7b3f
000001e0: 206f 6f3f 2643 803f c056 833f bddb 6f3f
000001f0: a6df 753f e1cb 663f e8ea 6b3f 5d67 793f
0.9597981 0.9636547 0.94196916 0.8935437 0.9211154 1.0223323 0.8982558 0.97449046
0.9542024 0.8985807 0.9480039 0.9979456 0.9672056 1.1249069 0.93635577 0.9352351
0.9392572 0.96652323 0.9967763 0.972604 0.9564025 0.92170596 0.89386606 1.0319326
0.8501358 0.94208956 0.9330583 1.1031497 0.9866489 0.91826034 0.9247116 0.9834549
1.024093 1.0047404 0.9190695 0.9590636 0.9591306 0.9077829 0.9389527 0.9788696
1.0564456 0.9552026 0.977138 1.0168629 0.9903725 0.97568506 1.0263867 0.95489556
0.9789425 0.9124003 0.9552002 0.88154477 0.8647792 0.93759066 0.8650221 0.89934915
0.9354094 0.9876323 0.9769824 0.9449126 0.97103417 0.8955355 0.93956053 0.9527742
0.95475 0.96195614 0.9493738 1.1172831 1.0064641 0.91314816 0.99489284 0.9480603
0.97528934 0.9709804 1.0118254 0.8617009 0.96460515 0.9409879 1.0240902 1.0310566
0.9187905 1.0264012 1.0166098 0.85544604 0.9731053 0.96596974 0.96083474 1.0586157
0.9768623 1.0554268 1.0199674 0.96164894 0.9007956 0.9743252 0.88513386 0.9379017
0.9271552 0.91504115 0.9500399 0.88318765 0.97826505 0.8795797 0.99273384 1.0048696
1.0161406 1.0415093 1.0334356 1.0035231 0.9083696 0.94991 0.898944 0.9861602
0.9644455 0.9265164 0.9039796 0.9087162 0.9374465 0.96437943 0.9072385 0.9834892
0.9352894 1.0020492 1.0260849 0.9369467 0.96044385 0.90154845 0.92155313 0.97423345

encoder.convs.1.node_mlp.weight f4 [128, 256]
00000000: 6c23 54bc aa22 9dbc c00d cbbc 0bb0 3c3d
00000010: 1e06 5b3d ff01 8cbc f028 99bc ccd5 803d
00000020: 66ef 813b 6b8c 82bc 4b9e 5abd 997e ff3c
00000030: 5348 11bd de88 0fbc 75f3 abbc 1e99 133c
00000040: a3e0 673d 8766 a73c 3956 f13a 5d0b 97bc
00000050: 3fc4 d13a 9338 783c 3400 193c efb3 14ba
00000060: e894 21bc d964 2a3d 841e 62bd dd0c 733d
00000070: 829f 963c 94ed 4ebd dd12 753d 5114 8dbc
00000080: dafb 35bd e173 0fbd 3938 653c 6096 6dbd
00000090: 9c0d 82bc 301f 9c3c 0c36 6ebd 3bd4 533d
000000a0: 2b05 fd3c 5ece 5f3d ce18 2f3d a155 743c
000000b0: 88ba 20bc 38fc 6dbd f623 ebbc 47ed 133c
000000c0: bd56 053d a375 5c3d a7b3 a03c ccf0 d83b
000000d0: b47d 253c 47d9 e83c ac39 703d 4c15 013d
000000e0: 37f5 f2bc 8e20 e8bc edf6 283c 63bb 863c
000000f0: ff91 87bd 64c7 193d 0d6d 6b3d d207 913d
00000100: 43e6 263d 311d 8f3d bde5 293b a615 e9bc
00000110: 048e c33b b4e0 b73c 8506 933c 96ba 0d3c
00000120: 7390 0dbc e098 18bd a629 683c e392 61bc
00000130: e2e2 90bc d2e3 39bd dd7f 00bd 635a e0bc
00000140: 72bd f53c aa1d 263d d0e1 43bd 268b bc3c
00000150: e2cb 883c a713 85bc e2ca 52ba 0336 b03c
00000160: 6d4c 303d a729 02bc 8b8e ecba 9c59 ee3c
00000170: 8c3e 38bd 5814 51bc a03b c7bb ce34 393d
00000180: cdb7 a93b 51ec 4fbd d317 ddbc 2928 423d
00000190: 7845 eb3c e273 febb 976e 603d 924a 35bc
000001a0: b57a 77bd e299 833c 6686 7f3c e304 8dbc
000001b0: 1af7 ef3c febe b3bc 31fe 07bd b172 5f3d
000001c0: 5725 cc3c e370 30bd 6b79 413c 5ef8 133d
000001d0: 6b0c 193b 2c2e 84bc 75d4 e0bc e6bc a5bc
000001e0: 237f 28bd bc68 593d 84bb aa3d 1111 263d
000001f0: ac96 71bc 497a abbc c9a7 fe3b 6208 0d3d
00000200: e52c acbd 1259 b3bc bdf7 f2bc b761 ddbb
00000210: 1c0b cfbd 9ef8 133c fd7a 76bd a631 163d
00000220: 1777 873d ff44 d6bd d35d ccbd 16a5 0f3d
00000230: 277c 7b3d e47b f8bd 0bdb 643d fbd8 e3bd
00000240: f9a1 6e3d 5792 bf3c b10c ac3d 68de fa3c
00000250: 2511 f5bc 0c1f 2c3d d8b9 63bd 6c68 063e
00000260: 5bd6 a03d 2c65 6abd 0487 033d 5ec2 9abd
00000270: 78b2 c03d 7a50 aa3a f956 91bd a7f9 8abd
00000280: 0701 3bbd e73e e53c 32cc 353d 6887 aa3c
00000290: ebb5 f6bb 27fd 2b3e a458 e8bc 139c f73c
000002a0: 236f e4bc c368 b83c 84ed 4cbd 3658 1dbd
000002b0: d31e ef3c 7290 71bc ca61 453d 6e3f 6cbd
000002c0: 7ead 61bd a887 9e3d ecae 27bd a160 54bd
000002d0: 0009 283d 71e7 8abc 3218 4cbd 88a6 efbd
000002e0: 942d 7ebd edaf a03d 8d9d 9dbd c001 47bd
000002f0: c5d1 07bc 884c 44bd e901 15bd fd25 dc3d
00000300: 712f d23d c267 9cbd 8112 71bd b791 4139
00000310: b5ad be3d 4561 dabc d0bf 343d cb10 3a3c
00000320: f27f 243d 65a1 3f3a ac16 123d 6137 003d
00000330: cca2 8bbd 65aa 2dbd 258c 993c 8597 9d3c
00000340: e7dc 6d3c 5553 ecbd 1e86 6a3c fac1 51bd
00000350: a409 c83d ab02 833c 035e a83d 2c13 ed3c
00000360: 7f53 453d cb49 37bd 69b7 9abc 6fa2 3a3a
00000370: 55f4 93bc ef79 eb3d c067 aabd 8386 4cbd
00000380: a69a f23d b40d a3bc b8b2 92bd 3ad4 d13c
00000390: a4e9 193d 46e8 80bd dee1 b13c e719 23be
000003a0: 3df5 b5bd 4f4b 2d3d 17a2 07bd 3f7f a43c
000003b0: 40e5 233d 8b75 93bc 52ed b03c 7cd0 6c3d
000003c0: f693 37bd e71c b2bd 85bc e1bd 2612 273d
000003d0: 69aa 42bd ce97 a4bb d362 2fbe d28f 173d
000003e0: 2c7a 8ebd 1c0b 90bd 57be 78bd d007 a0bd
000003f0: 7208 39bd 5c11 58bd 8bc9 7dbd eb5a b33d
-0.012947898 -0.019181568 -0.02478683 0.046066325 0.05347263 -0.017090796 -0.018696278 0.062907785
0.003965306 -0.015936097 -0.053373616 0.031188296 -0.035469364 -0.008760659 -0.020990113 0.009008674
0.056610715 0.020434631 0.0018412537 -0.018438036 0.001600392 0.015150207 0.009338427 -0.0005672564
-0.009862162 0.041600082 -0.055204883 0.05933844 0.018386606 -0.05051954 0.059832443 -0.017221602
-0.044429637 -0.03502262 0.013990455 -0.058004737 -0.01587563 0.01905784 -0.058157012 0.05171607
0.030886253 0.054640166 0.042748265 0.014912994 -0.0098100975 -0.058101863 -0.028703671 0.009028739
0.032553423 0.053823125 0.019616915 0.006620502 0.010100771 0.028423918 0.05864875 0.03151445
-0.029657943 -0.028335836 0.010312778 0.016446775 -0.066196434 0.03754367 0.057477046 0.0708157
0.04074694 0.0698799 0.0025924288 -0.028452706 0.0059678573 0.022446014 0.017947445 0.008650443
-0.008640396 -0.037255168 0.014170086 -0.013767931 -0.017686311 -0.045383282 -0.03137194 -0.02738685
0.029997561 0.040555634 -0.047822773 0.02301557 0.016698781 -0.016244723 -0.0008041096 0.02151013
0.043041635 -0.007944501 -0.0018047852 0.029095463 -0.044981524 -0.012761198 -0.006080106 0.045216374
0.0051793815 -0.05076248 -0.0269889 0.04740158 0.028719649 -0.007765279 0.054792967 -0.011065142
-0.060419757 0.016064588 0.015596008 -0.017214244 0.029292632 -0.021941658 -0.0332014 0.054552738
0.024920149 -0.043076407 0.011808733 0.036125533 0.002335335 -0.016135298 -0.027445057 -0.020231675
-0.041136872 0.053078398 0.08336547 0.04054362 -0.014745396 -0.020932334 0.0077714664 0.034431823
-0.084070005 -0.021893058 -0.029659146 -0.0067560333 -0.10109541 0.009031443 -0.060175885 0.036668442
0.066145115 -0.10462379 -0.09978833 0.035069548 0.061397698 -0.12133005 0.05587296 -0.1112537
0.058259938 0.02338521 0.08400858 0.03062363 -0.029915402 0.042021796 -0.055597156 0.13125771
0.07853385 -0.05722539 0.032111183 -0.07556604 0.0940904 0.0012993955 -0.07096667 -0.06785899
-0.045655277 0.027984096 0.04438419 0.02081652 -0.0075290105 0.16795789 -0.02836258 0.03022579
-0.027885025 0.022510892 -0.0500312 -0.038414203 0.029189503 -0.014743911 0.048188962 -0.05767768
-0.055097096 0.07740718 -0.040938303 -0.051849965 0.041024208 -0.016956063 -0.049827762 -0.11701685
-0.062055185 0.07846055 -0.07696066 -0.048585653 -0.008289759 -0.04792455 -0.036378775 0.10749433
0.10262955 -0.07636978 -0.058855537 0.00018460197 0.09310476 -0.02665771 0.04412824 0.011356543
0.04016108 0.00073101214 0.035666153 0.031302813 -0.068181604 -0.04239883 0.018743584 0.01923729
0.014517999 -0.11539332 0.014314203 -0.05121038 0.09767464 0.015992483 0.08221056 0.028939806
0.04817533 -0.04474811 -0.018886285 0.00071195414 -0.018060843 0.11497866 -0.0832057 -0.049932968
0.11845903 -0.019903995 -0.07162994 0.025613893 0.037576333 -0.06294303 0.021714147 -0.1592785
-0.08884666 0.042308148 -0.033113565 0.020080207 0.04001355 -0.018000385 0.021597538 0.057816014
-0.04481884 -0.08696919 -0.11022285 0.040788792 -0.047525797 -0.0050229793 -0.17127542 0.037002392
-0.06956896 -0.07033369 -0.060728397 -0.0781399 -0.04517407 -0.05275093 -0.061959784 0.087575756

encoder.convs.1.node_mlp.bias f4 [128]
00000000: 4317 85bd 6d11 54bc 7c39 39bd 17e7 073d
00000010: fa92 833c 204a 04bd 2d33 5d3c 8785 29bc
00000020: 1b29 503c 664a ba3b ed28 c8ba 8a4d 62bd
00000030: 469f 2b3d 1f7b 05bd f6d8 e53d 8242 16bc
00000040: 7fda 923d 5601 483c a835 1dbd bae7 12bc
00000050: e0ce 36bd 188f 89bb a437 86bd 47b0 a33d
00000060: 279e a4bd 5940 25bd ab77 393c ecf9 e93c
00000070: 72b4 2dbd 20a5 153d b82e 573c 630e a8bd
00000080: e5a5 98bd e0c3 efbc be14 083d 928c c5bc
00000090: b2b6 fcbc 05dc 273d adcb 0e3c 7557 443d
000000a0: 8197 4c3c 6fec f0bc 9278 a53d 286b 063d
000000b0: a2a2 bebc d83c eb3d 3d2e f03c 3522 db3c
000000c0: 0e13 013d 10e7 1dbd 79b3 ae3c 50ab 57bd
000000d0: 3bd7 4ebb f011 12bd 93da 873b eedb 0abd
000000e0: 3415 583c a814 5f3d 9faf 4f3d 88fb 233d
000000f0: 212e 3c3d 2279 3dbd 3d50 75bd 912b 043d
00000100: 7c1e ffbc d65d e1ba 0c49 a1bd 0de3 2a3c
00000110: 639c 9cbd 79cf b7bd b0ee b4bc c588 8a3c
00000120: c1c5 1dbd f7f2 8cbc 25f8 523c a53c 713c
00000130: 31c4 663d 9f09 72bd de67 52bc cc97 1b3d
00000140: ea04 383d cb36 18bd ca9d b8bc bf0e 6b3c
00000150: 14a2 92bb 22e4 de3b 573a d33b 18ba 1e3d
00000160: 1c2f 573c 77d9 23bb b99e 7f3d 8cf5 ef3c
00000170: 4387 b2bc 1393 e1ba dc1f aabc 8e5b 303c
00000180: 93a3 a43b 9df8 9bbc b643 b93c 1427 aebc
00000190: 2831 3bbd 4727 8d3d 97c3 45bd b1a6 953d
000001a0: eced 1abd 2442 853d 8312 cabd 26e6 bcbc
000001b0: 0502 9cbd 5994 5d3c fc46 b03d 9c9b 3cbd
000001c0: 7c06 b13c a99d f0bb f67d e23b 078c 033d
000001d0: 1f57 de3d d546 58bd 3a26 253d d028 c73d
000001e0: 2ccd afbc 0f20 95bd c3b3 e6bd 41d1 2c3c
000001f0: c1ac 7b3d 83d5 ccbd 84d4 9abc aba9 933d
-0.064985774 -0.012943608 -0.045220837 0.03317937 0.016061295 -0.032297254 0.013500971 -0.010346777
0.012705113 0.0056851385 -0.0015270986 -0.05524973 0.04189994 -0.03258812 0.11223023 -0.00917113
0.07170581 0.01220735 -0.03838125 -0.008966381 -0.044630885 -0.0041979663 -0.06553581 0.079926066
-0.08037978 -0.04034457 0.011320035 0.028561555 -0.042408414 0.03653443 0.013133697 -0.08205869
-0.07453517 -0.029268205 0.033222906 -0.02411488 -0.030848835 0.04098131 0.008715552 0.047934968
0.012487293 -0.029409615 0.080796376 0.032817036 -0.023270909 0.114862144 0.029318923 0.02674971
0.031512313 -0.038550436 0.021325814 -0.05265361 -0.0031561393 -0.035661638 0.004145929 -0.033901148
0.013188649 0.05446306 0.050704595 0.0400348 0.04594243 -0.0462581 -0.059890974 0.03226811
-0.031142466 -0.0017194103 -0.07875261 0.01043011 -0.07647016 -0.08975119 -0.022086471 0.01691092
-0.03851867 -0.017205698 0.012876545 0.014723931 0.056339446 -0.059091207 -0.012842147 0.03798656
0.04492656 -0.03716163 -0.022536177 0.014346777 -0.0044748876 0.006802098 0.0064461636 0.03875169
0.01313379 -0.0025001445 0.06240723 0.02929189 -0.021793013 -0.0017209969 -0.020767145 0.010764016
0.0050243824 -0.019039446 0.022615295 -0.021258868 -0.045701176 0.06892257 -0.048282232 0.073071845
-0.037824556 0.06506756 -0.09866812 -0.023058962 -0.07617573 0.013524138 0.08607289 -0.04604684
0.021609537 -0.0073430133 0.0069119884 0.032115962 0.10856461 -0.052801926 0.04031966 0.09724581
-0.021460138 -0.07281505 -0.112647556 0.010547937 0.061444048 -0.10001662 -0.018900163 0.07210096
