checkpoints/model_B_epoch_39.pth (torch, 552117 bytes, 26 tensors)

encoder.node_embedding.weight f4 [1, 128]
00000000: 3381 e93f a45c b43f 9fac 573f 62a0 01c0
00000010: c227 273f 6c8e 94bf a035 f3bc 46a8 c6bf
00000020: aa76 34bf b1c4 c73f cf23 bbbe 1ff9 a8bf
00000030: 2ab5 31bf 2bc1 05bf 3b3e 3bbf 1c3e 383f
00000040: c967 c73f 008f e7bd 681d edbe f3b3 cb3e
00000050: e4d3 34bf 631a 863f 7969 3f3f 0d5b ce3f
00000060: 54d3 9c3f 5f31 9a3f 53a2 143f e6cf a23f
00000070: 895c 4dbe 19c9 8638 7180 63be b7f4 4e3f
00000080: 5df3 a5bf 96f1 52bf bd60 3ebe fb39 d43f
00000090: 6908 913e fd28 c0be fd52 943e 2fbe 39bf
000000a0: 53da bfbf ed4a 733f 7392 5abf f788 0bbf
000000b0: dd83 9abf d22d 0240 1c3a 95bf c067 e1be
000000c0: d0bc 59bf 21ef 1ebf c545 503d d3d9 fb3e
000000d0: 16fa dfbe 2042 8e3f 6d3c 44bf 9753 30bf
000000e0: b90c abbf b224 a93c 4ee4 07bd b0fd 223f
000000f0: f1a3 92bd aa5b e13f 6588 92bf 5a3c ab3f
00000100: 30cc af3f 6459 4f3f bf57 0740 1137 f13e
00000110: 6ae3 9e3e 1fd2 1dbe 4387 80bf 1b6b 9b3f
00000120: 7619 13be 67f6 f33e 8ec2 133d 4dfa bf3e
00000130: c1ff 083f dd27 17bf 4032 06c0 ab99 37bf
00000140: 597d 363a 08aa a8be b5c4 a4bf 10d5 0bbf
00000150: 73aa 043f 354d fa3e e4a9 8c3f 2d13 043d
00000160: ed18 353f 65cf dabe 4f42 81bf f126 113f
00000170: 9ada d3bf 6d51 47bf 0053 a33f 2c9b de3e
00000180: 8db4 19c0 1882 d93e e00c 3f3f 1b78 fc3b
00000190: ecb1 1a3f 5e1a 083f 8539 823f 911e ccbe
000001a0: 831c 1ebe 8562 333f 0314 ca3e 875e 033e
000001b0: 021d 6b3e 8567 9a3f e261 be39 c6e1 8abe
000001c0: b0c8 b4bf 5019 9abd 4a6b 0dbf 3305 d73e
000001d0: aa91 2e3f 9244 553d e765 afbe b361 013f
000001e0: 4ab4 a1b8 b1db 4f3e 1899 e03d 94a6 333f
000001f0: 6b67 893f e6f6 a03e d3a6 2b3f 1aa8 be3e
1.8242553 1.4090772 0.84247774 -2.025414 0.6529504 -1.1605964 -0.029688656 -1.5520103
-0.70493567 1.56069 -0.36550757 -1.3201026 -0.6941706 -0.52247876 -0.7314183 0.7196977
1.5578548 -0.11306572 -0.46311498 0.39785728 -0.7063582 1.0476803 0.74770314 1.6121536
1.2251992 1.2046317 0.5806019 1.2719696 -0.2005483 6.427075e-05 -0.22216965 0.80842155
-1.2964894 -0.8239988 -0.1859159 1.6580194 0.2832673 -0.37531272 0.28969565 -0.7255582
-1.4988502 0.950362 -0.85379714 -0.54505867 -1.2071491 2.0340466 -1.1658359 -0.44024467
-0.8505373 -0.6208363 0.050847787 0.49189624 -0.43745488 1.111393 -0.766547 -0.6887755
-1.3363258 0.02064738 -0.033176713 0.63668346 -0.071601756 1.7606099 -1.1447874 1.3377793
1.3734188 0.80995774 2.1147306 0.47112325 0.31032878 -0.15412186 -1.0041279 1.2142061
-0.14365181 0.47648928 0.036074214 0.37495652 0.5351525 -0.590452 -2.096817 -0.71718854
0.0006961427 -0.32942224 -1.287253 -0.5462198 0.51822585 0.4888703 1.0989347 0.03224485
0.7074116 -0.42736354 -1.0098361 0.56700045 -1.6551087 -0.7785862 1.2759705 0.43477762
-2.401645 0.42482066 0.7462902 0.0077047474 0.6042774 0.53165233 1.0173804 -0.3986707
-0.15440564 0.70072204 0.39468393 0.12829028 0.22960284 1.2062842 0.00036312552 -0.27125376
-1.4123745 -0.07524359 -0.55241835 0.41996154 0.68191016 0.052067347 -0.34257433 0.505397
-7.71066e-05 0.2029865 0.109667 0.70176053 1.0734686 0.3143837 0.6705143 0.37237626

encoder.convs.0.node_mlp.weight f4 [128, 256]
00000000: 023f 563d 88ae 2ebc 63b7 5b3d 62e9 8f3c
00000010: 458b 4cbd bd94 263d feaf 92bc d5f6 c9bc
00000020: 2e4b 54bd 77b2 71bd 2629 833c 0ea3 6fbc
00000030: d0b8 b53c c4e6 51bd 3bd0 323d d0d1 30bd
00000040: b7af 15bc 91cc 413c cd7b f43c e93f 4e3d
00000050: 46a5 5c3d f471 3fbd aec8 883c 758f cabc
00000060: 70ec acbb 3f96 34bd bf77 683d b6e6 30bd
00000070: 963e fe3c 6b00 29bc 78d0 963c 19b0 00bd
00000080: b07d 5c3d a339 433c 899a d33b 2c99 55bd
00000090: 1d15 db3c 4f2f 2cbc 0d77 d8bc dce8 4f3d
000000a0: f269 473c 91ab 03bd e6d5 03bd c31d 8ebb
000000b0: 4a42 053d b429 68bc 6395 13bd dddc b5bc
000000c0: fa95 3fbd 1944 a53c a6ae 443d 6647 64bd
000000d0: 4a4d 4f3c b800 063d 4235 1d3c 3663 bdbc
000000e0: 753f f83c a231 053d 1890 b53c 96ee 16bc
000000f0: 3031 8bbc c6d6 003c a52d 47bc cfab 88bc
00000100: 93d5 243d 0e99 5b3d bf70 98bb 8c6b 48bc
00000110: 7212 0e3b ce43 99bb 1b24 583c e5e8 963c
00000120: 7cab 66bd 34eb abbc 8354 553d 50ec cc3c
00000130: 6b8e daba d9c7 1bbd 74b2 1dbd 92d0 64bd
00000140: a319 3abc bca9 9b3c d0d8 183d 6de0 d93c
00000150: 0d3f 56bd e078 0fbd 6f9a 05bc b5b4 723d
00000160: 86bb 273c d57d 8cbc bd0e c23c a52e b1bc
00000170: 38af 26bd a4ee 2f3d 80d5 d6bc 91af 2fbc
00000180: 1bfa 7cbd d6e0 2b3d 135d 423d f036 b73c
00000190: 60b0 27bd 97ca 6fbd 9e2a 44bd cedc 333d
000001a0: b577 e23c 7160 573d 007e 083d bfd3 883c
000001b0: 27e0 643a f282 37bd 93d8 37bd 7045 6ebd
000001c0: 8864 c03c 53bb fdbc 33d4 5fbc a415 09bd
000001d0: 474b 1ebc fbe6 2bbd e470 28bd 96e4 b03c
000001e0: b72d 83bc 194d 1e3d 1ba0 94bc 5587 30bd
000001f0: 5ad5 17bc ad09 e5bc 442a 8cbc d56c 67bd
00000200: b745 7f3c 2b05 d2bd 3475 283d e86c 50b9
00000210: 7c59 053e ee9d 03be a223 de3d 10ef 80bc
00000220: 48a1 1ebc a053 323d ba91 3d3d 3adf 5fbd
00000230: 3e97 c4bc 7c5d c3bd c165 8e3d ac01 afbc
00000240: a27a 8b3c 2357 4dbc 0559 d63d 1932 d83c
00000250: b03b 89bd 9a3a 533d 394a c43b 6e1e 76bd
00000260: 8185 56bd 3761 01be b117 8fbc b5ff 77bb
00000270: 1b1a 053b 8aba cd3c ab6b 1ebd cc5a cd3d
00000280: 2baa 8b3d 0cb4 adbd a431 fd3c 822e 8fbb
00000290: 7c59 92bd 22a1 eebd 6ed2 16bd 0699 aebb
000002a0: de8b e0ba df36 52bd 2256 2cbd 4ad3 32bd
000002b0: 800c 44bb 0863 cb3d 4ff0 e03b 51bd dfbd
000002c0: 8e20 96bc 7ccf a23d afa4 1ebd fd96 87bc
000002d0: cecc b2bc 8137 aa3d 694d abbb 0aa2 be3d
000002e0: f474 5cbc 7b1c 0abd 3918 ca3d d0fd 95bc
000002f0: b0bc e23c c4fb 173d 5eff 5e3c b9af 4d3d
00000300: 3e21 5fbd bd48 2c3d f339 c93d b66e 2dbd
00000310: 23e1 003d ba6e 243c 2999 63bd cf11 adbd
00000320: a95b 06be 934f 78bc 22b8 823c 377c 263d
00000330: 200f 94bd f729 d6bd bcf4 55bc cc2f 713a
00000340: 215c 9a3a a034 9d3d 353c 90bd 49d3 35bd
00000350: 32f7 5d3b 62ff b2bc f4cb f0b9 93af 10be
00000360: 8b47 3dbd f58b 31bd d62e 483d 2e72 7d3c
00000370: e4b3 9cbc f8a9 24bc b39c 973d 3dea 553c
00000380: dff6 983d 1639 12bc 325c 2dbd ffdc 133d
00000390: cf81 833d 1bab d7bb a0b9 87bd dbe7 d43c
000003a0: b549 17bc 5601 40bd aebf 58bd 50e5 1abd
000003b0: be50 2d3d 99f9 333d e1e2 963c 2540 3abd
000003c0: 955e 32bd a381 dcbc a055 0d3e 2339 813c
000003d0: 14f6 cabc bbc7 b33b 4a36 1cbc 2c60 933c
000003e0: 4f9f 83bb 8432 3a3d 07e7 983d 3c3b 1ebd
000003f0: ba69 0b3d 2c2c 72bd 9d76 fb3c d0a3 a8bc
0.052306183 -0.010661729 0.053641688 0.01756734 -0.049937505 0.04066919 -0.017906185 -0.024653831
-0.05182951 -0.059008088 0.016010832 -0.014626278 0.022182852 -0.051245466 0.043655615 -0.043168843
-0.009136132 0.011828558 0.029844189 0.05035392 0.053868555 -0.046739534 0.016697254 -0.024726609
-0.005277209 -0.0440886 0.056754824 -0.043188773 0.031035703 -0.010315041 0.018409953 -0.03141794
0.053830802 0.011915597 0.006457631 -0.05214803 0.026743466 -0.010509326 -0.026423955 0.05075918
0.012171255 -0.03214604 -0.03218641 -0.004337044 0.03253392 -0.014170099 -0.03603114 -0.022200042
-0.04677389 0.020174073 0.04801812 -0.055732153 0.0126527045 0.03271553 0.009595217 -0.023118597
0.030303696 0.032518037 0.022163436 -0.009212157 -0.016991228 0.007863706 -0.012156879 -0.016683487
0.040242743 0.05361276 -0.0046521123 -0.012232672 0.0021678475 -0.0046772724 0.013192202 0.0184216
-0.056315884 -0.020986177 0.05208255 0.025015026 -0.0016674524 -0.038032386 -0.038500264 -0.05586297
-0.011358651 0.019001834 0.037316144 0.026596272 -0.052306224 -0.035027385 -0.008154496 0.059254367
0.01023758 -0.017149845 0.023688668 -0.021628687 -0.040694445 0.042952195 -0.026224852 -0.010723011
-0.061761957 0.041962467 0.047452044 0.022365063 -0.04093969 -0.058542814 -0.047892205 0.043911748
0.027644971 0.052582208 0.033323288 0.01670253 0.0008730911 -0.044802614 -0.044884276 -0.05817169
0.023485437 -0.030973112 -0.013661432 -0.033467904 -0.009661502 -0.041968327 -0.041123286 0.021593373
-0.01601301 0.038647745 -0.01814275 -0.043097813 -0.009267176 -0.027958715 -0.017109998 -0.056500275
0.015580586 -0.10254892 0.0411274 -0.00019876997 0.13022417 -0.12853214 0.1084664 -0.015738994
-0.009682007 0.043536782 0.046281554 -0.054656245 -0.0239979 -0.09539315 0.06953002 -0.021363102
0.01702625 -0.012532982 0.10466198 0.026391076 -0.067008376 0.05156956 0.0059902933 -0.060087614
-0.052373413 -0.12634741 -0.017467352 -0.0037841622 0.002030975 0.025113363 -0.0386769 0.10027084
0.06819566 -0.08481607 0.03090746 -0.004369558 -0.07145974 -0.116518274 -0.036821775 -0.0053283004
-0.0017131527 -0.05132186 -0.04207433 -0.043658532 -0.0029914677 0.09930998 0.0068645845 -0.10924781
-0.01832607 0.07949731 -0.038731273 -0.016551489 -0.021826174 0.08311368 -0.005227734 0.0930825
-0.013455618 -0.033718567 0.09867901 -0.018309504 0.027677864 0.037105337 0.013610689 0.05021641
-0.05447506 0.042061556 0.09825506 -0.04234191 0.031464707 0.010036165 -0.055565987 -0.08450662
-0.13120903 -0.015155691 0.015956942 0.040645804 -0.07229447 -0.10457223 -0.0130588375 0.00092005427
0.0011776724 0.07676053 -0.070427336 -0.04439095 0.0033869264 -0.021850292 -0.00045928324 -0.14129476
-0.046210807 -0.043346364 0.04887279 0.015469117 -0.019128747 -0.010050289 0.07402935 0.013056335
0.07468962 -0.008924743 -0.042324252 0.03609943 0.064212434 -0.0065816767 -0.06627202 0.025989464
-0.009233882 -0.046876274 -0.052917175 -0.037816346 0.04231333 0.043939207 0.018418731 -0.04547133
-0.04354723 -0.026917284 0.13802195 0.015774315 -0.024775542 0.005486456 -0.009534428 0.017990194
-0.004016794 0.04545833 0.0746594 -0.03863071 0.034036376 -0.059124157 0.030696208 -0.020585924

encoder.convs.0.node_mlp.bias f4 [128]
00000000: d5a6 3dbd 37c4 743c 4309 82bb b1d4 643d
00000010: c366 de3c 9e58 18bd c807 60bb cb4c 56bd
00000020: 30f6 553b 86f5 4f3c ad35 3c3d 2146 7a3d
00000030: ba9a 1ebd b2b6 5f3d 3a8a 2abd 296b 713c
00000040: 72cd 013d ab58 e53c 4c7e 403d 9ca2 b5bc
00000050: 0fc0 5e3d a492 a0bb a05a 36b9 1adc 44bc
00000060: 1b8a 63bd 96cb 93bc 7930 1c3c eac2 373c
00000070: ab64 b0bb ff7e 4b39 595d 0b3b 6301 c6bc
00000080: 6d40 77bc c7be 3cbd 4a3b 763b 2d8e 0b3d
00000090: a950 c0bc af26 bc3c 1b3e b5bc ac88 a6bc
000000a0: 4ff2 543d 3fee 46bd 1567 273c 32af 423d
000000b0: 3d74 833c 73b9 683b 3080 d3bc 01ff 46bd
000000c0: db53 623d 3367 b43c 6d85 0b3c 567c 1abd
000000d0: 749a 053d 6353 25bd 0367 453d 1e3f ff3c
000000e0: 2094 43bd 2f87 2ebd 2148 38bd 3505 bebc
000000f0: f486 983b db3f 84bd e3e2 5a3d 7c5e 26bd
00000100: 6bc8 35bc 297c 9f3c 6f83 58bd 9ba3 5bbc
00000110: 544b 86bd aa6e 4cbd cb4e 023b 1cc2 c9bc
00000120: 38f8 1a3d ba6b eabc 9dae 2b3d d099 4e3d
00000130: c147 00bd 08b0 a1bb 4dd0 c33c b5a3 a1bc
00000140: f6ce d53c 570f 06bb 587d ddb9 b50d 4fbd
00000150: 2d59 563d 4b5d 6cbd 7246 08bc 1e95 253d
00000160: 1a49 01bd 4094 983b b463 583d 46ad d13c
00000170: a93c 673c a184 4dbd e6e3 ff3c b934 d23b
00000180: 1cb1 03bc dee0 b6bc d718 9ebc 162e f43c
00000190: bb97 183d a66d 3abd e249 4d3d aea6 803d
000001a0: a54e acbc 96d2 fcba 3a5f db3c eefb 49bd
000001b0: 3e29 b03c ab79 7e3d 2f5d a1bc 8cc1 45bd
000001c0: 61cc 4bbd 7806 363d f963 9dbc ddfe 5cbc
000001d0: ac96 963c 2cdf 633c c07f 103d 91f8 5d3a
000001e0: b8a4 5abd fe61 eb3c 0530 293d 126b be3b
000001f0: cae8 fbbc 8b6c 9ebc d52f 583d ed09 133d
-0.04630168 0.014939359 -0.0039683892 0.0558669 0.02714861 -0.037193887 -0.0034184325 -0.05231933
0.003264796 0.012692815 0.045949627 0.061102036 -0.038721777 0.05461759 -0.04163573 0.014735022
0.03169007 0.027996382 0.046995446 -0.022172265 0.05438238 -0.0049002934 -0.00017390633 -0.012015367
-0.05555163 -0.018041413 0.009533041 0.011215905 -0.0053830943 0.00019406898 0.0021265356 -0.024170583
-0.015091044 -0.046080377 0.003757196 0.034071136 -0.023475962 0.022967665 -0.02212434 -0.020328842
0.051988896 -0.048567053 0.010217448 0.04753036 0.016046638 0.0035510927 -0.02581796 -0.048583034
0.055255752 0.022021865 0.008515698 -0.037716232 0.032618 -0.040362727 0.048193943 0.031158026
-0.047748685 -0.04260939 -0.044990662 -0.023195842 0.0046547595 -0.06457492 0.053439032 -0.04061745
-0.011095147 0.019468384 -0.05285972 -0.013405706 -0.065573364 -0.049910225 0.001988339 -0.024628691
0.037834376 -0.028615821 0.04191457 0.050439656 -0.03131843 -0.0049343146 0.023903036 -0.019731382
0.026099663 -0.002045592 -0.00042245793 -0.05055018 0.05233114 -0.05770616 -0.008317577 0.040425412
-0.031563856 0.0046563447 0.05282946 0.025595319 0.014113584 -0.050175313 0.0312366 0.0064149764
-0.008037832 -0.022324022 -0.019298954 0.029807132 0.037254076 -0.045514725 0.05011929 0.062817916
-0.021033594 -0.0019288834 0.026778806 -0.049312524 0.02150404 0.06212775 -0.019697754 -0.048280284
-0.049755458 0.044439763 -0.01921271 -0.0134884985 0.018382393 0.013908189 0.035278082 0.000846752
-0.053379744 0.02873325 0.04130556 0.0058111036 -0.03075065 -0.019338867 0.05277999 0.035898138

encoder.convs.0.edge_mlp.0.weight f4 [128, 7]
00000000: 64b8 7fbe a79f 9f3d b212 3dbb 76ec 823d
00000010: 792c 34be 54fb 873c 1e39 d3be 5b97 a83c
00000020: 14aa bcbe 411f a13e 7720 6a3e cd34 543e
00000030: 442c 6abe 95f9 38be 0d59 0a3c d724 96bd
00000040: 7778 16bb 8b80 d63d 14ea 8b3d 0308 87be
00000050: 8b99 e23e 6813 0bbe 302a 1a3e 3a45 a6be
00000060: be6d 9d3e 11fb 5dbe ebfd 5a3e 910b 373e
00000070: f1e8 abbd 79aa a33c e4d4 64be 886e a9be
00000080: 9e34 d33d 0160 8b3e 963a 8dbe 30c4 2ebe
00000090: 3c6a 97be 9e70 9cbe 7fe6 c23c fb29 e6bd
000000a0: f103 b93e c87e 8b3e ec1a 26be f1c5 883e
000000b0: acd8 6f3e 5645 983e b1d1 3bbe 4631 69bc
000000c0: 4abd 59be 909b 00be 3f57 923e 79e2 bc3e
000000d0: 8f5b c1be 6b8d 0c3e 24a5 09be dc28 a7be
000000e0: a95e 163e 72a3 153e 566d 2bbe 792b c13e
000000f0: 07b3 47be a4f6 5e3e 2134 833e e16a 54be
00000100: 97b8 3e3e cf80 01be 27d9 1dbe c85e cc3d
00000110: 1366 c53e 313f 5abe ec0a b63e 0a49 43be
00000120: a6c6 e63d 5474 96be 66d4 0cbe b856 5dbe
00000130: ff63 cd3e 5397 fcbd 7484 6bbe f790 6ebe
00000140: 094c 713e 9c13 273e 676c 213e 86f7 aa3e
00000150: 9881 e6bd 181e 9e3e 8323 0dbf e36a 97be
00000160: e3ea 673e ea7a 4cbe 4dfb 273e 2986 763e
00000170: 006a b33d 45de 9d3e f557 c83d 15fa acbc
00000180: 3e73 c8be aeff 47be 98d8 623c 1358 243e
00000190: bcb4 91be a3f7 3b3c 8bc2 c5bc 26a8 ef3c
000001a0: d490 99be 2647 a53e c842 ca3d 26bf c73e
000001b0: 83ac 73be c208 3abd e01e 373d 28b2 4a3e
000001c0: 7399 29be 5282 d9bd 0bde 29be a21f 53be
000001d0: 8011 88be af78 f33c 9aeb 9f3e 596f e5be
000001e0: 5cef 0e3d 103b e5be b8da 7b3d 8ceb 013e
000001f0: d974 b8be 0391 e33d 110c 81bd b2b9 fdbc
00000200: c05f a6be c637 29bd 9f51 5e3e f8f5 1cbe
00000210: 585c cabd b3ca 86be d0fa 44be df20 b53e
00000220: ded1 8b3e d6b8 33be 58ff b03e 647a 073e
00000230: ad7f b93d e8ce 91be 1bba 5cbe a955 a63e
00000240: 944a 7f3e 510b 403e 1d63 9dbe bf31 17bd
00000250: deae 8e3d e081 3b3e 8ee9 c6bd e264 61be
00000260: cb80 87be 8099 83be 33c8 f6bd 547a a03e
00000270: 1145 38be 075c f73d 34b8 95be a868 3c3c
00000280: 3f5c 3abe 1eae 64be 7e58 963e b66b 7e3d
00000290: c036 9c3e 73b8 bd3d fc8d 703c 96e6 963e
000002a0: c22a 7abe ef89 163e 8da1 4c3d 6d1d 9fbc
000002b0: 4b30 86be 9e0b 2fbc da3a 95be 3e37 593e
000002c0: 2358 35be c0db 0abe 9d90 c53e 61c6 a2bc
000002d0: 86d3 90be 1d96 ff3d 7d58 f33d 6a2c 80be
000002e0: 5f9c 78be 2df3 b0be 4a69 91be f35b 473d
000002f0: b621 debe 246c c0be 2e48 2b3e 8444 bdbe
00000300: 3348 89bd 091a 423d ae28 a03e c0b5 b5bb
00000310: 2c7b ff3d 4b5d 9e3e ba97 953d f053 af3e
00000320: c162 a9bd 69dd bc3e 8e38 b5be edde 8f3e
00000330: 3e0b 243e 517a 57bc b335 cf3e 545b 743e
00000340: 61ac 663d 9bb9 ddbd e83d cf3e 2160 733d
00000350: b3ae f83d d409 05bc 78a9 0dbe ccd6 2cbe
00000360: 30ec 933e 9453 233e 26f3 0bbc a7e6 b23d
00000370: d661 0cbe ed3b 39bd ae9c 43be 26b2 c23d
00000380: 3237 573e e0da ddbe afb5 a93e 5fe4 debd
00000390: 8c05 a33e 1053 a53e 7293 d33d 3e10 9a3e
000003a0: 7620 02be f9bb f9be 5720 a13c 5135 56be
000003b0: 5837 24be dddd 073d d3b4 71be 3efa c93d
000003c0: fc90 97be 83b3 803e 01dc 403e e09f 62be
000003d0: 742a d0bd 6663 49bd 29e2 813e ca59 8d3e
000003e0: b38f 1e3e 146b 6b3d a375 14bd 3ecb bd3e
000003f0: e723 3ebe c669 0fbe d8ec e03c 9c36 77be
-0.24972683 0.07794123 -0.0028850255 0.063927576 -0.1759509 0.016599335 -0.41254514 0.020579984
-0.3684851 0.31469157 0.22863947 0.20723267 -0.22868448 -0.18063958 0.008444083 -0.073312454
-0.0022959986 0.104737364 0.06831756 -0.263733 0.4425777 -0.13581622 0.15055156 -0.3247469
0.3074779 -0.21677805 0.21385925 0.17875506 -0.083940394 0.019978749 -0.22346836 -0.3309214
0.1031277 0.27221683 -0.2758376 -0.17067027 -0.29573238 -0.3055467 0.02379155 -0.11238476
0.3613582 0.27245164 -0.16221207 0.26713517 0.23422498 0.297404 -0.1834171 -0.014232939
-0.21263614 -0.12559342 0.28582188 0.36891535 -0.37765166 0.13725822 -0.13441902 -0.3264836
0.14684547 0.1461313 -0.16740927 0.3772848 -0.19501887 0.21773773 0.2562571 -0.20743896
0.18625103 -0.12646793 -0.15414868 0.099790156 0.3855444 -0.21313168 0.35555208 -0.19070831
0.11268358 -0.29385626 -0.13752899 -0.21615112 0.40115353 -0.1233355 -0.22999746 -0.23297487
0.23564161 0.16316074 0.15764008 0.3339197 -0.11255187 0.30882335 -0.5513231 -0.29573736
0.22648196 -0.19968763 0.16404457 0.24074616 0.08760452 0.3083364 0.097824015 -0.021115342
-0.39150423 -0.19531128 0.013845585 0.16049223 -0.28458202 0.011472615 -0.024140617 0.029254984
-0.29993308 0.32280844 0.09876019 0.39013022 -0.23796277 -0.04541851 0.04470718 0.19794524
-0.16562442 -0.1062056 -0.16588609 -0.20617536 -0.2657585 0.029720632 0.31234437 -0.44811514
0.03489624 -0.44771624 0.061487883 0.1268751 -0.36026648 0.11111643 -0.063011296 -0.030972335
-0.32494926 -0.041312955 0.21710823 -0.15328205 -0.098808944 -0.26326522 -0.19236302 0.3537664
0.27308553 -0.17550978 0.34569812 0.13230282 0.09057555 -0.2847817 -0.21555369 0.3248723
0.24930793 0.18754317 -0.3073968 -0.036912676 0.06966947 0.18311262 -0.09712516 -0.2201114
-0.2646545 -0.2570305 -0.12049904 0.3134333 -0.17995097 0.120781 -0.29242098 0.011499561
-0.18199252 -0.22332045 0.2936439 0.06211444 0.3051052 0.092636965 0.014682289 0.29472798
-0.24430373 0.14701055 0.049958754 -0.019423211 -0.2620872 -0.010683922 -0.29146463 0.2121248
-0.17709403 -0.1356039 0.38586894 -0.019869985 -0.2828638 0.12479804 0.11882112 -0.25033885
-0.24278401 -0.34560528 -0.28400642 0.048671674 -0.43385094 -0.37582505 0.16726753 -0.36966336
-0.06703224 0.04738811 0.31281036 -0.005545348 0.12474665 0.30930552 0.0730433 0.34243727
-0.08270789 0.36887673 -0.3539471 0.28099766 0.16019914 -0.013151721 0.40470657 0.23862964
0.056316737 -0.10826417 0.40476918 0.059417848 0.12142696 -0.008120019 -0.13834178 -0.16878814
0.28891134 0.15949851 -0.008541858 0.087354 -0.13709196 -0.045223165 -0.19102737 0.09506635
0.21017149 -0.4333105 0.33146426 -0.10883402 0.3184017 0.32289934 0.10330857 0.30090517
-0.12707695 -0.48776224 0.019668741 -0.20918776 -0.16036737 0.03317057 -0.23604135 0.09862183
-0.29602802 0.25136957 0.18833925 -0.221313 -0.10164347 -0.04916706 0.2536786 0.27607566
0.15484504 0.057475165 -0.036245 0.37069124 -0.18568383 -0.14005193 0.027456686 -0.24141926

encoder.convs.0.edge_mlp.0.bias f4 [128]
00000000: 7a3e dd3d d072 213e 7ff8 74be f345 123d
00000010: e71b afbd e153 703e 998a 5cbd 5ab4 44be
00000020: 3be4 4c3e 38cc 16be b5dd 19bc 68b4 0fbd
00000030: 222f 443e 2581 dbbc a32a 1c3e 1d0a 52be
00000040: 4d7f 033d 3815 a83e 72f4 3cbe f2fc 64bd
00000050: b192 22bd f126 de3d 8a54 eabd 9779 f83d
00000060: 0b74 dbbd 92df e93c 2d85 a63e 9eb5 953e
00000070: 2017 b4bd 97d5 2fbe 3c49 30be 3836 26bd
00000080: ec16 843c a462 0b3e fbc5 72bd e85c 2f3e
00000090: cb13 8cbb 637a a13d 208f aa3e d059 2b3d
000000a0: ac44 2b3c d9e7 67bd 16a2 773e f3a5 8cbe
000000b0: d601 1abe e03c a23d 3db8 5e3e 1664 b1be
000000c0: ed08 f8bc e702 a53d 7aaf 9b3e 0c73 353e
000000d0: 0b51 9b3e 3211 c2bd 911b a5be df26 ba3d
000000e0: 3b13 6c3e 0b14 b53c f5b7 c13d 2cc7 a63e
000000f0: 450d a2be 6c0b 7f3d d87d e73d ae37 253d
00000100: 57d3 d1bd 1a58 f1bd 8d53 4a3e cf82 913d
00000110: a71f f83d d94b b43c 78e3 40be 269e 2c3e
00000120: 6640 2abe 8944 3dbe a134 28be caae 92be
00000130: 4399 85be 57dd 5a3b ee02 afbe da3b 6c3e
00000140: 72b0 7ebe 92d7 e33d 6744 223e a88f fdbd
00000150: 183a e73d 52a1 a23e ad5d aabe c604 ab3c
00000160: d97f 853e aa24 b13e 2135 e73d 62e0 a03e
00000170: ee4e 12be 80f8 a93e 1b55 bb3d b07f 7cbe
00000180: 9259 4b3e 5432 913e 715d 93be da5c 343e
00000190: 7e2c b93d 53e2 8a3e 6c67 92be d613 313e
000001a0: 6efa ba3e 46fa a2bd 9c24 f73d ce58 9dbe
000001b0: 1afd 8f3d 6ead 5cbe 01ea 9abe dab4 593e
000001c0: c5be 303e 08f8 383e 634e 8c3e 009b 8cbd
000001d0: b041 68be e109 5b3e 3d37 913e 4c66 89be
000001e0: 8714 81be fac5 37be 8b45 68be f9ee 443e
000001f0: 3646 92be 00d9 d23d 541b 263d ec80 68be
0.10802932 0.15766454 -0.23922919 0.03571124 -0.08550244 0.23469497 -0.053843115 -0.19209424
0.20008938 -0.14726341 -0.009391238 -0.03508416 0.19158605 -0.02679498 0.1525064 -0.2051167
0.032103825 0.3282869 -0.18452623 -0.05590529 -0.039690677 0.10847271 -0.11441906 0.121325664
-0.10715493 0.02854899 0.3252348 0.29240125 -0.08793473 -0.17171322 -0.17215437 -0.04057905
0.016124211 0.13611847 -0.05927084 0.17125285 -0.0042748204 0.078846715 0.3331232 0.0418337
0.010453384 -0.05661759 0.24182925 -0.2747036 -0.15039763 0.07921767 0.21749969 -0.34646672
-0.030277694 0.08057194 0.30407315 0.17719668 0.30335268 -0.09475936 -0.32247594 0.09089445
0.23054211 0.022104284 0.09458915 0.3257383 -0.3165075 0.062266752 0.113033 0.040336303
-0.10245388 -0.11784382 0.19758435 0.07105028 0.12115412 0.022008823 -0.18836772 0.16857204
-0.16626129 -0.18483175 -0.16426326 -0.28648978 -0.26093492 0.003339609 -0.34181923 0.23069707
-0.24871996 0.11125101 0.15846406 -0.12380916 0.112903774 0.31763703 -0.33274594 0.0208763
0.26074103 0.34598285 0.112894304 0.3142119 -0.14287922 0.33197403 0.09147092 -0.24658084
0.19858387 0.2835871 -0.28782228 0.17613545 0.09041689 0.27125797 -0.2859453 0.17292723
0.36519188 -0.07957892 0.120675296 -0.30731815 0.07030697 -0.21550533 -0.30256656 0.21260396
0.17260273 0.18063366 0.27403554 -0.068655014 -0.22681308 0.21390487 0.28362456 -0.2683586
-0.25210974 -0.17946616 -0.22682779 0.19231786 -0.28569192 0.10295296 0.040553406 -0.2270543

encoder.convs.0.edge_mlp.2.weight f4 [128, 128]
00000000: 084b 35bc 4597 c23c 9575 b5bd 9cce 01bd
00000010: 249c b7b9 9115 90bd 4057 14bb ee9a debc
00000020: 3164 03bd 6953 25be 4110 8b3c d867 523d
00000030: a4f2 b43c da4e 533d 2ddd 773d beff a93d
00000040: 0427 133e 7d6e 563c ab63 79bd 7f2b b83b
00000050: c0eb 8e3b fa50 c13c b1a3 25bd 0da2 01bd
00000060: a9f7 af3d aa88 9e3d 3158 6abd 9a88 493d
00000070: 7661 a3bd 2d0b 97bc 8911 4d3d 275c c4bc
00000080: 44b5 31bd d3b1 853c 502d ac3d ce10 22bd
00000090: bbd0 65bd b90c acbc e647 bb3d 3076 623d
000000a0: 1949 333d cdf3 ddbd e00b 5f3d f3db 7ebd
000000b0: b530 f6bd 44e1 223c ce43 3dbd 4416 32bd
000000c0: d0dc 983d 5771 2b3e ddfd 8dbd 205f a83c
000000d0: 710b 97bb 5ca8 aebd 7966 94bc 03d1 43bd
000000e0: bbd2 6fbd a4be d63d 2a23 413e d9f6 2d3d
000000f0: fa27 aabc bd95 16bd 7608 b03d 1775 d8bd
00000100: 7194 b6bc b877 193d a2a6 823d ef97 21bd
00000110: 9df5 a4bd 4adb 273e ff3b 2a3c 1454 ddbc
00000120: 5f63 883b 5b9e 9cbd fdeb 973c 1039 a03d
00000130: 2776 98bd 7fde 8bbd 5630 1abd 496b 2c3b
00000140: 20d4 de3d f233 9a3a ce2a cc3d d64f cf3d
00000150: 340d 7f3c e1ac 85bd 1a25 5cbd 6b48 8d3d
00000160: 6210 613b 2858 57bd 6efd c93d dfe1 8cbd
00000170: dc7a 06bd 2b87 a83d f0b1 6f3a 5266 fc3b
00000180: b377 a839 8b53 3f3c 6b6f 8fbc 74ef a5bd
00000190: 7d5e c63c b430 95bd 703d 27bc 6d7b 86bd
000001a0: 7611 6c3d d863 2dbc 7fd7 d63d c26c 50bd
000001b0: 5408 b0bd dcb6 d43d 7d4f 483b 8637 313e
000001c0: c4dc 5fbd 57bc 023d 4c9e e93c a3b4 513d
000001d0: 19cf 893a b29a 22bd 381c 08bc 24d1 c4bc
000001e0: d6f8 1b3c 5d38 c3bd 679f 863d 4e9e 353d
000001f0: ad8f b0bc e401 83bc 73e9 cbba c07e cabb
00000200: 5987 fcbc cdc9 69bd b409 15bd d05b d13b
00000210: 3b32 9c3d 4840 a93d a346 803d fbf7 07bd
00000220: 3d43 4bbc 5083 97bd 0f9c 883d 7b8b 04bc
00000230: 541d 9c3d 308d e5bd ad07 11be 2965 e2bd
00000240: f519 d8bc bbdf c9bc eef6 1cbd 93c0 563d
00000250: e6dc c23c 877d 643a d674 a2bd 79ad 5ebc
00000260: f65d cc3c 34b2 113d 35ad 52bc 4849 1dbd
00000270: 7149 833d 4843 82bd a798 1ebe 0f91 3ebc
00000280: d9f9 493d cb45 b53c bd51 303d 873b 0f3d
00000290: 664a 123e abc5 8b3d 246e 6b3d 30cf e83d
000002a0: 294d cbbd 3480 dcbd 8dd8 1dbd b59f 7cbd
000002b0: 57fe 013e 1674 063d 58c2 b2bc 7f1b b7bc
000002c0: e8aa 23bd b231 9fbb 9bc0 cc3d 25e0 58bd
000002d0: 1ef9 ee3c eab6 ab3b dfb6 ac3d 2265 763a
000002e0: 044a 06bc 5a88 1b3d 09df 63bd 878a 5bbd
000002f0: e35a 5ebd 8725 253d cfcf afbb b0e0 453d
00000300: b047 12bc ffee 22be e39a f3bd 7c95 c2bd
00000310: a970 2fbd 70dd 4b3d 9fc2 83bc d825 e13d
00000320: cc5b b93d 46d8 923b fb36 cd3d 2ce7 bd39
00000330: 6b7f b13c fbde 8ebd ce28 ecbd b94e 623d
00000340: b726 5e3d 35c3 f2bc ff74 883d e349 2dbd
00000350: b57a d9bd ca57 b53d 93d2 e9bd 51ea 4b3c
00000360: 95d3 743d bdfc 7b3c 7719 923c 6303 08be
00000370: 9212 fd3d c6aa 2ebc 93a8 2e3d 3e64 3abd
00000380: 3e71 ffbc c876 66bd ecd5 d73d b8e8 9dbd
00000390: 3781 00bd 72d2 b23d 2817 f5bc d072 00bd
000003a0: 51c7 c4bd 2718 efbd 5775 33bd 84b8 463d
000003b0: 52f4 f33c 3b3d a0bc 6efc 693d acd3 5f3d
000003c0: b203 093d a133 acbd 4c79 deb8 3fcf 58bd
000003d0: a7be 49bc 6944 523d e362 4c3d cf4d b93c
000003e0: 10ff b6bd bf1a 51be ccda ed3b 35a7 4e3d
000003f0: afaa fbbc 0306 02bd 21be 6d3d 3fa4 80bd
-0.011065252 0.023753772 -0.088603176 -0.03169118 -0.00035020814 -0.070353635 -0.0022635013 -0.027173486
-0.03207797 -0.161451 0.016975524 0.051368564 0.022088356 0.05158887 0.060513664 0.08300732
0.14370352 0.013087866 -0.060886066 0.0056204195 0.0043615997 0.023598183 -0.04043931 -0.031648684
0.08592159 0.0774091 -0.057213012 0.04920254 -0.079775736 -0.018437946 0.05006555 -0.023969723
-0.04338576 0.016320145 0.0840708 -0.039566807 -0.056107264 -0.02100216 0.09144573 0.055288494
0.043770883 -0.10837517 0.054454684 -0.06222148 -0.12021009 0.009941403 -0.04620724 -0.043478265
0.07463992 0.16742454 -0.06933186 0.020553172 -0.004609518 -0.08528206 -0.018115269 -0.04780675
-0.058550578 0.104855806 0.1886107 0.04247174 -0.020771015 -0.036763895 0.08595364 -0.10569208
-0.02228758 0.03746769 0.06379439 -0.039451536 -0.080546595 0.16392246 0.010390281 -0.02701763
0.0041622366 -0.076473914 0.018545145 0.07823384 -0.07444411 -0.06829547 -0.037643753 0.0026309064
0.108803034 0.0011764748 0.09969102 0.10122649 0.015567113 -0.06527115 -0.05374632 0.06898578
0.003434204 -0.052574307 0.09862791 -0.06879019 -0.03283201 0.08228906 0.0009143641 0.007702627
0.0003213264 0.011677633 -0.017509183 -0.08102313 0.024214977 -0.0728468 -0.010207519 -0.0656651
0.05763384 -0.010582887 0.10490321 -0.05088497 -0.085953385 0.1038644 0.0030564957 0.17306337
-0.054653898 0.031917896 0.028517865 0.05119766 0.001051399 -0.03969831 -0.008307509 -0.024025507
0.009519776 -0.09532235 0.06573372 0.044340424 -0.021552885 -0.015992112 -0.0015557244 -0.0061796606
-0.030826258 -0.057077218 -0.036386207 0.0063891187 0.07626768 0.08264214 0.06263473 -0.033195477
-0.012406168 -0.07398093 0.06670391 -0.008089895 0.076227814 -0.1120857 -0.14163084 -0.11054451
-0.026379565 -0.024642816 -0.038321428 0.052429747 0.023786973 0.0008716215 -0.07932441 -0.013591164
0.024947148 0.03557034 -0.012858679 -0.038399965 0.06410492 -0.06360489 -0.1548792 -0.011631264
0.04931054 0.022128006 0.0430467 0.03496888 0.14286193 0.068248115 0.057478085 0.11367643
-0.099268265 -0.1076664 -0.038536597 -0.061675746 0.12694679 0.032825552 -0.021821186 -0.022351978
-0.03995791 -0.004858219 0.09997674 -0.052948136 0.029171523 0.005240311 0.084333174 0.0009399225
-0.008196358 0.03797183 -0.055632625 -0.053598907 -0.054285895 0.040318992 -0.005365349 0.04830998
-0.008928224 -0.15911482 -0.11894777 -0.09501168 -0.04283205 0.049771726 -0.016084014 0.10993546
0.09050712 0.004481348 0.10020252 0.00036221126 0.021667203 -0.06976124 -0.115312204 0.055250857
0.05423614 -0.029634098 0.0666294 -0.042306792 -0.10619108 0.08854635 -0.11417117 0.012446002
0.059772093 0.015380082 0.017834408 -0.13282542 0.12357058 -0.010660833 0.042641234 -0.045505755
-0.031181928 -0.056265622 0.10538849 -0.07710403 -0.03137323 0.087315455 -0.029918268 -0.031359494
-0.09608329 -0.116745286 -0.043813076 0.04851581 0.029779587 -0.019560447 0.0571255 0.054645225
0.03345079 -0.08408285 -0.00010608378 -0.05293202 -0.0123135215 0.051334772 0.049898993 0.02262011
-0.08935368 -0.20420359 0.0072587486 0.05045243 -0.030721037 -0.031744014 0.05804265 -0.062813275

encoder.convs.0.edge_mlp.2.bias f4 [128]
00000000: 1cda e33c a99f 89bd 0e24 863b 713a 043d
00000010: ddaf 2cbd 7b52 023d c991 d3bc f13e 9fbd
00000020: 94d4 84bd e8fd 7dbb c9d4 acbd b3eb 9a3d
00000030: 1d9e fa3c 9874 aa3d a2ff 56bc ff19 723d
00000040: cc0e 8ebd 5615 0f3d 5db8 203d aafc 363c
00000050: 2406 2fbd 363d 02bd 9e3f e0bc 7479 9c3d
00000060: 14ee 893c 6bbc fcbc 6aa8 d2bc 8656 a83a
00000070: 2f77 a23c 8d6e ac3d a07c 3b3d 62e0 803d
00000080: 9c9c 20bd 33bc b93c a566 6a3d 0caf 723d
00000090: cb09 c83b 72da a03d b0fa 4cbd 8fdf 9fbd
000000a0: 8c5b 863c fcea 733d 15fb 1e3d aa41 89bd
000000b0: 88d3 9f3d 8ba7 98bd 6828 7b3d e523 a3bc
000000c0: 3367 a93d 3622 263d bca0 593d 6802 28bb
000000d0: 8675 a9bd e5b0 8abd 4790 82bd 7782 25bd
000000e0: 3c8f 35bd 7e2d b23c a182 9cbd 9c66 8ebd
000000f0: 3965 9c3b 120b adbc ab5a 6bbc 9bae a9bd
00000100: 0b95 8bbd 4d7b adbd 2613 5abd 2f64 8fbc
00000110: d037 87bd 0f5c 95bd 2b55 b2bc 2076 843d
00000120: c618 953d ac2d 91bc 4a84 83bd 7712 9f3c
00000130: c139 a8bd 7e0b 84bd 61e2 9cbb 156b c13c
00000140: 318b 03bd a133 82bc dc70 113c 164a 8ebc
00000150: 007b b93c 25bb 073d b2ff 4fbd 0cbd d6bb
00000160: 842c 9ebd 6ca9 23bd d799 bcbd 0840 80bd
00000170: d53a 81bd 1ce6 073c 3825 79bc ddad 7e3c
00000180: 43c9 663d 927b 6b3c 1ba0 4bba eade 0a3d
00000190: 5a4d 51bd 3766 8ebb 75f9 c03c 88c7 833d
000001a0: 16a7 a93d 514f 91bd 4e95 313c 937f 9f3d
000001b0: c673 653c 642f a1bd e070 713d 0f88 92bd
000001c0: c13e 89bd f403 72bd 1285 813d 3eb1 9f3d
000001d0: d31f f5bc a6f2 ff3c abdb b43c 33dc b8bd
000001e0: bdca 4ebd 0629 0ebd 11e3 67ba c464 c9bc
000001f0: 50ed 513d 9c3e 46bd 0763 22bd bff9 18bb
0.027813964 -0.06719906 0.0040936535 0.032282297 -0.042159904 0.03181694 -0.025826352 -0.07775677
-0.064858586 -0.0038756076 -0.08439023 0.07564487 0.030592972 0.0832302 -0.013122471 0.059106823
-0.06936416 0.034932457 0.039238323 0.011168638 -0.042730466 -0.031796657 -0.027374085 0.07640353
0.016837157 -0.030851563 -0.025715072 0.0012843169 0.019832222 0.084195234 0.04577315 0.062927976
-0.039211854 0.022672748 0.057226796 0.05924897 0.006104683 0.07854165 -0.05004376 -0.07806312
0.016401075 0.05955027 0.03881367 -0.067019776 0.07804018 -0.07453831 0.06131783 -0.019914577
0.08271637 0.04055997 0.053131804 -0.00256362 -0.08274369 -0.06772021 -0.06375175 -0.040407624
-0.044326052 0.021750208 -0.07642103 -0.06953165 0.004772809 -0.021123443 -0.014364879 -0.082852565
-0.06815537 -0.084707834 -0.053240918 -0.017503826 -0.06602442 -0.072929494 -0.021769127 0.06467843
0.07280116 -0.017721973 -0.064217165 0.019417984 -0.08214141 -0.064475045 -0.0047877287 0.023610631
-0.032115165 -0.01589376 0.008877005 -0.017369311 0.022641659 0.03313746 -0.05078096 -0.006553298
-0.077233344 -0.039956495 -0.0920903 -0.06262213 -0.063100494 0.008294608 -0.015206628 0.015544382
0.056344282 0.014372723 -0.0007767693 0.033903994 -0.05109916 -0.004345681 0.02355645 0.06434542
0.08283822 -0.070952065 0.01083882 0.07788005 0.014004653 -0.07870367 0.058945537 -0.07154857
-0.067014225 -0.0590858 0.06324209 0.07797478 -0.029922402 0.031243633 0.022077402 -0.09026375
-0.050486315 -0.03470709 -0.0008845786 -0.024584182 0.05125171 -0.048399553 -0.03964522 -0.002334222

encoder.convs.0.norm.weight f4 [128]
00000000: df29 703f ceab 813f fcb9 763f 421a 783f
00000010: de1b 793f 67ce 783f 29b7 7a3f c6a7 6f3f
00000020: 5f09 733f 6a0b 743f ac52 783f c23a 713f
00000030: cedd 753f e060 733f db98 723f 932a 793f
00000040: 7768 723f 43f5 723f 769a 743f 5955 743f
00000050: 3942 703f 60d1 793f 9d0b 793f 8dd8 6d3f
00000060: 0113 753f 30f6 733f dffc 713f fb61 763f
00000070: 7689 6d3f beea 7f3f c772 753f 24a2 763f
00000080: 37f1 6f3f dddf 6f3f 78c0 7e3f 4350 743f
00000090: 45e3 6f3f 61bb 713f 8df9 723f 5fa3 6e3f
000000a0: ab0e 723f 260e 773f e384 723f 1950 713f
000000b0: c7f6 7d3f edf8 703f cc0c 6e3f 5407 723f
000000c0: 99f9 6f3f 392f 723f 1ddd 6d3f 8bc3 7e3f
000000d0: 4bdc 763f b970 723f 9916 823f 2bcc 763f
000000e0: d236 723f a85d 723f 12c8 763f 482e 753f
000000f0: 188d 6f3f c7a0 6e3f d8fa 6f3f 3c50 823f
00000100: 032b 703f 13a9 703f 4744 6f3f cf10 723f
00000110: daef 703f b121 773f 6351 843f f512 743f
00000120: 7fac 723f 0678 6e3f c635 723f 3599 773f
00000130: 030b 763f 44e6 703f 7a9f 703f c65c 703f
00000140: 4e08 753f fb9d 723f ef33 733f bfe9 743f
00000150: af02 6e3f 6e6a 723f d42e 763f 9978 783f
00000160: bdf7 793f 4ae2 783f 99ec 6f3f 8ead 743f
00000170: ab22 6f3f c254 723f 96a8 733f 39bf 6f3f
00000180: 17d2 743f 46e9 813f c98e 813f 11d9 7d3f
00000190: 59ce 6f3f 36aa 6d3f 1536 6d3f d09e 763f
000001a0: 0f2f 753f 6a03 703f 3893 783f d3df 6e3f
000001b0: 5a4f 753f 6fcc 703f 876e 773f 344b 743f
000001c0: 0330 703f a86b 713f 477e 753f a8f5 703f
000001d0: 1ed0 733f 5088 6f3f 03d7 783f 441b 743f
000001e0: ba46 723f 7fe5 6e3f 6ba3 703f 9cd0 733f
000001f0: 499a 703f 57e7 713f a917 703f 0cbe 6e3f
0.9381389 1.0130556 0.9637754 0.96915066 0.97308147 0.97189945 0.9793573 0.93615377
0.94936174 0.95329916 0.9700115 0.9423028 0.9604157 0.95069695 0.9476449 0.9733059
0.9469065 0.9490549 0.9554819 0.9544273 0.9385105 0.97585106 0.97283345 0.92908555
0.9573212 0.9529753 0.94526476 0.96243256 0.92787874 0.99967563 0.9587826 0.96341157
0.9372744 0.93700963 0.99512434 0.9543497 0.9370616 0.9442654 0.94912034 0.93218035
0.9455363 0.96505964 0.9473402 0.94262844 0.9920468 0.9412983 0.92988276 0.9454243
0.9374023 0.94603306 0.9291552 0.99517125 0.9642989 0.9470325 1.0163146 0.96405286
0.946149 0.9467416 0.96399033 0.95773745 0.93574667 0.93214077 0.9374213 1.0180736
0.9381563 0.94007987 0.9346356 0.945569 0.94115984 0.96535784 1.0337337 0.95341426
0.9479446 0.9315189 0.946133 0.9671815 0.9611055 0.9410136 0.9399334 0.9389156
0.95715797 0.9477231 0.9500112 0.9566917 0.92972845 0.9469365 0.96165204 0.9705902
0.97643644 0.9722029 0.93720394 0.95577323 0.93412274 0.9466058 0.95179117 0.9365116
0.9563307 1.0149314 1.01217 0.9915934 0.93674237 0.92837846 0.9266065 0.9633608
0.9577493 0.9375521 0.9709964 0.9331028 0.95824206 0.9406194 0.96653026 0.9542725
0.9382326 0.94304895 0.9589581 0.9412484 0.95239437 0.9356737 0.9720308 0.95354104
0.9463917 0.93318933 0.93999356 0.9524019 0.9398542 0.9449362 0.937861 0.9325874

encoder.convs.0.norm.bias f4 [128]
00000000: bb34 c7bb e5dd 75bc 535d ba3c 5093 e1bc
00000010: fddf 303c 09b2 013d 7254 afbc 51b6 f4bb
00000020: 7c70 063d 155e b13c 9861 873c 358f 07bd
00000030: 749d 4c3d cb6e db3d 6943 253c ca83 cbbc
00000040: 06c8 fa3c 0083 fb39 f105 e0bb 0456 00bc
00000050: f8bb 373d 23f2 a1bc 838d babc 32bf 24bd
00000060: 7f72 5bbd b75b b2bb 4145 3fbd 293d b8bd
00000070: e6de 3e3d 0185 c0bc 77e6 b13c 4f36 3fbd
00000080: 22db b73c 2896 b5bc 93e3 adbc f6ce 4b3c
00000090: 5556 893c bc76 6ebc 1f50 183d 7737 8abc
000000a0: c86b 95bd 2c4a 18bd 4623 6f3c dde0 35bd
000000b0: f089 0f3d b853 583c 307b 4bbc 37db d73c
000000c0: fc7b 5abc 91c8 1d3d 5fde 6ebb 5a46 8fbb
000000d0: ffe8 6ebd 4062 47bc f422 b73c 5e5e 653c
000000e0: 2538 76bd 7e6f 32bd 9763 21bd 87c3 3fbc
000000f0: 5342 bf3b 874f 66bd 1a4e dfbb d022 9c3b
00000100: 3deb 753c 7d8a fcbc ec2d 843c 5d2c c73d
00000110: 7340 e9ba c362 233c aeef 363b 7c3c 36ba
00000120: f52d 333d 0ae7 19bd deb1 33bd 31f1 49bc
00000130: 7cab 493d 107f eb3c c396 db3c a659 e2bc
00000140: 98f2 73bb 295b 80bd 80d1 c0bd 1f04 38bd
00000150: b1b7 b2bc 559b 913b af21 153d 1882 99bd
00000160: 2ab6 35bd 33a5 61bd e265 003d 6ea2 cfbc
00000170: 75d3 ffbb 67e0 1a3d 781f 823a 5e7b a4bb
00000180: 2e26 65b9 41d8 ef3a 2211 a63c 2afa 9a3c
00000190: 1ae6 5cbc 9a99 273d ba16 0a3c aead 86bc
000001a0: e248 3f3c f60a 78bd f6dd 23bd 2364 dfbc
000001b0: 5557 41bc 2a88 ebbc 60ac 263b e0f0 5d3d
000001c0: 0431 bd3c b0e7 15bc 8c27 a03c 48d4 613d
000001d0: a00e 26bd 2f1d 83ba f645 a1bb 5894 d43c
000001e0: a450 753b e5ee ebbb 4b80 51bd 2f21 20bd
000001f0: 8fcd 9f3b 90c6 30bd 62d4 4639 9493 903c
-0.006079284 -0.015006517 0.022749579 -0.027536064 0.0107955905 0.03166393 -0.021402571 -0.007468023
0.032822117 0.021651307 0.016526029 -0.033095557 0.049954847 0.107144915 0.010086873 -0.024843115
0.030612957 0.00047972053 -0.006836646 -0.007833008 0.044856995 -0.01976878 -0.022772556 -0.0402214
-0.05357599 -0.005443062 -0.046696905 -0.089960404 0.04659929 -0.023500921 0.02171634 -0.046682652
0.022443358 -0.022166327 -0.02122668 0.01243948 0.0167648 -0.014554676 0.037185784 -0.01687215
-0.07295948 -0.03718011 0.014595812 -0.0444039 0.035043657 0.013203554 -0.012419507 0.026349647
-0.013335224 0.038521353 -0.0036448461 -0.0043724 -0.05832767 -0.012169421 0.022355534 0.01399955
-0.060112137 -0.04356336 -0.039401617 -0.011704332 0.005836764 -0.056228187 -0.0068147304 0.004764892
0.015009698 -0.030827755 0.016135179 0.097252585 -0.0017795697 0.009972277 0.0027913856 -0.0006951762
0.043745 -0.03757385 -0.0438708 -0.012325571 0.049235806 0.028747112 0.026805287 -0.027630638
-0.0037223455 -0.062673874 -0.09414959 -0.044925805 -0.021816107 0.004443566 0.036409076 -0.074955165
-0.04436318 -0.055089187 0.031347163 -0.025346007 -0.00780719 0.037811663 0.0009927591 -0.0050195893
-0.00021853365 0.0018298702 0.020271841 0.018918116 -0.013482595 0.04091797 0.00842827 -0.016440239
0.011675091 -0.06055733 -0.0400066 -0.027269429 -0.011800607 -0.028751452 0.0025432333 0.054184794
0.023094662 -0.009149477 0.019550107 0.055134088 -0.04054129 -0.0010003204 -0.00492167 0.025949642
0.0037432099 -0.0072001093 -0.05114774 -0.039094146 0.0048767994 -0.043158114 0.0001896187 0.017648496

encoder.convs.0.norm.mean_scale f4 [128]
00000000: 66c0 763f 8bdc 773f 3be8 713f 5279 6b3f
00000010: 8bd1 6d3f bb04 823f bc16 683f 6aa0 7c3f
00000020: e22e 773f 00bb 683f cc19 743f f704 7b3f
00000030: 13e5 773f 1696 8e3f 9a1c 713f 0c20 703f
00000040: 5b71 723f 4433 7b3f 7955 813f 52af 7d3f
00000050: 4806 713f a460 6e3f e036 6c3f 627e 843f
00000060: 9d5c 5c3f 5694 733f 158c 723f f23a 8d3f
00000070: f0f1 7d3f f99b 713f bead 6e3f f0bb 793f
00000080: b4af 823f 0531 813f 8874 6e3f 92da 763f
00000090: d9f6 793f cf38 6a3f faf2 703f a5f7 793f
000000a0: 9edf 863f 3858 743f 1187 783f 8b59 813f
000000b0: b71a 7e3f ad6a 7b3f 445e 813f b1d8 773f
000000c0: d63f 7a3f 4a33 6d3f 7ef0 733f 4fa5 663f
000000d0: bdc4 5f3f e66b 733f c966 603f 53b6 673f
000000e0: d3be 703f 5a25 7b3f 0ef0 7a3f 2422 733f
000000f0: a05c 793f adc6 663f d8e6 723f e0dc 743f
00000100: b90b 7a3f d605 7c3f e741 733f 6c9f 8d3f
00000110: a1d6 803f bbe0 6b3f 0f49 803f 3d45 733f
00000120: 3688 7a3f fca7 783f 15e1 803f fab1 5e3f
00000130: 630c 783f 4e73 703f 5df9 823f 9e64 833f
00000140: 36e7 6c3f 8a5c 823f 83cb 813f dd53 5c3f
00000150: 0cbe 7a3f f65e 783f 7403 7e3f 9e80 873f
00000160: fd41 7a3f ad45 873f 347f 833f 9392 763f
00000170: 9c86 673f 92fc 763f 8c50 693f 4e07 713f
00000180: 4c35 6e3f cbe9 6b3f 52b0 743f c24e 673f
00000190: af92 7b3f c059 653f 975a 7e3f 18e9 813f
000001a0: 391a 823f 78f3 843f fabe 853f c113 813f
000001b0: f9d4 6b3f f7ab 723f 3789 693f 6e50 803f
000001c0: 0f7e 773f fb89 703f 69e3 683f 4fa4 6f3f
000001d0: db7d 723f 5106 793f 1b05 6b3f d798 7d3f
000001e0: 16d9 6f3f 107e 803f ff36 843f 3e7e 713f
000001f0: d27d 773f 46d4 693f 39a9 6e3f 405e 783f
0.96387327 0.96820897 0.9449498 0.91981995 0.9289786 1.0157694 0.9065969 0.9868227
0.9655591 0.9091034 0.9535186 0.9805445 0.96833915 1.1139553 0.9418427 0.937989
0.94704217 0.981251 1.0104209 0.9909564 0.9415021 0.9311621 0.9227123 1.0351069
0.86078817 0.9514822 0.94745 1.1033614 0.9919729 0.9437862 0.9323386 0.97552395
1.020987 1.0093085 0.9314656 0.9642726 0.97642285 0.91492933 0.9412075 0.976435
1.0536993 0.9544711 0.97081095 1.0105451 0.99259514 0.9820965 1.0106893 0.9681502
0.97753656 0.92656386 0.95288837 0.9009599 0.87409574 0.95086515 0.8765684 0.9051258
0.94041175 0.9810387 0.98022544 0.9497397 0.9740696 0.90146905 0.9488349 0.9564953
0.9767414 0.98446405 0.95022434 1.1064277 1.00655 0.92139786 1.0022296 0.95027524
0.9786409 0.97131324 1.006869 0.8699032 0.968939 0.9392594 1.023235 1.0265081
0.925403 1.0184491 1.0140232 0.86065465 0.9794624 0.970199 0.9922402 1.0586126
0.9775694 1.0568138 1.0273194 0.96317405 0.9043977 0.9647914 0.9113853 0.9415177
0.93050075 0.92153615 0.95581543 0.9035455 0.98270696 0.8959007 0.9935698 1.014926
1.0164253 1.0386801 1.0448906 1.0084153 0.92121845 0.9479365 0.91225 1.0024545
0.96676725 0.9396054 0.90972 0.9361009 0.9472329 0.97275263 0.91804665 0.9906134
0.9369062 1.0038471 1.0329283 0.94333255 0.9667636 0.9133953 0.93226963 0.97018814

encoder.convs.1.node_mlp.weight f4 [128, 256]
00000000: 7d08 13bc 69b7 e8bb 4bc1 b4bc c57c 2e3d
00000010: bfd9 603d b01b 2abc feba 6fbc 8ccf 843d
00000020: 5e45 aa3b 4fa5 98bc aa36 49bd abb0 e03c
00000030: f226 16bd e17e 91ba 1957 c1bc ec2b 5d3c
00000040: 6727 4e3d 0a8f d93c 724a a2bb b6ef 84bc
00000050: 7ae5 d13a 35ac 813c 6428 843c f064 16bb
00000060: 2a97 37bc 4133 393d 057a 6fbd ab8b 6a3d
00000070: c01e 883c 92d4 3bbd 3350 743d dcea a1bc
00000080: 27b8 27bd c4fa 0ebd efbb a33b a7e1 5bbd
00000090: a024 8ebb 03cf b93c 7672 75bd ee37 3e3d
000000a0: 4d0a d33c a1a5 4d3d a57e 3f3d 5a93 103c
000000b0: 8f45 35bc 7ba1 6dbd 61e6 eebc 86c0 363c
000000c0: ea7e 083d cbaa 533d 252b b93c 7473 85bc
000000d0: 5a91 4a3c ba37 c03c c7fe 623d 3565 153d
000000e0: c32f 0dbd 4b92 f2bc 6d7b b23b d1ab 433c
000000f0: b852 81bd 1a61 283d 6f0e 5a3d 213d 8d3d
00000100: 1111 063d 78fd 833d 1ae5 ae3b bbbf c6bc
00000110: 353e 163c 5d20 c33c b489 693c a41c 963c
00000120: 5143 afbb 3b55 2cbd 7ff6 293c 9a68 81bc
00000130: e492 54bc c94b 44bd 8246 d8bc a083 edbc
00000140: 008c e63c 53a3 183d f092 50bd 6d30 c53c
00000150: d366 8e3c 814f dfbc 45b6 19bb b703 913c
00000160: 1134 193d 9382 1dbc 5fec 583a 4a92 f43c
00000170: 70ae 31bd e9f6 35bc 5dbe 4fba cd7f 263d
00000180: 5b96 063c 0ce2 51bd f7e9 febc 15f9 463d
00000190: b3c0 da3c 5994 f6bb f7a9 6a3d 6b6c f1bb
000001a0: 942c 72bd fd3f a03c dc24 0c3c 0467 9cbc
000001b0: da3d 053d 20af bcbc 0b18 52bd 9d2f 2c3d
000001c0: a9e6 ef3c fe4c 3bbd 7c67 733c cc25 153d
000001d0: 7b18 cf39 f1f4 49bc a227 bbbc 2ac9 8ebc
000001e0: 3d1a 35bd 76ca 683d 71e1 9e3d 50a9 283d
000001f0: f3f6 8abc b7bb acbc 0921 ae3b b61c 1d3d
00000200: 85b7 b1bd 313b d4bc da32 15bd e866 cdbb
00000210: 1ce9 a4bd a830 a63b b30e 72bd a6d5 0d3d
00000220: 8eb0 7e3d dae8 c5bd c229 c3bd d479 0c3d
00000230: 7929 863d edb4 efbd ed6e 673d 6b2f b2bd
00000240: ac16 743d 985e dd3c 1cc7 b43d 814c 013d
00000250: 503b 0ebd 8608 ac3c ea6d 4fbd 3514 f33d
00000260: 181e 9c3d f2c4 66bd 5405 d43c 84ed 9fbd
00000270: a004 d03d ffc6 f53b b30f 77bd 1566 6ebd
00000280: dd09 3abd 5525 f73c c902 1d3d 4a9a ce3c
00000290: 13cd aeb9 233b 1e3e b0ba 0bbd 8fd1 ad3c
000002a0: e81a 05bd 17c4 a13c d3d5 69bd 7bf6 d1bc
000002b0: d9b2 ad3c f0f6 a2bb ce2d 2e3d f93e ddbc
000002c0: 01f1 66bd d057 ac3d ec1b 46bd c1cb 66bd
000002d0: 6dec 143d 3fb4 1bbc f635 36bd f54d d3bd
000002e0: 7022 85bd 30de 8f3d 9365 a1bd 024e 59bd
000002f0: 3267 79bb dfa8 30bd f1c5 2abd 345c bc3d
00000300: 0d13 b43d 5853 aabd b80d 68bd c515 04bb
00000310: 9ad2 c13d b859 02bd 8b28 5a3d 4a51 8a3c
00000320: f222 113d 7f85 003c 2e3a d93c bfcb 053d
00000330: 4b00 7abd 862a 10bd b29c a43c c8af 643c
00000340: b3cf 8c3c 847b e0bd 9d02 113c 47ac 30bd
00000350: 80d2 bb3d 08f9 ac3b a65c a83d 97e1 b33c
00000360: 7004 413d b38c 25bd 457b bcbc b121 0cbc
00000370: b78f 7fbc c8df be3d b2fa 9fbd 27ee 59bd
00000380: 37bb dc3d d8b2 afbc 1454 9ebd 6584 b23c
00000390: f64a 233d 94b6 59bd d25a fa3c 28ea 0ebe
000003a0: 1ef9 c8bd d1a2 1c3d 73b2 1cbd 7ce8 613c
000003b0: ca2a 2d3d e287 2bbc 338c e63c c629 1d3d
000003c0: ca3f 49bd fa56 a8bd 0673 d3bd aac3 303d
000003d0: 50e0 e6bc d8bb c33a b513 17be 509b 273d
000003e0: b312 97bd 6a34 81bd d475 5abd 98f0 93bd
000003f0: 276a 52bd ddfe 5cbd f764 7ebd eb89 a93d
-0.008974192 -0.0071019423 -0.022064826 0.04259946 0.05489516 -0.010382578 -0.014631985 0.06484899
0.0051962575 -0.018633513 -0.049124397 0.027427992 -0.036658235 -0.0011100435 -0.023601102 0.013499241
0.050330546 0.026557464 -0.004952722 -0.016227584 0.0016013824 0.015829185 0.016132541 -0.0022948347
-0.011205474 0.045214895 -0.058465976 0.057262104 0.016616225 -0.04585702 0.059646796 -0.01976531
-0.040947106 -0.034907117 0.0049967687 -0.053681996 -0.004337862 0.022681719 -0.05992361 0.046440057
0.025761748 0.050206784 0.046751637 0.008824194 -0.011063947 -0.058015328 -0.029162588 0.0111543
0.03332416 0.051676553 0.02260358 -0.016290404 0.012363756 0.023464072 0.055418756 0.03647347
-0.034469377 -0.029610774 0.0054468424 0.01194282 -0.063146055 0.04110823 0.05323642 0.06896425
0.03273112 0.0644483 0.0053373696 -0.024261346 0.009170105 0.023819143 0.014254022 0.018324204
-0.005348601 -0.04207347 0.010373711 -0.015796948 -0.012974475 -0.047923837 -0.026400808 -0.028993428
0.02814293 0.037265133 -0.05092138 0.024070943 0.017383015 -0.02725959 -0.0023454588 0.017701967
0.03740317 -0.009613651 0.0008274968 0.029854912 -0.043379247 -0.011106231 -0.00079247897 0.040649224
0.0082145585 -0.051240966 -0.031117423 0.048577387 0.026703214 -0.0075250086 0.057290997 -0.0073676608
-0.059124544 0.019561762 0.00855371 -0.01909209 0.03252969 -0.023032725 -0.05129246 0.042037595
0.029284792 -0.045727722 0.014856216 0.036413 0.00039500356 -0.012326465 -0.022846047 -0.017429907
-0.044214476 0.056833707 0.07757843 0.041177094 -0.016963458 -0.021085603 0.0053139967 0.03835746
-0.08677582 -0.02590713 -0.03642545 -0.006268371 -0.080522746 0.0050717182 -0.05909605 0.03462758
0.062180094 -0.096635535 -0.09529449 0.03429587 0.06550879 -0.11704431 0.05650227 -0.087004505
0.059591934 0.027022645 0.088270396 0.0315671 -0.034724534 0.021000158 -0.05064193 0.118690886
0.076229274 -0.056340165 0.025881447 -0.078089744 0.10157132 0.007500529 -0.060317706 -0.05820282
-0.045419563 0.030169168 0.038332734 0.025220055 -0.00033340658 0.15452246 -0.034113586 0.02121809
-0.032496363 0.019746823 -0.057088684 -0.025630226 0.021203445 -0.004973285 0.04252415 -0.027007567
-0.056382183 0.084151864 -0.048366472 -0.05634666 0.036358286 -0.009503423 -0.044485055 -0.103176035
-0.06500709 0.07024801 -0.07880702 -0.05305291 -0.0038055894 -0.043129798 -0.041692678 0.09197274
0.08792696 -0.08316678 -0.05665371 -0.0020154577 0.09463997 -0.031823844 0.05326132 0.016884465
0.035433717 0.007844328 0.026517 0.03266501 -0.061035436 -0.035196804 0.02009425 0.013957925
0.017188882 -0.10961059 0.008850721 -0.043133046 0.09171009 0.0052787103 0.08220796 0.021958156
0.047123373 -0.040417384 -0.023007998 -0.0085529545 -0.015598229 0.09320027 -0.07811488 -0.053205635
0.10777896 -0.021447584 -0.077308804 0.021791646 0.03986641 -0.053152636 0.030560885 -0.13956511
-0.0981314 0.03824121 -0.03825612 0.013788339 0.042277135 -0.010469409 0.028143024 0.038369916
-0.0491331 -0.082197145 -0.10324673 0.04315535 -0.028183132 0.0014933301 -0.14753611 0.040919602
-0.073766135 -0.06308825 -0.053335026 -0.07223624 -0.051370766 -0.053953994 -0.062108006 0.08278259

encoder.convs.1.node_mlp.bias f4 [128]
00000000: e95c 7cbd b8b1 f8bb 612c 24bd 0950 0c3d
00000010: af95 953c ac39 13bd 6d27 bf3c 8555 5ebc
00000020: 60a8 803c fcad 443b abd0 4b3b 8177 52bd
00000030: 5a3d e83c a8a3 1cbd 1669 dc3d f335 62bc
00000040: ea18 9d3d f366 423c ddee 14bd d156 52bc
00000050: 1305 49bd a948 edba 1b80 82bd 55c9 9e3d
00000060: 5ebc a7bd 7b4d 1dbd 71e1 e13b 7288 0b3d
00000070: e6b4 18bd 160b 093d ec0a 513b 07b2 9cbd
00000080: b007 96bd 5335 f5bc 40a7 eb3c 4d5f a6bc
00000090: fdab dfbc 591c 3f3d e6f5 0e3c e955 4e3d
000000a0: 115e 813c 13ee f9bc 18b7 933d de5f e43c
000000b0: f49d 81bc fa7f dd3d 138a e13c 8ee1 d83c
000000c0: 5bc0 d83c c8f4 33bd 33bf dd3c d652 4dbd
000000d0: 7222 363c 6f33 fdbc 8900 ea3b b1fc 13bd
000000e0: d9af 653c 561f 673d 3b2c 563d 79cd 2d3d
000000f0: 2ce5 393d 41ff 3dbd f5e6 89bd e5b7 f83c
00000100: 4be8 b2bc 8652 9abb 7690 a1bd abae 8c3c
00000110: 348d a5bd 76cb adbd 5cd3 c7bc fc53 3e3c
00000120: 44d1 09bd 2b18 ccbb 561e ac3b b374 2e3c
00000130: 1748 5f3d e7c4 58bd eda0 97bc 2b78 f43c
00000140: 464c 353d 186e 16bd bad3 c2bc 9ecb 6c3c
00000150: e9fe 7ebb 7be3 c33a 1d17 0f3c 2d43 233d
00000160: fce2 153c f7ed 22b8 71c7 7f3d 76fa c23c
00000170: 8997 c9bc eb67 80bb a5f6 7dbc ae31 d03b
00000180: daa2 513b 76f7 90bc bb8c ff3c 0ce0 ddbc
00000190: f4a5 32bd abc3 953d 9d52 35bd d8de 893d
000001a0: 0958 15bd a381 773d ec5a c8bd d648 aebc
000001b0: 9ab9 89bd 78ae 4d3c 9046 b93d d485 36bd
000001c0: 7da9 a83c e7a7 fabb 5df6 3b3c f8da 063d
000001d0: 3bed dd3d a0f4 5abd a2d2 1d3d bf8b cc3d
000001e0: 6149 d0bc feed 89bd 29e6 d3bd fb96 823c
000001f0: a700 713d 5c5a b6bd dbfb 90bc 3262 923d
-0.061612044 -0.007589545 -0.040081386 0.034256015 0.018259851 -0.035943672 0.02333423 -0.013570194
0.015705287 0.003001093 0.0031099718 -0.0513835 0.028349567 -0.038242012 0.10762231 -0.013806808
0.076707676 0.011865365 -0.03636061 -0.012838081 -0.049077105 -0.001810332 -0.063720904 0.07753245
-0.08190225 -0.03840397 0.00689333 0.03406567 -0.037281893 0.033457838 0.003189738 -0.076511435
-0.07325685 -0.029932654 0.028766274 -0.020309115 -0.02730369 0.046657894 0.008725619 0.0503749
0.015791925 -0.03050903 0.07212657 0.027877744 -0.015822388 0.10815425 0.02753166 0.02647474
0.02645891 -0.043934613 0.02706871 -0.050127827 0.011116611 -0.030908315 0.007141177 -0.036129657
0.014018976 0.05642637 0.052288275 0.042432282 0.04538457 -0.046386007 -0.06733505 0.030361125
-0.021839282 -0.0047095446 -0.07888882 0.017173132 -0.08083573 -0.08486073 -0.024392776 0.011616703
-0.033646837 -0.006228467 0.0052526398 0.01064794 0.05451211 -0.052922156 -0.018509353 0.029842457
0.044262193 -0.036726087 -0.0237826 0.014452843 -0.0038909263 0.0014945114 0.008733538 0.039858986
0.009148356 -3.8845432e-05 0.06244606 0.02380107 -0.02460839 -0.003918638 -0.015500699 0.0063535785
0.0031987936 -0.017696124 0.031195035 -0.027084373 -0.043615296 0.07312711 -0.04426824 0.06731957
-0.03646091 0.060426366 -0.09782967 -0.021274965 -0.06724854 0.012553804 0.09046662 -0.044561222
0.02058863 -0.00764941 0.011472312 0.03292367 0.10836264 -0.05345595 0.038530953 0.09987592
-0.025425615 -0.067348465 -0.10346634 0.015941134 0.058838513 -0.089039534 -0.017698219 0.071476355
