checkpoints/model_C_epoch_9.pth (torch, 552085 bytes, 26 tensors)

encoder.node_embedding.weight f4 [1, 128]
1.8973774 1.4857572 0.8873283 -2.0759587 0.6574451 -1.2289308 -0.03490464 -1.5923235
-0.7499756 1.6284031 -0.38186786 -1.3991315 -0.71241575 -0.5539323 -0.7638611 0.7528594
1.6259855 -0.15557899 -0.49169073 0.4245813 -0.745168 1.0697064 0.7846503 1.6652869
1.2585889 1.288916 0.5996438 1.3155178 -0.22351417 0.04208156 -0.24464573 0.83571917
-1.368728 -0.8592578 -0.19615069 1.6810273 0.31585506 -0.4245594 0.30111942 -0.7521135
-1.5422635 0.99227077 -0.87580687 -0.5828577 -1.2621176 2.1077363 -1.2144076 -0.47367334
-0.91201645 -0.65372604 0.06635362 0.49701715 -0.48713553 1.176332 -0.7934569 -0.7386973
-1.3832659 0.024637856 -0.071540914 0.6655654 -0.08884771 1.8297575 -1.1806067 1.3669589
1.4351743 0.84446394 2.2062244 0.5104297 0.35199815 -0.19819787 -1.0432823 1.2651098
-0.15958919 0.5261883 0.042706642 0.4082335 0.5562635 -0.63456357 -2.1944282 -0.7245527
0.008699199 -0.3292845 -1.3227462 -0.58268136 0.531974 0.53106123 1.1159719 0.04035355
0.7394956 -0.4672522 -1.0219032 0.5991482 -1.6997216 -0.8198237 1.3034754 0.46976656
-2.4837162 0.47740245 0.768763 0.026167184 0.6188603 0.56226 1.0367273 -0.44087523
-0.17129469 0.73310864 0.3858324 0.18696998 0.26244482 1.2494888 -0.002093876 -0.30205
-1.4331939 -0.104655735 -0.5933713 0.47754785 0.7319668 0.08770994 -0.38806888 0.51739126
-0.019829558 0.238818 0.12617628 0.7595418 1.0908947 0.33091184 0.7055009 0.40895587
00000000: 43dd f23f 4b2d be3f f327 633f 82dc 04c0
00000010: 524e 283f 9b4d 9dbf 2bf8 0ebd 42d1 cbbf
00000020: 67fe 3fbf 836f d03f 2f84 c3be be16 b3bf
00000030: e160 36bf 82ce 0dbf 678c 43bf 65bb 403f
00000040: 4b20 d03f 1950 1fbe e3be fbbe b862 d93e
00000050: 54c3 3ebf 24ec 883f d8de 483f 1f28 d53f
00000060: 7119 a13f 33fb a43f 4282 193f e362 a83f
00000070: e6e0 64be b75d 2c3d 6984 7abe b1f1 553f
00000080: 7b32 afbf 52f8 5bbf badb 48be e72b d73f
00000090: c1b7 a13e da5f d9be 532c 9a3e 838a 40bf
000000a0: e468 c5bf 7505 7e3f e134 60bf 2a36 15bf
000000b0: 128d a1bf 27e5 0640 b571 9bbf 5085 f2be
000000c0: e979 69bf 975a 27bf 68e4 873d 0879 fe3e
000000d0: d469 f9be 0c92 963f fe1f 4bbf 441b 3dbf
000000e0: db0e b1bf 54d5 c93c 0b84 92bd 7e62 2a3f
000000f0: caf5 b5bd 7e35 ea3f 1f1e 97bf 82f8 ae3f
00000100: cbb3 b73f ca2e 583f c832 0d40 85ab 023f
00000110: 1a39 b43e 62f4 4abe 468a 85bf 1eef a13f
00000120: 596b 23be 47b4 063f 29ed 2e3d fb03 d13e
00000130: 4967 0e3f c272 22bf 8371 0cc0 497c 39bf
00000140: 1687 0e3c fa97 a8be bf4f a9bf 9b2a 15bf
00000150: 732f 083f a1f3 073f 2bd8 8e3f c449 253d
00000160: 954f 3d3f ae3b efbe b9cd 82bf c761 193f
00000170: 7a90 d9bf f7df 51bf 48d8 a63f 3e85 f03e
00000180: 35f5 1ec0 186e f43e a7cd 443f 905c d63c
00000190: a16d 1e3f 45f0 0f3f 7bb3 843f 66ba e1be
000001a0: e067 2fbe 02ad 3b3f d38b c53e 0f75 3f3e
000001b0: 2b5f 863e 40ef 9f3f 6939 09bb 4ca6 9abe
000001c0: e672 b7bf bf55 d6bd 2ee7 17bf 2781 f43e
000001d0: 2d62 3b3f 45a1 b33d f7b0 c6be c173 043f
000001e0: 9971 a2bc b58c 743e 5b34 013e 5571 423f
000001f0: 70a2 8b3f 476d a93e b59b 343f aa62 d13e

encoder.convs.0.node_mlp.weight f4 [128, 256]
0.060885493 -0.00328244 0.062254984 0.010318162 -0.04334772 0.03381827 -0.026306154 -0.0327142
-0.060430456 -0.052552655 0.008675573 -0.022511806 0.01508077 -0.05980553 0.036927585 -0.03637756
-0.0017003642 0.0038776062 0.022853807 0.0589675 0.047322877 -0.040050186 0.02460299 -0.017624246
0.002230934 -0.03733772 0.06546521 -0.03642131 0.02394466 0.031102257 0.011006119 -0.024469296
0.04726138 0.0045582177 -0.0011223826 -0.045557097 0.03506241 -0.01837315 -0.01932933 0.0441318
0.0047965343 -0.025205325 -0.04035801 -0.012005078 0.025556585 -0.006825961 -0.044324864 -0.030272013
-0.05526881 0.01302616 0.057276875 -0.04924299 0.0053235893 0.040959775 0.002206618 -0.031061886
0.023315514 0.04196578 0.013705405 -0.0018230986 -0.025587477 0.015616226 -0.01993518 -0.009442003
0.048560616 0.0622335 0.0028525959 -0.0047675595 0.010018624 -0.0128763355 0.005854207 0.026333258
-0.06538268 -0.013755682 0.061549585 0.03317722 0.005946464 -0.04636144 -0.046855815 -0.064429656
-0.010513122 0.011896118 0.030454043 0.019520586 -0.04564735 -0.028169282 -0.00076158653 0.06895238
0.01797464 -0.02507282 0.016602857 -0.014499971 -0.04904691 0.036175758 -0.019126346 -0.0033187666
-0.070545 0.050451294 0.055924717 0.031328406 -0.03415032 -0.052052274 -0.041298475 0.03711004
0.020606896 0.061111066 0.04147217 0.024782209 0.008468885 -0.038069226 -0.06714282 -0.06701395
0.016337326 -0.039649494 -0.021450656 -0.0265565 -0.0022120848 -0.034159135 -0.04959108 0.02954761
-0.029490177 0.04731608 -0.010574239 -0.036350857 -0.001912785 -0.020898642 -0.009905972 -0.049861275
0.05049773 -0.06657975 0.03454595 0.0637698 0.015667466 -0.048338898 0.023081785 -0.06303714
0.047112532 0.0897387 0.012963029 0.017359762 -0.034216657 -0.04074223 0.0071550026 -0.047349945
0.055685636 0.062349197 0.083830275 -0.02818045 -0.050962087 -0.01944151 0.061648495 -0.072797045
-0.007987733 -0.059806038 -0.03929954 -0.028435497 -0.0038202016 -0.026267221 -0.03794267 0.062594466
0.032255083 -1.9313558e-05 -0.00059129484 -0.03776818 -0.08295396 -0.024498474 0.02216218 -0.048352554
-0.07828876 -0.009961731 0.009883679 -0.0017795766 0.02505205 -0.016997665 -0.0141473 0.0008538371
-0.05180907 0.027206713 -0.00197615 0.029382395 0.008789952 -0.01865129 0.046980392 0.019114586
-0.042785265 -0.0019525824 0.058246396 0.010480688 0.03480491 0.049422953 -0.03327413 -0.014561379
-0.054807138 -0.0488516 0.05899962 0.06107167 -0.016352352 -0.076251104 -0.010815257 -0.05270677
-0.057069864 0.0070127426 0.0751933 0.022178149 -0.07734365 -0.009538739 0.05286397 -0.07577175
-0.044429887 0.016470706 -0.029894583 0.025130564 0.014315611 -0.006339091 -0.020921456 -0.04886333
-0.034658115 -0.044049714 0.019535204 -0.055909242 -0.05762881 0.018422036 0.0053585162 0.07554602
0.064401016 0.026758742 -0.09890298 -0.005017659 0.050759446 5.4356067e-05 -0.021978103 0.08080869
-0.06749751 -0.06415102 -0.07236486 0.03893953 0.0041559204 -0.010737863 -0.034157686 -0.030283555
-0.06491029 0.009926148 0.06654839 0.024389766 -0.07312963 -0.0301211 -0.04567932 -0.015974099
0.016412647 0.007611176 0.040592864 -0.04526374 0.030493664 -0.034653835 0.011949472 0.07786677
00000000: 1163 793d 341e 57bb 15ff 7e3d 820d 293c
00000010: 618d 31bd 0785 0a3d 0180 d7bc 53ff 05bd
00000020: ed85 77bd 7441 57bd fe23 0e3c ae6a b8bc
00000030: 5515 773c a5f6 74bd 6141 173d a300 15bd
00000040: c1de deba 701f 7e3b e837 bb3c e887 713d
00000050: a2d5 413d aa0b 24bd 368c c93c b960 90bc
00000060: dd34 123b 70ef 18bd a012 863d 832e 15bd
00000070: 9727 c43c 29ca fe3c 0253 343c d573 c8bc
00000080: 2695 413d 1a5d 953b e91c 93ba 149a 3abd
00000090: 9a9d 0f3d 4a83 96bc 8b58 9ebc 8cc3 343d
000000a0: 3f2c 9d3b 667b cebc 714e 25bd f2b0 44bc
000000b0: 0b5c d13c 50ac dfbb fd8d 35bd 03fd f7bc
000000c0: 8c61 62bd ad6b 553c 289b 6a3d 04b3 49bd
000000d0: 8171 ae3b 70c5 273d e89c 103b 7f75 febc
000000e0: 2d00 bf3c 4fe4 2b3d a38c 603c 0af5 eeba
000000f0: d49c d1bc 33db 7f3c 1a4f a3bc a2b2 1abc
00000100: 7fe7 463d 8ee8 7e3d 9ef2 3a3b 3039 9cbb
00000110: 2825 243c 44f7 52bc a6d4 bf3b d8b8 d73c
00000120: 5be7 85bd 835f 61bc 6b1b 7c3d d6e4 073d
00000130: 8eda c23b 7ee5 3dbd e2eb 3fbd b2f3 83bd
00000140: 3b3f 2cbc efe7 423c c27a f93c a3e9 9f3c
00000150: b7f8 3abd 44c3 e6bc 35a5 47ba e836 8d3d
00000160: 8d3f 933c 8465 cdbc b702 883c 4991 6dbc
00000170: 6ae5 48bd 082d 143d dbae 9cbc aa7f 59bb
00000180: e679 90bd 04a6 4e3d 5111 653d 3752 003d
00000190: 35e1 0bbd c434 55bd 9728 29bd b300 183d
000001a0: cbcf a83c 994f 7a3d b9de 293d 0f04 cb3c
000001b0: 14c1 0a3c 7aee 1bbd 2d82 89bd 9c3e 89bd
000001c0: dbd5 853c 8267 22bd 49b9 afbc 048d d9bc
000001d0: a0f8 10bb 73ea 0bbd 0420 4bbd d40d f23c
000001e0: 6295 f1bc 82ce 413d 933f 2dbc a3e4 14bd
000001f0: 6ab6 faba a133 abbc a84c 22bc 563b 4cbd
00000200: b5d6 4e3d f75a 88bd 0e80 0d3d be99 823d
00000210: 0f59 803c 02ff 45bd 0316 bd3c 9e19 81bd
00000220: 12f9 403d ecc8 b73d e262 543c 0f36 8e3c
00000230: c426 0cbd 53e1 26bd 8374 ea3b 04f2 41bd
00000240: 9f16 643d df61 7f3d 35af ab3d b0da e6bc
00000250: 9fbd 50bd cd43 9fbc 2283 7c3d 9e16 95bd
00000260: fbde 02bc 2df7 74bd 8ef8 20bd 8ff1 e8bc
00000270: 595c 7abb 5b2e d7bc c669 1bbd 8731 803d
00000280: e81d 043d 8d03 a2b7 2001 1bba cfb2 1abd
00000290: c4e3 a9bd 06b1 c8bc 768d b53c 540d 46bd
000002a0: db55 a0bd 8736 23bc 28ef 213c af40 e9ba
000002b0: f539 cd3c b03e 8bbc 14ca 67bc 0ad4 5f3a
000002c0: bf35 54bd 9de0 de3c 4c82 01bb 59b3 f03c
000002d0: bb03 103c 97ca 98bc 836e 403d 3196 9c3c
000002e0: 9a3f 2fbd cbed ffba c693 6e3d 31b7 2b3c
000002f0: 988f 0e3d b96f 4a3d 744a 08bd da92 6ebc
00000300: 737d 60bd 9e18 48bd 96a9 713d 4a26 7a3d
00000310: 5ef5 85bc 8a29 9cbd 7a32 31bc 0ee3 57bd
00000320: 17c2 69bd 26cb e53b f2fe 993d f3ae b53c
00000330: 5966 9ebd 5f48 1cbc e487 583d 382e 9bbd
00000340: 1dfc 35bd 93ed 863c 7ce5 f4bc 9dde cd3c
00000350: 068c 6a3c 26b8 cfbb 7963 abbc ea24 48bd
00000360: abf5 0dbd 796d 34bd 4b08 a03c 1701 65bd
00000370: 300c 6cbd cfe9 963c 7e96 af3b dfb7 9a3d
00000380: aee4 833d 2635 db3c a58d cabd 2d6b a4bb
00000390: 23e9 4f3d 62fc 6338 6c0b b4bc 077f a53d
000003a0: 223c 8abd 9c61 83bd 0734 94bd 0e7f 1f3d
000003b0: 632e 883b dded 2fbc eee8 0bbd 3815 f8bc
000003c0: b0ef 84bd 48a1 223c 864a 883d 0ccd c73c
000003d0: fdc4 95bd 86c0 f6bc 3d1a 3bbd 1ddc 82bc
000003e0: d173 863c 2c67 f93b b444 263d 7966 39bd
000003f0: d9cd f93c 2ef1 0dbd b8c7 433c 9d78 9f3d

encoder.convs.0.node_mlp.bias f4 [128]
-0.039605636 0.015550383 0.010840939 0.05808247 0.026040142 -0.017075246 0.00059317256 -0.041796107
0.0023786332 0.010149644 0.05629075 0.044310246 -0.04161698 0.057196993 -0.049836084 0.0063515133
0.022042928 0.02784533 0.03685367 -0.009920061 0.059382476 0.0060302075 0.012133352 -0.022750126
-0.047319 -0.009283006 0.007512653 0.012219778 -0.011577398 0.003564331 0.009555616 -0.03137484
0.014124718 -0.057297073 0.0036503011 0.047156397 -0.031478886 0.037625514 -0.020276299 -0.025025489
0.029742017 -0.05167269 0.028461544 0.038611043 0.016350698 -0.0037961293 -0.026842121 -0.04858363
0.048430536 0.026782082 0.026719967 -0.034003228 0.030278822 -0.033587247 0.039596457 0.052466854
-0.060851265 -0.0614321 -0.058201805 -0.030395389 0.016995933 -0.04624103 0.03150323 -0.0426252
-0.016545659 0.014943608 -0.04372425 0.0024603277 -0.0555276 -0.061684318 0.0091733 -0.03608631
0.04565259 -0.036919694 0.037617654 0.054710638 -0.02044158 -0.009200854 0.033506107 -0.022564774
0.028714593 -0.01506861 -0.0002272305 -0.04569441 0.047958154 -0.061244644 -0.016742399 0.036984406
-0.037872348 -0.004211127 0.059777115 0.016448839 0.04207812 -0.046584696 0.020279896 -0.005960114
-0.001182279 -0.019014308 -0.010977634 0.04312226 0.040559802 -0.046843793 0.050078735 0.050209697
-0.0144433975 0.00047641678 0.020649524 -0.062419727 0.015628608 0.048136763 -0.013525624 -0.043685116
-0.030478248 0.032054313 -0.011857472 0.00282578 0.015795771 0.020682728 0.045610715 0.009086378
-0.071627095 0.042373646 0.043611202 6.500492e-06 -0.01901061 -0.0047205146 0.026262226 0.05743888
00000000: 8539 22bd 09c7 7e3c 329e 313c e2e7 6d3d
00000010: 2352 d53c 63e1 8bbc 237f 1b3a 6532 2bbd
00000020: d8e2 1b3b b14a 263c 2191 663d a97e 353d
00000030: 9176 2abd 6547 6a3d ec20 4cbd 5b20 d03b
00000040: 5f93 b43c e41b e43c e0f3 163d c087 22bc
00000050: 0a3b 733d 0c99 c53b f8ca 463c 795e babc
00000060: 91d1 41bd c017 18bc b32c f63b 7735 483c
00000070: 20af 3dbc 8d97 693b 298f 1c3c e782 00bd
00000080: 5c6b 673c 56b0 6abd e439 6f3b 1127 413d
00000090: 01f0 00bd 361d 1a3d 7b1a a6bc 4102 cdbc
000000a0: 88a5 f33c bea6 53bd 2f28 e93c 9d26 1e3d
000000b0: e6f1 853c 7bc8 78bb 02e4 dbbc a1ff 46bd
000000c0: 195f 463d 1966 db3c d5e3 da3c f846 0bbd
000000d0: 4b0b f83c c892 09bd e52f 223d 7ce7 563d
000000e0: 2d3f 79bd 3aa0 7bbd 0465 6ebd c0ff f8bc
000000f0: 0e3b 8b3c 3c67 3dbd 8809 013d c397 2ebd
00000100: c38a 87bc 09d6 743c 3318 33bd 733d 213b
00000110: e970 63bd b2a8 7cbd 9c4b 163c 3dcf 13bd
00000120: 36fe 3a3d 1b39 17bd f814 1a3d 4318 603d
00000130: 1a75 a7bc 2ebf 16bc b33d 093d c3d9 b8bc
00000140: de3a eb3c 55e2 76bc b944 6eb9 102a 3bbd
00000150: c56f 443d aadb 7abd 5b27 89bc f67c 173d
00000160: 0920 1bbd 7efd 89bb d9d8 743d b7bf 863c
00000170: 1b5a 2c3d 98cf 3ebd 0622 a63c 0f4d c3bb
00000180: b3f6 9aba e5c3 9bbc 89db 33bc f8a0 303d
00000190: 0922 263d 47df 3fbd 5c1f 4d3d afa8 4d3d
000001a0: 00a4 6cbc 94c7 f939 3129 a93c d4ab 7fbd
000001b0: 9107 803c 0e2b 453d 949a 5dbc 2aef 32bd
000001c0: 85ad f9bc 624b 033d d845 42bc b930 393b
000001d0: 2266 813c d36e a93c 4dd2 3a3d 08df 143c
000001e0: 3ab1 92bd fd8f 2d3d a9a1 323d cd1e da36
000001f0: 24bc 9bbc 8cae 9abb e123 d73c 0845 6b3d

encoder.convs.0.edge_mlp.0.weight f4 [128, 7]
-0.39393994 0.016778259 0.06295606 0.06924352 -0.110238425 -0.032965206 -0.41038904 -0.09007518
-0.34560558 0.3396468 0.1354246 0.11668568 -0.18863887 -0.18663593 0.092768155 0.00966761
0.05757542 0.09653634 0.04041147 -0.3319746 0.40105462 -0.13691084 0.011348227 -0.30915755
0.34717 -0.14094315 0.23973458 0.14633518 -0.04581763 0.0179273 -0.31188783 -0.3385207
0.21620756 0.22300555 -0.30613887 -0.12394549 -0.36749768 -0.34402645 0.068364665 -0.07915133
0.37082532 0.2626596 -0.25705102 0.275002 0.24183686 0.3246664 -0.0975107 -0.011018837
-0.22570392 -0.22132745 0.31698057 0.31587386 -0.39424425 0.17422196 -0.16294894 -0.29945073
0.21922122 0.12445999 -0.107677594 0.38369924 -0.21533951 0.24815162 0.22831345 -0.23802756
0.12156263 -0.18516998 -0.12902243 0.28481022 0.33715233 -0.2441179 0.39342013 -0.33975402
0.16750588 -0.2739874 -0.033431333 -0.29524955 0.314254 -0.16719007 -0.36357358 -0.2528371
0.23536304 0.16414982 0.1792046 0.306423 -0.061333414 0.24242398 -0.33489144 -0.32052323
0.19228241 -0.28280184 0.10369936 0.14723621 0.27793622 0.28378043 0.13021374 0.0010671279
-0.3214847 -0.14383921 -0.14814769 0.11926174 -0.21307184 -0.07356809 -0.00068342255 0.017257318
-0.28140673 0.2634385 0.097678296 0.3606007 -0.2320782 0.05517922 0.16729204 0.23504788
-0.3000092 -0.1132762 0.048300173 -0.21872334 -0.29936063 0.03601514 0.22536924 -0.32675368
-0.049326293 -0.386117 0.08248359 0.13976991 -0.34623432 0.11357614 -0.11490059 -0.093471564
-0.32156706 -0.021243561 0.20142023 -0.18164212 -0.114447534 -0.26737875 -0.19352639 0.34472123
0.23867346 -0.18566714 0.369026 0.109858885 0.111520864 -0.32809773 -0.16965745 0.31553477
0.24158296 0.21502537 -0.19814363 -0.13318154 0.118830346 0.17417485 -0.16620615 -0.20243992
-0.3404914 -0.35354114 -0.13761367 0.15895562 -0.20773596 0.109299175 -0.27018312 -0.019038713
-0.20124559 -0.23428869 0.18627094 0.082984984 0.3236802 0.09388291 0.009464505 0.28584722
-0.2995233 0.171623 -0.0073377285 -0.010114346 -0.2348565 0.0010190054 -0.24858072 0.26731348
-0.16361804 -0.041501727 0.36839274 -0.025375659 -0.32176167 0.107949406 0.124049895 -0.17926511
-0.32846698 -0.34983695 -0.171893 0.024445869 -0.3505259 -0.2928972 0.08115228 -0.3595383
-0.0020563062 0.120574735 0.37296396 -0.0023335996 0.050453633 0.21626711 0.02972376 0.33195528
-0.046320602 0.38116905 -0.2548798 0.27586958 0.042229764 -0.07226585 0.3535502 0.20416844
0.0644958 -0.089392774 0.35834488 0.045051713 0.12277887 -0.0025231927 -0.13739385 -0.19925278
0.21479884 0.09222399 0.08738865 0.054653153 -0.13090184 -0.027195035 -0.22071643 0.040482886
0.12186132 -0.39462325 0.3167125 -0.11652896 0.29186225 0.3194631 0.14331298 0.34669793
-0.31507272 -0.3230852 0.015658718 -0.17414998 -0.1945996 -0.047512583 -0.24285215 -0.03758406
-0.22393887 0.10155046 0.060476724 -0.25374037 -0.1421383 -0.0056691025 0.285475 0.37395608
0.15086997 0.015467455 -0.011379193 0.34210354 -0.26821032 -0.25218353 0.11340794 -0.29029
00000000: 7fb2 c9be 8f72 893c 1bef 803d 8ccf 8d3d
00000010: afc4 e1bd 8606 07bd 831e d2be 5679 b8bd
00000020: 37f3 b0be 2fe6 ad3e bfac 0a3e e7f8 ee3d
00000030: 8c2a 41be 7d1d 3fbe 3bfd bd3d e564 1e3c
00000040: 34d4 6b3d d8b4 c53d 7f86 253d 93f8 a9be
00000050: 0857 cd3e 5b32 0cbe eaed 393c e649 9ebe
00000060: 44c0 b13e 6753 10be fb7c 753e e4d8 153e
00000070: 44ab 3bbd 46dc 923c c3af 9fbe 9652 adbe
00000080: 8465 5d3e 915b 643e 3cbe 9cbe 22d7 fdbd
00000090: a828 bcbe 3c24 b0be c602 8c3d 181a a2bd
000000a0: d1dc bd3e 527b 863e 319c 83be 10cd 8c3e
000000b0: 15a4 773e ad3a a63e b1b3 c7bd 5a88 34bc
000000c0: ee1e 67be aaa3 62be 474b a23e 38ba a13e
000000d0: 62da c9be 3e67 323e 16dc 26be 9b51 99be
000000e0: 877b 603e e1e4 fe3d 1286 dcbd 3a74 c43e
000000f0: f681 5cbe 751b 7e3e 00cb 693e 7fbd 73be
00000100: d4f5 f83d 339d 3dbe 751e 04be a5d2 913e
00000110: 3b9f ac3e 0bfa 79be 5d6e c93e 3df4 adbe
00000120: a986 2b3e 1448 8cbe 4bef 08bd f32a 97be
00000130: e6e5 a03e e033 2bbe 5126 babe dd73 81be
00000140: 0203 713e e416 283e 6981 373e 7ae3 9c3e
00000150: bf38 7bbd fe3d 783e e476 abbe 9f1b a4be
00000160: aee5 443e 67cb 90be 5460 d43d 17c5 163e
00000170: a84d 8e3e ab4b 913e c056 053e dfde 8b3a
00000180: a599 a4be 964a 13be 07b4 17be 803f f43d
00000190: 812f 5abe deaa 96bd b627 33ba 385f 8d3c
000001a0: 8b14 90be 69e1 863e 8f0b c83d a8a0 b83e
000001b0: e8a5 6dbe 9b03 623d 9b4e 2b3e 64b0 703e
000001c0: ce9a 99be 5afd e7bd 67d6 453d 03f9 5fbe
000001d0: cc45 99be 9d84 133d 32c7 663e 424c a7be
000001e0: 5e0a 4abd 21b1 c5be 28ed a83d d81f 0f3e
000001f0: a045 b1be 9b9a e83d 0051 ebbd 056e bfbd
00000200: 70a4 a4be fa06 aebc 1b41 4e3e 6400 3abe
00000210: 7863 eabd dee5 88be c82b 46be 4d7f b03e
00000220: d166 743e 871f 3ebe faf0 bc3e b2fd e03d
00000230: 0d65 e43d 6dfc a7be afba 2dbe c68d a13e
00000240: 8661 773e 9c2f 5c3e 2ae6 4abe be60 08be
00000250: 535d f33d e45a 323e f231 2abe 694c 4fbe
00000260: e454 aebe 5803 b5be 99ea 0cbe 43c5 223e
00000270: bcb8 54be 3fd8 df3d 7155 8abe 13f7 9bbc
00000280: 5313 4ebe 60e9 6fbe cfbd 3e3e 08f4 a93d
00000290: 69b9 a53e af45 c03d 0311 1b3c 915a 923e
000002a0: 1e5b 99be f1bd 2f3e 5471 f0bb a4b6 25bc
000002b0: 397e 70be 2690 853a f28b 7ebe 50dd 883e
000002c0: 7d8b 27be b7fd 29bd f99d bc3e 9de0 cfbc
000002d0: f2bd a4be 9414 dd3d df0d fe3d 4691 37be
000002e0: d32c a8be d41d b3be b804 30be b442 c83c
000002f0: 2178 b3be 9ff6 95be 2b33 a63d 6715 b8be
00000300: 18c3 06bb e3ef f63d 22f5 be3e 4eef 18bb
00000310: 78a8 4e3d 2075 5d3e 3e7f f33c 0bf6 a93e
00000320: acba 3dbd 9728 c33e 9b7f 82be c73e 8d3e
00000330: 1ef9 2c3d 1e00 94bd 8804 b53e 8811 513e
00000340: 6016 843d 8f13 b7bd fb78 b73e 2588 383d
00000350: 7d73 fb3d 265c 25bb f9b0 0cbe ec08 4cbe
00000360: 3af4 5b3e eedf bc3d d2f8 b23d fcdb 5f3d
00000370: 220b 06be 1fc8 debc 7d03 62be 62d1 253d
00000380: 6e92 f93d 0f0c cabe 2428 a23e bca6 eebd
00000390: f86e 953e ab90 a33e a3c0 123e 6482 b13e
000003a0: 3651 a1be 6c6b a5be b646 803c 5f54 32be
000003b0: 1e45 47be 8e9c 42bd 3cae 78be bef1 19bd
000003c0: 3b50 65be b0f9 cf3d 71b6 773d 42ea 81be
000003d0: b48c 11be e1c3 b9bb c729 923e 2c77 bf3e
000003e0: a87d 1a3e 356b 7d3c cb6f 3abc 3228 af3e
000003f0: dd52 89be 331e 81be 6c42 e83d e4a0 94be

encoder.convs.0.edge_mlp.0.bias f4 [128]
0.104544595 0.15126763 -0.23499092 0.037792142 -0.063410826 0.24062729 -0.03675587 -0.23035614
0.22458544 -0.14139713 -0.03248993 -0.08406241 0.16456313 -0.07514073 0.12817562 -0.21087189
-0.037098613 0.34943715 -0.21874318 -0.054800555 -0.052272707 0.088074625 -0.13997081 0.12026725
-0.11121701 0.041553397 0.34524864 0.32864195 -0.12231229 -0.1971842 -0.21628742 -0.05927169
-0.0016603486 0.13083257 -0.12937708 0.20269255 0.0009408294 0.083342806 0.35538954 0.05081324
0.014524604 -0.10949575 0.2676228 -0.31535316 -0.18096723 0.05392213 0.20683794 -0.36781785
-0.046597432 0.11735433 0.32754943 0.17527556 0.30861044 -0.07982415 -0.36165965 0.07869262
0.25990036 0.027458346 0.0692257 0.34134644 -0.33159146 0.0814703 0.13076574 0.078099854
-0.081478804 -0.12840953 0.20498449 0.080808595 0.10819279 -0.014786548 -0.23185281 0.17755121
-0.19696799 -0.2267518 -0.14516379 -0.29265213 -0.30044067 -0.0145188 -0.34949496 0.26512784
-0.29543123 0.15038794 0.16751143 -0.11399688 0.048101656 0.35919538 -0.35868376 0.0119241
0.27466026 0.3398877 0.10086524 0.32742968 -0.17757693 0.3576558 0.10226254 -0.24781449
0.23662287 0.2908513 -0.29526734 0.19207405 0.101772554 0.32507947 -0.3432597 0.18394291
0.33056834 -0.09941425 0.11979207 -0.33332914 0.077536926 -0.24064757 -0.3337568 0.17295542
0.2151317 0.1879442 0.2782092 -0.097621046 -0.2848385 0.21066141 0.28793296 -0.28566456
-0.3070304 -0.20531061 -0.23941979 0.24844573 -0.31349418 0.120590664 0.07318617 -0.2718227
00000000: 7a1b d63d e7e5 1a3e 76a1 70be efcb 1a3d
00000010: 89dd 81bd 0067 763e 538d 16bd 7be2 6bbe
00000020: baf9 653e 69ca 10be 2914 05bd ea28 acbd
00000030: 3d83 283e 62e3 99bd 7840 033e cdee 57be
00000040: b7f4 17bd 6de9 b23e 36fe 5fbe 8c76 60bd
00000050: e81b 56bd 7860 b43d 8254 0fbe ad4e f63d
00000060: bec5 e3bd e533 2a3d 6ec4 b03e c243 a83e
00000070: de7e fabd a8ea 49be 737a 5dbe dfc6 72bd
00000080: 0ea0 d9ba f9f8 053e 6d7b 04be a38e 4f3e
00000090: fea1 763a a2af aa3d 9ef5 b53e 8b21 503d
000000a0: 9bf8 6d3c 4f3f e0bd db05 893e f875 a1be
000000b0: 794f 39be 74dd 5c3d 53cd 533e 9f52 bcbe
000000c0: f3dc 3ebd 7857 f03d 8fb4 a73e 707b 333e
000000d0: 3002 9e3e d87a a3bd 742b b9be 9929 a13d
000000e0: a911 853e 53f0 e03c 34c6 8d3d f6c4 ae3e
000000f0: 5bc6 a9be e7d9 a63d 74e7 053e d1f2 9f3d
00000100: 5cde a6bd ca7d 03be 74e7 513e fa7e a53d
00000110: 2e94 dd3d 4743 72bc d36a 6dbe fccf 353e
00000120: fab1 49be a031 68be d1a5 14be 80d6 95be
00000130: 5cd3 99be 43e0 6dbc 01f1 b2be d6be 873e
00000140: c342 97be 4cff 193e 1e88 2b3e 3277 e9bd
00000150: 3e06 453d 75e8 b73e 66a5 b7be 4d5d 433c
00000160: 45a0 8c3e c305 ae3e 6f92 ce3d dda4 a73e
00000170: bad6 35be a91e b73e 066f d13d 15c3 7dbe
00000180: 444d 723e 76ea 943e 482d 97be 0faf 443e
00000190: 216e d03d d170 a63e bcbf afbe 885b 3c3e
000001a0: 4140 a93e b399 cbbd 8b55 f53d 1eaa aabe
000001b0: aecb 9e3d 516c 76be 2ce2 aabe 3a1b 313e
000001c0: 7c4b 5c3e 7274 403e 7071 8e3e 8bed c7bd
000001d0: 5ad6 91be a0b7 573e f36b 933e a042 92be
000001e0: 1733 9dbe f23c 52be 762a 75be 8f68 7e3e
000001f0: 4f82 a0be 3df8 f63d a1e2 953d 582c 8bbe

encoder.convs.0.edge_mlp.2.weight f4 [128, 128]
-0.07556808 0.037607342 -0.07441869 -0.033309717 0.044615224 -0.06766229 -0.034923226 -0.025288291
-0.033362422 -0.046728298 -0.06976082 0.09682906 -0.04094827 0.017262533 0.07019445 -0.05031709
0.04739251 -0.05289175 -0.05295461 0.033550452 0.0703225 0.015010856 -0.050866093 -0.038314488
0.07665094 0.07607333 -0.06532045 0.05379115 -0.047437385 0.0036906446 -0.014676151 -0.07876471
-0.0024097778 -0.015798282 0.08314075 -0.05279169 -0.06055955 -0.0032305128 0.09178175 0.08618615
0.013210491 -0.106778376 0.05767324 -0.022074077 -0.03946901 0.00464738 -0.08367031 -0.040616527
0.037624292 0.0821631 -0.078015655 0.03825958 0.017425995 -0.087679274 -0.009919885 -0.046706494
-0.036922146 0.116113134 0.09453139 0.027000323 0.002186749 -0.010825316 0.048679646 -0.085238546
-0.07272881 0.009313119 0.03438365 -0.02128704 -0.05472093 0.051388886 -0.005515561 -0.08983882
-0.009830139 -0.09430302 0.019314133 0.09304906 -0.0812773 -0.078767635 -0.019251116 0.030232348
0.08115083 0.034964874 0.044231493 0.12147364 0.04656731 -0.049433596 -0.058770794 0.037389822
-0.01811535 -0.09121159 0.051331326 -0.07220625 0.05128909 0.07785838 0.091052294 -0.01663217
0.007561638 0.019168997 -0.01085861 -0.05466134 0.09966126 -0.083438456 0.013870988 -0.050178524
0.012882277 -0.091871 0.05993395 -0.043356422 -0.04935835 0.074628584 0.021951897 0.099439085
-0.052829307 0.067282334 0.024141658 0.08642871 -0.019658837 -0.011652066 -0.009218701 -0.051984087
0.0139863575 -0.08507044 0.039639886 0.07655699 -0.01850789 -0.018439403 0.03392111 -0.009187353
-0.012654862 0.0006949717 0.098276526 -0.059532866 0.05113821 0.017399026 0.09169777 0.037291426
-0.04016754 -0.081161045 0.089770496 -0.104911566 -0.011741753 -0.028724778 -0.09309363 0.08878697
-0.043652453 -0.078913584 -0.061042536 0.10754505 -0.02900758 0.015578882 -0.06034151 -0.026470877
0.069098935 0.080201045 -0.012933871 -0.11046693 0.05867523 -0.080709845 -0.009949458 0.08593984
0.0321585 -0.013388135 0.04589249 0.051062107 0.0972562 0.09804684 0.0056862785 0.06217548
-0.061411284 -0.01024164 -0.08953756 -0.001307294 0.045745943 -0.030959202 -0.014804186 0.010213991
-0.031755894 -0.03975196 0.074783996 -0.065368846 0.030406833 0.044270836 0.076549284 -0.063428454
-0.043009643 -0.09759944 -0.025669493 -0.056850784 -0.08410433 -0.023366205 -0.01605848 0.04525195
0.04423775 -0.007277227 -0.06097913 -0.061883356 0.0082879085 -0.0051908363 0.13434578 0.072950974
0.07462332 0.10365089 0.043566514 -0.03608975 0.05059266 0.0066966484 -0.06272435 0.023651384
0.097935945 -0.043614157 0.078593105 -0.116215244 -0.055482235 0.055899322 -0.052149355 0.055048697
0.028397096 0.06707211 -0.04781571 -0.08332395 0.06607849 -0.008133043 0.04072866 0.037379637
-0.061378796 -0.08827683 0.049497943 -0.080395855 -0.07743832 0.051969547 0.03057153 0.01644613
-0.04221511 -0.041127473 -0.049779035 0.028412031 0.041008327 0.044632465 0.05561433 -0.0036231524
-0.030807903 -0.072694674 -0.020260751 0.02736794 0.032723356 0.083645985 0.09450112 0.036718756
-0.07823572 0.013537069 0.05383623 0.06617679 0.0055243834 -0.050284825 0.013894461 0.024314618
00000000: 70c3 9abd 280a 1a3d d368 98bd c56f 08bd
00000010: 74be 363d 8792 8abd a80b 0fbd 6429 cfbc
00000020: 09a7 08bd 2c66 3fbd c3de 8ebd 504e c63d
00000030: 60b9 27bd 286a 8d3c 1cc2 8f3d 4b19 4ebd
00000040: a61e 423d 05a5 58bd efe6 58bd 336c 093d
00000050: 3e05 903d 18f0 753c f758 50bd a7ef 1cbd
00000060: 2bfb 9c3d 56cc 9b3d bac6 85bd 1c54 5c3d
00000070: b44d 42bd bede 713b 3d74 70bc 644f a1bd
00000080: 5ded 1dbb 666b 81bc b345 aa3d 193c 58bd
00000090: 4a0d 78bd 03b7 53bb 12f8 bb3d 5d82 b03d
000000a0: d170 583c 9fae dabd c63a 6c3d b2d4 b4bc
000000b0: 42aa 21bd 0d49 983b 575b abbd 845d 26bd
000000c0: ee1b 1a3d 2145 a83d acc6 9fbd 14b6 1c3d
000000d0: f6c0 8e3c 3191 b3bd 0387 22bc 4f4f 3fbd
000000e0: ad3b 17bd b9cc ed3d ac99 c13d c82f dd3c
000000f0: 8f4f 0f3b ab5c 31bc 4f64 473d 8c91 aebd
00000100: d8f2 94bd 0d96 183c dfd5 0c3d 2962 aebc
00000110: 0e23 60bd 277d 523d e1bb b4bb 6afd b7bd
00000120: 970e 21bc f121 c1bd ac38 9e3c 8190 be3d
00000130: b774 a6bd ed50 a1bd 84b4 9dbc d4a9 f73c
00000140: 6832 a63d 5437 0f3d 152c 353d 2cc7 f83d
00000150: 5dbd 3e3d e27a 4abd a5b9 70bd 1226 193d
00000160: a466 94bc 24cd babd cc40 523d dfe0 93bd
00000170: 8214 523d 3774 9f3d a079 ba3d 3040 88bc
00000180: 9ec7 f73b 4d08 9d3c 50e8 31bc 92e4 5fbd
00000190: 341b cc3d c8e1 aabd 2443 633c ff87 4dbd
000001a0: 3010 533c dd26 bcbd 4d7d 753d 8196 31bd
000001b0: fb2b 4abd dfd6 983d 77d4 b33c b8a6 cb3d
000001c0: 8b63 58bd 52cb 893d bac4 c53c 8901 b13d
000001d0: 920b a1bc 4fe8 3ebc 090a 17bc 44ed 54bd
000001e0: 0927 653c 6939 aebd 6f5d 223d e9c9 9c3d
000001f0: dc9d 97bc 3b0e 97bc ddf0 0a3d 8d86 16bc
00000200: 5756 4fbc c32e 363a 3445 c93d bcd8 73bd
00000210: 4d76 513d 6788 8e3c 0acc bb3d e5be 183d
00000220: b886 24bd c337 a6bd 98d9 b73d e0db d6bd
00000230: 7b60 40bc 3a50 ebbc e0a7 bebd f1d5 b53d
00000240: eacc 32bd 729d a1bd bd07 7abd 9440 dc3d
00000250: 4ea1 edbc 913e 7f3c a928 77bd 74d9 d8bc
00000260: be83 8d3d 7240 a43d 96e8 53bc 7c3c e2bd
00000270: 7055 703d 344b a5bd 0d03 23bc 3a01 b03d
00000280: a2b8 033d e859 5bbc c3f9 3b3d 8026 513d
00000290: 422e c73d c8cc c83d f653 ba3b b7ab 7e3d
000002a0: 668a 7bbd 8dcc 27bc 785f b7bd 8259 abba
000002b0: 1960 3b3d 279e fdbc 428d 72bc 9558 273c
000002c0: 7812 02bd f4d2 22bd 5a28 993d 1ae0 85bd
000002d0: c017 f93c 5655 353d dfc5 9c3d c7e6 81bd
000002e0: e12a 30bd 37e2 c7bd d448 d2bc 5edc 68bd
000002f0: e43e acbd 7c6a bfbc 138d 83bc 1c5a 393d
00000300: a532 353d ce75 eebb 41c5 79bd 6779 7dbd
00000310: 02ca 073c e417 aabb f191 093e 5267 953d
00000320: 1cd4 983d eb46 d43d cd72 323d d8d2 13bd
00000330: 403a 4f3d 8f6f db3b a075 80bd 8cc0 c13c
00000340: a492 c83d c2a4 32bd 6cf5 a03d 4202 eebd
00000350: 5741 63bd b0f6 643d 909a 55bd be7a 613d
00000360: 07a1 e83c 1a5d 893d 68da 43bd bfa5 aabd
00000370: 2954 873d 7440 05bc 18d3 263d 641b 193d
00000380: 5568 7bbd 7cca b4bd 5bbe 4a3d 95a6 a4bd
00000390: fb97 9ebd 05de 543d 2571 fa3c 09ba 863c
000003a0: c0e9 2cbd 4875 28bd 1ae5 4bbd 59c0 e83c
000003b0: 59f8 273d 88d0 363d dacb 633d 6972 6dbb
000003c0: db60 fcbc f2e0 94bd e0f9 a5bc bb32 e03c
000003d0: ed08 063d 964e ab3d ce89 c13d 6866 163d
000003e0: 0d3a a0bd 95ca 5d3c 6183 5c3d b287 873d
000003f0: e305 b53b 76f7 4dbd 98a5 633c 732f c73c

encoder.convs.0.edge_mlp.2.bias f4 [128]
0.014332046 -0.07885663 -0.0011519889 0.04063189 -0.034379363 0.023295328 -0.02992337 -0.10435657
-0.0707227 0.007963441 -0.06118411 0.08275008 0.03745227 0.08628672 -0.017004369 0.053378828
-0.06386274 0.021020057 0.041895606 0.012309776 -0.039943684 -0.035272997 -0.01685266 0.05004268
0.03804809 -0.033679772 -0.046275083 -0.002792124 0.029893128 0.074561946 0.06431725 0.08248574
-0.046195175 0.030074565 0.052382093 0.05379731 0.005620995 0.07491747 -0.034574434 -0.080713555
0.011215137 0.04463202 0.043925494 -0.05697958 0.08574624 -0.08886647 0.065709025 -0.020715889
0.08612628 0.04748136 0.05958327 0.0153451925 -0.083390914 -0.07533226 -0.06715339 -0.04257135
-0.03114256 0.018994229 -0.07501693 -0.07236299 -0.008215046 -0.016570665 -0.020767868 -0.09258993
-0.07562615 -0.09047114 -0.05047905 3.0667397e-06 -0.05527298 -0.081024654 -0.0067415903 0.08351919
0.05383117 -0.0052215336 -0.048869632 0.017970739 -0.07856034 -0.057068728 0.020395707 0.013992794
-0.043639157 -0.011412208 0.002506822 -0.00896972 0.020386491 0.046320237 -0.056737017 0.0059152357
-0.070479564 -0.052004725 -0.09901551 -0.08100267 -0.08333896 0.013279512 -0.0036539363 0.01075155
0.06586954 0.028262103 -0.011193204 0.02292631 -0.06005882 0.0077350936 0.03667069 0.083525546
0.06317822 -0.08237846 -0.0045169704 0.075142235 0.0112759005 -0.07915377 0.047710035 -0.061409604
-0.06626607 -0.052561745 0.07267212 0.06539111 -0.03252025 0.020523032 0.018494377 -0.07263323
-0.048001833 -0.045188233 -0.014963034 -0.010865033 0.054542743 -0.043146238 -0.04567041 0.006632701
00000000: f5d0 6a3c 967f a1bd 55fe 96ba a06d 263d
00000010: 60d1 0cbd d8d5 be3c db21 f5bc e6b8 d5bd
00000020: 10d7 90bd 1879 023c 309c 7abd e078 a93d
00000030: 8d67 193d 18b7 b03d bf4c 8bbc c2a3 5a3d
00000040: 78ca 82bd 4132 ac3c ba9a 2b3d f1ae 493c
00000050: fd9b 23bd 6b7a 10bd 970e 8abc 8ef9 4c3d
00000060: 50d8 1b3d cdf3 09bd f18a 3dbd 11fc 36bb
00000070: 6fe2 f43c efb3 983d c3b8 833d 49ee a83d
00000080: 2737 3dbd ef5e f63c 9b8e 563d 915a 5c3d
00000090: 5330 b83b 556e 993d ec9d 0dbd 264d a5bd
000000a0: b2bf 373c 11d0 363d 38eb 333d 6c63 69bd
000000b0: ba9b af3d a0ff b5bd 7492 863d 5eb4 a9bc
000000c0: fa62 b03d d17b 423d 960d 743d 676a 7b3c
000000d0: dbc8 aabd cd47 9abd b787 89bd 4c5f 2ebd
000000e0: af1e ffbc c999 9b3c 7aa2 99bd 0c33 94bd
000000f0: 6698 06bc 34bf 87bc 6021 aabc ca9f bdbd
00000100: e2e1 9abd ef48 b9bd 1fc3 4ebd 30ce 4d36
00000110: ec65 62bd 41f0 a5bd 8fe8 dcbb 1c0c ab3d
00000120: 137e 5c3d 6619 abbb 862b 48bd 5f37 933c
00000130: 3ee4 a0bd e6c0 69bd e614 a73c 0842 653c
00000140: f9be 32bd 45fa 3abc 7f49 243b bcf5 12bc
00000150: 9201 a73c 4aba 3d3d 1365 68bd 98d4 c13b
00000160: 9757 90bd e802 55bd a5c8 cabd bae4 a5bd
00000170: 9ead aabd 4f92 593c e176 6fbb 4527 303c
00000180: 9ce6 863d ed85 e73c b363 37bc f5cf bb3c
00000190: 3d00 76bd ab76 fd3b 0134 163d 710f ab3d
000001a0: 9563 813d 0ab6 a8bd 1803 94bb 2ce4 993d
000001b0: 8ebe 383c 5f1b a2bd 996b 433d a388 7bbd
000001c0: 81b6 87bd fc4a 57bd 1fd5 943d c6eb 853d
000001d0: f433 05bd eb1f a83c 8581 973c bbc0 94bd
000001e0: 929d 44bd 4c17 39bd 8327 75bc 4003 32bc
000001f0: 3668 5f3d 1cba 30bd e510 3bbd 2157 d93b

encoder.convs.0.norm.weight f4 [128]
0.9851712 0.98310995 0.988224 0.9781607 0.97711027 0.9811507 0.9893101 0.9911112
0.98292583 0.9894804 0.9956599 0.9805236 0.97887015 0.9879523 0.97780526 0.9799868
0.9803177 0.9798223 0.97803766 0.97484094 0.9863971 0.9875891 0.98188895 0.9957112
0.98883575 0.9845054 0.9752083 0.9838123 0.97039735 0.98177344 0.98215795 0.99753666
0.97716874 0.98772585 0.9851004 0.98129714 0.9831335 0.9808696 0.9768104 0.98484457
0.9793194 0.9811244 0.9904785 0.98948556 0.98695886 0.97461075 0.9765544 0.9791739
0.981059 0.9873259 0.97487426 0.9866039 0.97339195 0.9904211 0.9765135 0.9774073
0.9823946 0.98153293 0.9721203 0.9734744 0.9852317 0.97290933 0.9909683 0.9772963
0.9861118 0.9867907 0.97847325 0.9812461 0.9905852 0.981983 0.99545497 0.96828246
0.9793097 0.9888819 0.9742335 0.98272663 0.9907216 0.9861903 0.97905844 0.9869231
0.9909928 0.97595346 0.9842274 0.972191 0.98340327 0.979976 0.9890724 0.9655212
1.002628 0.975608 0.98653316 0.98148805 0.9864088 0.9753537 0.9777654 0.983643
0.97503334 0.9914701 0.98752016 0.981626 0.9875773 0.9697267 0.98676246 0.98250985
0.9867475 0.97644037 0.98482835 0.96766436 0.98692 0.9737719 0.98893625 0.9813134
0.98291934 0.9877324 0.9836886 0.9821901 0.9800331 0.9797648 0.97620595 0.98652846
0.9732961 0.9833337 0.98796284 0.9825526 0.98456407 0.981125 0.9881628 0.9820634
00000000: 2e34 7c3f 18ad 7b3f 40fc 7c3f bd68 7a3f
00000010: e623 7a3f b12c 7b3f 6d43 7d3f 77b9 7d3f
00000020: 07a1 7b3f 964e 7d3f 91e3 7e3f 9803 7b3f
00000030: 3c97 7a3f 71ea 7c3f 7251 7a3f 6ae0 7a3f
00000040: 1af6 7a3f a2d5 7a3f ad60 7a3f 2d8f 793f
00000050: 8584 7c3f a4d2 7c3f 135d 7b3f eee6 7e3f
00000060: 5724 7d3f 8c08 7c3f 40a7 793f 1fdb 7b3f
00000070: f66b 783f 8155 7b3f b46e 7b3f 905e 7f3f
00000080: bb27 7a3f 9adb 7c3f 8a2f 7c3f 4a36 7b3f
00000090: a3ae 7b3f 451a 7b3f 3f10 7a3f c61e 7c3f
000000a0: adb4 7a3f f82a 7b3f 0090 7d3f ed4e 7d3f
000000b0: 56a9 7c3f 1780 793f 78ff 793f 24ab 7a3f
000000c0: af26 7b3f 64c1 7c3f 5c91 793f 1392 7c3f
000000d0: 3730 793f 3d8c 7d3f cafc 793f 5d37 7a3f
000000e0: 367e 7b3f be45 7b3f e0dc 783f 9e35 793f
000000f0: 2538 7c3f 9610 793f 19b0 7d3f 1730 7a3f
00000100: d371 7c3f 519e 7c3f 397d 7a3f f232 7b3f
00000110: fe96 7d3f 3d63 7b3f 23d6 7e3f 5ce1 773f
00000120: 0ab4 7a3f 5d27 7d3f 5e67 793f f993 7b3f
00000130: ee9f 7d3f f876 7c3f 93a3 7a3f fea6 7c3f
00000140: b4b1 7d3f 16d8 793f 54f6 7b3f 82e1 783f
00000150: 51c0 7b3f b5df 7a3f d933 7d3f 662c 773f
00000160: 1d56 803f 72c1 793f 708d 7c3f cd42 7b3f
00000170: 4a85 7c3f c8b0 793f d54e 7a3f 07d0 7b3f
00000180: c99b 793f fcd0 7d3f 1fce 7c3f d74b 7b3f
00000190: ded1 7c3f 0240 783f 779c 7c3f c485 7b3f
000001a0: 7c9b 7c3f fff7 793f b61d 7c3f dab8 773f
000001b0: caa6 7c3f 1e49 793f ed2a 7d3f 5b37 7b3f
000001c0: 9aa0 7b3f 08dc 7c3f 04d3 7b3f cf70 7b3f
000001d0: 73e3 7a3f ded1 7a3f a2e8 793f 218d 7c3f
000001e0: ef29 793f c2bb 7b3f 22eb 7c3f 9188 7b3f
000001f0: 640c 7c3f 022b 7b3f 3df8 7c3f 8268 7b3f

encoder.convs.0.norm.bias f4 [128]
-0.022204055 0.00964336 0.014970752 -0.0020708966 -0.012916653 0.017898792 -0.017726291 0.0044509876
0.008395552 0.032044314 -0.0007566688 0.00053040276 0.010447126 -0.0057419636 0.0041448986 0.004769596
0.011276571 0.009381141 -0.014048417 -0.018306967 -0.00033770088 0.010187338 -0.012693413 -0.010467614
-0.021721428 0.008589344 -0.022777066 0.0037928687 -0.024560908 -0.031314287 0.007414029 -0.006216197
-0.0012256595 -0.006170042 -0.00528051 -0.004147653 0.024574824 0.015091891 0.0062757605 0.008965778
0.008434752 -0.0068776347 -0.004449678 -0.010966703 0.012679463 0.027380934 0.0018567303 0.003194374
-0.004881249 -0.019579105 0.0052067484 0.006288488 0.014079252 0.0024945098 -0.002078719 0.015181373
-0.012560921 -0.005290476 0.015108489 -0.014849973 0.025820611 -0.01204033 0.006967234 0.026799
0.017021345 -0.0013528806 0.026841376 0.01783306 0.012207252 -0.012247274 -0.0032858085 -0.018076226
0.017603762 -0.011434438 -0.020328738 0.011773457 0.025537409 0.016577719 0.010783768 0.004544648
0.0066390582 0.014392631 -0.007593972 -0.01996657 0.02044384 0.0027626466 0.0028185996 -0.006940708
-0.016580788 -0.029196613 0.010529263 -0.040101927 0.0036137525 -0.0066864057 0.0055530816 0.010345892
0.008890372 -0.023953317 0.0015125632 -0.0023500368 -0.004721464 0.009305879 0.0050127646 0.005602791
0.008290973 0.016970899 0.009592948 0.022181137 -0.007840502 -0.0025221687 0.011997988 -0.014813013
0.0025132888 0.0041350536 0.016251946 0.016163394 -0.0030825813 0.024194406 -0.007640018 0.010837761
0.027987685 -0.0073225973 -0.026633602 0.008856085 -0.007195268 -0.0040763174 -0.0049945614 -0.010807482
00000000: 47e5 b5bc 2fff 1d3c e347 753c e1b7 07bb
00000010: 5fa0 53bc 7da0 923c ba36 91bc 97d9 913b
00000020: 7f8d 093c e640 033d 2f5b 46ba ba0a 0b3a
00000030: 6c2a 2b3c 1527 bcbb eed1 873b 454a 9c3b
00000040: 5ec1 383c 5bb3 193c 552b 66bc 7ef8 95bc
00000050: 720d b1b9 cbe8 263c 08f8 4fbc 5b80 2bbc
00000060: 23f1 b1bc 52ba 0c3c f896 babc c791 783b
00000070: f533 c9bc 6943 00bd 62f1 f23b 3db1 cbbb
00000080: 4fa6 a0ba 102e cabb 2108 adbb 09e9 87bb
00000090: 2451 c93c fb43 773c e5a4 cd3b 33e5 123c
000000a0: ea31 0a3c c85d e1bb 9bce 91bb b0ad 33bc
000000b0: 86bd 4f3c fb4d e03c 885d f33a b458 513b
000000c0: e2f2 9fbb 5c64 a0bc 5f9d aa3b a90f ce3b
000000d0: aaac 663c ee7a 233b 1e3b 08bb 4bbb 783c
000000e0: 52cc 4dbc bb5b adbb 9989 773c 4d4d 73bc
000000f0: bf85 d33c ce44 45bc 654d e43b 9489 db3c
00000100: 5970 8b3c 2453 b1ba 72e2 db3c a316 923c
00000110: ed00 483c caa8 48bc b856 57bb 9814 94bc
00000120: c435 903c 8257 3bbc 7488 a6bc 75e5 403c
00000130: d433 d13c ffcd 873c 67ae 303c 45eb 943b
00000140: 758c d93b 12cf 6b3c dbd6 f8bb ef90 a3bc
00000150: d779 a73c 850d 353b 41b8 383b e16e e3bb
00000160: 6fd4 87bc bc2d efbc ee82 2c3c eb41 24bd
00000170: b5d4 6c3b a319 dbbb a0f6 b53b d181 293c
00000180: eca8 113c bf39 c4bc 3341 c63a 1303 1abb
00000190: 83b6 9abb af77 183c 1e42 a43b 9e97 b73b
000001a0: dcd6 073c 8e06 8b3c bd2b 1d3c 37b5 b53c
000001b0: 7375 00bc f84a 25bb 3693 443c 48b2 72bc
000001c0: fdb5 243b 587f 873b cd22 853c 1869 843c
000001d0: 2205 4abb 5933 c63c 1e59 fabb dd90 313c
000001e0: 6e46 e53c 66f2 efbb b62e dabc 1d19 113c
000001f0: 48c6 ebbb a192 85bb 6ba9 a3bb dd11 31bc

encoder.convs.0.norm.mean_scale f4 [128]
0.99290186 0.99798566 1.0062869 0.98654175 0.97463363 0.96164215 0.9867129 1.009975
0.9965685 0.95771164 0.9949518 0.98724073 1.0032837 0.98368245 1.0009973 0.99216604
0.9794388 1.0080987 0.9882719 0.9945308 0.98125535 1.0036471 0.98061484 0.9617515
0.9918616 0.97565615 1.0084475 1.0061417 0.96837336 1.0060457 0.9760802 0.99200606
0.9977001 0.986351 0.97855645 0.9979264 0.9788282 0.9671021 0.9832527 0.97066855
0.9951937 0.9810326 0.9757072 0.9725216 0.9998097 1.01948 0.97065526 0.98774487
0.98193216 1.0006454 0.98817176 1.0037047 0.993732 0.97345966 0.97605133 0.97514194
0.9769623 0.98014784 0.9864385 1.0059881 1.0124274 0.986947 0.9649763 1.005431
1.0144103 0.9888305 0.99593085 0.9741437 0.9739904 0.9843752 0.9962098 0.9979872
1.0079563 0.9933758 1.0147705 1.015284 0.99526256 0.96541935 0.9879082 0.9847484
0.9915279 1.0055624 0.9927274 0.9715985 1.003531 0.9897808 0.98509383 1.0075451
0.9746134 0.98661584 0.9871333 0.9563575 0.9973096 0.9898312 0.9846228 0.977241
0.983893 0.98616344 0.9801506 0.9856165 0.9939305 1.0033371 0.99899054 0.99189144
0.9785238 1.0259699 0.99194163 1.0046681 0.9850071 0.986244 0.98247796 0.99975353
0.9841233 0.9700193 0.9924553 0.97452563 0.98078835 1.0146189 1.0027246 0.9822613
0.9616512 1.0004342 1.0152977 1.0031509 0.9965381 0.9757993 0.99116933 1.0013931
00000000: d12e 7e3f fd7b 7f3f 02ce 803f 008e 7c3f
00000010: 9781 793f 2e2e 763f 3799 7c3f dc46 813f
00000020: 1d1f 7f3f 972c 753f 29b5 7e3f cfbb 7c3f
00000030: 9a6b 803f 9dd2 7b3f ae20 803f 98fe 7d3f
00000040: 80bc 7a3f 6109 813f 63ff 7c3f 9299 7e3f
00000050: 8d33 7b3f 8277 803f 9309 7b3f 5935 763f
00000060: a4ea 7d3f 9ac4 793f cf14 813f 40c9 803f
00000070: 51e7 773f 1bc6 803f 64e0 793f 1cf4 7d3f
00000080: 4669 7f3f 8081 7c3f ad82 7a3f 1b78 7f3f
00000090: 7c94 7a3f 0194 773f 73b6 7b3f bc7d 783f
000000a0: 04c5 7e3f f424 7b3f f2c7 793f 2df7 783f
000000b0: 87f3 7f3f 527e 823f dd7c 783f d9dc 7c3f
000000c0: e85f 7b3f 2615 803f d3f8 7c3f 6579 803f
000000d0: 3865 7e3f a734 793f 80de 793f e7a2 793f
000000e0: 341a 7a3f f8ea 7a3f 3c87 7c3f 38c4 803f
000000f0: 3997 813f 8fa8 7c3f b008 773f f7b1 803f
00000100: 32d8 813f ff23 7d3f 53f5 7e3f 7b61 793f
00000110: 6f57 793f 0300 7c3f 9b07 7f3f 177c 7f3f
00000120: b604 813f e04d 7e3f 00e4 813f d3f4 813f
00000130: 87c9 7e3f b925 773f 8de7 7c3f 7918 7c3f
00000140: c6d4 7d3f 45b6 803f 6223 7e3f aeba 783f
00000150: b473 803f 4662 7d3f 1c2f 7c3f 3df7 803f
00000160: 4480 793f db92 7c3f c5b4 7c3f d8d3 743f
00000170: af4f 7f3f 9465 7d3f 3d10 7c3f 772c 7a3f
00000180: 69e0 7b3f 3575 7c3f 26eb 7a3f 5d51 7c3f
00000190: 3b72 7e3f 5a6d 803f d8bd 7f3f 99ec 7d3f
000001a0: 8980 7a3f fb52 833f e3ef 7d3f f798 803f
000001b0: 6d29 7c3f 7d7a 7c3f ad83 7b3f d9ef 7f3f
000001c0: 81ef 7b3f 2f53 783f 8d11 7e3f 837a 793f
000001d0: f214 7b3f 08df 813f 4859 803f 7a75 7b3f
000001e0: c62e 763f 3a0e 803f 46f5 813f 4067 803f
000001f0: 1f1d 7f3f fccd 793f 46bd 7d3f a62d 803f

encoder.convs.1.node_mlp.weight f4 [128, 256]
-0.013265962 -0.00081129017 -0.0228353 0.029614856 0.046199888 -0.004149736 -0.008614633 0.05343486
-0.001807441 -0.016741443 -0.046496335 0.029119225 -0.041570496 0.0169967 -0.024983665 0.020627283
0.040148806 0.051391542 0.0043986416 -0.039199512 0.014891136 -0.020192906 0.011007919 -0.0021076768
-0.0115051 0.046773285 -0.053308826 0.058108043 0.017425379 -0.045718964 0.05646629 -0.025541384
-0.043224923 -0.022984877 -0.004272803 -0.04656158 0.0072227046 0.038107824 -0.047109038 0.038701285
0.011513124 0.048857216 0.0716431 -0.011620389 -0.027732495 -0.052141324 -0.024718916 0.021628961
0.03179406 0.054165334 0.021421922 -0.0081970105 0.008924645 0.020915022 0.055833507 0.046293512
-0.03963577 -0.034338295 0.0002812476 0.0027432225 -0.065545924 0.036953356 0.05006291 0.046994414
0.015952075 0.05235139 0.006900607 -0.005460026 0.013178705 0.026650278 0.014371117 0.008942327
-0.0076662847 -0.03530951 0.007475963 0.025430126 0.008915489 -0.052033365 -0.018554946 -0.031015327
0.032610856 0.032910362 -0.047685936 0.020513501 0.008106197 -0.03712007 -0.028997658 -0.0034214389
0.018123943 -0.011836837 0.006127825 0.015455648 -0.047184262 -0.00736964 0.010631172 0.04157643
0.019006569 -0.032660052 -0.02141426 0.016014572 0.031060155 -0.0009865612 0.054741472 0.005025573
-0.06041591 0.008917413 0.0030082075 -0.020541074 0.012394939 -0.024751361 -0.039015718 0.029341878
0.030325243 -0.0230429 0.017522858 0.025487812 -0.015170406 -0.006447971 -0.021110857 -0.015046796
-0.04092061 0.0657664 0.067083634 0.027117185 -0.018241212 -0.020450562 0.01149193 0.03858175
-0.04720743 -0.05013678 -0.02873429 -0.004863816 -0.033755165 -0.055750966 -0.057701435 0.09049964
0.053546302 -0.07445904 -0.07183204 0.059952624 0.006262279 -0.08542268 0.05893559 -0.053164102
-0.037405398 0.012968603 0.09288338 0.025767915 -0.08083936 -0.020780852 -0.0023581102 0.08159386
0.06719802 -0.061709404 0.011558647 -0.10695352 0.08646828 0.0336717 -0.031423416 -0.033587933
-0.038350496 0.01246124 0.054675855 0.041564368 0.004012785 0.080430366 -0.031678535 -0.0053998535
-0.050313435 0.029325258 -0.07189617 0.0021290632 -0.011275439 -0.028453654 -0.01301135 0.012237487
-0.07015659 0.09428197 -0.03803063 -0.05218063 0.012355281 -0.012159094 -0.072051324 -0.06268232
-0.08059317 0.0566893 -0.0651659 -0.06990665 -0.0066196183 -0.0255987 0.03222196 0.07902287
0.07407969 -0.09292907 -0.0667173 -0.038400713 0.061229713 -0.040915426 0.050373208 -0.017363207
0.023379259 0.023658317 -0.058504075 0.016308961 -0.043751985 -0.017139949 0.0402672 -0.009220543
0.007144078 -0.074976586 -0.0025052743 0.00037089695 0.0706313 -0.019028092 -0.0055474057 0.08421375
0.037472155 -0.029638546 -0.045153387 -0.02463181 -0.020531582 0.030203935 0.063623406 -0.019422764
0.0697134 -0.0139446175 -0.057014972 0.0376551 0.043705195 -0.033928584 0.044804227 -0.09190322
-0.050413877 0.03318803 -0.046706885 -0.021982627 0.04702023 0.006337078 0.01092747 0.013844639
-0.052005768 -0.064822696 -0.08183862 0.071304135 0.0123168705 -0.011057483 -0.074781306 0.08857864
-0.08127484 -0.037473984 0.013241936 -0.06523254 0.011326344 -0.0012037084 -0.07882366 0.04336437
00000000: 7a59 59bc c3ac 54ba 1811 bbbc db9a f23c
00000010: 183c 3d3d 82fa 87bb 6424 0dbc 83de 5a3d
00000020: a8e7 ecba 5a25 89bc f172 3ebd 718b ee3c
00000030: d345 2abd aa3c 8b3c 8baa ccbc 8cfa a83c
00000040: 1373 243d f07f 523d 7b22 903b ab8f 20bd
00000050: f4f9 733c 986b a5bc 8f5a 343c f320 0abb
00000060: e37f 3cbc 5895 3f3d 5b5a 5abd b302 6e3d
00000070: abbf 8e3c cf43 3bbd 3249 673d 2a3c d1bc
00000080: 9e0c 31bd c84a bcbc df02 8cbb 5bb7 3ebd
00000090: 70ac ec3b f316 1c3d 68f5 40bd 3d85 1e3d
000000a0: 8ba1 3c3c 811e 483d 9eb9 923d 7263 3ebc
000000b0: 422f e3bc 2492 55bd 537f cabc 382f b13c
000000c0: 7d3a 023d 78dc 5d3d 077d af3c c14c 06bc
000000d0: ad38 123c fb55 ab3c adb1 643d 449e 3d3d
000000e0: 1e59 22bd 50a6 0cbd 6a74 9339 a3c7 333b
000000f0: f13c 86bd 675c 173d c40e 4d3d 377d 403d
00000100: edad 823c 696e 563d 7d1e e23b 05ea b2bb
00000110: 7feb 573c af51 da3c d574 6b3c d782 123c
00000120: 7535 fbbb b4a0 10bd ecf8 f43b d752 d03c
00000130: 4512 123c f020 55bd 8b00 98bc db13 febc
00000140: f692 053d 04cd 063d 5452 43bd ee0b a83c
00000150: dbcf 043c 370b 18bd 7f8c edbc 383a 60bb
00000160: aa78 943c 4bef 41bc eccb c83b b039 7d3c
00000170: 4944 41bd 057d f1bb 5e2e 2e3c 0c4c 2a3d
00000180: aab3 9b3c 8cc6 05bd f56c afbc fe30 833c
00000190: de71 fe3c 804f 81ba 9838 603d 90ad a43b
000001a0: ac76 77bd 571a 123c 5925 453b c145 a8bc
000001b0: 2414 4b3c 5ec3 cabc f2ce 1fbd 615e f03c
000001c0: a56c f83c 77c4 bcbc 198c 8f3c d1cb d03c
000001d0: 4b8d 78bc 8049 d3bb adf0 acbc d686 76bc
000001e0: 5f9c 27bd 89b0 863d 2563 893d dc24 de3c
000001f0: 986e 95bc f087 a7bc a648 3c3c e607 1e3d
00000200: 945c 41bd 395c 4dbd 2c64 ebbc a560 9fbb
00000210: db42 0abd 205b 64bd 5758 6cbd e057 b93d
00000220: 5e53 5b3d fb7d 98bd ad1c 93bd e290 753d
00000230: ce33 cd3b 16f2 aebd 7266 713d 9ac2 59bd
00000240: 6736 19bd 437a 543c a439 be3d 3c17 d33c
00000250: 1b8f a5bd 9b3c aabc 868a 1abb af1a a73d
00000260: 1e9f 893d 00c3 7cbd 7b60 3d3c 720a dbbd
00000270: 4816 b13d 56eb 093d d7b5 00bd 8093 09bd
00000280: 6915 1dbd 3b2a 4c3c caf3 5f3d 663f 2a3d
00000290: ae7d 833b adb8 a43d 5ac1 01bd 41f1 b0bb
000002a0: 7615 4ebd 863b f03c 4d3e 93bd c187 0b3b
000002b0: 9ebc 38bc a317 e9bc 8f2d 55bc be7f 483c
000002c0: 42ae 8fbd e816 c13d 02c6 1bbd 5bbb 55bd
000002d0: ce6d 4a3c f036 47bc a58f 93bd 975f 80bd
000002e0: 080e a5bd 0a33 683d b375 85bd 382b 8fbd
000002f0: 62e9 d8bb 5db4 d1bc 2dfb 033d bed6 a13d
00000300: 18b7 973d 9951 bebd 14a3 88bd 114a 1dbd
00000310: 02cc 7a3d ef96 27bd 2354 4e3d 493d 8ebc
00000320: dc85 bf3c 16cf c13c f8a1 6fbd 5f9a 853c
00000330: 4835 33bd 1469 8cbc 38ef 243d c311 17bc
00000340: df18 ea3b 538d 99bd 872f 24bb f274 c239
00000350: 25a7 903d cde0 9bbc 03c7 b5bb 4278 ac3d
00000360: 677c 193d 89cc f2bc c2f2 38bd a6c8 c9bc
00000370: d931 a8bc 3e6e f73c fd4c 823d 7d1c 9fbc
00000380: e6c5 8e3d f777 64bc 8888 69bd 3c3c 1a3d
00000390: 3804 333d b3f8 0abd a384 373d c137 bcbd
000003a0: c87e 4ebd 2cf0 073d b84f 3fbd e914 b4bc
000003b0: 4998 403d 43a7 cf3b 2209 333c a0d4 623c
000003c0: 0004 55bd c3c1 84bd 029b a7bd e707 923d
000003d0: b3cc 493c 722a 35bc f126 99bd b868 b53d
000003e0: 6c73 a6bd 527e 19bd b5f4 583c a398 85bd
000003f0: 2192 393c c0c5 9dba 4d6e a1bd d69e 313d

encoder.convs.1.node_mlp.bias f4 [128]
-0.05496632 0.058170266 -0.0041602263 0.009362529 0.028426714 -0.051835425 0.01492964 -0.012304887
0.044543125 0.02470703 -0.024723858 -0.06518974 0.03949974 -0.054490447 0.058313824 -0.023295227
0.05687237 0.004880097 -0.028459085 -0.048852224 -0.05297152 -0.004720836 -0.090939835 0.017622996
-0.047831595 0.023977306 -0.016832566 0.03446168 -0.06453363 -0.026992561 -0.033918966 -0.038455736
0.0014536615 -0.034679327 0.054064147 -0.01807063 -0.0141443275 0.05993532 0.038535915 0.07661341
-0.019333567 -0.01597708 0.02645699 -0.016991101 -0.014521874 0.056155615 0.04679824 0.06834686
0.045669053 -0.05589804 0.034114484 -0.014070849 0.035920158 0.0048834654 -0.017209135 0.0033541443
0.038123123 0.048648305 0.088107094 0.044915628 0.05264153 -0.06598151 -0.013615328 0.051276945
-0.023311814 -0.033748824 -0.052648507 0.054312404 -0.05157378 -0.054458 -0.019820852 0.014010346
0.011709983 0.009159596 0.012925233 0.007881747 0.064350754 -0.07556074 -0.023889106 -0.015852103
0.0480142 0.04725911 -0.00020539045 0.015967304 -0.012210875 -0.04845857 0.053873304 0.0159977
-0.03584243 -0.056413848 0.07053067 0.025908478 -0.027353203 -0.01265383 0.033963308 -0.0066648507
-0.022039372 -0.0224947 0.057549056 -0.02533767 -0.028960448 0.083380125 -0.008154288 0.047525793
-0.02269143 0.018396093 -0.047121298 0.029240675 -0.047732517 -0.013445932 0.036199506 -0.053023033
-0.029385801 0.005323723 0.057104178 0.06612945 0.036083434 -0.029496003 0.03109051 0.063176535
-0.031274725 -0.047642656 -0.06667135 0.06023807 -0.0065403203 -0.081044294 -0.019663792 0.05633407
00000000: 5d24 61bd f243 6e3d 8252 88bb 4b65 193c
00000010: 24df e83c 6251 54bd 739b 743c 709a 49bc
00000020: da72 363d 6666 ca3c b089 cabc 3382 85bd
00000030: 7bca 213d 6031 5fbd 7ada 6e3d a2d5 bebc
00000040: 01f3 683d 39e9 9f3b 0723 e9bc 4519 48bd
00000050: aaf8 58bd 3eb1 9abb aa3e babd 1a5e 903c
00000060: 10eb 43bd 0e6c c43c 73e4 89bc b127 0d3d
00000070: 352a 84bd 811f ddbc 9dee 0abd c383 1dbd
00000080: c988 be3a e90b 0ebd 5e72 5d3d dc08 94bc
00000090: 9cbd 67bc bd7e 753d d6d7 1d3d 7ee7 9c3d
000000a0: 6e61 9ebc 5ee2 82bc 54bc d83c ec30 8bbc
000000b0: 27ed 6dbc 6e03 663d 83af 3f3d 70f9 8b3d
000000c0: 790f 3b3d 58f5 64bd a1bb 0b3d 6b89 66bc
000000d0: 0421 133d 7a05 a03b 2cfa 8cbc 34d1 5b3b
000000e0: fe26 1c3d 7243 473d 7e71 b43d 73f9 373d
000000f0: a59e 573d 5021 87bd d312 5fbc c607 523d
00000100: 6bf8 bebc 353c 0abd f6a5 57bd af76 5e3d
00000110: 073f 53bd 5a0f 5fbd 575f a2bc a68b 653c
00000120: 3bdb 3f3c 2112 163c 5bc4 533c 7122 013c
00000130: 54ca 833d 97bf 9abd 16b3 c3bc 45dc 81bc
00000140: 8aaa 443d c592 413d 145e 57b9 ddcd 823c
00000150: 1f10 48bc 7e7c 46bd 41aa 5c3d 9c0d 833c
00000160: 83cf 12bd 3512 67bd 6272 903d 043e d43c
00000170: d313 e0bc 0352 4fbc 1c1d 0b3d d264 dabb
00000180: ea8b b4bc ce46 b8bc 8fb8 6b3d f290 cfbc
00000190: 763e edbc 33c3 aa3d 9099 05bc 68aa 423d
000001a0: 61e3 b9bc 67b3 963c 4302 41bd 248a ef3c
000001b0: 2c83 43bd 544c 5cbc ef45 143d ae2e 59bd
000001c0: 7eba f0bc a072 ae3b 12e6 693d e16e 873d
000001d0: 39cc 133d 9aa1 f1bc 86b1 fe3c b362 813d
000001e0: ed19 00bd f224 43bd fd8a 88bd 32bc 763d
000001f0: 2f50 d6bb 8dfa a5bd f615 a1bc 8ebe 663d
