checkpoints/model_C_epoch_19.pth (torch, 552117 bytes, 26 tensors)

encoder.node_embedding.weight f4 [1, 128]
000000 a6 23 ef 3f ae d4 bb 3f f6 54 60 3f b9 4a 03 c0
       1.8682754 1.467428 0.8762964 -2.0514357
000010 b1 84 24 3f 4a 2c 9b bf 59 59 d9 bc de 55 c9 bf
       0.6426497 -1.2122891 -0.026531862 -1.572933
000020 c1 a3 3c bf a4 ab cd 3f e7 00 bb be 3e e2 b0 bf
       -0.7368737 1.6068006 -0.36524126 -1.3819044
000030 19 bd 32 bf cf d0 0b bf 02 8d 40 bf e8 80 3c 3f
       -0.6981979 -0.5461549 -0.7521516 0.73634195
000040 7f a8 cd 3f a1 59 1b be 78 8a f4 be 68 d9 d5 3e
       1.6067046 -0.1517091 -0.47761893 0.4176743
000050 c3 d7 3b bf 78 6c 86 3f c3 b3 45 3f a1 ac d2 3f
       -0.733761 1.0501852 0.7722742 1.6458932
000060 93 fa 9e 3f 6a 96 a3 3f 43 10 16 3f 0d b4 a5 3f
       1.2420219 1.2780278 0.58618563 1.2945572
000070 e8 1a 5b be a2 4e 16 3d 5f cf 6f be 43 c7 53 3f
       -0.21396983 0.036696084 -0.2341895 0.82725924
000080 f2 9c ac bf 51 1d 58 bf d2 d3 36 be 8e 30 d4 3f
       -1.3485396 -0.84419733 -0.1785424 1.6577318
000090 bf 86 9c 3e 2b fd d2 be 7f b0 97 3e 25 6b 3c bf
       0.30571553 -0.41208777 0.29626843 -0.7360099
0000a0 fc bc c2 bf cd ad 78 3f 5b 77 5c bf a4 2a 11 bf
       -1.5213923 0.971402 -0.8611962 -0.5670569
0000b0 19 be 9e bf 97 fe 04 40 f6 92 99 bf d0 03 ec be
       -1.2401763 2.078039 -1.1997974 -0.4609666
0000c0 1d 4a 65 bf 11 82 24 bf dc 0f 6a 3d 5c f5 f6 3e
       -0.8956621 -0.64260966 0.05714403 0.4823407
0000d0 f8 77 f5 be 0c 33 94 3f ce f1 47 bf 75 e0 37 bf
       -0.4794309 1.1578078 -0.7810334 -0.7182687
0000e0 5a ae ae bf b1 ce 3e 3c 16 fb 86 bd 12 30 27 3f
       -1.3646958 0.011645959 -0.065908596 0.65307724
0000f0 84 b2 9a bd e0 d2 e7 3f c4 1e 95 bf f3 a0 ab 3f
       -0.075535804 1.8111229 -1.1650014 1.3408493
000100 e8 be b5 3f 68 ff 53 3f 7e 56 0b 40 78 50 00 3f
       1.4198885 0.82811594 2.177154 0.50122786
000110 34 cf ad 3e cd d2 43 be a0 ee 83 bf 16 d2 9f 3f
       0.33947146 -0.19123383 -1.0307198 1.2485988
000120 7b 08 1b be cd 4d 04 3f 59 62 0e 3d ac 4a cb 3e
       -0.15139954 0.51681215 0.03476176 0.39705408
000130 02 9f 0a 3f 9b 21 20 bf 3d 9e 0a c0 c0 51 36 bf
       0.54148877 -0.6255128 -2.165908 -0.7121849
000140 f3 17 8d 39 6a b2 a1 be 8a a7 a6 bf 9c d5 12 bf
       0.0002691146 -0.31581432 -1.3019879 -0.5735719
000150 ef ef 04 3f a2 61 05 3f fd 5a 8c 3f e3 4c f4 3c
       0.5192861 0.521021 1.0965267 0.029821819
000160 0b 26 3d 3f 68 3d e6 be 0b bf 80 bf d6 8a 15 3f
       0.73886174 -0.44968724 -1.0058302 0.5841497
000170 18 cc d6 bf 2f a7 4e bf 38 7b a4 3f 75 cc e9 3e
       -1.6781034 -0.8072385 1.2850103 0.456638
000180 13 0b 1d c0 d4 52 ed 3e 0f 89 42 3f be 82 67 3c
       -2.453801 0.46352255 0.75990385 0.014130292
000190 64 fb 1b 3f 87 76 0c 3f 62 f5 82 3f 14 0b da be
       0.60930467 0.5486836 1.0231135 -0.42586577
0001a0 db b6 28 be 2a f4 38 3f e5 f1 bd 3e 8b e7 35 3e
       -0.16476004 0.72247565 0.37098613 0.17764108
0001b0 aa 58 82 3e 89 0d 9c 3f 88 3d d9 3a 61 09 98 be
       0.2545827 1.2191631 0.0016574124 -0.29694656
0001c0 02 e3 b4 bf e2 6e c3 bd 30 43 15 bf 30 a3 ed 3e
       -1.4131777 -0.095426336 -0.58305645 0.46413565
0001d0 3a 8d 38 3f 3f 95 ab 3d 13 d9 c1 be 04 44 02 3f
       0.72090495 0.08378076 -0.37860927 0.50885034
0001e0 65 db 4b bc ff 7c 6d 3e fe 7f ef 3d 16 e1 3e 3f
       -0.012442444 0.23192213 0.116943344 0.74562204
0001f0 99 88 89 3f 19 0d a4 3e ce bc 30 3f 00 cc cd 3e
       1.0744811 0.32041243 0.69038093 0.40194702

encoder.convs.0.node_mlp.weight f4 [128, 256]
000000 46 47 66 3d f7 ee ef bb 6c c5 6b 3d eb 23 6a 3c
       0.056220315 -0.007322188 0.057561323 0.01429079
000010 02 67 40 bd 68 d5 19 3d 42 99 b5 bc ee 17 e8 bc
       -0.046973236 0.037557036 -0.022167806 -0.028331723
000020 2d 72 64 bd db d9 65 bd 21 71 4e 3c 2c 45 95 bc
       -0.05577295 -0.056115966 0.012600214 -0.01822146
000030 2b a2 9b 3c eb e6 61 bd 32 74 26 3d 2a 34 24 bd
       0.018998226 -0.05515186 0.040638156 -0.04008881
000040 1b 8b bc bb 6f f7 01 3c 39 a9 da 3c 9e 82 5e 3d
       -0.0057538874 0.007932528 0.02669202 0.054323785
000050 79 9c 50 3d 34 1a 33 bd d7 35 a6 3c af 5f b0 bc
       0.050930474 -0.04372616 0.020289345 -0.02153
000060 83 ff f3 ba b4 2c 28 bd 26 f3 78 3d a6 5e 24 bd
       -0.0018615577 -0.041058257 0.06077876 -0.040129326
000070 40 33 e3 3c e3 da db 3c e7 7d 74 3c 21 e8 e7 bc
       0.027734399 0.026837772 0.014922596 -0.02830893
000080 92 5c 50 3d 65 86 0c 3c 08 55 3d 3b 7a 78 49 bd
       0.050869532 0.008576964 0.0028889794 -0.04918716
000090 35 37 fb 3c 93 b8 67 bc b9 1b be bc ab b4 43 3d
       0.030665973 -0.014143127 -0.023206579 0.04777972
0000a0 47 7c 10 3c 48 c0 ed bc b2 10 13 bd 06 60 00 bc
       0.0088186925 -0.02902235 -0.035904594 -0.007835394
0000b0 b6 a6 f0 3c 85 6e 31 bc 13 23 23 bd af 55 d4 bc
       0.029376369 -0.010829573 -0.03982837 -0.025919763
0000c0 d0 90 4f bd c4 fa 8a 3c 0a 65 58 3d 01 51 58 bd
       -0.050675213 0.016965277 0.052830733 -0.052811626
0000d0 c6 c5 18 3c d9 7d 15 3d 09 0f cd 3b 18 b8 da bc
       0.009324497 0.03649697 0.006257896 -0.02669911
0000e0 77 89 de 3c f3 de 1b 3d e3 aa 8f 3c 6b 2f c0 bb
       0.027165158 0.038054418 0.01753754 -0.0058650277
0000f0 3d 1b b0 bc 8b 9a 3a 3c ca 64 80 bc fb c1 5b bc
       -0.021497363 0.011389385 -0.01567306 -0.013412948
000100 d2 4d 34 3d b7 b3 6b 3d b7 3d a3 ba f1 2a 10 bc
       0.044019528 0.057544436 -0.0012454306 -0.0087993005
000110 d7 78 c1 3b d3 f5 0e bc 64 ad 21 3c 19 49 b4 3c
       0.005904298 -0.008725601 0.009868 0.022007512
000120 c6 b0 78 bd 43 ef 90 bc 07 76 69 3d cc d4 eb 3c
       -0.06071546 -0.017692214 0.056997325 0.028787993
000130 00 dd ef 3a 35 59 2b bd f0 61 2d bd ad a6 74 bd
       0.0018300116 -0.04183312 -0.04232973 -0.059729267
000140 c8 a1 3b bc bb 6e 81 3c 35 30 0c 3d 88 a2 bf 3c
       -0.011452146 0.01579987 0.03422566 0.02339293
000150 93 c8 49 bd d4 e6 02 bd 63 01 9e bb 6c 2e 84 3d
       -0.049263548 -0.031958416 -0.0048219427 0.06454167
000160 b8 cb 60 3c af 69 aa bc a1 00 a8 3c 62 e7 96 bc
       0.013720445 -0.020802347 0.020508112 -0.018420879
000170 df 45 36 bd 82 60 23 3d c4 83 bc bc 0c 4e f0 bb
       -0.044500228 0.03988696 -0.02301205 -0.0073335227
000180 58 b2 86 bd 83 0f 3c 3d 73 2e 52 3d 47 11 e3 3c
       -0.06576985 0.04591323 0.05131383 0.0277182
000190 57 2b 1b bd f7 bf 63 bd b9 31 38 bd a8 15 27 3d
       -0.03788313 -0.055602994 -0.044969294 0.040792137
0001a0 04 50 c8 3c 5b 2f 67 3d 42 ab 17 3d 60 07 a8 3c
       0.024452217 0.056441646 0.03702856 0.02051133
0001b0 ce bd 8e 3b 6b 06 2b bd de 3c 9e bd 84 32 7f bd
       0.0043561226 -0.041754168 -0.07726453 -0.062304035
0001c0 4c db a5 3c eb 1b 10 bd 87 9e 8c bc 8f 9a f8 bc
       0.02024617 -0.035182875 -0.017165435 -0.030347137
0001d0 a7 15 cd bb 71 03 1b bd aa 79 38 bd 6d 56 ce 3c
       -0.0062586847 -0.03784508 -0.045037903 0.025187695
0001e0 88 a6 d1 bc b4 5e 2f 3d f2 d2 6c bc 00 14 24 bd
       -0.025592104 0.042814925 -0.01445459 -0.040058136
0001f0 52 49 c3 bb 10 9c ca bc 11 39 63 bc a4 ee 5a bd
       -0.005959668 -0.02473262 -0.013868586 -0.05345024
000200 be 41 62 3d e8 ba 9a bd 03 6f 3d 3d d3 f7 a5 3d
       0.055238478 -0.07555181 0.046248447 0.08103909
000210 a1 39 86 bb f0 a3 44 bd 99 6d be 3b 07 e0 9b bd
       -0.0040962254 -0.048007905 0.005811405 -0.07611089
000220 e5 af 81 3d 1a 71 d8 3d 9c 5e df 3c 74 16 c7 3c
       0.06332377 0.105684474 0.027266793 0.024302699
000230 df 2d 09 bd 77 55 30 bd 3a ef 5e 3b 1c f1 4a bd
       -0.03349101 -0.043050256 0.0034017102 -0.049546346
000240 10 0f 73 3d f4 6a 83 3d aa c2 a4 3d 19 af eb bc
       0.059340537 0.06416884 0.08044942 -0.028770017
000250 8f c6 4d bd 6c 6f c6 bc 3a 61 8b 3d 79 eb 88 bd
       -0.05023819 -0.024223052 0.06805654 -0.06685538
000260 20 af 15 bc b4 e0 88 bd 76 81 79 bd f7 72 e1 bc
       -0.009135991 -0.06683484 -0.06091448 -0.02752064
000270 f8 db 63 3a da 9e 88 bc c9 6c 35 bd da 36 63 3d
       0.00086921407 -0.016677309 -0.0442932 0.055472232
000280 6b b5 83 3c 50 e2 43 3b 9b 9c 8a 3b 29 08 59 bd
       0.016077718 0.0029889531 0.0042300946 -0.052986298
000290 35 27 b8 bd 0d 51 12 bc 60 58 8b 3c 54 e5 60 bd
       -0.08991853 -0.008930457 0.017009914 -0.054906204
0002a0 6c 2f b6 bd a7 2a 93 bc 36 d7 b5 3c 90 d4 95 3c
       -0.08895764 -0.017964674 0.022197347 0.018289834
0002b0 2d 70 41 3d 24 88 96 bc ea 3a a4 bc a7 22 48 3c
       0.04722612 -0.018375464 -0.020047624 0.012215293
0002c0 14 71 9a bd 74 eb 4e 3c ee 99 39 3c 25 6d bd 3c
       -0.07541099 0.012629379 0.011328204 0.023123333
0002d0 cc f1 7d 3c 47 4e b9 bc f3 82 7e 3d 49 35 b5 3c
       0.015499543 -0.022620333 0.0621366 0.022120135
0002e0 d7 c8 4e bd e8 eb 0c bb d7 a0 86 3d 2c b8 64 3c
       -0.050484505 -0.0021502916 0.065736465 0.013959926
0002f0 1a 30 26 3d 1e 6c 83 3d 97 64 e0 bc e6 83 31 bd
       0.040573217 0.06417106 -0.027391715 -0.04333868
000300 8d 04 56 bd 13 b0 83 bd 65 d5 78 3d a1 e4 8c 3d
       -0.052250434 -0.06430068 0.060750384 0.06879545
000310 f0 29 98 3a 6d 86 af bd 43 64 12 bc 8a 94 65 bd
       0.0011609178 -0.085705616 -0.008935037 -0.05604986
000320 06 17 77 bd 32 9e 82 3c c6 3f a8 3d d9 9c 35 3c
       -0.06032469 0.015944574 0.08215289 0.011084759
000330 9f 59 a9 bd 9a 95 11 3c 61 0c 5c 3d ab 51 b3 bd
       -0.08269047 0.008885765 0.053722743 -0.08755811
000340 3f ba 47 bd 73 99 2f 3b 45 26 cd bc 41 d6 26 3d
       -0.048761602 0.0026794344 -0.025042662 0.040731672
000350 a8 fc 89 3c 1c b2 f5 bb 9f b3 15 bd 35 79 3c bd
       0.016844109 -0.007498039 -0.036548253 -0.04601403
000360 2b 4f 6c bd 0c 99 5d bd 06 9d 42 bc 42 8a 59 bd
       -0.057692688 -0.054101035 -0.011878258 -0.05311037
000370 5f 4d 54 bd 80 3b ef 3c e3 64 93 3c 6f 36 b1 3d
       -0.0518316 0.029203176 0.017992442 0.086529605
000380 a7 7f 88 3d ed 31 9f 3c 29 22 fe bd 16 7d 91 bc
       0.06664973 0.019432986 -0.12408859 -0.017759841
000390 44 8d 39 3d 6a 80 17 3b 60 30 c6 bc 96 56 9a 3d
       0.045300737 0.0023117312 -0.024192989 0.07536046
0003a0 0c 8d b7 bd ba 11 9e bd 8d 23 8f bd 90 ff 31 3d
       -0.089624494 -0.07718225 -0.06989203 0.043456614
0003b0 d9 20 63 bb 9a 39 69 bc 9d 05 2f bd 36 a1 07 bd
       -0.003465703 -0.014234925 -0.042729963 -0.033112727
0003c0 8b cf 8f bd b8 15 d8 b9 28 04 80 3d 23 54 fb 3c
       -0.070220076 -0.00041214912 0.06250793 0.030679768
0003d0 bb cd ae bd c9 51 46 bd 6f 53 29 bd 69 06 c8 bb
       -0.08535334 -0.04841784 -0.041339334 -0.00610428
0003e0 52 84 e9 3c ac ba 07 bc 1f ff e5 3c 97 cb 4e bd
       0.028505478 -0.008284252 0.028075753 -0.050487127
0003f0 2a d4 bf 3c 54 e3 12 bd 36 bb 67 3c e4 8e aa 3d
       0.023416597 -0.03586133 0.014143756 0.083280355

encoder.convs.0.node_mlp.bias f4 [128]
000000 65 63 31 bd b8 93 8e 3c ea d7 30 3c 93 df 5b 3d
       -0.04330768 0.017404422 0.010793665 0.053680014
000010 92 ca 8d 3c 2d 5f 83 bc fe 29 d2 3b e9 0b 10 bd
       0.017308507 -0.016036594 0.0064136973 -0.03516761
000020 dc 00 a7 3b ff 19 ef 3b 1f 0f 6f 3d 46 2d 52 3d
       0.005096538 0.0072968 0.05836403 0.051312707
000030 8b 7e 24 bd 26 da 6b 3d 79 97 49 bd 39 e1 62 3c
       -0.040159743 0.05758109 -0.04921672 0.013847643
000040 4b e8 a8 3c e9 45 9c 3c df c7 18 3d ec a0 db bb
       0.020618578 0.019076305 0.037299987 -0.006702533
000050 cd c3 5a 3d e4 b4 eb 3b df 94 f2 3b a5 89 bb bc
       0.053409386 0.0071931947 0.0074030007 -0.022892782
000060 c7 3e 34 bd 65 be 8d bc 38 3d e3 3b a5 e2 8d 3a
       -0.04400518 -0.017302701 0.006934788 0.0010824992
000070 ab 1c 52 bc ea e6 9f 3a 90 50 78 3c 80 04 04 bd
       -0.012824218 0.0012199555 0.015155926 -0.032230854
000080 5c 92 2a 3c 91 f0 78 bd fa d7 f1 3a 63 07 3a 3d
       0.010410871 -0.060776297 0.0018451207 0.0454172
000090 b6 e9 ef bc fc 80 14 3d 8e a0 9c bc 60 38 ca bc
       -0.029286247 0.03625582 -0.019119527 -0.024685085
0000a0 a6 bf e6 3c 86 22 39 bd e6 bb 01 3d 96 bb 15 3d
       0.028167557 -0.04519894 0.031673335 0.03655585
0000b0 ab 47 59 3c 3e 26 f9 bb ec dd d9 bc 65 e4 3c bd
       0.013261716 -0.007603436 -0.026595078 -0.04611625
0000c0 87 69 5d 3d 91 28 fa 3c bd 19 fa 3c 4e 8d 12 bd
       0.054055717 0.030536922 0.030529851 -0.03577929
0000d0 0f 6e d3 3c 93 97 07 bd 27 ca 0f 3d dd 54 40 3d
       0.025809316 -0.033103537 0.035104897 0.046955932
0000e0 18 53 69 bd 96 68 8d bd 55 3d 73 bd b8 50 f4 bc
       -0.05696401 -0.06904714 -0.059384663 -0.029823646
0000f0 34 13 68 3c c8 17 24 bd 2e 86 04 3d eb 86 15 bd
       0.014164735 -0.040061742 0.032354526 -0.03650562
000100 f5 75 5d bc 44 31 68 3c 6d 08 35 bd 44 49 5b ba
       -0.013516893 0.014171902 -0.04419749 -0.00083651044
000110 70 78 69 bd 02 7e 86 bd 8e cf 2c 3c 99 a9 06 bd
       -0.056999624 -0.06567003 0.010547532 -0.032876585
000120 92 c0 06 3d d1 3d 09 bd 03 67 18 3d 76 ad 5d 3d
       0.032898493 -0.03350622 0.037207615 0.054120503
000130 a1 2f b1 bc c0 c3 34 bc 46 bb 17 3d 0a b3 ca bc
       -0.021629157 -0.011032999 0.037043832 -0.024743576
000140 59 69 5f 3c d9 9c 3c bc d5 8b c3 3b b6 95 30 bd
       0.013635957 -0.011512005 0.005967597 -0.043111525
000150 43 c3 56 3d df 70 8d bd 11 35 98 bc a7 0a 27 3d
       0.05243231 -0.06906294 -0.018579992 0.040781643
000160 b6 ca 1a bd 19 cf 4d bb 14 48 77 3d b7 88 8f 3c
       -0.037790976 -0.0031403957 0.060371473 0.017521245
000170 3e 00 23 3d 91 e4 33 bd 1b 34 f8 3c 2c 0a d9 bb
       0.039795153 -0.04391915 0.030298283 -0.006623527
000180 fc 49 43 3b 3a 10 b8 bc fb f6 1e bc ff 9f 31 3d
       0.0029798737 -0.022468675 -0.009702439 0.043365475
000190 f4 27 32 3d 11 00 5f bd c8 31 4e 3d 7e e6 5e 3d
       0.043495134 -0.054443423 0.050340444 0.054419033
0001a0 0f b1 5f bc 52 93 30 3b 0b 57 9c 3c e3 08 7b bd
       -0.013653054 0.0026943278 0.019084474 -0.061287772
0001b0 9f b5 78 3c 1b bc 61 3d 5f 23 56 bc b7 a8 1b bd
       0.015180021 0.055111032 -0.013069957 -0.038002696
0001c0 73 78 f8 bc 57 1d fe 3c 3e b7 19 bc 51 57 33 bc
       -0.030330872 0.03101985 -0.009382067 -0.010946111
0001d0 e0 4c c4 3c 19 8d d4 3c d5 6d 34 3d bb f3 da 3b
       0.023962438 0.025946187 0.044050056 0.006681887
0001e0 c7 a6 98 bd f6 e4 28 3d f8 36 1d 3d 2c f6 44 3c
       -0.07453685 0.04123398 0.0383825 0.012021583
0001f0 fa d3 38 bc b8 22 20 bc e9 b0 fa 3c e9 d3 22 3d
       -0.011281008 -0.009773903 0.030601935 0.039752875

encoder.convs.0.edge_mlp.0.weight f4 [128, 7]
000000 41 43 d2 be 3f d9 b9 3c fe 0e b9 3d 77 03 89 3d
       -0.41066936 0.022686599 0.09036063 0.06690114
000010 8f 1c ed bd e4 ca 49 bd ad 6b d7 be e8 ea cb bd
       -0.11577713 -0.049265757 -0.42074338 -0.09956914
000020 fe bd 8c be 3a 0c b4 3e 4a fa 04 3e 47 83 e2 3d
       -0.27488703 0.35165578 0.12986103 0.110601954
000030 94 08 6a be e7 7f 37 be cd 11 96 3d 16 41 17 3d
       -0.22854835 -0.17919885 0.07327614 0.036927305
000040 45 49 e9 3d 08 7e e5 3d 84 d0 7e 3d fc 81 9e be
       0.11390928 0.11205679 0.062210575 -0.30958545
000050 17 55 d3 3e 52 5e dc bd bf 68 eb bc a4 91 a3 be
       0.41275856 -0.10760178 -0.02873647 -0.31947052
000060 80 96 b3 3e bb 1a 0b be 4a 97 78 3e 04 17 23 3e
       0.3507576 -0.13584416 0.24276462 0.15926749
000070 53 99 f1 bb 47 b4 2d bd 59 50 a1 be 52 cb a9 be
       -0.007373014 -0.042408254 -0.31506613 -0.33162934
000080 e8 7e 74 3e 73 8f 6e 3e 33 11 9b be ac 64 eb bd
       0.23876536 0.23296909 -0.3028656 -0.11493811
000090 ec f6 e3 be 87 54 bc be f6 87 8d 3d d6 61 9b bd
       -0.44524324 -0.3678324 0.06910698 -0.0758702
0000a0 15 25 c0 3e f2 7d 88 3e db 40 87 be 50 64 a6 3e
       0.3752829 0.2665859 -0.26416668 0.32498407
0000b0 53 41 82 3e 4c b9 a7 3e ed 84 bb bd 0e c1 8e 3b
       0.25440463 0.32758558 -0.09156213 0.00435651
0000c0 0a ab 5e be 3a 36 70 be 77 b5 b9 3e a9 9b b2 3e
       -0.21744934 -0.23458186 0.3627126 0.34884384
0000d0 d9 f9 c5 be 90 d0 31 3e d9 f7 33 be 1c 92 98 be
       -0.3866718 0.17364717 -0.17575015 -0.29798973
0000e0 31 90 7b 3e 4c 11 10 3e 52 20 de bd 4e f9 ba 3e
       0.24566723 0.14069098 -0.10846008 0.3651833
0000f0 c1 fd 4a be 17 63 88 3e 5a c7 62 3e 7d 94 5e be
       -0.19823362 0.266381 0.22146359 -0.21736331
000100 c0 da 39 3d 6d 58 22 be 53 e9 ce bd d2 ad a2 3e
       0.045374632 -0.15854044 -0.10103097 0.3177324
000110 15 c6 b4 3e 6a 3b 55 be d3 25 c7 3e 5c c0 96 be
       0.35307375 -0.20823446 0.38896045 -0.29443634
000120 0b 1c 41 3e d3 9f 84 be 19 da a0 bc cd 2d 9f be
       0.18858354 -0.25903186 -0.019635247 -0.3108963
000130 c2 32 9e 3e 90 a6 12 be 27 f4 e2 be 79 fd 88 be
       0.308981 -0.14321351 -0.44326898 -0.26755884
000140 74 b2 70 3e f4 f6 26 3e db ac 40 3e ff d4 a4 3e
       0.23505574 0.16305143 0.18815939 0.32193753
000150 5c 32 9c bd f5 05 6a 3e f4 4a b4 be 58 90 ad be
       -0.07626793 0.22853835 -0.35213435 -0.33899188
000160 63 4d 2d 3e cd 1b 95 be ad 2f d6 3d cd 0f 1f 3e
       0.16924052 -0.29122773 0.10458312 0.15533371
000170 38 f4 a5 3e 85 dc 9c 3e 32 58 07 3e 2e fc 79 3c
       0.32412887 0.30636993 0.13217238 0.015257878
000180 95 df 9f be b0 29 db bd 60 8a 2f be 90 e0 9f 3d
       -0.31225267 -0.10701311 -0.1714263 0.07806504
000190 c3 3f 50 be ee 4a 31 bd ef 37 51 bb bd 52 37 3d
       -0.20336823 -0.04328435 -0.0031924208 0.04475664
0001a0 85 ea 9e be 6c 3c 84 3e 6b 38 10 3e b8 98 c0 3e
       -0.310383 0.25827348 0.14084022 0.37616515
0001b0 02 9a 5b be c5 ab 7b 3d 66 1b 20 3e 5a df 88 3e
       -0.21445468 0.06144311 0.15635452 0.26732904
0001c0 a6 b3 9b be 73 11 8b bd 68 b9 69 3d 28 9a 5d be
       -0.30410498 -0.067904375 0.057061583 -0.21640837
0001d0 60 db ac be 49 85 8f 3d 2e e2 7f 3e 6b 1a c0 be
       -0.3376112 0.07007844 0.24988624 -0.37520155
0001e0 60 83 0c bd 3b e8 c2 be ae 14 a6 3d 76 d2 1b 3e
       -0.034304976 -0.38067803 0.08109413 0.15217003
0001f0 64 35 b0 be 5a 6b 0a 3e a4 09 cf bd 3d 55 12 be
       -0.34415734 0.13517514 -0.10109261 -0.14290328
000200 f8 00 a8 be fd 95 9e bc 87 df 53 3e c6 40 32 be
       -0.3281324 -0.01935863 0.20690738 -0.17407522
000210 43 78 ca bd b0 59 8b be 49 73 c7 bd ca d0 b5 3e
       -0.09886219 -0.27216864 -0.09738786 0.35510856
000220 0d 49 6e 3e 01 49 51 be 02 9d b7 3e 1e 44 dd 3d
       0.23270054 -0.20438005 0.35861975 0.10804008
000230 1f 58 10 3e 85 63 b1 be 50 75 33 be 24 bf a0 3e
       0.14096116 -0.3464624 -0.1752522 0.3139583
000240 a2 c4 72 3e 1f 65 64 3e 14 a3 40 be 8c 0b 21 be
       0.23707822 0.223042 -0.1881221 -0.15727061
000250 ac ed f2 3d 99 b7 3d 3e 8b 88 42 be de 0e 2f be
       0.118617386 0.18527068 -0.189974 -0.17095515
000260 3b 7b ae be c2 7a c6 be 9f 9f 14 be 54 73 02 3e
       -0.34078392 -0.38765532 -0.14514016 0.12739307
000270 95 32 5d be 5f 19 f2 3d 3b 7d 8e be 96 d6 81 bc
       -0.21601327 0.118212454 -0.27829918 -0.015849393
000280 4f e7 52 be df 7c 94 be 50 ae 28 3e 5d d8 a9 3d
       -0.2059605 -0.2900152 0.16472745 0.08293221
000290 a8 77 a1 3e 42 0d 97 3d 77 8d 42 bc af f8 9e 3e
       0.31536603 0.073755756 -0.011874548 0.31049106
0002a0 e3 ca 98 be 01 03 19 3e 2e 35 16 bc e1 5f 58 bb
       -0.2984229 0.14942552 -0.009167952 -0.0033016133
0002b0 67 5e 76 be 01 7b 04 bc 96 67 80 be 31 ce 88 3e
       -0.24059449 -0.008085967 -0.2507903 0.26719812
0002c0 b7 04 f6 bd 02 58 d0 bc e4 f7 b9 3e 15 f8 93 bc
       -0.12012618 -0.02543259 0.36321938 -0.01806263
0002d0 47 79 ab be 0f 11 d2 3d 4e 33 15 3e 13 95 29 be
       -0.33490965 0.1025716 0.14570352 -0.16560774
0002e0 cd 27 ae be 54 0d a4 be 01 77 21 be b2 a7 3f 3d
       -0.3401474 -0.3204142 -0.15768053 0.046790786
0002f0 14 0a c9 be 30 16 8b be f8 d3 e8 3c 7f b9 be be
       -0.39265501 -0.27165365 0.028421387 -0.37250897
000300 e5 c0 85 bb 86 6e fb 3d 8a 8f c4 3e 57 0c 8d bb
       -0.0040818327 0.1227694 0.38390762 -0.0043044495
000310 00 1a 33 3d e1 78 48 3e e0 b1 15 3c 0d 82 b0 3e
       0.043725967 0.19577362 0.009136647 0.3447422
000320 72 9f 3b bd 58 93 c8 3e 8d a0 8a be cd ad 99 3e
       -0.045806356 0.39174914 -0.27075616 0.30015412
000330 13 e7 56 bc a2 79 b2 bd 00 fd b4 3e ad f1 5a 3e
       -0.013116616 -0.08714606 0.35349274 0.21381254
000340 43 c7 a0 3d d7 85 ac bd 4d c6 b6 3e 5d 74 a5 3c
       0.07850506 -0.084239654 0.35698166 0.020197088
000350 74 ce 1b 3e 35 f2 be bb a9 c0 f5 bd ed b2 1e be
       0.15215474 -0.005827213 -0.11999638 -0.15497942
000360 c3 3e 4c 3e 83 f2 e3 3d 8d f8 f8 3d 08 01 a0 3d
       0.19945817 0.1113024 0.12156782 0.07812697
000370 b5 62 09 be a9 7e f5 bc 0b c7 73 be d6 b9 9e 3c
       -0.1341656 -0.029967623 -0.23806398 0.019375723
000380 e5 66 22 3e ef b6 d4 be 82 34 9c 3e 45 d9 12 be
       0.15859564 -0.41545817 0.3050881 -0.14340694
000390 72 58 9b 3e d9 a9 a4 3e fc 77 17 3e 1a 71 b5 3e
       0.30340916 0.32160833 0.14791864 0.35437852
0003a0 8f 7e 9b be 27 14 ae be 7a 1d e8 3c ff 28 36 be
       -0.30369994 -0.3399975 0.028334368 -0.17789076
0003b0 30 02 37 be ac 4f 25 bd fc b1 78 be 57 5a 9c bd
       -0.17871928 -0.040359184 -0.24286646 -0.076344185
0003c0 8b 8e 67 be 0a e1 cf 3d 74 3c 6a 3d 9a 1f 82 be
       -0.2261297 0.10150345 0.05718656 -0.25414735
0003d0 76 ce 09 be 17 d4 39 bc c1 36 a8 3e 0b 5d c4 3e
       -0.13457665 -0.01134207 0.32854274 0.38352236
0003e0 9a 32 17 3e 80 af 8b 3c 96 1f b7 bc 51 42 ac 3e
       0.14765397 0.017051458 -0.022353929 0.33644345
0003f0 b9 93 8d be 54 17 7a be 1e 41 0a 3e 41 43 9d be
       -0.27651766 -0.24422961 0.13501403 -0.30715373

encoder.convs.0.edge_mlp.0.bias f4 [128]
000000 57 f8 dc 3d b9 d9 15 3e 49 57 64 be 21 7c 43 3d
       0.107895546 0.14633836 -0.22298922 0.0477258
000010 e4 de 48 bd a7 fb 71 3e ef ac 0d bd 6c 1a 4d be
       -0.04904069 0.23631154 -0.03458875 -0.2002961
000020 a2 17 58 3e 35 95 fd bd 07 03 18 bd b4 10 9b bd
       0.21102765 -0.123819746 -0.037112262 -0.07571545
000030 6c 05 1f 3e bd 5a 80 bd 40 62 22 3e 09 68 52 be
       0.15529412 -0.06267307 0.15857792 -0.20547499
000040 f6 b4 f0 bb c6 3f ac 3e 2b ea 57 be 20 64 85 bd
       -0.007345791 0.33642405 -0.21085422 -0.06513238
000050 0b a0 65 bd 48 dd cc 3d b8 4e 06 be 26 ce e9 3d
       -0.056060832 0.100031435 -0.13115966 0.11416273
000060 65 a9 d2 bd 65 db 15 3d f3 d1 ab 3e d1 22 a7 3e
       -0.10286216 0.036586184 0.33558616 0.3264375
000070 93 79 dc bd 1c b4 3e be de 9a 63 be 27 ce 70 bd
       -0.10765376 -0.18623394 -0.22227046 -0.058790352
000080 59 01 48 bc 33 bc 05 3e a9 c0 f6 bd 8e 6f 48 3e
       -0.012207353 0.13060074 -0.12048466 0.19573805
000090 cf 98 9a 3c 16 21 9f 3d 6e d6 b3 3e 98 0c 62 3d
       0.018871693 0.077699825 0.35124534 0.05518779
0000a0 d5 43 3a 3b e4 3d ee bd c6 2e 89 3e 62 57 9d be
       0.0028421779 -0.116328984 0.26793498 -0.3073073
0000b0 47 9f 3a be 90 43 61 3d ac 0f 59 3e fc 2c b7 be
       -0.18224822 0.054996073 0.21197385 -0.35776508
0000c0 22 80 29 bd e7 d4 c6 3d d5 09 a0 3e 13 ee 33 3e
       -0.041381963 0.09708577 0.312575 0.17571287
0000d0 b1 fb 97 3e 4d 0f a9 bd 95 01 b4 be d6 f3 a5 3d
       0.29684213 -0.082548715 -0.35157457 0.08103149
0000e0 2a bb 88 3e 72 ea 06 3d 38 66 cb 3d 03 1d a7 3e
       0.26705295 0.03293843 0.09931606 0.32639322
0000f0 d2 8a a4 be f5 fc b9 3d b5 9d 09 3e 79 4e 8f 3d
       -0.32137161 0.09081451 0.13439067 0.06997389
000100 fa 09 a9 bd 29 4d 0c be 04 84 48 3e 37 12 96 3d
       -0.08253856 -0.1370131 0.1958161 0.07327693
000110 3f d5 04 3e 1d e2 1e 3c cd ea 70 be 0b 67 27 3e
       0.12971972 0.009697464 -0.2352707 0.16347902
000120 34 df 3d be e6 18 6e be a2 85 04 be d1 6a 94 be
       -0.18542176 -0.23251686 -0.12941602 -0.28987744
000130 61 48 92 be 64 ab 7d bc ef a4 a1 be 3b 9e 7f 3e
       -0.28570846 -0.015482757 -0.31571147 0.24962704
000140 65 f0 93 be 4e 6f 12 3e cb fb 19 3e cc c4 e2 bd
       -0.28894344 0.14300272 0.15037458 -0.11072692
000150 9c 2c 38 3d 0c d4 b0 3e 86 39 b3 be 4d f3 57 3b
       0.044964418 0.3453678 -0.35004824 0.0032951415
000160 d8 d0 8a 3e 4e 69 af 3e c2 65 e4 3d ee 7b ae 3e
       0.2711246 0.3426003 0.11152221 0.34078926
000170 80 97 2a be 0b be b1 3e 85 ca 06 3e 0a 50 71 be
       -0.16659355 0.34715304 0.13163193 -0.23565689
000180 84 61 68 3e 03 34 92 3e 61 ba 91 be cf b0 3c 3e
       0.2269345 0.28555307 -0.28462508 0.18426822
000190 33 73 e8 3d b5 04 9a 3e 58 51 af be 9d a7 33 3e
       0.113500975 0.30081716 -0.34241748 0.17544408
0001a0 76 f5 a7 3e 88 f7 d8 bd 91 b0 00 3e 96 a0 a5 be
       0.3280446 -0.10594088 0.12567355 -0.3234908
0001b0 20 d9 8d 3d 0c a8 63 be 13 f4 a1 be a3 a4 33 3e
       0.06926179 -0.22232074 -0.31631526 0.17543273
0001c0 51 fc 55 3e 3d bf 49 3e b4 8a 8d 3e 8c 00 ca bd
       0.20897032 0.19701858 0.27644885 -0.098633856
0001d0 74 0e 8c be dc 93 5d 3e 47 da 8e 3e 43 0e 8d be
       -0.27354777 0.21638435 0.27900907 -0.27549943
0001e0 40 de 8e be d8 ca 4f be 90 48 6b be 45 8c 79 3e
       -0.27903938 -0.20292222 -0.22976899 0.24369915
0001f0 75 5f a0 be fc 8d e1 3d 74 5c 91 3d f9 ba 86 be
       -0.31322828 0.110134095 0.07097712 -0.26314524

encoder.convs.0.edge_mlp.2.weight f4 [128, 128]
000000 83 2d 9e bd 85 44 eb 3c 2c ca b2 bd d4 1e e7 bc
       -0.077235244 0.028719196 -0.087299675 -0.028212942
000010 30 66 30 3d c3 6e 74 bd 03 36 1f bd 6d b6 fd bc
       0.043066204 -0.059675943 -0.03886987 -0.030970776
000020 15 df e9 bc b9 bd 45 bd c1 dc 8a bd 0a 30 dd 3d
       -0.028548757 -0.048276637 -0.06780387 0.10800178
000030 d8 39 1a bd 1f 0b 88 3b 99 96 14 3d 73 89 76 bd
       -0.03765282 0.0041517164 0.036276434 -0.060189676
000040 07 f2 cc 3c 91 17 5d bd c8 09 55 bd cd 09 4c 3c
       0.025017751 -0.053977553 -0.05201128 0.012453509
000050 f8 7d 96 3d 23 14 a3 3c 71 30 5f bd 86 95 2a bd
       0.073482454 0.019907063 -0.054489557 -0.041646503
000060 fe 11 8b 3d 53 e5 9d 3d a7 de 7c bd e9 70 6b 3d
       0.06790541 0.07709756 -0.061735775 0.057480726
000070 e2 f7 89 bd be ad 63 3c 66 c0 58 3c eb bf b5 bd
       -0.06736733 0.013896404 0.013229465 -0.08874496
000080 e1 28 7c 3b c0 cb 00 3c 98 0b 9e 3d 7f dd 5d bd
       0.0038476514 0.007861078 0.07717055 -0.054166313
000090 71 31 9e bd e1 3f 18 ba 7d dc bf 3d f5 91 bf 3d
       -0.07724274 -0.00058078585 0.09368227 0.09354011
0000a0 80 fe c3 ba 8b 64 03 be ae bb 7b 3d fd 6a fd bc
       -0.0014953166 -0.12831323 0.061458282 -0.030934805
0000b0 46 b0 d4 bc 06 13 17 bc f9 3f a3 bd fe 62 2a bd
       -0.02596296 -0.009220844 -0.07971186 -0.041598313
0000c0 ec 90 09 3d b1 79 ad 3d ce 38 95 bd ae 8f 3d 3d
       0.033585474 0.084704764 -0.07286225 0.0462796
0000d0 ea f6 8d 3c 61 67 de bd ba 7a 46 bc 40 59 1b bd
       0.017329652 -0.10859562 -0.012114221 -0.037926912
0000e0 c0 a1 f5 bc ae 03 f3 3d 12 49 a8 3d fa e8 c1 3c
       -0.029984355 0.11865936 0.08217062 0.023670662
0000f0 09 b5 ae 3c 58 82 75 bc 2a 81 48 3d 69 25 a6 bd
       0.021326559 -0.01498469 0.048951305 -0.08112604
000100 31 63 ad bd 3e 7a e7 3a 83 49 f9 3c 3c cd 93 bc
       -0.08466185 0.0017660332 0.030430561 -0.0180422
000110 18 e2 35 bd 2c 9c 62 3d a2 8d 24 bd 7c 25 a3 bd
       -0.044405073 0.05532472 -0.040174134 -0.07966134
000120 eb 52 06 3b ab 93 d9 bd f4 13 c4 3c 42 6a c7 3d
       0.00204962 -0.106238686 0.023935296 0.09737064
000130 8e 58 ab bd e8 5d c9 bd 86 8a fc bc eb 9a 0d 3d
       -0.083665 -0.09832364 -0.030827772 0.03457157
000140 cb 37 93 3d a8 7f 25 3d e7 89 41 3d 2c 0b 1c 3e
       0.07188376 0.040404946 0.047250655 0.15238637
000150 67 ef 27 3d 32 50 33 bd 3f 15 86 bd 70 41 10 3d
       0.040999796 -0.043777652 -0.06547021 0.035218656
000160 5c 2d 36 bc 22 c5 cf bd 8f 54 48 3d 56 84 b1 bd
       -0.011119213 -0.10145022 0.048908766 -0.08667819
000170 36 f1 93 3d cc ef a3 3d 6a 6f dd 3d 29 01 01 bd
       0.07223742 0.08004722 0.10812266 -0.031495247
000180 3b 20 70 3c 2a 69 ac 3c e5 be a4 bb 79 aa 69 bd
       0.014656122 0.02104624 -0.005027639 -0.05704734
000190 9e 43 e4 3d c3 da 9d bd b9 da 3f 3c 84 af 70 bd
       0.111457095 -0.07707741 0.011709862 -0.058761135
0001a0 cf 3e 8b 3b bd d5 e1 bd 64 aa 1d 3d 97 7e 27 bd
       0.0042494307 -0.110270955 0.038492575 -0.04089221
0001b0 66 ae 52 bd db e3 9f 3d de 7e 1b 3d b5 67 c3 3d
       -0.05143585 0.07807132 0.037962787 0.09541265
0001c0 5d f2 35 bd fd 05 85 3d c6 a9 ce 3c f0 14 9c 3d
       -0.04442059 0.06495283 0.025227439 0.07621181
0001d0 d9 9c f2 bc 16 7f 06 bc 9e 1f 16 bc c0 c6 67 bd
       -0.029615806 -0.008209011 -0.009162812 -0.056586027
0001e0 55 9c 83 3c f5 35 1e be 0b 28 15 3d 3e 94 a6 3d
       0.016065756 -0.1545027 0.03641514 0.08133744
0001f0 11 6e 95 bc 03 9a 84 bc 8d d3 2e 3d 7c 62 b7 bc
       -0.01824096 -0.01618672 0.04268222 -0.022385828
000200 3a f0 13 bd b6 d2 e4 3b 9d fc fe 3d b7 ea ac bd
       -0.03611777 0.0069831265 0.12450526 -0.08443206
000210 d5 f9 58 3d 31 50 71 3b 5d 7a 96 3d f4 10 1e 3d
       0.052972633 0.003682148 0.07347558 0.038590387
000220 3e 0a 2d bd 11 c9 c3 bd f3 38 cb 3d eb 1a f9 bd
       -0.042246096 -0.09559835 0.099229716 -0.12163337
000230 3c 84 9e bc 1f a8 b8 bc bf da 96 bd 40 f2 0b 3e
       -0.019350164 -0.022541104 -0.07365941 0.1366663
000240 ac 36 6c bd 12 bf a5 bd fd f6 81 bd 90 b6 e0 3d
       -0.057669327 -0.080930844 -0.063459374 0.10972321
000250 eb 81 0e bd a8 45 5e ba 3c 97 83 bd 89 52 d7 bc
       -0.03479187 -0.00084790075 -0.0642533 -0.026284473
000260 d1 a4 86 3d b0 3c a6 3d 07 ce e9 bb b4 77 f5 bd
       0.06574405 0.08117044 -0.007135156 -0.11985722
000270 1e 7d 42 3d 34 29 af bd 74 a3 a0 bb 18 08 e6 3d
       0.047482602 -0.08552781 -0.0049022976 0.112320125
000280 fe 9a 1d 3d e0 37 aa bc 80 95 29 3d fe 10 5f 3d
       0.03847789 -0.020778596 0.04140234 0.054459564
000290 36 b7 be 3d 72 db da 3d fa 6b 9c 3a 1e 16 81 3d
       0.093122885 0.10686387 0.0011934035 0.06303047
0002a0 b8 12 6e bd 25 e9 80 3c a6 39 cf bd 90 3c 55 3c
       -0.05812332 0.015736172 -0.101184174 0.0130149275
0002b0 26 8d 15 3d 76 f7 31 bd e5 d6 b9 bb 2b fd 99 3c
       0.036511563 -0.043448888 -0.0056713694 0.018797478
0002c0 d5 78 07 bd 32 33 3c bd 6e 9d 9b 3d 0d f2 8b bd
       -0.03307422 -0.04594726 0.07598387 -0.06833277
0002d0 a6 ea fe 3c b2 69 87 3d 61 0c 96 3d 8b c2 82 bd
       0.031117748 0.06611957 0.0732658 -0.063847624
0002e0 90 0b 79 bd 79 c3 d7 bd e7 d6 d1 bc 2a 03 7f bd
       -0.060802042 -0.1053533 -0.025615169 -0.062258877
0002f0 09 5c bf bd 43 23 86 bc ad 98 7d bc db 90 49 3d
       -0.09343726 -0.016374236 -0.015478295 0.04921041
000300 29 0d 28 3d 5a 2b 31 3c bb 1b 65 bd 5f 48 5b bd
       0.041028176 0.0108135585 -0.05593465 -0.053535815
000310 88 5b 4f 3c ac 2b d4 bc 46 a9 25 3e b7 2f 92 3d
       0.0126561 -0.02589973 0.16177854 0.07138007
000320 16 15 85 3d 75 4f dc 3d 31 19 ff 3c bf 99 1b bd
       0.064981624 0.10757343 0.031139942 -0.03798842
000330 7e b5 5b 3d 8a fc 21 37 36 c9 36 bd 39 a9 cf 3c
       0.05363988 9.655147e-06 -0.044625483 0.025349246
000340 60 b1 c6 3d 5c 83 25 bd bf 76 a5 3d 78 7f 12 be
       0.097018 -0.040408477 0.0807929 -0.14306438
000350 0f ba 75 bd ff 1d 68 3d e0 a9 4a bd 52 be 83 3d
       -0.059991892 0.05666923 -0.04947841 0.06432785
000360 f3 aa cb 3c 0f 95 80 3d 61 95 73 bd 3c 3c c2 bd
       0.024861788 0.06278431 -0.05946863 -0.09484145
000370 9c 18 7d 3d d7 56 e4 bb a7 03 9d 3d 75 02 7a 3d
       0.061791047 -0.00696836 0.07666712 0.0610375
000380 85 d2 74 bd dd 38 b0 bd 0d 87 3d 3d cc b6 9c bd
       -0.05977108 -0.08604596 0.046271373 -0.07652053
000390 ea d2 9b bd 90 4e 4f 3d 48 09 07 3d 8b 46 d4 3c
       -0.07608588 0.050612032 0.032967836 0.025912544
0003a0 ae 87 24 bd 10 38 f2 bc e6 32 63 bd 7c 0c cf 3c
       -0.040168457 -0.029567748 -0.055468462 0.025274508
0003b0 b8 f5 37 3d 71 b9 8c 3d bd 76 2f 3d 1a 3c 62 bc
       0.04491207 0.06871308 0.042837847 -0.013808275
0003c0 ea 23 f1 bc 3c 48 a6 bd 60 23 29 bd c6 5f e8 3c
       -0.02943607 -0.08119246 -0.0412935 0.02836598
0003d0 69 68 fb 3c 57 49 ba 3d 55 46 c5 3d 35 08 0d 3d
       0.030689435 0.0909602 0.096325554 0.034431655
0003e0 35 41 97 bd 9f 7f c1 3d 8c b1 76 3d 0b 6e 80 3d
       -0.07385484 0.0944817 0.060227916 0.06270989
0003f0 b2 ba 12 3b 6f 65 42 bd a4 94 67 3c e9 7e d6 3c
       0.002238911 -0.047460016 0.01413456 0.026183562

encoder.convs.0.edge_mlp.2.bias f4 [128]
000000 bd 5d 86 3c d0 0f a2 bd 01 e0 a0 b9 85 40 1f 3d
       0.01640212 -0.07913172 -0.00030684474 0.03887989
000010 78 57 03 bd 32 1a b0 3c 49 ba e8 bc f7 1f d0 bd
       -0.03206584 0.021496866 -0.02840914 -0.10162347
000020 b9 81 90 bd 45 83 15 3c a3 30 7a bd e6 3f 9e 3d
       -0.07055993 0.009125535 -0.06108154 0.077270314
000030 a4 ba 1a 3d d9 eb ab 3d 9f 7e 88 bc 94 a0 61 3d
       0.03777565 0.08394594 -0.01666194 0.05508478
000040 26 d7 86 bd e0 8a b1 3c b9 47 17 3d 9a 18 87 3c
       -0.06584005 0.021672666 0.036933634 0.016491223
000050 f1 20 27 bd 2a c0 17 bd 8a 66 98 bc 6a 8d 5b 3d
       -0.0408029 -0.037048496 -0.018603582 0.05360166
000060 db d0 0c 3d 4f f1 13 bd 30 09 35 bd 69 9b 8a ba
       0.034378868 -0.0361188 -0.044198215 -0.001057488
000070 27 c7 f2 3c 04 be 9b 3d cb 26 80 3d 5a 34 a0 3d
       0.029635979 0.07604602 0.06257399 0.07822485
000080 d6 88 3d bd ab fe db 3c 44 2c 5e 3d 3c 71 5c 3d
       -0.046273075 0.026854834 0.054241434 0.053818926
000090 08 af 97 3b 8c 8c 9b 3d 31 db 13 bd 12 a1 aa bd
       0.0046290196 0.075951666 -0.03609771 -0.08331503
0000a0 96 6f 1c 3c 9b b6 22 3d 86 c6 3c 3d a4 cf 70 bd
       0.009548089 0.039724927 0.046087764 -0.05879177
0000b0 1d d5 ad 3d 0b 15 ab bd 9c 23 82 3d 92 b0 b5 bc
       0.08487914 -0.08353623 0.06354448 -0.022178922
0000c0 17 91 af 3d c1 1d 3e 3d f9 c4 70 3d 5d 9a 0a 3c
       0.085725956 0.046415094 0.058781598 0.008459655
0000d0 5a c2 a5 bd 72 00 9a bd 2c 5b 8d bd 75 3a 13 bd
       -0.0809371 -0.07519616 -0.06902155 -0.03594442
0000e0 fd 34 0c bd b2 47 83 3c 37 0d 83 bd 55 3b 9b bd
       -0.03423022 0.016025398 -0.06399005 -0.07579676
0000f0 38 e3 ff bb ba b6 49 bc da 99 b3 bc d5 78 ba bd
       -0.007809069 -0.012311632 -0.021923948 -0.09105078
000100 34 c8 9f bd 5b 69 be bd 9e cb 45 bd fc ce 94 ba
       -0.078018576 -0.09297439 -0.048289888 -0.001135319
000110 69 81 64 bd a3 5d a9 bd 9f e4 36 bc 9e ea a4 3d
       -0.055787478 -0.08269813 -0.011162906 0.08052562
000120 9c 36 53 3d 59 e2 a6 bb 48 ce 3e bd 80 ad 97 3c
       0.05156575 -0.0050929007 -0.046583444 0.018515348
000130 40 9b a4 bd d9 c7 6b bd 79 0b 90 3c e7 13 60 3c
       -0.08037424 -0.057563636 0.017583596 0.01367662
000140 ec 77 37 bd ed 19 30 bc 1d 2a ed 3a 77 e3 da bb
       -0.0447921 -0.010748369 0.0018094216 -0.006679948
000150 90 03 bd 3c 8f 1c 1e 3d 46 3a 56 bd a3 da 4d 3a
       0.023072988 0.038601454 -0.052301668 0.0007852709
000160 21 d2 8a bd ee d3 4d bd 77 5d cb bd 93 d2 9b bd
       -0.0677836 -0.05025094 -0.099299364 -0.07608523
000170 61 97 a0 bd ce 72 7b 3c 40 08 a2 bb 86 c8 2b 3c
       -0.07841373 0.015347196 -0.004944831 0.01048482
000180 87 c2 8b 3d a1 be cb 3c e2 b4 41 bc a4 e1 be 3c
       0.068242125 0.024871172 -0.011822911 0.023300953
000190 d3 48 74 bd 04 26 08 3c 9a b0 02 3d 3d f8 a6 3d
       -0.059639763 0.008309845 0.0319067 0.081528164
0001a0 7e 99 7e 3d cf 0b a9 bd 45 13 83 ba 4a a8 9a 3d
       0.0621581 -0.082542054 -0.001000025 0.0755163
0001b0 27 fd 6b 3c 42 bc 9b bd a7 8a 30 3d 11 1d 84 bd
       0.014403618 -0.07604267 0.04310098 -0.064508565
0001c0 f8 2a 86 bd 95 f1 61 bd e2 8b 96 3d e8 1b 81 3d
       -0.065511644 -0.05516203 0.07350899 0.06304151
0001d0 94 2e f7 bc db 86 9f 3c 9e 97 ac 3c a7 fb a2 bd
       -0.030173577 0.019473484 0.02106839 -0.07958155
0001e0 81 55 42 bd ae fa 3d bd b7 a2 4a bc 82 49 73 bc
       -0.047444824 -0.046381645 -0.012367896 -0.014849069
0001f0 7b 70 43 3d 39 a7 36 bd 68 48 38 bd 5f 26 c3 3b
       0.04771469 -0.04459307 -0.044990927 0.005955502

encoder.convs.0.norm.weight f4 [128]
000000 4d bb 77 3f 9e 0a 78 3f 0a 65 7a 3f dd 49 78 3f
       0.96770173 0.968912 0.97810423 0.96987706
000010 f0 0f 76 3f 50 5d 78 3f 14 4a 7b 3f 68 03 79 3f
       0.9611807 0.97017384 0.9815991 0.9727082
000020 fc 20 76 3f 24 25 78 3f 22 90 7d 3f 38 7e 77 3f
       0.9614408 0.9693167 0.99048054 0.9667697
000030 7d 91 75 3f 7b 38 79 3f 87 40 75 3f 11 0c 77 3f
       0.9592512 0.9735181 0.95801586 0.96502787
000040 a5 bf 75 3f 3a 57 76 3f 70 bc 76 3f 64 57 74 3f
       0.9599555 0.9622685 0.9638128 0.9544585
000050 b6 62 79 3f ec 35 7b 3f 62 93 77 3f 1a c3 7d 3f
       0.97416246 0.98129153 0.96709263 0.99125826
000060 9b c1 76 3f b7 50 77 3f 93 6c 76 3f 04 95 77 3f
       0.9638917 0.96607536 0.9625942 0.96711755
000070 93 d1 74 3f 9a 8c 77 3f 3b 8d 77 3f 0f 3a 82 3f
       0.95632285 0.96698916 0.96699876 1.0173968
000080 41 cc 75 3f 10 00 79 3f 48 b2 7b 3f eb ff 77 3f
       0.9601479 0.9726572 0.9831891 0.96874875
000090 03 3e 78 3f be b2 7a 3f 60 93 73 3f 63 35 79 3f
       0.9696962 0.9792899 0.9514675 0.97347087
0000a0 29 de 77 3f e7 7c 77 3f a0 23 79 3f d6 0d 7c 3f
       0.96823364 0.9667496 0.97319984 0.9845861
0000b0 65 e8 77 3f 02 0a 76 3f 91 6d 75 3f b6 39 74 3f
       0.9683898 0.9610902 0.9587031 0.9540056
0000c0 60 8e 78 3f 8a 9f 78 3f bc 2f 75 3f f9 b9 77 3f
       0.97092247 0.9711844 0.9577596 0.96768147
0000d0 de 0a 74 3f e2 be 79 3f 77 5d 74 3f 03 8c 76 3f
       0.9532908 0.9755689 0.95455116 0.9630739
0000e0 a9 96 77 3f f7 8b 77 3f f1 a6 76 3f 7b f2 75 3f
       0.96714264 0.96697944 0.9634848 0.9607312
0000f0 25 88 79 3f b9 c1 74 3f 38 07 78 3f 08 c1 74 3f
       0.97473365 0.956081 0.96886015 0.9560704
000100 c5 9a 77 3f e1 35 7a 3f 08 6c 74 3f 02 fa 75 3f
       0.96720535 0.9773846 0.9547734 0.96084607
000110 71 37 7b 3f 94 d9 77 3f 2d 71 7c 3f d1 f2 74 3f
       0.9813147 0.9681637 0.9861019 0.9568301
000120 6f 96 76 3f 46 ad 7a 3f 15 68 74 3f ca 68 76 3f
       0.96323293 0.97920644 0.95471317 0.96253645
000130 f8 3b 7b 3f 3d bf 79 3f f5 26 76 3f 58 b3 78 3f
       0.9813838 0.9755743 0.96153194 0.97148657
000140 36 e8 7b 3f 1f b9 74 3f 5e 12 78 3f 87 f2 76 3f
       0.984012 0.9559497 0.96903026 0.9646382
000150 dc 10 77 3f 6b 29 76 3f c9 5d 78 3f bd a4 73 3f
       0.965101 0.9615695 0.97018105 0.95173246
000160 7f 37 82 3f 2a 1b 77 3f 89 75 7a 3f 4c 77 7c 3f
       1.0173186 0.96525824 0.97835594 0.9861953
000170 d0 d9 76 3f e0 59 75 3f c2 3e 76 3f 87 27 78 3f
       0.96426105 0.95840263 0.9618951 0.96935314
000180 01 26 76 3f 2c 8c 7a 3f 5b e6 7e 3f aa 51 76 3f
       0.9615174 0.97870135 0.99570245 0.9621836
000190 a9 f1 75 3f 63 d3 72 3f a1 46 7a 3f 23 03 78 3f
       0.9607187 0.948538 0.9776402 0.96879786
0001a0 9c e0 78 3f ea 92 75 3f 1e 04 7a 3f 5d 7b 73 3f
       0.97217727 0.959273 0.9766253 0.9511011
0001b0 50 b0 78 3f bc 65 75 3f b4 f5 79 3f a3 49 76 3f
       0.9714403 0.9585836 0.9764054 0.9620611
0001c0 95 e8 77 3f 13 2d 78 3f 15 54 7a 3f e0 5b 77 3f
       0.96839267 0.9694378 0.9778455 0.96624565
0001d0 16 75 77 3f 83 45 76 3f 13 be 76 3f a8 f7 78 3f
       0.96663034 0.96199816 0.9638378 0.97252893
0001e0 27 69 74 3f e8 94 77 3f e1 22 78 3f f5 b2 77 3f
       0.9547295 0.9671159 0.9692822 0.9675744
0001f0 dc 2e 77 3f 97 3f 78 3f 74 80 79 3f 99 9e 76 3f
       0.96555877 0.9697203 0.9746163 0.9633575

encoder.convs.0.norm.bias f4 [128]
000000 35 0f ed bc ca a0 87 3c ad e0 00 3d 1d 03 8d bb
       -0.028937915 0.016556162 0.031464268 -0.0043033496
000010 da b4 af bb 7a 75 55 3d 45 1d a4 bc a9 1c bc bb
       -0.0053621354 0.052113988 -0.020033488 -0.0057407212
000020 45 77 8a 3c 8c 59 e2 3c 60 b5 03 3c b2 db 86 3c
       0.016902575 0.02763059 0.008038849 0.01646218
000030 a2 68 a5 3c c0 4f 87 bc 91 3a 66 bb dc 51 78 3c
       0.020191494 -0.01651752 -0.0035130123 0.015156236
000040 d5 ad 53 3d 70 63 4e 3d 07 71 56 bc 37 2b 18 bd
       0.05167945 0.0503878 -0.013088471 -0.037150588
000050 58 4c aa ba 67 e9 8f 3c 80 b5 9b bc a0 d3 52 bc
       -0.0012992723 0.01756735 -0.019007444 -0.012867838
000060 ba d8 20 bd e7 7f 02 3c 11 15 c8 bc de b3 2d ba
       -0.039269187 0.007965065 -0.024424108 -0.00066262286
000070 40 26 f9 bc 65 5b 18 bd 9c 58 fb 3a dd d6 f3 bb
       -0.030413747 -0.037196536 0.0019176188 -0.007441385
000080 a5 0e 4f 3c 1a 86 4e bc 45 71 00 bc 8f 27 5c bb
       0.012637769 -0.0126052145 -0.007839506 -0.0033592915
000090 63 47 3a 3d f1 73 2e 3c 43 c2 8d 3c a3 53 0c 3c
       0.045478236 0.01064776 0.017304545 0.008564862
0000a0 ac af 3a 3c 38 e8 27 bd 3b 1c 81 3a 38 97 e7 bc
       0.0113944225 -0.040992945 0.0009850332 -0.028270349
0000b0 0c f2 96 3c f7 b5 37 3d 72 b0 8c b9 26 a2 b4 3a
       0.018425964 0.04485127 -0.00026834343 0.0013781234
0000c0 05 85 49 bc cd d6 e3 bc cb 3e 9b 3c fa 1c 0c 3c
       -0.012299781 -0.027812386 0.01895084 0.00855183
0000d0 5a 1e d9 3c a2 4a a7 bb 0f 34 10 3c 7d 3c 1d 3c
       0.02650373 -0.0051053325 0.008801474 0.009596941
0000e0 3f 2a a6 ba 02 bc 18 3c 6f 84 a8 3c b4 e6 b8 bc
       -0.0012677385 0.009322168 0.020570962 -0.022570945
0000f0 21 c5 00 3d 78 7a a9 bc 67 3f 12 3d 62 97 b6 3c
       0.031437997 -0.02068828 0.035704996 0.022288982
000100 92 a3 11 3d aa f5 16 bb 23 d4 8c 3d 3d cc 2b 3c
       0.035556383 -0.002303461 0.06876399 0.010485706
000110 11 62 39 3c dc da c1 39 80 11 84 bb a5 a8 82 bc
       0.011314885 0.00036974892 -0.0040304065 -0.015949557
000120 ed c5 14 3d 95 b4 6b bc 69 37 8e bd 03 df 11 bb
       0.03632157 -0.014386316 -0.069441624 -0.002225817
000130 32 4e fb 3c af 8d 84 3c 49 1a 6f 3c 76 d6 01 bb
       0.030676935 0.016180841 0.014593669 -0.0019811667
000140 a5 3e 00 3c 78 79 2c ba 95 89 2a bc 33 d7 bf bc
       0.007827436 -0.00065793796 -0.010408779 -0.023418045
000150 26 0c 5f 3d da 64 e1 3b 63 af 03 3a 51 7e 5a bc
       0.054454945 0.0068784775 0.0005023388 -0.01333578
000160 4e 79 a3 bc c2 2c 01 bd 11 f1 3c 3c 2e 8e 96 bd
       -0.019955304 -0.031536825 0.011532084 -0.073513374
000170 ca 6e d2 3c 0b 47 a4 bc a7 85 5a 3c 41 8b 7f 3c
       0.025687594 -0.020053407 0.013337529 0.015597166
000180 dc 0e 58 3c 64 b3 11 bd fa 49 0a 3b 20 97 b5 bc
       0.0131871365 -0.03557147 0.0021101222 -0.022166789
000190 5c 89 a9 bb 49 0d 70 3c 8d 9e 09 3b 3d 86 9a 3c
       -0.005173845 0.014651605 0.0020999045 0.018862838
0001a0 8a 84 e3 3b 2d f9 c9 3c 91 91 2f bc 69 eb f0 3c
       0.00694329 0.02465495 -0.010715858 0.029409127
0001b0 7b a1 37 bb f8 00 1b ba f7 23 26 3c dc 65 49 bc
       -0.0028019834 -0.0005912925 0.010140411 -0.012292352
0001c0 f1 34 da 3a 8e 84 53 3c b6 db 96 3c 88 6e 68 3c
       0.0016647858 0.0129100215 0.018415313 0.014186509
0001d0 00 98 08 bc 00 48 a7 3c a4 a4 09 3c 86 2b 0c 3c
       -0.008337021 0.020420074 0.00840107 0.008555299
0001e0 f8 0a 68 3d 05 63 b7 bc 3b 92 0b bd d2 ac 24 3c
       0.056651086 -0.022386083 -0.034075003 0.010050969
0001f0 32 44 6e bc f0 af d9 bb 18 c2 26 bc 88 04 3a bc
       -0.014542626 -0.006643288 -0.0101781115 -0.011353619

encoder.convs.0.norm.mean_scale f4 [128]
000000 c3 1b 7c 3f 4f 66 80 3f 67 36 76 3f f6 06 6b 3f
       0.9847986 1.0031222 0.9617676 0.91807497
000010 42 81 7a 3f 18 2b 6b 3f ab 84 6f 3f 91 2f 81 3f
       0.9785348 0.9186263 0.9356181 1.0092641
000020 06 8c 80 3f ef f1 77 3f 7e 86 76 3f c6 0a 81 3f
       1.0042732 0.96853536 0.9629897 1.0081413
000030 06 a5 82 3f 4e 80 77 3f 13 57 7a 3f e4 c2 7e 3f
       1.0206611 0.9668015 0.97789115 0.9951613
000040 54 a3 80 3f f1 d2 84 3f a5 3a 7f 3f 1a 33 80 3f
       1.0049844 1.0376874 0.9969886 1.0015595
000050 42 68 77 3f e4 09 69 3f 64 80 74 3f 89 35 63 3f
       0.9664346 0.91030717 0.9550841 0.88753563
000060 01 66 82 3f 1f 7c 6f 3f 57 3c 7b 3f fe 34 82 3f
       1.0187379 0.9354877 0.98138946 1.0172422
000070 4d 28 77 3f 9f c4 79 3f a5 f6 7a 3f da 56 72 3f
       0.9654587 0.97565645 0.980326 0.94663775
000080 ba 5a 77 3f 50 b7 7c 3f 15 37 79 3f b7 9a 81 3f
       0.9662281 0.9871721 0.97349674 1.012534
000090 21 c0 76 3f 4d 74 75 3f b2 1e 7c 3f 42 10 75 3f
       0.96386915 0.95880586 0.9848434 0.9572793
0000a0 9c ce 75 3f 41 c0 7e 3f ca 15 72 3f c4 e8 6a 3f
       0.96018386 0.99512106 0.945645 0.9176142
0000b0 c2 8b 78 3f 32 53 85 3f 40 97 77 3f aa 91 7b 3f
       0.97088253 1.0416014 0.96715164 0.9826914
0000c0 93 31 79 3f 4d a3 80 3f ba 65 7c 3f f7 00 7b 3f
       0.9734127 1.0049835 0.9859272 0.9804835
0000d0 47 d6 7a 3f 7e 8e 72 3f ee 9f 78 3f 5b 4b 79 3f
       0.9798321 0.94748676 0.97119033 0.9738061
0000e0 b1 a5 7d 3f af 5d 7d 3f 97 4d 75 3f 68 45 81 3f
       0.9908095 0.98971075 0.9582152 1.0099306
0000f0 27 aa 7b 3f d7 a9 76 3f b4 d4 7f 3f 76 18 83 3f
       0.98306507 0.96352905 0.99933934 1.024184
000100 dc e2 87 3f 7f 4c 75 3f 30 95 85 3f e8 4b 7b 3f
       1.0616107 0.9581985 1.0436153 0.981627
000110 ac 13 7c 3f f0 81 79 3f 6c 48 78 3f cb 48 80 3f
       0.98467517 0.97463894 0.96985507 1.0022215
000120 88 32 83 3f 3e 55 75 3f 22 1a 88 3f ce db 81 3f
       1.0249796 0.95833194 1.0632975 1.0145204
000130 35 61 79 3f 45 5a 73 3f 88 60 7c 3f d1 56 76 3f
       0.9741395 0.95059615 0.98584795 0.9622622
000140 28 24 78 3f 3c 45 7f 3f 8f c9 79 3f 46 41 6c 3f
       0.9693017 0.9971502 0.9757318 0.922871
000150 fd 2c 82 3f 88 a3 7c 3f 4c 92 79 3f fb ef 80 3f
       1.0169979 0.9868703 0.97488856 1.0073236
000160 82 db 6b 3f ce ee 7c 3f 92 a6 71 3f 29 f8 67 3f
       0.9213182 0.9880189 0.9439479 0.9061304
000170 8b 6c 87 3f a4 92 7f 3f f5 9b 78 3f f6 84 74 3f
       1.058 0.9983313 0.9711297 0.9551538
000180 87 d8 6d 3f 5d 56 72 3f 7e c5 6d 3f 46 92 7d 3f
       0.9290852 0.9466303 0.92879474 0.9905132
000190 83 3d 7e 3f 8c 56 80 3f b7 d4 79 3f c2 27 7d 3f
       0.9931261 1.0026412 0.975902 0.9888879
0001a0 11 46 74 3f d3 0f 82 3f 1b 3b 71 3f a9 03 7c 3f
       0.9541941 1.0161079 0.9423081 0.98443085
0001b0 b9 a7 76 3f 4e a6 77 3f 30 9f 72 3f b9 62 80 3f
       0.96349674 0.96738136 0.9477415 1.0030128
0001c0 b4 17 77 3f 82 42 74 3f 20 47 75 3f ca 70 79 3f
       0.96520543 0.9541398 0.95811653 0.9743773
0001d0 2f 77 73 3f 3b d7 81 3f d9 c6 74 3f 9d 55 75 3f
       0.95103735 1.0143808 0.9561592 0.9583376
0001e0 82 cc 78 3f c7 a4 82 3f 08 b7 80 3f 6f a6 7a 3f
       0.97187054 1.0206536 1.0055857 0.9791021
0001f0 66 06 80 3f da 85 7a 3f bd 52 81 3f a0 69 7e 3f
       1.0001953 0.9786049 1.0103375 0.9937992
