checkpoints/model_B_epoch_19.pth (torch, 552117 bytes, 26 tensors)

encoder.node_embedding.weight f4 [1, 128]
00000000: 0529 f13f 9e7a b93f 25f7 5e3f 25fd 03c0
00000010: 6b20 2b3f 6787 98bf e53b 3bbd d36c cabf
00000020: 7149 3bbf 5f6b cd3f 56d9 c2be 0cab adbf
00000030: da00 37bf 7d0b 0bbf 3a5d 41bf b001 3e3f
00000040: d4f5 cc3f d97b 0ebe c9dd f9be 20d9 d73e
00000050: 8b48 3abf be35 893f 7597 473f 5dd9 d23f
00000060: 7ae6 9f3f 4504 9f3f 28d2 183f c22a a73f
00000070: cb22 66be 3e25 ab3b 03b3 74be ad6e 553f
00000080: 73ef abbf 1a70 5abf 47e5 52be 9e25 d83f
00000090: ed7c 973e 18e9 cabe 733e 9f3e da21 3fbf
000000a0: dce7 c3bf 24ff 783f d44c 60bf c0eb 13bf
000000b0: 3b44 9ebf 7c36 0540 03bc 99bf d7e3 efbe
000000c0: 4f09 61bf d960 24bf 3c89 863d b578 023f
000000d0: d5f0 eebe d074 923f 5248 4abf 22b8 35bf
000000e0: dad1 afbf 5f8b 033d a4f4 43bd d883 293f
000000f0: cce3 a5bd cf1c e73f 0e3d 96bf c698 ae3f
00000100: ab39 b53f a846 563f 4e20 0b40 d9bd fe3e
00000110: 4537 a83e 324a 31be b00c 84bf 6461 a03f
00000120: 1b57 26be e53b 003f 1fb9 4b3d 0625 ce3e
00000130: 7ed6 0f3f d360 1ebf 08b2 09c0 fbef 3dbf
00000140: 92c1 dc3b cebe b0be 7e21 a8bf df85 12bf
00000150: 691b 083f fab3 033f 108d 903f 6340 403d
00000160: 180c 3b3f 934c ebbe 0d9f 84bf 489a 173f
00000170: 75c5 d7bf 912c 4ebf f506 a83f 7ca5 eb3e
00000180: 4531 1dc0 9e85 e73e 283d 443f 64f9 c13c
00000190: 5a15 203f 96af 0d3f 4aee 853f e9ee d5be
000001a0: a0ef 2fbe 5b1c 3c3f 913c d13e 7448 1c3e
000001b0: a374 7d3e 4b46 9f3f 49d4 12bb 076c 95be
000001c0: f17b b8bf 5a29 bdbd 164b 15bf 022d e53e
000001d0: 0cd7 343f 8a0d 8d3d 42b6 bcbe 9fac 073f
000001e0: 8122 c7bb 74ac 5e3e 6ce4 003e d2c1 3a3f
000001f0: ff70 8c3f e1e9 aa3e b45b 313f f234 c63e
1.8840643 1.4490545 0.8709586 -2.0623257 0.6684634 -1.1916322 -0.045711417 -1.581446
-0.7315894 1.6048392 -0.3805644 -1.3567824 -0.71485674 -0.54314405 -0.7553288 0.74221325
1.6012521 -0.13914432 -0.4880202 0.4215784 -0.7276694 1.0719526 0.7796548 1.6472584
1.2492211 1.2423178 0.59695673 1.3059924 -0.2247421 0.0052229455 -0.23896413 0.83372
-1.3432449 -0.85327303 -0.20595275 1.688648 0.29587498 -0.3963096 0.31102332 -0.7466103
-1.5305133 0.97264314 -0.8761723 -0.577816 -1.2364572 2.0814505 -1.2010502 -0.46853516
-0.8790483 -0.6421028 0.06569144 0.50965434 -0.46668115 1.1441898 -0.790166 -0.7098409
-1.3735917 0.032115337 -0.04784073 0.662168 -0.081000894 1.8055667 -1.1737382 1.3640373
1.4158224 0.8370156 2.1738467 0.49754217 0.32854667 -0.1731346 -1.0316372 1.2529721
-0.16244166 0.5009139 0.049737092 0.40262622 0.56186664 -0.6186649 -2.1514912 -0.74194306
0.0067369426 -0.34520572 -1.3135221 -0.5723552 0.53166825 0.514465 1.1293049 0.046936404
0.7306533 -0.4595686 -1.0361038 0.5921979 -1.6857134 -0.8053675 1.3127123 0.46024692
-2.4561322 0.4521913 0.7665582 0.023678489 0.6253258 0.5534605 1.0463345 -0.41783836
-0.17181253 0.73480767 0.4086652 0.15262014 0.24751525 1.2443327 -0.0022404364 -0.2918398
-1.4412824 -0.09236403 -0.583177 0.447609 0.70640635 0.06887348 -0.36857802 0.52997774
-0.0060771112 0.21745473 0.12587136 0.72951996 1.0971984 0.3338156 0.6928055 0.3871227

encoder.convs.0.node_mlp.weight f4 [128, 256]
00000000: dce2 6c3d ba2c c6bb e06d 723d ceae 553c
00000010: 18ff 3bbd da5c 153d db87 b9bc 130c f4bc
00000020: 0af4 6abd 3394 61bd e6e0 3b3c ddcc a0bc
00000030: 985c 913c b587 68bd ffdb 213d a2cd 1fbd
00000040: faca 92bb aeef e63b e631 d13c a3f5 643d
00000050: 2459 4c3d 46a6 2ebd 40de b13c b668 a6bc
00000060: 88a9 15ba 5eaa 23bd 1740 7f3d c1e9 1fbd
00000070: b667 db3c 1e1b d43c 4238 643c 43fc ddbc
00000080: 1220 4c3d c350 f03b 310b eb3a 8b1b 45bd
00000090: 90b4 023d 231b 7cbc a2a4 b4bc 545a 3f3d
000000a0: b8cb f73b b63f e4bc 604a 19bd 579a 15bc
000000b0: 7140 e73c 7b16 1dbc e142 29bd fbb5 dfbc
000000c0: 5cf1 55bd 3ab1 803c a549 5a3d 1e23 54bd
000000d0: 0b6e 043c bf93 1b3d c28f a23b 24de e6bc
000000e0: 77b3 d43c f19c 193d 9997 923c 943c 96bb
000000f0: cbbe b2bc 19db 503c 4f1a 8cbc b91f 47bc
00000100: eaba 3a3d de5e 723d db41 8438 93eb f8bb
00000110: 1ef9 e43b 1c0e 1ebc d643 0d3c 6b35 c03c
00000120: 84c8 7dbd a33e 87bc f028 6c3d e918 f73c
00000130: 65cd 4c3b cd93 31bd 5695 33bd dfab 7bbd
00000140: e232 49bc d7a4 6e3c 467a 073d 8c02 b63c
00000150: 01a6 45bd b447 fcbc e0a6 64bb 687f 853d
00000160: 97f4 773c 3d95 b5bc 53b4 9d3c d5ed 8cbc
00000170: 32a4 3cbd 9fc6 1e3d 30c0 b2bc 87b2 c8bb
00000180: 1e1b 8abd c90a 423d e3b1 583d bdd0 e03c
00000190: de87 16bd 48a5 5fbd e97d 33bd 13c6 223d
000001a0: 7e6c c03c 2bf3 6d3d 08dc 1d3d 8f73 b03c
000001b0: 35d0 b53b c694 26bd 0d7a 7bbd 099f 82bd
000001c0: a808 9c3c 6475 14bd f062 98bc c5aa efbc
000001d0: f3df a4bb b85c 1bbd 1c2e 3ebd 727e da3c
000001e0: 7551 b2bc f156 343d 385c 62bc 80b3 1fbd
000001f0: 3ce1 97bb fa8f c1bc 7c06 4fbc cf02 57bd
00000200: 151a b13c b83c c0bd 36d0 3b3d c23b d63a
00000210: d251 8f3d e26f dfbd b25e db3d cc4c ccbc
00000220: 6fea e3ba 61cc 4c3d 18cf 913c 8bf5 49bc
00000230: b2cd 62bc 600b cebd eab4 7e3d e635 d4bc
00000240: e698 e83b 0c90 ad3c e6a1 c83d 8593 eb3c
00000250: 5e8f bdbd 5ab1 323d 1cef 52ba 1987 0abd
00000260: 9e32 27bd 293c bcbd aa87 8e3b feeb b43b
00000270: efad f2bb 4713 3cbc ef03 1abd 648b a73d
00000280: c417 953d 1f11 8bbd 436e 013d 5764 25bc
00000290: b109 abbd bbc6 92bd 90ef 94bc d1b6 e4bc
000002a0: 38d9 81bc e766 30bd 78c7 bebc e122 1bbd
000002b0: b6bb aaba 2ca2 203d 40b7 5d3b 159c a9bd
000002c0: 7151 5abd 398c a23d 1f2f d7bc 419f 96bc
000002d0: d3b9 a0bc 88b6 483d 1c49 5eba 0b5a 9e3d
000002e0: 5643 36bd 2ea8 09bc 0f08 c13d 9d79 b4bc
000002f0: e846 813d 74c7 483d 75a9 c13c e875 663d
00000300: 8183 90bd e390 d93c c516 5b3d c577 15bd
00000310: 713f 29bc f254 a8bb cabe 60bd b636 87bd
00000320: d8fc d6bd d18d d0bc 8525 2b3c 5827 343d
00000330: 84b5 9cbd 9a2e a2bd 509a 5739 386e 11bc
00000340: b792 edba f118 613d a6ec 5bbd 47ea 30bd
00000350: 8f4f 533c b75d e7ba b117 de3b a194 fabd
00000360: 592c 5cbd 4a3a 8dbc 40f9 883d cca5 da3a
00000370: f83f 10bd 4975 3ebb 3ecf 313d b1c2 793c
00000380: 97b2 b13d a1c1 9fba 5376 eebc f0c4 0e3d
00000390: 8fe0 4b3d c6b6 c8bc 17a1 72bd 8657 673d
000003a0: 29df 11bc 3f57 6abd 7ec8 74bd 04f2 a8bc
000003b0: 2bb7 003d d6cf 663c cbfe 5d3c 20b1 66bd
000003c0: abbc e1bc 5151 cfbc 2ccf c83d ae44 2b3d
000003d0: 7e23 25bd 480f 033c 2907 9abb a739 5dbc
000003e0: 8afa 49bc 3041 6f3d af0b 963d 1f25 8fbd
000003f0: cf0a fd3c 4a82 a1bd 0276 273d 1cf7 a13c
0.057833537 -0.0060478123 0.059186816 0.013042165 -0.045897573 0.036465503 -0.022647789 -0.029790914
-0.05736164 -0.055072974 0.011467194 -0.019628936 0.017744347 -0.056770045 0.039516445 -0.039014466
-0.004479763 0.007047615 0.025536489 0.05589832 0.0498897 -0.04263904 0.021712422 -0.020313602
-0.0005709161 -0.039957397 0.06231698 -0.039041284 0.026782852 0.025891837 0.0139294285 -0.027097827
0.049835272 0.0073338463 0.0017932412 -0.04812197 0.03191048 -0.015387329 -0.02205116 0.046717003
0.007562127 -0.027862411 -0.037424445 -0.009131036 0.02822897 -0.009587879 -0.041323546 -0.027308455
-0.05223213 0.015709508 0.05329289 -0.051791303 0.008082877 0.0379827 0.004960985 -0.028182097
0.025964482 0.037503187 0.017894553 -0.004584858 -0.021819493 0.012747549 -0.017102389 -0.012153559
0.04558841 0.059172504 6.306517e-05 -0.007596442 0.006987705 -0.009646919 0.00862213 0.023462972
-0.061958805 -0.01650936 0.05765623 0.030163245 0.0031250354 -0.043353844 -0.04384359 -0.061443206
-0.012280198 0.014565668 0.033075593 0.022218011 -0.048254017 -0.03079591 -0.0034889504 0.065184414
0.015133998 -0.022165889 0.019251024 -0.01720325 -0.046055026 0.03876364 -0.021820158 -0.0061247977
-0.067434534 0.047373567 0.05290402 0.027443284 -0.036750667 -0.054600984 -0.04382125 0.03973968
0.023489233 0.05809323 0.038539916 0.021539478 0.005548502 -0.040669225 -0.061395694 -0.0637799
0.019047096 -0.036244765 -0.018601865 -0.029256234 -0.0050315796 -0.03793022 -0.046430692 0.026671622
-0.021767357 0.044028226 -0.013815932 -0.038989544 -0.0046350043 -0.023628224 -0.012635823 -0.052492913
0.021618882 -0.09386581 0.045852862 0.0016344714 0.06998028 -0.10910012 0.10711421 -0.024938963
-0.0017388592 0.0499996 0.017798945 -0.012326608 -0.013842987 -0.10060763 0.06218425 -0.025904607
0.007098305 0.021186851 0.09796505 0.028756866 -0.09255861 0.043626167 -0.00080464943 -0.033820245
-0.040819757 -0.09191162 0.0043496685 0.0055212965 -0.0074059884 -0.011479205 -0.037601408 0.081808835
0.072799236 -0.06790375 0.031599294 -0.010094724 -0.08351458 -0.07166811 -0.018180639 -0.027919205
-0.015850648 -0.043066885 -0.023288473 -0.03787506 -0.0013025913 0.03921716 0.003383115 -0.082817234
-0.053300325 0.079369016 -0.026267586 -0.018386485 -0.019619858 0.0490022 -0.0008479522 0.07732018
-0.04449781 -0.008401914 0.09425365 -0.022030646 0.063123524 0.04901834 0.023640374 0.056264788
-0.070563324 0.026558345 0.05348851 -0.036491174 -0.010330067 -0.0051370794 -0.05486945 -0.06602232
-0.10497445 -0.025458248 0.010445957 0.043982834 -0.07651809 -0.07919045 0.00020561484 -0.008876376
-0.001812539 0.054955427 -0.053692482 -0.043192174 0.012897386 -0.001765183 0.0067777266 -0.1223538
-0.05375323 -0.017239708 0.06688166 0.0016681491 -0.035217255 -0.0029061607 0.043410532 0.015244172
0.086766414 -0.0012188443 -0.029109156 0.034855783 0.049774703 -0.024501216 -0.05923566 0.056479953
-0.008903303 -0.05721211 -0.059761517 -0.020623215 0.031424683 0.014087638 0.013549517 -0.056321263
-0.027555784 -0.02530733 0.0980514 0.041813545 -0.04031705 0.007999249 -0.0047005606 -0.013502515
-0.0123278 0.058411777 0.07326447 -0.06989502 0.030888943 -0.07886179 0.040884025 0.019771151

encoder.convs.0.node_mlp.bias f4 [128]
00000000: 1ac0 2cbd bcb4 7b3c eaca f8bb 4e59 663d
00000010: 689f 0c3d 2052 f4bc 4770 a8bb d2a3 4fbd
00000020: 003a 653b 2480 193c ce7d 463d 42d5 7b3d
00000030: 73da 26bd e80b 6f3d 9cb0 3abd d050 693c
00000040: 1ab1 083d 995d ed3c a15c 3b3d 89e5 a7bc
00000050: 0805 653d 3224 083b aaba 90b8 b786 86bc
00000060: be9d 66bd e583 b7bc 78d7 2b3b 47e5 f73b
00000070: 91cf 41bb 3d29 73ba 3b46 95bb f46f dcbc
00000080: 10cd 2dbc 33d1 27bd a850 de3a 6818 0a3d
00000090: ef7b f5bc d7d1 bb3c ad77 9abc 6f38 39bc
000000a0: d0b9 123d 0381 48bd 3904 c23c 5379 3b3d
000000b0: e1f0 913c b805 3d3a 068f 08bd 12a8 39bd
000000c0: 1fc2 593d 4b69 6a3c af2c d23c 7a39 10bd
000000d0: 3606 c43c 5ed0 c0bc d186 4c3d 161e 0f3d
000000e0: 9d11 72bd 75e0 39bd 86a2 42bd c138 d7bc
000000f0: 6e68 573c 8c19 7bbd 1b2e 4a3d c5a8 2ebd
00000100: 1a7a e1bb 72eb 9f3c bd98 3fbd d602 64bc
00000110: 3f65 80bd 9d05 51bd 7116 863a 8b9c ebbc
00000120: a3eb 2f3d 02e8 01bd b1b0 193d 1cf8 403d
00000130: 2592 d6bc 3575 31bc 46a4 af3c 7381 bcbc
00000140: a66f 023d ef50 22bc 3a99 deba 1b74 48bd
00000150: 2952 5b3d 7f4e 7dbd c781 55bc 1570 1f3d
00000160: cf8b 09bd 26f5 253b df88 673d 6ee6 e13c
00000170: e800 de3c 5be5 40bd 0593 f83c b79a b93b
00000180: cf80 9dbb ebb8 c8bc 58cb 9ebc efda 1b3d
00000190: e2eb 2e3d fd70 38bd dce6 3f3d 0a24 843d
000001a0: c52c c0bc 7b63 603c 0bb9 d53c 50b9 51bd
000001b0: ce32 b03c 7d09 803d 071c 8fbc 39a7 53bd
000001c0: 0995 72bd a98c 313d 1b7b a8bc 797f 17bc
000001d0: 8d5f 7c3c b04b 8a3c 7942 0d3d c028 953b
000001e0: ab78 5abd 2d7b 0a3d c498 2b3d 4ee3 f43b
000001f0: 9138 e9bc 81e5 ccbc ed1a 2e3d 5156 223d
-0.04217539 0.015362915 -0.0075925486 0.05623751 0.03433171 -0.029824317 -0.0051403376 -0.05069334
0.0034977198 0.00936893 0.04845982 0.061482675 -0.040735673 0.058360964 -0.045578584 0.014240459
0.033372022 0.028975295 0.045742635 -0.020495193 0.055913 0.0020773527 -6.901224e-05 -0.016421659
-0.05630278 -0.02240176 0.0026220959 0.007565174 -0.0029573182 -0.00092758593 -0.0045554913 -0.026908852
-0.010607973 -0.040970992 0.0016961293 0.033714682 -0.029966323 0.022927208 -0.018855894 -0.011304959
0.035821736 -0.04895116 0.023683654 0.04577 0.017815055 0.000721063 -0.033339523 -0.0453263
0.053163644 0.01430733 0.025656072 -0.035211064 0.023928743 -0.023536857 0.04993326 0.0349408
-0.05909883 -0.045380075 -0.047518276 -0.02627218 0.013147457 -0.06130366 0.049360376 -0.04264142
-0.0068810107 0.019521449 -0.046776522 -0.013916692 -0.06269311 -0.051030744 0.0010230077 -0.028761169
0.04294933 -0.0317154 0.03752202 0.047111616 -0.026192734 -0.010831167 0.021440636 -0.023010945
0.031844757 -0.009906991 -0.0016982921 -0.04893885 0.05354515 -0.061842438 -0.01303143 0.03892525
-0.033580597 0.0025323122 0.056527015 0.027575698 0.027100042 -0.04709373 0.030343542 0.0056641954
-0.004806615 -0.024502238 -0.019384071 0.03805059 0.042705424 -0.04502963 0.046851024 0.064521864
-0.023458848 0.013695593 0.026089212 -0.05120212 0.0215086 0.0625181 -0.01746942 -0.051673148
-0.059224162 0.043347035 -0.020566514 -0.0092467 0.01540364 0.016881794 0.03448722 0.004551977
-0.053337734 0.033808876 0.041893736 0.007473386 -0.028469356 -0.02501178 0.042506147 0.0396331

encoder.convs.0.edge_mlp.0.weight f4 [128, 7]
00000000: 0c05 99be 009e 653d d6a3 f13c 8e0d a23d
00000010: 47f6 27be 3614 03bc bfb5 c2be c7e6 413c
00000020: f22b 8dbe 18e9 9b3e 2d91 5c3e 10c2 633e
00000030: eb32 3fbe 1bbb 3cbe 6ac3 6a3d aa03 fe3b
00000040: af7b ebbc 58e9 a83d 4d68 723c 6eb9 96be
00000050: 7db8 c43e 011c 1dbe 3852 ef3d 131a 88be
00000060: 9bc0 ad3e 6d13 49be af96 5c3e 202d 3c3e
00000070: 6097 a6bd 54b4 8f3c 0cab 79be ac5d babe
00000080: 8bea c43d 7c76 783e 8196 a1be ad5e 2cbe
00000090: 6a67 98be 0aff 9abe 9a44 533d 3223 eebd
000000a0: cab4 b93e 60b1 903e 1de7 4dbe aa06 873e
000000b0: 11e9 7d3e 7618 953e e4db 21be 3afd babc
000000c0: f754 6cbe 951c 1cbe 8fff 983e ee77 a53e
000000d0: d7f7 cfbe 4eb3 193e 9068 07be de8e acbe
000000e0: eaa1 173e 5b14 ff3d 6ff7 09be e5f8 cf3e
000000f0: e6fb 4ebe acf0 5b3e 2b5e 893e 1871 48be
00000100: fa4a 163e fe32 25be ca46 51be 554f 233e
00000110: 196f ba3e 6711 7cbe 3e7e ab3e 06fa 87be
00000120: 3c54 ed3d b074 94be eb71 f2bd 9f25 8abe
00000130: ebd9 c23e 928e 24be a0e2 83be 3f45 45be
00000140: 8128 863e 9f11 213e 9d60 203e 6e40 ac3e
00000150: 1519 fcbd 2b36 7d3e 6c4b e4be 12fe 8cbe
00000160: 679c 4b3e 9516 6fbe beae 253e 319a 193e
00000170: 66f1 4b3e 2b49 993e 7277 a63d c60a 7bbd
00000180: 1111 b1be e9c8 68be 46f0 4bbc 1f26 1e3e
00000190: a7e2 6cbe bf3d 43bd 2024 00bd c17f b43c
000001a0: 1ebb 8fbe 902d 873e 079b e73d a3c4 b43e
000001b0: a6ea 7fbe 6786 de3b e226 eb3d 5032 3c3e
000001c0: fc85 4bbe d4a3 00be da16 b6bd 62d7 38be
000001d0: 1fe2 8ebe 5899 3b3d e0c8 9d3e 45d8 e3be
000001e0: bfca 69bd 4e04 d9be 2755 be3d 7937 083e
000001f0: 1fd7 bebe db82 f43d 545b cdbd 5348 31bd
00000200: d71f 96be 6b09 d8bc 55d4 523e 5ac9 32be
00000210: 4ba1 cebd fc1d 69be 6f83 39be be9e a73e
00000220: 0b39 823e 787c 37be 282f b73e 1786 e43d
00000230: 1aa3 c43d 2a22 7ebe 3f5f c1bd 3d6d b23e
00000240: 2699 8a3e af5a 4d3e 820b 7bbe 859c c6bd
00000250: 53de f63d d8b2 193e 8bb6 0ebe 49b3 72be
00000260: ca86 89be f13b 9dbe a590 15be 99fd 673e
00000270: 9eeb 20be 59c3 123e 4e3e 90be 15e4 853b
00000280: de66 47be eaad 67be d676 8d3e 5462 9b3d
00000290: 2fef a83e e128 b43d 7f13 903c 6b92 9a3e
000002a0: 938a 7abe e938 2f3e dfd2 fb3c 1551 2bbd
000002b0: 88db 82be 855e 1abc 50c8 99be 83cd 343e
000002c0: c278 35be 47a4 a3bd 8917 d03e ba03 7dbb
000002d0: 8c29 98be b26b 013e ce95 fd3d 3ba2 6dbe
000002e0: 6a17 8fbe 4a0e bcbe e524 85be 4456 2f3d
000002f0: 0c19 c7be c492 c3be 8d3a 063e 4ef4 a3be
00000300: 5a0e 12bd 349e 383d c746 a03e 808b 35ba
00000310: 4525 cb3d b997 993e 799f e03d 242e bb3e
00000320: acb9 3abd 9d82 c33e 246b 9cbe 9a1d 803e
00000330: b9c7 163e c5c1 d33c 5fef d03e e86c 6b3e
00000340: 9233 b83d 0967 d6bd bfdd ae3e 54c1 a03d
00000350: 9c43 c13d 2f5f 113b b26c 04be 476e 34be
00000360: 6a40 7d3e 9aab dc3d 2c0f be3b fae7 6c3d
00000370: d253 29be ff13 b5bc 6596 47be 7064 b03d
00000380: 08eb 593e cb22 d3be e02d a53e 427a 0fbe
00000390: 5f04 a53e fe18 a73e 0d7c e53d 829a 9c3e
000003a0: 085f 79be b3c8 d3be fc6b 133d 5019 4bbe
000003b0: 7153 2dbe b72e 023d 5350 85be dde9 853d
000003c0: e9dc 5fbe da05 603e bf20 1f3e ee7c 7cbe
000003d0: 894d ffbd 2539 28bd fef8 8e3e 4efb 973e
000003e0: a088 373e 5fe3 4f3d 809b e4bc 484e c33e
000003f0: f337 53be 1d53 2dbe e4be 5e3d 09e0 45be
-0.29886663 0.056058884 0.029497068 0.079127416 -0.16402541 -0.008000424 -0.38029286 0.011834807
-0.2757259 0.30451274 0.21539755 0.22241998 -0.18671767 -0.1843075 0.057315268 0.0077519016
-0.0287455 0.08247632 0.014795375 -0.29438347 0.38422003 -0.15342714 0.11685604 -0.26582393
0.3393601 -0.19636317 0.21541856 0.18376589 -0.08134341 0.017542042 -0.24381655 -0.3639959
0.09615048 0.24263948 -0.31560138 -0.16832991 -0.297664 -0.30272704 0.051579095 -0.11627807
0.36270744 0.28260326 -0.20107694 0.26372272 0.24795939 0.29120225 -0.15806538 -0.022825826
-0.23079287 -0.15245278 0.29882476 0.32318062 -0.40618774 0.15009806 -0.13223481 -0.3370275
0.14807859 0.124550544 -0.13473295 0.4061958 -0.20213279 0.21478528 0.26829657 -0.19574392
0.14677039 -0.16132733 -0.2043716 0.15948232 0.36412886 -0.24616013 0.33494753 -0.2655794
0.11588332 -0.28995275 -0.118381344 -0.26981828 0.38056883 -0.16070011 -0.2575884 -0.19264697
0.26202777 0.15729378 0.15661855 0.33642906 -0.123094715 0.24727695 -0.44588792 -0.2753759
0.19883882 -0.23348458 0.1617994 0.15000226 0.19916305 0.29938635 0.08128251 -0.06128957
-0.34583333 -0.22732891 -0.012447422 0.1544423 -0.23133336 -0.047666308 -0.03128445 0.022033574
-0.28072447 0.2640195 0.11308866 0.35306272 -0.24991855 0.0067909244 0.11482026 0.18378568
-0.1987533 -0.12562495 -0.08891077 -0.18050912 -0.27906892 0.045800537 0.30817318 -0.44500938
-0.05707812 -0.42386097 0.09293585 0.13302411 -0.372735 0.11939021 -0.10027185 -0.043281864
-0.29321167 -0.026371678 0.2058881 -0.17459622 -0.10089358 -0.22765344 -0.18116544 0.32738298
0.25434145 -0.17918575 0.35778165 0.11158388 0.09601422 -0.2481772 -0.09441995 0.34848967
0.27069968 0.20054124 -0.24516109 -0.096978225 0.12054124 0.1500963 -0.13936822 -0.23701204
-0.26860648 -0.30709794 -0.14605959 0.22655334 -0.15714881 0.14332332 -0.28172535 0.0040860274
-0.19472834 -0.22624937 0.27629727 0.07587114 0.32994983 0.087968595 0.017587421 0.30189833
-0.24466924 0.17111553 0.0307402 -0.041825373 -0.25558114 -0.009421949 -0.3003564 0.17656521
-0.17721847 -0.07990318 0.40642956 -0.0038606958 -0.29719198 0.12638739 0.123820886 -0.23206417
-0.2794755 -0.36729652 -0.2600471 0.04280688 -0.38886297 -0.3819791 0.13108273 -0.32022327
-0.035658218 0.04507275 0.31304 -0.0006925389 0.09919218 0.29998568 0.10967917 0.3655864
-0.045587227 0.38185588 -0.30550492 0.25022584 0.14724626 0.025849232 0.40807626 0.22990763
0.08994211 -0.10468871 0.34153554 0.078493744 0.094367236 0.0022181978 -0.12932089 -0.17620192
0.24731603 0.10774918 0.0058001485 0.057838418 -0.16535881 -0.022104261 -0.19490965 0.08612907
0.21281064 -0.41237482 0.32261562 -0.14011481 0.32229897 0.32636255 0.112053014 0.3058663
-0.24352658 -0.4136406 0.035991654 -0.19833875 -0.16926362 0.031782832 -0.26037845 0.065387465
-0.21861614 0.21877232 0.15539835 -0.24657032 -0.124659605 -0.041070122 0.2792434 0.29683918
0.17923212 0.050753947 -0.02790618 0.3814566 -0.20626812 -0.16926236 0.054381266 -0.19323744

encoder.convs.0.edge_mlp.0.bias f4 [128]
00000000: 2c0c b53d adc5 303e 62ce 80be da17 203d
00000010: ca44 b0bd 6047 733e 7826 28bd caaf 5fbe
00000020: bf77 553e 6410 15be 8174 8bbc c1f4 30bd
00000030: b0ab 413e fb27 6bbd d3ae 1a3e 1f0e 65be
00000040: df06 d83c e78e a83e 2de7 4ebe 7f24 78bd
00000050: 4165 01bd 141b 883d dc4d 05be 143e fa3d
00000060: cfbd e4bd 63a0 293d dc59 b13e 924b 993e
00000070: 6a7c b7bd 0a04 34be 0fca 54be c6e1 13bd
00000080: bd07 983c 2780 0b3e 1819 bcbd dad1 383e
00000090: a66f 91bc 75cb a53d 095e ae3e f8af 413d
000000a0: e8cf 763c 6693 8dbd 1a42 7e3e 49a6 9cbe
000000b0: 36a6 20be d8b7 8c3d 8be3 653e 9d57 b9be
000000c0: b75b 41bd 2880 ba3d 4d44 a23e 90ba 3f3e
000000d0: 2bde a03e 138c a6bd b3b7 aebe 3489 c33d
000000e0: 4e4c 7a3e 0b39 6b3c 6903 313d 3889 b23e
000000f0: db16 a8be 91c1 853d 4357 d53d 5e18 873d
00000100: b136 dbbd 3057 0bbe 5ced 593e a7bd a33d
00000110: 9d55 fe3d 6686 da3c d728 60be bc93 263e
00000120: 936e 39be eb58 4abe a25f 2fbe 5af2 97be
00000130: db34 94be 4b03 9bbb 2e40 b8be 3eb9 853e
00000140: 02c9 8bbe e429 043e ec5d 243e c9a4 05be
00000150: 829d ef3d 40bd ad3e 1cfd adbe 6e4a 253c
00000160: b044 843e 03b2 b53e 5ace e93d ef7f a23e
00000170: 6dcc 35be 4436 b03e f4c4 c43d 9928 83be
00000180: 65bd 5e3e 39b0 963e a4a0 97be 77fa 3b3e
00000190: 40db c03d ca88 933e f0e5 a2be 6159 313e
000001a0: f523 b63e 9786 a7bd 6347 e13d e71c a8be
000001b0: 6479 a83d 420d 72be 5855 a0be 8e3c 5a3e
000001c0: d5f6 363e 812f 463e f515 943e f242 99bd
000001d0: 3a95 6fbe a97d 633e 3bc4 953e 0712 90be
000001e0: 3915 92be 9125 35be ee5a 6ebe 0248 563e
000001f0: bf92 a3be 60d5 de3d ee64 473d d0e6 87be
0.08840212 0.17262907 -0.25157458 0.039085247 -0.086068705 0.23757696 -0.04105231 -0.21844402
0.20846461 -0.14557034 -0.017023327 -0.043202166 0.1891315 -0.057411175 0.15105753 -0.22368668
0.026370464 0.32921526 -0.20205374 -0.06058168 -0.031590704 0.0664579 -0.13017982 0.12218872
-0.111690156 0.041412722 0.3463887 0.29940468 -0.08959277 -0.17579666 -0.20780204 -0.036103986
0.018558377 0.13623105 -0.09184474 0.18048802 -0.017753433 0.08095447 0.34056118 0.047286958
0.015064217 -0.0691288 0.24829903 -0.30595616 -0.15688404 0.06871003 0.22450082 -0.36199656
-0.047206607 0.09106475 0.31692734 0.18723512 0.314195 -0.08132186 -0.34124526 0.09547654
0.2444317 0.014356862 0.043216143 0.34870315 -0.32829937 0.065310605 0.104170345 0.065964445
-0.10703791 -0.13607478 0.21281952 0.07995158 0.12418673 0.026675414 -0.21890579 0.16267294
-0.18108587 -0.19760482 -0.17126325 -0.29677087 -0.28946576 -0.004730617 -0.35986465 0.2611789
-0.27301794 0.12906605 0.16051453 -0.13051142 0.11699964 0.3393345 -0.3398217 0.010088546
0.25833654 0.35487375 0.114163116 0.3173823 -0.17753763 0.344164 0.09607878 -0.2561691
0.21751936 0.29431322 -0.29614747 0.18357264 0.094168186 0.288153 -0.31816053 0.17319252
0.35574308 -0.08179968 0.10999944 -0.3283455 0.082262784 -0.2363787 -0.31315112 0.21312162
0.17867596 0.19354059 0.28923002 -0.07483472 -0.23396769 0.22215904 0.29251274 -0.28138754
-0.28531817 -0.17690112 -0.23276874 0.20925906 -0.31947896 0.10880542 0.04868024 -0.26543283

encoder.convs.0.edge_mlp.2.weight f4 [128, 128]
00000000: a5c8 23bd 1ce2 4a3d e8ba 65bd 6e4a 18bd
00000010: 63c1 2abc d323 9abd ebb4 d43c ea79 d1bc
00000020: 0516 f9bc 43c3 0cbe 0b7b 04bd 5a8c 903d
00000030: adb3 b4bc 44ed 633d d416 6b3d 6929 5b3c
00000040: 2d3b d33d d68f 3bbc 1109 80bd 953d 333d
00000050: 61d6 e33c a67e c33c 6595 4cbd aad3 9ebc
00000060: cbeb a73d b6e6 b33d c39e 9abd 2e77 333d
00000070: 4192 81bd 8600 9fbb 5bf2 1c3b 157c 93bd
00000080: 3000 c2bc 407b 2bbc cb93 b33d 7c85 09bd
00000090: f883 5cbd 8c74 03bc ff52 bd3d 14ea 8b3d
000000a0: c5c3 4f3d a376 bdbd 3ddb 503d 268c debc
000000b0: c254 b2bd f5ab 3fbc bf00 a2bd fe98 32bd
000000c0: 6cf4 5f3d 9965 f93d f23a 90bd 4a98 8f3c
000000d0: 1999 2a3c 0704 8abd 2541 87bc addf 4cbd
000000e0: f5c6 82bd 5450 aa3d ad43 fc3d 477c 183d
000000f0: 5639 98bc 48a1 71bd ab1c 343d 6110 b7bd
00000100: 5de6 09bd b718 223d 1f56 883d 22b7 e4bc
00000110: a9dc 9dbd 289e eb3d edb6 7f3d 4db4 72bd
00000120: 1a70 46bc 0fa5 8ebd f63f 2e3c b2fb a63d
00000130: 3440 a1bd 033b 79bd 9b7a 88bc 33c0 6a3c
00000140: 424b cd3d 0eb3 873c 73db 9d3d ad1f c63d
00000150: 57f6 e93c 9159 69bd c07a 5abd 9fdc 873d
00000160: e264 a5bb ff8c 8ebd cd2d 893d 0be9 94bd
00000170: d109 5fbc cd48 b13d c5f9 36bb 8fe0 f2bb
00000180: f146 083a d932 9d3c c821 d1bc 0f7c 82bd
00000190: 4ada 453d a121 a5bd 8c95 203c f905 60bd
000001a0: e4a7 3b3d 7f8e 803b f1f8 a33d 980a 7bbd
000001b0: 35f6 67bd 3475 853d b16a 453c 6424 1e3e
000001c0: 64f6 67bd ffce 253d e5d0 8d3c fc85 283d
000001d0: d997 783c a3d2 e9bc 2101 74bb c691 19bd
000001e0: 6bff 613b 5f27 7cbd 6ed9 2e3d 777a 6f3d
000001f0: 51f0 d4bc c3ef 61bc cf70 4b3c fd49 803b
00000200: 32cc 1ebd 841c 3cbd 4a79 7d3d 4600 573c
00000210: e4f6 923d 6cee 963d 6a3f 733d 5e99 1ebc
00000220: 0582 20bc 4c34 87bd 446f b83d 8746 77bc
00000230: 3f2c 673d adf4 b0bd 9fdf e9bd f5b1 9abc
00000240: 806a 45bc 016d 95bc e2ee 2ebd 3770 893d
00000250: ea3f 8a3c 4297 d6bb 45c1 98bd b9cb 8ebb
00000260: 2188 f03c 4379 993d 7e09 83bc d788 5dbd
00000270: ac18 993d c890 3cbd ff2c 5abd 1d6a 233d
00000280: e6e7 1c3d 771b 793c c228 4f3d 035c 383d
00000290: 924c fb3d 6d72 8a3d 544b 3b3d 6e3f e63d
000002a0: 1ab1 9fbd a74b 85bd 89e5 3bbd 58c5 eebc
000002b0: 2b14 dd3d fabe 043d 3e2e b8bc f25d 70bc
000002c0: b169 21bd 83c6 a73b 2896 cc3d dd30 84bd
000002d0: 8a3e b43c 4d89 b43b 0bae b03d b56f 01b9
000002e0: 1ff1 b4bc 26a9 1b3b 9849 08bd 2e83 67bd
000002f0: c8f3 25bd 7ea5 ad3c 601b a33c 6182 5d3d
00000300: 5aa7 f83b 130b 92bd 3fc3 c3bd 4443 c8bd
00000310: ec11 1dbd dc39 5f3d e418 4d3d db31 dd3d
00000320: 1193 bb3d 65f5 4f3d 1d61 c23d e4a6 b13c
00000330: db47 fa3c 1980 4cbd 4698 9cbd b8ff 283d
00000340: 9b72 813d 1324 f3bc ed94 b33d 9105 04bd
00000350: 0afb d6bd e516 ad3d 81ea d1bd 7443 133d
00000360: 956b 8b3d 2b09 cd3c 633b 493c 7c31 eabd
00000370: dd36 ce3d 22b9 bdba 8ce3 253d 3a14 fbbc
00000380: a696 08bd a94a 82bd 388c c73d d079 bbbd
00000390: 8228 49bd 0389 953d a78b 27b9 9efb 7dbc
000003a0: c6cf b4bd 7374 98bd 554f a2bc 29c5 183d
000003b0: b8f5 183d 4182 f93c 29fa 963d 78d1 8e3d
000003c0: 008f a03c 08b3 98bd 5c09 48bb 0fd9 68bc
000003d0: f77b e43c 7d2f 3a3d 5f86 643d 6af8 c73c
000003e0: e50d b7bd d3c6 9ebd afa4 433c 8bc3 693d
000003f0: 6c86 8abc b8b8 1dbd 426c 623d 608e e6bc
-0.03998627 0.04953204 -0.05608645 -0.037180357 -0.010422084 -0.07526364 0.025965175 -0.025570828
-0.030406008 -0.13746361 -0.032343905 0.0705802 -0.022058332 0.055646196 0.057394817 0.013376572
0.10314021 -0.011447867 -0.06251729 0.0437599 0.027812185 0.023864102 -0.04994716 -0.019388039
0.08199271 0.08784239 -0.07549813 0.04381483 -0.06326724 -0.0048523573 0.0023948166 -0.07201401
-0.02368173 -0.010466397 0.08768424 -0.033574566 -0.053836793 -0.008023392 0.09244346 0.06831756
0.05072381 -0.09251144 0.050990332 -0.027166437 -0.087075725 -0.011698713 -0.079102986 -0.043602936
0.05467646 0.12177581 -0.07042493 0.017528672 0.010412478 -0.067390494 -0.016510556 -0.050018
-0.06385604 0.083161026 0.12317596 0.037227895 -0.018582027 -0.0589917 0.043972652 -0.08938671
-0.033666957 0.03957435 0.06657051 -0.027919356 -0.07708103 0.11504775 0.06243031 -0.05925398
-0.012111688 -0.06965076 0.010635367 0.08153476 -0.07873574 -0.060847294 -0.016660025 0.01432805
0.1002412 0.016564872 0.07707872 0.096740104 0.028559847 -0.056970183 -0.05333972 0.06633877
-0.0050474266 -0.069604866 0.06698189 -0.07271012 -0.01361318 0.08656464 -0.002791987 -0.0074120234
0.00051985594 0.019189285 -0.025528803 -0.063713185 0.04830388 -0.08063055 0.00980128 -0.054693196
0.04581441 0.003923237 0.08006466 -0.0612894 -0.056631286 0.06516495 0.012049363 0.1544357
-0.05663146 0.04048061 0.017311523 0.041143402 0.015172922 -0.028542822 -0.0037232118 -0.037492536
0.0034484516 -0.061560985 0.042687826 0.0584664 -0.025993498 -0.013790074 0.012417032 0.00391507
-0.038768955 -0.045925632 0.06188325 0.013122624 0.07175997 0.07369694 0.05938665 -0.00968012
-0.009796624 -0.06601772 0.09005597 -0.015092499 0.05643868 -0.08640418 -0.114196055 -0.018883685
-0.012049317 -0.018240454 -0.042708285 0.067108564 0.01687618 -0.006548793 -0.07458738 -0.0043577817
0.029361786 0.07493832 -0.015995737 -0.05408558 0.07475409 -0.04603651 -0.053265568 0.03989612
0.038307093 0.015204302 0.05057598 0.045009624 0.12270464 0.06760106 0.045726135 0.11242567
-0.07797451 -0.0650857 -0.0458732 -0.029146835 0.10794862 0.032408692 -0.022482987 -0.014670836
-0.039407436 0.0051201 0.099895775 -0.064546324 0.022002477 0.0055095316 0.08626946 -0.00012344013
-0.022087632 0.0023751943 -0.03327331 -0.056521587 -0.04051569 0.021197077 0.019910514 0.054079417
0.0075883092 -0.071310185 -0.095587246 -0.09778455 -0.03834717 0.05449854 0.050072566 0.10800525
0.0915891 0.050771136 0.09491179 0.021686025 0.030551841 -0.04992685 -0.07646231 0.041259497
0.063206874 -0.029680287 0.0876864 -0.03223187 -0.10497101 0.084516324 -0.10249806 0.035953
0.06807629 0.025028786 0.012282225 -0.1143522 0.10069058 -0.001447473 0.04050021 -0.030649293
-0.033346795 -0.063618965 0.097435415 -0.09154093 -0.049110897 0.073015235 -0.00015978386 -0.015501885
-0.08828692 -0.07444086 -0.01981322 0.0372974 0.03734371 0.030457618 0.07371933 0.06973547
0.019599438 -0.074560225 -0.0030523157 -0.014211907 0.027891142 0.045455445 0.05579221 0.024410445
-0.08938197 -0.077527665 0.011941119 0.05707125 -0.0169098 -0.03850624 0.055279024 -0.028144062

encoder.convs.0.edge_mlp.2.bias f4 [128]
00000000: 6ed8 d43c 5dec 90bd 3cff e8bb 565f 053d
00000010: 6e77 20bd 9139 fe3c 0e3b cbbc 921e a2bd
00000020: 913f 82bd 21de 13bb 53d6 a9bd fc61 953d
00000030: ca41 0c3d da2c af3d aa6e 7ebc 0691 783d
00000040: e991 8dbd 4187 003d 0a42 273d 9c62 493c
00000050: d50d 2bbd 744d 08bd ea3c e3bc 63ac 993d
00000060: adab 873c b2b1 02bd 52fb e3bc ab76 973a
00000070: 5d3a b93c d517 b33d ef22 3c3d ab6e 8a3d
00000080: 054e 20bd 0997 a73c d3fa 783d f27c 7f3d
00000090: 20a5 833c d1fe a33d 5132 60bd f570 a6bd
000000a0: d460 833c 5d1e 843d ed19 0f3d a077 8dbd
000000b0: 7646 9c3d b2f5 95bd 8dae 843d 3094 c5bc
000000c0: ff29 ab3d cd61 273d ad23 6a3d 0ee4 73ba
000000d0: 7ac2 b2bd b361 7dbd 520a 89bd 92ec 2cbd
000000e0: d7f1 f7bc 6670 8c3c 50c6 a3bd 5ead 8fbd
000000f0: 1656 1c3a 9e26 ddbc 34d3 86bc 29e7 a7bd
00000100: c059 91bd e5e5 aabd b42b 4ebd 7e51 8cbc
00000110: 99ca 84bd c12c 9abd 4c0d 8fbc 3586 a03d
00000120: 2796 9a3d c989 56bc 38e6 83bd 8667 a93c
00000130: 0ac1 9dbd 1a78 8dbd c912 c1bb f0cd c43c
00000140: f912 02bd 8fbf 3fbc bffe c13b dec0 88bc
00000150: d3bd b13c 07bc 093d 7564 5bbd a9c6 2bbc
00000160: 91be 9abd 3ba8 33bd 61cb c1bd 0b89 82bd
00000170: 8538 89bd 6dde ab3b 650a 2fbc 8561 ad3c
00000180: 2076 6e3d 5300 6b3c ef13 0d39 d88a 0f3d
00000190: bdce 41bd 67d3 24bb 20ca d23c 0bf7 833d
000001a0: 06f5 ac3d cc70 97bd d110 093c df2a 9f3d
000001b0: 961b 603c 5dd3 acbd ccc7 6c3d d48f 8ebd
000001c0: 6282 8abd e52f 79bd f0b4 893d 14a6 9e3d
000001d0: 2de8 02bd ca3f 063d 0952 b13c 13b0 bbbd
000001e0: cec2 56bd 6f31 17bd 79d9 173a e6c4 c7bc
000001f0: 2bbd 5f3d f5cc 4abd 49f3 38bd 535e 9ebb
0.025982108 -0.07076333 -0.0071105044 0.032561623 -0.039176397 0.03103331 -0.024808433 -0.07915987
-0.063597806 -0.002256282 -0.08292832 0.0729408 0.03424243 0.08553477 -0.015529314 0.06068518
-0.06912596 0.03137899 0.040834464 0.012291577 -0.041761238 -0.03327699 -0.027739007 0.07503583
0.016561354 -0.031907745 -0.0278298 0.0011555752 0.022610838 0.0874478 0.045931753 0.067593895
-0.039136905 0.020457761 0.06078608 0.062375017 0.016069949 0.08007587 -0.054735485 -0.081270136
0.016037382 0.06451104 0.034936834 -0.06907582 0.07630627 -0.07322253 0.064786054 -0.024118513
0.083576195 0.040864754 0.05716293 -0.0009303697 -0.087285 -0.06186075 -0.066914216 -0.0422178
-0.030266685 0.01714344 -0.079968095 -0.07015489 0.00059637555 -0.026995953 -0.016458131 -0.08198387
-0.070971966 -0.0834463 -0.050334647 -0.017128702 -0.06483955 -0.075280674 -0.017462395 0.07838098
0.075481705 -0.013094374 -0.06440395 0.020679247 -0.07702835 -0.06907673 -0.005892132 0.02402398
-0.031756375 -0.011703386 0.0059202607 -0.016693529 0.02169696 0.033626582 -0.0535626 -0.010484376
-0.07555879 -0.04386161 -0.094626196 -0.06373795 -0.06700233 0.005245021 -0.010683631 0.021164665
0.05821812 0.014343339 0.00013454234 0.03504452 -0.0473163 -0.002515042 0.025731146 0.06443604
0.08445172 -0.07394561 0.008365826 0.07771849 0.013678452 -0.08438752 0.05780773 -0.06961027
-0.0676315 -0.06083669 0.06723964 0.07746521 -0.0319597 0.032775678 0.021645563 -0.09164443
-0.052431874 -0.036912378 0.0005792599 -0.02438588 0.054623764 -0.04951187 -0.04515389 -0.0048330217

encoder.convs.0.norm.weight f4 [128]
00000000: 99c8 753f cffd 813f cd64 7b3f e911 773f
00000010: ccaf 7e3f 9afe 7d3f d915 7c3f a596 773f
00000020: b6d1 783f dca9 763f b7b6 7b3f 950b 783f
00000030: 0c59 793f 477c 763f c480 773f 03ba 7b3f
00000040: 1c8c 783f cb5c 773f 126e 773f 5870 763f
00000050: f553 773f ae3b 7f3f 392c 783f be27 743f
00000060: ec2d 773f 9778 783f 3474 753f 3eb5 793f
00000070: 04e5 753f a465 7e3f 4e99 7a3f 8fba 7a3f
00000080: c0f6 753f 25ad 793f a157 7a3f 3921 793f
00000090: 9b39 753f 3957 773f d712 793f ef48 773f
000000a0: 1bcf 773f c062 7a3f bd08 793f 6175 773f
000000b0: 6547 813f b854 773f 753e 773f 4f30 763f
000000c0: 705d 773f 82a4 763f d7d4 763f e987 7f3f
000000d0: 9e47 7b3f 5ded 793f face 813f 92a8 7a3f
000000e0: 1132 7a3f 4dc0 7b3f fec5 793f aa9d 793f
000000f0: 0165 753f ad4f 743f b88c 763f 111c 833f
00000100: cd46 763f e41c 753f e6fc 753f d0e8 753f
00000110: f281 793f 5fcc 7a3f 7d1a 833f 02ae 783f
00000120: 2eae 783f f3ba 743f 3a97 783f 2135 7c3f
00000130: a3c3 793f 4825 753f fa8c 763f 5a8c 773f
00000140: 5e19 793f e696 733f 2b79 793f 8423 793f
00000150: 6b34 753f c83e 763f 3e43 793f 3050 7b3f
00000160: 7c0f 7c3f 4707 7a3f 8110 763f ad8d 783f
00000170: cd34 783f 104c 773f d7e2 773f 1bb9 773f
00000180: bd48 793f 3a14 823f f8a8 813f ffd8 803f
00000190: 097c 773f 4082 783f c2bf 743f b2e4 783f
000001a0: c507 7c3f c0b1 7b3f 9803 783f 74d9 743f
000001b0: 94bf 793f eb6c 773f 8053 7a3f 7832 793f
000001c0: 9d7b 763f 72f4 743f 9c0a 793f ed62 763f
000001d0: e685 783f ff01 793f 716e 7b3f 47f7 783f
000001e0: c999 773f d471 773f c2f3 773f 466d 783f
000001f0: 692d 783f 102a 773f 5faf 773f 8730 783f
0.9600921 1.0155581 0.98200685 0.96511704 0.99486995 0.99216616 0.98470837 0.9671424
0.97194993 0.96352935 0.98325676 0.9689267 0.974015 0.9628338 0.96680856 0.98330706
0.9708879 0.96625966 0.9665233 0.9626517 0.96612483 0.9970044 0.9694248 0.9537314
0.96554446 0.97059005 0.95880437 0.9754218 0.96052575 0.9937384 0.97890174 0.97940916
0.96079636 0.9752982 0.9778996 0.9731632 0.95791024 0.96617466 0.9729437 0.9659566
0.9680039 0.9780693 0.9727896 0.9666348 1.0099913 0.96613646 0.96579677 0.96167463
0.9662695 0.9634477 0.9641852 0.9981676 0.98156154 0.9762781 1.0141289 0.9791347
0.97732645 0.983403 0.9756774 0.975062 0.95857245 0.95434076 0.9630847 1.024294
0.96201783 0.9574721 0.9608902 0.9605837 0.97463906 0.97968096 1.0242459 0.97140515
0.9714078 0.9559776 0.97105753 0.9851857 0.9756414 0.9576001 0.96308863 0.96698534
0.9730433 0.9515213 0.9745051 0.9731982 0.9578311 0.96189547 0.9736823 0.9816923
0.9846113 0.97667354 0.9611893 0.9709118 0.9695557 0.9660044 0.96830505 0.96766824
0.97376615 1.0162423 1.012969 1.0066222 0.9667364 0.97073746 0.956051 0.9722396
0.98449355 0.983181 0.96880484 0.9564431 0.9755795 0.9665057 0.9778366 0.97342634
0.9628237 0.95685494 0.97281814 0.962447 0.9707931 0.9726867 0.98215395 0.97252315
0.9671903 0.9665806 0.9685632 0.9704174 0.9694429 0.9654856 0.9675197 0.96949047

encoder.convs.0.norm.bias f4 [128]
00000000: 242a bcbc c294 8cbb d5a6 883c 0864 b5bc
00000010: f4dd 3f3c 40b2 853c d136 a7bc 8268 9fba
00000020: f7ba 913c 0757 a43c dce5 583c b961 a3bc
00000030: 7f8b 483d fae0 c03d 7edb 673c 9791 a8bc
00000040: 36be 313d f482 5bba 3af3 47bb 5b7c bfbc
00000050: 039d 1e3d 3e05 95bc 1edf 75bc 6dc5 b6bc
00000060: 9c1e 33bd 8a3e 5ebc 0b24 fabc 8d56 7bbd
00000070: 3c8d 793d 2c1c 62bc 993a 973c 50e0 9ebc
00000080: 972c 4f3b 6bc4 b1bc 029b 19bd 9dcb 6b3b
00000090: 1c4f b83c 0b93 b3bb ddb5 f13c 61a6 b9bb
000000a0: dfdd d4bc 37dd c0bc 7afe 193b 94d7 1bbd
000000b0: d6fa b53c 6bae a03c b16d 933c 2594 913c
000000c0: 5e20 a8bc 7e4a f63c 23c8 8ebb 5400 a3bb
000000d0: e396 48bd 3839 ebba 981a df3c ff15 793c
000000e0: a304 0abd 746b a9bc 9592 083c dd28 4dbc
000000f0: 741f 253c 4e98 40bd eeab 51bb 6fe4 99ba
00000100: 65ab ad3c 6d7d 92bc 25d9 4f3c 0f0e 703d
00000110: 1472 3abc 1f91 48ba 8beb 99bb b9bb 923b
00000120: 8f81 cb3c c81f 59bc 492e 16bd bd88 4dbc
00000130: cf34 483d 9037 303d 0b63 853b e9aa 11bc
00000140: c304 33bb 7611 65bc 65df 77bd 1d2d 1bbd
00000150: 97de ddbc b502 cfbb ca8f a53c 70a3 4abd
00000160: 5a54 4fbd 4b25 1bbd 4911 b83c 0459 04bd
00000170: 3a5d 9cbb 5738 d23c 06c7 283a 819e 173c
00000180: d33f 143b 56f1 3fbc 1d95 343c b187 363c
00000190: 8a95 b93b fea3 1c3d f590 1c3c 5495 1bbc
000001a0: eca4 62bb e2ef 6abd 2f44 1ebd a0fa 76bc
000001b0: d587 d6bb f516 93bb 7035 63bb c8a9 16bb
000001c0: 4715 0e3b d571 1dbb 2032 c93c 7c05 1d3d
000001d0: 58f1 e1bc 1fee 603c 0228 933b e1c1 343c
000001e0: 802a 8a3c 394f 8dbc bf86 64bd d9ef d9bc
000001f0: 53c5 a43b 32c2 d8bc 4b39 79bc 1059 053c
-0.022969313 -0.0042901943 0.016681114 -0.022142425 0.011710633 0.016320348 -0.02041188 -0.0012161883
0.017789347 0.02006103 0.0132383965 -0.019944059 0.04896116 0.09417911 0.014151452 -0.020577235
0.04339429 -0.00083737005 -0.0030509965 -0.023374727 0.038723957 -0.018190976 -0.015006809 -0.022310937
-0.043730363 -0.013564715 -0.030534765 -0.061361838 0.060925707 -0.013800662 0.018460559 -0.01939407
0.003161227 -0.021700105 -0.037501343 0.0035979517 0.02249866 -0.0054801754 0.029505664 -0.005665586
-0.025984703 -0.023542983 0.0023497627 -0.03804739 0.022214334 0.019614419 0.01799664 0.017770836
-0.020523246 0.030064818 -0.0043573542 -0.0049744043 -0.04897202 -0.001794613 0.02723436 0.015202998
-0.03369583 -0.02068112 0.008335729 -0.01252195 0.0100783 -0.04702025 -0.0031993347 -0.0011741052
0.021199891 -0.017882073 0.012686049 0.058607157 -0.011379737 -0.0007651019 -0.0046972684 0.0044779447
0.024842052 -0.013252206 -0.036665235 -0.012544808 0.048878487 0.04302174 0.0040706447 -0.008890846
-0.002731607 -0.013981214 -0.06051578 -0.03788482 -0.027083678 -0.0063174614 0.020210166 -0.049472272
-0.050617553 -0.037877362 0.02246918 -0.032311454 -0.0047718557 0.02566163 0.0006438348 0.009254099
0.002262105 -0.011715254 0.0110218795 0.01114075 0.0056635784 0.038242333 0.009556045 -0.009496052
-0.0034583164 -0.057357676 -0.038639244 -0.015074402 -0.006546954 -0.0044888207 -0.0034669302 -0.002298938
0.0021680163 -0.0024024148 0.024560034 0.03833531 -0.027580902 0.0137286475 0.0044908533 0.011032552
0.016865969 -0.01724969 -0.055792566 -0.026603626 0.0050284057 -0.026459787 -0.015211414 0.00813891

encoder.convs.0.norm.mean_scale f4 [128]
00000000: d92f 753f 675d 793f 1104 793f b1d2 7a3f
00000010: f14b 773f 504e 823f e7bd 733f 1069 803f
00000020: 57cc 793f 6187 753f 044e 7e3f e2bf 773f
00000030: f439 813f f9c6 8c3f 1eae 793f d16b 783f
00000040: 8494 703f 3841 7e3f a28d 7e3f dc49 813f
00000050: 5962 713f bc3e 773f fe4d 773f bbcd 833f
00000060: d156 6b3f 1abf 763f 37c7 7c3f fbb8 873f
00000070: 02a9 7f3f 2805 7c3f f279 783f b6be 783f
00000080: 2c8a 803f 2491 7e3f 665c 753f 047a 7e3f
00000090: af8f 813f eafe 743f cafb 763f aa47 7c3f
000000a0: 0fec 803f 60d0 793f 5d9d 7b3f 4b26 823f
000000b0: 1ebc 7c3f 2de9 773f 21c8 733f 2a17 7e3f
000000c0: 97b9 773f 496b 753f 4976 7b3f 6168 733f
000000d0: ba7e 6b3f 499a 753f 522d 653f 82cc 703f
000000e0: 05d0 703f 2160 783f 4a4f 793f a1d6 7d3f
000000f0: 6265 803f 5aa4 723f 49c7 7c3f e98a 753f
00000100: 7615 823f ba35 813f d21c 7c3f 93a4 873f
00000110: 720c 7c3f e9ab 793f 790a 823f a6ba 7d3f
00000120: 06aa 7e3f f6e4 783f 100c 833f 9427 6a3f
00000130: b2a4 803f 859c 793f 9a74 813f ae8f 813f
00000140: cfe1 763f 7f4d 813f f016 7d3f 89d4 673f
00000150: 7712 7a3f 7127 813f 7f51 833f 2840 843f
00000160: 1e5c 823f 7c1a 833f b5c2 823f c11c 7f3f
00000170: 0cb1 6f3f f2e8 713f cef1 753f 1d09 763f
00000180: ff40 783f 814b 6e3f dd33 773f 48d9 723f
00000190: c07e 763f cfbf 6c3f 3e75 823f ab7a 803f
000001a0: 4ab0 7f3f 59c8 833f 25ea 853f 19d9 803f
000001b0: 548b 753f 7806 763f 5991 753f b663 793f
000001c0: be8c 763f cad0 7a3f 4df4 733f e222 7a3f
000001d0: cadf 783f 7a46 813f 25a8 783f 2737 803f
000001e0: e0b4 753f 23db 7c3f 0d19 863f d817 703f
000001f0: a923 7b3f d1c2 743f ff94 783f ac24 7a3f
0.95776135 0.97408146 0.9727183 0.9797774 0.9660025 1.0180149 0.95211643 1.0032063
0.9757742 0.95909697 0.9933779 0.96777165 1.0095811 1.0998222 0.97531307 0.97039515
0.93976617 0.99318266 0.99434865 1.0100665 0.9429069 0.965801 0.9660338 1.0297159
0.91929346 0.9638535 0.9874148 1.0603327 0.9986726 0.9844537 0.97061074 0.97166
1.0042167 0.99440217 0.95844114 0.9940493 1.0121974 0.9570147 0.9647795 0.9854685
1.0072039 0.9758358 0.9828699 1.0167936 0.98724544 0.96840173 0.9522725 0.99254096
0.9676756 0.9586683 0.98227364 0.95081145 0.91990244 0.95938545 0.8952228 0.94062054
0.9406741 0.9702168 0.9738661 0.9915562 1.003094 0.9478203 0.98741585 0.95915085
1.0162799 1.0094521 0.98481476 1.0597099 0.9845649 0.9752794 1.0159446 0.9911293
0.99478185 0.97224367 1.0238056 0.9146664 1.0050261 0.97504455 1.0113709 1.0121973
0.96438307 1.0101775 0.98863125 0.9055868 0.97684425 1.0090162 1.0259246 1.0332079
1.0184362 1.0242457 1.021567 0.9965325 0.9362953 0.9449607 0.9607209 0.96107656
0.96974176 0.9308396 0.9656351 0.94862795 0.96287155 0.92480177 1.019203 1.0037435
0.9987837 1.0295516 1.046208 1.0066253 0.9591572 0.9610362 0.9592491 0.9741777
0.96308506 0.97974837 0.9529465 0.97709477 0.97216475 1.0099633 0.9713157 1.0016831
0.9597912 0.98771876 1.0476395 0.9378638 0.9810129 0.95609766 0.9710235 0.97712207

encoder.convs.1.node_mlp.weight f4 [128, 256]
00000000: 300e 15bc a3eb 43bb 53c1 bebc baad 293d
00000010: cb7c 3a3d 7263 fabb 9722 2cbc 181c 8c3d
00000020: 3bd5 1ebb 4d67 56bc 0999 44bd 9b07 c53c
00000030: 2fde 34bd 71f0 0c3c 480d a9bc a128 a93c
00000040: 9dbf 0e3d 97c6 2c3d 5940 b03b 6cde 47bc
00000050: ef79 0f3c 796f 7fb9 ae67 6c3c 3d35 5f39
00000060: 3caf 6bbc 6921 473d fb0d 56bd 3c98 753d
00000070: 3191 973c c8f9 4abd d91f 713d 0af6 33bc
00000080: 9513 0abd f821 03bd 27d1 0c3c 7e75 5cbd
00000090: bfe3 10b8 578e c43c 875f 84bd 09b7 2a3d
000000a0: 87c2 b63c 96d4 4a3d 42fb 423d 3c87 1fba
000000b0: 8984 a8bc 9e2d 69bd 1e6f adbc 9b97 ab3c
000000c0: 426a fe3c 6bf5 513d 365a c13c f091 60bc
000000d0: aad2 313c 8178 c83c ff22 4f3d d8bd 243d
000000e0: 0628 2fbd ab06 d7bc 8837 563b 0d03 183c
000000f0: d586 79bd 9a1d 293d 8b73 4b3d 1ed7 8c3d
00000100: 3551 a93c e54d 5a3d c372 cd3b 6d81 9cbc
00000110: 7fa4 133c 35f5 fa3c d056 613c 208e 9c3b
00000120: 1260 e7bb 25fa 4bbd 3b19 d33b 7751 e5b9
00000130: 785e 2abc 05d3 31bd 3dec 8fbc 15e4 cabc
00000140: 68d6 093d 1afb 243d 51fd 3bbd ec7d 953c
00000150: 2ea5 223c 59b2 43bd 1965 c1bc e389 983c
00000160: 58c8 013d 28bc 5fbc 0229 143c e859 f33c
00000170: 9783 36bd 9852 67bb 15c3 3b3c a1b6 273d
00000180: e9ca f53a b5e4 36bd 80ae dabc 714b 173d
00000190: 5db8 0c3d 026c 9539 0d97 6c3d e1e1 f83b
000001a0: 0873 6fbd 9b64 7b3c 0405 093b b919 9ebc
000001b0: aed8 803c 29a2 5cbc 91d6 2dbd 8a30 e33c
000001c0: 8327 013d efd6 0fbd d77c 493c c96d ca3c
000001d0: 31b8 fd3b 67ab 40bc 1c11 a2bc 33dc 77bc
000001e0: f872 26bd b038 773d 7727 943d 619b e63c
000001f0: f8fc 5cbc 8b8e c6bc 2a14 9f3b b837 273d
00000200: 499a b9bd 781a 2fbd cb4f 71bd 7a54 3a3b
00000210: 7ad8 28bd 02d6 47bc 89ef 8fbd eeab 9e3c
00000220: 2069 563d 17f2 8ebd 8c73 97bd c9cc 3a3d
00000230: 8b66 a93d f605 b9bd ca9d 8c3d 81da 56bd
00000240: b5ab 9a3d eae7 ba3b 4d6c d93d bf1d f53c
00000250: a4ea 68bd a5b3 48bc 1946 9dbc f9e5 e13d
00000260: b84f 933d b3eb 84bd b426 7d3b f8b5 c1bd
00000270: 4c74 f53d e2f8 df3c 65c1 6bbd a41c 10bd
00000280: 780f 6ebd e10a 1e3d 6744 8d3c 3fc2 303d
00000290: a326 c03c 1751 f73d 4e11 6ebd 62bc 2bbb
000002a0: 3141 57bd 166d e53b f4d7 a8bd 825d 23bb
000002b0: 0545 dbbb f4c0 3ebc 94c4 513d b77a 843c
000002c0: a5a9 47bd dade cd3d 5efa 91bd e23a 89bd
000002d0: ca15 513c c966 493c a3af c8bc 8744 9dbd
000002e0: 9c34 9bbd 2363 3b3d 661c b2bd 45fc 94bd
000002f0: 2994 743c a900 1ebd 29fe 80bd 7ba8 833d
00000300: df81 753d 4923 d3bd ee01 82bd b9b5 433b
00000310: c228 c23d b7ba 42bd c0b8 9f3d 4954 0d3d
00000320: 3e14 943c 84b0 dd3c a9d6 6a3c 2095 b13c
00000330: df06 1bbd dc88 4bbc 58b0 143d 1517 3ebc
00000340: 2b91 2f3c deb8 adbd fe75 49bc 338e 9cbc
00000350: cf5c 8c3d 8bd0 95bc f99c a53d eafd ccba
00000360: 6054 253d c8b9 b5bc 903c 2dbd 332c a1bc
00000370: 7c98 3cbb eff7 4b3d 7e00 55bd 66bf 8dbd
00000380: 0e22 993d 86d9 b4bc aeb4 b9bd 2634 ab3b
00000390: 38e6 5d3d 6cc8 e4bc f76a 5c3d ac21 c7bd
000003a0: 6054 cfbd 9965 ad3c 5793 56bd 2085 03bc
000003b0: 762e 303d 5021 273c d8a0 493d 2bfc 123c
000003c0: 16e3 7fbd 255d 71bd 74ca a2bd 0874 783d
000003d0: 310c 4bba 807e c43c 4408 c9bd a223 803d
000003e0: c64a bcbd 0ca5 72bd e0f8 52bb 3695 73bd
000003f0: caf1 97bd abf2 8bbd 7548 9fbd a17a 963d
-0.009097621 -0.002989509 -0.023285544 0.041425444 0.045529168 -0.0076412493 -0.010506294 0.06841296
-0.0024235982 -0.013086152 -0.04799751 0.024051478 -0.044157203 0.008602248 -0.020636216 0.020649256
0.034850705 0.042181578 0.0053787646 -0.012199026 0.008757099 -0.00024360222 0.014429016 0.0002128677
-0.014385041 0.048615847 -0.052259427 0.059959635 0.01850185 -0.049554616 0.058868263 -0.010983953
-0.03371008 -0.032014817 0.008594788 -0.053822987 -3.454438e-05 0.023993654 -0.06463533 0.041678462
0.022309555 0.049519144 0.0476029 -0.000608552 -0.02057101 -0.05692827 -0.021171149 0.020946315
0.031056527 0.05125944 0.023602586 -0.013706669 0.010853449 0.024471523 0.050570484 0.04022011
-0.04276278 -0.026248297 0.0032686908 0.009278071 -0.0609196 0.041287996 0.049670737 0.06876968
0.020668605 0.053296942 0.006269784 -0.019104684 0.009011387 0.030634502 0.013753608 0.004777685
-0.007061013 -0.049799103 0.0064422167 -0.0004373898 -0.0103985 -0.043414135 -0.017568702 -0.024766961
0.03365174 0.04027853 -0.04589588 0.01824852 0.009927077 -0.047777507 -0.023607777 0.018620437
0.031685203 -0.0136557 0.00904298 0.029705957 -0.044559088 -0.0035297032 0.011460085 0.040945653
0.0018752489 -0.044651706 -0.026694536 0.03693718 0.03435551 0.00028499967 0.05776124 0.0075952862
-0.05845931 0.01534381 0.002090753 -0.019299375 0.01572832 -0.013466396 -0.042440955 0.027733106
0.031531822 -0.035117086 0.012297831 0.024710553 0.0077429046 -0.0117596155 -0.019783549 -0.015128183
-0.040636986 0.060356796 0.0723409 0.028150262 -0.013488047 -0.024237892 0.0048546987 0.040824622
-0.09062631 -0.042749852 -0.058913987 0.00284317 -0.041222073 -0.0121970195 -0.070281096 0.019369092
0.05234635 -0.06979769 -0.07395086 0.045605455 0.08271512 -0.0903434 0.068660334 -0.052454475
0.07552282 0.005703916 0.1061636 0.02992141 -0.056864396 -0.012249862 -0.019198464 0.11030192
0.071929395 -0.064902686 0.0038627805 -0.09458536 0.119850725 0.027340356 -0.057557482 -0.035183564
-0.05812022 0.038584594 0.01724453 0.043153998 0.023455923 0.120760135 -0.05812197 -0.0026204814
-0.052552406 0.0070015294 -0.08244315 -0.0024927561 -0.0066915774 -0.011642683 0.051212862 0.016171796
-0.04874577 0.10052271 -0.07127832 -0.06700684 0.012761543 0.012292572 -0.024497813 -0.07679086
-0.07578394 0.04574884 -0.08696823 -0.07274679 0.014927902 -0.03857485 -0.06298477 0.064286195
0.059938308 -0.103094645 -0.06348024 0.0029862954 0.0948043 -0.047541346 0.0779891 0.03450421
0.018076058 0.027061708 0.0143334055 0.021677554 -0.03784835 -0.012422767 0.036300987 -0.011602183
0.010715763 -0.08482526 -0.012296198 -0.019110775 0.06853639 -0.018287918 0.08086581 -0.0015639637
0.04036367 -0.022183314 -0.042294085 -0.019674396 -0.0028777411 0.049796995 -0.052002423 -0.06921272
0.074771985 -0.02207638 -0.09067665 0.0052247224 0.05417463 -0.0279276 0.053812947 -0.09723219
-0.10123515 0.02116661 -0.052386608 -0.008027345 0.04301306 0.010200813 0.04922566 0.008971254
-0.062472425 -0.05892672 -0.07948771 0.06065753 -0.0007745652 0.023986101 -0.0981603 0.062567964
-0.091939494 -0.059239432 -0.0032191798 -0.05946847 -0.074191645 -0.068333946 -0.07777492 0.07347608

encoder.convs.1.node_mlp.bias f4 [128]
00000000: 6ef6 2ebd cbb6 3d3c 3a05 c8bc 9a1c f13c
00000010: 0263 e33c 06d7 58bd 5274 1e3d 79d1 c9bc
00000020: 4e73 f63c c88d e03a 4d49 e9ba d2d9 19bd
00000030: 2554 0e3d 92d1 69bd f41c 9e3d 5b80 55bc
00000040: 2f31 9c3d 4d4d 23bb b7d8 6dbc 774d f0bc
00000050: 095c 78bd 0c0d 5a3c eb9d 57bd 7520 823d
00000060: fb53 7abd 20b0 02bd dd96 0bbc 8fcf 593d
00000070: 4791 20bd e057 b93c ac7c bebc 9851 92bd
00000080: e992 6dbd d1f8 b5bc 339c b63c ab5c afbc
00000090: 07bf febb 9dda 703d e411 703c 3fa0 463d
000000a0: 99e9 ad3b 3ad9 d8bc b747 233d ab75 273c
000000b0: eb0c 0ebb d243 ac3d 82ce d03c 0082 2a3d
000000c0: 4b31 1a3d f705 f8bc 142f 4d3d c6d3 15bd
000000d0: 5041 8e3c fe5b 4cbc 1ca0 013c 2d71 f1bc
000000e0: 0094 b63c 03b2 623d 2b31 4f3d ee92 633d
000000f0: fca7 0f3d 0a6c 36bd 7cb5 8cbd be44 f83c
00000100: 4ccb 53bc c90f 70bc 5de7 98bd fb0a da3c
00000110: 4691 97bd 22a3 99bd 3c3a edbc 7a05 3a3b
00000120: bfb4 29bc 9935 b13c df27 253b 8536 d6ba
00000130: 140e 2f3d f6e0 60bd 16e3 dfbc 03fc 7cb9
00000140: 62a1 1d3d 75e5 55bc 3443 4ebc 8cce 0d3d
00000150: 7bbb 33bc 408a 8bbc 37ff 7c3c e588 023d
00000160: e514 4fbc 6978 82bc c9dc 6e3d 71ef 1d3c
00000170: 6748 a2bc cc77 c0bb 3f24 ea3b ca0e 1abc
00000180: f80c bdbc 849c 56bc 905a 473d 969f 05bd
00000190: 98ba f3bc 59bb a43d 2736 c1bc f7be 533d
000001a0: 3733 1ebd d89b 223d 3414 adbd cf7a 87bb
000001b0: 17b2 83bd bd35 483c 635f a83d 92aa 14bd
000001c0: e7d6 4d3c 44a8 7bbc eb49 b43c e68f 393d
000001d0: 4518 a93d a7e0 58bd c95b 043d dc37 c43d
000001e0: 3e22 20bd 1b26 83bd 4835 91bd 1441 073d
000001f0: 8075 113d 9738 9cbd a41a debb c3c8 873d
-0.042715482 0.011579226 -0.024416555 0.029432584 0.027757172 -0.052939437 0.03868515 -0.024636017
0.030084278 0.0017132098 -0.0017798335 -0.037561245 0.034748215 -0.057084627 0.07720366 -0.013031091
0.076265685 -0.00249179 -0.014517001 -0.029333813 -0.060634647 0.013308775 -0.052640837 0.06353847
-0.061115246 -0.031906247 -0.008519855 0.05317646 -0.039201047 0.02262491 -0.023252808 -0.07144469
-0.058001433 -0.022213371 0.022291278 -0.021406492 -0.007774237 0.058802236 0.014652703 0.048492666
0.005307388 -0.02647077 0.039863314 0.010220925 -0.002167518 0.08411373 0.025489096 0.041627884
0.037644666 -0.030276282 0.050093725 -0.036578916 0.017365128 -0.0124731045 0.007911708 -0.029472912
0.022287369 0.055345546 0.050584 0.055560045 0.03507231 -0.044536628 -0.06870553 0.030306216
-0.012926888 -0.014652201 -0.07466004 0.026616564 -0.074007556 -0.07501818 -0.028958432 0.0028384612
-0.010358035 0.021632003 0.0025200767 -0.0016343152 0.042738035 -0.05490204 -0.027329963 -0.00024126474
0.038483985 -0.013055195 -0.012589265 0.034620807 -0.010969992 -0.017033696 0.015441707 0.031868834
-0.012639259 -0.015926557 0.058316026 0.009639607 -0.019809915 -0.005873656 0.007145434 -0.00940294
-0.023077473 -0.01309884 0.04867035 -0.032622896 -0.02975206 0.08043546 -0.023585392 0.05169579
-0.03862306 0.039699405 -0.08451119 -0.004134513 -0.06430452 0.012219843 0.082213186 -0.03629548
0.012563444 -0.015359942 0.022007903 0.045303248 0.08256582 -0.05294862 0.032314096 0.09580967
-0.039095156 -0.064037524 -0.07090241 0.033021048 0.035512447 -0.07627981 -0.006778078 0.06630089
