checkpoints/model_D_epoch_29.pth (torch, 552443 bytes, 27 tensors)

encoder.node_embedding.weight f4 [1, 128]
000000 d4 6a e8 3f a5 c9 b2 3f 07 06 51 3f a5 8c fe bf
       1.8157601 1.3967787 0.8164982 -1.9886671
000010 ec 46 1b 3f 5e d0 94 bf 4a 60 80 bc f7 00 c2 bf
       0.60655093 -1.1626089 -0.015670914 -1.5156544
000020 f4 7a 32 bf 80 10 c6 3f 11 be b3 be 62 3d a9 bf
       -0.6971886 1.5473785 -0.35105947 -1.3221858
000030 c6 da 28 bf 50 34 fd be 34 84 33 bf 9f 2f 33 3f
       -0.6595882 -0.49453974 -0.701236 0.6999454
000040 5a 9f c5 3f 9a e6 07 be dc a8 e3 be 87 a5 c9 3e
       1.5439255 -0.13271561 -0.44464767 0.393841
000050 f4 f0 2d bf 00 65 7e 3f 20 44 3f 3f fe b9 cc 3f
       -0.6794579 0.99372864 0.74713326 1.599426
000060 bc 6e 99 3f 7e e2 9a 3f 42 b0 11 3f 98 2e a0 3f
       1.1986918 1.210037 0.56909573 1.2514219
000070 61 09 35 be ab 24 17 3c e1 0c 4f be 41 d0 49 3f
       -0.17679359 0.009225051 -0.20219757 0.78833395
000080 62 12 a6 bf c2 d2 4a bf 22 21 41 be 80 71 d0 3f
       -1.297436 -0.7922784 -0.18860295 1.6284637
000090 c2 51 85 3e f3 a4 c5 be f7 f7 72 3e 25 fc 32 bf
       0.2603894 -0.3860241 0.23727404 -0.6991599
0000a0 2a bc ba bf 31 db 6c 3f 31 ec 50 bf 71 1b 12 bf
       -1.4588673 0.9252196 -0.816104 -0.5707312
0000b0 21 d4 98 bf 8c b4 01 40 52 55 93 bf 18 f6 e1 be
       -1.1939737 2.0266447 -1.1510413 -0.44133067
0000c0 48 85 5a bf 24 e5 13 bf 59 86 78 3d 1a 4b f2 3e
       -0.8535962 -0.57771516 0.060675 0.47322923
0000d0 03 f4 e1 be 7a be 8d 3f 91 43 39 bf 0f e7 2a bf
       -0.4413148 1.1073754 -0.72368723 -0.6675882
0000e0 2d 05 ab bf 20 d7 13 3c 9a ed ea bc 1f 0e 21 3f
       -1.3360955 0.009023458 -0.02867775 0.6291217
0000f0 c6 12 80 bd 19 cd e0 3f ff 03 8e bf a8 5a a7 3f
       -0.06253581 1.7562591 -1.109497 1.3074541
000100 84 b2 ab 3f 91 98 49 3f 23 3b 07 40 33 84 ee 3e
       1.3413854 0.7874842 2.1129844 0.46585235
000110 9b 8f 95 3e 0c f3 1f be 86 22 76 bf 79 63 98 3f
       0.29211125 -0.15620059 -0.9614643 1.1905357
000120 61 ff 03 be e4 a4 e8 3e 53 70 2c 3c ba c5 be 3e
       -0.12890388 0.45438302 0.010524827 0.37260228
000130 3d 9f 08 3f 0e 95 15 bf 25 4d 06 c0 45 96 2c bf
       0.5336798 -0.58430564 -2.0984585 -0.67416793
000140 3b cd fd b9 ce 4e 97 be cd 4b a2 bf 5e a8 09 bf
       -0.0004840883 -0.2955231 -1.2679383 -0.5377253
000150 ce d2 f4 3e b4 79 e9 3e 8a 38 88 3f f7 6f 30 3b
       0.4781708 0.45600665 1.0642254 0.0026922205
000160 75 4c 2b 3f d5 d5 d1 be 1f 70 7a bf bb fb 0c 3f
       0.6691354 -0.40983453 -0.97827333 0.5507161
000170 c7 40 cf bf 20 8c 44 bf d2 94 a0 3f f7 6f de 3e
       -1.6191643 -0.76776314 1.2545416 0.43444797
000180 b9 0e 1b c0 55 cd d9 3e 6a d6 39 3f 5d df fc 39
       -2.4227736 0.42539468 0.72592795 0.00048231604
000190 db 79 13 3f ea 27 07 3f 3c 27 76 3f 20 c7 d1 be
       0.5760781 0.5279528 0.96153617 -0.40972233
0001a0 61 87 fc bd 7a e3 31 3f 0e 40 b3 3e bc 49 ea 3d
       -0.12330509 0.69487727 0.35009807 0.11439845
0001b0 81 b8 62 3e e5 ee 98 3f e3 fc a6 b9 45 10 81 be
       0.22140695 1.1947905 -0.00031850403 -0.25207725
0001c0 e4 c0 b0 bf ef 67 8e bd 88 42 09 bf 7e a9 d7 3e
       -1.3808866 -0.069534175 -0.53617144 0.421215
0001d0 62 2d 28 3f a3 08 8c 3d 5d 75 a7 be 91 f6 f1 3e
       0.6569425 0.06837585 -0.3270673 0.47258428
0001e0 79 11 87 b9 d2 3f 3c 3e 32 51 bd 3d 60 ae 35 3f
       -0.00025762225 0.1838372 0.092440024 0.709692
0001f0 54 fe 85 3f 29 37 8c 3e 81 bd 28 3f 76 b9 ba 3e
       1.046824 0.27385834 0.6591416 0.3646962

encoder.convs.0.node_mlp.weight f4 [128, 256]
000000 84 08 5f 3d c2 50 01 bc d4 2f 64 3d cd 63 70 3c
       0.05445148 -0.007892789 0.055709675 0.014672232
000010 01 36 40 bd 27 e2 19 3d f7 ea a7 bc 3e 10 de bc
       -0.046926502 0.03756919 -0.020497782 -0.027107354
000020 29 f4 5c bd 8d 20 64 bd 53 d4 58 3c fb 95 8c bc
       -0.053943787 -0.055695105 0.013234216 -0.01716136
000030 02 a7 9e 3c 8e 30 5a bd bc 7d 26 3d 0f 59 24 bd
       0.019366745 -0.05326896 0.040647253 -0.040123995
000040 de a6 cf bb b4 9e 0b 3c d6 59 dd 3c 38 09 57 3d
       -0.006337031 0.0085217245 0.027020376 0.052499026
000050 38 05 50 3d 82 bd 32 bd 3e de 9c 3c 7a 7f b2 bc
       0.050786227 -0.04363776 0.019148942 -0.021789301
000060 25 3a 26 bb 9c c3 27 bd 01 d1 70 3d 14 35 24 bd
       -0.0025364247 -0.040958032 0.05879307 -0.04008968
000070 cb f4 e5 3c c3 99 c7 3c 1a b7 7e 3c 7b 2a e9 bc
       0.028070828 0.024365311 0.0155465845 -0.02846264
000080 c6 33 4f 3d 8a b4 16 3c 95 f0 71 3b e3 43 48 bd
       0.050586484 0.009198317 0.003691708 -0.048892867
000090 59 e6 ee 3c 6d b3 56 bc 85 6b c1 bc c6 41 43 3d
       0.029162573 -0.013104302 -0.02361084 0.04767015
0000a0 23 2b 19 3c b6 4c ef bc bf 23 0d bd bf 53 e3 bb
       0.0093486635 -0.029211383 -0.03445792 -0.0069374735
0000b0 9c dc f1 3c 44 1b 39 bc 79 eb 1c bd c5 4d c9 bc
       0.02952414 -0.011298005 -0.0383105 -0.024573216
0000c0 5e 74 48 bd 74 08 8f 3c 5e 2c 4f 3d 82 25 57 bd
       -0.0489391 0.017460085 0.05057942 -0.052526005
0000d0 62 0e 23 3c d8 ad 0f 3d b2 48 e2 3b 7b 13 d0 bc
       0.00995216 0.0350779 0.0069056386 -0.025399914
0000e0 bf b1 df 3c 10 5c 10 3d 4a 66 98 3c 66 37 d5 bb
       0.027306436 0.035244048 0.018603463 -0.006506848
0000f0 a0 a1 a2 bc 1b 15 2c 3c f0 13 70 bc 3d ff 62 bc
       -0.01985246 0.010503079 -0.014653191 -0.013854799
000100 ce ea 2d 3d 7a 08 64 3d b1 a4 f5 ba 23 8c 1b bc
       0.042460255 0.055672146 -0.0018741098 -0.00949386
000110 70 74 9d 3b e6 2f f9 bb 84 e7 2a 3c 00 f2 aa 3c
       0.00480514 -0.007604587 0.010431174 0.020867348
000120 12 c8 6f bd ee d9 94 bc 66 ae 5c 3d ac c0 e0 3c
       -0.05854041 -0.018170323 0.053877257 0.027435623
000130 6c 1c 8b 3a 09 e1 24 bd f7 55 27 bd 60 e4 6c bd
       0.0010613329 -0.040253673 -0.040853467 -0.057834983
000140 f1 49 37 bc 6e 8c 85 3c b0 55 0c 3d 9c 46 c2 3c
       -0.011187063 0.016302314 0.034261405 0.02371531
000150 98 1c 49 bd fe a7 03 bd 0e 53 b2 bb cc 38 7d 3d
       -0.049099535 -0.03214263 -0.00544203 0.061821744
000160 8a c1 4f 3c 2f ed 9f bc 12 99 aa 3c 2e e3 9a bc
       0.012680421 -0.019522278 0.020824943 -0.018907156
000170 9e da 2f bd af 21 23 3d 58 b0 be bc ab 27 04 bc
       -0.0429331 0.039827045 -0.023277447 -0.008066098
000180 e2 af 82 bd 37 19 35 3d 52 e5 4a 3d 98 74 b5 3c
       -0.06381203 0.0442135 0.049535103 0.022150323
000190 5a 51 1b bd 27 a1 62 bd 14 81 37 bd d8 62 27 3d
       -0.03791938 -0.055329468 -0.044800833 0.04086575
0001a0 69 95 cd 3c 02 8a 5f 3d 4d 16 11 3d e8 16 9b 3c
       0.025095658 0.054574974 0.03542166 0.018931821
0001b0 60 91 5d 3b 6b a7 2a bd ad d3 05 bd a6 45 76 bd
       0.0033808574 -0.04166357 -0.032672573 -0.060125016
0001c0 17 25 a8 3c 37 1f 08 bd 2e 12 84 bc 4f 5b fa bc
       0.020525498 -0.033232894 -0.01612195 -0.030561117
0001d0 5a 63 e3 bb a2 4e 1c bd e7 cf 30 bd 17 21 c4 3c
       -0.006939334 -0.038160928 -0.04316702 0.02394156
0001e0 f5 5c 41 3c cf 7d 27 3d e4 29 7b bc 4c 4d 24 bd
       0.011801948 0.040891465 -0.015329812 -0.04011278
0001f0 06 48 d6 bb db 33 ce bc f7 1c 6b bc 4f e9 59 bd
       -0.0065393476 -0.025171211 -0.0143501675 -0.053201016
000200 79 eb 01 3d bb 59 97 bc 4b ad 77 3d 0f 9f c5 3c
       0.031718705 -0.018475404 0.060468 0.024123697
000210 1f 6f d4 3c e0 54 88 bd d5 0a bb 3d 77 4b 31 3d
       0.025931893 -0.066568136 0.091329254 0.04328486
000220 7d 1d f2 bc 64 61 2b 3d 67 f2 70 3c fe 53 0c 3d
       -0.029555077 0.041840926 0.014706231 0.03425979
000230 0f fb 6f bb bc aa 71 bd 91 58 a4 3d 07 3f be bc
       -0.0036618148 -0.059000716 0.08024705 -0.023223413
000240 9f 47 c9 3d 0c 71 6d bc 6d 7d 21 bd 25 3a 1f 3d
       0.09828114 -0.0144922845 -0.039426256 0.03887381
000250 f0 79 76 bb ad f8 13 3d 4c de f8 3c 1a 4a d2 bd
       -0.0037609302 0.036125828 0.030379437 -0.1026804
000260 21 61 55 bc 8b 53 19 bd a1 db 44 3d b9 00 98 bd
       -0.013023646 -0.03743319 0.048061017 -0.07422013
000270 d1 9d 80 bd fa f9 9d 3c 86 c2 10 be 32 53 2b 3d
       -0.06280101 0.019284237 -0.14136705 0.041827388
000280 db d0 82 3d 4a 3f b6 3d aa c2 83 bd 88 9e 14 bd
       0.06387492 0.0889879 -0.064336136 -0.036284
000290 97 a1 83 bd f6 ab 88 bd 7a 81 40 3d 2e 26 ce 3d
       -0.06427305 -0.06673424 0.04699848 0.10065876
0002a0 10 09 c9 3b 82 19 60 3b 15 8a 99 bd 46 4a 72 bd
       0.0061351135 0.0034194891 -0.0749704 -0.059152864
0002b0 00 75 a8 3d 16 65 be bd 41 81 a7 ba 6e 12 bb bd
       0.08225441 -0.09296624 -0.001277961 -0.091343746
0002c0 91 83 67 bd 09 fa eb 3c 5f 6e c0 bb 9e 07 0d 3c
       -0.056521956 0.02880575 -0.0058725323 0.008607773
0002d0 52 e5 7d bd bd 2c 78 3d b2 10 9d 3d 7a f4 1d 3d
       -0.061986275 0.06058954 0.076692 0.03856323
0002e0 32 18 5f bd 83 31 4c bb f5 50 31 3d b6 f3 31 bc
       -0.054466434 -0.003115744 0.043290097 -0.010861328
0002f0 b4 02 10 3e 06 5a a6 3d c6 3a 05 3c 74 b1 d0 bb
       0.14063531 0.08122639 0.008131688 -0.0063688103
000300 5f 8a 5b bd 04 c6 a1 ba 13 d6 ad ba 32 26 23 3c
       -0.053598758 -0.0012342338 -0.0013262652 0.009957837
000310 2e 90 f8 bc 36 29 53 bc 06 51 91 bd 1d 7b 06 bc
       -0.030342188 -0.012888243 -0.07095532 -0.008208063
000320 27 20 6d bd d5 cb ec bb 38 d9 b6 3d 41 fb 68 3d
       -0.05789199 -0.007226447 0.0892815 0.05688024
000330 39 a0 0f bd 72 d1 ac bd 46 e5 eb bc f6 0d 27 bd
       -0.03506491 -0.08438386 -0.02879585 -0.0407848
000340 5a 7b 74 3d 66 a2 88 3b 19 bc 85 bc d3 92 24 bc
       0.05968795 0.00416975 -0.016325044 -0.010044771
000350 39 d8 26 bd bc 63 1f bc 3a 03 84 bd 38 02 60 bc
       -0.04073355 -0.009728368 -0.06445928 -0.013672404
000360 30 3e c6 bd bb 27 e2 bc 5d 90 97 3d 7e c2 79 3c
       -0.0967983 -0.027606836 0.07400582 0.015244124
000370 0f 43 d7 3b 19 7f 0c 3d 04 75 3d 3d 3f 17 7d bd
       0.0065692733 0.034300897 0.046254173 -0.061789747
000380 bb 09 00 bd 46 70 3d 3d b4 f2 eb bc 2f 82 23 bd
       -0.03125928 0.04624965 -0.028802253 -0.039919075
000390 79 88 02 3c 87 b1 14 3c 48 57 38 bd cc 50 34 3d
       0.007967108 0.009075529 -0.045005113 0.044022366
0003a0 2e 04 da bb 45 bc fc bd d3 98 51 bd 20 fb 99 3d
       -0.0066533303 -0.12340597 -0.051171135 0.075186014
0003b0 39 0a af 3c 7f 71 de bb 41 2e a1 bc 5c 1f f0 bc
       0.02136718 -0.006788432 -0.019675376 -0.029311828
0003c0 d8 e7 6c bd 1f 1e a7 bd d6 05 c4 3c 7c 22 59 3c
       -0.05783829 -0.08160042 0.023928564 0.013252851
0003d0 12 4e c2 3b f4 71 76 bb 02 63 15 bd be d4 21 bd
       0.005929717 -0.0037604542 -0.036471374 -0.039509527
0003e0 5b da be 3d 96 85 08 3e 65 2a 65 3d af 58 df bc
       0.09318992 0.13332209 0.055948634 -0.027263967
0003f0 03 d9 56 3d 12 a8 86 bd e0 27 fc 3c 91 82 74 bc
       0.052453052 -0.065750256 0.030780733 -0.014923708

encoder.convs.0.node_mlp.bias f4 [128]
000000 d5 b6 30 bd 32 8e 60 3c 5c c8 84 3c a9 3f 55 3d
       -0.043143112 0.013705777 0.01620882 0.052062664
000010 9e 62 f1 3c d6 88 8f bc f9 40 0e bb e5 23 50 bd
       0.02946597 -0.017521303 -0.0021706207 -0.05081548
000020 21 a3 6d 3b e3 52 e9 3b fe fc 6c 3d ad 45 59 3d
       0.0036260562 0.0071204766 0.05785846 0.053044964
000030 a7 c6 3b bd 4e d7 76 3d 2e 17 4f bd 2a 3a e0 3c
       -0.045843747 0.060263924 -0.050559215 0.027371485
000040 fc 05 ed 3c f9 43 f1 3c f2 d9 2b 3d 7e 86 7a bc
       0.028933518 0.029451357 0.041955896 -0.0152908545
000050 6f fe 4e 3d 6a 08 e9 ba 2d b5 1a 3c b0 47 70 bc
       0.050535616 -0.0017778997 0.00944261 -0.014665529
000060 fe 06 5e bd 3a 66 5b bc ba 7d 8d bb 11 a8 b5 3b
       -0.054205887 -0.013391072 -0.0043179663 0.0055437167
000070 ac 77 75 bc 22 aa 9c 39 ac 48 13 bb 8c 4c f6 bc
       -0.014982145 0.00029881397 -0.0022473736 -0.030065797
000080 34 05 33 bc 75 64 4f bd 44 62 ec 3b 21 88 48 3d
       -0.0109265335 -0.050632913 0.0072138626 0.048957948
000090 75 3e c3 bc 56 98 19 3d b6 67 cb bc 40 47 01 bd
       -0.023833493 0.037498794 -0.024829727 -0.03156209
0000a0 db 83 e2 3c ce 28 7a bd 55 d0 06 3d ce 02 09 3d
       0.027650764 -0.06107407 0.032913525 0.03344994
0000b0 ea 4b 65 3c bb 35 8a bb 78 e0 00 bd f3 54 19 bd
       0.01399515 -0.004217831 -0.03146407 -0.03743453
0000c0 11 ee 88 3d 3b f7 a7 3c 07 8b 04 3d 72 71 d8 bc
       0.066860326 0.02050363 0.03235915 -0.026421282
0000d0 d1 97 18 3d d5 ec 18 bd b6 98 12 3d 1d 1c 2b 3d
       0.03725416 -0.037335236 0.035790168 0.041774858
0000e0 0e b6 4e bd 2f 64 32 bd 9d fd 78 bd af e6 12 bd
       -0.05046659 -0.043552574 -0.06078874 -0.03586453
0000f0 13 44 a5 3c 52 16 44 bd 4f 24 03 3d 2d 49 17 bd
       0.020174062 -0.04787285 0.03201705 -0.03693502
000100 7c c8 48 bc f6 6f 0f 3a 4a ae 2a bd 87 25 ae bb
       -0.01225483 0.00054717006 -0.04167012 -0.005314532
000110 15 3c 63 bd d9 98 2b bd 1e 87 b4 3b 36 64 e7 bc
       -0.05547722 -0.041893814 0.0055092713 -0.028246026
000120 fa 59 4d 3d 6d a7 0a bd cb 05 eb 3c 92 e4 21 3d
       0.050134636 -0.033851076 0.028689286 0.039524622
000130 46 b0 9c bc ad 47 b2 bc d3 47 ca 3c f2 c7 be bc
       -0.019127022 -0.021762693 0.024692452 -0.0232887
000140 7a 7a be 3c 3a 72 c1 bc 96 b2 28 bc a8 c6 34 bd
       0.02325176 -0.023614038 -0.010296484 -0.044134766
000150 fb 15 6b 3d 66 b8 46 bd f0 51 51 bc e0 28 ec 3c
       0.05739401 -0.0485157 -0.012775883 0.028828084
000160 28 6b 24 bd 13 bb e6 3b e1 03 51 3d ec 94 8d 3c
       -0.040141255 0.007041344 0.05102909 0.017282926
000170 56 fc 1d 3d af 87 46 bd be 49 05 3d 2c f1 33 ba
       0.038570724 -0.04846924 0.03254103 -0.00068642455
000180 7a da 5c bb 01 a9 80 bc 18 ac 65 bc a4 b1 1e 3d
       -0.0033699558 -0.015705587 -0.014018081 0.03874363
000190 1a 80 fd 3c ff e6 41 bd f8 d0 4d 3d bf 52 4a 3d
       0.030944873 -0.047339436 0.050248116 0.04939532
0001a0 32 a8 76 bc 7a 57 26 3c 38 ff 2b 3c 1b f4 61 bd
       -0.015054749 0.010152692 0.010497861 -0.055164438
0001b0 48 d2 61 3c d8 e8 6e 3d 37 3e 81 bc ae 00 45 bd
       0.013783045 0.058327526 -0.015776737 -0.04809635
0001c0 2e aa 00 bd 27 58 31 3d d7 c8 8b ba 88 d1 32 bc
       -0.031412296 0.04329696 -0.0010664713 -0.010914214
0001d0 7f 5a 6e 3c e1 9f b0 3c 6d f3 0f 3d 37 18 c2 bb
       0.014547943 0.021560611 0.03514426 -0.005923297
0001e0 e3 fe 76 bd 20 22 47 3d dc 0a 09 3d 5b e9 2e 3b
       -0.060301673 0.04861653 0.033457622 0.0026689384
0001f0 57 81 17 bd 5f 2a 2f bc ba 8c 03 3d 49 c8 38 3d
       -0.036988582 -0.010691254 0.03211663 0.04511288

encoder.convs.0.edge_mlp.0.weight f4 [128, 7]
000000 df ae a2 be 19 1a 02 3e 61 45 c2 3d e0 89 07 3e
       -0.3177404 0.12705268 0.09485889 0.13236189
000010 01 43 8f bd 12 e8 8f 3c 05 56 8f be 63 d7 81 bb
       -0.06995202 0.017566714 -0.27995315 -0.0039624437
000020 95 6a 85 be c3 c1 b3 3e d3 2b 0d 3e 90 0e c3 3d
       -0.26057878 0.35108766 0.13786249 0.09524262
000030 eb 34 a9 be 78 ea 39 be 25 24 70 3c 3e 78 e3 bd
       -0.33048186 -0.18155849 0.014657055 -0.11106919
000040 1d 90 29 3d 9a 7b 40 3d cc 92 b0 3b fd 43 9e be
       0.041397203 0.046992876 0.0053885933 -0.30911246
000050 cf 06 cb 3e 5f ac 3f be d3 d3 d3 bd 23 16 4d be
       0.39653632 -0.18718098 -0.10343137 -0.20027976
000060 c2 94 b4 3e 6f 3d f0 bd 50 8f 69 3e eb d0 18 3e
       0.35269743 -0.117304675 0.22808576 0.14923446
000070 7f ab c2 bc 41 fe 60 3d 37 db 23 be a6 23 96 be
       -0.023763416 0.054929975 -0.16001593 -0.29324073
000080 d4 46 85 3e 19 6a 7c 3e 3f 66 e0 be c4 31 f9 bd
       0.260306 0.24649848 -0.43828008 -0.12167695
000090 43 c1 89 be 81 95 ae be 76 58 4d 3d e3 38 90 bd
       -0.2690526 -0.34098437 0.05013319 -0.070421
0000a0 e3 bc b5 3e e3 8a 95 3e 53 23 bd be 45 1c a1 3e
       0.35495672 0.29207525 -0.36941013 0.3146688
0000b0 c9 92 86 3e 6e ce a3 3e 8f c6 bb bd b4 16 31 3c
       0.26283863 0.3199343 -0.091687314 0.0108086355
0000c0 a8 fe 82 be 89 d8 db bd 66 c3 8d 3e b7 d8 b5 3e
       -0.25584912 -0.1073466 0.2768814 0.35516903
0000d0 bc 6e d7 be a8 ae 27 3e 8a dd 08 be c4 29 93 be
       -0.4207667 0.1637522 -0.1336576 -0.28742802
0000e0 9c 19 37 3e 1e 28 14 3e f6 f5 04 be 88 fc bf 3e
       0.17880863 0.14468428 -0.12984452 0.37497354
0000f0 16 4d 72 be e2 00 61 3e 62 2b 61 3e 86 9c 87 be
       -0.23662218 0.21972993 0.21989205 -0.26486605
000100 e0 17 d3 3e 2a 27 2d be b0 34 26 be 76 d5 6c 3e
       0.41229153 -0.16909471 -0.16231036 0.23128304
000110 49 cc d0 3e 06 ec 67 be 8a f1 d9 3e fa 96 ea be
       0.40780857 -0.2264863 0.42567092 -0.4581831
000120 fe 0b 4c 3e 42 80 78 be d1 a3 c5 3a c2 9e b3 be
       0.1992645 -0.24267676 0.0015078728 -0.3508206
000130 16 0b 8c 3e 44 06 6d be 10 b6 00 bf 9a d6 6f be
       0.27352208 -0.23146921 -0.50277805 -0.23421708
000140 7b fd 6c 3e a7 52 02 3e 0e 6f 56 3e 3a ee 92 3e
       0.2314357 0.12726842 0.20940802 0.28697377
000150 d9 ec 61 be f2 91 95 3e d0 bd 93 be 7c bc e7 be
       -0.22063006 0.2921291 -0.28855753 -0.4526099
000160 5e 0c f4 3d 1b c5 68 be cd d1 a5 3d 42 8b 31 3e
       0.11916421 -0.2273144 0.08096657 0.17338279
000170 6c fe 42 3e bb 8d b4 3e 2b 96 1a 3d 6b d6 0f bd
       0.19042367 0.35264382 0.037740868 -0.035116594
000180 c4 89 3c be e7 1c 58 be cd 8e df bd f4 3b 13 3e
       -0.18411928 -0.21104775 -0.10915909 0.14378339
000190 3d 31 58 be 20 79 4a be 5f ab 12 be c5 ae f9 bc
       -0.21112533 -0.19772768 -0.14323185 -0.030478844
0001a0 8a 44 2d be cf 56 84 3e 68 88 a3 3d d5 62 94 3e
       -0.16920677 0.2584748 0.07985002 0.28981653
0001b0 ee b7 5c be 5a 67 a5 3b da a2 b1 3d 92 7c 94 3e
       -0.21554539 0.005047721 0.086736396 0.2900129
0001c0 32 13 b0 be d5 91 98 be 6b 51 d7 3c 72 ee 9a be
       -0.34389645 -0.2979876 0.02628394 -0.30260044
0001d0 18 cc c2 be f5 cd 0d bc 4b 09 87 3e 50 93 ea be
       -0.38046336 -0.008655061 0.26374277 -0.45815516
0001e0 72 0d 72 bc 85 59 b3 be 4d 73 90 3d cc 46 fd 3d
       -0.014773713 -0.35029235 0.07053242 0.12367019
0001f0 11 f7 b8 be 0e c1 af 3d 91 56 29 be f0 31 f4 bc
       -0.36125997 0.08581744 -0.16536929 -0.029808968
000200 00 f5 84 be d5 57 82 bd c0 8c 26 3e 4c 62 4d be
       -0.2596817 -0.06364409 0.1626463 -0.20057029
000210 09 c8 e1 bd bc 5a 9f be 07 d0 0c be 6e 68 a0 3e
       -0.11024482 -0.31123912 -0.13751231 0.31329674
000220 51 7b 53 3e bd fc 74 be b2 99 c0 3e b2 6d 1c 3e
       0.2065251 -0.23924537 0.3761726 0.1527622
000230 ee a2 54 3e d7 54 2b be c3 ef 8d bc ac 46 b3 3e
       0.20765278 -0.16731583 -0.017326241 0.35014856
000240 69 1c 86 3e d0 d9 2c 3e 75 df 86 be fd c9 ec bd
       0.2619355 0.16879964 -0.2634236 -0.11561964
000250 fb 0d 0b 3e 4d 4f 27 3e 69 ab 6e bc 62 bc 75 be
       0.13579552 0.16338845 -0.014567235 -0.23997644
000260 33 d5 92 be 30 b6 b0 be 26 11 24 be b0 9a 1a 3e
       -0.28678283 -0.34513998 -0.16022167 0.15098071
000270 ce 6c 52 be 12 38 1b 3e 11 94 87 be 12 64 2a 3b
       -0.20549318 0.15158108 -0.26480153 0.0025999588
000280 8c c4 56 be 4c 60 3d be cc 17 ca 3e 20 79 9c 3d
       -0.20973414 -0.18493766 0.3947128 0.0764029
000290 35 3a a8 3e 80 ae df 3d 65 90 91 3a 37 77 93 3e
       0.32856908 0.10921955 0.0011105655 0.2880189
0002a0 b4 15 75 be e7 7e b7 3d 17 7c 77 3d 14 1e 24 3d
       -0.2393406 0.089597516 0.060421076 0.040067747
0002b0 70 12 86 be e8 d7 fe bb a4 94 78 be 7a a8 85 3e
       -0.26185942 -0.007777203 -0.24275452 0.261051
0002c0 25 2b 80 be 97 97 13 bd e5 22 b2 3e 6d f3 79 bc
       -0.25032917 -0.03603324 0.34792247 -0.015255791
0002d0 86 5e b9 be 48 12 c6 3d 06 9d fd 3c 05 42 92 be
       -0.36204928 0.096714556 0.030958664 -0.28565994
0002e0 a4 00 ad be 9f e1 de be 16 d3 af be 53 65 0c bd
       -0.3378955 -0.4353151 -0.34340733 -0.034276318
0002f0 f8 b0 94 be 20 77 b3 be ba 39 ce 3d 10 cf 9f be
       -0.29041266 -0.35051823 0.10069604 -0.31212664
000300 ac a0 80 bb fb 23 d7 3d db 01 9e 3e 17 9d a8 ba
       -0.0039254036 0.105049096 0.3086079 -0.0012864199
000310 6f fb 93 bd 49 e4 c3 3e 55 dd d1 3d cd 3e a9 3e
       -0.072256915 0.38260105 0.10247294 0.33055726
000320 63 6b 90 bd ff fc c8 3e c4 59 ad be 6f 69 9d 3e
       -0.070517324 0.3925552 -0.33857548 0.30744502
000330 1c b3 60 3e 8e b9 71 3c e6 5e c0 3e 2d 37 4f 3e
       0.21943325 0.014753712 0.37572402 0.20235892
000340 b8 60 52 3e a5 92 9d bd 6e d6 a6 3e f9 8f ee bd
       0.20544708 -0.07693986 0.32585472 -0.11648554
000350 b7 1b e7 bb 09 94 fd bb 4d eb 05 be 43 b0 40 be
       -0.0070528644 -0.0077385944 -0.13078041 -0.18817239
000360 9b 9f 84 3e b2 2d 18 bc 7d b8 4c bc 2c 5a 86 3d
       0.2590302 -0.009288238 -0.012495157 0.06560168
000370 70 0a 05 be 7f 6a 0e bd 56 e4 4c be 82 fa 81 3c
       -0.12992263 -0.03476953 -0.20008978 0.015866522
000380 45 7e 1a 3e f9 c7 d4 be 5a c3 bd 3e b4 7d 34 be
       0.1508723 -0.41558817 0.37063104 -0.17626077
000390 5e fe 97 3e 2e c7 8d 3e 58 b6 27 3e cb 3b c7 3e
       0.29686254 0.27691025 0.16378152 0.38912806
0003a0 e6 b9 1f bf e8 25 f4 be 20 66 2a 3d 1a f2 cb bd
       -0.62393034 -0.4768517 0.0416013 -0.099582866
0003b0 91 59 7e be 3c fe a4 bc d0 6b 86 be d8 48 2f bd
       -0.24838854 -0.02014076 -0.2625413 -0.04279408
0003c0 19 39 46 be a5 4f d1 3d dc b9 fa 3c 94 27 7e be
       -0.19357719 0.10220269 0.030606203 -0.24819785
0003d0 17 83 23 be c4 71 28 3c d4 5e 54 3e 03 69 9d 3e
       -0.15967976 0.01028103 0.20739299 0.3074418
0003e0 ef 98 0d 3e 1d 0e 13 3d 95 aa 32 bc 69 f4 af 3e
       0.13827871 0.03590213 -0.010904928 0.34366158
0003f0 bc 6c 8d be 5c 77 82 be 23 3c 15 3e 13 12 7e be
       -0.2762202 -0.2548169 0.14573722 -0.24811582

encoder.convs.0.edge_mlp.0.bias f4 [128]
000000 2b bc 2a 3e 28 8e 09 3e 38 56 67 be a2 a0 8a 3d
       0.16673343 0.13433135 -0.22591484 0.067689195
000010 24 3e 84 bc 28 0e 5a 3e aa 10 55 bd 64 69 13 be
       -0.016142912 0.21294463 -0.052017845 -0.14395672
000020 db bf 39 3e 87 c8 fe bd f1 81 13 bc 40 8c c4 bd
       0.18139593 -0.12440591 -0.009003148 -0.09597063
000030 88 6e 3f 3e a0 b3 5f bd 72 5d 37 3e 6f f3 73 be
       0.18694508 -0.054614663 0.1790674 -0.23823331
000040 47 e1 6f 3c 43 0a a0 3e af 93 52 be a3 5d ab bd
       0.014641113 0.3125783 -0.2056415 -0.08367469
000050 91 4e 49 bd 76 ad a6 3d 22 e1 0e be 02 4f c8 3d
       -0.049147192 0.08138554 -0.13953069 0.097806945
000060 4c 03 8a bd f1 f0 6a 3d 1d 27 a9 3e 52 78 90 3e
       -0.0673891 0.057358686 0.33037654 0.28216797
000070 93 6e 24 be c0 3f 33 be 4e 47 7f be 00 83 56 bd
       -0.16057806 -0.17504787 -0.24929544 -0.052371025
000080 f6 50 1d bb 16 26 c2 3d 2d fb f0 bd 78 45 1d 3e
       -0.0024004555 0.094799206 -0.11766658 0.15358531
000090 fb 87 af 3d a6 9f 9b 3d 62 43 a2 3e 22 a1 1f 3d
       0.08570858 0.0759881 0.31692034 0.038972028
0000a0 d7 de 0c 3d ac 1c ff bd fd 53 79 3e 1e 8c 83 be
       0.034392204 -0.124566406 0.24348445 -0.25692838
0000b0 06 61 05 be ab a5 2d 3d 30 62 52 3e 00 1c 9b be
       -0.13025293 0.04239432 0.20545268 -0.302948
0000c0 c3 e7 48 bd 89 1f 9a 3d 26 d9 7e 3e e7 b8 24 3e
       -0.04904915 0.07525546 0.24887523 0.1608616
0000d0 7a f1 8c 3e 94 d3 07 be bb c6 a8 be e5 af 14 3d
       0.27527982 -0.13264304 -0.3296412 0.03630056
0000e0 8f 01 75 3e 8e 30 32 3d 98 b0 e3 3d 4e 27 9b 3e
       0.23926376 0.043503337 0.11117667 0.30303425
0000f0 3a 8f 97 be 1b 46 ef 3d c7 65 0b 3e 9f 9a 5a 3d
       -0.2960146 0.116832934 0.13613044 0.053370114
000100 10 ba ce bd d8 68 3a be cf 2b 28 3e 30 af 98 3d
       -0.10094082 -0.18204057 0.16422962 0.07455289
000110 42 8d 17 3e cb a9 9b 3c 3e ec 96 be 62 58 0d 3e
       0.1479998 0.019001862 -0.29477113 0.13803247
000120 40 3e 20 be d1 93 37 be b1 53 17 be 63 9e 91 be
       -0.15648746 -0.17927481 -0.1477802 -0.28441152
000130 4c 80 74 be df f8 bb bc 88 35 9f be ff c5 6f 3e
       -0.23877066 -0.02294582 -0.3109553 0.23415373
000140 10 75 68 be 10 7b d0 3d b3 bb d9 3d 71 7b 13 be
       -0.22700906 0.10179722 0.10631504 -0.14402558
000150 20 a0 01 3e 9a e6 a5 3e 90 af 8f be f2 9b b7 3b
       0.12658739 0.32402498 -0.2806363 0.005603307
000160 cb 5b 72 3e 68 4e aa 3e ec 6a 01 3e 08 7a b6 3e
       0.23667829 0.33262944 0.12638444 0.35639977
000170 0b 73 36 be 4e f6 97 3e ef 53 09 3e ce 56 47 be
       -0.17817323 0.29680103 0.13410924 -0.19466707
000180 b9 45 2a 3e e5 a3 86 3e 13 25 8f be f5 9a 32 3e
       0.1662816 0.26296917 -0.27957973 0.17441924
000190 72 98 b5 3b 72 13 8d 3e db e3 aa be df c3 4a 3e
       0.0055418545 0.27553898 -0.33376965 0.19801281
0001a0 cd 2e a1 3e e2 08 6f bc 86 cf 53 3e b1 4f 84 be
       0.3148102 -0.01458952 0.20684633 -0.2584205
0001b0 35 4d 92 3d a9 6d 80 be 74 70 7b be 06 4f 5a 3e
       0.07143632 -0.25083664 -0.24554616 0.21319208
0001c0 23 51 35 3e 83 78 54 3e e6 85 8e 3e 6a 99 88 bd
       0.17706732 0.20749097 0.2783653 -0.066698864
0001d0 08 9e 87 be 53 df 79 3e 4d 4a 91 3e da 73 87 be
       -0.26487756 0.24401598 0.28377 -0.26455575
0001e0 47 96 89 be 51 96 82 be 6f 24 65 be 2e e9 5c 3e
       -0.26872465 -0.25505307 -0.2237718 0.21573326
0001f0 41 ce 94 be 2d 7b a8 3d c4 06 3c 3d f5 78 6f be
       -0.2906361 0.08226619 0.04590489 -0.23385985

encoder.convs.0.edge_mlp.2.weight f4 [128, 128]
000000 b0 67 96 bd 14 c9 50 3d 11 e3 74 bc 45 50 c4 bd
       -0.073439956 0.050973013 -0.014946715 -0.09585623
000010 42 1d ce 3d 6c ca a7 bd 3a b5 3e bb c4 d7 b1 bc
       0.10064174 -0.08192906 -0.0029099719 -0.02170933
000020 de da 18 bd a5 b3 1a bd f3 80 5a bd 20 5d 3d 3d
       -0.037318103 -0.03776898 -0.05334563 0.04623139
000030 2d 45 31 3d 7c 23 6d bc 79 ef f8 3d a9 1f b1 3d
       0.04327886 -0.014473792 0.12155051 0.08648617
000040 e5 48 06 3e 6b 4a 83 bc 37 36 14 bd 95 f4 27 bc
       0.13113745 -0.016026696 -0.036184516 -0.010251184
000050 76 4b bd 3d 07 ec 45 bd ff ce 59 bd c9 b3 c8 bc
       0.09242909 -0.048320796 -0.053175922 -0.02449979
000060 19 e1 84 3d 5e 09 d7 3d 02 6c 5c bd 74 98 29 3d
       0.064882465 0.104998335 -0.05381394 0.041405156
000070 39 80 af 3c 06 84 7b 3d b0 e3 a5 3d c1 6f 5d bd
       0.021423446 0.061405204 0.081000686 -0.054061655
000080 91 f8 16 bd ba 16 e7 bc a4 d4 d0 3d 02 77 41 bd
       -0.036858145 -0.028209079 0.10196808 -0.047232635
000090 51 7c 57 bc f6 1e 17 bc 6b ff a9 3d 30 4c cd 3d
       -0.013152198 -0.00922369 0.0830067 0.10024297
0000a0 87 eb 85 bc 53 d3 24 bd d1 39 3f 3d 3a c0 d4 bb
       -0.01634766 -0.040240597 0.046685997 -0.0064926418
0000b0 fb 38 a2 bc 0e ea 70 3d b3 6b 8e bd e8 1c c3 bc
       -0.019802561 0.058816962 -0.06954136 -0.023817495
0000c0 21 80 54 3d 93 62 f4 3d 26 1d 48 bd d7 33 a6 3b
       0.051880006 0.11932864 -0.048855923 0.0050720978
0000d0 9b 0a 32 3b b8 d8 0e be fa 24 9b 3b eb 9d 12 bd
       0.0027166966 -0.13949859 0.0047346326 -0.035795134
0000e0 74 b3 83 bc 2c ad c6 3d 7c d2 29 3e 81 fe 81 3c
       -0.01607678 0.09700999 0.165842 0.015868427
0000f0 e8 16 7d bb a0 0d 64 3d 10 4e af 3d ae f3 b1 bd
       -0.003861839 0.055677056 0.08559811 -0.08689056
000100 0b 8a 7e bd 77 8a bb 3d f9 54 6b 3d 99 17 58 bd
       -0.062143367 0.091572694 0.057454083 -0.05275688
000110 2f ec 9f bd b4 84 04 3e 5c 4f 82 3d 35 1a 5c bd
       -0.0780872 0.12941247 0.06362793 -0.05373593
000120 d8 d2 cb 3c bb 32 b6 bd 99 25 eb 3c 6d 0a f0 3d
       0.024880812 -0.08896395 0.028704451 0.117207386
000130 08 bf 87 bd 77 3b ca bd f1 a6 2a 3d e0 9d d7 3c
       -0.06628233 -0.09874623 0.041663114 0.026320398
000140 dc cd 91 3d 54 5a 2a 3d af 60 b1 3d 34 e1 51 3e
       0.07119343 0.04159005 0.08661019 0.20496064
000150 dd 08 03 3d be 0c 36 bd 5f 65 76 bd c7 c0 a7 3d
       0.031990875 -0.044445746 -0.06015527 0.08191066
000160 12 b9 04 bb fb 32 cc bd 35 56 34 3e 82 02 8a bd
       -0.0020251912 -0.09970661 0.1761101 -0.067387596
000170 e8 af 97 3d 7f e9 e1 3d 16 26 35 3e b6 75 86 3c
       0.07406598 0.11030864 0.1769031 0.01641355
000180 4e 19 27 3d 71 ac bc 3c 32 bf 4c bb 7f 7c 5a bd
       0.040795617 0.023031445 -0.003124189 -0.053341385
000190 1a ba 0e 3e 0a b0 bd bd 72 73 0c 3d 39 b9 d2 bc
       0.1393818 -0.092620924 0.034289785 -0.025723087
0001a0 ce ed f1 3c 39 4a 83 bd 89 a3 a6 3d b7 68 85 bd
       0.02953234 -0.06410641 0.081366606 -0.065141134
0001b0 8a 9d bf bc d3 c8 8c 3d 73 c8 b4 3d f8 d4 c1 3d
       -0.02339055 0.06874242 0.08827295 0.09464449
0001c0 c6 67 26 bd 4d fe 55 3d c4 e9 a2 3c c0 7e e0 3d
       -0.04062631 0.052244473 0.019886859 0.10961676
0001d0 85 98 c8 bc f7 b8 47 3b cb 5a 22 bc de f8 8e bd
       -0.02448679 0.0030475238 -0.009909342 -0.069810614
0001e0 2d ae cb 3c 1a c7 2c bd 77 e1 04 3d e2 60 80 3d
       0.024863327 -0.042182066 0.032441583 0.06268479
0001f0 be b5 36 3c f8 9e 1d bd ae 48 c4 3c 25 9f 25 bc
       0.011151729 -0.038481683 0.023960438 -0.010108744
000200 71 41 da 3c d4 6f 07 3c d1 df b8 3d df df 4b bc
       0.026642533 0.008266408 0.090270646 -0.012443512
000210 40 c5 dd 3d fc d7 63 3d 31 35 14 3e 04 3e d8 bb
       0.10828638 0.0556259 0.14473416 -0.0065991897
000220 41 14 72 bc 7d 58 aa 3d c7 b6 c5 3d 07 6b 93 3a
       -0.014775337 0.08317659 0.09654003 0.0011247107
000230 83 3e 0f 3c 7d 47 80 bd 7c 5a dc bd 2b f0 f0 3d
       0.008742931 -0.06263635 -0.10759446 0.117645584
000240 a6 e4 d4 bd 2d 41 6f bd 1b 14 4b bd 43 1f 25 3e
       -0.10395174 -0.058411766 -0.04957972 0.16125207
000250 23 e2 0c bd 4b 99 6a 3c 64 59 8c bd 84 6c 25 bc
       -0.03439535 0.014318774 -0.068529874 -0.010096673
000260 d3 b2 2c 3d d4 7e da 3d cc d8 3d bd fa 76 85 bd
       0.042162728 0.10668722 -0.04634933 -0.065168336
000270 92 bd 29 3e 8a 9d e5 bd 29 87 87 3d bc 47 4d 3d
       0.16576222 -0.11211689 0.06617577 0.05011724
000280 96 f2 3f 3d 59 30 28 3d 69 8d 24 3d af 34 3f 3d
       0.046862207 0.041061733 0.04017392 0.046681102
000290 d8 09 3f 3e 40 24 b8 3d 28 9d 00 3d 22 69 d2 3d
       0.18656099 0.08991289 0.031399876 0.10273959
0002a0 a0 93 af bd fb fd b1 bd a9 9b 41 bd 4a 6f 65 bc
       -0.08573079 -0.08691021 -0.04726759 -0.014003584
0002b0 d8 c1 2c 3d 2f d0 7a 3d 90 03 a0 bd cf d6 62 bb
       0.04217705 0.061233696 -0.078131795 -0.00346129
0002c0 9d 83 24 bd 98 6b 3a bb 70 ea c0 3d ab 87 81 bd
       -0.04016458 -0.0028445479 0.094197154 -0.06324705
0002d0 6b a6 0b 3d dc c1 04 3e 2a 6b a6 3d 13 30 84 bc
       0.034094255 0.12964576 0.08125909 -0.016136205
0002e0 b0 15 5f 3c 56 ff 62 bc 8f 7f 87 bc 00 bc 4d bd
       0.013616011 -0.013854822 -0.016540317 -0.05022812
0002f0 4c 64 83 bd 5f 8b 36 bc ba 98 c3 bc bf 93 5b 3d
       -0.064156145 -0.011141627 -0.023876537 0.0536077
000300 df c2 c0 ba 6a f0 aa bd 09 c1 3a bd fd 18 a2 bd
       -0.0014706514 -0.083466366 -0.04559425 -0.079149224
000310 08 09 d0 3c 20 89 1d bd 23 71 8a 3d 7c c4 d8 3d
       0.025394931 -0.03846085 0.0675986 0.105843514
000320 b7 ac af 3d 83 74 12 3d 30 99 94 3d 69 ad 69 bd
       0.085778646 0.035755645 0.07255781 -0.057050142
000330 c3 4f 00 3d 91 d0 6c 3d 56 8f 02 be 53 dd 3d 3d
       0.031326067 0.057816092 -0.12749991 0.04635365
000340 6c 7c 97 3d 19 20 9a bc 06 34 bb 3d 27 d1 97 bd
       0.073967785 -0.018814133 0.09140782 -0.074129395
000350 94 5c 12 be 3c 29 aa 3d 1d af ac bd dd bd 5c 3d
       -0.14293128 0.08308646 -0.08431838 0.053892005
000360 2b 02 4c 3d 17 3b 47 bb 45 28 40 bd 68 78 f5 bd
       0.049806755 -0.003040021 -0.046913404 -0.11985856
000370 d9 74 2d 3e bd 6a de 39 06 55 1f 3e 1e d9 d1 bc
       0.16939105 0.00042422666 0.15559778 -0.025616225
000380 d8 dc d8 bc af d9 80 bd f2 d5 99 3d 03 73 4d bd
       -0.026472494 -0.0629152 0.0751151 -0.05015851
000390 a3 4c 2a bd 20 b6 80 3d 01 f9 5c 3c 2c 1f 99 3d
       -0.041576993 0.062847376 0.0134871015 0.07476649
0003a0 d0 ba dc bd 80 91 a6 bd 8b f5 20 3d fa d7 dc 3c
       -0.10777819 -0.08133221 0.039296668 0.026958454
0003b0 a6 6f 49 3d 3f 88 cf 3c d6 29 22 3d 77 de ac bc
       0.049178742 0.025333522 0.03959068 -0.021102173
0003c0 6f 2d 8b 39 a9 39 4e bd f7 7d 50 bd f0 67 9f 3d
       0.00026545997 -0.050347958 -0.05090138 0.077834964
0003d0 88 ab 18 3c 35 37 0e 3e 04 e1 8e 3d 78 1c 95 3c
       0.00931824 0.13888247 0.06976512 0.018202052
0003e0 08 aa a8 bd 51 b0 3a bd 06 de 89 3c 17 f5 9e 3d
       -0.08235556 -0.045578305 0.016829502 0.07761591
0003f0 90 a9 ce 3b c2 86 2a bd 77 c4 4c 3d 05 50 89 bb
       0.0063068345 -0.04163242 0.04999205 -0.0041904473

encoder.convs.0.edge_mlp.2.bias f4 [128]
000000 f9 bd bc 3c ac 22 8b bd ba e8 e3 3a ee 43 ef 3c
       0.023039805 -0.067937225 0.0017388084 0.029207196
000010 ba bf ca bc 8b 74 e7 3c 03 bb 78 bc d9 8b a4 bd
       -0.024749625 0.028253814 -0.015181306 -0.08034486
000020 0a e1 8c bd 16 ac 92 bb 15 72 82 bd df 99 91 3d
       -0.0687886 -0.0044760806 -0.06369416 0.07109427
000030 a7 0f fb 3c 38 f8 a9 3d c9 49 9b bb b4 15 4d 3d
       0.030647112 0.08299297 -0.0047390205 0.050069526
000040 7b a2 8a bd 11 00 fa 3c 9f d8 0d 3d 62 55 8c 3c
       -0.06769272 0.03051761 0.034630414 0.017130557
000050 c2 54 4b bd 12 8f 00 bd 96 fd 0f bd 06 8d 8c 3d
       -0.04964138 -0.031386442 -0.035153948 0.068628356
000060 38 f5 b7 3c cf 78 ea bc 4e 43 de bc 78 c9 15 ba
       0.022455797 -0.02862206 -0.027131703 -0.000571392
000070 e0 08 84 3c f5 c8 97 3d a1 b2 27 3d 2b 5c 86 3d
       0.016117513 0.074113764 0.04094184 0.065605484
000080 13 82 f4 bc da de 9a 3c 36 ce 79 3d c5 bd 71 3d
       -0.02984718 0.018905092 0.060987674 0.05901887
000090 8c 61 bd 3b f7 f6 98 3d 76 92 29 bd 47 74 8f bd
       0.0057794508 0.0746898 -0.04139944 -0.070046
0000a0 93 7d a4 3c b4 bb 10 3d f9 98 43 3d 1e b5 87 bd
       0.02007941 0.035335258 0.047753308 -0.06626342
0000b0 d7 10 9f 3d 8b e6 90 bd 19 69 58 3d 44 40 d4 bc
       0.07766884 -0.070752226 0.052834604 -0.02590955
0000c0 2e 20 b6 3d 79 6a 41 3d ed 74 40 3d ae 46 3e bb
       0.088928565 0.04722068 0.04698651 -0.0029033828
0000d0 de 65 a1 bd 50 f0 75 bd 1b 6b 8e bd f2 d3 84 bc
       -0.07880758 -0.060043633 -0.069540225 -0.016214345
0000e0 1e 99 09 bd b5 e3 85 3c 07 ee 81 bd 47 70 75 bd
       -0.03359329 0.01634393 -0.06344228 -0.05992153
0000f0 4f ca 19 bc a6 1f 64 bc 3b 36 c8 bc 2d ab 91 bd
       -0.009386613 -0.013923561 -0.024439922 -0.07112727
000100 bd 2a 87 bd 7a ec 83 bd b6 2e 22 bd d3 d0 dc bc
       -0.065999486 -0.06441589 -0.03959533 -0.026955044
000110 f8 fe 83 bd a6 a3 85 bd 2e 38 da bc 26 78 8a 3d
       -0.06445116 -0.06525354 -0.026638117 0.06761198
000120 96 85 71 3d e0 74 d1 bc 1e 43 59 bd cd 8c 34 3c
       0.058965288 -0.025568426 -0.053042524 0.011019898
000130 33 d4 9c bd a8 fb 96 bd 6c 8d a4 ba a5 4e a8 3c
       -0.07657661 -0.07372218 -0.0012554354 0.020545313
000140 4e 2c 0c bd dc ba 4b bc db 93 1a 3c d5 be 92 bc
       -0.03422194 -0.012434687 0.009434666 -0.017913261
000150 c9 bf d5 3c 42 e4 8e 3c f3 43 38 bd 18 45 a8 bb
       0.026092427 0.017442826 -0.044986676 -0.0051351897
000160 76 19 9e bd 44 77 41 bd fe 3d b4 bd 8d 55 4c bd
       -0.077197 -0.04723288 -0.088008866 -0.049886275
000170 37 8a 20 bd ea 8c 56 3b a4 c3 34 bc f3 7a a4 3b
       -0.039194312 0.00327378 -0.0110329725 0.0050195395
000180 22 54 5c 3d 42 f3 8f 3c 4a 19 a2 3b 8b 08 e3 3c
       0.053791173 0.017572049 0.0049468623 0.027714035
000190 40 ab 67 bd 62 df 19 3b a0 43 3c 3c 48 9f 72 3d
       -0.0565598 0.0023479094 0.011490732 0.059233934
0001a0 43 3a a5 3d 2b 10 99 bd fd 88 a3 3c 31 f8 93 3d
       0.08067753 -0.07473787 0.019962782 0.07225073
0001b0 0b 25 af 3c e2 a4 80 bd 53 a0 72 3d 71 5f 8a bd
       0.021379968 -0.06281449 0.05923493 -0.06756485
0001c0 fb a9 8d bd b1 5c 7d bd ab 0c 87 3d 09 17 ac 3d
       -0.06917187 -0.061855976 0.06594213 0.08402831
0001d0 c7 78 dd bc 79 5a f8 3c 6f 49 ae 3c fc 90 ae bd
       -0.02703513 0.030316578 0.02127525 -0.08523747
0001e0 93 2c 39 bd 3a d0 08 bd 6f 25 16 3a 81 3e a9 bc
       -0.045208525 -0.033401705 0.0005727624 -0.020659687
0001f0 f4 18 37 3d 3e 46 58 bd 4b 03 05 bd 8a 13 57 bb
       0.04470153 -0.052801363 -0.032473844 -0.0032818043

encoder.convs.0.norm.weight f4 [128]
000000 21 1f 6d 3f c8 4c 6f 3f e1 95 70 3f 81 cb 75 3f
       0.92625624 0.93476534 0.939787 0.9601365
000010 70 fe 6f 3f 29 74 6e 3f 27 43 6c 3f 38 e6 6d 3f
       0.93747616 0.93145996 0.92289966 0.9292941
000020 f0 56 6f 3f a0 b5 6c 3f af 80 68 3f 3b 47 6d 3f
       0.9349203 0.9246464 0.90821356 0.92686814
000030 14 33 6a 3f 98 cf 75 3f 2f cf 70 3f fb d3 6d 3f
       0.9148419 0.9601989 0.9406614 0.9290158
000040 3f 68 70 3f 80 12 7b 3f 17 60 70 3f 6a 2a 6e 3f
       0.93909067 0.98075104 0.9389662 0.9303347
000050 bd ab 6a 3f 4b 77 6e 3f 53 e0 6a 3f 8b 84 6c 3f
       0.916683 0.93150777 0.9174854 0.92389745
000060 6f 3f 6d 3f 9b 5c 6e 3f 99 4c 6b 3f d3 dd 6b 3f
       0.92674917 0.93110055 0.91913754 0.9213535
000070 d9 48 68 3f 43 96 81 3f 84 3c 6f 3f 44 d8 6d 3f
       0.90736157 1.0123981 0.93451715 0.9290812
000080 89 9b 66 3f bf d5 6c 3f 4d d1 6e 3f be 1e 72 3f
       0.9008108 0.9251365 0.9328812 0.9457816
000090 b9 1e 6c 3f 7d 87 6c 3f 24 8a 6e 3f 99 8f 6d 3f
       0.9223438 0.9239424 0.93179536 0.9279724
0000a0 e0 a0 70 3f c4 61 6e 3f 77 fb 6d 3f 10 5c 6a 3f
       0.93995476 0.9311793 0.9296183 0.91546726
0000b0 90 c5 6e 3f 21 71 75 3f c3 cf 6d 3f fe 2e 6b 3f
       0.93270206 0.95875746 0.92895144 0.9186858
0000c0 aa 75 6b 3f 53 61 71 3f ea d1 72 3f ca da 70 3f
       0.91976416 0.9428913 0.94851553 0.94083846
0000d0 71 74 65 3f f9 78 73 3f ea 1d 70 3f 99 10 70 3f
       0.896308 0.95106465 0.93795645 0.93775326
0000e0 57 c7 84 3f 03 76 70 3f 2f 62 6b 3f da c1 70 3f
       1.0373334 0.9393007 0.9194669 0.94045794
0000f0 aa c4 68 3f 8f 6d 6f 3f f4 75 6b 3f fd be 71 3f
       0.90925086 0.9352655 0.9197686 0.9443205
000100 d6 12 70 3f c7 f5 71 3f e7 69 75 3f ad f0 6e 3f
       0.9377874 0.9451565 0.9586472 0.9333599
000110 7e 60 72 3f 05 2e 6c 3f 19 d9 6d 3f 67 13 78 3f
       0.94678485 0.9225772 0.9290939 0.96904606
000120 66 d1 70 3f 8d 8a 6d 3f 13 59 6b 3f 7c 58 6e 3f
       0.94069517 0.92789537 0.9193279 0.93103766
000130 b6 65 6e 3f bb f3 6b 3f 22 d8 6e 3f 9c 34 6d 3f
       0.9312395 0.9216878 0.9329854 0.926584
000140 f2 ef 6f 3f 38 6a 6f 3f 3e 13 6a 3f 01 7b 6f 3f
       0.937255 0.9352145 0.9143561 0.93547064
000150 a1 a9 75 3f f9 49 6e 3f 07 fd 6c 3f 0f f5 76 3f
       0.9596196 0.93081623 0.9257359 0.9646768
000160 c8 e4 6d 3f b2 66 6d 3f 41 3c 6c 3f 10 3f 78 3f
       0.9292722 0.92734826 0.9227944 0.96971226
000170 a8 5a 68 3f 67 d4 6e 3f d3 09 69 3f 45 ab 6f 3f
       0.9076333 0.9329285 0.91030616 0.9362071
000180 8e 9b 7b 3f 89 6e 70 3f 6d 92 6e 3f 50 12 6c 3f
       0.9828423 0.93918663 0.9319218 0.9221544
000190 cf fe 6d 3f 6d de 68 3f 33 1a 71 3f a5 84 6a 3f
       0.9296693 0.90964395 0.941806 0.9160865
0001a0 02 ec 6e 3f 40 6d 72 3f 68 bb 6e 3f 8e 7f 6b 3f
       0.9332887 0.9469795 0.9325471 0.9199151
0001b0 82 b1 6a 3f 4a e0 6d 3f ac cd 71 3f 62 5f 79 3f
       0.91677105 0.9292036 0.94454455 0.9741117
0001c0 ce 62 6f 3f cb 92 6d 3f 2c eb 6b 3f ad fb 6c 3f
       0.9351014 0.92802113 0.9215572 0.92571527
0001d0 ad 7d 73 3f 24 4e 64 3f 22 bf 6a 3f c4 f5 6e 3f
       0.9511364 0.89181733 0.91697896 0.9334376
0001e0 74 9b 6b 3f 72 4a 6e 3f f4 68 7a 3f 37 ba 6f 3f
       0.9203408 0.93082345 0.97816396 0.93643516
0001f0 f4 a6 6b 3f 41 c7 7a 3f 5b d7 6e 3f 10 46 74 3f
       0.92051625 0.9796029 0.93297356 0.95419407

encoder.convs.0.norm.bias f4 [128]
000000 ea b3 45 3d c9 9f 0f bd 8a dc 1a 3c fa a2 16 3d
       0.048267283 -0.035064492 0.009451995 0.03677652
000010 1c 9d 2e bd 17 52 bc 3d 44 2d ce 3c 7d 5b 95 bc
       -0.0426303 0.09195345 0.025168069 -0.018232102
000020 1b 66 9e 3c ce 8b d6 bc e5 5c d9 bc 04 7a 51 3d
       0.019335797 -0.026189711 -0.026533553 0.051141754
000030 08 64 92 3d 18 e3 23 3d 4c f6 66 3c db d4 b4 bc
       0.07147986 0.040011495 0.014096808 -0.022074154
000040 22 5b dc bd e2 58 70 bc 1e 63 3d bd ad 71 05 3d
       -0.1075957 -0.014669629 -0.046237104 0.032579113
000050 9a ed c9 bc 07 fc 14 3c f3 fd 1a bc 7d a9 38 3d
       -0.02464943 0.009093291 -0.00945996 0.04508351
000060 4e ae 17 3d 3c 8b 3c 3c 4d fa 10 3c f0 d6 db 3c
       0.037031464 0.011507805 0.008848739 0.026835889
000070 2a 60 ff 3a 09 09 95 3c 4d c6 69 3d 31 31 68 b9
       0.0019483615 0.018192785 0.05707388 -0.0002214357
000080 94 b4 09 bc a9 19 3c 3d 3e 73 0f 3e 7f c2 df bb
       -0.00840487 0.04592291 0.14008805 -0.0068286057
000090 95 6c e0 bb 5e 46 09 bc 81 80 22 3d 85 74 02 3d
       -0.0068488815 -0.008378593 0.039673332 0.031849403
0000a0 d6 44 08 3d bd bf 09 3e e8 08 7b bc a2 a3 13 bd
       0.033268772 0.13452049 -0.015321948 -0.036044724
0000b0 6f ce b1 bc 08 fb 7e bd 42 13 72 ba 95 0f 64 bc
       -0.02170488 -0.06225112 -0.0009234437 -0.013919731
0000c0 9a 04 f4 bc 75 a4 2c ba 7d 33 46 3d 08 92 4e bd
       -0.02978735 -0.00065857853 0.048388947 -0.050432235
0000d0 90 21 9e 3b 61 eb e8 bb 0e 7c b1 3c af 3a 7e bd
       0.0048257783 -0.0071081375 0.0216656 -0.062067684
0000e0 e4 38 f2 3b ee 22 71 bd 12 fd b8 3b dc 78 14 3b
       0.007392036 -0.058871202 0.0056454027 0.0022655046
0000f0 4f 63 9e 3d 0b d8 53 bb 6b 32 16 bd a8 c3 d9 bc
       0.07733785 -0.0032324817 -0.036669176 -0.026582554
000100 65 aa 25 3b 09 33 8e bb 03 3c af 3b 97 4a 97 bd
       0.0025278565 -0.00433958 0.00534773 -0.07387274
000110 e1 69 d2 bc 92 74 83 3c cb 61 09 3d 36 f4 95 3b
       -0.025685253 0.016046796 0.03354053 0.0045762314
000120 03 24 bf 3c 8c 6e 5d 3d c7 dc a6 bc 67 73 84 3a
       0.023332601 0.054060504 -0.020368947 0.0010105193
000130 64 38 eb 3b bd d4 7a bd 6a 3f 30 bc ff 8a 28 bc
       0.007178353 -0.06123804 -0.010757307 -0.0102870455
000140 f0 32 f2 bd a8 fe 90 3d 80 e4 58 3d bd bd 9c 3c
       -0.11826122 0.07079822 0.05295229 0.019133443
000150 b1 ce 3f 3e 7b 78 71 bc 47 5d 46 3c 4d 63 f5 3c
       0.1873119 -0.014738197 0.0121072 0.029954577
000160 6f d4 18 3d 43 77 b9 bc f1 97 11 3d 45 45 31 3c
       0.037311967 -0.022639876 0.035545293 0.010819738
000170 9b 94 89 bd cc 9d 37 bd 8f 7e a3 3d 2e e4 f8 39
       -0.06717797 -0.04482822 0.079831235 0.00047472253
000180 0a 65 c2 3b 02 17 a6 bc d8 99 8d 3c b7 09 59 bb
       0.005932455 -0.020274643 0.017285272 -0.0033117363
000190 ce 4d 0f bc 11 44 7d bd b5 42 9b 3d 88 cf 40 3b
       -0.008746577 -0.06183249 0.07581083 0.0029420573
0001a0 72 aa d0 bc e5 0b 9f 3c 2b ee cc bb c6 b6 41 3d
       -0.0254719 0.019414851 -0.006253978 0.047293447
0001b0 0f ec fa 3b 87 88 d9 bb 6e a2 b5 3b 20 36 50 b9
       0.007657535 -0.00663859 0.005543045 -0.00019856589
0001c0 d2 0b 6a bc 35 71 a7 bc 5f 11 8b bd 95 26 85 bd
       -0.014285045 -0.020439724 -0.06790423 -0.065014996
0001d0 ea c5 73 3c ac cf c9 bd ab 40 1e 3d 78 9b 14 3d
       0.014878729 -0.098540634 0.03863589 0.03628108
0001e0 15 8e 98 bd 54 9e 32 bd c5 b3 2c 3d 5c ed cc bd
       -0.07448975 -0.043608025 0.04216363 -0.1000621
0001f0 a9 9a 61 3c 4d af 9b bd f9 54 98 bc ad 81 26 bb
       0.013769784 -0.07601795 -0.018595206 -0.0025406883

encoder.convs.0.norm.mean_scale f4 [128]
000000 52 85 6e 3f d5 f8 6b 3f 83 f1 66 3f 01 4b 84 3f
       0.9317218 0.9217656 0.9021227 1.0335389
000010 e7 0d 7e 3f e2 22 6f 3f 35 74 79 3f 3c 38 6f 3f
       0.99239963 0.934126 0.9744294 0.9344518
000020 6a 0f 79 3f a1 e2 6a 3f 3e bf 72 3f 02 00 81 3f
       0.97289145 0.9175206 0.9482306 1.0078127
000030 b5 b8 85 3f 96 35 80 3f 8e c8 6c 3f a8 1f 7f 3f
       1.0446993 1.0016353 0.9249352 0.9965768
000040 b2 9c 8e 3f 08 dd 62 3f 37 f0 82 3f 55 dd 83 3f
       1.114157 0.88618517 1.0229558 1.030192
000050 79 3c 79 3f f0 77 68 3f 16 21 85 3f 55 d4 83 3f
       0.973579 0.9080801 1.0400722 1.0299174
000060 7d 07 7c 3f bf ce 82 3f fd 88 75 3f 9c 6d 74 3f
       0.98448926 1.0219344 0.9591215 0.9547975
000070 51 66 70 3f b6 90 66 3f 99 0e 7e 3f 33 68 84 3f
       0.9390612 0.9006456 0.99241024 1.0344299
000080 7c a6 6e 3f 65 81 7b 3f 00 0f 8b 3f f8 30 61 3f
       0.93222785 0.98244315 1.0863953 0.87965345
000090 44 8a 76 3f 6c 56 82 3f 1e 8b 75 3f 97 5f 81 3f
       0.96304727 1.0182624 0.959154 1.0107297
0000a0 5f e3 83 3f 6e 17 8e 3f 64 84 71 3f 34 e1 82 3f
       1.0303763 1.11009 0.9434264 1.0224977
0000b0 da e9 67 3f 77 cf 8d 3f 08 05 6f 3f ef 41 79 3f
       0.90591204 1.1078938 0.9336705 0.9736623
0000c0 ff 4c 74 3f e1 91 71 3f 72 75 7c 3f bb 3b 7d 3f
       0.95429987 0.9436322 0.9861671 0.98919266
0000d0 a0 0a 7a 3f 65 08 82 3f 55 e0 7d 3f e9 75 80 3f
       0.9767246 1.0158812 0.9917043 1.0035983
0000e0 88 be 3f 3f fd c7 73 3f 80 1f 7c 3f 34 e6 6b 3f
       0.749001 0.9522703 0.98485565 0.9214814
0000f0 6a 43 89 3f ab 0b 60 3f 2f 3d 83 3f 91 04 6f 3f
       1.0723698 0.87517804 1.0253047 0.9336634
000100 c5 98 6e 3f 83 ad 60 3f 2c 87 65 3f 23 78 82 3f
       0.9320186 0.8776476 0.8965938 1.0192913
000110 c7 19 73 3f 5e fd 76 3f 2b 33 81 3f 9e 60 76 3f
       0.9496121 0.9648036 1.009374 0.96241176
000120 d3 ba 73 3f d2 07 75 3f 4e 1b 74 3f 30 8c 73 3f
       0.95206946 0.9571506 0.95354164 0.95135784
000130 49 6e 65 3f b3 a8 7c 3f e5 b9 71 3f 06 7b 65 3f
       0.89621407 0.98694915 0.9442428 0.89640844
000140 a6 9f 81 3f 3c 23 80 3f ae 31 78 3f 6f fb 6f 3f
       1.0126846 1.0010753 0.96950805 0.9374303
000150 05 8f 7f 3f 41 6d 78 3f 97 37 82 3f 6d 40 79 3f
       0.99827605 0.9704171 1.0173215 0.9736393
000160 9a e2 7c 3f 55 b4 71 3f 6d 3a 87 3f 41 59 52 3f
       0.98783267 0.9441579 1.0564705 0.8216744
000170 a4 d8 83 3f e7 c1 85 3f 78 9c 88 3f e3 e5 77 3f
       1.0300488 1.0449799 1.067275 0.96835154
000180 fd c5 9b 3f 39 9b 72 3f 1d b1 76 3f 82 53 76 3f
       1.2169796 0.947681 0.96364003 0.9622117
000190 67 34 7d 3f 27 45 88 3f 06 a2 7b 3f 68 a7 85 3f
       0.98908085 1.0646104 0.98294103 1.0441713
0001a0 08 11 7b 3f 4e c0 5e 3f 74 12 72 3f 3a ee 82 3f
       0.9807286 0.87012184 0.9455941 1.0228951
0001b0 fc 4d 75 3f 59 f0 6e 3f 5e 66 7c 3f 61 0d 68 3f
       0.9582212 0.9333549 0.985937 0.90645415
0001c0 58 d5 85 3f 7e 20 70 3f 09 82 83 3f cb 13 75 3f
       1.0455732 0.9379958 1.0274059 0.95733327
0001d0 6b 1f 5d 3f 75 1e 88 3f 64 8c 7d 3f c0 58 80 3f
       0.86376065 1.0634295 0.99042344 1.0027084
0001e0 bd 47 83 3f c2 05 80 3f 6a 7d 6a 3f e0 84 89 3f
       1.0256268 1.0001757 0.91597617 1.0743675
0001f0 f8 35 7c 3f 6e a1 50 3f 1d 53 80 3f 77 75 6d 3f
       0.9851985 0.8149632 1.0025364 0.9275736
