checkpoints/model_D_epoch_49.pth (torch, 552443 bytes, 27 tensors)

encoder.node_embedding.weight f4 [1, 128]
00000000: fefe df3f 66f4 ab3f fe74 433f b8a0 f5bf
00000010: 52a7 113f 8efb 8ebf 3435 bbb9 eb67 b9bf
00000020: af2c 28bf 6e23 bd3f bdc4 a4be eafb a2bf
00000030: cb48 1bbf fd57 e9be 0331 29bf ca30 293f
00000040: d841 bd3f 0955 cdbd 8a65 d2be 1804 b73e
00000050: 6e6d 21bf b1d0 703f 8761 353f 96c7 c53f
00000060: e19c 933f 2da1 923f cf8d 0a3f 85e6 973f
00000070: 3442 19be e250 0eb7 f49c 32be 09ac 3d3f
00000080: c081 9ebf 6d80 41bf 0291 24be 46b4 c73f
00000090: cb73 5e3e b135 b8be f5ea 573e 9ae2 27bf
000000a0: 81a6 b2bf a1c6 633f 7e49 45bf 5909 0abf
000000b0: 8522 93bf dedd f93f 55a8 8bbf 3c50 d2be
000000c0: f167 4ebf d2ce 06bf 6735 083d aec8 df3e
000000d0: 2ec8 d0be 5ed8 863f 8043 2bbf 1d92 22bf
000000e0: c5c2 a4bf f549 92ba 49d3 56bb b2b8 173f
000000f0: e93a 0fbd 1b02 d83f 591a 87bf 0460 a03f
00000100: 750b a43f d453 3d3f cf22 0240 323f d43e
00000110: 9013 853e eec6 fdbd 2005 68bf 8edd 913f
00000120: 850d d2bd 1272 d63e e6fb 37b9 b1f5 ae3e
00000130: 0664 003f 1c7a 0bbf 8e00 01c0 2a24 22bf
00000140: 50d8 a3b8 d7e0 85be 5096 9bbf 87f8 ffbe
00000150: 169a e03e 5516 d33e 336e 813f 380e b93a
00000160: 6402 213f e4bd babe 3207 6dbf 42ed 033f
00000170: 034e c7bf 4086 3bbf cc47 993f ff7d cf3e
00000180: 7ba7 16c0 842b cb3e 2a28 303f 1377 c83a
00000190: f71b 0c3f 9301 f73e 5bc3 633f cbd1 c6be
000001a0: b5a0 bebd 2379 263f 970e a43e 7bd2 a63d
000001b0: d268 423e 8d15 913f 27c7 5a3a 078c 64be
000001c0: 143c a9bf 7fe2 60bd e397 febe 6ad8 c83e
000001d0: a169 203f 18c5 593d 9e20 97be 6ed9 e13e
000001e0: bd30 a73a 5d8e 1b3e 086d 8d3d 4486 2b3f
000001f0: d208 803f 17ee 653e 1a5e 1e3f 34c3 a53e
1.7499692 1.343396 0.7635039 -1.9189672 0.56895936 -1.1170518 -0.0003570706 -1.4484838
-0.6569318 1.4776437 -0.3218135 -1.2733128 -0.6065795 -0.45574942 -0.6609041 0.6609007
1.4785719 -0.10025985 -0.41093093 0.3574531 -0.630576 0.9406844 0.7085194 1.5451534
1.1532251 1.1455437 0.5412263 1.1867224 -0.1496666 -8.482692e-06 -0.17442685 0.7409063
-1.2383347 -0.7558659 -0.16070941 1.560189 0.21723859 -0.35978463 0.21085723 -0.6558014
-1.3957063 0.8897496 -0.77065265 -0.53920513 -1.149491 1.9520833 -1.0910746 -0.4107684
-0.8062735 -0.5265933 0.033254053 0.43707794 -0.40777725 1.053478 -0.6689987 -0.635042
-1.2871939 -0.0011160957 -0.0032779744 0.592662 -0.03496829 1.6875643 -1.0554916 1.2529302
1.2815996 0.73956037 2.0333745 0.41454464 0.25991488 -0.123914585 -0.9063282 1.1395738
-0.10256485 0.41883904 -0.0001754608 0.34171823 0.50152624 -0.544832 -2.0156589 -0.6333643
-7.812737e-05 -0.26148102 -1.2155247 -0.499943 0.43867558 0.41227975 1.0111755 0.0014118617
0.6289427 -0.36473 -0.92589104 0.515339 -1.5570682 -0.73251724 1.1975036 0.40525815
-2.3539722 0.39681637 0.68811285 0.0015294276 0.5473017 0.4824339 0.88969964 -0.38831934
-0.09307996 0.6502859 0.3204238 0.08145615 0.18985298 1.1334702 0.0008345716 -0.22319041
-1.3221459 -0.054903504 -0.49725255 0.3922761 0.62661177 0.05316648 -0.29517072 0.44111198
0.0012755614 0.15191026 0.06905562 0.6700175 1.0002692 0.22454105 0.6186234 0.3237549

encoder.convs.0.node_mlp.weight f4 [128, 256]
00000000: 8a47 3b3d f223 76bc be4d 403d bd3d b13c
00000010: f632 59bd 6cf8 333d 627f 43bc 5128 9cbc
00000020: 7631 39bd 3852 7cbd 0e6e a53c 03ab 19bc
00000030: 69a7 d63c c07a 36bd f942 403d 9e20 3ebd
00000040: 3c23 5dbc 33f0 803c 58ce 093d a08d 333d
00000050: ffa3 683d 5a20 4cbd fb2f 393c b209 eabc
00000060: b1a5 20bc ac8c 41bd 3f89 4c3d bb18 3ebd
00000070: 29e3 0d3d 2a46 283c fc46 b83c b49e 0fbd
00000080: d3e5 673d 5e57 853c 8db1 333c d321 61bd
00000090: 28c5 ab3c 236a b4bb b0cd f8bc 006d 5c3d
000000a0: 10ac 863c 4f9a 12bd acec d6bc 1ece 1a3a
000000b0: 71d6 133d f240 96bc 7197 f5bc d30a 88bc
000000c0: 9d4f 25bd 38b8 c73c bdfb 2a3d b2b7 6fbd
000000d0: 522d 8b3c 10df db3c e3fd 653c 08c2 8ebc
000000e0: ca0d 0b3d cef8 393d 0401 d53c ad21 60bc
000000f0: 8bb9 4bbc cf01 3e3b a426 e3bb e1be aabc
00000100: aa56 0b3d 7125 403d cb33 16bc 8f80 87bc
00000110: dc89 2cbb 5f0d 09b9 9056 8f3c 24d8 543c
00000120: 773c 4cbd 24f8 ccbc 5e3c 0f3d 9a13 9f3c
00000130: bb6c cebb 45a3 02bd 1dff 04bd d0bd 48bd
00000140: d0fa 27bb ee70 be3c 9cbb 263d 499b f93c
00000150: 410b 62bd 6c56 1ebd 8e01 4fbc 1001 8c3d
00000160: f8df a33b e7d0 3fbc 092a e23c 0443 d3bc
00000170: 6744 0dbd 74f3 3c3d 8ae6 f5bc a1d0 78bc
00000180: 0f8f 60bd 226d 123d 0597 273d 3437 ea3a
00000190: 8a55 35bd 04c8 7abd a9bf 50bd 9200 413d
000001a0: 1d11 023d ceca 3b3d 5a62 de3c 8ebc 393c
000001b0: 2d25 86bb a75c 44bd 57c9 89bc a9e5 51bd
000001c0: 29f0 df3c 088d cebc 17c7 08bc 7de7 17bd
000001d0: c42c 67bc 432e 35bd 733d 0ebd bbd1 823c
000001e0: 6104 a3bb ab24 053d 6158 b6bc 1d0c 3ebd
000001f0: 5cf3 60bc f43b 02bd 5a69 aebc d745 72bd
00000200: fbc3 063c 30f8 fb3b 861b 6a3d 4c7f 363d
00000210: c163 fe3c 4d2b b4bd 9427 c13d a76c c83c
00000220: bcae 18bd dc4a 5c3d 8381 0139 41bb 393d
00000230: 9c58 82bc 498a b8bd ac2c a83d 9f11 47bd
00000240: 6bf0 b73d 90b0 6d3c dd8d 9fbc a1ca e63c
00000250: c352 b3bb eb0e fd3c d2b3 e13c 5b84 15be
00000260: be30 b9bc 6d93 e9bc 509b 9a3d de4e 2ebd
00000270: c406 a5bd 3d45 cc3c 3797 a9bd 44d4 a63d
00000280: b2e0 a13d 425f 7c3d 4eb3 3abd a990 043c
00000290: 8b04 8abd 4eca 32bd 023a 533d 4373 c53d
000002a0: 8dca fdbb 31d4 2f3d e95b 25bd be52 4ebd
000002b0: 0268 9c3d 4ff9 4fbd 2585 2b3d 50cd e2bd
000002c0: 2ced 34bd fd85 513d 79cc 0b3c 4de9 4c3c
000002d0: 3971 3bbd ab4b 37bc 63af 993d 3e49 113d
000002e0: aa3e aebc f411 b5bb a53e 2d3d 0e24 e5bc
000002f0: 2fb1 1b3e 7e1e b03d 93ce 8bbc 5a22 0bbd
00000300: 7844 2abd 49f8 ff3b 84a7 d03b f8b7 003c
00000310: 76f7 4abc dd38 b4bd e22c 34bd 731e a039
00000320: 18f9 40bd 3975 b2bc 5f44 fa3d 7b6e d03d
00000330: 27a2 30bd 7db0 98bd c984 aabc a3c9 1bbc
00000340: 395d ca3d e288 31bd 8ee3 643b 15d4 61bc
00000350: 5903 08bd f13a a6bc f730 3dbc 749a 11bd
00000360: 5ae3 bcbd b2ea 91bc 71c8 a43d aab9 14bd
00000370: d72e 393d 09f5 a03c 41ca 1cbc 0951 4bbd
00000380: a428 30bc 1494 863d 6a2e 98bd 0b16 baba
00000390: 61c8 0b3d b424 163c 715a 23bd f5ab 963d
000003a0: cf21 15bc 5cd3 e6bd eb79 fabc 20a2 4b3d
000003b0: c962 293c e25f 25bd 0d07 51bd 523c f6bc
000003c0: 6604 f8bc 14ed 99bd c654 6e3d 0248 d83c
000003d0: 6e71 923c 3bcb 6f3c 9419 19bc 5cda 1bbd
000003e0: 3a6b 993d 64b8 123e e21d 7e3d 1049 cdbb
000003f0: f7f9 bb3c 2c9b 52bd 1646 643c c85c cd3c
0.04572252 -0.0150232185 0.04694914 0.021635884 -0.053027116 0.043938085 -0.011932226 -0.019062193
-0.045213185 -0.061601847 0.02019408 -0.009379151 0.026202874 -0.044550657 0.04693887 -0.046417825
-0.01349717 0.015739536 0.03364405 0.043836236 0.056797024 -0.04983554 0.011302943 -0.028569076
-0.009805129 -0.047253296 0.049935576 -0.046410304 0.034640465 0.010270635 0.022494785 -0.03506346
0.05661566 0.016277011 0.010967624 -0.054963898 0.020968035 -0.0055058165 -0.030371517 0.053814888
0.016439468 -0.03579169 -0.0262359 0.00059053476 0.03609318 -0.018341515 -0.02997944 -0.016606724
-0.04035913 0.024379835 0.041743983 -0.058524795 0.016989384 0.026839763 0.014037582 -0.017426506
0.033948697 0.045403294 0.02600146 -0.013679904 -0.012434374 0.0028992777 -0.0069320966 -0.020842971
0.034018196 0.046910707 -0.009167622 -0.016540794 -0.0026327288 -0.00013070319 0.01749733 0.012990985
-0.04986235 -0.025020666 0.03496968 0.019418526 -0.006299583 -0.031893987 -0.032469857 -0.049009144
-0.0025631674 0.023247208 0.040706262 0.030469554 -0.055186514 -0.038656637 -0.012634648 0.0683614
0.0050010644 -0.011707521 0.027607935 -0.025788791 -0.03448906 0.046130612 -0.030017156 -0.01518646
-0.05482393 0.03574861 0.040915508 0.0017869235 -0.04427103 -0.061225906 -0.05096403 0.047119685
0.0317546 0.045847706 0.027146507 0.011336459 -0.004093787 -0.047939923 -0.01681964 -0.05124441
0.027336197 -0.025213733 -0.008348248 -0.037086 -0.014109794 -0.04423357 -0.03472657 0.015969148
-0.0049748872 0.032505672 -0.02225894 -0.04639827 -0.013729896 -0.031795457 -0.02129047 -0.059148636
0.008225436 0.0076894984 0.057155155 0.044554994 0.031053426 -0.087973215 0.09431377 0.024465872
-0.037276015 0.05378233 0.00012350646 0.045344595 -0.015911393 -0.09010751 0.082116455 -0.04860079
0.08981403 0.014507428 -0.019476825 0.028172793 -0.0054725125 0.030890903 0.027551565 -0.14601271
-0.02260625 -0.02851268 0.07549155 -0.042555682 -0.08057931 0.02493536 -0.08280795 0.08145955
0.07904185 0.061614282 -0.045581155 0.00809113 -0.06739148 -0.043649964 0.051568992 0.09641125
-0.007745093 0.04292697 -0.040370855 -0.050371878 0.076370254 -0.05077487 0.041875023 -0.110743165
-0.044171497 0.05115317 0.008532637 0.012506795 -0.045762274 -0.011187474 0.075041555 0.03547024
-0.021270115 -0.005525822 0.04229607 -0.027971294 0.15204309 0.08599566 -0.017066276 -0.033968307
-0.041569203 0.0078115803 0.0063676257 0.007856362 -0.012388101 -0.08799908 -0.043988116 0.00030540265
-0.047112554 -0.021784412 0.12220072 0.101773225 -0.04312339 -0.074555375 -0.02081527 -0.009508523
0.09881062 -0.043343432 0.0034925672 -0.013783474 -0.033206318 -0.020291777 -0.011547319 -0.03554769
-0.09223051 -0.017812107 0.08046044 -0.036309876 0.045210686 0.019648092 -0.009569705 -0.049637828
-0.010751877 0.065712124 -0.07430728 -0.0014197243 0.034126643 0.009164024 -0.039881174 0.07357017
-0.009102299 -0.11270782 -0.030575713 0.04971516 0.010338494 -0.040374644 -0.051032115 -0.03005806
-0.030275535 -0.07515922 0.058186315 0.026401524 0.017876353 0.014635856 -0.009344477 -0.03805004
0.07491155 0.14328152 0.062040217 -0.0062648132 0.022946341 -0.051417515 0.013932725 0.025068656

encoder.convs.0.node_mlp.bias f4 [128]
00000000: 4344 4abd 906e 4a3c f30a 3b3c e830 4f3d
00000010: 22a7 ea3c df78 87bc 1748 a1ba 1413 55bd
00000020: 832c 883b 0942 283c 97c3 683d 92f3 5a3d
00000030: eec9 26bd ce17 703d e5ea 38bd ed87 033d
00000040: 32cc e13c 3168 f03c 2b1a 343d bd0d 79bc
00000050: 0eb0 4a3d 7fab 04bb 6ee0 fd3b 492a 59bc
00000060: 6b06 66bd f446 4bbc 3942 0bbc d96c e73b
00000070: 04ab 2dbc f464 ba3a 50e1 0abc d728 00bd
00000080: 009e 29bc 248b 57bd 7770 303b 51af 663d
00000090: 2957 a6bc b093 2c3d d773 cdbc 412c fcbc
000000a0: 6ec0 e03c 3745 81bd 7ef2 013d 7cd4 083d
000000b0: 04a5 173c 9b31 3dbb bf27 f3bc e977 0ebd
000000c0: 364c 7a3d 33f0 b03c 9e71 f13c 25c9 f2bc
000000d0: 2ed0 233d 71eb 12bd 3baa 163d 0269 303d
000000e0: f879 40bd 4e1b 2fbd e5d7 68bd 0720 fcbc
000000f0: f6e3 1a3c 5f1a 43bd 182c 023d 81f8 0fbd
00000100: fd85 3fbc ba8b e93b 5d34 2ebd 67f4 cebb
00000110: 829e 5dbd 67b4 3fbd dd8b ce3b 2246 e8bc
00000120: d187 493d b67e 08bd 4b05 e33c 9bd3 1f3d
00000130: 0677 87bc 09e6 b3bc 0b74 d43c b7b6 b3bc
00000140: 3dee b73c 1e6c 9abc 4e86 17bc e463 30bd
00000150: a83b 623d a6d9 4abd 3f12 73bc 3999 e13c
00000160: 8c49 24bd 75f1 613b 999a 3d3d 27a2 833c
00000170: 989c 203d 6357 44bd 33ad f93c 6bb0 3539
00000180: 552a 48bb d314 a3bc 0122 8abc e3f7 203d
00000190: 17e0 023d b47a 43bd 6137 4c3d 2f70 5e3d
000001a0: ca1f 87bc 3e47 313c 2082 233c 87c7 65bd
000001b0: a619 713c 80b2 683d c612 8bbc e16e 3ebd
000001c0: ca7e f1bc 8f09 2c3d aa35 a43a 9375 43bc
000001d0: 187e 753c 6564 9e3c 17c7 2b3d 13d8 2cbb
000001e0: 8df1 6ebd 2456 7c3d 03f4 113d 474d f93a
000001f0: 445d 19bd 47d1 11bc 2969 fa3c b824 363d
-0.049381506 0.012355462 0.011416185 0.05058375 0.028644148 -0.016537128 -0.001230481 -0.052020147
0.004155697 0.01026965 0.056827154 0.053454943 -0.04071992 0.058616452 -0.045145888 0.03211205
0.027563188 0.029346557 0.04397027 -0.015201029 0.049484305 -0.0020243821 0.0077477014 -0.0132547105
-0.056158464 -0.012407053 -0.008499675 0.007062536 -0.010599855 0.001422076 -0.00847657 -0.031288948
-0.010352612 -0.05262293 0.0026922503 0.05631954 -0.020305233 0.042133033 -0.02507965 -0.03078282
0.027435508 -0.0631203 0.0317254 0.033405766 0.009255651 -0.0028868678 -0.029682038 -0.034782324
0.061107837 0.02159891 0.029473122 -0.029636929 0.039993457 -0.035869066 0.03678344 0.043068893
-0.04699132 -0.04275065 -0.056846518 -0.03077699 0.009453764 -0.04763257 0.031780332 -0.0351491
-0.01168966 0.0071272524 -0.042530406 -0.006315756 -0.054106243 -0.046802904 0.006303294 -0.028353754
0.04920179 -0.033323966 0.027712485 0.039020162 -0.016536247 -0.021960275 0.02593424 -0.021937711
0.022452468 -0.018850382 -0.009248329 -0.043064013 0.055232674 -0.049523972 -0.014835893 0.027538883
-0.040109202 0.0034476195 0.046290014 0.016068531 0.03921184 -0.0479349 0.030478096 0.00017327226
-0.003054281 -0.01990739 -0.016861917 0.039298903 0.03195199 -0.04772444 0.0498575 0.054306205
-0.01649465 0.010820208 0.009979755 -0.056098487 0.014715588 0.056810856 -0.016976725 -0.04649246
-0.029479403 0.042001303 0.00125282 -0.011929887 0.014983676 0.019334981 0.041937914 -0.0026373907
-0.05833583 0.061605588 0.0356331 0.0019020223 -0.03744246 -0.008899993 0.030567722 0.04446861

encoder.convs.0.edge_mlp.0.weight f4 [128, 7]
00000000: f45a cdbe 3465 073e 9b5f b83d f1a9 f23d
00000010: 1de7 84bd abe7 b13c a818 91be eac6 d63b
00000020: 627f 5abe 2f19 b83e 8c07 073e f308 aa3d
00000030: 4766 b3be 04a5 33be 8bad b73a 6011 2cbe
00000040: fd16 2b3b 3b9c 843d a930 d43c e85f 98be
00000050: 2baa d33e 90e4 5bbe b81f 30be 9f93 62be
00000060: c80c bc3e e622 d3bd befd 5f3e 9fb7 143e
00000070: db8f afbc d318 f93d 2304 dabd 8655 9abe
00000080: 260b 943e 1721 723e b311 f3be fed8 13be
00000090: 06fe 74be 52b1 cebe c454 1d3d 79cd 96bd
000000a0: 944d af3e ef2c 923e fc61 ddbe 2046 a43e
000000b0: ba88 843e 40f7 993e 8fe4 acbd 38ff 36bc
000000c0: 9013 88be 667d 85bd f235 963e 2968 ba3e
000000d0: ba9f f2be f1e1 103e d6b2 05be f729 8fbe
000000e0: c8c9 363e efd4 f73d c202 00be d2c0 c53e
000000f0: 6d7a 7abe e3ef 5b3e 7b15 493e 8a26 88be
00000100: 65db de3e 5fdd 3bbe 3309 24be d62c 823e
00000110: 4b67 d73e 1b9a 39be af0e dc3e f144 f0be
00000120: 6192 483e 57c4 7abe f8e5 4ebc 6318 b4be
00000130: e140 883e d23b 58be 34b1 01bf 3d04 86be
00000140: b862 5d3e 8673 eb3d beaa 563e 2ece 973e
00000150: 01b4 70be 9b13 c43e dfff 83be a2b9 06bf
00000160: 31b8 153e 621e 61be e45c b43d 9631 633e
00000170: 0fae 003e 62d3 bb3e 32fb 303d 997d 3ebd
00000180: 5b25 eebd 6402 3fbe c3c9 d5bd ec09 363e
00000190: f7b4 50be 2bf7 6bbe 5250 29be 68d6 27bd
000001a0: 41be 26be bbf4 6f3e 5a0d 753d 8a0b 603e
000001b0: 3673 66be 66c7 15bc 4641 b33d 24ee a03e
000001c0: 0854 a1be c6e6 8ebe bece 823c a10b a8be
000001d0: 269e b4be 8074 b5bc e079 903e e0c2 f4be
000001e0: 142f 6fbd 0e1c b8be fde1 993d 2a99 fe3d
000001f0: fb50 b9be 143a 8c3d 42f9 2fbe 9deb 0c3d
00000200: d133 83be 5fa7 9dbd 2cb4 3b3e 34ee 3abe
00000210: 8d91 abbd 4a65 afbe 3966 25be 2774 973e
00000220: 8cfd 3f3e 0f3e 60be f455 c43e 6353 213e
00000230: 84cb 6f3e acbe 2abe bcf4 f0ba 78be bb3e
00000240: 53b0 823e 46d0 233e 6232 80be bec7 15be
00000250: b90f c63d da18 0e3e f718 2d3c 2fd6 7ebe
00000260: b6a6 8dbe 2d65 afbe 9b34 06be b31f 143e
00000270: e5e3 51be 200b 2d3e 118b 87be 08cf f33b
00000280: 40e4 53be 7514 7abe ef0d c53e 9965 8c3d
00000290: bfa0 b13e 8886 d23d 8721 d2bc 6049 863e
000002a0: 3737 64be 7419 a23d 915c a23d 2000 cf3d
000002b0: 8f75 7fbe 026c 553c 673a 73be 2b85 833e
000002c0: e723 8cbe 74fe f7bc fa99 b23e 563f 64bc
000002d0: 199b bfbe 9e0f bd3d 7b74 063d 541a bfbe
000002e0: 895b adbe 9313 edbe f01d b2be b258 2cbd
000002f0: aebd 90be 59fe b9be 0db4 9b3d 578e aebe
00000300: e9d4 89bb db74 d03d 7334 973e 967e 77bc
00000310: f960 b8bd 7885 bd3e 8562 6a3d 8760 a73e
00000320: 6644 7cbd f34d cc3e 1eb4 acbe 3ee1 a93e
00000330: c442 7b3e 84e6 413d 6570 c63e 074b 533e
00000340: 707b 433e e02d 9abd 99a1 ad3e 4acd 1abe
00000350: c1b8 f0bc f37f f03a 2d77 efbd 59b7 3bbe
00000360: 62cb 853e 5d12 a4bc 299e adbc 56ce 923d
00000370: ff85 0bbe 1d3c babc 1776 44be b3ca a73c
00000380: 77ff f83d 154c d3be 8d23 c23e c80f 5cbe
00000390: 62f0 9a3e 7229 8a3e dc20 273e 226e cd3e
000003a0: 907d 28bf 47ab 07bf 593a e53c 6fbe 22be
000003b0: edc9 6fbe 25fd 00bd 069d 75be 9965 58bd
000003c0: 8d69 3fbe 6978 f23d dfc2 c83c b90e 74be
000003d0: 15f5 18be 09b8 c0bc ba64 973d 6c1a 9f3e
000003e0: f48c 023e 0af4 e93c 9850 b5bc 7679 a93e
000003f0: 4e62 b8be bb96 63be 8b62 263e ed63 86be
-0.40108454 0.132222 0.0900261 0.1184882 -0.06489394 0.021716913 -0.28339124 0.006554474
-0.21337655 0.35956714 0.13186473 0.08302488 -0.3503897 -0.17543417 0.0014013512 -0.16803503
0.0026106231 0.06475111 0.02590211 -0.2976067 0.41340765 -0.21473908 -0.171996 -0.22126625
0.367285 -0.10309391 0.21874139 0.14523171 -0.0214309 0.12162938 -0.1064532 -0.30143374
0.28914756 0.23645435 -0.4747444 -0.14438245 -0.23925027 -0.4036966 0.038410917 -0.073634095
0.34238875 0.28549907 -0.4323882 0.3208475 0.25885564 0.3007145 -0.084420316 -0.011169247
-0.26577425 -0.065180585 0.29338032 0.36407593 -0.47387487 0.1414869 -0.13056502 -0.27961704
0.17850411 0.12101161 -0.12501052 0.38623673 -0.24460764 0.21478228 0.196371 -0.26591903
0.4352676 -0.18346165 -0.16019134 0.25424832 0.42070994 -0.18125193 0.42979953 -0.46927598
0.19587089 -0.2448896 -0.012628071 -0.35174856 0.26612 -0.2111657 -0.50661016 -0.2617511
0.2161969 0.11496644 0.2096357 0.2964949 -0.23506166 0.38296208 -0.25781152 -0.52627003
0.14621045 -0.21984246 0.0880678 0.22186884 0.12566398 0.3668471 0.04320831 -0.046506498
-0.11628219 -0.18653256 -0.104388736 0.17777222 -0.20381533 -0.23043506 -0.16534546 -0.040975958
-0.16283514 0.23433201 0.059827186 0.21879402 -0.22504887 -0.009141779 0.08752684 0.31431687
-0.31509423 -0.2791044 0.015967723 -0.32821372 -0.35276908 -0.022150278 0.28217983 -0.47804928
-0.058394507 -0.35958904 0.07513807 0.124315575 -0.36194596 0.06847015 -0.17184928 0.034404386
-0.2562547 -0.07697939 0.18330449 -0.1825493 -0.08377371 -0.34256965 -0.16152276 0.29580805
0.18749064 -0.21898673 0.38346827 0.15754466 0.23417479 -0.16674298 -0.0018383483 0.36668754
0.2552515 0.15997419 -0.2503844 -0.14626977 0.096709676 0.13876668 0.010565034 -0.24886392
-0.27666253 -0.34256878 -0.13106005 0.14465217 -0.20497091 0.16898775 -0.26473287 0.0074404515
-0.20692539 -0.24421866 0.38487193 0.06855316 0.34692952 0.10279566 -0.025650753 0.26227856
-0.22286688 0.07915011 0.07927812 0.10107446 -0.24947189 0.013026239 -0.23752747 0.25687537
-0.2737114 -0.0302727 0.348831 -0.013931116 -0.37423018 0.09231494 0.03282593 -0.37324774
-0.33858898 -0.46303996 -0.34788465 -0.042076774 -0.28269714 -0.36326864 0.07602701 -0.34092972
-0.004206289 0.101785384 0.29532203 -0.015105864 -0.09002871 0.3701589 0.05722286 0.32690832
-0.061588667 0.3990322 -0.33731169 0.3317966 0.24537188 0.047338977 0.38757625 0.2063409
0.19090056 -0.07528281 0.33912352 -0.15117374 -0.029384973 0.0018348679 -0.11692653 -0.1833166
0.2613173 -0.020028288 -0.02119358 0.07168262 -0.13625334 -0.022733742 -0.19185673 0.020482397
0.12158101 -0.41268983 0.37917748 -0.21490395 0.30261523 0.26984745 0.16321129 0.40123087
-0.65816593 -0.52995723 0.027981924 -0.15892957 -0.23416872 -0.031491417 -0.23985681 -0.052831266
-0.18692608 0.11839373 0.024506984 -0.23833741 -0.14937241 -0.023525255 0.07392259 0.31074846
0.12749082 0.02855875 -0.022133157 0.3310048 -0.360125 -0.22225468 0.16248529 -0.26248112

encoder.convs.0.edge_mlp.0.bias f4 [128]
00000000: d406 273e 0639 0a3e 76f0 6ebe 65f0 8a3d
00000010: d797 d5bc 196a 333e 1e0e 54bd d360 09be
00000020: 95d6 233e d8c6 f4bd 8c51 673b 5ac9 cfbd
00000030: f47d 383e 23fc 8ebd 22ef 2f3e 5b40 77be
00000040: ed68 7b3c e478 963e 8545 3dbe d77c b1bd
00000050: eb61 11bd 4f0a a03d 8f84 01be d587 863d
00000060: 3240 32bd cbe8 813d 6e84 a23e 5098 833e
00000070: 2a13 26be 7bd1 1dbe 0ff6 80be c462 2abd
00000080: d644 88bc 4ae0 b33d d50e c9bd 0816 043e
00000090: 55a8 b63d a31f 5c3d 84c1 943e 7e7f 173d
000000a0: fdc7 113d 91c6 f4bd 32c5 683e 08a5 80be
000000b0: 01d6 01be c535 bf3c 8646 4a3e e19e 75be
000000c0: d310 31bd 8dd2 a03d 01ad 573e 7ec0 1f3e
000000d0: 9d44 7f3e b0f7 0fbe 440d 9bbe bef3 8d3c
000000e0: c195 683e 85f8 373d cb0f 0b3e d725 913e
000000f0: 43ec 94be fd4b f23d 20df 073e 459d 1d3d
00000100: e49f adbd 9754 36be a2ab 2b3e 3e62 7b3d
00000110: 8aba 183e d619 d43c c0ff 91be 8ee4 1b3e
00000120: d6cf 16be f387 27be c6d9 0ebe e095 8bbe
00000130: 5c96 57be 9efb 6ebc f57b 8dbe 83d1 523e
00000140: fc1a 5abe c12b ad3d 441b dc3d 7f47 fabd
00000150: 9280 003e fb00 983e 7a6a 7ebe add3 073c
00000160: 3a20 5e3e 1041 a43e 4d13 033e 1553 b73e
00000170: 0f8c 3dbe e527 923e 7927 123e c8ef 1ebe
00000180: 0912 1a3e 024f 703e 0d7f 84be c2da 2c3e
00000190: 529c 69bc 7936 7d3e 6fee 98be 8516 513e
000001a0: bcbd 9b3e 326f 24bc 4162 5b3e 0dc2 75be
000001b0: 6f6b 733d ab3b 73be 8019 5abe 6596 573e
000001c0: d783 203e 9774 4a3e e4bf 853e 255c 9abd
000001d0: 65f0 76be 0762 7c3e 8c17 8c3e 9869 80be
000001e0: 511a 40be 4c34 70be 61a0 48be 09d9 4b3e
000001f0: bda2 8abe 6229 833d 4b2c 053d 21e1 64be
0.16311198 0.13498315 -0.23333916 0.06784133 -0.02607338 0.17520942 -0.051771276 -0.13415842
0.15999825 -0.11951989 0.0035296408 -0.10145827 0.18016797 -0.06981685 0.17181066 -0.24145643
0.0153448405 0.29389107 -0.18483551 -0.086663894 -0.035493772 0.07814466 -0.12648223 0.06568877
-0.043518253 0.0634323 0.3174166 0.25702143 -0.16218248 -0.15411942 -0.25187728 -0.041598096
-0.016634386 0.08783014 -0.09817282 0.12899029 0.089188255 0.05374111 0.2905389 0.03698682
0.035591114 -0.11951936 0.22731474 -0.2512591 -0.12679292 0.023341069 0.19753465 -0.23986389
-0.043228935 0.078526594 0.2106209 0.15600774 0.24928518 -0.14059329 -0.30283558 0.01732814
0.22713377 0.04491474 0.13580243 0.28349182 -0.29086503 0.118309 0.13268709 0.038480062
-0.08477762 -0.17805706 0.16764691 0.061372988 0.14914909 0.025891226 -0.28515434 0.15223905
-0.1472772 -0.16360454 -0.13950261 -0.27262783 -0.21053451 -0.014586357 -0.27633634 0.20587735
-0.21299356 0.08455611 0.10747388 -0.12220668 0.12549046 0.29688248 -0.24845305 0.0082902135
0.21691981 0.3208089 0.12800331 0.35805574 -0.1851046 0.28546062 0.1427287 -0.15521157
0.15045942 0.23467639 -0.25878182 0.16880324 -0.014258461 0.24727811 -0.2986941 0.20418747
0.30418193 -0.010036277 0.214242 -0.23999806 0.05942863 -0.2375323 -0.2129879 0.21053465
0.15675293 0.19771038 0.26122963 -0.075371064 -0.2411514 0.2464677 0.27361715 -0.25080562
-0.18760039 -0.2345745 -0.1959243 0.19907011 -0.27077284 0.064043775 0.032512944 -0.22351505

encoder.convs.0.edge_mlp.2.weight f4 [128, 128]
00000000: 09a5 9ebd 5b03 503d 03be d0bb 8e4c cabd
00000010: 7e7b fb3d 9d60 b6bd 0c77 023b ecfd dabc
00000020: cb01 19bd d2c8 b9bc 7f2e 4fbd 7da3 593d
00000030: 1621 1d3d 37d8 d3bc 35e0 003e 3a53 a93d
00000040: d0f9 fa3d f3b9 25bc 9be5 e5bc 2b31 02bd
00000050: 3b40 fc3d 5f74 25bd 5206 3abd b66a d5bc
00000060: b4a4 843d cbe2 f03d 79e1 63bd 0b77 073d
00000070: 0e20 053d 57ed ba3d 30c9 f23d 7d39 53bd
00000080: 825d 64bd bc75 f3bb 13f5 e23d 9247 50bd
00000090: 5269 76bc f7d9 9bbc b6e1 893d 683d db3d
000000a0: c5c6 e4bc cfa3 43bc c662 333d 9392 623b
000000b0: a4c9 673c 2e2c b43d 0d69 4fbd 790a 3e3c
000000c0: 2b81 473d cbc1 033e f69c 2dbd d813 ddbb
000000d0: f5b4 a1bb a211 3cbe 0f54 593c 0e77 dfbc
000000e0: 759a 91bc b29d cd3d b490 243e 2991 2a3b
000000f0: ddb5 3d3c 6f84 7d3d 5979 b33d 01e3 b2bd
00000100: 4d72 80bd fa7a be3d 7b6c 8d3d d6cf 81bd
00000110: 1f38 8fbd 4f55 003e 8e83 5a3d 45f3 33bd
00000120: 9832 1e3d c320 b4bd 091b 063d 57e1 0c3e
00000130: 5278 6cbd f9f6 cebd a974 933d 7a6b c13c
00000140: 6465 683d 7536 5b3d ec88 be3d 8d04 833e
00000150: 4bb6 4e3d 560f 37bd ed2d 48bd c2d3 ac3d
00000160: 516d c33a 7c04 b6bd a474 7d3e 51e8 6bbd
00000170: 3dc4 c03d 5086 023e 6d77 4c3e 5328 c53c
00000180: b08c 863d 18d7 7b3c dd8c afba ceab 70bd
00000190: 2907 2a3e 459f d6bd 016c 4f3d 688e 56bc
000001a0: f98b 533d c438 89bd 2a0c cf3d 0f1a 9fbd
000001b0: 83f3 eebb 88d4 b13d 099f 053e 593a d63d
000001c0: bf07 42bd 708d 623d eddf 0339 7f3d f53d
000001d0: a9e5 c6bc c709 9e3b 70ca 06bb 146d adbd
000001e0: 91d4 b63c 2f08 35bd 9ba0 bd3c de0e 893d
000001f0: 621a 953c b17b 64bd 4e45 d13c e119 3cbc
00000200: 16d2 fc3c ff2c 8d3c 7e31 203e 528c 9bbc
00000210: 2b60 0e3e 0998 563d fd66 193e 987e c7bc
00000220: f00f 96bc 644e 103e cdc5 c93d e341 233c
00000230: 32ff 573b e2e8 a7bd b501 d8bd 07d6 093e
00000240: 288e debd 42db 74bd 2f83 36bd 8c6b 2d3e
00000250: 8719 2abd 8278 693c 4edb 8bbd 4f5b 10bc
00000260: cd50 163d 4066 e63d 73b7 45bd 1470 81bd
00000270: d4d1 3f3e eaad f6bd 1004 bb3d e4d0 483d
00000280: f709 553d 289e 5b3d 956d 283d c690 383d
00000290: 1c20 6c3e ea10 bc3d 24a7 0b3d 5da7 d73d
000002a0: 2462 b2bd 220b babd dbfd 45bd 57d9 14bc
000002b0: 0d2a 2c3d 978a 803d 0711 b1bd 305e 2a3c
000002c0: 8f17 07bd 9923 a93b 0494 bf3d 5300 8abd
000002d0: 9178 053d a7ba 203e dbdf a73d 7c78 75bc
000002e0: 66e4 863c 727e 7dbc e84e 25bc e21a 4abd
000002f0: 734b 87bd 264f b0bc 99f5 03bd f168 4d3d
00000300: 58cc 5c3a a405 d6bd b81d d5bc ccc1 a6bd
00000310: f44c 9f3c ae41 1ebd 5c44 943d 41e8 f93d
00000320: c4c3 e83d d056 a93c 3073 aa3d 33b2 22bd
00000330: f0e4 fa3c bcaf 7b3d f507 edbd 3e7e 393d
00000340: 5d42 973d f216 b7bc a205 c63d 78ec 90bd
00000350: 26ae 15be 4049 a43d 0ceb afbd e0d3 6c3d
00000360: 0b12 363d 6ce6 28bb 9a53 1dbd dca8 fcbd
00000370: c7a9 623e 7dbc 96bb 9ccf 1b3e 179c e5bd
00000380: 6568 04bd 5022 6dbd 0d84 a63d d9c8 21bd
00000390: 0ea1 04bd 5e1e 843d cc32 833c bd52 d93d
000003a0: ee11 cfbd 71a0 a8bd 7906 2b3d 610b c73c
000003b0: 2788 3f3d 764e 9d3c dc3f 3c3d b9e9 4dbd
000003c0: a89d a93b 51b0 63bd 5d29 53bd 839b bf3d
000003d0: 93d4 423c bf33 113e 73fe 703d 3f8b ad3c
000003e0: 9685 a3bd ad79 1fbd c27a 333c 624a 8b3d
000003f0: 6ea0 82ba 436b 14bd cf5d 403d 1638 e3bb
-0.07746322 0.05078445 -0.0063703074 -0.09877883 0.12279414 -0.08905146 0.0019907383 -0.026732408
-0.037355226 -0.022678766 -0.05058145 0.05313443 0.03836163 -0.025859935 0.12585528 0.08267827
0.12254679 -0.0101151345 -0.028063586 -0.03178517 0.123169385 -0.040394183 -0.045416184 -0.02605186
0.06476727 0.11762007 -0.05563495 0.033072513 0.032501273 0.091273 0.1185478 -0.051568497
-0.05575324 -0.0074298065 0.110819004 -0.050849505 -0.015039759 -0.019024832 0.06732504 0.10705072
-0.027926812 -0.0119409105 0.04379537 0.0034572228 0.014147196 0.08797489 -0.050637294 0.011599177
0.04870717 0.12866895 -0.042386018 -0.0067467503 -0.004934902 -0.18366101 0.01326467 -0.02727845
-0.017773846 0.100398436 0.16070825 0.0026026464 0.011579004 0.061893877 0.087633796 -0.08734704
-0.06271801 0.093008 0.06905457 -0.0633847 -0.06993126 0.12532543 0.053348117 -0.04393317
0.03862247 -0.08795311 0.032740626 0.13757835 -0.057731934 -0.101057 0.071999855 0.02361082
0.05673732 0.05351873 0.093034595 0.2558941 0.050466817 -0.04469236 -0.048871923 0.08438827
0.0014909898 -0.08887574 0.24751526 -0.0575946 0.094124295 0.12746549 0.19967432 0.02406708
0.06569803 0.015371107 -0.0013393421 -0.058757596 0.16604294 -0.10479597 0.05064011 -0.013095476
0.05164716 -0.0670028 0.10109742 -0.07768642 -0.0072922125 0.08683115 0.13048948 0.10460348
-0.04737067 0.055310667 0.00012576552 0.1197462 -0.024279432 0.004822943 -0.002056744 -0.084680706
0.022318156 -0.044197258 0.023147872 0.06692289 0.018201057 -0.055782024 0.025545742 -0.011480779
0.030861896 0.01723337 0.1564388 -0.018987808 0.13903873 0.052391086 0.14980693 -0.024352357
-0.018318146 0.14092404 0.09852181 0.009964439 0.0032958505 -0.08198716 -0.105472006 0.13460551
-0.10866958 -0.059779413 -0.0445587 0.16935557 -0.04152825 0.014249923 -0.068289384 -0.008810832
0.03669815 0.112499714 -0.048270654 -0.06320205 0.18732387 -0.1204489 0.09131634 0.04902734
0.052011456 0.053617626 0.04112013 0.04505994 0.23059124 0.091829136 0.034094945 0.10529969
-0.08710125 -0.09084155 -0.0483378 -0.009085021 0.04203229 0.06276434 -0.08645826 0.010398433
-0.03298145 0.0051617143 0.093544036 -0.06738343 0.032585684 0.15696202 0.08196994 -0.014982339
0.01646633 -0.015472041 -0.0100896135 -0.049342044 -0.06606188 -0.021522116 -0.032216642 0.050148908
0.00084227836 -0.104502946 -0.026015148 -0.081424326 0.019445874 -0.038636856 0.07239601 0.12202502
0.11365464 0.020671278 0.083227515 -0.039720725 0.030626744 0.06144689 -0.11573783 0.04528641
0.07385705 -0.022349808 0.09669043 -0.07076353 -0.14617214 0.08021784 -0.085897535 0.057819247
0.0444508 -0.0025772108 -0.038409807 -0.12336895 0.22135077 -0.0046001063 0.15215915 -0.112114124
-0.03232612 -0.05789405 0.081306554 -0.039498184 -0.032380156 0.064511046 0.016015433 0.10611484
-0.10110842 -0.08233727 0.04175422 0.024297418 0.046760704 0.019202452 0.04595934 -0.050271723
0.005176265 -0.05558807 -0.05155312 0.093558334 0.011891502 0.14179896 0.05883641 0.021184562
-0.07984464 -0.0389344 0.010954561 0.06801297 -0.0009966025 -0.036235105 0.046964463 -0.006934176

encoder.convs.0.edge_mlp.2.bias f4 [128]
00000000: 12fb a93c b571 8bbd 6226 b63a 59b5 e23c
00000010: b651 cabc 65c3 ee3c b7c3 3fbc 1467 9abd
00000020: e6de 86bd d391 e3bb a8c6 75bd cc8e 923d
00000030: 37ae e83c 812d a93d 79fc fbba ede8 4c3d
00000040: f4cb 82bd 5c1b f83c 1f0d 0c3d 7b1f 963c
00000050: 8a83 46bd da90 e3bc 9b6d 14bd 1551 893d
00000060: d4eb ba3c dcc4 f3bc 03d9 cbbc 4048 9a3a
00000070: ad09 593c 0ba2 8e3d 77fc 173d 1180 7d3d
00000080: c17e f0bc 9dc3 9b3c 4fe6 5f3d dcbc 613d
00000090: 1dc1 803b 60ac 8f3d aec2 0abd 438b 86bd
000000a0: 6450 903c 264d 023d 6744 413d 606a 83bd
000000b0: 4811 973d 0846 92bd f8e9 423d f7d3 dfbc
000000c0: b80b b63d b0d1 3c3d 1e56 2c3d 6ac8 d2bb
000000d0: 0362 9abd 6acc 64bd 5675 81bd d399 25bc
000000e0: 18d7 11bd a694 223c 8e3f 6ebd aa88 69bd
000000f0: 82cf dfbb da67 41bc 65e3 b0bc 48f0 85bd
00000100: 9355 83bd ec9c 80bd d72e 15bd 936c c4bc
00000110: cd24 86bd d0ea 77bd fc7e e7bc 0306 8a3d
00000120: b1da 623d 93c9 c2bc adbc 3cbd 0d4f 143c
00000130: 5411 9cbd ed97 98bd 96ce 85ba a68b 8c3c
00000140: 9b20 05bd 2526 8cbc 6945 183c ccc4 79bc
00000150: ae5a d13c 712d 993c 5338 53bd 0e26 18bb
00000160: 1c44 99bd 91b7 4abd f21f b0bd 062b 39bd
00000170: c667 1abd f59b 4a3c 573f 1bbc 7460 5d3b
00000180: bc4c 4f3d 2666 8e3c 53f7 e13b c9f4 dd3c
00000190: 23b2 6fbd 348b a93b 9d4d 1d3c 8c31 603d
000001a0: 64c8 a43d 78aa 97bd 47df b83c 4d3c 953d
000001b0: 5922 9c3c 6e9a 6dbd 5ea3 773d 1c7d 8fbd
000001c0: 3f52 8ebd b93d 82bd be49 813d 20c8 a73d
000001d0: acbb f6bc be3b d13c 735b b33c a636 a7bd
000001e0: e380 24bd 271c ffbc 23f9 24ba 1542 b2bc
000001f0: 3761 283d 7d31 44bd b0ee dfbc cc35 97bb
0.020749602 -0.06808797 0.0013896937 0.027674364 -0.024697166 0.029145906 -0.011704377 -0.07539192
-0.06585483 -0.006944874 -0.060003906 0.071561426 0.028403385 0.08260632 -0.0019225023 0.050026823
-0.06386557 0.030286483 0.0341922 0.018325558 -0.04846529 -0.027779032 -0.03623734 0.06704918
0.02281753 -0.029756956 -0.024883753 0.00117708 0.013246936 0.06964501 0.037106004 0.06188971
-0.029357316 0.019014174 0.054663 0.05511175 0.003929271 0.070153 -0.033877067 -0.06569531
0.017616458 0.031811856 0.047184374 -0.06416774 0.07376343 -0.07142264 0.04758641 -0.027322752
0.08888954 0.04609841 0.042074315 -0.0064325826 -0.075382255 -0.055859007 -0.06321208 -0.010107475
-0.03560552 0.009923136 -0.05816608 -0.0570151 -0.006830157 -0.011804545 -0.021592805 -0.06539971
-0.06412806 -0.062799305 -0.036421623 -0.023977553 -0.06549988 -0.06052667 -0.028258793 0.06739428
0.05538434 -0.023777759 -0.046078373 0.00905205 -0.076204926 -0.074508525 -0.0010208662 0.017156433
-0.032501798 -0.017108032 0.009293892 -0.015244674 0.025555935 0.018698426 -0.051567387 -0.0023216042
-0.07483694 -0.04949147 -0.08599843 -0.045207046 -0.037696622 0.012366285 -0.009475551 0.0033779414
0.05061029 0.017382693 0.0068959384 0.027094262 -0.058519494 0.005174065 0.009601024 0.05473475
0.08046034 -0.07405561 0.022567404 0.07286892 0.019059347 -0.058008604 0.060458533 -0.070062846
-0.06949281 -0.06359429 0.06312893 0.08192468 -0.030118786 0.025541183 0.021894192 -0.0816472
-0.04016198 -0.031141354 -0.0006293228 -0.021760026 0.041108336 -0.04789876 -0.027335495 -0.0046145674

encoder.convs.0.norm.weight f4 [128]
00000000: b328 603f 9805 633f 6455 643f eb62 6f3f
00000010: c1b4 633f ea7e 683f 74bd 623f 26b9 623f
00000020: bb24 643f 1e2c 5e3f e2af 653f 2d1e 613f
00000030: bca2 5e3f f3b8 6e3f 7b67 653f f157 623f
00000040: 754d 663f a3c7 743f b7ef 643f 2070 643f
00000050: b4ba 653f 6a6d 633f 83d8 5c3f cd15 703f
00000060: 1c16 613f aefc 643f 1de5 5d3f 09c8 5a3f
00000070: 4dfa 593f 8bbc 7d3f 66e7 663f 2e73 683f
00000080: c244 5c3f dc74 613f a594 643f 63f4 663f
00000090: eb2c 623f cb4c 613f 13d1 663f 8d4b 663f
000000a0: fe2b 653f 5d54 653f 4e01 643f 993b 603f
000000b0: 4519 653f 0ec2 6d3f 032f 673f b3bd 5d3f
000000c0: a662 5f3f 531e 693f 3260 693f 3652 6b3f
000000d0: d203 5b3f 89db 6c3f 5c3a 683f a4c9 633f
000000e0: 693c 8c3f a79b 673f d8ca 5e3f 8ca6 683f
000000f0: a066 593f 3d74 623f 0518 5e3f 79ad 6d3f
00000100: c298 643f 85bd 683f fe8b 6b3f 6e2e 643f
00000110: 21a2 643f 5049 5d3f 7379 603f 0d1b 753f
00000120: cebc 693f 1401 683f e130 603f 2ea5 623f
00000130: 9041 653f 97b1 5f3f 873d 633f 8fd8 643f
00000140: 7057 683f 7a9e 633f c47a 643f cbcc 623f
00000150: 72bb 713f b861 653f 435b 5f3f f176 743f
00000160: 30d4 613f 185e 623f c309 613f 5d04 743f
00000170: 586d 593f 982e 623f f746 5d3f e371 623f
00000180: bb43 763f 7243 633f 6c8e 663f a57f 603f
00000190: 806f 5f3f f35b 6c3f 10cc 613f 3c71 603f
000001a0: 7bde 643f cc53 6b3f 26c4 643f 0b45 5e3f
000001b0: 58ca 5d3f a0ce 623f 197d 693f 4100 7b3f
000001c0: dfc5 633f 9300 643f 5f07 5f3f 7ebe 653f
000001d0: e558 6e3f b80d 563f 5705 5d3f cba4 633f
000001e0: 82dc 613f 6880 623f be9b 743f f814 643f
000001f0: 4429 643f e712 773f 97f0 673f d524 6c3f
0.875621 0.8868041 0.89192796 0.9351031 0.88947684 0.90818655 0.8857033 0.88563764
0.89118546 0.8678607 0.897215 0.8793667 0.8696706 0.9325096 0.89611024 0.8841544
0.8996194 0.9561712 0.89428276 0.8923359 0.8973801 0.8883883 0.8626787 0.93783265
0.8792436 0.8944806 0.86677724 0.8546148 0.85147554 0.9911582 0.90196836 0.9080075
0.86042416 0.8806894 0.89289314 0.90216655 0.8834979 0.880078 0.9016277 0.8995903
0.8952025 0.89581853 0.8906449 0.8759094 0.89491683 0.9287423 0.9030611 0.86617583
0.872599 0.91061896 0.9116241 0.9192232 0.85552704 0.92522484 0.9071405 0.88979554
1.0955936 0.9047188 0.87028265 0.9087913 0.8492222 0.88458616 0.867554 0.92842823
0.8929559 0.90914184 0.92010486 0.89133346 0.8930989 0.8643999 0.87685317 0.957444
0.9130372 0.90626645 0.87574583 0.88533294 0.89553165 0.87380356 0.8876576 0.8939294
0.9075842 0.8891369 0.89249825 0.8859374 0.94426644 0.8960223 0.8724863 0.9549399
0.882144 0.88424826 0.8790552 0.9531916 0.8493247 0.88352346 0.8643641 0.8845503
0.961971 0.8877479 0.9006107 0.8769477 0.8727951 0.92327803 0.88202 0.8767278
0.8940198 0.9192474 0.893618 0.868241 0.8663688 0.88596535 0.9120651 0.9804726
0.889738 0.89063376 0.8712062 0.89743793 0.9310439 0.83614683 0.8633627 0.8892333
0.88227093 0.8847718 0.95550144 0.89094496 0.89125466 0.9651322 0.90601486 0.922437

encoder.convs.0.norm.bias f4 [128]
00000000: 57fd 953d 9370 70bd 5d0e af3b 2e44 3b3d
00000010: 0980 76bd fa49 d33d 7eec 893d 5258 03bc
00000020: e44f a43c 61a7 20bd afe8 dcbc f0cf 9e3d
00000030: fc0e b83d d534 173d 9be8 ba3c cdfe 2ebd
00000040: 8a47 00be 49df 70bc 2428 8fbd 9111 5b3d
00000050: 44cc fabc 0128 493d f8c8 a1bc 4253 e93c
00000060: cc8b 7a3d 6f86 ff3c 86a6 433d 0ccf 9c3c
00000070: ce7a 353c 3538 a03c 3464 9d3d 4533 c3bb
00000080: 1a34 64bc 80e8 813d 44f2 293e fc20 3dbc
00000090: 98e3 9bbc c59e b9bc 2c78 663d f5da 1b3d
000000a0: c754 1c3d bc7a 423e 5042 ebbc f479 ffbc
000000b0: eeef d4bc 4592 8cbd 8fb5 133b 7fd5 05bd
000000c0: b7a9 32bd a8bd ebbb d081 803d 7db9 a0bd
000000d0: af6b bfbb 15cb 0e3c e081 4b3d 4007 9ebd
000000e0: c904 f03b 92f4 62bd 4778 c03c 02d7 cabb
000000f0: 1635 e73d 5ec4 49bc 48df b5bc fa5d 95bc
00000100: ab8f fbbb e7a8 dcba 9fea c93c 0783 cabd
00000110: 7a3f fdbc e8b6 803c 892a 2d3d 47f7 493b
00000120: 00a9 b73b 3d05 a03d 425f 6cbc 8712 ee3c
00000130: 67d6 6fbb c2d8 2ebd 85fa d3ba d9e4 07bd
00000140: de1e fabd 2a68 cd3d b517 773d 2d5e 083d
00000150: 3db4 453e 434e 9fbc 464f 603c cf33 943c
00000160: a2a0 323d 148b 00bd 48c2 9a3d 4d41 693c
00000170: 0195 b9bd 259f 30bd dee0 e63d d634 05bc
00000180: 2f56 df3b 976e 4ebc ee0d e53c a7a3 21bc
00000190: 8f3d 37bc 7b42 9fbd 4978 ab3d 28da e43b
000001a0: dec2 7abc f2d6 d13c 1266 09bb e771 673d
000001b0: 7664 c63c 02b3 97bc d8f5 9c3b 10cc c8bb
000001c0: 3f42 38bd 4fc9 90bc 595c a9bd 2bc5 b2bd
000001d0: 823f bc3c 8866 e3bd 4983 d13c 3a6d 333d
000001e0: bf18 c2bd 7370 9abd aec4 1b3d bec1 08be
000001f0: dcab aa3d 9128 d9bd 2f23 03bd 32f1 cbbb
0.07323711 -0.05870111 0.0053422884 0.045719318 -0.060180698 0.10316844 0.067345604 -0.008016663
0.020057626 -0.039222125 -0.026966421 0.07754505 0.08987233 0.03691562 0.022815993 -0.042723466
-0.1252729 -0.014701673 -0.06990078 0.05348355 -0.03061498 0.049110416 -0.01974915 0.028482083
0.061168477 0.031192033 0.04776623 0.019141696 0.011076642 0.019558052 0.07685128 -0.0059570395
-0.013928438 0.06343174 0.16596323 -0.011543509 -0.019029424 -0.022658715 0.05626695 0.03805061
0.038166787 0.18992132 -0.028718144 -0.031186081 -0.025993314 -0.06863836 0.0022538637 -0.03267431
-0.043618884 -0.0071942396 0.0627476 -0.07847879 -0.0058416943 0.008715411 0.049684405 -0.077162266
0.007324789 -0.05540902 0.023494853 -0.0061901817 0.11289422 -0.012314884 -0.022201195 -0.018233288
-0.0076770387 -0.0016835005 0.024648009 -0.09888273 -0.030914057 0.015712216 0.042276893 0.0030817555
0.005604863 0.07813499 -0.014427008 0.029061569 -0.00365963 -0.042687185 -0.0016172683 -0.03317723
-0.12212919 0.10029633 0.060325343 0.033292938 0.19307037 -0.019446498 0.013690775 0.01809111
0.043610223 -0.031382635 0.075565875 0.01423676 -0.09061623 -0.043120522 0.11273359 -0.008130273
0.006815694 -0.012599609 0.027960744 -0.009865678 -0.01118411 -0.07776352 0.08372552 0.006984014
-0.015305249 0.02561519 -0.002096538 0.05650511 0.024217825 -0.018517975 0.004790049 -0.006127842
-0.044985052 -0.017674116 -0.08269567 -0.08729013 0.022979502 -0.11103541 0.025575297 0.04380534
-0.09477376 -0.07540979 0.038029365 -0.13355157 0.08333561 -0.106034406 -0.032015976 -0.006223821

encoder.convs.0.norm.mean_scale f4 [128]
00000000: d326 6e3f 9ef7 693f bca3 5e3f e849 803f
00000010: 5a4e 653f 93dd 673f 21cd 7c3f 16c2 6d3f
00000020: 7ab1 703f 2529 653f 9c85 673f 216f 853f
00000030: 403d 853f 2c30 7c3f c161 613f 70d3 7b3f
00000040: afbf 8f3f ea9f 573f a50b 843f 0a59 823f
00000050: 9c30 7d3f 16b7 633f f99f 823f 4d64 7f3f
00000060: fc10 7d3f dbc3 863f bdd0 7a3f 1cf5 6f3f
00000070: 08c4 6d3f db31 643f 1685 793f d532 823f
00000080: c32b 5f3f fb6f 773f 8a36 8a3f 220c 5a3f
00000090: e31b 763f bbbc 833f 5819 6c3f dee0 7a3f
000000a0: 8603 823f 0773 953f b101 5e3f 43de 773f
000000b0: 67e1 5e3f 6f3c 8e3f 7faf 5b3f 4938 7d3f
000000c0: 1282 6b3f 3fd1 713f e115 793f 869f 7d3f
000000d0: 32c5 793f 31db 7e3f e558 7a3f ad1a 803f
000000e0: 10cf 1b3f 133a 5a3f 1241 783f 6dad 693f
000000f0: 632e 8c3f 9c2e 5c3f 0e70 813f 4b93 723f
00000100: 22ea 6d3f ce3c 583f b7c4 663f 5f89 843f
00000110: 0a9c 623f 5edd 703f 0578 803f 9891 733f
00000120: b739 753f de09 6d3f c76f 743f e6ba 733f
00000130: 8040 5e3f 6a79 783f d525 6e3f fb5e 653f
00000140: 833f 773f 10d0 7d3f 5fbd 763f 5180 713f
00000150: 6977 6e3f aee9 753f e4e2 7f3f 5072 763f
00000160: e583 7c3f 25f7 663f 1e92 883f a0c4 3f3f
00000170: 38bf 833f e673 873f 9542 8b3f f7e3 723f
00000180: 9fb6 9d3f 8bea 6c3f 42c3 773f c03e 723f
00000190: e5ad 6b3f 75bc 8a3f 4793 783f f9ef 853f
000001a0: 75e0 793f 08f9 513f d150 6b3f a617 803f
000001b0: 0403 6d3f 3a5f 6b3f f557 7d3f a3d4 5a3f
000001c0: 717e 863f 330d 5d3f 2f73 813f 2559 773f
000001d0: 12e3 4a3f 0582 863f e5a9 883f dcfb 7f3f
000001e0: af3c 803f fafc 803f 5994 653f 56c8 8c3f
000001f0: 4b3a 843f af89 383f 1cbb 7f3f 4ffe 673f
0.9302799 0.9139346 0.8696859 1.0022554 0.8957268 0.9057247 0.987505 0.92874277
0.9402081 0.89515907 0.90438247 1.0424539 1.0409317 0.98511004 0.88039786 0.98369503
1.1230372 0.84228384 1.0316054 1.0183423 0.989023 0.8895124 1.020507 0.9976242
0.9885404 1.052852 0.9797476 0.9373338 0.92877245 0.89138573 0.974687 1.0171763
0.8717615 0.96655244 1.0797894 0.85174763 0.961363 1.0291971 0.9222617 0.9799937
1.0157325 1.1675729 0.8672133 0.9682352 0.87062687 1.1112193 0.8581466 0.9891401
0.91995347 0.9445991 0.9729901 0.9907154 0.9756652 0.9955321 0.9779189 1.0008141
0.6086283 0.85244864 0.9697429 0.9128025 1.0951656 0.8600862 1.0112321 0.94756
0.92935383 0.8446778 0.90143913 1.0354422 0.88519347 0.9408778 1.0036627 0.95144033
0.9579119 0.9259318 0.9548306 0.9520706 0.8681717 0.97060263 0.9302648 0.89598054
0.96581286 0.99145603 0.9638271 0.9433642 0.93150955 0.9605969 0.9995558 0.9626818
0.98638755 0.9022086 1.0669591 0.749094 1.029273 1.0582244 1.0879694 0.94879097
1.2321357 0.92545384 0.96782315 0.94627 0.92062217 1.0838763 0.9709973 1.0463859
0.9760812 0.82020617 0.9192019 1.0007217 0.92582726 0.9194218 0.98962337 0.8548071
1.0507337 0.86348265 1.0113276 0.966204 0.7925273 1.0508429 1.0676848 0.9999368
1.0018519 1.0077202 0.89679486 1.0998638 1.033029 0.7208509 0.9989488 0.9062242

encoder.convs.1.node_mlp.weight f4 [128, 256]
00000000: f765 8b3b 11d8 8bbc f2c9 f5bc bd64 e83b
00000010: 4ab0 033d 5349 d7bc 85a8 b53c ea0b 793d
00000020: 3f09 22bb b0b0 70bd 861d 57bd e033 053d
00000030: 1783 afbc 5a9a 9b3c f75a 5cb8 380d 903c
00000040: efe4 853a efb8 873d eb84 89bc 2cd1 1dbc
00000050: 996b 853c 3700 9fbc 7011 fe3c a129 483c
00000060: 404b 603c ef83 853d 82f6 36bd 51ae d53c
00000070: 06f2 61bb 821f 79bd 0b75 5d3d a73c 6c3c
00000080: 325c 4bbd 6dcc 313b 3183 513d 82bf 68bd
00000090: f15e 123d 3f7c 203d 1089 19bd 9727 533d
000000a0: 0306 833c 3f13 8c3c a1d6 413d 132d 853c
000000b0: f49f c4b9 bd2c 60bd 2a7e 48bb e888 993c
000000c0: 76ef 943c 0c2b 7a3d d0a2 433d 758a 00bd
000000d0: fa03 b0b9 6954 573c 29dd 603d e109 143d
000000e0: 726e fc3c f359 42bd fa47 233c 853d 0a3c
000000f0: 5366 1dbd 24df 1c3d 3bce 183d 1bd6 193d
00000100: f29c 843c 16b7 553d 2a93 e73b 1a14 14bd
00000110: 3520 78bb ce87 4e3c e2d0 fc3b b017 95bb
00000120: 2fb6 06bd 362a 21bd 0ac7 94bc 984f 4d3d
00000130: 7e98 bebb 5881 59bd 40df d8bc 5759 b4bc
00000140: 7656 d13c 4957 693d 134e 3dbc 9d46 cc3c
00000150: ca3c 09b8 fa8f 24bd a798 08bc c4a0 973c
00000160: f3fc ab3c d095 29bd 2caa 9a3c 118b e4bb
00000170: 2ccb 3fbd 72e9 2bbc 1b01 ae3c 3ab7 a8bb
00000180: 7e83 c13c 1251 76bc f592 fdbb 3858 233d
00000190: 1d3f 133d 81ee 46bc dec5 6d3d 384b 2fbb
000001a0: 11f0 57bd a407 89bc a2c8 e2bb 4b9f a1bb
000001b0: a09a e73c 7b48 27bd b722 8cbc 460b 073d
000001c0: 6a80 b73c a112 1abd 457a a1bc 4717 06ba
000001d0: 366d 43bc 7249 85bc 9747 88bb 2a0f 18bc
000001e0: 7863 54bd 911a 393d 051a 643d 1915 8c3c
000001f0: f4e3 e2b9 fb70 00bc f2dc f03c 20e3 0c3d
00000200: 15cf 763a aaa3 95ba f7ae 86bd 280e a43b
00000210: 52cb ecbc b215 803d f817 5f3d 95aa 66bd
00000220: aa93 4f3e 5ef3 86bd a192 d5bd 769b 4ebd
00000230: 2cc5 cb3d 41ad c5bd 72b4 993d 2868 d53c
00000240: 94b7 14bd 3ed4 f93d 947a b83d 898f bd3b
00000250: b0de 11be 3758 053c 2f89 96bd 050b 683e
00000260: 152a da3d b0cb a3bd 75e6 983c c3ab 00be
00000270: 56c8 a13d ed9b e43c 0287 92bc db20 37bd
00000280: 5f53 3abd 7fd0 313d 4133 093e 7a48 4ebe
00000290: a8b7 91bd a07c d73d 9136 b83c 70d1 313d
000002a0: 7821 edbc 294a 623d ad9d 8abd 8ece b5bc
000002b0: a4cb 2abb 9203 ee3d 0886 e03c 7b05 613b
000002c0: 5347 08be be50 3f3e 4f7f c83c 6e77 1cbe
000002d0: 68fa 183d a2ad bf3d 5ade b3b9 77ac 60bd
000002e0: a801 c1bd 327e b23c 0ba8 a3bd ae8a c8bd
000002f0: 298f 123d 284e 1dbe 9a15 9c3d 87d4 9c3d
00000300: adaa 953d bbcd 213d 60bc 183e 7979 15bd
00000310: 4785 f63d 2476 aabd b1b7 243e b883 783c
00000320: 24ad 8b3b 3bbb ad3d f442 493d 5cb9 823c
00000330: da00 afbd 4669 0abc c0cd 833d 5a98 c7bc
00000340: 86c9 99ba f3a2 30be 9e23 f3bc 1225 b53d
00000350: 0beb a03d cece a83d cbb7 ca3c 3ebf f03d
00000360: bf14 c03c e1f1 b6bc 80e9 0cbe 092d 03be
00000370: a604 ca3c 2d18 7abc 9659 3ebd 0847 163e
00000380: 39c1 9a3d a925 86bd 9fc9 67bd 03fd 0ebd
00000390: 0e1d d23c 219b 03bd 1071 b53d 5883 b7bd
000003a0: 4174 8fbd e915 283d 45d9 cfbd 5e32 823d
000003b0: a9bf 86bd de2d afbc 1a05 87bc 318e be3c
000003c0: a1ec b83d bb9f 89bd 7b53 dabd e626 203e
000003d0: 94c9 033d 1c65 0c3e 99db 78bd 62b9 e93d
000003e0: bfab 4fbd 5ac6 c93c 698a 1d3c 2db6 91bd
000003f0: fe3c de3c 00de a43c 4124 8fbd f1c2 b93c
0.0042540985 -0.017070802 -0.030003522 0.007092087 0.032150544 -0.02628008 0.022175083 0.060802378
-0.002472475 -0.058762252 -0.05251839 0.032520175 -0.021424813 0.018994499 -5.2536805e-05 0.017584428
0.0010215322 0.0662707 -0.016787013 -0.00963239 0.016286658 -0.019409282 0.031014174 0.012216956
0.013689816 0.06519305 -0.044668682 0.026084097 -0.0034476533 -0.060821064 0.0540667 0.0144187575
-0.04964847 0.0027129904 0.051150504 -0.05682326 0.035735074 0.03918099 -0.03748423 0.051551428
0.015994078 0.017099021 0.047323827 0.016256845 -0.00037503208 -0.054730166 -0.0030592778 0.01874204
0.01818059 0.06107621 0.047762692 -0.031382043 -0.000335723 0.013142684 0.054898415 0.036142234
0.030814383 -0.047449064 0.009965891 0.008437519 -0.038427662 0.03829874 0.03730605 0.037557703
0.016188119 0.052176557 0.007067104 -0.036151983 -0.0037860994 0.012605621 0.0077153305 -0.004549943
-0.032888588 -0.039346896 -0.018161315 0.050124735 -0.0058165183 -0.053101867 -0.026473641 -0.022015257
0.025553923 0.056968007 -0.011554259 0.024936015 -3.271996e-05 -0.04017637 -0.008337176 0.018509276
0.020994639 -0.041402638 0.018879972 -0.006974586 -0.04682462 -0.010492669 0.021240762 -0.0051487954
0.02362227 -0.015033977 -0.007738466 0.039879054 0.03594886 -0.012141825 0.05805003 -0.0026747715
-0.05271918 -0.016727276 -0.00692089 -0.0049323193 0.028271973 -0.040840607 -0.017106397 0.032969736
0.0224001 -0.037615422 -0.019711623 -0.0005115163 -0.011927893 -0.016270373 -0.004158925 -0.009280959
-0.051852673 0.04519135 0.055688877 0.017099904 -0.00043275917 -0.007839437 0.02940223 0.03439629
0.0009415013 -0.0011416574 -0.06576341 0.0050065704 -0.028905544 0.06254138 0.054466218 -0.056315023
0.20271173 -0.06589387 -0.10428358 -0.050441228 0.09949717 -0.09652186 0.0750512 0.026050642
-0.036307886 0.12198685 0.09007755 0.005784933 -0.14245105 0.008138708 -0.073503844 0.22660454
0.10652558 -0.07997835 0.018664578 -0.12565522 0.07899539 0.027906382 -0.017886642 -0.044709068
-0.045489665 0.043411728 0.13398458 -0.20144835 -0.07115108 0.10521817 0.022486957 0.043412626
-0.028946623 0.055246506 -0.067683555 -0.02219322 -0.002606132 0.11621775 0.027407661 0.0034335542
-0.13308458 0.18683144 0.024474768 -0.15279934 0.03734818 0.0935929 -0.00034307205 -0.054851975
-0.09424144 0.02178869 -0.07991036 -0.09792076 0.03578106 -0.15361845 0.07621308 0.07657724
0.073079444 0.03950284 0.1491561 -0.0364928 0.120371394 -0.08323315 0.16085698 0.015168123
0.0042625833 0.08482977 0.049136117 0.015957527 -0.08545084 -0.008447951 0.06435728 -0.02436464
-0.0011733032 -0.1724966 -0.02968007 0.08844961 0.07857331 0.0824257 0.024745842 0.117552266
0.023447393 -0.022332134 -0.13760948 -0.12810148 0.02466042 -0.015264553 -0.046472155 0.14675534
0.075563855 -0.06550152 -0.056588765 -0.03490926 0.02564862 -0.032130364 0.088594556 -0.08960599
-0.070045955 0.04103652 -0.10148863 0.06357263 -0.06579525 -0.021384176 -0.016481925 0.023261162
0.090295084 -0.06719919 -0.10660454 0.15639839 0.03217466 0.13710445 -0.0607563 0.11412312
-0.0507009 0.024630714 0.009615519 -0.071148254 0.027128693 0.02012539 -0.06989337 0.022675963

encoder.convs.1.node_mlp.bias f4 [128]
00000000: e883 34bd 69d5 773d b8a7 8a3c 19c1 653d
00000010: 1c08 003d ed43 8ebc c785 e83c 53e9 22bc
00000020: ce9a 023d 001d 183d 6e48 4fbb f8d3 acbd
00000030: 94c2 50bc 3ffa 1abd 7d55 b73d c514 6fbb
00000040: c983 5b3d b877 3f3c c06e 4bbd b423 4dbd
00000050: d33c 88bd 59d9 303d 3f3e 05bd 7834 323d
00000060: 8e33 7fbd e940 6e3d bee9 a53c 21b3 e03d
00000070: a676 47bd 8a61 03bd 6305 203c 4070 563b
00000080: 3d6a be3c 5b7d 11bd 8f2b 5b3d 4a1d 303d
00000090: 8cc8 4fbd e845 593d 9f12 763d 3aa1 8c3c
000000a0: c619 1bbb 71be ec3b 6eb3 043d 27a2 71bb
000000b0: 774c 74ba 62b8 f83b f04c 6a3d d107 d63c
000000c0: 9cf9 c13c 5f74 24bc 5fb5 be3d 2aa3 28bd
000000d0: 4ff2 a83c c8e7 d73b 4862 533c bff4 2abc
000000e0: 0ec5 963d 8818 afbc 06c9 ec3d 34d7 d83c
000000f0: 8651 413c 3d1c c9bd 3fcb 91bc 66df 26bc
00000100: d81b d6bc 9926 0bbd 2718 42bd 5f40 e8bb
00000110: 127a 89bc 0df5 0bbd 0a58 41bd c2fb b83c
00000120: 1c25 9bbc 8bc0 713d 2256 e6bc fe39 a83b
00000130: f58e 373d 98b9 9cbd 0049 5abd 36ae 85bd
00000140: 13a4 e03c 4ea6 693d d1f8 113b f357 b23b
00000150: 4534 893c 0fd0 36bd fd74 87bb fa68 843c
00000160: 32b7 22bd db80 3ebd 4cef bd3d 137c db3c
00000170: 7b31 a7bc b37e 413d 9477 763c 20aa 07bd
00000180: b044 b53c b66c 9fbc 877c 9e3d 50eb 3fbc
00000190: 362c 40bb 540b ae3d 1df4 193c ba78 b43c
000001a0: be43 e5bb 3870 863c 2f80 8ebd eb74 183c
000001b0: 4230 43bd 90e2 dbbc dd74 05bb 95d1 41bd
000001c0: f622 2cbd 8ac6 eb3a c44b ab3d 562c 3b3d
000001d0: bb37 af3d 365a dabd 7463 423d 4c83 af3d
000001e0: a5ed b2bd 11c0 98bd ed40 c2bd 836f d33b
000001f0: 8d50 523d f751 c8bd 4b9c a9bc 5440 5f3d
-0.044071108 0.06050626 0.016925678 0.056092355 0.031257734 -0.017366374 0.028384103 -0.009943324
0.031885915 0.03713703 -0.0031628865 -0.08438867 -0.012741704 -0.03783631 0.089518525 -0.0036480885
0.053592477 0.011686258 -0.049666166 -0.050082877 -0.06652226 0.04317603 -0.032530066 0.04350707
-0.062305026 0.058167372 0.020253059 0.10971666 -0.048697136 -0.032075442 0.009766909 0.0032720715
0.023244018 -0.03551994 0.053508338 0.042996682 -0.050728366 0.053045183 0.060076352 0.017166723
-0.0023666485 0.007224851 0.03239768 -0.0036870332 -0.00093192555 0.0075903395 0.05720228 0.026126774
0.023678593 -0.010037511 0.093119375 -0.04117123 0.020623354 0.00658891 0.01290185 -0.010434329
0.07361804 -0.021374002 0.1156178 0.026469804 0.011799222 -0.09819839 -0.01779711 -0.010185098
-0.026136324 -0.033972356 -0.047386315 -0.0070877518 -0.01678184 -0.034169246 -0.0472031 0.022580985
-0.018938594 0.059021514 -0.028117243 0.0051338663 0.04481407 -0.07652587 -0.053292274 -0.06527369
0.027421987 0.057043366 0.002227355 0.0054426133 0.016748557 -0.044632014 -0.004133819 0.016163338
-0.03972549 -0.046509605 0.09274158 0.026792562 -0.020409336 0.04723997 0.015043158 -0.03312123
0.02212748 -0.019461017 0.077385955 -0.011713818 -0.0029323227 0.084982544 0.00939658 0.022030223
-0.006996601 0.016410932 -0.06958043 0.009305219 -0.047653444 -0.026841432 -0.0020363845 -0.047319014
-0.04202553 0.0017988246 0.083640605 0.04569658 0.085555516 -0.106617376 0.047458127 0.08569965
-0.08736733 -0.07458509 -0.0948504 0.006452502 0.05134635 -0.097812586 -0.02070441 0.054504707
