checkpoints/model_D_epoch_19.pth (torch, 552443 bytes, 27 tensors)

encoder.node_embedding.weight f4 [1, 128]
0	0x3fed296d	1.8528267
1	0x3fb6b1f1	1.4273053
2	0x3f57c1cc	0.84280086
3	0xc001e160	-2.0293808
4	0x3f20f420	0.62872505
5	0xbf982df8	-1.1889029
6	0xbce3fff4	-0.027832009
7	0xbfc5b982	-1.5447237
8	0xbf375b38	-0.71623564
9	0x3fcaa362	1.583111
10	0xbeba37d7	-0.36370727
11	0xbfac6574	-1.3468461
12	0xbf2fba75	-0.68643886
13	0xbf0394a2	-0.5139867
14	0xbf384316	-0.71977365
15	0x3f38baa2	0.7215978
16	0x3fc9ab0e	1.5755327
17	0xbe15156d	-0.14558955
18	0xbeec8699	-0.4619644
19	0x3ed24018	0.41064525
20	0xbf3321d3	-0.69973487
21	0x3f828a4f	1.0198458
22	0x3f449487	0.76789135
23	0x3fd1103e	1.6333082
24	0x3f9d46dd	1.2287251
25	0x3f9f281c	1.2434115
26	0x3f15401f	0.58300966
27	0x3fa3f827	1.2810105
28	0xbe451988	-0.1924802
29	0x3cb04356	0.021516483
30	0xbe5acd8b	-0.21367471
31	0x3f4f2103	0.80909747
32	0xbfaa5eed	-1.3310219
33	0xbf51104c	-0.8166549
34	0xbe5137cd	-0.20431443
35	0x3fd4c265	1.6621825
36	0x3e8e5398	0.27798152
37	0xbecbc431	-0.3979812
38	0x3e820308	0.25392938
39	0xbf3885ad	-0.72078973
40	0xbfbed0ec	-1.4907508
41	0x3f72acb3	0.9479477
42	0xbf5654e9	-0.8372331
43	0xbf164434	-0.5869782
44	0xbf9bea34	-1.2180848
45	0x4003ecff	2.06134
46	0xbf973ee9	-1.1816074
47	0xbeebddf1	-0.46067765
48	0xbf60cfe2	-0.87817204
49	0xbf1b88c3	-0.60755557
50	0x3d94a3b8	0.072577894
51	0x3efb125a	0.4903744
52	0xbee8d1f2	-0.45472676
53	0x3f9173a8	1.136342
54	0xbf40775a	-0.75182116
55	0xbf2f9d32	-0.68599236
56	0xbfae052c	-1.3595328
57	0x3c9f479b	0.019443324
58	0xbd2212cb	-0.039568704
59	0x3f255cd2	0.6459476
60	0xbd93b09a	-0.072114184
61	0x3fe509a6	1.789357
62	0xbf91d18d	-1.1392075
63	0x3faae649	1.3351527
64	0x3fb013c5	1.3756033
65	0x3f5036f2	0.8133384
66	0x4009bf2b	2.152293
67	0x3ef8263c	0.4846667
68	0x3e9b9169	0.30384377
69	0xbe2eb1af	-0.17059968
70	0xbf7d3aee	-0.98918045
71	0x3f9bc98b	1.2170881
72	0xbe151fd4	-0.14562923
73	0x3ef17568	0.47159886
74	0x3cde67ef	0.027149169
75	0x3ec593ad	0.3858923
76	0x3f0d24d2	0.5513431
77	0xbf1a138c	-0.60186076
78	0xc008b515	-2.1360524
79	0xbf316957	-0.6930136
80	0xb9942ba5	-0.00028261277
81	0xbe9dfc61	-0.30856612
82	0xbfa577ea	-1.292722
83	0xbf0e1839	-0.5550571
84	0x3efee95a	0.49787408
85	0x3ef543de	0.4790334
86	0x3f8b9ec3	1.0907825
87	0x3c912aa5	0.01772053
88	0x3f30babe	0.69034946
89	0xbeddd2c2	-0.43324858
90	0xbf80a6ac	-1.0050864
91	0x3f112c66	0.5670837
92	0xbfd37980	-1.6521454
93	0xbf4a416b	-0.7900607
94	0x3fa3da84	1.2801061
95	0x3ee644b9	0.44974306
96	0xc01d1f38	-2.4550304
97	0x3ee2de3b	0.44310173
98	0x3f3f29fa	0.74673426
99	0x3b7ee2dc	0.0038892543
100	0x3f196246	0.5991558
101	0x3f0c9b62	0.54924595
102	0x3f7f6997	0.9977049
103	0xbed79e3b	-0.42112908
104	0xbe0f6280	-0.14002419
105	0x3f36f8c9	0.71473366
106	0x3ebc0d70	0.36729002
107	0x3e04d6e8	0.12972605
108	0x3e6ef8aa	0.23337045
109	0x3f9c5ba2	1.2215464
110	0x3a080542	0.0005188772
111	0xbe89a65f	-0.26884744
112	0xbfb434fe	-1.4078672
113	0xbda192d8	-0.07889336
114	0xbf0e8702	-0.55674756
115	0x3edf598a	0.43623
116	0x3f2d314a	0.67653334
117	0x3d9f8132	0.07788314
118	0xbeb06fc8	-0.34460282
119	0x3efa480e	0.48883098
120	0x3a9a5dc1	0.0011777208
121	0x3e462b18	0.19352376
122	0x3dda5841	0.10661364
123	0x3f3a1d8a	0.72701323
124	0x3f88b2a4	1.0679517
125	0x3e9a2107	0.30103323
126	0x3f2dcdcb	0.6789214
127	0x3ec36a5f	0.38167092

encoder.convs.0.node_mlp.weight f4 [128, 256]
0	0x3d67d4c6	0.0565994
1	0xbbd6d3ae	-0.006555996
2	0x3d6d165e	0.05788266
3	0x3c5c1af0	0.013434157
4	0xbd3cd5d4	-0.04610236
5	0x3d1604ef	0.0366258
6	0xbcb48c47	-0.022039546
7	0xbcecc1c0	-0.028900981
8	0xbd65b9d5	-0.056085426
9	0xbd61439a	-0.05499611
10	0x3c43d3b4	0.011952329
11	0xbc9a30b2	-0.018822048
12	0x3c95014a	0.018189091
13	0xbd62f8d5	-0.055413086
14	0x3d22c6f0	0.039740503
15	0xbd209a4a	-0.03920964
16	0xbba38759	-0.0049905
17	0x3bea6f88	0.007154409
18	0x3cd486dc	0.025943212
19	0x3d5fb064	0.05461158
20	0x3d4cd806	0.050010704
21	0xbd2f27d3	-0.04276259
22	0x3caab724	0.020839281
23	0xbca91eec	-0.020644628
24	0xba958c95	-0.0011409695
25	0xbd240f64	-0.04005374
26	0x3d79da79	0.060999367
27	0xbd207012	-0.03916938
28	0x3cdd62aa	0.027024586
29	0x3cd91864	0.026500888
30	0x3c6a82fb	0.014313455
31	0xbce074dd	-0.027399475
32	0x3d4c09a5	0.049813885
33	0x3c011648	0.007878847
34	0x3b17fd56	0.0023191771
35	0xbd450fe8	-0.048110873
36	0x3cfdd120	0.030983508
37	0xbc707d5b	-0.014678325
38	0xbcb814ad	-0.022470796
39	0x3d3fdd0f	0.046841677
40	0x3c03abf3	0.008036601
41	0xbce6bc16	-0.028165858
42	0xbd14da20	-0.036340833
43	0xbc0a70b9	-0.008449727
44	0x3ce95082	0.028480772
45	0xbc241252	-0.0100141335
46	0xbd24da6d	-0.04024737
47	0xbcd7ca10	-0.026341468
48	0xbd50f23b	-0.05101226
49	0x3c851d0a	0.016249198
50	0x3d581fa9	0.05276457
51	0xbd54330b	-0.05180649
52	0x3c0d9fa1	0.0086440155
53	0x3d1770db	0.03697286
54	0x3bb640ce	0.0055619245
55	0xbcde897b	-0.027165165
56	0x3cd6ecd3	0.026235973
57	0x3d16f483	0.03685428
58	0x3c8e730a	0.01738884
59	0xbba930b7	-0.005163278
60	0xbcaff28f	-0.021477966
61	0x3c45c351	0.012070493
62	0xbc8559ec	-0.01627823
63	0xbc4e86b5	-0.012605359
64	0x3d360834	0.044441417
65	0x3d6cdf6f	0.05783027
66	0xb9f46718	-0.00046616117
67	0xbc0632d0	-0.008190826
68	0x3bce523f	0.0062964256
69	0xbc156038	-0.009117179
70	0x3c15b137	0.00913649
71	0x3cb8f66e	0.022578444
72	0xbd78ac4a	-0.060711183
73	0xbc8b5aea	-0.017011125
74	0x3d66e7fc	0.05637358
75	0x3cef3a85	0.029202709
76	0x3b23fdc3	0.002502308
77	0xbd2cf608	-0.04222682
78	0xbd2f60c3	-0.04281689
79	0xbd75e4f8	-0.060032815
80	0xbcabec55	-0.020986715
81	0x3c76fa6c	0.015074354
82	0x3d085851	0.03328735
83	0x3cb903ad	0.02258476
84	0xbd45dc18	-0.0483056
85	0xbcfeebe2	-0.031118337
86	0xbb85d3b8	-0.0040840767
87	0x3d8200f3	0.06347837
88	0x3c6a1f12	0.014289634
89	0xbcadeeb1	-0.021231981
90	0x3ca12154	0.019669212
91	0xbc911901	-0.017712118
92	0xbd3808e9	-0.044930372
93	0x3d1f5f7e	0.038909428
94	0xbcb584c0	-0.022158027
95	0xbbdc9583	-0.0067316904
96	0xbd8764b0	-0.066110015
97	0x3d3d44a1	0.046208028
98	0x3d5378b5	0.051628787
99	0x3ceb3c9f	0.02871543
100	0xbd177b66	-0.036982916
101	0xbd5fb28c	-0.054613635
102	0xbd3404ef	-0.043950018
103	0x3d23b3a7	0.03996625
104	0x3cc4027f	0.023926971
105	0x3d686213	0.056734156
106	0x3d18f8be	0.037346594
107	0x3ca946f7	0.020663721
108	0x3ba04943	0.004891546
109	0xbd270aa2	-0.040781625
110	0xbd410cc7	-0.047131326
111	0xbd7f4837	-0.06232473
112	0x3c9eabe9	0.019369083
113	0xbd0fe90c	-0.03513436
114	0xbc9193f3	-0.017770743
115	0xbcf21ee2	-0.029555742
116	0xbbb76ea3	-0.0055979057
117	0xbd18b2ae	-0.037279777
118	0xbd390824	-0.04517378
119	0x3cd278dd	0.025692398
120	0x3bde4572	0.006783181
121	0x3d2f9d22	0.042874463
122	0xbc6683b7	-0.014069489
123	0xbd208048	-0.03918484
124	0xbbaa05bd	-0.0051886723
125	0xbcc545d7	-0.024081154
126	0xbc570e7c	-0.013126012
127	0xbd56e5f1	-0.052465383
128	0x3cde9a71	0.027173253
129	0xbbf62d6c	-0.007512739
130	0x3d4f577f	0.050620552
131	0x3bc80bd7	0.006104927
132	0x3d347fcf	0.0440672
133	0xbd8d49e3	-0.068988584
134	0x3d8e4202	0.06946184
135	0x3d0cdeea	0.034392275
136	0xbc99f783	-0.01879478
137	0x3d06629d	0.03280889
138	0xb789b52d	-1.641604e-05
139	0x3cc81ab9	0.024426805
140	0xbc8aed7d	-0.016958946
141	0xbd389471	-0.04506344
142	0x3d8e5b1f	0.06950974
143	0xbd2a739b	-0.041614156
144	0x3d9da801	0.0769806
145	0xbcc2372e	-0.023707952
146	0xbd0b91eb	-0.034074705
147	0x3c928699	0.017886447
148	0xbc114a91	-0.008867876
149	0x3d39b15c	0.04533516
150	0x3cb5d523	0.022196358
151	0xbdde1f02	-0.10845758
152	0xbcf5720e	-0.029961612
153	0xbce5dd4d	-0.028059626
154	0x3d16108e	0.03663688
155	0xbdbd1255	-0.09232012
156	0xbd67dee2	-0.056609042
157	0x3cd13689	0.0255387
158	0xbdfea52c	-0.12433848
159	0x3d228518	0.03967771
160	0x3d95f6d1	0.07322467
161	0x3da78fe4	0.08181742
162	0xbd87c93d	-0.0663018
163	0xbd1601e4	-0.036622897
164	0xbd56397e	-0.052300923
165	0xbd68e564	-0.05685939
166	0x3d2ceb34	0.042216495
167	0x3dabcddf	0.08388876
168	0x3c615d30	0.013755128
169	0x3bce0d0f	0.006288178
170	0xbd9b9835	-0.075973906
171	0xbd675ae5	-0.05648317
172	0x3d8a5324	0.06754139
173	0xbdb7a498	-0.08966941
174	0xbc482443	-0.012215677
175	0xbd5d5fb3	-0.054046344
176	0xbd3bb981	-0.045831207
177	0x3d1ce9a4	0.038308755
178	0xbcc75bfb	-0.024335852
179	0x3cc6b5cf	0.024256615
180	0xbd85451e	-0.06507324
181	0x3d7bfd71	0.061520997
182	0x3daa059e	0.08301853
183	0x3d085a49	0.033289228
184	0xbd499a11	-0.049219195
185	0x3c8494d4	0.016184248
186	0x3d121fee	0.03567498
187	0x39ead103	0.00044787684
188	0x3df8cff3	0.12149038
189	0x3d91cfaa	0.07119687
190	0xbb1cacc5	-0.002390669
191	0xba762d1d	-0.00093908777
192	0xbd4796f2	-0.048727937
193	0x3b8ebaeb	0.0043557785
194	0x3c0c3021	0.008556397
195	0x3a826ee0	0.0009951256
196	0xbced066b	-0.028933724
197	0xbcd5367f	-0.026026962
198	0xbd9e0e5b	-0.07717582
199	0xbd00c5ad	-0.03143852
200	0xbd472801	-0.048622135
201	0xbcb547a7	-0.022128893
202	0x3d6c7e18	0.05773744
203	0x3d1b0ff9	0.03785703
204	0xbcd4d044	-0.025978215
205	0xbdb54eb8	-0.08852905
206	0xbd03f6d6	-0.032217823
207	0xbd0a8ab9	-0.033823702
208	0x3d333c0a	0.04375843
209	0x3cc54c9a	0.024084378
210	0xbc5c4368	-0.013443805
211	0xbcd85fb1	-0.026412817
212	0xbd1c1754	-0.038108185
213	0xbcdb56b5	-0.026774744
214	0xbd87c87e	-0.06630038
215	0xbcd52531	-0.02601871
216	0xbdd1c7ff	-0.10243224
217	0xbd381a44	-0.044946924
218	0x3da797db	0.08183261
219	0x3c5d533c	0.013508614
220	0xbbbad9a6	-0.0057022152
221	0x3ca19b65	0.019727418
222	0x3d544eab	0.051832836
223	0xbd284e24	-0.041090146
224	0xbcb43fcd	-0.022003079
225	0x3d597b3d	0.053096045
226	0xbd0d3e0a	-0.034482993
227	0xbd3a6f30	-0.045516193
228	0x3c70f5af	0.014707013
229	0x3ca2c2d6	0.019868296
230	0xbd516668	-0.051123053
231	0x3d249098	0.040176958
232	0xba2aea7d	-0.0006519927
233	0xbdc821e5	-0.0977209
234	0xbd2fa452	-0.042881317
235	0x3d9cd013	0.076568745
236	0x3d214d1e	0.039380185
237	0x3c59e844	0.013300005
238	0xbb9892e7	-0.004656184
239	0xbd0d4d83	-0.03449775
240	0xbd967585	-0.07346634
241	0xbd84e36a	-0.06488688
242	0x3ccf6b87	0.025319828
243	0x3c37d8c1	0.011221112
244	0x3acb871d	0.0015527938
245	0x3b89f735	0.0042103776
246	0xbd8402ee	-0.06445871
247	0xbd43a8a8	-0.047768265
248	0x3da4601b	0.08026143
249	0x3dd3233e	0.10309456
250	0x3d87cc94	0.06630817
251	0xbcf5210b	-0.029922983
252	0x3d5ccc38	0.053905696
253	0xbd5fe00e	-0.054657035
254	0x3ccf95ef	0.025340049
255	0xbc89c556	-0.01681773

encoder.convs.0.node_mlp.bias f4 [128]
0	0xbd2d2d2b	-0.042279404
1	0x3c607b00	0.0137012005
2	0x3c5ea818	0.013589881
3	0x3d580bcd	0.05274563
4	0x3cfd35cc	0.030909441
5	0xbc96165b	-0.018321207
6	0xba6da3c9	-0.00090652384
7	0xbd32b471	-0.043629114
8	0x3b87bd7f	0.0041424627
9	0x3ba9b52b	0.0051790676
10	0x3d75b93d	0.05999111
11	0x3d62aa60	0.055338264
12	0xbd31a7ab	-0.04337279
13	0x3d7d041d	0.0617715
14	0xbd5236a2	-0.051321633
15	0x3ccf839b	0.025331309
16	0x3ced13a7	0.028940035
17	0x3cebe224	0.028794356
18	0x3d29f29e	0.041491143
19	0xbc876f3f	-0.016532538
20	0x3d5ce44f	0.05392867
21	0x3bf01f3c	0.007327942
22	0x3c1095dc	0.008824792
23	0xbc969a6f	-0.018384187
24	0xbd5c629c	-0.05380498
25	0xbc673b9c	-0.014113333
26	0x3bbb78f7	0.0057212072
27	0xba8c40c6	-0.0010700456
28	0xbc6be738	-0.014398389
29	0x3a8b15a4	0.0010611308
30	0xbb1636e0	-0.0022920892
31	0xbcf8684d	-0.030323172
32	0xbb91b03a	-0.0044460567
33	0xbd5da156	-0.05410894
34	0x3b6d35b9	0.0036195351
35	0x3d3c78bb	0.046013575
36	0xbcca71c2	-0.024712447
37	0x3d22f19f	0.03978121
38	0xbccf7552	-0.025324497
39	0xbd0666a1	-0.03281272
40	0x3ce926ad	0.028460825
41	0xbd78a396	-0.060702883
42	0x3d093155	0.033494312
43	0x3d097932	0.033562846
44	0x3c81c024	0.01583869
45	0xbb494c1a	-0.0030715526
46	0xbd0aff18	-0.033934683
47	0xbd1ffdb3	-0.039060306
48	0x3d876dbf	0.06612729
49	0x3cadea32	0.021229837
50	0x3d049fb2	0.03237886
51	0xbcea8e9f	-0.02863246
52	0x3d26b23c	0.04069732
53	0xbd1b6360	-0.03793657
54	0x3d1a9309	0.03773788
55	0x3d2dd69d	0.042441
56	0xbd4f0f65	-0.05055179
57	0xbd365638	-0.04451582
58	0xbd772785	-0.060340423
59	0xbd0c15b3	-0.03420038
60	0x3c9e65e4	0.019335695
61	0xbd478e6f	-0.04871982
62	0x3d1e929b	0.038714033
63	0xbd1517b7	-0.03639957
64	0xbc4ddeca	-0.012565324
65	0x3bd87ee3	0.006606923
66	0xbd27bc4c	-0.04095106
67	0xbbc192ea	-0.005907406
68	0xbd6a6af7	-0.057230916
69	0xbd404f90	-0.046950877
70	0x3b0d3288	0.0021545012
71	0xbcf3362e	-0.02968892
72	0x3d4db8cb	0.05022506
73	0xbd191319	-0.03737173
74	0x3ce92656	0.028460663
75	0x3d01b28d	0.03166442
76	0xbca1d9f4	-0.019757248
77	0xbca9af5d	-0.020713503
78	0x3cd6d812	0.026226077
79	0xbcfcb8f9	-0.03084992
80	0x3cac9e84	0.02107168
81	0xbce31ca1	-0.027723612
82	0xbc4820e8	-0.012214877
83	0xbd4146b7	-0.04718658
84	0x3d717a14	0.058954313
85	0xbd4b38cc	-0.049614713
86	0xbc4d01f2	-0.012512671
87	0x3cea3481	0.028589489
88	0xbd3523a3	-0.04422344
89	0xbb2e1772	-0.0026564267
90	0x3d6961fa	0.056978203
91	0x3c999529	0.018747883
92	0x3d3531b1	0.044236843
93	0xbd49937e	-0.049212925
94	0x3cef204c	0.029190205
95	0x3a8772e0	0.0010333918
96	0xbb19996d	-0.0023437396
97	0xbc90d29f	-0.017678557
98	0xbc6ce7ad	-0.014459533
99	0x3d225ea5	0.03964104
100	0x3d083ce7	0.033261206
101	0xbd4302c1	-0.04761005
102	0x3d54c420	0.051944852
103	0x3d483347	0.048877027
104	0xbc92c2c1	-0.017915132
105	0x3c3fe311	0.011711852
106	0x3c74b4c5	0.014935677
107	0xbd4b83b1	-0.049686138
108	0x3c92961d	0.017893845
109	0x3d7a5e73	0.06112523
110	0xbc852170	-0.016251296
111	0xbd471a10	-0.04860884
112	0xbd0331bd	-0.032029856
113	0x3d270f76	0.04078623
114	0xbb158387	-0.0022813992
115	0xbc2f00dc	-0.010681357
116	0x3c5e8031	0.013580368
117	0x3cb15802	0.02164841
118	0x3d0cf4c2	0.034413107
119	0xb80f75b4	-3.4203476e-05
120	0xbd7465df	-0.059667464
121	0x3d3b2b14	0.04569538
122	0x3d0e1eb1	0.03469724
123	0x3b3cee80	0.002882868
124	0xbd068357	-0.0328401
125	0xbc42a600	-0.011880398
126	0x3d09ad9e	0.03361284
127	0x3d346113	0.04403789

encoder.convs.0.edge_mlp.0.weight f4 [128, 7]
0	0xbe9b4a7b	-0.30330262
1	0x3e35984a	0.17733875
2	0x3db12dcc	0.08651313
3	0x3e091a11	0.1338885
4	0xbdb003ad	-0.08594451
5	0x3c2a9625	0.010411774
6	0xbe8d63f2	-0.27615315
7	0xbb258813	-0.0025258109
8	0xbe92c3de	-0.2866506
9	0x3eae1f90	0.34008455
10	0x3e138c9a	0.14409104
11	0x3dd8f517	0.10593622
12	0xbe8fa32c	-0.28054178
13	0xbe3eb22e	-0.18622658
14	0xbbbe668f	-0.005810566
15	0xbe07e32c	-0.13270253
16	0x3ce64e26	0.028113436
17	0x3cf7c344	0.030244477
18	0x3c242ddf	0.010020702
19	0xbe9cc9bb	-0.30622658
20	0x3eb5a1d1	0.3547502
21	0xbe3532c9	-0.17695154
22	0xbd370cd7	-0.04468998
23	0xbe505a76	-0.20347008
24	0x3ead24b4	0.33817065
25	0xbe112731	-0.14175107
26	0x3e6707d9	0.22561587
27	0x3e1a51c4	0.15070254
28	0xbcb035a8	-0.02150996
29	0x3c81962d	0.01581868
30	0xbe376cdc	-0.1791262
31	0xbe9a9f23	-0.30199537
32	0x3e82e5e8	0.2556603
33	0x3e7c65f5	0.24648269
34	0xbec855b9	-0.391279
35	0xbddb0b0e	-0.10695468
36	0xbe98cf43	-0.29845628
37	0xbe9c134d	-0.30483475
38	0x3d5905d4	0.052984074
39	0xbd8a6215	-0.06756989
40	0x3eb864e4	0.36014473
41	0x3e972e0a	0.29527313
42	0xbea5ba52	-0.32368714
43	0x3eb1282e	0.34600967
44	0x3e850dae	0.25987
45	0x3ea6b623	0.32560834
46	0xbddc254a	-0.107493
47	0x3c5386c1	0.012910546
48	0xbe812289	-0.2522166
49	0xbe1f808c	-0.1557638
50	0x3e7b0344	0.24512964
51	0x3eaaa7cd	0.33331147
52	0xbecafac3	-0.3964444
53	0x3e2017f5	0.15634139
54	0xbe077f34	-0.13232118
55	0xbe94de28	-0.29075742
56	0x3e43ca7d	0.19120212
57	0x3e3af571	0.18257691
58	0xbe03b73f	-0.12862872
59	0x3ebc73e8	0.3680718
60	0xbe6c8bee	-0.23100254
61	0x3e60c4f6	0.21950135
62	0x3e685c96	0.22691569
63	0xbe78d491	-0.24299838
64	0x3ec1e961	0.37873366
65	0xbe169f39	-0.14709176
66	0xbe3ef5cc	-0.18648452
67	0x3e57eedf	0.21087216
68	0x3ec46c8e	0.3836407
69	0xbe7b6bf1	-0.24552895
70	0x3ed3c589	0.41361645
71	0xbec4d904	-0.3844682
72	0x3e432007	0.19055186
73	0xbe8b2ac7	-0.27181074
74	0xbc1eec9e	-0.009699969
75	0xbeabe48f	-0.33572814
76	0x3e86e19b	0.26343998
77	0xbe70bfdc	-0.23510689
78	0xbef31ead	-0.4748434
79	0xbe6b856a	-0.23000112
80	0x3e6dfb97	0.23240505
81	0x3e08eeb1	0.13372304
82	0x3e481e31	0.19542767
83	0x3e8f4ea0	0.27989674
84	0xbe557cce	-0.2084839
85	0x3e5a9e04	0.2134934
86	0xbe93f2ef	-0.2889628
87	0xbed837c3	-0.42230043
88	0x3dfe6b93	0.12422862
89	0xbe73209e	-0.23742911
90	0x3daf6ffc	0.08566281
91	0x3e1b562e	0.15169594
92	0x3e6ce5fc	0.23134607
93	0x3eb295e6	0.34879988
94	0x3d100820	0.035164
95	0xbd7fcc66	-0.06245079
96	0xbe78575c	-0.24252075
97	0xbe6111af	-0.21979402
98	0xbdecc2e8	-0.11560613
99	0x3dde029c	0.108403414
100	0xbe58f5f7	-0.21187578
101	0xbe344a95	-0.17606576
102	0xbdfb45db	-0.12269183
103	0xbcdaae37	-0.0266944
104	0xbe2c870c	-0.16848391
105	0x3e88859c	0.26664436
106	0x3de09552	0.109659806
107	0x3e9b5f85	0.30346313
108	0xbe6fd0d6	-0.23419508
109	0x3b32f4aa	0.0027306476
110	0x3db356dc	0.087568015
111	0x3e8c2cf9	0.2737806
112	0xbeb1cf26	-0.34728354
113	0xbea83d6e	-0.32859367
114	0x3cec7684	0.028865106
115	0xbe9afec6	-0.30272502
116	0xbec258f0	-0.3795848
117	0x3c2fbc7d	0.010726091
118	0x3e855da1	0.26047996
119	0xbeea028e	-0.45705074
120	0xbd7dada4	-0.061933175
121	0xbeb38380	-0.35061264
122	0x3d82e68f	0.06391632
123	0x3df5bf06	0.119993255
124	0xbeb5f9cc	-0.35542142
125	0x3dc1c9cd	0.094623186
126	0xbe2a2678	-0.16616237
127	0xbda50695	-0.08057896
128	0xbe874846	-0.26422328
129	0xbd6ee93d	-0.058327902
130	0x3e260258	0.16211832
131	0xbe55851a	-0.20851555
132	0xbdf0b17b	-0.11752602
133	0xbe8f95de	-0.28044027
134	0xbdab267d	-0.083569504
135	0x3ea30d3e	0.3184604
136	0x3e5c70ae	0.21527359
137	0xbe7befad	-0.24603148
138	0x3ebeb808	0.3724978
139	0x3e10ab0c	0.14127749
140	0x3e4007b0	0.18752933
141	0xbe51f335	-0.20502932
142	0xbcbda0a2	-0.023147885
143	0x3eb00ed7	0.34386322
144	0x3e86d6c9	0.26335743
145	0x3e36a05d	0.17834611
146	0xbe885bfc	-0.26632679
147	0xbdaf511d	-0.08560393
148	0x3e650fdb	0.2236933
149	0x3e3d9a61	0.18515922
150	0xbd238042	-0.039917238
151	0xbe70d5c6	-0.23519048
152	0xbe92de08	-0.2868502
153	0xbeb052be	-0.34438127
154	0xbe36e5ba	-0.17861071
155	0x3e26a4ea	0.16273847
156	0xbe4ec974	-0.20194036
157	0x3e0d1080	0.13775826
158	0xbe898218	-0.26857066
159	0xbbabe5b1	-0.005245887
160	0xbe544827	-0.20730649
161	0xbe37b93a	-0.17941752
162	0x3e996436	0.29959267
163	0x3da416c5	0.080121554
164	0x3ea5ee7c	0.32408512
165	0x3de59c5e	0.11211465
166	0x3c6aa5e7	0.014321781
167	0x3e98b7fa	0.29827863
168	0xbe8394a7	-0.2569935
169	0x3e1245ad	0.14284392
170	0x3d2c92f5	0.042132337
171	0x3d043a67	0.03228226
172	0xbe887a87	-0.2665598
173	0xbc5a0a8a	-0.013308177
174	0xbe7b3468	-0.2453171
175	0x3e85eaa0	0.26155567
176	0xbe500aef	-0.20316671
177	0xbd2d1bdb	-0.042262893
178	0x3eafdae2	0.34346682
179	0xbc4172fd	-0.0118072005
180	0xbea7571c	-0.32683647
181	0x3dc46dc4	0.09591249
182	0x3cc5e5d9	0.024157451
183	0xbe844d13	-0.25840053
184	0xbeaebc68	-0.34128118
185	0xbed8e636	-0.42363137
186	0xbeab6125	-0.33472553
187	0xbcf6be00	-0.030119896
188	0xbe969f78	-0.2941854
189	0xbeb8f64c	-0.3612541
190	0x3dae4325	0.085089006
191	0xbe9b6a15	-0.30354372
192	0xbbeb1744	-0.0071744043
193	0x3dd2e268	0.1029709
194	0x3e9efe0e	0.31053203
195	0x3b9dca0d	0.004815346
196	0xbcee5f67	-0.029098226
197	0x3eca4d7a	0.39512235
198	0x3e1366fb	0.14394753
199	0x3ea88e04	0.3292085
200	0xbd9faa00	-0.07796097
201	0x3ec04ff8	0.3756101
202	0xbea55b35	-0.32296148
203	0x3e98f6bb	0.2987574
204	0x3e121389	0.14265265
205	0xbb56e7dd	-0.003279201
206	0x3ebcd38f	0.36880156
207	0x3e4d316e	0.20038387
208	0x3e3a3bc6	0.18186864
209	0xbdbc0aac	-0.09181723
210	0x3ea20af0	0.3164897
211	0xbd895ec6	-0.0670753
212	0x3b98d197	0.004663657
213	0xbcd3d371	-0.025857659
214	0xbe03c427	-0.12867795
215	0xbe3f003c	-0.18652433
216	0x3e82ee37	0.25572369
217	0xbabe46e3	-0.0014516975
218	0xbd10ec2d	-0.035381485
219	0x3d844a91	0.06459535
220	0xbdf8715c	-0.121309966
221	0xbd0abbde	-0.03387057
222	0xbe48ed42	-0.19621757
223	0x3c4c31b8	0.012463026
224	0x3e2b9921	0.16757633
225	0xbed6eb9e	-0.41976637
226	0x3ebacbcb	0.36483607
227	0xbe1c43f1	-0.15260293
228	0x3e994327	0.29934046
229	0x3e915033	0.283815
230	0x3e2319fa	0.15927878
231	0x3ec63367	0.38711092
232	0xbf08116c	-0.53151584
233	0xbee10bd6	-0.43954343
234	0x3d397c92	0.045284815
235	0xbdaac62a	-0.08338578
236	0xbe740f84	-0.23834044
237	0xbc9bb602	-0.019007687
238	0xbe8e3a42	-0.27778822
239	0xbd8dda07	-0.06926351
240	0xbe4a84f5	-0.19777282
241	0x3dc82893	0.09773364
242	0x3d06b404	0.03288652
243	0xbe810714	-0.25200713
244	0xbe25e3aa	-0.16200128
245	0x3d015629	0.03157631
246	0x3e73ccac	0.23808545
247	0x3e9f99df	0.31172082
248	0x3e16986c	0.14706582
249	0x3d31ed62	0.043439277
250	0x3a3012e9	0.0006716685
251	0x3eafb01e	0.34314054
252	0xbe7e8005	-0.24853523
253	0xbe668173	-0.22510318
254	0x3df91408	0.12162024
255	0xbe79da40	-0.24399662

encoder.convs.0.edge_mlp.0.bias f4 [128]
0	0x3e2686bc	0.16262335
1	0x3e0a0ac7	0.13480674
2	0xbe83140a	-0.25601226
3	0x3d74a15f	0.059724208
4	0xbc8e8427	-0.017397
5	0x3e6f1a22	0.23349813
6	0xbd4c1ff7	-0.04983517
7	0xbe2d023a	-0.1689538
8	0x3e440e16	0.19145998
9	0xbe0810ac	-0.1328761
10	0xbd043206	-0.03227427
11	0xbdc6bff5	-0.09704582
12	0x3e42a830	0.19009471
13	0xbd38afb3	-0.045089435
14	0x3e3c9e00	0.18419647
15	0xbe6ed84e	-0.23324701
16	0x3c9177da	0.017757345
17	0x3ea5b25c	0.3236264
18	0xbe5d26e3	-0.21596865
19	0xbda324fe	-0.0796604
20	0xbd645592	-0.05574567
21	0x3db1e226	0.086857125
22	0xbe158ce1	-0.14604522
23	0x3de0eb61	0.10982395
24	0xbda5fc90	-0.08104813
25	0x3d399209	0.045305286
26	0x3eab69f7	0.33479282
27	0x3e94b175	0.2904164
28	0xbe277a9d	-0.16355367
29	0xbe4a02be	-0.19727609
30	0xbe78b28e	-0.24286863
31	0xbd6372bd	-0.055529345
32	0x3bc6ecb5	0.006070698
33	0x3dbbf3d1	0.09177364
34	0xbe004ff8	-0.12530506
35	0x3e2a42d5	0.16627057
36	0x3d92e3b0	0.07172334
37	0x3daf7e9e	0.08569072
38	0x3ea8ece4	0.32993233
39	0x3d3dd6f9	0.046347592
40	0x3cfcecd6	0.03087465
41	0xbdfd0609	-0.12354667
42	0x3e819f69	0.25316933
43	0xbe8e039a	-0.27737123
44	0xbe1280df	-0.14306973
45	0x3d45f07f	0.048325058
46	0x3e547244	0.20746714
47	0xbead1697	-0.33806297
48	0xbd59d9d8	-0.053186268
49	0x3d91934a	0.07108171
50	0x3e8d844a	0.2763999
51	0x3e22c64a	0.15895954
52	0x3e945113	0.28968105
53	0xbe0037ad	-0.12521239
54	0xbeade060	-0.33960247
55	0x3d49c379	0.049258683
56	0x3e7ee7ce	0.24893114
57	0x3d41d62a	0.047323383
58	0x3db26cd1	0.08712161
59	0x3ea1396d	0.31489125
60	0xbea01b00	-0.312706
61	0x3dea04e3	0.11426713
62	0x3e0a7909	0.13522734
63	0x3d726592	0.059178896
64	0xbdd5b34b	-0.10434588
65	0xbe3f1f2d	-0.18664236
66	0x3e2897ba	0.16464129
67	0x3da4db42	0.080496326
68	0x3e1638c2	0.14670089
69	0x3c88dd1c	0.016706996
70	0xbe942752	-0.2893625
71	0x3df6f613	0.12058654
72	0xbe2723c0	-0.16322231
73	0xbe4ba3de	-0.19886729
74	0xbe22dc8d	-0.15904446
75	0xbe95c81c	-0.29254234
76	0xbe8461b8	-0.25855803
77	0xbcfadcbe	-0.030622836
78	0xbea7baf9	-0.32759836
79	0x3e7b5598	0.2454437
80	0xbe7300e3	-0.23730807
81	0x3de84ffd	0.113433816
82	0x3dd7014f	0.104982965
83	0xbe1c8030	-0.15283275
84	0x3e032a8c	0.12809199
85	0x3eaba8de	0.33527273
86	0xbe987afb	-0.29781327
87	0x3c0270d8	0.007961474
88	0x3e7d1c01	0.24717714
89	0x3eacd409	0.3375552
90	0x3dfb9406	0.122840926
91	0x3eb62a42	0.35579115
92	0xbe3d01b7	-0.18457685
93	0x3e9f3214	0.31092894
94	0x3e062a77	0.13102137
95	0xbe526a38	-0.20548332
96	0x3e37379a	0.17892304
97	0x3e8ca1ee	0.27467293
98	0xbe97a9a0	-0.296216
99	0x3e367975	0.1781977
100	0x3c390b1d	0.0112941535
101	0x3e926958	0.28595996
102	0xbeb0fda1	-0.34568503
103	0x3e402ec1	0.18767835
104	0x3ea3b007	0.31970236
105	0xbcb51028	-0.02210243
106	0x3e4ae106	0.19812402
107	0xbe8b4a02	-0.272049
108	0x3da2e23e	0.079533085
109	0xbe854971	-0.26032594
110	0xbe86403e	-0.26220888
111	0x3e61f6e9	0.22066845
112	0x3e3dfef2	0.18554285
113	0x3e54c2ce	0.20777437
114	0x3e908cdc	0.28232467
115	0xbd867fa1	-0.06567312
116	0xbe8acb2d	-0.27108136
117	0x3e791c9b	0.24327318
118	0x3e9462e2	0.28981692
119	0xbe8c1a79	-0.27363947
120	0xbe98b782	-0.29827505
121	0xbe851d68	-0.25998998
122	0xbe70429a	-0.23462906
123	0x3e66083b	0.22464077
124	0xbe96d9a0	-0.2946291
125	0x3dbab89b	0.09117242
126	0x3d578ef6	0.052626573
127	0xbe6ffc12	-0.23436001

encoder.convs.0.edge_mlp.2.weight f4 [128, 128]
0	0xbdae9d59	-0.085261054
1	0x3d2ecd21	0.042676095
2	0xbd2126e4	-0.03934373
3	0xbdc3c411	-0.09558881
4	0x3da1cae5	0.07900027
5	0xbd9bc9d3	-0.07606854
6	0xbc85cdc1	-0.016333463
7	0xbcb3b385	-0.021936188
8	0xbd1a56ba	-0.037680365
9	0xbd47ef33	-0.048812103
10	0xbd73a3a3	-0.059482228
11	0x3d04c95d	0.032418597
12	0x3d26effe	0.040756218
13	0xbd0e9926	-0.034814022
14	0x3de6e173	0.1127347
15	0x3d4c5a4e	0.04989081
16	0x3df07d62	0.11742665
17	0xbcc0bc67	-0.023527337
18	0xbd290c5d	-0.041271556
19	0x3c02b3db	0.007977451
20	0x3da334ee	0.0796908
21	0xbd86dfd6	-0.06585662
22	0xbd6e4acc	-0.0581768
23	0xbcd9ac38	-0.026571378
24	0x3d81c82d	0.063370086
25	0x3dbbbce7	0.0916689
26	0xbd65565f	-0.055990573
27	0x3d3ba8ca	0.045815267
28	0x3ca07dd5	0.019591251
29	0x3d48acaa	0.04899279
30	0x3d2f22be	0.042757742
31	0xbd711723	-0.058859956
32	0xbc9c3d19	-0.019072102
33	0xbd212c53	-0.03934891
34	0x3dc1abc7	0.09456592
35	0xbd411770	-0.047141492
36	0xbcbd078a	-0.023074884
37	0xbad616b2	-0.0016333668
38	0x3dbdc6be	0.09266423
39	0x3dbf7287	0.09348016
40	0xbc21c453	-0.0098734675
41	0xbd6430c3	-0.055710565
42	0x3d4554d3	0.048176598
43	0xbbe31c4a	-0.0069308626
44	0xbcd52fdd	-0.0260238
45	0x3d01e79f	0.03171503
46	0xbdb33276	-0.08749859
47	0xbcfbdd2d	-0.030745113
48	0x3d53ad76	0.051679097
49	0x3de07025	0.1095889
50	0xbd5c6120	-0.053803563
51	0x3c815926	0.01578958
52	0x3c1bca5f	0.009508698
53	0xbddd65cc	-0.10810432
54	0xba0811fd	-0.0005190669
55	0xbd3b3be0	-0.045711398
56	0xbca8729c	-0.020562463
57	0x3dadeca4	0.08492401
58	0x3e1ca663	0.15297846
59	0x3cb133d2	0.021631155
60	0xbc16b874	-0.0091992505
61	0x3d28498d	0.04108577
62	0x3d9991ac	0.07498488
63	0xbdafffcd	-0.08593712
64	0xbd82af7f	-0.063811295
65	0x3d9fe85d	0.07807992
66	0x3d344991	0.04401547
67	0xbd2aaa53	-0.04166634
68	0xbda50735	-0.08058015
69	0x3dec95a5	0.1155198
70	0x3d828a8a	0.063740805
71	0xbd734bbe	-0.059398405
72	0xbbd70b96	-0.0065626604
73	0xbdbafb00	-0.09129906
74	0x3ce8f57e	0.028437372
75	0x3dd8244b	0.10553797
76	0xbd94f283	-0.07272818
77	0xbde6bac5	-0.11266092
78	0x3cf7cf10	0.030250102
79	0x3cf7f76d	0.030269349
80	0x3d987210	0.07443631
81	0x3d140dc8	0.036145955
82	0x3d9b8d98	0.07595366
83	0x3e2d59d5	0.169288
84	0xbb476830	-0.003042709
85	0xbd335b87	-0.04378846
86	0xbd89d01f	-0.06729149
87	0x3d90d008	0.07070929
88	0xbbc4c2d1	-0.0060046692
89	0xbde0555f	-0.10953783
90	0x3e074024	0.13208061
91	0xbd9954cc	-0.07486877
92	0x3d997749	0.07493455
93	0x3dc8af6d	0.09799085
94	0x3e12fcec	0.14354295
95	0xba704933	-0.0009166181
96	0x3cdcd671	0.026957722
97	0x3cdde546	0.027086865
98	0xbb05e4fb	-0.0020430672
99	0xbd4a13e1	-0.049335364
100	0x3e01b6d2	0.12667397
101	0xbdab3bb3	-0.08360996
102	0x3ccb954d	0.024851466
103	0xbd0b127d	-0.03395318
104	0x3bd66dd2	0.0065438533
105	0xbd85dfa7	-0.06536799
106	0x3d7f7747	0.06236961
107	0xbd6ef08b	-0.05833487
108	0xbcfb031f	-0.030641137
109	0x3d87ec1b	0.066368304
110	0x3d9d570b	0.07682618
111	0x3da685ff	0.081310265
112	0xbd119332	-0.035540767
113	0x3d4e3250	0.05034095
114	0x3cefd7f1	0.029277774
115	0x3db9dc10	0.09075177
116	0xbcccf120	-0.025017321
117	0xbb8c9cc8	-0.0042911507
118	0xbc796269	-0.015221217
119	0xbd8004f3	-0.06250944
120	0x3ca49d3a	0.020094503
121	0xbd29b350	-0.04143077
122	0x3d0ba1a3	0.034089696
123	0x3d78c494	0.060734347
124	0xba906e99	-0.0011019289
125	0xbcdb1edd	-0.026748115
126	0x3cd24f5b	0.025672605
127	0xbc6b65c9	-0.014367529
128	0x3c96b990	0.01839903
129	0xbc01a555	-0.007912953
130	0x3d600c82	0.05469943
131	0xbc2db91c	-0.010603216
132	0x3dac9b6e	0.08428083
133	0x3d6714d8	0.056416363
134	0x3e0b9900	0.13632584
135	0x39f29675	0.00046269936
136	0xbc4a1962	-0.012335153
137	0x3cb003e0	0.021486223
138	0x3dad7d24	0.08471134
139	0xbc3a9d6d	-0.011390072
140	0x3c079470	0.008275136
141	0xbd6535eb	-0.055959623
142	0xbddacf7c	-0.10684106
143	0x3dc824ba	0.0977263
144	0xbde4263f	-0.11140107
145	0xbd786b20	-0.060649037
146	0xbd55d32b	-0.05220334
147	0x3e1079ee	0.14109012
148	0xbce4fdb6	-0.02795301
149	0x3c4b3354	0.012402374
150	0xbd8d7ed2	-0.06908955
151	0xbc4f0d4e	-0.012637449
152	0x3d2c6c0c	0.04209523
153	0x3dbf0e0e	0.093288526
154	0xbd28fbfc	-0.041255936
155	0xbd86c23f	-0.06580018
156	0x3e0680f7	0.13135134
157	0xbdd091e8	-0.101840794
158	0x3d200e6e	0.03907626
159	0x3d406e3c	0.046980128
160	0x3d3d127f	0.046160217
161	0x3cf7b35d	0.030236894
162	0x3d1c9b3e	0.038233988
163	0x3d3cf676	0.04613348
164	0x3e1eff83	0.15527157
165	0x3dbade8d	0.091244794
166	0x3cf02a79	0.029317128
167	0x3dcce25a	0.10004111
168	0xbdba355d	-0.090922095
169	0xbda1104d	-0.07864437
170	0xbd39be6f	-0.045347627
171	0xbc8daf87	-0.017295612
172	0x3d286fe9	0.04112235
173	0x3d40dd74	0.047086194
174	0xbd8eecd8	-0.06978768
175	0xbbbc1441	-0.005739719
176	0xbd432626	-0.047643803
177	0xbc46becf	-0.012130453
178	0x3dc42d77	0.09578984
179	0xbd6c15e5	-0.057638068
180	0x3d116793	0.035499167
181	0x3dd5fef5	0.1044902
182	0x3da68a7d	0.08131883
183	0xbc90975c	-0.017650299
184	0x3c2626af	0.010141059
185	0xbc876996	-0.01652984
186	0xbcc5b0a1	-0.024132075
187	0xbd517f92	-0.05114705
188	0xbd74b4ba	-0.059742667
189	0xbc60c161	-0.01371798
190	0xbca7c120	-0.020477831
191	0x3d6732aa	0.0564448
192	0xbc078108	-0.00827051
193	0xbd973658	-0.07383412
194	0xbd89b423	-0.067238115
195	0xbd999a1c	-0.07500097
196	0x3d0800d9	0.033203933
197	0xbd336b3d	-0.043803442
198	0x3d8bef20	0.06832719
199	0x3dbc98cc	0.09208831
200	0x3d984efe	0.074369416
201	0x3d1c99bf	0.03823256
202	0x3d8b3086	0.067963645
203	0xbd6dc3c3	-0.05804802
204	0x3d00b836	0.031425677
205	0x3d45401c	0.048156843
206	0xbe01eb45	-0.12687404
207	0x3d4c68e7	0.04990473
208	0x3d8f3bdb	0.069938384
209	0xbc4bd773	-0.012441504
210	0x3da74ec3	0.081693195
211	0xbd946c29	-0.072471924
212	0xbe09e258	-0.1346525
213	0x3db0ac6a	0.086266354
214	0xbdacddf8	-0.08440775
215	0x3d3cc5a9	0.04608694
216	0x3d575854	0.05257447
217	0xbab8dade	-0.0014103313
218	0xbd830d20	-0.06398988
219	0xbdf430cc	-0.1192337
220	0x3e049f73	0.1295145
221	0x3b8d7f4d	0.004318154
222	0x3e1b228d	0.15149899
223	0x3c7ccd96	0.015429875
224	0xbcac3b6a	-0.021024425
225	0xbd8646e2	-0.065564886
226	0x3d9a5ff3	0.07537832
227	0xbd69e3d1	-0.05710203
228	0xbd436fa6	-0.047713898
229	0x3d7c767d	0.061636437
230	0x3c64c873	0.013963806
231	0x3d30c7f9	0.04315946
232	0xbde0e962	-0.10982014
233	0xbdb77de8	-0.089595616
234	0x3d0f849e	0.035038583
235	0x3cf0bd63	0.029387182
236	0x3d5506d5	0.05200847
237	0x3d0b04ec	0.03394024
238	0x3d21770b	0.03942017
239	0xbc282213	-0.01026203
240	0xbad31727	-0.0016104922
241	0xbd3a0053	-0.045410465
242	0xbd4dde63	-0.050260913
243	0x3d6f70dd	0.058457244
244	0x3b94732e	0.004530332
245	0x3e0a823f	0.13526247
246	0x3d9b926e	0.075962886
247	0x3c5f7113	0.013637799
248	0xbda91ade	-0.08257078
249	0xbd58daf8	-0.0529432
250	0x3ca48b9f	0.020086108
251	0x3db092ca	0.08621748
252	0x3c34f431	0.011044548
253	0xbd375f43	-0.044768583
254	0x3d603205	0.054735202
255	0xbbb91287	-0.0056479606

encoder.convs.0.edge_mlp.2.bias f4 [128]
0	0x3cbe20f2	0.023209069
1	0xbd8b57b4	-0.068038374
2	0x3b87354a	0.0041262256
3	0x3cebc487	0.028780235
4	0xbcd108d8	-0.025516912
5	0x3cdbef6f	0.02684757
6	0xbc988643	-0.018618708
7	0xbdaa727e	-0.08322619
8	0xbd93f372	-0.07224168
9	0xbb5651bb	-0.0032702524
10	0xbd8d7530	-0.06907117
11	0x3d8bdff8	0.06829828
12	0x3d0ad465	0.03389396
13	0x3dac6ac2	0.084188
14	0xbbd207b0	-0.006409608
15	0x3d545323	0.051837098
16	0xbd8e6ef5	-0.06954757
17	0x3cf163f2	0.029466603
18	0x3d12f63c	0.03587936
19	0x3c8b3d87	0.016997112
20	0xbd4a81d4	-0.04944022
21	0xbd072206	-0.03299143
22	0xbd0bcfa6	-0.034133576
23	0x3d8fe3a5	0.070258416
24	0x3ca8d41e	0.020608958
25	0xbce38cdf	-0.027777134
26	0xbce9bb90	-0.02853182
27	0xba959f58	-0.0011415286
28	0x3cab0fa3	0.02088148
29	0x3d9ca6da	0.07649012
30	0x3d2f4523	0.042790543
31	0x3d8799f9	0.06621165
32	0xbcfbb963	-0.030728048
33	0x3c9ca7fc	0.01912307
34	0x3d85d326	0.06534414
35	0x3d6dc3f5	0.058048207
36	0x3c5340f2	0.012893902
37	0x3d9c8be3	0.07643869
38	0xbd38e109	-0.045136485
39	0xbd94d048	-0.07266289
40	0x3cb3e871	0.021961423
41	0x3d165760	0.03670442
42	0x3d42c0f1	0.047547285
43	0xbd834ce9	-0.06411154
44	0x3da2c1cf	0.07947122
45	0xbd9299a6	-0.07158212
46	0x3d609117	0.05482587
47	0xbcbf1987	-0.023327602
48	0x3db4c8ec	0.08827385
49	0x3d3ca06d	0.04605143
50	0x3d4f1a5c	0.050562248
51	0xb98e6d8f	-0.00027165978
52	0xbda3f7bb	-0.08006235
53	0xbd7b49bf	-0.061349627
54	0xbd955ff1	-0.0729369
55	0xbca07c53	-0.019590532
56	0xbd042a5a	-0.032266952
57	0x3ca1fa62	0.019772712
58	0xbd885101	-0.06656075
59	0xbd83c07a	-0.06433196
60	0xbc1d0c8f	-0.009585514
61	0xbc8700a6	-0.016479801
62	0xbcd1f3da	-0.025628973
63	0xbd97862d	-0.07398639
64	0xbd94decb	-0.07269057
65	0xbd8c3634	-0.06846276
66	0xbd29c2d1	-0.041445557
67	0xbce65f78	-0.028121695
68	0xbd80e1da	-0.06293078
69	0xbd898de7	-0.06716519
70	0xbccec92d	-0.025242412
71	0x3d901eee	0.07037149
72	0x3d797fa2	0.060912736
73	0xbcce69f4	-0.025197007
74	0xbd64f54c	-0.055897996
75	0x3c314cbc	0.010821518
76	0xbd9c4120	-0.07629609
77	0xbd981030	-0.074249625
78	0xbaa895a0	-0.0012861975
79	0x3caf33d8	0.021387026
80	0xbd10a322	-0.035311826
81	0xbbf63d23	-0.0075146123
82	0x3c1dbf9b	0.009628202
83	0xbc99da13	-0.018780744
84	0x3cc968d6	0.024586122
85	0x3c8b0944	0.016972192
86	0xbd27e874	-0.04099317
87	0xbbebd30e	-0.0071967905
88	0xbd9f4896	-0.077775165
89	0xbd448baa	-0.047984757
90	0xbdb9d88b	-0.090745054
91	0xbd61d8db	-0.05513845
92	0xbd2ee7a4	-0.04270138
93	0xbb0dc7e0	-0.0021634027
94	0xbc1261de	-0.008934466
95	0x3b7009f3	0.0036627024
96	0x3d628b30	0.05530852
97	0x3c88306b	0.01662465
98	0x3b8b7336	0.0042556776
99	0x3ce4b458	0.027918026
100	0xbd663ae0	-0.05620849
101	0x3a6ec02e	0.00091076165
102	0x3c5a8e22	0.013339551
103	0x3d865f1d	0.0656111
104	0x3da6f944	0.081530124
105	0xbd97cd04	-0.074121505
106	0x3ca4f629	0.02013691
107	0x3d930b38	0.07179874
108	0x3cbdd875	0.023174504
109	0xbd81f6ba	-0.063458875
110	0x3d6c6229	0.0577108
111	0xbd86dc38	-0.06584972
112	0xbd91e48a	-0.071236685
113	0xbd7b15b8	-0.06130001
114	0x3d8a28ae	0.0674604
115	0x3da9f86f	0.08299338
116	0xbcd57139	-0.026054965
117	0x3d0a87cb	0.03382091
118	0x3cae4f4d	0.021278048
119	0xbdb33273	-0.08749857
120	0xbd47e9e0	-0.048807025
121	0xbd126a75	-0.035746057
122	0xba1ce9f4	-0.00059857895
123	0xbca90716	-0.020633262
124	0x3d45d287	0.048296478
125	0xbd6e8d0f	-0.058239993
126	0xbd0cc029	-0.034362946
127	0xba8f0f0c	-0.0010914518

encoder.convs.0.norm.weight f4 [128]
0	0x3f737906	0.9510654
1	0x3f763ec9	0.9618955
2	0x3f76bf72	0.9638587
3	0x3f76c84b	0.9639937
4	0x3f7692e6	0.963179
5	0x3f71770f	0.94322294
6	0x3f72ade4	0.94796586
7	0x3f7431a0	0.9538822
8	0x3f74d045	0.95630294
9	0x3f746408	0.95465136
10	0x3f6fd96e	0.93691146
11	0x3f73ff34	0.95311284
12	0x3f713d58	0.9423423
13	0x3f771a87	0.9652485
14	0x3f760880	0.9610672
15	0x3f734df3	0.95040816
16	0x3f7443c7	0.9541592
17	0x3f7aebf4	0.98016286
18	0x3f753017	0.95776504
19	0x3f71296c	0.9420383
20	0x3f72151d	0.94563466
21	0x3f74ce9f	0.9562778
22	0x3f723622	0.9461385
23	0x3f750342	0.95708096
24	0x3f73eb93	0.9528133
25	0x3f74eae8	0.9567094
26	0x3f72db55	0.94865924
27	0x3f757d62	0.95894444
28	0x3f6e13db	0.9299905
29	0x3f82e1cd	1.0225159
30	0x3f740736	0.95323503
31	0x3f74f754	0.9568989
32	0x3f6f372a	0.9344355
33	0x3f72df8e	0.9487237
34	0x3f772be0	0.9655132
35	0x3f7734ed	0.96565133
36	0x3f72addb	0.9479653
37	0x3f724773	0.9464027
38	0x3f73ddc1	0.95260245
39	0x3f738344	0.9512217
40	0x3f757e44	0.9589579
41	0x3f74ca57	0.95621246
42	0x3f74d9f4	0.9564507
43	0x3f72d5cd	0.94857484
44	0x3f732f07	0.94993633
45	0x3f77056c	0.9649265
46	0x3f713b50	0.9423113
47	0x3f70bacb	0.94035023
48	0x3f71cc09	0.9445196
49	0x3f763805	0.9617923
50	0x3f78c47d	0.9717482
51	0x3f75cd49	0.96016365
52	0x3f6ebe1d	0.9325884
53	0x3f77cda4	0.9679816
54	0x3f75175a	0.95738757
55	0x3f75aee3	0.9596998
56	0x3f803d1f	1.0018653
57	0x3f745a72	0.9545051
58	0x3f717c47	0.9433026
59	0x3f74b00b	0.9558112
60	0x3f6e1ea2	0.9301549
61	0x3f75ad66	0.9596771
62	0x3f72fd1a	0.9491745
63	0x3f75fce0	0.9608898
64	0x3f748656	0.9551748
65	0x3f77411d	0.9658373
66	0x3f796625	0.97421485
67	0x3f745004	0.95434594
68	0x3f786f56	0.97044885
69	0x3f729183	0.94753283
70	0x3f738e69	0.95139176
71	0x3f7b512f	0.9817075
72	0x3f75f82d	0.9608181
73	0x3f7575ec	0.9588306
74	0x3f70dd82	0.94087994
75	0x3f7469b5	0.95473796
76	0x3f7463bd	0.9546469
77	0x3f715297	0.9426665
78	0x3f746639	0.9546848
79	0x3f733749	0.95006233
80	0x3f779956	0.9671835
81	0x3f7540bc	0.958019
82	0x3f7044f5	0.9385522
83	0x3f755638	0.95834684
84	0x3f74e43c	0.9566076
85	0x3f7431d5	0.9538854
86	0x3f734f78	0.95043135
87	0x3f78b67e	0.9715346
88	0x3f73c19d	0.95217305
89	0x3f73faf3	0.95304793
90	0x3f710515	0.9414838
91	0x3f78c3a8	0.9717355
92	0x3f6f79e5	0.9354537
93	0x3f743579	0.9539409
94	0x3f6fac45	0.9362224
95	0x3f72365c	0.94614196
96	0x3f7aa4aa	0.9790751
97	0x3f749a6c	0.9554813
98	0x3f759410	0.9592905
99	0x3f718a17	0.94351333
100	0x3f73a6b6	0.95176256
101	0x3f6dfaae	0.9296063
102	0x3f776115	0.9663251
103	0x3f6fc8a3	0.9366552
104	0x3f73ee8b	0.9528586
105	0x3f780c9b	0.96894234
106	0x3f73b5ee	0.9519948
107	0x3f72f61e	0.94906795
108	0x3f716fbc	0.9431112
109	0x3f7372aa	0.9509684
110	0x3f753da4	0.9579718
111	0x3f78c7de	0.97179973
112	0x3f74ade0	0.9557781
113	0x3f729ceb	0.9477069
114	0x3f7234df	0.94611925
115	0x3f72b31b	0.94804543
116	0x3f77a3f4	0.9673455
117	0x3f70bc5c	0.94037414
118	0x3f71c6cc	0.94443965
119	0x3f75c782	0.9600755
120	0x3f725278	0.9465709
121	0x3f737446	0.95099294
122	0x3f7d48e9	0.9893938
123	0x3f75a4ad	0.959544
124	0x3f71a6d9	0.94395214
125	0x3f75c434	0.9600251
126	0x3f73b842	0.9520303
127	0x3f78d790	0.9720392

encoder.convs.0.norm.bias f4 [128]
0	0x3ca76484	0.020433672
1	0xbc4e9db8	-0.012610845
2	0x3c30762d	0.010770363
3	0x3cec05c9	0.028811352
4	0xbd02507e	-0.031815045
5	0x3d9f549e	0.07779811
6	0x3c3d2140	0.011543572
7	0xbcd69f65	-0.026199052
8	0x3ca166d6	0.019702356
9	0xbc4d31d2	-0.012524085
10	0xbcdfae6b	-0.027304849
11	0x3ccc6706	0.02495147
12	0x3d55e786	0.05222275
13	0x3d298440	0.04138589
14	0x3bbc2b7d	0.005742489
15	0xbc64a5c0	-0.0139555335
16	0xbdbdf605	-0.0927544
17	0xbcb435ff	-0.021998404
18	0xbd2e1289	-0.042498145
19	0x3c914e51	0.01773754
20	0xbca55cfb	-0.020185938
21	0xba4e69e1	-0.00078740536
22	0x3b26e6ea	0.0025467225
23	0x3d4626b0	0.04837674
24	0x3bfd2649	0.007725511
25	0xba459b0d	-0.0007538058
26	0xbc712575	-0.014718403
27	0x3d01e1ae	0.031709366
28	0x3a4770c5	0.00076080515
29	0x3c8817a4	0.016612835
30	0x3d40b747	0.047049787
31	0x3c1bb171	0.009502755
32	0xbc82077c	-0.01587271
33	0x3caa1775	0.020763138
34	0x3dfddd7d	0.12395761
35	0xbba830ff	-0.005132794
36	0xbb2f0b80	-0.0026709735
37	0xbc785204	-0.015156273
38	0x3ce3598a	0.027752656
39	0x3cf73ab0	0.030179352
40	0x3d03a181	0.032136444
41	0x3ddda5be	0.108226284
42	0xbae80e55	-0.0017704467
43	0xbd0f0100	-0.034913063
44	0xbcf55ac7	-0.029950513
45	0xbd7199c5	-0.058984537
46	0xbb59bc6a	-0.0033223876
47	0xb9e28014	-0.00043201505
48	0xbc7c1b64	-0.01538739
49	0xbad4e93b	-0.0016243825
50	0x3d0fead9	0.035136078
51	0xbc3f20c0	-0.011665523
52	0x3c1af749	0.009458371
53	0xbc5904de	-0.013245789
54	0x3c1c57c4	0.009542409
55	0xbd4f03ef	-0.05054086
56	0x3adc63e1	0.0016814434
57	0xbd5f8098	-0.054565996
58	0xbbb8ea52	-0.0056431675
59	0x3bebd028	0.007196445
60	0x3d995f17	0.0748884
61	0x3b92949a	0.004473281
62	0xbcdbafce	-0.026817229
63	0xbd1654b1	-0.03670186
64	0x3ba8558d	0.0051371516
65	0xbbc049b0	-0.0058681592
66	0xbb20c5ec	-0.0024532033
67	0xbd6868aa	-0.05674044
68	0xbd020494	-0.031742647
69	0x3c8c1ef8	0.01710461
70	0x3cdc2ebe	0.026877757
71	0x3be5bfde	0.0070113977
72	0x3cebc8cf	0.028782276
73	0x3d02f4d4	0.031971768
74	0xbc85cb0b	-0.01633217
75	0xbc8134d8	-0.015772268
76	0x3bdf537b	0.0068153716
77	0xbd61765b	-0.055044513
78	0xbc837af9	-0.016049849
79	0xbc00f41e	-0.007870702
80	0xbdeb09ba	-0.114764646
81	0x3d66f8de	0.056389682
82	0x3d29c45a	0.04144702
83	0x3c298455	0.010346492
84	0x3e323679	0.17403592
85	0xbbda04bd	-0.006653397
86	0x3ca609e7	0.020268394
87	0x3d2e7e03	0.042600643
88	0x3d090584	0.033452526
89	0xbca8776b	-0.020564755
90	0x3cac00a5	0.020996401
91	0x3be12bb9	0.006871667
92	0xbd107255	-0.035265286
93	0xbd09f19f	-0.033677693
94	0x3d781008	0.060562164
95	0x3c59ef62	0.013301702
96	0x3bd2dafc	0.0064347964
97	0xbc4d1dc7	-0.0125193065
98	0x3c95f816	0.018306773
99	0xbbb520a7	-0.005527574
100	0xbba604b9	-0.005066481
101	0xbd488fa1	-0.0489651
102	0x3d88e1fa	0.066837266
103	0xbc0dec5c	-0.0086623095
104	0xbcd7aab4	-0.026326515
105	0x3c8b7674	0.017024256
106	0xbbee54a3	-0.007273273
107	0x3d47db6d	0.048793245
108	0x3ba42d0a	0.005010252
109	0x3b99fa95	0.004699061
110	0x3c032334	0.008003999
111	0x3a342472	0.0006871886
112	0x3bdda52e	0.0067640757
113	0xbc92ba10	-0.017910987
114	0xbd5b20b5	-0.05349799
115	0xbd295048	-0.041336328
116	0x3b23cb1f	0.0024992896
117	0xbd96f827	-0.0737155
118	0x3d1a02a0	0.03760016
119	0x3cbfbc54	0.023405232
120	0xbd653a78	-0.055963963
121	0xbd10d3c9	-0.035358224
122	0x3d116cef	0.035504278
123	0xbda4a47c	-0.080391854
124	0xbb0e9210	-0.002175454
125	0xbd386bc3	-0.045024645
126	0xbc34cfa2	-0.011035832
127	0xbba7fb38	-0.005126383

encoder.convs.0.norm.mean_scale f4 [128]
0	0x3f6b7201	0.9197083
1	0x3f6937f0	0.9110098
2	0x3f6a6197	0.9155516
3	0x3f878c53	1.0589699
4	0x3f7b85a6	0.98250806
5	0x3f719477	0.94367164
6	0x3f7acf1a	0.9797226
7	0x3f6f6656	0.9351553
8	0x3f7e09c5	0.9923366
9	0x3f6b52c5	0.9192317
10	0x3f752340	0.9575691
11	0x3f7e76d3	0.9940006
12	0x3f846abe	1.0345075
13	0x3f82bd13	1.0213951
14	0x3f710e95	0.94162875
15	0x3f809c23	1.0047649
16	0x3f8c1d86	1.094651
17	0x3f758aeb	0.95915097
18	0x3f8348d6	1.0256603
19	0x3f81abf7	1.0130605
20	0x3f76d10d	0.96412736
21	0x3f699a9c	0.9125154
22	0x3f840b73	1.0315994
23	0x3f849020	1.0356483
24	0x3f773527	0.9656548
25	0x3f7e0cad	0.9923809
26	0x3f768814	0.9630139
27	0x3f7487b0	0.9551954
28	0x3f75bc21	0.95990187
29	0x3f6b7cb8	0.9198718
30	0x3f80442f	1.0020808
31	0x3f84e170	1.0381298
32	0x3f73841c	0.9512346
33	0x3f79162e	0.9729947
34	0x3f8a5650	1.080759
35	0x3f662146	0.8989452
36	0x3f77aa4a	0.96744215
37	0x3f829507	1.020173
38	0x3f781ca0	0.9691868
39	0x3f8278a4	1.0193067
40	0x3f85ab63	1.0442928
41	0x3f8b4e92	1.0883353
42	0x3f794d61	0.97383696
43	0x3f84a866	1.0363891
44	0x3f6aba46	0.9169048
45	0x3f8c961a	1.0983307
46	0x3f74d82a	0.9564234
47	0x3f7ac978	0.97963667
48	0x3f74e2b2	0.9565841
49	0x3f76fff5	0.9648431
50	0x3f7f2b4a	0.9967543
51	0x3f77be9c	0.9677522
52	0x3f7b5071	0.9816962
53	0x3f82e4a6	1.0226028
54	0x3f7ebaaf	0.99503607
55	0x3f8001e0	1.0000572
56	0x3f57df06	0.8432468
57	0x3f778b9c	0.966974
58	0x3f7c43a6	0.98540723
59	0x3f6cb1ec	0.9245899
60	0x3f8908bb	1.0705789
61	0x3f605382	0.8762742
62	0x3f85408b	1.0410322
63	0x3f6e2f5c	0.93041015
64	0x3f6f89be	0.9356955
65	0x3f656e44	0.89621377
66	0x3f66e3f3	0.9019157
67	0x3f80461f	1.0021399
68	0x3f7d70f0	0.99000454
69	0x3f7a2322	0.9770986
70	0x3f813ae3	1.0096096
71	0x3f79c5bd	0.9756735
72	0x3f75260b	0.95761174
73	0x3f7a4408	0.9776006
74	0x3f7abf7f	0.9794845
75	0x3f7357e2	0.95055974
76	0x3f6c3190	0.92263126
77	0x3f8289ae	1.0198267
78	0x3f758061	0.95899016
79	0x3f687843	0.90808505
80	0x3f86f5b0	1.0543728
81	0x3f811190	1.0083485
82	0x3f787a75	0.97061855
83	0x3f6edf75	0.9330972
84	0x3f87522c	1.0571952
85	0x3f77a031	0.9672881
86	0x3f8442eb	1.0332922
87	0x3f8052e0	1.0025291
88	0x3f7c268c	0.9849632
89	0x3f738815	0.9512952
90	0x3f86dd31	1.0536252
91	0x3f6398b0	0.8890486
92	0x3f819164	1.0122495
93	0x3f831839	1.0241767
94	0x3f865136	1.0493534
95	0x3f77f314	0.9685528
96	0x3f98719e	1.1909673
97	0x3f77f326	0.9685539
98	0x3f7aea68	0.98013926
99	0x3f7cd74b	0.9876601
100	0x3f81d610	1.0143452
101	0x3f86825b	1.0508531
102	0x3f80b6be	1.0055768
103	0x3f851b27	1.0398911
104	0x3f7f432e	0.99711883
105	0x3f6754ac	0.90363574
106	0x3f774e74	0.96604085
107	0x3f83e74b	1.030496
108	0x3f7ab11f	0.97926515
109	0x3f6f830e	0.9355935
110	0x3f79d1ff	0.97586054
111	0x3f6edab9	0.93302494
112	0x3f824c26	1.0179489
113	0x3f794a0d	0.9737862
114	0x3f829084	1.0200353
115	0x3f788a98	0.9708648
116	0x3f6f91a1	0.9358159
117	0x3f8477b4	1.034903
118	0x3f82530c	1.0181594
119	0x3f7ddf17	0.99168533
120	0x3f83d4be	1.0299299
121	0x3f80173e	1.0007093
122	0x3f70b94a	0.9403273
123	0x3f8757ca	1.0573666
124	0x3f81276e	1.0090158
125	0x3f689ffe	0.9086913
126	0x3f80dfd0	1.0068302
127	0x3f757639	0.9588352
