checkpoints/model_A_epoch_29.pth (torch, 552443 bytes, 27 tensors)

encoder.node_embedding.weight f4 [1, 128]
00000000: 832d e73f 9fdd b43f 23f1 563f 7486 fcbf
00000010: 6b83 1d3f 3db5 92bf 1dfa d3bb 348f c0bf
00000020: 5322 2cbf 4dd1 c63f 4b35 a9be 9bb8 a6bf
00000030: c830 29bf 8eb9 01bf 0bc1 33bf 8c3f 2f3f
00000040: 2798 c23f e686 08be 1183 d9be 2b57 d03e
00000050: f7d4 2fbf b808 803f 7ca2 383f 31f8 cc3f
00000060: 8a3d 9a3f 81f6 9a3f c629 0d3f ae08 9f3f
00000070: 0c4b 4abe 8782 53b9 b22a 50be 2a49 4b3f
00000080: fa71 a1bf ddb5 49bf 2487 1dbe 8e29 d13f
00000090: 73fe 8b3e 8ef7 c2be 52ae 833e ed94 2fbf
000000a0: 8a3d bbbf ea53 6f3f 7135 51bf 09ff 0bbf
000000b0: 2a74 9abf b118 0140 d2c8 91bf 67f1 cabe
000000c0: 6cce 5bbf b570 1bbf 4883 3c3d d025 ed3e
000000d0: 1c0a e7be d389 903f 694c 58bf 17fd 2bbf
000000e0: 05e5 a5bf 4670 823c 9295 06bd 7db4 1d3f
000000f0: 0e5d 50bd 9363 de3f c208 8cbf ae54 a83f
00000100: 44c3 ae3f 31ec 4a3f 737c 0640 3f71 e63e
00000110: 0d7b 8f3e b38c 27be 8075 80bf 0854 9a3f
00000120: 093b f4bd 66c1 eb3e 7d8f 373d 0487 b73e
00000130: 8da3 063f 129a 12bf 1579 05c0 50c0 33bf
00000140: 7c2b 28b6 be01 9dbe fbb8 a0bf fb81 04bf
00000150: cf4e ff3e b76f fa3e 482d 863f 4903 9a3c
00000160: 54ef 2d3f b319 e2be 00b3 75bf 1c48 133f
00000170: 47b8 cebf 6c0a 46bf a4f5 9b3f 4104 dd3e
00000180: c734 17c0 db33 dd3e 8057 383f bfc7 8f38
00000190: a46e 173f 4d64 053f 4029 803f 91ee cebe
000001a0: 2420 15be 1027 2f3f 8799 ad3e 3f39 053e
000001b0: e745 5f3e fe3d 9b3f 3674 fa38 8f5b 70be
000001c0: 2ca4 afbf c047 90bd ab28 06bf 8fb9 cb3e
000001d0: cf3e 283f 1b56 723d b62c a6be 5a82 eb3e
000001e0: 60a2 beb9 6757 363e d17f b23d 9aa8 343f
000001f0: 163b 823f e145 923e 2da5 2c3f 06d1 c33e
1.8060764 1.4130133 0.83961695 -1.9728532 0.6152865 -1.146156 -0.006469025 -1.5043702
-0.67239875 1.5532624 -0.33048472 -1.3025087 -0.6609006 -0.5067376 -0.70216435 0.6845634
1.5202683 -0.1333271 -0.42482808 0.40691504 -0.68684334 1.0002661 0.7212293 1.6013242
1.205003 1.2106477 0.55141866 1.2424524 -0.1975519 -0.00020171153 -0.20328787 0.79408514
-1.2612908 -0.78793126 -0.15383583 1.6340806 0.27342567 -0.38079494 0.25718933 -0.6858662
-1.4628155 0.9348742 -0.8172217 -0.5468603 -1.20667 2.017132 -1.138941 -0.396373
-0.8586185 -0.6071885 0.046023637 0.4631791 -0.451249 1.1292061 -0.8449159 -0.6718306
-1.2960516 0.015922677 -0.032857485 0.6160353 -0.050869994 1.7374138 -1.0940173 1.3150842
1.365334 0.7926665 2.1013458 0.45008275 0.28023568 -0.16362266 -1.0035858 1.2056894
-0.119253226 0.4604599 0.044814575 0.35845196 0.5259331 -0.5726634 -2.0855153 -0.7021532
-2.5059262e-06 -0.30665392 -1.2556452 -0.51760834 0.49864814 0.48913357 1.0482569 0.018800395
0.6794331 -0.44160232 -0.9597626 0.57531905 -1.6149987 -0.7735965 1.2184339 0.43167308
-2.3625963 0.43203625 0.72008514 6.855977e-05 0.591532 0.5210617 1.0012589 -0.40416387
-0.14563042 0.6841898 0.33906195 0.13010119 0.2180401 1.2128294 0.00011942575 -0.23472427
-1.3721976 -0.07044935 -0.52405804 0.39790007 0.6572084 0.059164148 -0.32455987 0.45997888
-0.00036360603 0.17806779 0.08715785 0.70569766 1.0174282 0.28568938 0.6743954 0.3824541

encoder.convs.0.node_mlp.weight f4 [128, 256]
00000000: b258 503d 303a 38bc 9603 563d 2796 933c
00000010: d4c3 4cbd 7b08 273d 467d 5ebc 7d63 c1bc
00000020: 3b14 4ebd c416 71bd 1302 873c 8333 61bc
00000030: c178 b93c aa41 4cbd d04f 333d 5265 31bd
00000040: 4c96 1ebc 14cf 4a3c d6b3 f83c c27c 493d
00000050: d4f8 5c3d 9eff 3fbd e7af 7f3c 43e0 cdbc
00000060: 9b02 c3bb 73bd 34bd f66f 623d 5f3b 31bd
00000070: 8ee2 ff3c ee9a ca3c c987 993c 8e33 02bd
00000080: a829 5c3d bec8 4c3c e801 e13b 0b4b 55bd
00000090: 1728 d53c 3f90 20bc 7122 ddbc 38f7 4f3d
000000a0: 1747 503c 43b8 04bd 31c7 fdbc ebf0 64bb
000000b0: 9325 063d 33fd 6fbc 22b7 0ebd d829 acbc
000000c0: 5ae5 39bd 7119 a93c 0270 3f3d 0b78 64bd
000000d0: 8f56 583c 3657 013d 8471 253c 7f9d b3bc
000000e0: 5c40 fb3c a174 023d 1834 ae3c 72de 20bc
000000f0: ad69 88bc 3791 e63b 75a7 38bc 65c2 8cbc
00000100: ec82 1f3d d542 553d 235a adbb c830 51bc
00000110: 5f07 b83a 58d2 8bbb 53f6 5f3c 7f09 8f3c
00000120: 3f4e 5fbd d6a4 b0bc 5594 4d3d 6284 c53c
00000130: dfcc 19bb 4b1f 16bd fdb5 18bd 7391 5ebd
00000140: 484d 35bc 350f a03c 668e 193d f0ef dd3c
00000150: c211 56bd 327d 10bd e485 0fbc 45cc 6e3d
00000160: f022 193c 1abf 84bc e28b c53c 8352 b4bc
00000170: 9653 21bd 767f 303d 6a71 d9bc af83 3cbc
00000180: 255b 76bd e0f3 263d 5a15 3c3d 5536 1b3d
00000190: bd32 28bd 8a1c 6fbd c70e 44bd 145b 343d
000001a0: b588 e43c 5570 513d 0266 033d 4e00 823c
000001b0: 580b ad38 52ae 37bd 85f1 86bd 205a 67bd
000001c0: 198e c33c 7bdd f2bc a0ad 4ebc f7f2 09bd
000001d0: 869f 29bc dc99 2bbd 039d 23bd 5291 a83c
000001e0: b735 fdbc 79c7 193d 7be0 98bc 6e71 31bd
000001f0: d28d 23bc fea2 e7bc a921 90bc a116 67bd
00000200: 3c48 803d bbc7 c9bc b20e 863d a4aa b53c
00000210: 88ba 0c3d cd6d 723c 569b 6d3d 05b7 c7bc
00000220: 085b 55bd cd76 153d 197c 073d 7a63 95bd
00000230: e05f 27bd 77ce 80bd 5788 c53d 4069 9bbd
00000240: e42c e33c 2fc3 18bd 6419 df3c f2df 42bc
00000250: 03ec ebbb 4ef6 de3c 1380 223d 14db 99bd
00000260: 7a39 6abc facc 2dbd 7fb0 f03a 032b 04be
00000270: 3c99 48bc 13ed 263d 265d d9bc 1df2 9dbb
00000280: 411a a43d bb18 413d 772d adbc ad2f 55bd
00000290: 7abc 4fbd 2426 4dbd 5ef2 893d 9221 763d
000002a0: 6d97 07bd 4ba5 ff3c 70cc a4bd ce4b c5bd
000002b0: 5975 0e3d 574e 88bc d6b4 4b3c 4a88 f23c
000002c0: 7652 88bd ddab bc3d 574d d3bc f204 1c3d
000002d0: bea0 17bd 4bfc c3bc 8a6c cf3d bd88 513c
000002e0: ff84 ea3c 672f 343c bf82 07bd c148 423d
000002f0: d89c 593d 0b19 473d 8ce2 89bd 3a40 003c
00000300: 2eb6 9b3c 620c 44bc 71e0 483d 75f9 78bc
00000310: e865 e0bc 2eeb 3dbd de47 ae3b 5899 ccbd
00000320: d1f0 43bd ac6a 29bc f36f 35bd 8b73 e23c
00000330: e60d 4dbd 0ce2 91bd b8e5 b6bd 0f74 32bd
00000340: 5e32 533d 3855 8dbc 61bd 93bc 6160 70bb
00000350: f5fc 20bd d1cf 323c 8560 09bd d079 6f3c
00000360: 2fbd 73bd 683a 9fbc f822 153d 91dc cfbc
00000370: 5d3f 2fbd b279 2f3c a95e a53d 2518 2c3d
00000380: b58e 013d 2244 a7bd 499e babd 0ae6 e3bc
00000390: bbf5 713c 06e5 81bc e401 86bd 8494 cd3d
000003a0: 5222 1fbd 4008 fdbc 2a62 0ebe a419 6d3c
000003b0: 4664 c43d cf0f 10bd 0015 973b 16a1 52bc
000003c0: 5451 0cbe 29f2 49bd 50ee 8bbc bf45 e63c
000003d0: 094d 01bb 7fdb d0bc 7bc5 88bd cb18 08bc
000003e0: 14da 2a3d b5e2 813d df30 b1bb 56af a4bc
000003f0: 0c29 1e3d 1e05 90bd 160e e5bc 9077 ab3c
0.050865836 -0.011244342 0.052249514 0.018015934 -0.049991444 0.040779572 -0.013579672 -0.02360701
-0.050312262 -0.0588596 0.016480481 -0.0137451915 0.022640588 -0.04986731 0.043777287 -0.043309517
-0.009679388 0.012378473 0.03035919 0.049191244 0.05394824 -0.046874635 0.015605903 -0.02513135
-0.0059512383 -0.044125985 0.055282556 -0.04326951 0.03123596 0.02473208 0.018741505 -0.031787448
0.053750664 0.012499033 0.0068666823 -0.05207352 0.026020093 -0.009800016 -0.026993962 0.050772876
0.012712262 -0.03240229 -0.03097877 -0.0034933637 0.032750677 -0.01464777 -0.034842618 -0.021016046
-0.045384742 0.020642014 0.04673768 -0.055778544 0.013204231 0.03157731 0.010097865 -0.021925686
0.030670337 0.031849507 0.021265075 -0.00981866 -0.016651953 0.007036354 -0.011270394 -0.017182538
0.038943216 0.05206569 -0.005290286 -0.012767978 0.0014040283 -0.0042670183 0.013669568 0.017460583
-0.05451798 -0.021562975 0.05019029 0.024110977 -0.002346806 -0.036650937 -0.037282933 -0.05433793
-0.011065789 0.019538501 0.037489317 0.02709195 -0.05226303 -0.035275646 -0.008759949 0.058300275
0.009346709 -0.016204406 0.024114553 -0.022012 -0.039386354 0.043090306 -0.026543338 -0.011506005
-0.060145516 0.04075992 0.0459188 0.037893612 -0.041064013 -0.058376826 -0.047865655 0.04403217
0.027897218 0.05113252 0.032079704 0.015869286 8.251396e-05 -0.04484398 -0.06589035 -0.056482434
0.023871468 -0.029646626 -0.012614638 -0.033678975 -0.010352975 -0.04189478 -0.03994466 0.020577107
-0.030909402 0.037543748 -0.018661728 -0.043321066 -0.009982543 -0.028275963 -0.017594175 -0.056418065
0.062637776 -0.024631372 0.06545772 0.022176094 0.034357578 0.014796686 0.058009468 -0.024379263
-0.052088767 0.03649025 0.033077333 -0.07294364 -0.040862918 -0.0628938 0.096451454 -0.07588434
0.027731366 -0.037295517 0.027233787 -0.011894213 -0.0071997656 0.027217057 0.039672922 -0.07512489
-0.01429593 -0.04243181 0.0018363147 -0.12907033 -0.012243565 0.040753435 -0.026533674 -0.004820122
0.0801282 0.047142725 -0.021139843 -0.05204742 -0.050716855 -0.0500852 0.06735681 0.06009061
-0.033103395 0.031206748 -0.08046806 -0.09633599 0.03477988 -0.016638918 0.012433251 0.029606003
-0.06656353 0.09212468 -0.025793714 0.038090654 -0.03701853 -0.023924014 0.10128124 0.012788949
0.02862787 0.01099763 -0.033083674 0.047432665 0.053128093 0.048607867 -0.067326635 0.007827813
0.019007768 -0.011965843 0.04904217 -0.015196194 -0.027392343 -0.046366863 0.005318626 -0.099901855
-0.047837082 -0.010340374 -0.044296216 0.027642986 -0.050062083 -0.07123193 -0.08930534 -0.043567713
0.051561706 -0.01725255 -0.018034639 -0.003667854 -0.03930374 0.010913805 -0.033539314 0.014616445
-0.05950659 -0.01943703 0.036410302 -0.025373729 -0.042785037 0.010710167 0.080746956 0.042015214
0.031630237 -0.08167292 -0.09112222 -0.027819652 0.014768059 -0.015856277 -0.06543329 0.10038093
-0.03885109 -0.030887723 -0.13904634 0.014471445 0.09589438 -0.035171326 0.0046106577 -0.012855789
-0.13702899 -0.049303208 -0.01708141 0.02810943 -0.0019729754 -0.025495289 -0.066782914 -0.008306692
0.04171188 0.06342069 -0.005407437 -0.020103138 0.038613364 -0.07032226 -0.027960818 0.020931035

encoder.convs.0.node_mlp.bias f4 [128]
00000000: 181a 3ebd 3e70 593c 0f2c 6c3c c48f 693d
00000010: 3387 113d 35c1 c5bc a6e0 eaba 79ac 24bd
00000020: f89f 8bb8 48ca bf3b 956a 3d3d 9a98 a43d
00000030: e750 13bd 8fb7 6f3d 9682 30bd 9fec aa3c
00000040: 2f21 513c 0ac7 0a3d 879c 133d ed82 45bc
00000050: 6416 5f3d dbac 143c 1ae4 393b e96c bdbc
00000060: e962 63bd aa1a 38bc 1975 233c c645 2f39
00000070: 72c7 89bc 37fa efba a455 d63a 889d 06bd
00000080: 45bf 5a3b d8b8 44bd 544b b63b 3e47 e03c
00000090: bbdd abbc 3f9d 103d cf10 17bd ffbd bfbc
000000a0: 8bb9 413d fdcd 75bd 7b5b 273d c95d 7f3d
000000b0: 472c b43c 5c2d 08bc 271a c3bc a462 25bd
000000c0: 438b 5b3d a6d7 983b 0c9c b43c 9897 cebc
000000d0: 8156 ec3c 5608 06bd fbc0 223d 34d3 673d
000000e0: e88f 36bd 10ed 4dbd 2084 6dbd 4d79 17bd
000000f0: 86ed 363c 0c39 5bbd 631e 1c3d 6b0c 13bd
00000100: 0081 f0bb 5c80 a53c 52dd 36bd 3b12 60bb
00000110: b57c 70bd d08a 5cbd 3984 213c 602a e0bc
00000120: 90a2 303d 2750 18bd 800d d23c 90f4 463d
00000130: 598d 90bc e4e0 bcbc 8b54 ea3c 063a cbbc
00000140: be77 823c 1428 58bc 4970 a5bb efbe 54bd
00000150: 71b9 353d 00fa 3dbd 5cd3 3abc 6cda dc3c
00000160: 7be0 0fbd 84b5 54bb dc82 7a3d 7de2 b43c
00000170: 2737 403d 3622 22bd 36ee 023d 7bac 96bc
00000180: 90ef be39 beb4 a2bc fcf2 59bc bd50 5e3d
00000190: aec3 003d 3046 5dbd 60f8 433d c55c 823d
000001a0: 0b5b a5bc 6185 503c 00a3 9c3c aa3d 75bd
000001b0: 614d eb3b 8913 523d 7ed9 3cbc c815 29bd
000001c0: e8ca 17bd 7f9a 1b3d 5c19 c5bb b3b0 c4bb
000001d0: cda5 813c 3040 973c b0d3 043d 336a 28b9
000001e0: 1c5e 6abd 1fab 2b3d a345 253d fad0 8f3b
000001f0: 99ce d7bc 8fb0 cfbc ee55 ca3c 678c 563d
-0.046411604 0.0132713895 0.014414801 0.05702187 0.035529327 -0.02413998 -0.0017919734 -0.040203545
-6.657833e-05 0.005852971 0.046244223 0.08036919 -0.035965826 0.058524664 -0.043093286 0.020864783
0.012764259 0.033881225 0.036037948 -0.012055141 0.054464713 0.009074415 0.002836472 -0.023123221
-0.05551425 -0.011236826 0.009976649 0.00016715293 -0.016818736 -0.0018308823 0.0016352427 -0.032865077
0.0033378166 -0.048027843 0.005563179 0.02737772 -0.020979753 0.03530621 -0.036881264 -0.023406027
0.04729609 -0.0600109 0.040858727 0.0623453 0.02199377 -0.008311596 -0.023816181 -0.040377274
0.053599607 0.004664379 0.022047065 -0.02521877 0.028849842 -0.032722794 0.03973482 0.056597903
-0.044570833 -0.05027491 -0.057987332 -0.036980916 0.011165028 -0.0535212 0.038114917 -0.035900515
-0.0073395967 0.020202808 -0.04464466 -0.0034190554 -0.05871268 -0.05384332 0.0098581845 -0.027363956
0.04312378 -0.037185814 0.025641203 0.048573077 -0.017645525 -0.023056455 0.028604766 -0.024807941
0.015926238 -0.013193149 -0.005048786 -0.0519399 0.044366304 -0.046380997 -0.011402931 0.02695962
-0.03512619 -0.0032456825 0.061159953 0.022080654 0.046927597 -0.039583407 0.031965457 -0.018392792
0.00036418112 -0.019861575 -0.013302561 0.054276217 0.031436615 -0.054022014 0.04784429 0.06365351
-0.020185014 0.0127271125 0.019120693 -0.05987326 0.007180855 0.05128816 -0.011526464 -0.041280538
-0.03705874 0.037989136 -0.006014986 -0.0060025095 0.01582613 0.018463224 0.032428443 -0.00016061291
-0.057218656 0.04191124 0.040349614 0.0043889256 -0.02634363 -0.025352744 0.024699178 0.05237999

encoder.convs.0.edge_mlp.0.weight f4 [128, 7]
00000000: 430a 00bf b145 1c3e 05b8 d33d b009 1f3d
00000010: f163 77bd bb09 08bd bc02 00bf 2750 e8bc
00000020: 4564 9cbe 92fe d13e 90cc 353e 20d5 033e
00000030: f654 48be 45fb 6dbe 6daa 573b 1dfd 0dbe
00000040: 7fbc 9c3c 0c16 173d 94aa 0b3d f5e7 90be
00000050: 16a2 dc3e 0d61 35be 5a88 923d f201 61be
00000060: 88f2 b73e 9579 dfbd 2ba5 433e 2e2d 193e
00000070: 2d19 6b3d 77ed 0bbd cc0f acbe 083a a6be
00000080: 8f74 a23e 99af 913e 47e0 61be 5e91 41be
00000090: e724 99be 4fe1 9abe c004 773d a557 90bd
000000a0: 526d b33e 7873 8f3e 2bb6 83be 3555 c63e
000000b0: 0108 a03e a5ed a53e d24e bcbd 408a 193d
000000c0: 1aa7 86be db97 1dbe e227 f53e 7657 b53e
000000d0: e8b4 c2be 0573 0a3e ad1c f0bd a191 87be
000000e0: 1d43 653e 2398 18bc 646f 35be 8173 ad3e
000000f0: b43d 47be 7530 5d3e 5448 6e3e 48ca 28be
00000100: eead 313e 1bd5 0abe 73e6 adbd ec92 b43e
00000110: eede a93e 45ad 66be 013e d33e 598e b4be
00000120: b08a 5d3e 089b 98be 4a9e eb3b 0523 83be
00000130: 9b17 a63e e027 65be 184d 5fbe d009 1ebe
00000140: 75e2 8b3e e17f 553e 6d03 2a3e 7a66 a03e
00000150: 02e5 f0bd 795e 413e 9010 f0be 01e8 babe
00000160: 30aa b03d b3d8 babe f77b 053e 9879 383e
00000170: 8701 7b3e 36c4 cd3e a633 a83d d4da 30bd
00000180: 0e29 9abe 40f3 40be 0b11 e73c f359 3e3e
00000190: 17d2 8dbe e0a5 16bd d598 b03d dd7b 123c
000001a0: ae5d a0be b1a6 943e be9e 913d ffcb ba3e
000001b0: 979f 92be 41b3 80bd 4765 f93d af0e 7f3e
000001c0: 23e5 77be 461c 24bd c489 28be 266a 73be
000001d0: cd86 d0be 9c25 df3b 2a1b 893e 21dc d8be
000001e0: da00 3fbd fbfa bcbe cbdf a63d 746d 093e
000001f0: 9620 aabe a06b 073e d3d7 51be b89b debd
00000200: f30b 52be 864d adbb df65 4f3e 1dea 41be
00000210: 62c5 ccbd 2e6b 6dbe 1902 27be a908 a73e
00000220: 0147 873e 9b7d 62be c21e b23e 96f4 283d
00000230: 400a 3f3e 28f2 b2be 9e40 cabd bd1b ab3e
00000240: e49a 9d3e 9bbc 4b3e 4f53 12be c216 f7bd
00000250: 56b7 4b3e d829 3f3e a648 88be 8bda 8bbe
00000260: 9c1b a4be 710d b7be 5e68 ffbc 19ac e53e
00000270: 6d03 6bbe 3921 4d3e bf31 4dbe be79 c73c
00000280: b4a0 47be 4649 8cbe 3f26 c23e 9524 cf3d
00000290: 830b b83e 62d7 ad3d d3e3 6d3b 7582 833e
000002a0: 64fd 86be 8d7d 733e 381f 8c3d 20a5 21bd
000002b0: 6605 a5be a0fe 32bc 4273 86be f888 a53e
000002c0: 66eb 82be e497 e8bb b6a8 a23e 7de6 78bc
000002d0: ee8e d9be 37ec 7f3d 65ab 173e fde6 94be
000002e0: 8586 b6be 88c2 e4be 5c4c 9cbe e969 fdbc
000002f0: 8222 b1be ccac acbe be20 083e e169 a2be
00000300: 4adf 073c e5c5 f43d 8085 9b3e ae2b 993c
00000310: b9bd 573e a8e4 a43e daab d73d dc8c 973e
00000320: f7b2 38be bec5 ae3e 8b1a 9cbe b5c6 d93e
00000330: f84f 183e fa93 10bd b2a9 a43e e6e2 283e
00000340: d677 16bd b3ae 0cbd b6ff ef3e 9d3d 963c
00000350: 10c3 543e 1c4f 5c3d e2e4 12bd 7963 37be
00000360: 9d00 2c3e 3b0e 0a3d b9bc 343e fcb1 7b3d
00000370: 7815 24be c557 42bd 1a25 45be df8b d73d
00000380: 7e37 f13d 95e3 abbe dcc7 d83e 1aed cbbd
00000390: 4677 a03e a590 953e 4259 133e 15df e33e
000003a0: 5b22 cdbe d3b9 72be d07e 5f3d 42ed a6bd
000003b0: d813 f6bd 5a70 18bd 886d bcbe c7b0 a6bc
000003c0: 3046 43be 3d1a c73d baa7 4f3d 2194 7cbe
000003d0: 4920 13be d8e6 e1bd 031d 8a3e 0b65 d73e
000003e0: da3f df3d 0d80 7fbd b44d 17bd 28a0 953e
000003f0: b95b 7dbe 87a3 5cbe 2b82 933b edac 67be
-0.5001566 0.1526096 0.10337833 0.038827598 -0.060398046 -0.033212405 -0.5000417 -0.028358532
-0.3054525 0.41014534 0.17753816 0.1287427 -0.1956366 -0.23240383 0.0032907978 -0.13866086
0.01913285 0.03688626 0.034098223 -0.2830197 0.43092412 -0.17712803 0.07154913 -0.21973398
0.35927224 -0.10911862 0.19105975 0.14958641 0.057397056 -0.03416201 -0.33605802 -0.3246615
0.31729552 0.28454283 -0.22058211 -0.1890311 -0.29910967 -0.30250022 0.060307264 -0.07047967
0.35044342 0.28017783 -0.2572492 0.38736883 0.31256106 0.3240787 -0.09194721 0.03748536
-0.26299363 -0.1538996 0.4788199 0.3541829 -0.38028646 0.13520439 -0.117242195 -0.26478294
0.22388883 -0.009313616 -0.17718273 0.33877185 -0.19457132 0.21600516 0.23269778 -0.16483414
0.17351505 -0.13557856 -0.0849122 0.35268342 0.33177894 -0.22527035 0.41258243 -0.35264853
0.21634936 -0.2980578 0.0071905004 -0.25612655 0.32439885 -0.22378492 -0.21806753 -0.1543343
0.2732121 0.20849563 0.1660287 0.31328183 -0.1176243 0.18883695 -0.46887636 -0.3650513
0.08626211 -0.36493453 0.1303557 0.18015134 0.24512301 0.4018876 0.08212976 -0.04317744
-0.30109447 -0.18842793 0.028206369 0.18589 -0.27699348 -0.036779284 0.086229004 0.008940664
-0.31321472 0.29033425 0.07110356 0.36483762 -0.28637382 -0.0628419 0.1217752 0.24907945
-0.24208502 -0.040066026 -0.16458803 -0.23770961 -0.40727845 0.0068099033 0.26778537 -0.42355445
-0.04663167 -0.36910233 0.08148154 0.1342066 -0.33227986 0.1322465 -0.20492487 -0.10869545
-0.20512371 -0.0052887825 0.20253704 -0.18936963 -0.09998585 -0.23185417 -0.16309394 0.32623795
0.2642136 -0.22118227 0.3478909 0.04124888 0.18656254 -0.34950376 -0.09875606 0.334196
0.30782235 0.19896166 -0.14289592 -0.120648876 0.19894156 0.18668306 -0.26617926 -0.27315173
-0.32052314 -0.35752442 -0.031177696 0.44857863 -0.22950526 0.20032205 -0.20038508 0.024350043
-0.19494897 -0.27399653 0.37919804 0.10114399 0.35946283 0.08488347 0.0036299124 0.25685468
-0.26365197 0.23778363 0.06841892 -0.039464116 -0.3223068 -0.010924965 -0.2625981 0.3233106
-0.2557022 -0.007098185 0.3176934 -0.015191671 -0.4249186 0.06248113 0.14811476 -0.2908248
-0.35649505 -0.44679666 -0.30527008 -0.030934291 -0.3459664 -0.33725584 0.1329374 -0.31721404
0.008292982 0.11951808 0.3037529 0.018697586 0.21068467 0.322057 0.10530825 0.29599655
-0.1803702 0.3413524 -0.30489 0.42534414 0.14874256 -0.03529737 0.32160717 0.16492805
-0.03673538 -0.034346294 0.4687478 0.018339926 0.20777535 0.053786382 -0.03586281 -0.1790904
0.16797109 0.033704977 0.17650117 0.061449036 -0.16023815 -0.047446985 -0.19252434 0.10524725
0.117781624 -0.3357207 0.4233998 -0.09957333 0.31340998 0.29211918 0.14389518 0.44506136
-0.40065274 -0.23703699 0.054564297 -0.08150722 -0.12015504 -0.03721652 -0.36802316 -0.020347966
-0.19069743 0.097218014 0.050697066 -0.24665882 -0.14367785 -0.11030358 0.2697526 0.42069277
0.109008506 -0.062377978 -0.036939338 0.29223752 -0.2474202 -0.21546756 0.004501601 -0.2262456

encoder.convs.0.edge_mlp.0.bias f4 [128]
00000000: 710f f83d d932 333e 6c03 6abe f319 423d
00000010: a8bd 3f3c b668 703e d130 383b 0da5 0ebe
00000020: 8ccb 2c3e 6c03 1bbe e478 0ebc 2459 75bd
00000030: f143 183e dd5c acbc 676a 243e c5cb 56be
00000040: e26b b93c 0ad6 b93e 979b 38be 3f7a a9bd
00000050: 4008 b53b a7a5 903d ee0c 8bbd 894d f03d
00000060: 22e8 94bd ca98 823c b46d a43e 776a 983e
00000070: 258c b8bd a2f6 0ebe cff2 73be 56a9 0cbd
00000080: 2633 2abb aa5d 063e e9d8 d8bd 64de 333e
00000090: 5df4 92bb 996b 9f3d 21c1 a53e be9e c23c
000000a0: 77d3 003d 7855 5dbd 3c04 6f3e b923 68be
000000b0: 6667 65be ec41 923d dc53 493e 5ec9 8abe
000000c0: 45e9 30bd 62bc cd3d 29cd 943e b267 d53d
000000d0: 01b0 903e 5481 8bbd 510b 9fbe 4467 043d
000000e0: 60d5 463e c4b3 e03b 0064 a03d 7d44 b43e
000000f0: ea1a 62be 4193 883d 2522 d53d f87c 3c3d
00000100: c8c7 b8bd d417 03be cd58 573e fa57 8d3d
00000110: 3743 b73d a6c6 0b3d c2fa 44be cbec 133e
00000120: 4f56 3cbe 955f 24be 6135 25be 608d 8cbe
00000130: bbd8 87be 94ea b7bc de53 a3be d268 703e
00000140: 133e 80be 6768 e13d 2735 fb3d 089e b5bd
00000150: c870 373e 2d72 a63e ec55 99be 4b9f b7bc
00000160: e6de 7c3e d714 bb3e c7e7 163e ef85 a73e
00000170: c48c 3abe 6710 9b3e 3555 ae3d ac18 07be
00000180: eff2 4d3e cc1e 883e 546b 9dbe 1719 5b3e
00000190: e16e a53d 6b93 8c3e 4751 81be e742 3c3e
000001a0: b710 b33e 5afa b7bd a373 433e aea1 90be
000001b0: b07f ae3d 0488 2bbe 14a0 aebe 9d37 563e
000001c0: 6868 293e fab5 2c3e 3de7 8d3e 6ea2 1abd
000001d0: dc04 7dbe bcf2 4c3e 26ae 8f3e b6a6 85be
000001e0: 4699 9abe f485 77be 4b8d 0abe f4e5 353e
000001f0: 8db6 95be 2cad cd3d bf41 253d 96cd 3abe
0.1211232 0.17499866 -0.22852868 0.04738803 0.011702932 0.23477444 0.0028105269 -0.1393015
0.16874522 -0.15138024 -0.008695815 -0.059899464 0.14869668 -0.021040374 0.16056214 -0.2097617
0.02263445 0.3629611 -0.18028103 -0.0827527 0.005524665 0.07062846 -0.067895755 0.11733539
-0.07270838 0.015941996 0.32114947 0.29768726 -0.090111054 -0.1396127 -0.23823093 -0.03434118
-0.0025970428 0.13121668 -0.10588247 0.17565304 -0.004484697 0.077841945 0.32373908 0.023757335
0.03145167 -0.054036587 0.23341459 -0.22669877 -0.22402725 0.0714148 0.19660896 -0.27106756
-0.043191213 0.10045697 0.29062775 0.10420169 0.2825928 -0.06811777 -0.3106332 0.032325044
0.19417334 0.006857367 0.078315735 0.35208502 -0.2208058 0.066687115 0.10406903 0.046017617
-0.0902248 -0.12802058 0.21029969 0.06901546 0.08948367 0.034124993 -0.19236282 0.14445798
-0.18392299 -0.16052087 -0.16133644 -0.2745161 -0.2653254 -0.022450723 -0.31899923 0.23477486
-0.2504736 0.11006241 0.122659974 -0.08868033 0.17914116 0.32508984 -0.29948366 -0.022414824
0.24694404 0.36539337 0.14736854 0.3271937 -0.1821776 0.30285951 0.08512346 -0.13193005
0.20112203 0.26585996 -0.30745947 0.2139629 0.08077789 0.2745622 -0.25257322 0.18384896
0.3497369 -0.08983298 0.1908708 -0.28248352 0.08520448 -0.16751105 -0.34106505 0.20919652
0.16543734 0.16866294 0.27715483 -0.03775256 -0.24708885 0.20014471 0.28062552 -0.26103753
-0.30195063 -0.24172193 -0.13530461 0.17763501 -0.29240838 0.100427955 0.040345903 -0.18242487

encoder.convs.0.edge_mlp.2.weight f4 [128, 128]
00000000: cd4c 89be 9236 743d 5b46 93bc 1ebf b0bd
00000010: 79ea 783d 3bb4 bcbd b9db c6bd 2f00 29bd
00000020: cfbe b9bc d300 8dbd 4071 08bd 1ff8 573d
00000030: ca16 a7bd 87ef ca3d 4399 213e 2afb 023e
00000040: 4f9e 82bc 0224 c0bd f222 70bd 0a20 de3c
00000050: 6f44 9a3d 7ea2 0abd 4b14 82bd 502c 3cbd
00000060: 46c4 3e3d 7fe1 1e3e 67ad bebd 17c0 6f3c
00000070: 5f16 5ebd 58da 773c 97da 533e 5199 8bbc
00000080: 18db 613c 4a8a 703c ea29 7e3d 3040 56bd
00000090: 274a 453c d2a0 e93c dd77 5b3d d7f8 de3d
000000a0: 4381 583b 1425 153d 4552 193d 4c01 a8bc
000000b0: f3be cbbd 8b15 c3bc d6a9 d2bd 7616 3b3d
000000c0: 022d 583c 53a7 fb3c 1db5 50bd b4d2 133d
000000d0: 2c11 533c 226b 80bd c0e8 84bc e546 07bd
000000e0: 2de3 04bd f5d2 8f3d a719 543c 1f13 e4bb
000000f0: 46a1 de3d f62d b23d 3bdc a53c 4e73 58bd
00000100: 9fd9 b9bd ed05 393e 7148 833d ad26 933b
00000110: 1055 833c 88f7 e8bc e9d2 373e e266 a9bd
00000120: 5665 c83c 39af e2bd e875 fdbc a072 673d
00000130: 2ecc 84bd 4a3c afbd 2ae6 473c 4fc6 043d
00000140: ace8 603d aeb3 923d 236e 983d 0455 2f3e
00000150: 802d 033e 8c7d f7bc b356 3ebd f569 ae3d
00000160: 8d38 fcba 2fcc eebd 6e0d e83b 76ab abbd
00000170: 294c c13d 7f84 e93d 1a60 623e 3943 b93d
00000180: 0160 473d d76d e63b 74e9 a9bc bb15 8fbd
00000190: b767 fd3d 4ede c9bd ceef a33d e3fa 09bc
000001a0: 8e2e 343c 2551 adbb b8b6 bc3d 56f5 6ebd
000001b0: 8322 dabc 2c2b 8f3e 5b73 833d 6a40 2e3d
000001c0: cea2 45bd cd58 b53d adfa dfbc 2bdb b33d
000001d0: c05a 2ebd 196f 0f3d 5130 a53c b89c aabd
000001e0: ba50 253d 59b2 7bbd 08bb a83d c56e bb3d
000001f0: d53f fc3a c37d 0abd 7ff2 793d 7333 b3bc
00000200: c9e5 e63c 8f28 66bd dfd6 203d adf0 3fbc
00000210: 58d0 b53d 75af 823d 5fff 883d 6af6 3a3c
00000220: c7b7 d7bc 4ea3 84bd 1320 c03d 8762 a7bd
00000230: f12f 8d3d f5ad 03bd 3cad 00be 4797 6bbb
00000240: 26d4 c33c a4d0 51bd 55f8 6bbd 90c7 d33d
00000250: dcde a7bc bbea 553d 0f61 5ebd ac7e 2fbd
00000260: 240c 8b3d a67a f03c 6783 e43b cd2d 7cbd
00000270: 7eeb e43d dacd e7bd a114 04bd 9650 8a3d
00000280: e94f d03c f985 003c 6168 1d3d aaf8 073d
00000290: e5e6 f33d 6e96 963d 8625 263d 4450 473d
000002a0: 3cff 8fbd 4196 b4bd 395e 4abd ab4b 71bd
000002b0: 18d9 c93c 4dca f33a 80bc 8fbb 73f9 033d
000002c0: bc45 6abc 20dc 84bb a2ce 8c3d fb76 ddbc
000002d0: cf10 e93c f1ef 533d fd27 8e3d fe33 51bd
000002e0: a8c7 4bbb f170 97bd 1ce3 913c 94d0 efbc
000002f0: cbb1 d93c b239 863d 77cb 163d 8059 ac3c
00000300: eeb7 163d 1237 f5bd e2d6 babd f551 8dbd
00000310: a4e2 233c 21c8 563d 4b11 4cbd bfd9 ce3d
00000320: a310 e93d 6b3f 963d 85b8 893d acac 89bd
00000330: 0364 dc3c 6be1 a43c 132a 3abe d780 f03c
00000340: 1157 be3d 9856 83bd 4f94 943d 946b 29bc
00000350: c170 25be dab5 5e3d 1287 a8bd 3233 4e3c
00000360: 9193 1f3d 4c60 793d 9808 77bd cfe3 adbd
00000370: 0502 1b3e 890e 10bd db4c 443d acba 813d
00000380: 9b1a 92bd e912 a4bd 3d11 913d 4908 a4bd
00000390: ed60 80bd becd b13d f5bc 2c3d 96df dd3c
000003a0: 9aba 97bd 0685 24be a53d 42bd e32c 7e3d
000003b0: 9e05 04bc 9843 ec3c 0f35 813d 5e3d 92bc
000003c0: d5ab e1bb c25d 52bd 089b 033d bdda 3c3d
000003d0: 0906 203c a7a7 993d e264 973d b1ba 633d
000003e0: 8e42 b4bd 2c52 17bd 11de 0c3d 8bce 943d
000003f0: a94d 8cbc 58a5 10bd 9f29 583c 400e babb
-0.26816407 0.059622355 -0.017977884 -0.08630203 0.060770486 -0.09214064 -0.097098775 -0.04125994
-0.022673992 -0.06884923 -0.03331113 0.05272686 -0.081586435 0.099089675 0.15781121 0.12791124
-0.015944628 -0.09381868 -0.058627076 0.027114887 0.07532584 -0.03384637 -0.06351527 -0.045940697
0.0465739 0.15515707 -0.093104176 0.0146332 -0.054220553 0.015127741 0.20688854 -0.01704088
0.013785146 0.014681408 0.06205169 -0.052307308 0.012041605 0.028519068 0.053581107 0.10887306
0.003303603 0.036412314 0.037431974 -0.02050843 -0.0994853 -0.023813983 -0.102863 0.045675717
0.013194324 0.030719435 -0.050953973 0.036089614 0.012882512 -0.06270434 -0.016224265 -0.033026595
-0.032443214 0.07022659 0.012945569 -0.006960287 0.10870604 0.087001726 0.020246616 -0.052844338
-0.09074711 0.18068667 0.064103015 0.0044906945 0.016031772 -0.028438345 0.1795155 -0.082715765
0.024462383 -0.11068577 -0.030940011 0.0565058 -0.06484257 -0.08556421 0.0122008715 0.032415684
0.054909393 0.071631774 0.07442882 0.17122275 0.12810326 -0.030211233 -0.0464694 0.085163034
-0.0019242928 -0.11660039 0.007081679 -0.08382313 0.094383545 0.11402225 0.22106972 0.09046025
0.04867554 0.007032137 -0.020741202 -0.06986567 0.12373298 -0.098568544 0.080047235 -0.008421632
0.010997428 -0.005289214 0.09214538 -0.05833944 -0.026627785 0.27962625 0.06418487 0.0425419
-0.048250966 0.08854828 -0.027341211 0.08782037 -0.042567015 0.03501806 0.02016464 -0.08330673
0.04036019 -0.061449382 0.082387984 0.09151987 0.0019245098 -0.033811342 0.061022278 -0.021875119
0.028185742 -0.056191023 0.039267417 -0.011715096 0.08877629 0.06381122 0.06689333 0.011411289
-0.026332749 -0.064764604 0.09381118 -0.081730895 0.0689391 -0.03214832 -0.12566084 -0.0035948323
0.023904871 -0.051224366 -0.057609875 0.10340798 -0.02049201 0.05222581 -0.05429178 -0.042845413
0.06789425 0.029355358 0.006973672 -0.061567117 0.11177729 -0.1131856 -0.032246236 0.06753652
0.02542873 0.007844442 0.03842962 0.03319613 0.11909274 0.07352911 0.04056313 0.04866053
-0.07031104 -0.08817721 -0.049406264 -0.058910053 0.024639651 0.0018599719 -0.0043864846 0.032220315
-0.0142988525 -0.0040545613 0.068753496 -0.027034273 0.028450398 0.051742498 0.06941221 -0.051074974
-0.0031094346 -0.07394589 0.01780849 -0.029274262 0.026574036 0.06553973 0.036815133 0.02103877
0.036796503 -0.119733945 -0.09123017 -0.06900398 0.010002766 0.05243695 -0.04982118 0.101001255
0.11380126 0.07336315 0.067246474 -0.06722388 0.026903158 0.020127019 -0.18180113 0.02935831
0.0929395 -0.06413001 0.0725485 -0.01034059 -0.16156293 0.054372646 -0.082288876 0.012585448
0.03895909 0.06088285 -0.06031093 -0.08490717 0.15137489 -0.03517011 0.047924858 0.06334433
-0.07133981 -0.08011419 0.07083366 -0.08009393 -0.06268487 0.0868182 0.04217239 0.027084153
-0.07408638 -0.1606637 -0.04742207 0.062054526 -0.00805798 0.028840825 0.06308948 -0.017851528
-0.006886939 -0.051358946 0.03213027 0.046107043 0.009767064 0.0750268 0.07392289 0.055597965
-0.08801757 -0.0369436 0.034391467 0.072659574 -0.017126875 -0.035313934 0.013193517 -0.0056779683

encoder.convs.0.edge_mlp.2.bias f4 [128]
00000000: f6df 863c 4937 85bd 3c8f 8c3b a2ff 063d
00000010: 5043 a1bc cf55 3f3b 4c3d a0bc 758d 98bd
00000020: 4cd0 8abd 2d19 7a3b 8e9c 91bd e50c 903d
00000030: 18af 173d 26f8 9f3d 281a 1bbc baf2 693d
00000040: 16c7 85bd ea0f 183d 99cd 383d 8cd1 9e3c
00000050: 5ce1 2cbd f11c f7bc c65e 19bd fe52 8c3d
00000060: 3278 513c ccb3 2ebd 360d a3bc f96a a7ba
00000070: 6f92 e03b 648b 963d 7b2b 123d eed4 973d
00000080: 8932 17bd b274 693c cc6e 623d ff2f 813d
00000090: 1f32 ce3c 7a17 823d e24b 67bd 967f a4bd
000000a0: f51b 9a3c 0397 1f3d 9129 403d 69f5 65bd
000000b0: dadc 943d f318 50bd e13f 423d 216d 04bd
000000c0: 03fc b73d beaf 143d 4961 433d 63d2 9cbb
000000d0: 3cb2 babd d5c2 6ebd 949b 86bd eb1b cabc
000000e0: 1059 1fbd aeb4 a93c baef 65bd 3f50 97bd
000000f0: f990 933b aaab e4bb c89f 29bc f43f adbd
00000100: 3793 91bd 842e 9bbd a825 30bd 6288 8abc
00000110: 55df 80bd 4046 75bd 3cbe ccbc 72e6 7b3d
00000120: 119a 3d3d 0610 a4bc c583 37bd e03d 7d3c
00000130: 0e90 9ebd cf01 92bd 1823 1c3c 9dd2 e03c
00000140: e349 5abd 4f7f 483b 7e91 c43b 295b d0bc
00000150: 53ba 0d3d 7b8c f53c db05 5cbd f9bb 22bc
00000160: 4fb4 86bd b9f3 5bbd cff7 96bd fdf1 68bd
00000170: baf7 2fbd 1280 163b 072f 03bc 09d2 e1bb
00000180: fe9a 933d 508e d33c 73a1 3e3a ad2e 213d
00000190: f659 60bd 47a7 c13b 3e37 133d 57c7 593d
000001a0: c52e 943d e9a6 90bd d182 c53c 27e9 af3d
000001b0: 53c7 bf3c e86b 86bd a768 883d 3646 9dbd
000001c0: 8d51 7ebd ab3d 61bd 55d6 9e3d c8c0 953d
000001d0: 4a1f f9bc d2b8 093d 1cae 5a3c 6b45 cbbd
000001e0: 606f 33bd 4000 f5bc 969c adbb d2f0 c7bc
000001f0: 2391 4f3d 178c 26bd 4557 e7bc 6a1c 05ba
0.016464215 -0.065046854 0.004289536 0.032958634 -0.019685417 0.0029195433 -0.019560479 -0.07448856
-0.06778011 0.0038161979 -0.071099386 0.070337094 0.037032217 0.078110024 -0.009466685 0.057116248
-0.06532113 0.03712455 0.04511795 0.01938703 -0.042207107 -0.030165168 -0.0374439 0.06851767
0.012785004 -0.042651936 -0.01990376 -0.0012772969 0.0068533937 0.073508054 0.035685997 0.0741366
-0.03691343 0.014249014 0.055281445 0.06307983 0.025170384 0.06352134 -0.056468852 -0.080321476
0.01881216 0.038962375 0.04691464 -0.056142244 0.072686866 -0.050805043 0.0474242 -0.032330636
0.08983614 0.036300413 0.0477002 -0.0047858222 -0.09116027 -0.058291275 -0.06572643 -0.024671515
-0.038903296 0.020716038 -0.056136824 -0.073883526 0.004503366 -0.0069784718 -0.010353036 -0.08459464
-0.07108157 -0.075772315 -0.04300466 -0.016910736 -0.06292597 -0.05988145 -0.024993055 0.061499067
0.046289507 -0.020027172 -0.0448034 0.015456647 -0.0774232 -0.07129251 0.009529851 0.027444178
-0.05329312 0.003059346 0.0059987893 -0.025434094 0.03460152 0.029974213 -0.05371652 -0.0099325115
-0.0657736 -0.05369923 -0.073714845 -0.056871403 -0.04296086 0.002296452 -0.008006818 -0.006891493
0.07207297 0.025824696 0.00072719826 0.039351154 -0.054773293 0.0059098336 0.035941355 0.05316862
0.07235483 -0.070630856 0.02411023 0.08589392 0.023410475 -0.0656355 0.06660586 -0.07679407
-0.06208949 -0.05499045 0.07755724 0.07312161 -0.030410428 0.033623524 0.013347175 -0.0992535
-0.043807387 -0.029907346 -0.0052982075 -0.024406824 0.050675523 -0.040660944 -0.028239856 -0.00050777814

encoder.convs.0.norm.weight f4 [128]
00000000: 6741 763f f10f 6f3f ecb6 713f f69e 713f
00000010: 44d7 723f 85e7 6f3f b237 6a3f 9d66 6f3f
00000020: 34d9 753f 8cf9 703f b7f1 763f 1d90 703f
00000030: 4371 693f bfe7 663f f6ac 6b3f 8173 6c3f
00000040: 50a6 683f 07db 723f bdfa 6a3f 3a84 6e3f
00000050: bcd4 733f 7ef2 6f3f 016c 753f 8e9c 6f3f
00000060: a586 6a3f 2220 783f 7fe4 693f f546 763f
00000070: c8ca 6e3f cf60 703f 7e09 6d3f af2e 783f
00000080: cd92 6f3f 96f4 6e3f 792c 713f fb4a 6b3f
00000090: b7f7 743f d7d2 713f 659b 6e3f 959f 703f
000000a0: 5c0e 703f 5641 763f b860 6a3f 6d10 6b3f
000000b0: 3798 723f f94c 6d3f 8d55 703f 6696 6e3f
000000c0: c107 693f 9002 6d3f 8f26 6c3f b975 703f
000000d0: ca42 6f3f cc99 703f 0d8e 863f f397 6e3f
000000e0: b729 6f3f bdd2 743f a7ff 6f3f d4c6 6e3f
000000f0: 48f4 723f 15ee 773f 13fb 6d3f 80a4 703f
00000100: b4e2 7d3f 298f 713f b0cf 6e3f 97f6 713f
00000110: e236 673f 7f88 693f 7d84 6c3f bd10 7a3f
00000120: 0c13 703f 19f9 6c3f e898 6c3f 587f 713f
00000130: 86ef 713f db9e 733f a17e 6e3f 436c 6e3f
00000140: 69b6 723f 80e0 6e3f 96a4 673f 22b1 6b3f
00000150: 517b 6d3f 0666 6f3f e78b 6e3f 0427 6b3f
00000160: c610 6d3f bdff 843f 99c2 6d3f 811b 6c3f
00000170: 8fa9 6d3f cb24 703f 1b5b 683f 40db 713f
00000180: 4675 6f3f 4048 683f 5e01 6d3f 7923 6e3f
00000190: 8e15 6e3f 5c25 6d3f 0e2f 6d3f 2e0b 6f3f
000001a0: 34c5 733f a981 713f d724 703f 56da 753f
000001b0: df67 6d3f eed0 733f 8943 6b3f 7995 763f
000001c0: 65c9 713f 9b54 773f 5eda 693f 78b3 713f
000001d0: 4879 6b3f 3b56 6b3f 303f 693f b805 6c3f
000001e0: e852 6d3f 960d 6e3f a4be 6c3f d662 713f
000001f0: c9eb 723f c14c 6f3f 8b9b 6e3f 674a 6b3f
0.96193546 0.933837 0.9441974 0.9438318 0.9485972 0.93712646 0.91491234 0.9351595
0.9603455 0.9413078 0.9646258 0.939699 0.9118845 0.90197366 0.9206079 0.92363745
0.9087877 0.9486546 0.91788846 0.9317051 0.9524648 0.9372939 0.95867926 0.9359826
0.916117 0.9692403 0.9136428 0.9620202 0.9327817 0.9389772 0.9259261 0.96946234
0.93583375 0.9334196 0.94208485 0.91911286 0.9569048 0.9446234 0.93205863 0.939935
0.9377191 0.96193445 0.9155383 0.9182194 0.9476351 0.92695576 0.9388054 0.9319824
0.91027457 0.92582035 0.92246336 0.9392963 0.9346129 0.93984675 1.05121 0.93200606
0.93423027 0.9563406 0.9374947 0.9327214 0.94903994 0.9684766 0.92961234 0.9400101
0.99174047 0.9435907 0.93285656 0.9451689 0.9031812 0.912239 0.9238966 0.9768179
0.93779063 0.9256759 0.92420816 0.94334936 0.9450611 0.9516427 0.9316197 0.93133944
0.94809586 0.9331131 0.90485513 0.9206716 0.9276629 0.9351505 0.93182224 0.9185641
0.9260372 1.0390545 0.9287506 0.9222947 0.9283685 0.9380614 0.90764016 0.94475174
0.9353832 0.90735245 0.9258021 0.93022877 0.9300164 0.9263513 0.92649925 0.93376434
0.95222783 0.9433847 0.93806213 0.9603628 0.9273662 0.95240676 0.91899925 0.9632183
0.9444793 0.9661347 0.91348827 0.9441447 0.91981936 0.9192845 0.9111204 0.92196226
0.9270463 0.9298948 0.92478395 0.94291437 0.9489103 0.9347649 0.9320609 0.91910404

encoder.convs.0.norm.bias f4 [128]
00000000: d0de 223b 91f5 32bd a620 27bc 06ae e4bc
00000010: 6fce a3bc 7064 473d 5f72 e53b ef0f bbbb
00000020: 34be 0bbd cccd e83c 3675 1c3c 5088 67be
00000030: f6fa 643c e8e3 123d 4908 09bd e494 acbc
00000040: 2ceb 303d 1436 f03b d693 683d 2fb5 5dbc
00000050: 8d30 2dbe d522 563c e8d4 283d de3a dfbd
00000060: 6d0e 88bc 47f4 eb3d 2110 2e3d 22b3 4c3d
00000070: 7f15 073d fb71 78bc f4f9 54bd 8e07 d43b
00000080: d712 123d 870a b1bc 4936 b3bc a2d6 2b3d
00000090: 6e39 94bc ca62 d93c afae e1bc 2633 5f3c
000000a0: 49dc 2abd 0fc8 dcbc b4f8 19bd 740b f13c
000000b0: e115 f2bb d44e 463d 73a8 503b c069 9b3d
000000c0: 7d81 1c3d 450d 613d 2445 303d 62da 1fbe
000000d0: 954d 583a 61de 353c 5145 d03c 9ae4 ed3b
000000e0: 290b e1bc e486 2d3d 631c 5bbc 13cd 6a3c
000000f0: c04a d3bc b7e1 2a3c 897b b7bd 3f93 cebc
00000100: 9761 c5bc f614 d7bc a787 813d d1a6 1a3c
00000110: 2db3 2ebd 87de e2bc 0019 dabc 7e56 fabb
00000120: 24cc 463c 57fc da3b f8c1 653b ba60 0c3c
00000130: e124 08bd a2fc 513d 6f62 ebbc 37b7 5bbd
00000140: 1a94 1e3e db83 6b3d 1597 2fbd 837e 8d3c
00000150: 446d fe3c 17e3 01bd c982 67bb 754b 93bd
00000160: e1e3 18bd 1308 29b8 3567 1cbc 4563 82bd
00000170: ac52 f5bc dd84 323c ba8f a83c 7cec f83d
00000180: 412f 49bc 3d18 b8bc 7630 f23c c92a 3bbd
00000190: 5441 32bc 5c96 333d aa26 b1bc 7bbf 943d
000001a0: 14af a63c 2e13 053d f694 443c a4cd af3c
000001b0: efc1 80bc b81c d4bb 4b10 2dbd 7400 38bd
000001c0: 5470 0f3d ef36 843c 48c5 b6bc 9f64 c03c
000001d0: aee8 e1bc a521 893d aee5 433d f700 263b
000001e0: 74fb 2cbd a048 3abb 5bcd 283c a1b8 413d
000001f0: ce2e 37bc c4bc d2bb 5ca0 e63c 9e4e c3bd
0.0024852045 -0.04369122 -0.010200655 -0.027915012 -0.019995896 0.04867977 0.0070021595 -0.0057086865
-0.03411694 0.028418444 0.00954943 -0.22610593 0.013975849 0.03586188 -0.033455167 -0.02106709
0.043193027 0.0073306654 0.056781612 -0.013531967 -0.16913052 0.013069828 0.04121867 -0.108999
-0.016608441 0.115212016 0.04249585 0.04997552 0.032979485 -0.015163894 -0.051996186 0.006470627
0.0356625 -0.021611465 -0.021876471 0.041952737 -0.01809379 0.026536364 -0.027549116 0.013623035
-0.041713987 -0.026950864 -0.037590697 0.029424407 -0.007387862 0.04841502 0.0031838685 0.075885296
0.038209427 0.054944295 0.043034688 -0.1561065 0.0008251307 0.011100383 0.025423678 0.0072599174
-0.027471142 0.04236497 -0.013373467 0.01433112 -0.02579248 0.010429791 -0.08959109 -0.025216697
-0.024094386 -0.026255112 0.06324702 0.009439186 -0.042651344 -0.027694 -0.026623249 -0.007639705
0.012133632 0.0066829133 0.0035058241 0.008567983 -0.033238295 0.05126632 -0.02873346 -0.053641524
0.15486184 0.057498794 -0.042868692 0.01727224 0.031057961 -0.03171071 -0.0035325757 -0.07192127
-0.037326697 -4.030026e-05 -0.009546091 -0.063665904 -0.029946648 0.010895935 0.020576347 0.12154481
-0.012279333 -0.022472495 0.029564124 -0.0456951 -0.010879833 0.043844566 -0.021624882 0.072630845
0.020347156 0.032488994 0.011998406 0.021460362 -0.015717475 -0.00647315 -0.042251866 -0.044922307
0.035019234 0.016139476 -0.022310868 0.02348548 -0.02757677 0.0669587 0.04782646 0.0025330165
-0.042231992 -0.0028424636 0.010302867 0.047295216 -0.011180593 -0.006431194 0.028152637 -0.095364794

encoder.convs.0.norm.mean_scale f4 [128]
00000000: 25e2 583f f75f 7c3f 6f75 693f 8df5 563f
00000010: efd7 6e3f 2b4e 833f 333f 713f 7eea 7a3f
00000020: e115 633f f08a 783f d31a 653f c2e0 943f
00000030: 9edf 783f db8a 833f 2bd7 7c3f 4d77 6a3f
00000040: f3ee 833f a2a0 573f 9d8a 7c3f ee96 753f
00000050: ff32 8f3f cbf4 6c3f bd15 5b3f 7386 5b3f
00000060: 0106 793f 3d22 5a3f c882 6d3f caec 633f
00000070: 26ed 803f 11be 643f 77de 833f 9518 693f
00000080: 495b 713f 84d3 793f 8cef 723f e681 893f
00000090: ffc2 763f a54e 623f b1fa 6d3f b234 643f
000000a0: 4da4 813f 86df 593f 4868 7c3f 431a 713f
000000b0: ba19 533f f558 753f 99c3 6c3f 2125 5f3f
000000c0: db2a 813f 75a9 843f 1704 803f bb24 8e3f
000000d0: b7c5 6c3f dba4 703f 20c1 453f e25b 7b3f
000000e0: bf72 7d3f 8fef 783f 44a6 713f 33d7 6f3f
000000f0: 68e0 7c3f bbb5 5c3f 0aea 873f 1db3 763f
00000100: d983 6d3f 18aa 6f3f 30be 5b3f 7bb4 7c3f
00000110: 0757 7d3f 9272 743f d787 7e3f 0702 543f
00000120: ddd1 6b3f 95ba 673f 1c40 7a3f 608d 683f
00000130: c6d3 783f e88d 783f 5cfd 5f3f 30d7 723f
00000140: 5c2c 823f f6a9 743f c1e3 773f b27a 6a3f
00000150: 3537 783f 3554 7f3f 6a5f 6d3f ec99 763f
00000160: 7c62 7b3f f6bc 483f a011 6a3f d55f 7c3f
00000170: 32c9 793f 0b01 733f 59d1 6b3f 7166 843f
00000180: 2405 4e3f cf13 673f ccea 793f 0a8a 803f
00000190: 7e17 743f 526e 723f 9395 633f 6a4f 5c3f
000001a0: 49a5 733f 8d68 703f 7a32 7a3f 94ba 633f
000001b0: 4988 703f 9a2b 593f 8bf8 7a3f 8342 693f
000001c0: 49a0 7c3f eb60 713f c98e 763f fd3a 733f
000001d0: 123a 6f3f 5999 843f 2a5e 863f 91df 6e3f
000001e0: 44de 813f 4411 6c3f 5d56 7a3f 7cec 643f
000001f0: 6784 783f 9dc1 773f b808 633f 04db 7d3f
0.8472007 0.9858393 0.91194814 0.8396843 0.9329824 1.025823 0.9423706 0.98014057
0.8870526 0.97087 0.89494056 1.1631091 0.9721621 1.027675 0.9876582 0.9158829
1.0307297 0.8422948 0.9864901 0.95933425 1.1187438 0.92561024 0.85580045 0.8575203
0.97274786 0.85208493 0.9277768 0.89033186 1.0072372 0.8935252 1.0302266 0.91053134
0.94279915 0.9758837 0.9489677 1.0742767 0.9639129 0.8840125 0.9296065 0.89142907
1.0128266 0.85106695 0.9859662 0.941807 0.8246113 0.9583886 0.9248596 0.8716603
1.0091203 1.0364214 1.0001248 1.1104959 0.9248919 0.9400155 0.7724781 0.9818708
0.99003214 0.9724054 0.94394326 0.9368774 0.98779917 0.862148 1.0618298 0.96367055
0.9277931 0.9361892 0.8583708 0.9871289 0.9896092 0.9548732 0.99426025 0.82815593
0.921171 0.90519077 0.97754073 0.9084072 0.9719814 0.9709153 0.8749597 0.948596
1.0169787 0.9557184 0.968319 0.9159347 0.9695924 0.99737865 0.92723715 0.96328616
0.9819715 0.7841333 0.91433144 0.9858373 0.97572625 0.94923466 0.92116314 1.0343763
0.80476594 0.902646 0.97623897 1.0042126 0.95348346 0.94699585 0.8890011 0.86058676
0.9517408 0.9390953 0.9773327 0.8895657 0.93957955 0.84832156 0.98035496 0.91117114
0.98682076 0.9428851 0.9631162 0.95011884 0.93447983 1.0359298 1.0497487 0.93309885
1.0145955 0.92213845 0.9778803 0.89423347 0.9707703 0.96779805 0.8868518 0.99162316

encoder.convs.1.node_mlp.weight f4 [128, 256]
00000000: 62f5 d8bc 7c39 3c3c 08ec 52bc 321f 6c3d
00000010: 75de 6d3d ccc2 e5ba 6049 043a 631c 813d
00000020: f97f 8fbc 7486 e3bc 6343 79bd a8e9 2d3d
00000030: 0186 9abc af0c ba3c b7d1 1cbd 4786 dd3c
00000040: 352d 043d 185b 2f3d 066e ba3c 82d9 05bd
00000050: 9ea8 913c 8f5d e2bc 9338 d83a 4dfe 64bc
00000060: 7150 7d3b c24b 5e3d e722 d7bc 126b 133d
00000070: a716 ed3c 857c afbc be5e 2f3d 8172 1fbd
00000080: 59ab 41bd 460d bdbb f45d 8fbc c9d9 70bd
00000090: 0bcf d83c 5e82 143d 485d 0dbd ce08 0a3d
000000a0: dbe9 8c3c 3eed c43c 9d0f 6a3d 81b0 1cbc
000000b0: 0d65 1b3c 8d7c 79bd 4476 0dbd 2eed aebb
000000c0: e98a b43c 6134 1a3d fc8a de3b fe21 d9bb
000000d0: 9297 a2bb a652 f03b 370f 8a3d 6aae 243d
000000e0: 8bae 52bd 580e 2fbd 5f45 823c e509 943c
000000f0: 1a6e 10bd e461 113d 162c 683d 9d39 193d
00000100: 4a2f 793b 2c97 8b3d 96e9 773b a60b 9238
00000110: e375 fdbb 442f d63b 6413 8bba bfb2 41bd
00000120: a073 8d3c ec06 7cbd 0838 3dbc 314d 523d
00000130: 8828 143d 41d7 3ebd 66c9 83bc 00f6 89ba
00000140: c8ea 5b3d 3bc4 5b3d 8f32 32bd 1eeb 583c
00000150: 9b69 133c 4039 0fbd a0d2 7ebc 1a8f 3bbc
00000160: a9f3 213d 005a f8bb f3fd 133c b7c8 8a3b
00000170: 7fb3 59bd 41ca 29bc 155b 2d3c bdb9 023d
00000180: c6ad 603d 3a68 10bd 84e2 0fbd 8fb6 063d
00000190: 7bca f73c db6c 113c e558 823d 3449 0a3d
000001a0: bb97 69bd 92eb 433b e81c b8bc 4def e2ba
000001b0: 3c83 aa3b 6f9b 2abd 85b3 d2bc e6df 7a3d
000001c0: 6061 6e3c 1a71 58bd 98cd 6f3b 7f15 f5bb
000001d0: 9cbe c1bc e0ed 3abc fdd1 9cbb c81d 043c
000001e0: 11d0 32bd afe1 443d eacb 393d 839a 6d3d
000001f0: f878 03bd 2d78 ddbc 1ab1 babb 34b0 633c
00000200: cbde 5dbd 05f8 c4bd c4d1 3a3d 0e24 07bd
00000210: 5ca0 43bd 5cbd 9c3d d4fd 14bd 306a 8d3d
00000220: 253b ac3d e160 35be 5214 99bd 9bd9 873d
00000230: c61a 963d 749d 0abe 1f8d f13d 06a4 38bd
00000240: d389 a7bc 7a46 b23c 1baa b93d 47d9 fd3d
00000250: 866b 39be 4585 193c 1de6 33bd 5015 f53d
00000260: 643d 583d fc7f a6bd fcaa b73c d40b 1bbe
00000270: b218 883d a4eb d9bd a426 2bbd 5446 48bd
00000280: bf7c 8cbd c694 213c 355e ac3d e9bf ccbc
00000290: a212 d6bd 4b14 023e 5556 e1bc 2809 1f3d
000002a0: 96a4 1b3b 01d3 263b b511 debd 04f0 62bc
000002b0: 77c1 b4bb 24d2 553d eae0 0c3d 4a9a 99bd
000002c0: cc41 20bd 550f 1a3d f1a4 203d 86db a2bd
000002d0: f18c 5f3d edd2 8bbb dca5 ecbd 31ef 83bc
000002e0: b9af 21be b3ac 823c ca96 b8bd 495d c7bd
000002f0: 6254 0fbe 07f1 97bc 61c6 a23d 4de3 a03d
00000300: 9f64 2f3e 3d23 7e3d edba 473d e6d3 c8bc
00000310: 03e0 9f3d 1e47 67bd 517b 8e3d 9975 49bc
00000320: a74a 1cbc cb96 2d3d c2e9 d43c 6e83 e2b9
00000330: 992d 92bd 72cc d6bb 5671 de3d d763 0f3d
00000340: 41c3 dcbc 7dfb 11be ccdc 6fbd 9d51 a43c
00000350: 8f61 393e 3984 913d 0f9f c83d fe68 0c3e
00000360: dfe1 ed3b 50da 493c 5c5d 4bbd 13ba d1bd
00000370: b716 15bc 78a9 c4b9 fd61 abbc 97e4 03bd
00000380: cdf6 ae3d 9c9f 19bc d2f2 68bd df69 eebc
00000390: 005a 0fbd 19dc e8bc 2ea0 b73d 2908 b6bd
000003a0: 22ba 23bd 6b3e b43d 0a87 01be 11ed b93d
000003b0: 0199 4f3d 2e27 90bd 6293 423b af53 393c
000003c0: d296 83bd e59f acbd 86e5 22be 2056 813d
000003d0: d009 953a 9fc9 163d 93e7 d3bd 1840 2a3e
000003e0: 3f46 f8bd c365 f63d d803 f4bc 1540 5cbd
000003f0: 331d 433d 8a91 4ebe 961e a8bd bc88 8b3d
-0.026484195 0.011488315 -0.012873657 0.057646938 0.05807348 -0.0017529367 0.0005046334 0.063042425
-0.017517077 -0.027774073 -0.06085528 0.04245916 -0.018862726 0.022711126 -0.038285937 0.027041567
0.032269675 0.042811483 0.022757541 -0.032678135 0.017780598 -0.027632503 0.0016496353 -0.013976646
0.0038652683 0.054271467 -0.02626176 0.035990782 0.028941466 -0.02142168 0.042814963 -0.03892756
-0.04728255 -0.0057694046 -0.017500855 -0.058801446 0.026465913 0.03625714 -0.034512788 0.033699803
0.017201355 0.024038907 0.057143796 -0.009563566 0.009484542 -0.060909797 -0.034536615 -0.0053383326
0.022038894 0.03764761 0.0067914706 -0.0066263666 -0.0049619162 0.007334071 0.06741183 0.040205397
-0.05143599 -0.04273829 0.01590222 0.018071124 -0.03526125 0.035493746 0.05668267 0.03740846
0.0038022571 0.06815943 0.0037828437 6.963992e-05 -0.0077350005 0.006536396 -0.0010610637 -0.047289606
0.017267048 -0.06153004 -0.011549003 0.051343147 0.036171466 -0.046592 -0.016087245 -0.0010525584
0.0536907 0.053653937 -0.043505248 0.01323965 0.008997346 -0.034966707 -0.015553147 -0.011447692
0.039539013 -0.007579088 0.009032714 0.004235353 -0.053149696 -0.0103631625 0.010580798 0.031915415
0.054853223 -0.03525565 -0.03512813 0.032888945 0.030247917 0.008876051 0.063646115 0.03376122
-0.057029467 0.002989505 -0.022474721 -0.0017313749 0.0052036326 -0.04165214 -0.025720367 0.061248682
0.014549583 -0.052842237 0.003659105 -0.007479369 -0.02365046 -0.011409253 -0.0047857747 0.008063741
-0.04365546 0.04806679 0.045360483 0.058008682 -0.032097787 -0.027034843 -0.0056973817 0.013896991
-0.05416755 -0.096176185 0.045610204 -0.03299337 -0.047760352 0.07653305 -0.036374882 0.06905019
0.084097184 -0.17712738 -0.07474579 0.06633302 0.073293254 -0.13536626 0.11794495 -0.0450783
-0.020451462 0.021762121 0.09065648 0.12394958 -0.18107423 0.009370153 -0.043920625 0.11966956
0.05279292 -0.0812988 0.022420399 -0.15141231 0.06645335 -0.10640648 -0.041784897 -0.048895195
-0.06859731 0.0098621305 0.08416406 -0.024993854 -0.10452773 0.12703054 -0.027506987 0.03882709
0.0023749224 0.0025455358 -0.10843221 -0.0138511695 -0.005516227 0.05220236 0.034394182 -0.075001314
-0.03912525 0.037612278 0.0392198 -0.07952027 0.05457777 -0.0042670877 -0.11555073 -0.016105266
-0.15789689 0.01595149 -0.09013136 -0.097345896 -0.13997033 -0.018547548 0.07947994 0.07855854
0.17128228 0.062045325 0.04876225 -0.024515104 0.07806399 -0.056464307 0.069571145 -0.012296104
-0.009539283 0.042380136 0.02599037 -0.00043204002 -0.07137603 -0.0065551335 0.10861461 0.035007324
-0.026948573 -0.14256091 -0.058560178 0.020058447 0.18103622 0.071052976 0.09795963 0.13711926
0.007259592 0.012320116 -0.04964958 -0.10240569 -0.009099654 -0.00037510297 -0.020920748 -0.032200422
0.08543167 -0.009376433 -0.056872196 -0.029103218 -0.03499794 -0.028425263 0.08966099 -0.08888275
-0.039972432 0.08800968 -0.1264917 0.0907842 0.050683025 -0.07038723 0.0029689898 0.011311456
-0.06425251 -0.08428935 -0.15907869 0.06315255 0.0011370722 0.036813375 -0.10346904 0.16626012
-0.121227734 0.12031128 -0.02978699 -0.05377205 0.04763527 -0.20172706 -0.08208959 0.068131894

encoder.convs.1.node_mlp.bias f4 [128]
00000000: 7bc3 56bd 1925 933d 0a8a 4b3c c19c fb3c
00000010: 8dce 063d 2d6e 47bd 75ca 9b3b 21c5 74bd
00000020: 80bc 513d c21a 4f3d 498a 91bc bf88 56bd
00000030: 5c6d bd3d 24b3 c3bd aee5 013d 62b1 803d
00000040: cb62 9e3d e1f9 b6bc 0020 e4bc c9f3 33bd
00000050: 1c1e a3bd 5db3 5dbd 3f0d babd faea a23c
00000060: 5459 a8bd c2e2 823a 1251 bcbc 318f b33c
00000070: 85b9 9fbc 3955 ebbc 444c 29bd 0d47 2fbd
00000080: df09 f8bc 7c9f 13bd a74c 9d3d c560 1d3c
00000090: 93ec d3bc d230 2d3d 2c47 373d 65da 633d
000000a0: bdcf 883b d13c 663a 601a 9e3d bc40 fbbc
000000b0: 19e2 233c b871 793d a7dd 8d3c a8a5 e43c
000000c0: 496e a43c 3122 82bb 7723 b73d 7ab1 34bc
000000d0: aa0c edbb 7732 e9bc 3b03 933c 2941 ebbc
000000e0: 5e77 29bc 2b6b 303c 8cf4 803d 58f9 d43d
000000f0: 0761 bcbb 14d2 e63c d9e9 77bc dd7e b03c
00000100: 1232 52bd e101 82bd 82fd 82bd 80b8 83ba
00000110: 2175 b73c 0f38 5ebd d912 7bbd afe7 20bd
00000120: 17d8 083d 2861 d93c 6c4e 2b3d f06d 48bd
00000130: 4d67 6e3d b22a 91bd ed51 69bd c6fa bfbc
00000140: 40c4 5a3d 105c b33d 45f3 5f3c 2245 5c3c
00000150: 2ede 4cbd b613 89bc ab40 e5bb cdaf 2b3d
00000160: 5262 bcbd f7e4 89bc 848a b7bc fd47 ca3b
00000170: 3675 a3bd 2473 bb3c 95d7 0dbd 296f 1dbc
00000180: 8a82 dd3c 93fe e6bb d21c 053e 3828 a13c
00000190: ec2e 9c3a ff69 c33d d3e6 53bd ad51 843d
000001a0: 442a fcbc 6f57 39bc d73e 47bd 89de 8dbc
000001b0: 8467 8bbb 98b0 bbbc d9de 98bc 137a 04bd
000001c0: 9169 c7bb 31dc 06bd f24e 613d b334 ed3c
000001d0: 2a67 b03d 14ad 95bd 30cf 343d 212e 863d
000001e0: 15e5 87bd 137e f0bd 9dcd 46bc adc1 ea3c
000001f0: 8f90 f73c bcc4 adbd 812b c0bc 87b1 883d
-0.05243252 0.0718481 0.012423048 0.030714395 0.032911826 -0.048689056 0.0047543594 -0.05975831
0.05120516 0.050562628 -0.017766135 -0.052376505 0.09249374 -0.09555653 0.03171318 0.06283833
0.07733687 -0.022335948 -0.02784729 -0.043933664 -0.07964727 -0.054126132 -0.09084558 0.019887436
-0.08220163 0.0009985792 -0.022987876 0.021918865 -0.019497642 -0.02872716 -0.0413325 -0.04279237
-0.030278144 -0.036040768 0.07680636 0.009605591 -0.025869643 0.042282887 0.04474561 0.0556282
0.004175155 0.0008782866 0.077198744 -0.030670516 0.010002636 0.060899466 0.017317606 0.027911022
0.02007212 -0.003971361 0.08942311 -0.011028642 -0.0072341757 -0.028466446 0.017945876 -0.028717594
-0.010343401 0.010767738 0.062966436 0.10399121 -0.0057488712 0.028176345 -0.015131437 0.021544868
-0.051317282 -0.063480146 -0.06396009 -0.0010049492 0.022394719 -0.05425268 -0.06129727 -0.03928345
0.033409204 0.026535586 0.041822836 -0.04893297 0.058203984 -0.070882216 -0.056962896 -0.023435008
0.053409815 0.08757794 0.01366884 0.013444217 -0.050016575 -0.016733032 -0.0069962344 0.041915704
-0.091984406 -0.016832812 -0.022404917 0.0061731325 -0.079813406 0.022882052 -0.034629423 -0.009609022
0.027039785 -0.0070493906 0.12999275 0.019672498 0.0011915839 0.095417015 -0.051733803 0.06460891
-0.030781873 -0.01131235 -0.048643913 -0.017318027 -0.0042542834 -0.022911355 -0.01866095 -0.03234298
-0.0060855825 -0.032924835 0.05500693 0.028955793 0.08613427 -0.07308403 0.044142902 0.06551767
-0.06635491 -0.11742797 -0.012133983 0.028656805 0.030220298 -0.0848479 -0.023458244 0.06674486
