checkpoints/model_C_epoch_39.pth (torch, 552117 bytes, 26 tensors)

encoder.node_embedding.weight f4 [1, 128]
000000 c8 67 e8 3f 16 6a b7 3f 93 75 58 3f 66 26 00 c0
       1.8156672 1.432925 0.84554404 -2.0023437
000010 79 2b 1e 3f cd 49 96 bf 3e 58 3c bc c9 9e c3 bf
       0.61785084 -1.1741272 -0.011495648 -1.5282832
000020 e5 5e 37 bf 82 56 c8 3f 4e be b2 be 0f 22 ad bf
       -0.7162917 1.56514 -0.34910816 -1.3526019
000030 8a 69 2a bf 67 0a 07 bf 94 36 3a bf e4 53 35 3f
       -0.6656729 -0.5275025 -0.7273953 0.7083113
000040 8e 12 c9 3f 58 d4 0a be de 7d e7 be ee 26 c8 3e
       1.5708787 -0.13557565 -0.45213217 0.390922
000050 0f b0 34 bf 9f 18 83 3f 51 8b 3d 3f 3e d7 cd 3f
       -0.70581144 1.0241889 0.74040705 1.6081312
000060 a9 4a 9a 3f 6d 7c 9f 3f dd e2 11 3f fc a8 a0 3f
       1.2054034 1.2459847 0.5698679 1.255157
000070 1a 5d 44 be f7 80 fb 3c 38 cb 5c be 11 4d 4f 3f
       -0.1917614 0.030701144 -0.21561897 0.8097697
000080 08 f9 a7 bf 1d f0 4f bf 53 92 1d be 86 db cc 3f
       -1.3122873 -0.8122576 -0.1538785 1.6004493
000090 1a 9f 93 3e b9 2d c6 be e2 94 8f 3e d4 9a 32 bf
       0.28832322 -0.3870676 0.28043276 -0.697675
0000a0 d5 9c bc bf 7c 12 6f 3f 1e e4 55 bf 7f b8 09 bf
       -1.4735361 0.9338758 -0.83551204 -0.53797144
0000b0 de 84 99 bf 0b fc 00 40 7a f7 94 bf ed 09 e4 be
       -1.1993673 2.0153835 -1.1638024 -0.44538823
0000c0 1b 9f 5b bf 58 e9 1b bf 3c 9d 23 3d 7d d3 e7 3e
       -0.8578965 -0.6090293 0.039944872 0.4527854
0000d0 4a d3 e9 be a2 e4 8f 3f cb 13 40 bf 50 7b 2f bf
       -0.45669013 1.1241648 -0.750302 -0.68547535
0000e0 04 cb a9 bf ea 91 3d b8 c5 74 32 bd 7d 67 20 3f
       -1.326508 -4.5197005e-05 -0.04356839 0.6265791
0000f0 ee 44 6b bd 28 4c e2 3f 71 fe 90 bf 0f 1d a6 3f
       -0.057438783 1.7679491 -1.1327649 1.2977618
000100 2d ef af 3f 37 b3 4b 3f c3 b3 07 40 0d ae f2 3e
       1.3744866 0.79570335 2.1203468 0.47398415
000110 f3 e8 a3 3e ea af 28 be 16 19 80 bf d2 f9 9a 3f
       0.32013664 -0.16473356 -1.0007656 1.2107489
000120 47 49 04 be b0 df fb 3e 5d c1 98 3c 5d 06 c0 3e
       -0.12918578 0.49194098 0.01864689 0.37504855
000130 25 eb 02 3f 9a b1 1a bf 49 46 07 c0 0b 3d 30 bf
       0.5114005 -0.6042725 -2.1136649 -0.68843144
000140 e7 1c 14 ba 4b c0 97 be a4 3f a1 bf 99 29 0e bf
       -0.0005650059 -0.29638895 -1.2597547 -0.55532223
000150 61 7b 00 3f 74 ee fe 3e ec 07 88 3f dc 35 18 3c
       0.5018826 0.497913 1.0627418 0.009290185
000160 a3 82 39 3f 70 5c d7 be 9d a3 77 bf 73 5e 10 3f
       0.7246496 -0.42062712 -0.9673403 0.5639412
000170 d1 7b d0 bf 1a 11 47 bf 99 82 9f 3f 54 02 d7 3e
       -1.6287786 -0.7776047 1.246173 0.41993964
000180 87 36 19 c0 0c 42 e2 3e 52 82 41 3f 42 cd 5c 3a
       -2.393953 0.44191015 0.7558948 0.000842292
000190 b2 6d 16 3f ca 60 06 3f fa 6c 7d 3f cb e3 d0 be
       0.5876113 0.5249144 0.9899441 -0.40798792
0001a0 d0 4f 12 be 9c ad 33 3f 2e 65 b0 3e 41 e1 25 3e
       -0.14288259 0.7018678 0.34452194 0.16199209
0001b0 90 48 6a 3e 25 cf 95 3f 8c e3 db b9 52 d6 8f be
       0.22879243 1.170384 -0.0004194047 -0.280932
0001c0 d2 a8 af bf eb 8c 8d bd d6 3f 0d bf 55 d0 e0 3e
       -1.3723395 -0.069116436 -0.5517553 0.43908945
0001d0 9d c4 33 3f b2 d4 a1 3d c6 d2 b9 be 65 b5 fa 3e
       0.70221883 0.079018965 -0.3629362 0.48966518
0001e0 6b 5a 97 ba cf cc 5e 3e e5 a2 e0 3d 14 3c 39 3f
       -0.0011547332 0.21757816 0.1096857 0.72357297
0001f0 3e b0 85 3f cd 52 99 3e 77 73 2a 3f 47 75 c5 3e
       1.044441 0.29945984 0.66582435 0.38566038

encoder.convs.0.node_mlp.weight f4 [128, 256]
000000 08 46 50 3d 23 e6 3b bc b6 96 55 3d f4 f8 95 3c
       0.050848037 -0.011468443 0.052145682 0.018307187
000010 d7 14 4e bd ee 70 28 3d 44 ba 87 bc 2e 60 c0 bc
       -0.050312843 0.041123323 -0.01656831 -0.023483362
000020 ea 47 4e bd e3 ed 72 bd bd 32 89 3c 29 43 5e bc
       -0.05036155 -0.059308898 0.016747827 -0.013565817
000030 77 b2 bb 3c 22 bf 4b bd eb f9 34 3d ef 4e 32 bd
       0.022912247 -0.049742825 0.044183653 -0.04353231
000040 5f d5 22 bc f3 ca 40 3c 89 ef f8 3c 04 a3 48 3d
       -0.009938567 0.011767137 0.030387657 0.04898359
000050 ab 40 5e 3d 31 0a 41 bd 27 10 7f 3c e0 20 d0 bc
       0.05426089 -0.04712886 0.015567816 -0.025406301
000060 a2 d0 c8 bb fa 82 36 bd 47 76 62 3d ac cd 32 bd
       -0.0061283866 -0.044558503 0.05528858 -0.043653175
000070 b4 e2 00 3d 2e b5 b1 3c 95 d6 9b 3c 8d 50 03 bd
       0.0314662 0.021692839 0.01902322 -0.03205924
000080 bf cf 5d 3d 14 1a 50 3c 2c dd ec 3b 38 39 57 bd
       0.0541532 0.01270153 0.007228514 -0.052544802
000090 61 21 d3 3c 13 32 1c bc 3f dd dd bc 9a 53 51 3d
       0.025772752 -0.009533423 -0.027083037 0.05110512
0000a0 33 ea 53 3c 9e 10 06 bd a3 1d fd bc 8d 1a 5d bb
       0.012934255 -0.03273069 -0.030897921 -0.003373775
0000b0 3c 9c 07 3d ad 7d 74 bc 4f 62 0e bd c0 20 ad bc
       0.03310798 -0.014922542 -0.034761723 -0.02113378
0000c0 cd 15 3a bd b0 0f ab 3c ff 25 42 3d 2e ef 65 bd
       -0.045430947 0.020881504 0.047399517 -0.056136303
0000d0 8d b6 5b 3c a5 e5 00 3d cb ff 29 3c 4e 1d b3 bc
       0.013410223 0.031469006 0.010375927 -0.02186456
0000e0 2b 77 fd 3c 06 e8 12 3d a6 2b ae 3c 8b 5a 24 bc
       0.030940613 0.035865806 0.021261048 -0.010031353
0000f0 94 41 8c bc a5 c6 e1 3b 47 a5 35 bc a7 a5 8e bc
       -0.017121114 0.0068901354 -0.0110867685 -0.017412974
000100 1c 37 1f 3d 4a 7e 55 3d ac 00 b4 bb 6a 7d 52 bc
       0.038870916 0.05212239 -0.005493244 -0.012847284
000110 48 8c d2 3a ef 7f 8b bb 1f db 64 3c 83 dc 8d 3c
       0.0016063536 -0.004257194 0.013968258 0.017317062
000120 83 0b 63 bd 37 0f b1 bc 2f d0 53 3d d3 ea c3 3c
       -0.0554309 -0.0216137 0.05171221 0.023915684
000130 18 69 23 bb 4a 3c 16 bd 46 8d 18 bd b2 12 5e bd
       -0.0024934467 -0.03667859 -0.037244104 -0.054217048
000140 63 80 71 3b 32 51 a1 3c 53 1f 1b 3d 63 ce de 3c
       0.0036850206 0.019692037 0.03787167 0.027198022
000150 02 52 57 bd bb b1 11 bd 25 55 13 bc e2 0e 6b 3d
       -0.052568443 -0.035569888 -0.008992468 0.05738724
000160 71 72 16 3c bc 65 83 bc 90 d7 c7 3c e8 61 b7 bc
       0.009182558 -0.016039722 0.02439478 -0.022385553
000170 54 1a 21 bd c7 d3 31 3d 13 02 dc bc 62 9a 3c bc
       -0.03933175 0.043414857 -0.026856458 -0.011511417
000180 25 8f 76 bd 7d ed 26 3d db 5a 3c 3d 70 47 03 3d
       -0.060195107 0.04075383 0.045985084 0.03205055
000190 6d e1 29 bd 22 04 71 bd f8 51 46 bd 2c 1c 35 3d
       -0.04147475 -0.058841832 -0.048418015 0.04421632
0001a0 73 5e e8 3c 4a 1c 51 3d 13 0f 03 3d e4 24 81 3c
       0.02836535 0.05105237 0.031996798 0.015764661
0001b0 7d 82 cc 38 90 32 39 bd 67 52 7c bd 11 c9 68 bd
       9.751783e-05 -0.045214236 -0.061602022 -0.056832377
0001c0 bd bf c5 3c fd 37 f6 bc df 63 4d bc 4d a8 0b bd
       0.02413928 -0.030055994 -0.012536018 -0.03409605
0001d0 11 e0 2a bc 0c af 28 bd 85 21 23 bd 6d 2e a7 3c
       -0.010429398 -0.041182563 -0.03982689 0.02040788
0001e0 81 1c 88 bc c0 0d 1a 3d 48 9a 96 bc 25 62 32 bd
       -0.016615154 0.03761077 -0.018384114 -0.04355063
0001f0 80 a7 25 bc 16 51 e9 bc 2f 75 92 bc 8a e7 67 bd
       -0.010110736 -0.028481048 -0.017878143 -0.056617297
000200 5c f8 95 3d b3 1f 9b bd 57 e6 58 3d 12 10 bd 3d
       0.073227614 -0.075744055 0.052954044 0.09231581
000210 1c 23 20 bd 89 7c 3e bd 66 7e fc bb e4 8c a5 bd
       -0.039095983 -0.046505485 -0.0077054976 -0.080835134
000220 29 35 9d 3d fe 79 fb 3d c3 b8 57 3d e2 b0 27 3d
       0.07676155 0.122791275 0.052666437 0.040940173
000230 71 3f 74 bd 18 9b 18 bd 06 9d 60 3b da 60 74 bd
       -0.059630815 -0.037257284 0.003427328 -0.059662677
000240 ab bb 93 3d 6e 31 74 3d b4 20 89 3d 19 75 3d bd
       0.07213529 0.059617452 0.06695691 -0.04625425
000250 6e 46 00 bd 19 1d 26 bd 3a dc 98 3d 85 6c 99 bd
       -0.031317167 -0.040555093 0.0746388 -0.074914016
000260 ad ff 04 bc 84 76 aa bd 6b a6 98 bd 79 ed 02 bd
       -0.0081175985 -0.08323386 -0.07453617 -0.031964753
000270 7c 3f 63 3b 82 ea 86 3c 67 a6 40 bd d1 a8 25 3d
       0.003467529 0.016469244 -0.047033694 0.0404442
000280 dc 64 26 bb 28 52 a5 3b 2a 95 6d 3c 56 e9 9a bd
       -0.0025389707 0.005045194 0.0145008955 -0.075640365
000290 a4 68 e5 bd e4 45 1e 3c 21 1b 2f 3d 23 f3 7c bd
       -0.11201599 0.009660218 0.04275048 -0.06175531
0002a0 88 7c e4 bd de 30 f0 bc ad b3 4e 3d bf c7 14 3d
       -0.11156565 -0.029320177 0.05046432 0.036323305
0002b0 aa fc 70 3d 1b ca ac bc 48 3e 54 bc d4 c5 48 3d
       0.05883471 -0.021092465 -0.012954302 0.04901679
0002c0 53 b7 c9 bd f4 7b 3d bc ab e1 3b 3c 32 9a b6 3c
       -0.098494194 -0.011565197 0.011467378 0.022290323
0002d0 a4 f1 86 3d 1a 67 fe bc 70 02 9d 3d 90 bf d0 3c
       0.06589058 -0.031055022 0.076664805 0.02548197
0002e0 9d 56 2f bd a3 69 40 bc e1 72 8c 3d aa 28 63 3d
       -0.04280721 -0.011743936 0.06857849 0.055458702
0002f0 4d b3 3a 3d 37 72 b3 3d 24 76 29 bd c9 79 67 bd
       0.04558115 0.08762019 -0.041372433 -0.056512628
000300 b1 15 41 bd 2f 6c 91 bd 41 fb 71 3d 75 8f a2 3d
       -0.047139827 -0.071007125 0.059077505 0.079375185
000310 ce 6a f2 3c 84 7b ba bd 74 0f 0e 3b 2f 34 7b bd
       0.029591944 -0.0910559 0.0021676691 -0.061329063
000320 aa 84 80 bd a9 11 ce 3c 00 e8 c6 3d 79 7f 26 bc
       -0.06275304 0.025154905 0.09712219 -0.010162228
000330 c5 62 e8 bd f4 2b eb 3c 1a b8 79 3d 01 0a c2 bd
       -0.11346964 0.028707482 0.06096659 -0.09474564
000340 e3 aa 52 bd b5 05 26 bd 6d c3 80 bc ee e5 6b 3d
       -0.0514325 -0.040532786 -0.015718186 0.057592325
000350 04 39 90 3c be 21 b7 3b 98 5b 3d bd 23 bf ba bc
       0.017605312 0.005588739 -0.04622993 -0.02279622
000360 e5 90 e3 bd 38 16 80 bd 2b 27 ce bc 63 3c 5a bd
       -0.11111621 -0.06254238 -0.025165161 -0.053280246
000370 d3 d0 3a bd b8 b8 2f 3d 67 f8 24 3b b6 fa d3 3d
       -0.045609307 0.04290077 0.0025172473 0.10350554
000380 7c ea 80 3d 31 47 1d 3c f0 9c 05 be 50 24 0e bd
       0.06294724 0.009599493 -0.13048148 -0.0347026
000390 fa 59 fa 3c 35 e5 27 3b 00 a4 a4 bc 1d 7e 98 3d
       0.030560482 0.0025618796 -0.020097733 0.07445929
0003a0 3c dc e2 bd 10 4a a7 bd ee c9 a2 bd 12 0b 4a 3d
       -0.110771626 -0.08168423 -0.07948671 0.049326964
0003b0 96 5e 1c bc 8b ec f1 bc 4b 9f 4c bd 18 92 a0 bc
       -0.009544035 -0.029531738 -0.0499566 -0.019600913
0003c0 7e ad b8 bd 98 2d 8a bb 6a fa 62 3d e6 d9 03 3d
       -0.09017466 -0.004216861 0.055414595 0.032190226
0003d0 91 15 cd bd a2 bf 8c bd 9b 1c 05 bd 7b c1 1e 3c
       -0.10013879 -0.068724886 -0.032497983 0.009689684
0003e0 9d af 76 3d 90 ca ae bc 99 ba 82 3b c7 08 26 bd
       0.06022607 -0.021336824 0.0039895293 -0.040535714
0003f0 7e 38 a1 3b 92 23 b8 bc 29 02 43 3c 29 67 b0 3d
       0.0049200645 -0.022477899 0.0119023705 0.08613426

encoder.convs.0.node_mlp.bias f4 [128]
000000 72 8e 3f bd 3c 0b 80 3c 2e 58 e3 bb 2a 37 61 3d
       -0.046766706 0.015630357 -0.006938002 0.05498425
000010 2b 4a c8 3c 0a 3f 71 bc 31 d6 54 3c 0a 4b 1a bd
       0.024449429 -0.014724502 0.01299052 -0.03766922
000020 d4 d8 96 bb b3 74 8d 3b 77 1f 67 3d a6 59 47 3d
       -0.0046034846 0.00431689 0.05642649 0.04866948
000030 bf 26 2d bd 72 e0 83 3d 0e 5b 45 bd 9b dc 84 3c
       -0.04227328 0.06439294 -0.04818254 0.016218474
000040 e4 94 c0 3c 4c 2d bb 3c f9 da 14 3d cc f6 10 bc
       0.023508497 0.022848748 0.03634164 -0.008847903
000050 11 56 55 3d 82 94 1a 3c cc 3b ad 3b 36 d7 c6 bc
       0.052084032 0.009434821 0.0052866694 -0.024272542
000060 42 f4 1f bd 01 fe d9 bc 35 cc 19 bb 8a 72 cf 3a
       -0.0390513 -0.026610376 -0.0023467664 0.0015826982
000070 b6 33 a0 bc 0b 67 c8 3b 9c 16 32 3c ea be f8 bc
       -0.019555908 0.0061157993 0.010869648 -0.030364472
000080 01 45 84 3b 94 36 70 bd c9 3c 57 3b 53 4e 39 3d
       0.004036546 -0.0586458 0.0032842627 0.04524071
000090 a9 d3 f0 bc 08 5c 1e 3d 1c eb f2 bc 4a 4b b1 bc
       -0.029397802 0.038661987 -0.029653125 -0.021642346
0000a0 8b 83 df 3c 82 45 49 bd d5 32 03 3d e6 76 1a 3d
       0.027284404 -0.049138553 0.0320309 0.037711047
0000b0 42 d3 80 3c 4a 71 d0 bb 67 66 c4 bc 8b 97 23 bd
       0.015725736 -0.0063611614 -0.02397461 -0.039939445
0000c0 00 16 57 3d a4 6b c5 3c b1 53 0c 3d 91 5e 0a bd
       0.052511215 0.024099179 0.0342595 -0.03378159
0000d0 83 09 bf 3c 18 78 08 bd 62 c4 e0 3c e1 00 38 3d
       0.023319965 -0.033317655 0.027437393 0.044922713
0000e0 77 9c 6a bd 0b 3f 4b bd 23 cb 70 bd d1 1d 0f bd
       -0.057278123 -0.04962067 -0.058787476 -0.034940545
0000f0 d1 74 6b 3c eb 16 2d bd 65 ca 09 3d 7d a1 13 bd
       0.014371113 -0.042258184 0.033640284 -0.03604268
000100 4f 84 32 bc bb dc 70 bb 03 14 36 bd 27 c1 11 3c
       -0.010895803 -0.003675266 -0.04445268 0.008896149
000110 93 4a 52 bd aa 57 ad bd 49 55 2c 3c 05 ed 07 bd
       -0.05134065 -0.08463986 0.01051838 -0.033185024
000120 1c 6b cb 3c db e2 ff bc 4a b2 2f 3d ce 05 2f 3d
       0.024831347 -0.031236103 0.04289464 0.042730145
000130 44 9f bb bc f7 85 99 bb 79 f0 f0 3c 0a 62 99 bc
       -0.022903092 -0.0046851593 0.029411541 -0.018723506
000140 0d 8d 43 3c 2f 5f ea bb e0 bc ba bb 73 a0 1f bd
       0.011935485 -0.00715246 -0.005698785 -0.038971376
000150 fc e6 5b 3d 9d f4 6e bd 77 a7 85 bc 1e 51 3d 3d
       0.05368708 -0.05833875 -0.016315205 0.046219938
000160 21 ad 23 bd 77 18 6f bb 8a cb 71 3d f1 55 90 3c
       -0.03996003 -0.0036483088 0.059032 0.017619105
000170 74 f8 17 3d 70 0f 37 bd 3f 0c e1 3c 0e c7 b4 bb
       0.037102178 -0.044692457 0.02747166 -0.005516893
000180 e8 c6 63 ba c4 46 cc bc 09 48 15 bc 53 76 29 3d
       -0.0008689002 -0.024936087 -0.009111413 0.04137261
000190 dc 31 3e 3d 65 18 6a bd db d5 1b 3d e5 65 5f 3d
       0.04643427 -0.05715217 0.038045745 0.054540534
0001a0 79 4c c6 bb 14 e9 a5 3b ac db 97 3c 9a 97 77 bd
       -0.0060515967 0.0050631855 0.018537365 -0.060447313
0001b0 7d 2b 82 3c 74 f6 45 3d 3b 91 32 bc 14 d0 c4 bc
       0.015889877 0.04833074 -0.010898883 -0.024025
0001c0 00 26 fa bc 9c 58 ce 3c 2a 72 24 bc 8d 0c 22 bc
       -0.030535698 0.025188737 -0.010036984 -0.009890688
0001d0 eb 2c b8 3c 4c a1 00 3d f0 87 3a 3d 13 ef ca 3b
       0.022482356 0.031403825 0.045539796 0.0061930506
0001e0 ae de 90 bd c5 88 30 3d 23 6d 1e 3d 2e 66 5a 3c
       -0.07073723 0.043099184 0.0386783 0.013330026
0001f0 63 b0 d6 bc c2 23 cd bb 77 ce fc 3c 09 23 17 3d
       -0.026207155 -0.006260366 0.030860169 0.036898647

encoder.convs.0.edge_mlp.0.weight f4 [128, 7]
000000 ac cb dd be eb 40 20 3d 8d 74 ed 3d e7 81 b5 3d
       -0.43319452 0.03912441 0.11594496 0.088626675
000010 aa 3f 03 be ce ad 36 bd d1 8e ca be 2b f8 cf bd
       -0.12817255 -0.044599347 -0.39562085 -0.10154756
000020 0d 8f 93 bd 62 88 b7 3e b5 6f 04 3e 13 48 e1 3d
       -0.07205019 0.3584624 0.12933238 0.11000075
000030 54 c1 81 be e8 cc 21 be 07 d3 85 3d 45 f9 de bb
       -0.2534281 -0.15800822 0.06534391 -0.0068046176
000040 39 7c 08 3e 4c 6d dc 3d c6 50 92 3d 4a 04 82 be
       0.13328637 0.10763034 0.071443126 -0.25393897
000050 e4 38 d5 3e 66 17 e5 bd 12 9f 53 bd 58 d2 94 be
       0.41644967 -0.111861035 -0.051665373 -0.2906673
000060 93 ed b1 3e df 61 1e be 60 40 75 3e 68 f6 17 3e
       0.34751567 -0.15467022 0.23950338 0.1484009
000070 5f e8 bb bb c6 e6 38 3d e0 2c a8 be 18 e3 85 be
       -0.005734488 0.045141958 -0.32846737 -0.2614982
000080 62 ad a0 3e 50 c3 60 3e f7 78 97 be 9e 23 09 be
       0.3138228 0.21949506 -0.29584476 -0.13392493
000090 f9 3e 20 bf 36 34 b7 be f7 69 7c 3d 24 97 9e bd
       -0.6259609 -0.3578202 0.061624493 -0.077436715
0000a0 d4 fe ba 3e fd bf 86 3e 85 b1 61 be 1f 03 d4 3e
       0.36522543 0.2631835 -0.22040375 0.4140863
0000b0 3e 83 8b 3e 06 01 b9 3e 7b 7f 2d bd 69 db ba bc
       0.27248567 0.36133593 -0.042357903 -0.022809701
0000c0 86 3c 60 be 9f b2 80 be c2 d9 03 3f 50 e0 b8 3e
       -0.21898088 -0.25136277 0.5150415 0.36108637
0000d0 65 31 b4 be 3c 1f 2b 3e 11 43 27 be 68 b0 95 be
       -0.35193935 0.16711134 -0.16334178 -0.2923615
0000e0 c0 9c 95 3e 4b 8c 73 bd 64 bd 06 be cf 67 ad 3e
       0.29221153 -0.059459966 -0.13158184 0.33868262
0000f0 5e fa 4e be 7a 47 86 3e 1b 61 58 3e bb 2d 55 be
       -0.20212695 0.26226407 0.21130793 -0.20818226
000100 b2 01 d4 bd 79 d7 eb bd 07 4d da bd 3f e7 a2 3e
       -0.10351886 -0.115157075 -0.10659223 0.31817052
000110 64 2f c9 3e 64 0c 5a be ee a2 d2 3e 62 d2 58 be
       0.3929397 -0.21293789 0.4113993 -0.21174005
000120 fd 5f 46 3e 2b 46 7a be 0a 91 dd bc 78 2b 74 be
       0.19372554 -0.2444083 -0.0270467 -0.23844707
000130 f7 21 9a 3e 54 df 0d be 69 d2 2f bf 03 73 7a be
       0.30104038 -0.13854724 -0.68680435 -0.24457936
000140 01 67 6a 3e 66 71 14 3e 22 36 4c 3e eb 96 a2 3e
       0.22890855 0.14496383 0.19942525 0.31755766
000150 60 6a 07 be b9 4f 25 3e 75 c5 ac be de f0 b9 be
       -0.13224173 0.16143693 -0.33744398 -0.3631658
000160 1f 71 39 3e f8 e5 a8 be 59 fd f6 3d c7 05 0d 3e
       0.18109559 -0.32987952 0.12060041 0.13771735
000170 6e 73 00 3f 50 ca 9e 3e 57 da 03 3e 21 1e 4a 3c
       0.5017613 0.31013727 0.12876259 0.012336285
000180 4e 2d 75 be 61 c1 c4 bd 47 70 21 be 4e ee 55 3e
       -0.23943064 -0.096071966 -0.15765487 0.20891687
000190 3e 09 5a be 15 54 a1 bc 41 b7 55 bc 7c 79 72 3c
       -0.21292588 -0.019693414 -0.013044179 0.014799472
0001a0 a4 76 ab be ff 2a 85 3e cb 18 19 3e 1c 13 c6 3e
       -0.33488953 0.26009366 0.14950864 0.38686454
0001b0 33 57 50 be 1f d8 82 3d f2 52 17 3e 85 15 a8 3e
       -0.20345764 0.06388878 0.14777735 0.32828918
0001c0 8f 5e 99 be 39 bf 29 be 59 b9 a1 3c 39 f2 8f be
       -0.29954955 -0.16576852 0.019741701 -0.2811449
0001d0 ee b4 e3 be 21 ae c0 3d 80 c5 8c 3e 9f d1 cc be
       -0.44473976 0.094082125 0.2749443 -0.40003678
0001e0 91 21 48 bd 63 6f d1 be 44 18 5e 3c 71 0a 17 3e
       -0.048860136 -0.40905294 0.01355559 0.14750077
0001f0 c3 c5 a7 be 2e 93 1e 3e ca bd b7 bd 07 2c 8e be
       -0.32768068 0.15485832 -0.08971746 -0.27767965
000200 b1 05 a2 be 94 6a a9 bc f4 73 52 3e 4f 2f 27 be
       -0.31644967 -0.020680703 0.20552045 -0.1632664
000210 6d 9e b8 bd 2c 0e 8c be be a1 65 3c 3e c4 ba 3e
       -0.09014592 -0.27354562 0.014015613 0.36477846
000220 79 7b 6e 3e 91 f7 4d be 18 83 b4 3e f1 9c f1 3d
       0.23289289 -0.2011397 0.35256267 0.11797512
000230 34 a1 10 3e b5 3c ab be f8 3d 0b be ef fc a1 3e
       0.14123994 -0.33444753 -0.13597858 0.31638286
000240 a6 e3 64 3e 43 3c 6c 3e 6b 92 4f be 72 83 33 be
       0.22352466 0.23069863 -0.20270698 -0.17530611
000250 a9 e1 0a 3e b3 62 55 3e f9 2f 3b be eb 97 16 be
       0.13562645 0.20838432 -0.18280019 -0.1470639
000260 a2 21 b4 be 5a 64 b7 be a3 2a 2b be 8d 07 47 3e
       -0.3518191 -0.3581875 -0.16715483 0.19436474
000270 8b 33 4b be ea fb 14 3e 56 19 93 be 90 a9 b7 bc
       -0.19843881 0.14549223 -0.28730267 -0.02241972
000280 f3 d0 61 be 86 32 a1 be 84 dd 19 3e 26 2a b7 3d
       -0.22052364 -0.3148386 0.15025908 0.08943586
000290 f1 03 9a 3e e1 98 88 3d ca f1 d6 bb 39 f4 a2 3e
       0.30081132 0.06669784 -0.006559585 0.31826952
0002a0 79 c4 a8 be 52 c6 43 3e eb 66 7a 3c 39 27 f4 3c
       -0.32962397 0.19118622 0.015283327 0.02980386
0002b0 09 91 76 be 75 06 32 bc a1 e1 7f be ef ca 96 3e
       -0.24078764 -0.010865797 -0.24988414 0.294517
0002c0 f8 cd 05 be 03 9f 29 bd 26 37 b1 3e a1 e0 80 bc
       -0.13066852 -0.04141141 0.34612387 -0.015732111
0002d0 48 a1 a2 be 9c 05 b5 3d f5 d0 22 3e f1 85 94 bc
       -0.31763673 0.088389605 0.15900023 -0.018130274
0002e0 cd f1 b0 be b6 28 81 be 97 93 ee bd 02 bf a5 3c
       -0.3455948 -0.25226372 -0.11649244 0.020232681
0002f0 0c ad da be 4c bf 93 be 59 ae 00 be e5 05 c0 be
       -0.4271015 -0.28856885 -0.12566508 -0.37504497
000300 08 16 90 bc 71 f9 fa 3d 70 8a bb 3e 22 1e 85 bc
       -0.01758863 0.122546084 0.36629057 -0.01624972
000310 d5 95 9c 3c 70 e0 80 3e 9e 1d b1 3c c7 f0 bf 3e
       0.019114414 0.25171232 0.021620568 0.37488386
000320 5b 35 3c bd 4f 7a ca 3e 6d 8a 9b be 28 8a a3 3e
       -0.04594932 0.3954644 -0.30379048 0.31941342
000330 3c 6f 13 bd 98 d0 54 bd 9c 39 bb 3e cb 4f 76 3e
       -0.035994753 -0.051956743 0.3656739 0.24053876
000340 67 a4 b3 3d 40 d8 a4 bd 29 52 c8 3e 9c e3 c4 bd
       0.08771592 -0.08049059 0.39125183 -0.096137255
000350 c9 10 27 3e ea ff 11 3c 99 6f bb bd 19 83 e8 bd
       0.16314997 0.008911112 -0.09152145 -0.1135313
000360 b5 80 50 3e 54 44 f8 3d 12 91 2c 3e 71 97 89 3d
       0.20361598 0.121224076 0.16852215 0.06718338
000370 12 ca 12 be 3e 0d 2b bd 09 64 5f be 15 d7 86 3c
       -0.14334896 -0.041760676 -0.21815504 0.016459981
000380 ed 80 38 3e 9f 41 16 bf 61 64 97 3e 9a 57 28 be
       0.18017931 -0.5869388 0.2956877 -0.16439667
000390 16 ea a0 3e 93 aa a5 3e b1 90 1c 3e 36 2e d0 3e
       0.31428593 0.323567 0.1528957 0.40660256
0003a0 cd 42 72 be 4c e7 bb be 6e 96 64 3d 2f 8a 0d be
       -0.23658295 -0.36699903 0.055807523 -0.13822244
0003b0 e0 4a 42 be 02 af 6f bd 0a d8 84 be 6c bf 89 bd
       -0.18973875 -0.05851651 -0.25946075 -0.06725964
0003c0 95 eb 54 be 44 d6 eb 3d 74 8c 65 3d 2b eb 80 be
       -0.20792992 0.11515477 0.05604215 -0.2517942
0003d0 1e 96 10 be 90 c6 7a bc d3 8d e5 3e e7 3e bb 3e
       -0.14119765 -0.01530613 0.44834766 0.36571428
0003e0 10 b9 00 3e 69 9b a1 3c 4b 76 36 bc 07 b2 af 3e
       0.12570596 0.019727426 -0.011136602 0.34315512
0003f0 f1 52 9c be 9b 2f 21 be 38 d3 22 3e 3c 37 8a be
       -0.3053203 -0.15740816 0.15900886 -0.26995265

encoder.convs.0.edge_mlp.0.bias f4 [128]
000000 0e 0c e3 3d e5 2d 0f 3e 53 1a 7a be 15 d6 44 3d
       0.110862836 0.13982351 -0.24424104 0.048055727
000010 2b 0b eb 3a 75 c7 6e 3e 01 0b 93 bc fe 92 3e be
       0.0017932405 0.23318274 -0.017949583 -0.1861076
000020 ef 81 43 3e 6a 61 f2 bd e8 79 64 bd e9 3b 8f bd
       0.19092534 -0.118349865 -0.05578032 -0.06993849
000030 4f 05 23 3e 56 57 89 bd 4d 53 45 3e 73 49 3d be
       0.15919994 -0.06706111 0.19270058 -0.1848505
000040 c6 23 63 3c ba 48 a6 3e 32 ae 4b be eb 38 88 bd
       0.0138635095 0.3247736 -0.19890669 -0.06651481
000050 fa 82 8b bd 5e 76 e7 3d c5 e8 eb bd 37 e6 e1 3d
       -0.06812091 0.113018736 -0.11519007 0.11030238
000060 eb a5 b5 bd fc 43 d6 3c 3a f0 a8 3e 1e 80 a2 3e
       -0.08869537 0.026155464 0.32995778 0.3173837
000070 01 5b c6 bd e4 26 21 be 7a 81 65 be c4 44 8c bd
       -0.09685326 -0.15737492 -0.22412673 -0.068490535
000080 89 21 a2 bc af 98 09 3e 2e 9b ce bd 34 dc 38 3e
       -0.019791381 0.1343715 -0.10088192 0.18052751
000090 c7 b0 f1 3c f4 d8 83 3d dc 95 af 3e 50 6e 42 3d
       0.02950324 0.06437865 0.3429402 0.047468483
0000a0 34 4e 33 3c f8 29 f6 bd ed 43 86 3e 05 a7 94 be
       0.010943938 -0.12019724 0.26223698 -0.29033676
0000b0 f4 23 2d be ff 5f 8c 3d d6 e4 5b 3e f4 8e a9 be
       -0.16908246 0.06854247 0.21474013 -0.33116877
0000c0 30 43 13 bd d2 ca c5 3d 99 34 91 3e 53 10 2f 3e
       -0.035952747 0.096578255 0.2836044 0.17096071
0000d0 e2 77 92 3e 0d 20 a9 bd 79 26 a8 be b9 d5 93 3d
       0.28607088 -0.08258066 -0.32841852 0.07218499
0000e0 9f cc 8a 3e 3b 7b 5a 3d e7 07 0d 3e 12 11 a5 3e
       0.27109239 0.053340178 0.13772546 0.32239586
0000f0 d4 ff 98 be b7 43 94 3d 64 95 0b 3e 23 e9 55 3d
       -0.2988268 0.07239478 0.13631207 0.05222429
000100 0b 72 b7 bd 12 7e 13 be 42 a4 44 3e ec 13 70 3d
       -0.08957299 -0.14403561 0.19203284 0.05861275
000110 a2 fa 0f 3e 60 ec 11 3d e2 36 6e be 9e d0 1d 3e
       0.14060453 0.035625815 -0.23263124 0.15411612
000120 8e df 1b be cb b9 5e be 9c 92 f5 bd 23 c1 99 be
       -0.15221998 -0.21750562 -0.11990854 -0.30030164
000130 65 ec 85 be 8a 6d cc bb 5f 21 9c be e7 06 6a 3e
       -0.26156917 -0.006238644 -0.3049421 0.22854196
000140 f0 b4 89 be 01 44 03 3e 5b 19 1d 3e 2d 87 ce bd
       -0.26895857 0.1281891 0.15341704 -0.100843765
000150 be ae 5f 3d 1e 79 a3 3e ce 9f aa be d6 d9 d7 b6
       0.054610007 0.31928343 -0.33325046 -6.4328588e-06
000160 56 53 85 3e 17 59 b1 3e d1 63 fd 3d ef b8 b3 3e
       0.26040143 0.34638283 0.12372554 0.3510203
000170 18 37 16 be 5e 7c a9 3e bb 8d 07 3e 22 d4 6a be
       -0.14669454 0.33102697 0.1323766 -0.22932485
000180 fd e2 53 3e 37 ca 8b 3e 44 51 6c be 00 94 49 3e
       0.20692058 0.27302715 -0.23077875 0.19685364
000190 18 eb e9 3d 2e 99 89 3e 67 42 ab be 4f 63 27 3e
       0.11421794 0.2687468 -0.33449098 0.16346477
0001a0 3d fe a7 3e a4 d1 cb bd 37 0b 0c 3e a5 89 9a be
       0.32811156 -0.09952095 0.13676153 -0.3018314
0001b0 c5 22 59 3d 13 40 6b be cf ed 96 be a0 bf 3e 3e
       0.053011674 -0.22973661 -0.2947831 0.18627787
0001c0 ef c2 47 3e 91 e2 3e 3e 3a c6 88 3e 8f 71 9f bd
       0.19507955 0.18641116 0.26713735 -0.077853315
0001d0 1d 8c 82 be 46 7e 60 3e 04 31 88 3e cd dd 80 be
       -0.25497523 0.2192317 0.26599896 -0.2516922
0001e0 97 dd 79 be 3b d0 51 be a6 6a 50 be a5 65 6c 3e
       -0.24400936 -0.2048959 -0.20353183 0.2308565
0001f0 ee e6 98 be 17 0c cc 3d 4c 52 7e 3d 1a cd 6c be
       -0.29863685 0.099632435 0.062090203 -0.23125115

encoder.convs.0.edge_mlp.2.weight f4 [128, 128]
000000 56 04 a0 bd 3e e0 26 3d e3 0d fa bd 90 0c e6 bc
       -0.07813327 0.040741198 -0.1220968 -0.028082162
000010 25 e2 23 3d d0 ff 7d bd cc 8d c8 bc df a1 0d bd
       0.04001059 -0.06201154 -0.024481677 -0.0345782
000020 76 5f cd bc 5d f6 c0 bc 81 fd 63 bd 27 06 cb 3d
       -0.025069933 -0.023554975 -0.055661682 0.09913283
000030 76 b7 46 bd 43 41 de 3c 78 84 53 3b 3e 3a cd bd
       -0.048514806 0.027130729 0.0032275002 -0.100208744
000040 ef 79 d6 bb 37 6a 76 bd 9f e7 4e bd 0d 90 f5 bb
       -0.0065452973 -0.060159888 -0.05051386 -0.007493979
000050 d2 77 a7 3d 55 a3 02 3d b7 2e 57 bd a0 07 50 bd
       0.08177151 0.031894047 -0.052534785 -0.05078852
000060 f6 97 81 3d 7d 0b c8 3d 7c 16 48 bd 96 72 47 3d
       0.063278124 0.09767816 -0.048849568 0.048693262
000070 c9 42 80 bd 1e d6 d0 3c f3 0d d3 3d 48 65 a7 bd
       -0.06262738 0.025492724 0.10305395 -0.08173615
000080 c3 18 f8 3a e4 ab 26 3d a1 3b 99 3d 36 3c 6f bd
       0.0018928278 0.04069127 0.074820764 -0.05840703
000090 65 5e a0 bd c5 a1 d2 3a d9 dc a7 3d 12 45 c7 3d
       -0.07830504 0.001606994 0.0819642 0.09729971
0000a0 8f e1 83 bc 3e e6 fe bd e3 b5 6f 3d f1 0d fe bc
       -0.016098766 -0.12446259 0.05852307 -0.031012507
0000b0 06 bf dd 38 fc 63 9b bc 18 f9 82 bd 51 f9 0f bd
       0.00010573682 -0.018968575 -0.06395167 -0.035149876
0000c0 17 95 d6 3c 01 7f ae 3d 67 26 8e bd b1 3a 7b 3d
       0.026194138 0.08520318 -0.069409184 0.06133527
0000d0 9f 10 85 3c 73 1d 0e be a0 09 64 bc c5 4a 0c bd
       0.016243277 -0.13878421 -0.01391831 -0.034250993
0000e0 4c 9d ff bc c6 b9 df 3d ea 61 c4 3c e2 99 4d 3c
       -0.031202935 0.10924105 0.02397247 0.012548896
0000f0 52 cf 58 3d 6c 72 ca b9 aa 84 16 3d 1e 2a 9f bd
       0.05293209 -0.00038613693 0.036747612 -0.07771705
000100 67 5e b8 bd 95 43 35 3c d9 4e 17 3d d4 4b 34 bc
       -0.09002381 0.011063476 0.03694043 -0.011004407
000110 22 e7 a5 bc e5 ac 27 3d ef 44 9f bd 77 b3 8e bd
       -0.020251814 0.04093637 -0.0777682 -0.06967824
000120 0a fa 86 3d 3f d2 e5 bd 4a 68 a8 3c 3a 78 c2 3d
       0.0659066 -0.11221742 0.020557541 0.09495588
000130 dc d1 a6 bd 1f 07 06 be 18 ba 5f bd 23 ba 0c 3d
       -0.08145496 -0.13088654 -0.054620832 0.0343572
000140 1f aa 6b 3d 8d 70 46 3d 23 a5 57 3d d2 1c 4c 3e
       0.057535287 0.04844718 0.05264772 0.19932869
000150 77 10 45 3d fa 5e 2b bd e1 ee 78 bd ae d2 06 3d
       0.048111405 -0.041838624 -0.060774688 0.032915764
000160 ee 63 b3 bb 83 2e d1 bd cf c3 20 3d 8d c1 ac bd
       -0.005474559 -0.102139495 0.039249238 -0.084353544
000170 9a 00 eb 3d 94 01 b4 3d 2c d5 0e 3e 94 9a 0c bd
       0.11474724 0.087893635 0.13948506 -0.034327105
000180 5a da d9 3c 73 76 53 3c 7d 78 a1 ba 89 5b 92 bd
       0.026593376 0.012906658 -0.0012319234 -0.07146365
000190 c1 88 fb 3d 9b a5 9f bd 6c c0 94 3c 4e ca 37 bd
       0.12281943 -0.077952586 0.01815816 -0.044870667
0001a0 6d 4d 2d 3c a2 a2 f4 bd 7b 6a 0a 3d 20 96 25 bd
       0.010577542 -0.11945082 0.033792954 -0.040426373
0001b0 22 fe 63 bd 69 d8 d5 3d 3c e4 52 3d 73 47 c9 3d
       -0.05566228 0.104416676 0.051487193 0.09828081
0001c0 d4 77 3a bd 72 e4 90 3d f2 c0 98 3c 0a 8f ab 3d
       -0.045524433 0.070748225 0.018646691 0.08376892
0001d0 fb 57 1d bd a7 39 27 bb a9 25 a2 3b 1a 73 86 bd
       -0.038413983 -0.0025516541 0.004948337 -0.06564923
0001e0 aa fd 0b 3d dc cc 62 be de 6b 1d 3d 78 c4 c0 3d
       0.03417746 -0.2214846 0.03843295 0.094124734
0001f0 f3 5f 67 bc ff be c8 bc 1c 48 4c 3d a0 7b ff bc
       -0.014121997 -0.024505137 0.049873456 -0.031186879
000200 8d c9 19 bd 17 2d 32 3a 0b a0 16 3e 92 87 b2 bd
       -0.03754573 0.000679688 0.14709489 -0.08717264
000210 3d fb 3d 3d 43 e6 fc bb 07 a4 86 3d d3 99 f6 3c
       0.046382178 -0.007717879 0.065742545 0.030102646
000220 be df 15 bd 81 d8 fa bd a7 c4 e8 3d b7 82 dd bd
       -0.03659033 -0.12248326 0.113656335 -0.108159475
000230 69 63 29 bd 11 f1 a0 bc 7b 3f 8e bd 7c 90 50 3e
       -0.04135457 -0.0196462 -0.06945702 0.20367616
000240 b4 59 d3 bd 05 d8 c1 bd 0a c4 7a bd 9a 21 ea 3d
       -0.10319844 -0.094650306 -0.061222114 0.1143219
000250 79 91 9f bc 59 ed 1c bc e3 4c 87 bd a9 4f ef bc
       -0.019478546 -0.0095780725 -0.06606462 -0.02921279
000260 16 43 67 3d ee 66 ae 3d fd f3 71 39 0c 0e 04 be
       0.056460463 0.08515726 0.00023074444 -0.12895983
000270 ec 10 1a 3d db ab 80 bd bd 68 90 3d 2b 9d 0e 3e
       0.037613794 -0.06282779 0.07051227 0.13927142
000280 cb 44 46 3d 47 ca 8a 3a 22 05 0e 3d 3d d5 58 3d
       0.04840545 0.0010588848 0.034672864 0.052937735
000290 77 b5 5e 3d 8e d0 e5 3d 85 a1 34 bc 22 bb 96 3d
       0.054372277 0.11221419 -0.011024837 0.073599115
0002a0 24 18 72 bd 11 9a 8d 3c 3c 05 dc bd 35 80 da 3c
       -0.059105054 0.017285379 -0.10743186 0.026672462
0002b0 c6 07 46 3d 6f f6 38 bd 7f 45 0a 3c d5 ba 1c 3d
       0.048347257 -0.045156892 0.008439421 0.038264114
0002c0 ef d7 3d bd 75 f5 6e bd 2b 7c 9d 3d 2b 8a 9b bd
       -0.04634851 -0.058339555 0.07689699 -0.07594713
0002d0 f4 a2 c0 3c ce 85 b3 3d 72 e3 94 3d c5 06 58 bd
       0.023515202 0.087657556 0.07269944 -0.05274083
0002e0 81 e0 b8 bd d1 44 b2 bd c7 96 fe bc e3 20 a8 bd
       -0.09027196 -0.08704532 -0.031077756 -0.08209398
0002f0 f3 3b 82 bd 04 49 07 3c 81 77 46 3c c0 bb 6c 3d
       -0.06359091 0.008257154 0.012113453 0.05779624
000300 b3 f3 ba 3c b8 88 fd 3c b3 1c 61 bd 14 79 2b bd
       0.022821283 0.030948982 -0.05495901 -0.041863516
000310 e7 f1 bc 3c 6b af 78 bd 94 81 35 3e ac 11 93 3d
       0.023064567 -0.060714167 0.17725211 0.07181105
000320 5c e4 7c 3d 7b 07 ca 3d 45 e8 8e 3c e2 ca 1a 3b
       0.061741218 0.09864708 0.01744474 0.0023619463
000330 a1 4a 6f 3d 0c da 54 3b b1 5c 8d bc da 22 e5 3c
       0.05842078 0.00324786 -0.017256113 0.02797072
000340 ab 05 b7 3d f5 60 dd bc be e6 ab 3d e2 22 df bd
       0.08936628 -0.027023772 0.0839362 -0.10895325
000350 45 d5 86 bd d5 98 79 3d b3 40 41 bd bd cc 93 3d
       -0.06583647 0.060936768 -0.047180843 0.07216785
000360 a3 c2 e4 3c c2 b1 52 3d 1a 4f bc bd d9 aa ed bd
       0.027924841 0.051439054 -0.09194775 -0.11604852
000370 01 ca a2 3d 4e 0d 5a bb ef 90 e1 3d 95 5b ba 3d
       0.079486854 -0.003327209 0.11013972 0.09099499
000380 a7 4b 48 bd 2b da af bd 3b 38 4b 3d e9 7c a9 bd
       -0.048900273 -0.08586534 0.049614172 -0.08275778
000390 8e 7a 7e bd 5a 18 2e 3d cd cf 1c 3d 3c d0 81 3c
       -0.062128596 0.042503692 0.03828411 0.015846364
0003a0 f0 11 1e bd cb fe b6 bc 56 19 20 bd 1a 46 d6 3c
       -0.038591325 -0.022338292 -0.039086662 0.026156474
0003b0 f6 57 47 3d 0e cb 32 3e 98 e5 84 3d 93 26 a5 bc
       0.04866787 0.17460272 0.06489104 -0.020159995
0003c0 48 9e d4 bc 09 23 9d bd 43 70 aa bd 58 ff b1 3c
       -0.02595438 -0.07672698 -0.083221935 0.021728203
0003d0 1c 4c cf 3c 8d 00 bf 3d 8b b0 bf 3d 3d 18 e1 3c
       0.025304846 0.09326277 0.09359845 0.027477378
0003e0 50 6c 26 bd 1c eb 0d 3e e7 70 a2 3d 72 e9 88 3d
       -0.04063064 0.13859218 0.07931691 0.06685151
0003f0 78 5c 8a 3b 43 c8 4d bd 87 c5 d6 3c b7 c0 cf 3c
       0.004222449 -0.050239813 0.026217235 0.025360448

encoder.convs.0.edge_mlp.2.bias f4 [128]
000000 e7 b6 8a 3c 72 55 a9 bd ec 3c ac bb ad 44 02 3d
       0.016932918 -0.082682505 -0.005256286 0.031803776
000010 04 3e f2 bc 01 27 ab 3c 4d a9 b8 bc bf f2 cb bd
       -0.029570587 0.020892622 -0.022541666 -0.099584095
000020 9b 56 9a bd e1 61 db 3b 48 ad 89 bd ee 6b 8a 3d
       -0.0753605 0.0066950177 -0.06722504 0.06758867
000030 ad 7f 24 3d a2 fd ac 3d 7d d9 98 bc 7b d7 64 3d
       0.040160824 0.08446814 -0.018658394 0.05586956
000040 ac 75 92 bd 46 0b d0 3c 92 4d 1b 3d 2b 6f bb 3c
       -0.071513504 0.025396 0.037915774 0.022880157
000050 84 d5 2b bd 02 68 26 bd c3 dd c8 bc 95 1e 62 3d
       -0.04195167 -0.040626533 -0.024519807 0.055204947
000060 32 32 f6 3c 96 f1 14 bd d1 65 1a bd 33 0c 53 3a
       0.030053232 -0.036363207 -0.037694756 0.0008050829
000070 30 b2 02 3d 6b 9b 90 3d 39 9a 65 3d af fc 97 3d
       0.031908214 0.070608936 0.05605528 0.074212424
000080 9b 0e 2e bd f8 bf aa 3c 83 b2 6a 3d e5 c6 71 3d
       -0.042494398 0.020843491 0.05729915 0.05902757
000090 fb bc 69 3b e1 4f 90 3d 12 a1 44 bd 0d d0 ac bd
       0.003566562 0.07046486 -0.04800517 -0.0843812
0000a0 ee 8a 25 3c d8 4f 0f 3d 26 4c 27 3d 50 0e 84 bd
       0.010103924 0.034988254 0.040844105 -0.064480424
0000b0 39 a3 a3 3d 60 f5 9d bd 8b a1 57 3d 67 0a dd bc
       0.079901166 -0.07712817 0.052644294 -0.0269825
0000c0 d6 a6 af 3d a0 2b 46 3d 33 7b 4e 3d ee ee 10 ba
       0.08576743 0.048381448 0.05041046 -0.00055287674
0000d0 f8 ba a0 bd 43 a8 83 bd 38 a6 95 bd ef ed e5 bc
       -0.078481615 -0.06428578 -0.07307094 -0.028067557
0000e0 93 2c 0a bd d4 cb 7f 3c 22 d7 80 bd 97 c4 a2 bd
       -0.033733916 0.015612561 -0.06291033 -0.07947653
0000f0 3e d3 4d bc f6 b0 41 bc 94 3d ba bc 42 17 ac bd
       -0.012562571 -0.011821976 -0.02273444 -0.084028736
000100 6c 93 a3 bd 4a 24 b2 bd ea ee 37 bd 27 62 ff bb
       -0.07987103 -0.08698328 -0.04490558 -0.007793683
000110 81 ed 7a bd 4a 65 a3 bd 9a 8b 92 bc ef 48 a5 3d
       -0.061261658 -0.07978304 -0.017888833 0.080705516
000120 40 c2 43 3d b7 4e 1b bc ba 34 37 bd 06 83 b7 3c
       0.047792673 -0.009479216 -0.04472802 0.022401344
000130 df 42 a1 bd da 68 6f bd 60 60 2e 3c f3 12 68 3c
       -0.07874083 -0.058449604 0.010643095 0.014164674
000140 d7 bf 40 bd 08 28 e8 bb d4 9a 23 ba 08 f4 73 bc
       -0.047057953 -0.00708485 -0.0006241028 -0.014889725
000150 9f b1 d6 3c 64 ae 01 3d 89 e8 3f bd fc 91 c1 ba
       0.026207743 0.031660452 -0.046852622 -0.0014768238
000160 ba f2 83 bd 1a f7 3c bd b6 3b c2 bd 98 67 8a bd
       -0.06442781 -0.046134092 -0.09484045 -0.0675804
000170 80 73 8b bd 74 ca 2e 3c a2 14 61 bb 3c 73 0c 3c
       -0.06809139 0.010668386 -0.0034344574 0.008572396
000180 17 81 8e 3d c3 59 b2 3c 92 f0 f5 bb 85 d2 fc 3c
       0.06958216 0.021771317 -0.007505485 0.030862102
000190 f3 5a 64 bd 9d b4 0d 3c bf ea de 3c 39 4b a2 3d
       -0.0557508 0.008649019 0.027211545 0.07924504
0001a0 0c f7 84 3d 66 2b 9e bd dc 57 10 39 94 e4 9a 3d
       0.06492433 -0.07723121 0.0001376564 0.07563129
0001b0 d7 ad 35 3c 8e 4a 93 bd c8 39 34 3d 2c db 8a bd
       0.01108881 -0.071919546 0.044000417 -0.06780085
0001c0 b6 32 81 bd 0a 3a 56 bd 0b 5a 9b 3d 75 0a 79 3d
       -0.063085005 -0.052301444 0.07585534 0.06080099
0001d0 a1 65 aa bc 3f 75 c8 3c d1 81 f0 3c e6 fd ae bd
       -0.020800414 0.02446997 0.029358776 -0.08544521
0001e0 8e 2a 5b bd 78 52 1e bd b8 c1 e6 bb 49 e9 8d bc
       -0.05350738 -0.038652867 -0.007042136 -0.017323153
0001f0 b9 80 31 3d 46 77 49 bd ff 7b 2e bd cc 47 17 3c
       0.04333565 -0.049186014 -0.04259872 0.009233426

encoder.convs.0.norm.weight f4 [128]
000000 a8 26 70 3f 4b f2 70 3f f6 e9 73 3f 48 d1 74 3f
       0.93808985 0.9411971 0.9527887 0.9563184
000010 d9 8b 6e 3f d8 0c 72 3f d9 7a 75 3f b5 13 71 3f
       0.9318214 0.9455085 0.95890576 0.94170696
000020 24 f6 6c 3f 1e d2 72 3f 1a 80 75 3f ce d0 71 3f
       0.9256308 0.94851863 0.9589859 0.94459236
000030 c6 22 6f 3f 9d d3 70 3f 5b 84 6e 3f 7c 79 6e 3f
       0.93412435 0.94072896 0.9317071 0.9315412
000040 fb eb 6a 3f 9a 77 6f 3f fc 77 6f 3f 23 4b 6d 3f
       0.9176633 0.9354187 0.93542457 0.92692775
000050 9f 61 75 3f 03 26 79 3f d0 15 71 3f c2 af 79 3f
       0.9585208 0.97323626 0.9417391 0.9753381
000060 f7 20 6c 3f 81 08 6f 3f bc 80 6e 3f d7 bc 70 3f
       0.922378 0.9337235 0.93165183 0.94038147
000070 2b 3f 6d 3f 8e 31 70 3f 66 86 6f 3f 99 25 80 3f
       0.9267451 0.93825614 0.9356445 1.0011474
000080 ea d1 6e 3f b7 d1 71 3f e8 2a 78 3f 35 32 6f 3f
       0.93289053 0.94460624 0.9694047 0.93435985
000090 9c 41 71 3f 03 ea 74 3f 3e f6 6d 3f 19 33 73 3f
       0.94240737 0.95669574 0.9295386 0.94999844
0000a0 be 91 70 3f d2 66 71 3f 77 e6 70 3f 06 30 78 3f
       0.93972385 0.94297516 0.9410166 0.9694828
0000b0 dd 4d 70 3f b1 c3 6e 3f f7 03 6e 3f 86 48 6c 3f
       0.9386881 0.9326735 0.929748 0.9229816
0000c0 4d cd 77 3f d1 d9 70 3f 1f 24 6c 3f d7 ec 6e 3f
       0.9679764 0.9408236 0.92242616 0.9333014
0000d0 af 46 6c 3f 57 ea 73 3f 42 a4 6b 3f a4 cd 6e 3f
       0.92295355 0.9527945 0.9204751 0.9328253
0000e0 eb 1b 70 3f 3b cd 6f 3f 27 21 70 3f 83 ce 6b 3f
       0.937926 0.9367253 0.93800586 0.92111987
0000f0 51 bb 72 3f c5 15 6d 3f da 96 71 3f d8 d4 6d 3f
       0.9481707 0.9261134 0.94370806 0.929029
000100 1c 9c 71 3f a5 26 74 3f 76 a7 69 3f 0f 10 6f 3f
       0.9437883 0.95371467 0.9127115 0.9338388
000110 55 26 75 3f 23 7f 6e 3f 93 27 76 3f 53 90 6f 3f
       0.95761615 0.93162745 0.96154135 0.93579596
000120 a5 ee 6e 3f e2 d4 74 3f 42 f9 6a 3f 67 79 6e 3f
       0.9333289 0.95637333 0.9178659 0.93153995
000130 6f 03 73 3f a3 32 74 3f ed 4e 71 3f ed ed 72 3f
       0.94927114 0.95389766 0.94261056 0.94894296
000140 3b 88 79 3f 94 40 6c 3f f3 f8 70 3f b8 d6 6b 3f
       0.97473496 0.9228604 0.94129866 0.9212451
000150 71 5d 73 3f 2b 77 6f 3f 7f 5f 71 3f 64 ff 6a 3f
       0.95064455 0.9354121 0.9428634 0.91795945
000160 99 6d 80 3f d6 b4 71 3f 68 61 75 3f 95 56 7d 3f
       1.0033447 0.9441656 0.95851755 0.9896024
000170 0a 6a 73 3f 01 f9 6e 3f 77 98 6f 3f ef dc 70 3f
       0.9508368 0.933487 0.9359202 0.9408712
000180 3b 2d 6d 3f 22 79 71 3f d2 19 81 3f c3 53 6d 3f
       0.9264714 0.9432546 1.0086005 0.92705935
000190 42 80 6d 3f 6b 1d 6a 3f 9c c9 72 3f aa 81 74 3f
       0.9277383 0.9145114 0.9483888 0.9551035
0001a0 30 6d 71 3f d3 29 6e 3f 8c db 73 3f 52 b1 6b 3f
       0.9430723 0.9303257 0.95256877 0.92067444
0001b0 58 c6 6e 3f c9 c9 6d 3f c6 36 73 3f 39 50 6d 3f
       0.932714 0.92886025 0.9500545 0.92700535
0001c0 66 c9 70 3f 63 54 6e 3f 97 f2 73 3f 4c e4 70 3f
       0.9405731 0.93097514 0.9529204 0.94098353
0001d0 dc 61 71 3f 56 eb 6f 3f e0 1d 71 3f 87 2f 72 3f
       0.94289947 0.9371847 0.9418621 0.9460377
0001e0 c9 c8 6b 3f 4c 3b 71 3f 2e f2 6c 3f 9b 07 71 3f
       0.9210325 0.94231105 0.92557037 0.9415223
0001f0 9d 8d 6e 3f 1a 71 73 3f 2e 52 73 3f 76 d6 6e 3f
       0.93184835 0.95094454 0.9504727 0.9329599

encoder.convs.0.norm.bias f4 [128]
000000 66 4a c0 bc 9b b6 b6 3c 38 42 7b 3d 68 0f 9d bb
       -0.023472976 0.02230387 0.061342448 -0.0047930963
000010 3f 77 ed 3b 09 18 94 3d ff 2e b2 bc e1 53 46 bd
       0.0072468813 0.07231147 -0.021750925 -0.048419837
000020 ac 2f 23 3d 4f 83 d2 3c 60 7e 27 3c cd a1 e7 3c
       0.039840385 0.025697378 0.010223001 0.028275395
000030 db d7 00 3d 37 00 5b bc 00 7a 46 bc f1 83 42 3d
       0.031455856 -0.01336675 -0.012114048 0.04748911
000040 d9 17 48 3d 12 cc d3 3d 34 54 0d bc f1 f9 8d bd
       0.048850868 0.10341658 -0.008626033 -0.06932438
000050 27 12 aa 3a 2a c2 f0 3b f0 f6 c4 bc dd dd 50 bc
       0.001297538 0.007347365 -0.02404353 -0.012748209
000060 c5 7e 77 bd 60 7c 97 3c 2f 60 1b bd 8a 9c 3f 3c
       -0.06042363 0.018491924 -0.037933525 0.011695037
000070 74 20 16 bd 48 27 2d bd 8a 9d f0 ba cc 97 d6 3a
       -0.036652043 -0.04227379 -0.0018357497 0.0016372143
000080 97 7e ba 3a 9c dc 5e bc 7f 2f bf bb 2e ae 9b bb
       0.00142284 -0.013602402 -0.0058345194 -0.0047509884
000090 1b de 97 3d ed 0f e9 3b 97 44 d5 3c 99 a4 aa 3b
       0.0741541 0.007112494 0.026033683 0.00520761
0000a0 1a 2b 1b 3d 5a e5 cf bd cb e3 fb ba 71 04 4a bd
       0.0378829 -0.10151167 -0.0019217668 -0.049320642
0000b0 e5 74 ed 3c 9a fc 8e 3d 27 c9 e9 bb 12 0a 41 3c
       0.028986404 0.06981774 -0.007134575 0.011782186
0000c0 35 f5 de b9 0a 6b 1b bd 4b 7d 1d 3c 11 95 42 bc
       -0.00042525833 -0.037943877 0.009612392 -0.0118763605
0000d0 1a b8 36 3d 62 dc 36 bc fe 64 cb 3c 88 8e 97 3a
       0.044609167 -0.011160942 0.02482843 0.0011562863
0000e0 a3 a2 77 3c 53 8e 90 3c c4 85 d1 3c 41 83 f9 bc
       0.015114459 0.01764599 0.02557648 -0.030458095
0000f0 19 24 0d 3d 51 9e e1 bc ab d9 82 3d 9b fa 0d 3b
       0.034458254 -0.027541311 0.06389173 0.0021664265
000100 78 0c 11 3d fa c9 0f bc 3f 9c 67 3d 86 f4 46 3c
       0.03541228 -0.008776182 0.056545492 0.01214326
000110 f0 62 3b 3c b3 49 82 3c 9f d5 03 bc c6 21 1f bc
       0.011437163 0.015904283 -0.008046537 -0.009712642
000120 a2 57 5b 3d 5d e6 8b bc 55 2e e2 bd 08 4c 56 bb
       0.05355037 -0.01707762 -0.110439934 -0.0032699127
000130 03 f3 1e 3d 8c 80 95 3c c8 14 12 bb 2d d2 36 bc
       0.038805973 0.018249772 -0.0022290219 -0.011158508
000140 9d 8d c6 3b b4 1a 63 3c dd bc b4 bc 16 01 b4 bc
       0.006059362 0.013861347 -0.022062713 -0.021973174
000150 cb 95 36 3e a5 62 ac 3c ee 14 52 bc 54 23 08 3c
       0.17830579 0.021043131 -0.012822373 0.008309204
000160 8c 1e 8c bc 93 85 06 bd 23 70 88 3c 57 ba 54 bd
       -0.01710441 -0.03284223 0.016655033 -0.05193552
000170 0d b6 8c 3d 21 d0 29 bd f5 ac 95 3c 13 ef 0f 3d
       0.06870661 -0.041458253 0.018270949 0.03514011
000180 dd 3e bf 3c 9b ea 35 bd 52 4c 23 3b 90 88 34 bd
       0.023345405 -0.04441319 0.0024917317 -0.04407555
000190 3c 84 1c bd 06 82 b2 3c d6 ab 89 3a 01 67 90 3c
       -0.038212046 0.021790516 0.0010503482 0.017627241
0001a0 57 4a 8c b9 d7 6f 33 3d a0 ef a6 bc f6 6b 53 3d
       -0.00026758268 0.04380783 -0.020377934 0.05161663
0001b0 52 98 0d 3c 00 47 12 3c 30 8c 07 3c b9 09 b9 bc
       0.008642273 0.0089280605 0.008273169 -0.022587644
0001c0 9a 72 bb ba f0 1a b8 3b 0b 98 d4 3c 2e c0 07 3d
       -0.0014301122 0.0056184456 0.025951406 0.03314226
0001d0 0b d9 b6 bb e8 9c 9e 3c 80 46 f7 3c ea d3 5c bc
       -0.0055800728 0.019361928 0.030184984 -0.013478259
0001e0 e8 19 18 3d 20 98 30 bd ac e0 88 bd 7f 8f 27 3b
       0.03713408 -0.043113828 -0.06683478 0.0025567708
0001f0 7a db b2 bd d5 69 8c bb c8 53 b7 bc ba e9 b0 bc
       -0.08733268 -0.004285077 -0.022378817 -0.021595825

encoder.convs.0.norm.mean_scale f4 [128]
000000 0f 46 6f 3f 5e 6a 79 3f 54 a5 6d 3f 3b c0 5e 3f
       0.93466276 0.9742793 0.92830396 0.8701207
000010 67 0d 7f 3f bb 75 5a 3f 18 89 60 3f cb b4 80 3f
       0.99629825 0.8533589 0.8770919 1.0055174
000020 03 82 7f 3f d2 13 68 3f 72 42 67 3f bd 42 83 3f
       0.9980776 0.90655243 0.9033576 1.0254742
000030 60 82 83 3f 87 55 70 3f 07 5e 6d 3f 49 f5 86 3f
       1.0274162 0.93880504 0.927216 1.0543605
000040 fc 0b 83 3f e1 b2 8a 3f 93 7c 7e 3f 51 6a 84 3f
       1.0238032 1.083584 0.99408835 1.0344945
000050 22 8d 6a 3f 33 1e 44 3f aa 7b 68 3f 5a 05 51 3f
       0.916216 0.7660858 0.90813696 0.8164879
000060 f8 90 83 3f 3f a8 63 3f a6 ce 78 3f 47 a6 77 3f
       1.0278616 0.889286 0.9719032 0.96738094
000070 bb 19 76 3f 4a d4 6d 3f 51 3f 77 3f ec 0c 6a 3f
       0.9613301 0.9290205 0.9658099 0.9142597
000080 ec ed 6b 3f 6c 97 78 3f cd 5c 71 3f 37 96 81 3f
       0.92159915 0.9710605 0.9428223 1.0123967
000090 87 b6 6f 3f ab d6 73 3f fc e6 75 3f 28 0f 71 3f
       0.9363789 0.9524943 0.9605558 0.9416375
0000a0 69 fc 70 3f 47 24 84 3f ac 10 66 3f 8d 23 57 3f
       0.9413515 1.0323571 0.8986919 0.8403862
0000b0 ac 5b 6f 3f 92 12 87 3f ff db 74 3f f8 3e 76 3f
       0.93499255 1.0552542 0.9564819 0.9618983
0000c0 f8 fd 73 3f c9 1e 81 3f 96 85 72 3f 79 ab 70 3f
       0.953094 1.008752 0.94735086 0.94011647
0000d0 ff 2f 77 3f 3d d9 64 3f 46 41 6e 3f 2f 23 6d 3f
       0.9655761 0.8939398 0.9306835 0.9263181
0000e0 69 b5 7a 3f 25 16 7e 3f 7b 51 69 3f eb 2b 7f 3f
       0.9793306 0.9925254 0.91139954 0.9967639
0000f0 62 5e 70 3f 1c db 6a 3f 52 d5 81 3f a3 5b 86 3f
       0.93894017 0.91740584 1.0143225 1.0496715
000100 f7 30 88 3f f0 5e 64 3f d9 a3 84 3f 07 5f 71 3f
       1.0639943 0.89207363 1.0362502 0.94285625
000110 19 cc 78 3f 08 67 79 3f f0 f6 6b 3f 28 20 8a 3f
       0.9718643 0.9742284 0.9217367 1.0791063
000120 22 26 7d 3f 1c fe 67 3f 2e fd 8b 3f 4a 5c 79 3f
       0.9888631 0.90622115 1.0936639 0.97406447
000130 74 39 76 3f 9c 9a 69 3f 55 c4 92 3f 0c e9 68 3f
       0.96181417 0.9125154 1.1466166 0.909806
000140 a6 e4 6b 3f 01 2f 70 3f b4 77 73 3f 67 af 63 3f
       0.92145765 0.9382172 0.9510453 0.8893952
000150 1d 5c 8d 3f 41 aa 77 3f b8 7a 70 3f d9 79 75 3f
       1.1043736 0.9674416 0.93937254 0.9588905
000160 a3 7b 67 3f 45 ab 81 3f 63 9b 64 3f 89 57 60 3f
       0.9042303 1.0130392 0.892996 0.8763357
000170 37 20 8e 3f e2 b0 83 3f 69 db 6c 3f 7c 3d 6b 3f
       1.1103581 1.0288355 0.92522293 0.9189069
000180 ee 1c 64 3f de 63 69 3f 08 0e 5f 3f be a7 79 3f
       0.89106643 0.9116801 0.87130785 0.9752158
000190 4f 03 84 3f ab 09 7f 3f a3 d1 70 3f 0f d2 71 3f
       1.031351 0.9962413 0.9406988 0.9446115
0001a0 1b 7c 68 3f bb c0 81 3f 55 c2 5e 3f 40 57 76 3f
       0.9081437 1.0136942 0.8701528 0.9622688
0001b0 8c 72 6f 3f 8e fe 72 3f e7 95 63 3f d0 c6 80 3f
       0.9353416 0.9491967 0.8890061 1.0060673
0001c0 00 8b 6e 3f 42 ec 6c 3f 1a df 6a 3f 78 18 75 3f
       0.9318085 0.92548 0.91746676 0.9574046
0001d0 4d d2 61 3f 8e f6 7a 3f 9e 5f 60 3f e8 e2 74 3f
       0.8821152 0.9803246 0.876459 0.9565873
0001e0 61 e8 6f 3f 5b 96 83 3f 59 6a 82 3f 47 a8 77 3f
       0.9371396 1.028026 1.0188705 0.96741146
0001f0 1c d1 84 3f 22 83 75 3f 4c 51 80 3f 06 bb 6c 3f
       1.0376315 0.9590322 1.002481 0.92472875
