checkpoints/model_A_epoch_39.pth (torch, 552117 bytes, 26 tensors)

encoder.node_embedding.weight f4 [1, 128]
0	0x3fe3e64c	1.7804656
1	0x3fae15fb	1.3600458
2	0x3f4c670d	0.79844743
3	0xbff766e9	-1.9328281
4	0x3f1a17fc	0.6019285
5	0xbf8e59c5	-1.1121145
6	0x3a24b07e	0.0006282403
7	0xbfbdc2a6	-1.4825027
8	0xbf3050b2	-0.6887313
9	0x3fc0ec36	1.5072086
10	0xbeafcdc2	-0.34336668
11	0xbfa5987b	-1.2937158
12	0xbf28c541	-0.65925986
13	0xbef7c1ce	-0.4839005
14	0xbf324ee2	-0.69651616
15	0x3f2a2b1a	0.6647202
16	0x3fc1e4f4	1.5147996
17	0xbdeb8d32	-0.1150154
18	0xbedad3d6	-0.42739743
19	0x3ec1421a	0.37745744
20	0xbf2a3b2f	-0.66496557
21	0x3f776b85	0.96648437
22	0x3f373591	0.7156611
23	0x3fc7ef31	1.561987
24	0x3f95e120	1.1709328
25	0x3f9838a0	1.189228
26	0x3f07ba26	0.53018415
27	0x3f9c545d	1.2213246
28	0xbe2f062b	-0.17092197
29	0x3a7c1dcb	0.00096174766
30	0xbe49551b	-0.19661371
31	0x3f4888c4	0.7833369
32	0xbf9e15be	-1.2350385
33	0xbf4bb9a5	-0.79580146
34	0xbe3d43b6	-0.18482861
35	0x3fce19ea	1.6101658
36	0x3e80bd7f	0.25144574
37	0xbeb52401	-0.3537903
38	0x3e89ac63	0.26889333
39	0xbf2f4e5c	-0.6847894
40	0xbfb8264a	-1.4386685
41	0x3f63d76c	0.8900058
42	0xbf4ebcf0	-0.80757046
43	0xbf04ab0d	-0.518235
44	0xbf967f25	-1.1757551
45	0x3ffa68db	1.9563249
46	0xbf8fb48a	-1.1226971
47	0xbed1c207	-0.40968344
48	0xbf52d217	-0.8235182
49	0xbf13092f	-0.5743589
50	0x3d0f96ce	0.035055928
51	0x3eef9ab0	0.46797705
52	0xbedcc11d	-0.43116084
53	0x3f8bad4a	1.0912259
54	0xbf32e3b0	-0.69878674
55	0xbf1d99d2	-0.61562836
56	0xbfa343bc	-1.2755046
57	0x3a29187a	0.00064504857
58	0xbc919a90	-0.017773896
59	0x3f202a2d	0.62564355
60	0xbd62ee6d	-0.05540316
61	0x3fd6bb8c	1.6775985
62	0xbf8b5073	-1.0883926
63	0x3fa3ea32	1.2805846
64	0x3fa8d14a	1.318887
65	0x3f489bed	0.78362924
66	0x400387fb	2.0551746
67	0x3edeae79	0.43492487
68	0x3e962d7b	0.29331574
69	0xbe0a78cf	-0.13522647
70	0xbf7103b1	-0.9414626
71	0x3f948c4b	1.1605314
72	0xbdfdfbe9	-0.12401564
73	0x3ee29d53	0.44260654
74	0x3d122b38	0.035685748
75	0x3ec3d203	0.38246164
76	0x3ef51625	0.47868457
77	0xbf0faaa3	-0.56119746
78	0xc0045fa3	-2.0683372
79	0xbf2f30bd	-0.68433744
80	0xba825dff	-0.0009946226
81	0xbe965f65	-0.29369655
82	0xbf9c6ed2	-1.222132
83	0xbf01984e	-0.50623024
84	0x3ef6e98f	0.48225066
85	0x3ee8fd16	0.4550559
86	0x3f84ad15	1.036532
87	0x3c17523b	0.009235914
88	0x3f28318c	0.657006
89	0xbed59ac5	-0.41719642
90	0xbf7aa648	-0.97909975
91	0x3f092eed	0.5358723
92	0xbfce896b	-1.6135687
93	0xbf3c8d7b	-0.7365338
94	0x3fa890bf	1.3169173
95	0x3ec8d393	0.39223918
96	0xc015c271	-2.3399928
97	0x3edfac8c	0.4368633
98	0x3f322e3a	0.69601786
99	0x3b038b56	0.0020072064
100	0x3f096c47	0.53680843
101	0x3f01bfc2	0.50683224
102	0x3f7aebdd	0.9801615
103	0xbecf6345	-0.40505424
104	0xbe1d7c4a	-0.15379444
105	0x3f2d3edf	0.6767406
106	0x3ea8986d	0.32928792
107	0x3de5e72d	0.11225734
108	0x3e5fb80a	0.21847549
109	0x3f914504	1.1349187
110	0xbae95a4c	-0.00178034
111	0xbe856308	-0.26052117
112	0xbfaba99a	-1.3411133
113	0xbcd1e565	-0.02562208
114	0xbf02263e	-0.508396
115	0x3ec1c1f8	0.378433
116	0x3f24c479	0.64362293
117	0x3c95aacd	0.01826992
118	0xbea48f58	-0.32140613
119	0x3ef5e356	0.48025006
120	0x3a6abd2a	0.0008954579
121	0x3e406928	0.18790114
122	0x3dbe48aa	0.09291203
123	0x3f299e9b	0.6625764
124	0x3f7ed717	0.9954695
125	0x3e87343c	0.2640704
126	0x3f1ec7d7	0.6202368
127	0x3eb249e7	0.34822008

encoder.convs.0.node_mlp.weight f4 [128, 256]
0	0x3d70e12e	0.058808498
1	0xbb207ff2	-0.0024490324
2	0x3d759bb3	0.05996294
3	0x3c14b6b2	0.009076761
4	0xbd26760a	-0.040639915
5	0x3d0128af	0.03153294
6	0xbcd655b4	-0.026163913
7	0xbd02cc7c	-0.031933293
8	0xbd6e0772	-0.05811257
9	0xbd4a32d6	-0.049364887
10	0x3bf8b40a	0.0075898217
11	0xbcb5e2fc	-0.022202961
12	0x3c60c917	0.013719819
13	0xbd6cc186	-0.057801746
14	0x3d0d7ccc	0.034542844
15	0xbd0b4e9e	-0.034010522
16	0xba6b4726	-0.00089751405
17	0x3b37f3e6	0.0028068959
18	0x3caead00	0.021322727
19	0x3d69007e	0.056885235
20	0x3d36ab27	0.044596817
21	0xbd19acac	-0.03751819
22	0x3cc565e9	0.024096446
23	0xbc83d97c	-0.016094916
24	0x3b3a57cc	0.0028433679
25	0xbd0ef712	-0.034903593
26	0x3d80fb10	0.06297886
27	0xbd0b5c08	-0.034023315
28	0x3cb890ac	0.022529922
29	0x3cf3b748	0.029750481
30	0x3c1faa69	0.009745219
31	0xbcb949ed	-0.022618258
32	0x3d35d8aa	0.04439608
33	0x3b787169	0.0037909395
34	0xbae08052	-0.0017128086
35	0xbd2ef6a9	-0.042715702
36	0x3d0a99d8	0.033838123
37	0xbc9534f8	-0.018213734
38	0xbc91cda7	-0.017798258
39	0x3d29da96	0.041468225
40	0x3b7f5193	0.0038958534
41	0xbcbfcfb6	-0.023414474
42	0xbd20517b	-0.039140206
43	0xbc455cc1	-0.01204604
44	0x3cc22274	0.02369807
45	0xbbbbcad9	-0.0057309684
46	0xbd2fe7f1	-0.042945806
47	0xbcf21e1f	-0.029555378
48	0xbd5ab118	-0.053391546
49	0x3c424424	0.011857066
50	0x3d63f409	0.055652652
51	0xbd3e07b0	-0.04639405
52	0x3b8f6b10	0.0043767765
53	0x3d22cbe1	0.039745215
54	0x3ac29f5a	0.0014848516
55	0xbcf80192	-0.030274186
56	0x3caffb11	0.021482022
57	0x3d0edccc	0.034878537
58	0x3c5616f4	0.013066996
59	0xba94e947	-0.0011361026
60	0xbcd0acfa	-0.025473107
61	0x3c80128d	0.015633846
62	0xbca15599	-0.019694136
63	0xbc07d77b	-0.008291121
64	0x3d405c1f	0.046962854
65	0x3d759995	0.05996092
66	0x3b6219b8	0.0034500193
67	0xbb81bd8d	-0.003959364
68	0x3c26251d	0.010140684
69	0xbc5aa0cc	-0.013344001
70	0x3b9fa6e7	0.004872191
71	0x3cd38c7f	0.02582383
72	0xbd81150c	-0.063028425
73	0xbc4dd114	-0.012562055
74	0x3d75c2f9	0.060000394
75	0x3d03c68d	0.032171775
76	0x3bd1269b	0.006382776
77	0xbd377d29	-0.044797096
78	0xbd3a19fa	-0.04543493
79	0xbd7e4f96	-0.062087618
80	0x3bf19267	0.007372189
81	0x3c30807c	0.010772821
82	0x3ce849d8	0.028355524
83	0x3c92d890	0.01792553
84	0xbd2fa9bb	-0.042886477
85	0xbcd7f694	-0.026362695
86	0x37e5fda6	2.7417042e-05
87	0x3d86ef91	0.065886624
88	0x3c91018d	0.017700935
89	0xbcc8d3c9	-0.02451505
90	0x3c78b254	0.0151792355
91	0xbc59232d	-0.0132530155
92	0xbd426e37	-0.04746839
93	0x3d0a8bad	0.03382461
94	0xbc90350a	-0.017603416
95	0xbb28eb6e	-0.0025775093
96	0xbd8b66e1	-0.06806732
97	0x3d4784c7	0.04871061
98	0x3d5d5836	0.054039203
99	0x3cf3636f	0.0297105
100	0xbd026ff6	-0.031845056
101	0xbd484da1	-0.048902158
102	0xbd1e41f2	-0.03863711
103	0x3d0dddd2	0.034635372
104	0x3c9c6840	0.019092679
105	0x3d710baa	0.058849014
106	0x3d23ff15	0.040038187
107	0x3cc518d1	0.024059685
108	0x3c0e76a4	0.008695278
109	0xbd11d09c	-0.035599336
110	0xbd1f8af5	-0.03895088
111	0xbd83c75a	-0.06434508
112	0x3c743a75	0.014906515
113	0xbd1d0f23	-0.038344514
114	0xbcac5454	-0.021036305
115	0xbcca3222	-0.024682108
116	0xbab9e8cb	-0.0014183758
117	0xbd0024c3	-0.03128506
118	0xbd4313d4	-0.04762633
119	0x3ceb8484	0.028749712
120	0xbd26718f	-0.04063564
121	0x3d3a9725	0.0455543
122	0xbc1dd951	-0.009634332
123	0xbd0b876f	-0.034064706
124	0xba8ffc7e	-0.0010985283
125	0xbc9e80f3	-0.019348597
126	0xbc0ffa97	-0.008787773
127	0xbd404bb4	-0.046947196
128	0x3d313ef4	0.043272927
129	0x3cd3d730	0.025859445
130	0xbce716b2	-0.028209064
131	0x3c3ee55e	0.011651365
132	0x3cd21374	0.025644042
133	0xbca0880e	-0.019596126
134	0x3d6384d9	0.055546615
135	0xbb3a0d24	-0.002838918
136	0x3dc21d50	0.09478247
137	0x3d048ff6	0.032363854
138	0x3ce29425	0.027658531
139	0xbc8b6258	-0.017014667
140	0xbd81d494	-0.06339374
141	0xbcf9ada9	-0.030478315
142	0xbd03fd44	-0.032223955
143	0xbe2c3343	-0.1681643
144	0x3d2e718f	0.042588767
145	0x3d0614cc	0.032734677
146	0x3d23e83e	0.040016405
147	0xbd65456b	-0.055974405
148	0xbe120f88	-0.14263737
149	0x3d186277	0.03720328
150	0x3d0c1138	0.03419611
151	0xbd8f7160	-0.070040464
152	0xbcf49d1d	-0.029860074
153	0x3d83b953	0.06431832
154	0xbc63eb4b	-0.013911079
155	0xbdb74624	-0.08948925
156	0xbc2029cc	-0.00977559
157	0xbcc4aee0	-0.024009168
158	0xbd3494b2	-0.04408712
159	0x3dcd697f	0.100298874
160	0x3d8cf2ff	0.06882285
161	0x3cddf2a8	0.027093247
162	0xbd4743d3	-0.048648667
163	0xbc9b0638	-0.018923864
164	0xbc986b95	-0.018605987
165	0xbd4679c4	-0.04845597
166	0x3c8c07d1	0.01709357
167	0x3d099070	0.033585012
168	0xbdda665d	-0.106640555
169	0x3d5595bd	0.052144755
170	0xbd44831c	-0.0479766
171	0xbd4d631a	-0.05014334
172	0xbd2e66d6	-0.04257854
173	0xbce48b82	-0.027898554
174	0xbd704ec8	-0.05866888
175	0x3c30d180	0.010792136
176	0xbd7f3a13	-0.062311243
177	0xbc7e2f76	-0.015514245
178	0xbd192ca9	-0.037396107
179	0x3daa6c38	0.08321422
180	0xbd0b6bc7	-0.03403833
181	0xbc63fae7	-0.0139148
182	0x3dcd61d5	0.100284256
183	0xbd47e071	-0.04879803
184	0xbcdbd4ce	-0.026834872
185	0x3d070782	0.032966144
186	0x3d65978b	0.056052726
187	0x3de72a78	0.11287397
188	0x3d080cc9	0.033215318
189	0x3ce7fcf3	0.028318858
190	0xbc98da98	-0.018658921
191	0xbdfcdbf8	-0.12346643
192	0xbca9f827	-0.020748211
193	0xbd0d13a5	-0.034442563
194	0x3c20fca7	0.009825862
195	0x3d9b303c	0.07577559
196	0x3ccf0d55	0.025274912
197	0xbdc69b21	-0.09697557
198	0xbd7a87b7	-0.061164584
199	0xbd872a7b	-0.065998994
200	0xbb081fc7	-0.0020770894
201	0x3a275b2d	0.00063841307
202	0x3d885067	0.066559605
203	0xbc952778	-0.018207297
204	0xbd1617c0	-0.036643744
205	0xbd565f3b	-0.052336913
206	0x3d66ac29	0.05631653
207	0xbd143ec8	-0.036192685
208	0xbbd63d67	-0.0065380814
209	0xbd445668	-0.047933966
210	0xbccbbf9e	-0.024871644
211	0xbd3f0500	-0.046635628
212	0x3b90b2cb	0.004415845
213	0xbd7deb47	-0.061991956
214	0xbd4ea892	-0.05045373
215	0xbd104036	-0.035217486
216	0xbd633ac8	-0.05547598
217	0xbd6e214b	-0.05813722
218	0x3db502fc	0.0883846
219	0xbcf6acf7	-0.030111773
220	0xbd3936ae	-0.045218162
221	0x3d0013ec	0.031269
222	0x3ca912fe	0.020638939
223	0x3cd1c1d5	0.025605122
224	0x3ced3669	0.028956609
225	0x3c6c792f	0.014433189
226	0xbe0019bf	-0.12509821
227	0x3c396d46	0.011317557
228	0x3d261e61	0.040556315
229	0x3ce3d0f7	0.027809603
230	0xbc468cc3	-0.012118521
231	0x3d2ed329	0.042681847
232	0xbdefcd28	-0.11709052
233	0xbd8ebdad	-0.069697715
234	0xbc2e7e9a	-0.010650301
235	0x3da629d0	0.08113444
236	0x3dadc0fd	0.08484075
237	0x3d1b61ab	0.03793494
238	0x3d0f2d80	0.0349555
239	0xbd9a0e6f	-0.07522284
240	0xbd65ae7d	-0.056074608
241	0xbc1fc8f3	-0.0097525
242	0x3d49cf46	0.049269937
243	0x3cb355cc	0.021891497
244	0xbd0bcd5e	-0.0341314
245	0xb90985db	-0.00013115203
246	0xbdfeeb9b	-0.12447282
247	0x3ae6946b	0.001759184
248	0x3d99b6d5	0.075055756
249	0xbcb3330d	-0.021874929
250	0x3e1737c6	0.1476737
251	0xbd4c9eeb	-0.049956243
252	0x3dec831e	0.11548446
253	0xbcdec700	-0.0271945
254	0x3c2399b8	0.00998538
255	0x3d8f37a0	0.069930315

encoder.convs.0.node_mlp.bias f4 [128]
0	0xbd184232	-0.037172504
1	0x3b7d619e	0.003866292
2	0x3b771ca7	0.0037706287
3	0x3d35b82b	0.04436509
4	0x3cd8fae3	0.02648682
5	0xbc94f384	-0.018182524
6	0xbb86de8c	-0.004115885
7	0xbd21a466	-0.039463423
8	0x3c9995cf	0.018748192
9	0xbb80ca5b	-0.0039303727
10	0x3d8ca7fe	0.068679795
11	0x3d36737b	0.044543725
12	0xbd1feec5	-0.039046068
13	0x3d8bf7ec	0.06834397
14	0xbd859e1d	-0.06524298
15	0x3c856f42	0.016288403
16	0x3cb0930b	0.02155449
17	0x3d2ea784	0.042640224
18	0x3d3a75b1	0.045522396
19	0xbc5ffa89	-0.013670572
20	0x3d53d3c8	0.051715642
21	0x3bed74d6	0.007246594
22	0xbaef9092	-0.0018277338
23	0xbcca75b9	-0.024714338
24	0xbd4412fc	-0.047869667
25	0xbca1c725	-0.01974828
26	0x3b8a4026	0.004219073
27	0x3b7b6cfd	0.0038364523
28	0xbbb4b1c7	-0.005514357
29	0xbc03eb82	-0.008051755
30	0x3b9f30ec	0.004858127
31	0xbd07a156	-0.033112846
32	0x3a1f393b	0.00060738967
33	0xbd3a7a6a	-0.0455269
34	0x3c5fbbec	0.013655644
35	0x3d0fff45	0.035155553
36	0xbd098c27	-0.033580925
37	0x3d1098c7	0.03530195
38	0xbcce984c	-0.025219105
39	0xbd0ae64d	-0.03391104
40	0x3d21a993	0.03946836
41	0xbd6f58de	-0.05843436
42	0x3d21979f	0.039451238
43	0x3d3665db	0.04453073
44	0x3d16049a	0.036625482
45	0xbbdd32fb	-0.006750462
46	0xbd19ab14	-0.03751667
47	0xbd2cb269	-0.042162333
48	0x3d5e3ceb	0.054257315
49	0x3cb08892	0.021549497
50	0x3ce05668	0.027384952
51	0xbcf3ff67	-0.029784871
52	0x3d116220	0.03549397
53	0xbcf0b34c	-0.02938237
54	0x3d52a299	0.051424596
55	0x3d2986a7	0.04138818
56	0xbd5f38e6	-0.054497622
57	0xbd24fdeb	-0.040281218
58	0xbd6e26c9	-0.058142457
59	0xbd28f7db	-0.041252
60	0x3bbb80d1	0.005722143
61	0xbd845c8b	-0.06462964
62	0x3ceea443	0.02913106
63	0xbcde2355	-0.027116457
64	0xbc82d463	-0.015970415
65	0x3c39b8ad	0.011335534
66	0xbd50561b	-0.050863367
67	0xbc7798fa	-0.015112156
68	0xbd68b1ff	-0.056810375
69	0xbd4804e1	-0.048832778
70	0x3b068afb	0.0020529616
71	0xbd072446	-0.032993577
72	0x3d8b2ef9	0.06796069
73	0xbce4b4c4	-0.027918227
74	0x3cf039ba	0.029324401
75	0x3d138eed	0.036024977
76	0xbca62680	-0.02028203
77	0xbcc115fa	-0.02357005
78	0x3cddf569	0.02709456
79	0xbd0384c0	-0.032109022
80	0x3c6925c1	0.014230193
81	0xbc28e9b8	-0.010309629
82	0xb9d290a1	-0.00040162078
83	0xbd2ee826	-0.042701863
84	0x3d0cbe52	0.03436119
85	0xbd41e5d9	-0.04733834
86	0xbc844d17	-0.01615004
87	0x3ccc4a4f	0.024937777
88	0xbd4d0720	-0.050055623
89	0xbbf6a1df	-0.0075266208
90	0x3d7d0401	0.061771397
91	0x3c69c9ef	0.014269336
92	0x3d0ba712	0.034094878
93	0xbd353eb8	-0.044249266
94	0x3d1a52d1	0.037676636
95	0xbc18947b	-0.009312744
96	0x3ce51d8d	0.027968192
97	0xbcb62390	-0.022233754
98	0xbb3a0bf1	-0.0028388465
99	0x3d212a53	0.039347004
100	0x3d251152	0.04029972
101	0xbd153b39	-0.036433432
102	0x3d76d48a	0.060261287
103	0x3d3cc1ec	0.046083376
104	0xbcb61283	-0.022225624
105	0x3c34fceb	0.0110466285
106	0x3c9d42c3	0.019196874
107	0xbd74cabf	-0.059763666
108	0x3c442d1b	0.011973645
109	0x3d7a541a	0.06111536
110	0xbc82275d	-0.01588791
111	0xbd6437dc	-0.055717334
112	0xbd1356cc	-0.035971448
113	0x3d3613d4	0.044452503
114	0x3b02a050	0.001993198
115	0xbc20e944	-0.00982124
116	0x3b8fc5ae	0.004387579
117	0x3ccdc460	0.025118053
118	0x3d189679	0.037252877
119	0x3c35e867	0.011102772
120	0xbd62bdc9	-0.055356774
121	0x3cfab710	0.03060487
122	0x3d952593	0.07282557
123	0x3cb3cf16	0.021949332
124	0xbd066996	-0.03281554
125	0xbc13ad9a	-0.009013558
126	0x3ce143c4	0.027498133
127	0x3d449ca6	0.048000954

encoder.convs.0.edge_mlp.0.weight f4 [128, 7]
0	0xbf040a30	-0.51578045
1	0x3ed9e29b	0.425557
2	0x3d67e146	0.056611322
3	0x3dcfe8d7	0.101518326
4	0x3c0cc290	0.008591309
5	0xbd30331b	-0.043017488
6	0xbed7f71d	-0.4218072
7	0xbd145d56	-0.036221825
8	0xbec2b3ab	-0.380277
9	0x3eb5f36b	0.35537276
10	0x3e1b1774	0.15145665
11	0x3dc6a191	0.09698785
12	0xbe556f67	-0.20843278
13	0xbe69e5cc	-0.22841567
14	0xbc985ac4	-0.018597968
15	0x3c573ff6	0.013137808
16	0xbb4f3a0c	-0.0031620292
17	0x3d8e93c8	0.06961781
18	0x3d019a4f	0.0316413
19	0xbe8bdc9e	-0.27316755
20	0x3eeae66e	0.4587893
21	0xbde604f8	-0.112314165
22	0x3d91c715	0.0711805
23	0xbe504e5a	-0.20342389
24	0x3e9bb882	0.30414206
25	0xbdf9bfff	-0.121948235
26	0x3e6e4b06	0.23270807
27	0x3e50ccd4	0.20390636
28	0x3bfa290f	0.007634289
29	0x3df6066a	0.12012942
30	0xbe8fad1a	-0.28061754
31	0xbe8d6f89	-0.27624157
32	0x3eb7432b	0.35793433
33	0x3e8379ec	0.25678957
34	0xbec41e84	-0.38304532
35	0xbe0e50df	-0.13898037
36	0xbe89a7a9	-0.26885727
37	0xbea7c423	-0.32766828
38	0x3d0dae20	0.034589887
39	0xbd7e194f	-0.062035855
40	0x3eb71a47	0.35762236
41	0x3ea2aeb7	0.31773922
42	0xbe7148f9	-0.23562993
43	0x3ea1ff32	0.3164001
44	0x3e94704f	0.28991935
45	0x3eb849ae	0.35993713
46	0xbda1d468	-0.079018414
47	0x3d12f8b9	0.03588173
48	0xbe4c7f07	-0.19970332
49	0xbe4b24b1	-0.19838215
50	0x3e95298a	0.29133254
51	0x3e96f1d1	0.29481366
52	0xbeb93232	-0.36171108
53	0x3e151b97	0.14561306
54	0xbe0a5962	-0.1351066
55	0xbe99d8d3	-0.30048236
56	0x3e2c36d8	0.16817796
57	0xbd85ea81	-0.06538869
58	0xbe113e77	-0.14183985
59	0x3eb6179e	0.35564893
60	0xbe52169e	-0.2051644
61	0x3e83a25c	0.25709808
62	0x3e4f6c38	0.20256126
63	0xbe9e4cde	-0.3091802
64	0x3e7469f3	0.23868541
65	0xbe417712	-0.18893078
66	0xbdf5b5d0	-0.119975686
67	0x3e2eec6a	0.17082372
68	0x3ec364d8	0.38162875
69	0xbe9b518b	-0.3033565
70	0x3efd8d75	0.49521986
71	0xbebad133	-0.3648773
72	0x3e0708dd	0.13186975
73	0xbe963a4c	-0.29341352
74	0x3c8afb38	0.016965494
75	0xbe7cc15b	-0.24683134
76	0x3eb3b62f	0.35099933
77	0xbe4d0dcc	-0.20024794
78	0xbefc8151	-0.4931741
79	0xbe1cd65a	-0.15316144
80	0x3e82a9c8	0.25520158
81	0x3e6554ad	0.22395582
82	0x3e3ac92b	0.18240802
83	0x3e908464	0.28226006
84	0xbcba373c	-0.022731416
85	0x3eb5f897	0.35541221
86	0xbeb32c6b	-0.34994826
87	0xbe4f6ae2	-0.20255616
88	0x3e9cd24f	0.30629203
89	0xbe47bbb3	-0.19505195
90	0x3e40f08d	0.18841763
91	0x3e1989d4	0.14993984
92	0x3e516c3a	0.20451441
93	0x3ec099dc	0.37617385
94	0x3e01bab2	0.12668875
95	0x3c41ad8b	0.011821161
96	0xbec0ad58	-0.3763225
97	0xbe21bd92	-0.15794972
98	0xbc8de8ba	-0.017322887
99	0x3de2d4e9	0.11075766
100	0xbe811e27	-0.25218317
101	0xbd5bbddf	-0.053647872
102	0x3d05ceb6	0.032667838
103	0x3c4cbd64	0.012496326
104	0xbe8c75b2	-0.27433544
105	0x3eadbb7b	0.339321
106	0x3da227d3	0.07917752
107	0x3ebabd49	0.36472538
108	0xbe85ecbd	-0.2615718
109	0xbc3c7765	-0.011503075
110	0x3d854d6d	0.065089084
111	0x3e8f6a7a	0.28010923
112	0xbe61799f	-0.22019051
113	0xbdd15242	-0.102207676
114	0xbe1e5105	-0.15460594
115	0xbe956246	-0.2917654
116	0xbef1c235	-0.4721848
117	0x3d3981a9	0.04528967
118	0x3e9991eb	0.2999414
119	0xbebd503f	-0.36975285
120	0x3da4d5df	0.08048605
121	0xbedc6ccd	-0.43051758
122	0x3b241ef9	0.0025042875
123	0x3d9e2ce6	0.077234074
124	0xbecdc306	-0.40187854
125	0x3e031cee	0.12804005
126	0xbe1e98bf	-0.15487956
127	0xbe141272	-0.14460161
128	0xbe57635d	-0.21033998
129	0x3d2b9605	0.041891117
130	0x3e60227c	0.21888155
131	0xbe26a7b4	-0.16274911
132	0xbdc3c44f	-0.09558927
133	0xbe928305	-0.28615585
134	0xbd9d56d6	-0.07682578
135	0x3ea5b76c	0.32366502
136	0x3e7f5428	0.24934447
137	0xbe705476	-0.2346972
138	0x3eb1c5ef	0.34721324
139	0x3cb23926	0.021755766
140	0x3df993b8	0.12186378
141	0xbf3c577b	-0.73570985
142	0xbd72ce4e	-0.05927878
143	0x3ebcc69e	0.36870283
144	0x3e8bb3fe	0.2728576
145	0x3e48987f	0.19589423
146	0xbdbec8b6	-0.09315626
147	0xbd810b9c	-0.063010424
148	0x3e5b64f1	0.21425225
149	0x3e2736a7	0.16329442
150	0xbdea7e62	-0.11449887
151	0xbe849c4c	-0.25900495
152	0xbeb0deb4	-0.3454491
153	0xbe940b5a	-0.2891491
154	0xbda246f0	-0.079236865
155	0x3dd5164d	0.10404644
156	0xbe49e169	-0.19714893
157	0x3dd16d6a	0.10225947
158	0xbe8caaa1	-0.2747393
159	0x3cf9f8a1	0.030514063
160	0xbde236fb	-0.11045643
161	0xbe870d13	-0.26377162
162	0x3e93e7db	0.2888783
163	0x3deac71d	0.11463759
164	0x3ebe5f7f	0.37182233
165	0x3d45d75f	0.048301097
166	0xbcbf75ce	-0.023371603
167	0x3e802252	0.25026184
168	0xbe84ce53	-0.25938663
169	0x3e32e7ae	0.17471191
170	0x3b5285af	0.0032123139
171	0xbd01fc1f	-0.031734582
172	0xbe98a1c7	-0.29810926
173	0xba8d2455	-0.0010768274
174	0xbe6273ec	-0.22114533
175	0x3ea0dfe7	0.31420824
176	0xbe803006	-0.2503664
177	0xbbeadd11	-0.0071674665
178	0x3ec9bacb	0.39400324
179	0x3d0f3439	0.034961913
180	0xbe880e2a	-0.26573306
181	0x3da677f0	0.08128345
182	0x3e217a0f	0.15769218
183	0xbe55ac49	-0.20866503
184	0xbea85777	-0.3287923
185	0xbeecfe07	-0.46287557
186	0xbe792c46	-0.24333295
187	0x3d16030d	0.036624003
188	0xbeb43f17	-0.35204384
189	0xbea1c6a5	-0.31596866
190	0x3e10a8f2	0.14126948
191	0xbe8c7f39	-0.27440813
192	0xbcaa0285	-0.020753155
193	0x3dd552df	0.10416197
194	0x3eaaf09b	0.33386692
195	0xbc86f5c6	-0.016474616
196	0x3ca5f9aa	0.02026065
197	0x3eea0e5d	0.45714083
198	0x3d8f21b0	0.06988847
199	0x3eb0034d	0.34377518
200	0xbe1fdf1d	-0.15612455
201	0x3ec7f3c2	0.3905316
202	0xbe910302	-0.28322607
203	0x3e7424b1	0.23842122
204	0xbdc1f4d6	-0.09470527
205	0x3d6bf121	0.057603005
206	0x3ed42f9b	0.4144257
207	0x3e488cda	0.1958498
208	0x3c84018a	0.016114015
209	0xbdb6767d	-0.089093186
210	0x3ed75a22	0.42060953
211	0x3d8d5e48	0.06902748
212	0x3db2d8a8	0.0873273
213	0x3d34e9af	0.04416817
214	0xbcb0a4e8	-0.021563008
215	0xbdabe648	-0.08393532
216	0x3e649a9e	0.22324607
217	0x3d9d1619	0.076702304
218	0xbc33af93	-0.010967153
219	0x3ad19a42	0.0015991407
220	0xbe1841b8	-0.1486882
221	0xbcc8804d	-0.024475241
222	0xbe2f6c17	-0.17131077
223	0x3de40e2e	0.11135517
224	0x3db96597	0.0905258
225	0xbef04fe1	-0.46935943
226	0x3ec52789	0.38506725
227	0xbe0b6cce	-0.13615724
228	0x3e989e50	0.29808283
229	0x3e854113	0.2602621
230	0x3d8de6b6	0.0692877
231	0x3ec2ade9	0.38023308
232	0xbeb679a5	-0.35639682
233	0xbec66615	-0.38749757
234	0x3d92d89b	0.071702205
235	0xbdf099ba	-0.11748071
236	0xbdf7de45	-0.121029414
237	0xbbcefdf1	-0.0063168933
238	0xbe28d929	-0.1648909
239	0x3c8b78ee	0.017025437
240	0xbe516fde	-0.2045283
241	0x3da39544	0.079874545
242	0x3d932bfa	0.07186122
243	0xbe61e26b	-0.22059028
244	0xbdd117c2	-0.102096096
245	0xbdbbb6c5	-0.0916572
246	0x3ec969ee	0.3933863
247	0x3eb29fb7	0.34887478
248	0x3de873b4	0.113501936
249	0xbd00f0d3	-0.031479668
250	0xbd87a8f2	-0.06624021
251	0x3e973582	0.2953301
252	0xbda0813d	-0.0783715
253	0xbd9fc8a6	-0.078019425
254	0x3e0affff	0.13574217
255	0xbe44fc87	-0.19236957

encoder.convs.0.edge_mlp.0.bias f4 [128]
0	0x3dde5d3e	0.10857628
1	0x3e3090e3	0.1724277
2	0xbe815fc2	-0.2526837
3	0x3d12cbf8	0.03583905
4	0x3cf4a16a	0.029862124
5	0x3e59eeba	0.21282473
6	0xbd6eab54	-0.05826886
7	0xbe3f726c	-0.18695992
8	0x3e27d65c	0.16390365
9	0xbdcddea3	-0.1005223
10	0x3cc5814b	0.024109503
11	0xbddb5c38	-0.10710949
12	0x3e2d4137	0.16919409
13	0xbd2ca6e1	-0.042151336
14	0x3e20a6d6	0.15688643
15	0xbe49b9ca	-0.19699779
16	0x3c38e501	0.011285068
17	0x3e9f5a61	0.3112364
18	0xbe39d900	-0.18149185
19	0xbdb8dc9f	-0.09026455
20	0x3cfa002c	0.03051766
21	0x3d99d7ae	0.07511841
22	0xbdb97602	-0.09055711
23	0x3dd2def2	0.1029643
24	0xbda6d2bb	-0.081456624
25	0x3d17f935	0.037102897
26	0x3e9d9db9	0.30784395
27	0x3e926ce7	0.2859871
28	0xbdf7c73d	-0.120985486
29	0xbe236409	-0.15956129
30	0xbe81ad73	-0.25327644
31	0xbd54fa75	-0.051996667
32	0xbcd4f0b5	-0.025993684
33	0x3dfaa13b	0.122377835
34	0xbd8cebfb	-0.06880947
35	0x3e15ff37	0.14648138
36	0x3d439f57	0.04775938
37	0x3d7f74fd	0.062367428
38	0x3ea2dfc0	0.31811333
39	0x3cc2c771	0.023776742
40	0xbcba725b	-0.022759607
41	0xbcfad472	-0.03061888
42	0x3e6ca8c7	0.23111258
43	0xbe888f24	-0.26671708
44	0xbe15820f	-0.14600395
45	0x3dab7480	0.0837183
46	0x3e4d860f	0.2007067
47	0xbe8f3579	-0.27970484
48	0x3cd276a1	0.025691332
49	0x3da63476	0.08115475
50	0x3e8f9d9c	0.28049934
51	0x3e3195a2	0.17342237
52	0x3e8c187e	0.27362436
53	0xbdc54240	-0.09631777
54	0xbe884d4e	-0.2662148
55	0x3d1a3d85	0.037656326
56	0x3e6d0019	0.23144569
57	0x3d6830b0	0.056687057
58	0x3dc8d159	0.09805555
59	0x3e9d5459	0.30728415
60	0xbeb40b4c	-0.3516487
61	0x3de2d0a1	0.11074949
62	0x3decd613	0.11564269
63	0x3d0de68d	0.0346437
64	0xbd9a103d	-0.075226285
65	0xbe0f1ac7	-0.13975058
66	0x3e2eaeb6	0.17058834
67	0x3d2fd601	0.0429287
68	0x3da2ac23	0.07942989
69	0x3bf87194	0.007581899
70	0xbe5bff84	-0.2148419
71	0x3e0d0b21	0.13773777
72	0xbe3f7ffb	-0.18701164
73	0xbe4f33d6	-0.20234618
74	0xbe2b0e71	-0.16704728
75	0xbe77524a	-0.24152485
76	0xbe7698ab	-0.24081676
77	0xbc524939	-0.01283484
78	0xbe9b2326	-0.30300254
79	0x3e6aa262	0.22913507
80	0xbe7848f1	-0.24246575
81	0x3db41823	0.08793666
82	0x3dce9e1a	0.10088749
83	0xbde0a265	-0.10968474
84	0x3d5b635c	0.053561553
85	0x3e97a19b	0.29615483
86	0xbe929459	-0.28628805
87	0xbd02da1b	-0.031946283
88	0x3e520093	0.20508032
89	0x3eb9a3fd	0.36257926
90	0x3de30409	0.11084754
91	0x3eb1cb9f	0.34725663
92	0xbe237a27	-0.15964566
93	0x3e9fedea	0.31236202
94	0x3dd476ac	0.10374197
95	0xbe24e563	-0.16103129
96	0x3e39b193	0.18134145
97	0x3e7f025a	0.24903241
98	0xbe949e66	-0.29027098
99	0x3e25e783	0.16201596
100	0x3e00bfb2	0.12573126
101	0x3e8024f6	0.250282
102	0xbe89f8b8	-0.2694757
103	0x3e42548d	0.18977566
104	0x3eaf9981	0.34296802
105	0xbdd0df39	-0.10198826
106	0x3e06564d	0.13118859
107	0xbe5737b0	-0.21017337
108	0x3da8b843	0.0823827
109	0xbe5ee665	-0.21767576
110	0xbe91ab7b	-0.28451142
111	0x3e595bb2	0.21226385
112	0x3e2cbe15	0.16869386
113	0x3e43a98e	0.19107649
114	0x3e82ca25	0.2554485
115	0xbcd360d0	-0.025803
116	0xbe6ee00a	-0.23327652
117	0x3e6a23df	0.22865246
118	0x3e8bd063	0.27307424
119	0xbe7ac9ef	-0.24491094
120	0xbe5b7d6c	-0.21434563
121	0xbe6a522e	-0.22882912
122	0xbe0ea610	-0.13930535
123	0x3e4381a7	0.19092427
124	0xbe92b486	-0.28653353
125	0x3d8d415b	0.06897231
126	0x3d1743a1	0.03692973
127	0xbe683736	-0.22677311

encoder.convs.0.edge_mlp.2.weight f4 [128, 128]
0	0x3dec82cd	0.11548386
1	0x3dc11b29	0.094290085
2	0xbdff0bb9	-0.12453408
3	0xbd80a6ae	-0.062817916
4	0x3d814bb0	0.06313264
5	0xbdcfc5cd	-0.101451494
6	0x3dafd246	0.08585028
7	0xbb176c46	-0.0023105307
8	0xbd0dff08	-0.034667045
9	0xbd80a83c	-0.06282088
10	0xbd311aba	-0.04323838
11	0xbca77e0e	-0.02044585
12	0xbe01a2c1	-0.12659742
13	0x3e27acd3	0.16374521
14	0x3e27d467	0.16389619
15	0x3da4910b	0.08035477
16	0xbca5cfff	-0.020240782
17	0xbde6fdf8	-0.112789094
18	0xbd9ab457	-0.07553928
19	0x3de6e2e8	0.11273748
20	0x3d469ec7	0.048491266
21	0x3dac3a90	0.084096074
22	0xbc8fc141	-0.017548205
23	0xbd8309a5	-0.06398324
24	0x3de61360	0.11234164
25	0x3d96feb0	0.073727965
26	0xbc7cd7ac	-0.01543228
27	0x3cff5048	0.03116621
28	0x3cb98df7	0.022650702
29	0xbd146a1d	-0.03623401
30	0x3cdfd465	0.027322957
31	0xbdad3741	-0.084578045
32	0xbcc68f46	-0.02423824
33	0xbc1fe31c	-0.009758737
34	0x3d995ea0	0.074887514
35	0xbd8096c3	-0.062787555
36	0xbcffbc0a	-0.031217594
37	0x3bdc6e10	0.0067269877
38	0x3d43bf62	0.04778994
39	0x3c8c936a	0.017160136
40	0x3d457aa4	0.048212662
41	0xbc56da3f	-0.013113557
42	0x3d7031c6	0.058641218
43	0xbbd944f3	-0.006630534
44	0xbdd14c62	-0.10219647
45	0x3d29c7bc	0.041450247
46	0xbd33bade	-0.043879382
47	0xbb148f19	-0.00226683
48	0x3b847faa	0.004043539
49	0x3bf80d58	0.00756995
50	0xbdb502a5	-0.08838395
51	0x3d8ba9e0	0.068195105
52	0x3d06250d	0.032750178
53	0xbd1c2fb4	-0.03813143
54	0xbcea9a6d	-0.02863809
55	0xbe0338ca	-0.12814632
56	0xbbd2e214	-0.006435642
57	0x3d3a6172	0.045503087
58	0x3e1588d2	0.14602974
59	0x3d0c08cc	0.034188077
60	0x3c9d625b	0.019211939
61	0xbc9be7cf	-0.019031433
62	0x3deba4c8	0.11506039
63	0xbdc0edb4	-0.09420338
64	0xbd7ad523	-0.06123842
65	0x3d803794	0.06260601
66	0x3d896143	0.06708004
67	0x3d095d34	0.03353615
68	0x3d0c5139	0.034257147
69	0xbca5a6f2	-0.020221207
70	0x3de82109	0.11334426
71	0xbdd6f04e	-0.10495053
72	0x3cdb8923	0.02679879
73	0xbd9ec525	-0.07752446
74	0xbd715d84	-0.058927074
75	0xbbfc1046	-0.0076923696
76	0xbda40b9a	-0.08010025
77	0x3d888551	0.06666053
78	0xbd98f912	-0.074693814
79	0x3d0b188c	0.033958957
80	0x3dae7fc4	0.08520463
81	0x3d423c5c	0.047420844
82	0x3cbe8501	0.02325678
83	0x3ddf9b04	0.10918239
84	0x3e0859f3	0.13315563
85	0xbd7dd7b9	-0.061973307
86	0xbc81ab2d	-0.015828693
87	0x3cfc0178	0.03076242
88	0xbd1d53c7	-0.038409974
89	0xbd214faa	-0.039382614
90	0x3d86b9da	0.06578417
91	0xbc23f586	-0.010007268
92	0x3d3e0a15	0.046396334
93	0x3dc7f696	0.097638294
94	0x3e0b84fa	0.13624945
95	0x3e0b01fd	0.13574977
96	0x3c73b776	0.014875283
97	0xbc7f557c	-0.015584346
98	0xbd955fb9	-0.07293648
99	0xbd286d79	-0.041120026
100	0x3db80d7b	0.08986946
101	0xbdbfbc4f	-0.09362089
102	0x3d4a4f99	0.049392316
103	0xbba8aff5	-0.005147929
104	0x3db33bc2	0.08751632
105	0xbcf94167	-0.030426694
106	0x3e0f6bd6	0.1400598
107	0xbd323425	-0.04350676
108	0xbd340c7a	-0.04395721
109	0x3cea0e11	0.02857116
110	0x39a64cc5	0.00031719185
111	0x3d6eca55	0.058298428
112	0xbdd071b1	-0.10177935
113	0x3e101c58	0.14073312
114	0x3ccdfbe0	0.025144517
115	0x3e2f7e01	0.1713791
116	0xbd35e3c5	-0.04440667
117	0x3d63e67b	0.055639725
118	0x3d7377f4	0.059440568
119	0xbd6c2297	-0.057650175
120	0x3d75f0b0	0.06004399
121	0xbd9504dc	-0.072763175
122	0x3dfd7846	0.12376456
123	0x3e088605	0.13332374
124	0xbc96ea5b	-0.018422296
125	0xbd5dad5b	-0.054120403
126	0x3c5c7f90	0.013458148
127	0x3cf9542a	0.03043564
128	0xbe1cbea5	-0.153071
129	0xbd2540f0	-0.040345132
130	0x3ee1cf72	0.4410358
131	0xbcd4aa7c	-0.0259602
132	0x3e471e59	0.1944517
133	0x3d4d00b3	0.050049495
134	0xbdb4d34a	-0.08829363
135	0x3c20129c	0.009770062
136	0xbce168fc	-0.02751588
137	0x3d0862df	0.033297416
138	0x3db33681	0.0875063
139	0x3d364c2c	0.044506237
140	0x3d304840	0.043037653
141	0xbdad2077	-0.08453458
142	0xbcab1d89	-0.020888107
143	0x3deb4955	0.11488596
144	0xbdb9515e	-0.09048723
145	0xbd351397	-0.044208135
146	0xbcf15c40	-0.029462934
147	0x3cf3ec9d	0.029775912
148	0x3d12f3d7	0.035877075
149	0x3a02f2d0	0.00049952883
150	0xbdb61999	-0.08891601
151	0xbca38956	-0.019962948
152	0x3c80fbf1	0.015745135
153	0x3dc7dfa3	0.09759452
154	0xbd1a8cab	-0.037731808
155	0xbd927519	-0.07151241
156	0x3d05300f	0.032516535
157	0xbd7d7305	-0.06187727
158	0x3e13b8bc	0.1442594
159	0x3dface1b	0.12246343
160	0x3d83ae98	0.064297855
161	0x3b0af0e4	0.002120071
162	0x3d45e080	0.048309803
163	0x3d0e8bb9	0.03480122
164	0x3e18e432	0.149308
165	0x3dba39cb	0.090930544
166	0x3cf8466c	0.030307017
167	0x3e079d1b	0.13243525
168	0xbde25918	-0.110521495
169	0xbcee5c05	-0.029096613
170	0xbd937346	-0.07199721
171	0xbcbe576c	-0.023235045
172	0x3e07e6a7	0.1327158
173	0x3db349a7	0.087542824
174	0xbd82c3a8	-0.06384975
175	0x3c87caf1	0.016576262
176	0x3bd204cf	0.0064092646
177	0xbc38be2d	-0.01127581
178	0x3dda097f	0.106463425
179	0xbdab8c4c	-0.08376369
180	0x3d04fbe0	0.03246677
181	0x3c81ec0f	0.015859632
182	0x3db4f8e0	0.08836532
183	0x3c90a3ff	0.017656324
184	0x3c72f08b	0.014827858
185	0x3d489b48	0.048976213
186	0xbd24a292	-0.0401941
187	0xbd8cf620	-0.06882882
188	0xbd101b03	-0.03518201
189	0xbc630352	-0.013855772
190	0x3d8b2881	0.06794835
191	0x3d711599	0.058858488
192	0xbc210d31	-0.009829805
193	0x3ca05986	0.019573938
194	0xbd998a75	-0.07497112
195	0xbd876a2b	-0.06612047
196	0x3d2920c0	0.041291
197	0xbc6ee415	-0.014580746
198	0x3e4b0207	0.19824992
199	0x3dafc500	0.08582497
200	0x3dd269c0	0.102740765
201	0x3d4809ba	0.0488374
202	0x3db58098	0.08862418
203	0x3c7ed374	0.015553344
204	0x3d1bb43f	0.038013693
205	0xbdac951d	-0.084268786
206	0xbc8ae90f	-0.016956834
207	0x3d5bc35c	0.053653106
208	0x3d2bc03a	0.04193137
209	0xbca83b9d	-0.020536238
210	0x3db9dab8	0.090749204
211	0xbd17bff4	-0.037048295
212	0xbdcdcae4	-0.10048464
213	0x3db30ca3	0.08742645
214	0xbdc28fcf	-0.095000856
215	0x3d795db3	0.060880374
216	0x3d6420be	0.055695288
217	0x3c1396bb	0.009008105
218	0xbd1b463f	-0.03790879
219	0xbdf38c87	-0.11892038
220	0x3e45c2da	0.19312611
221	0x3c486fdb	0.0122337
222	0x3e61a6d5	0.22036298
223	0x3d830582	0.06397535
224	0xbc7432b5	-0.014904668
225	0xbd6f8acf	-0.058481988
226	0x3dcfc07e	0.10144137
227	0xbd5b1678	-0.053488225
228	0xb9adff1f	-0.0003318721
229	0x3d8e80a0	0.06958127
230	0x3cfc77db	0.03081887
231	0x3c8e8ac9	0.017400162
232	0xbdb23bc2	-0.08702804
233	0xbd8dc3a8	-0.06922084
234	0x3b48edf7	0.0030659416
235	0x3d74f804	0.05980684
236	0x3d5cf8cc	0.05394821
237	0x3e33d45b	0.17561476
238	0x3da2718e	0.07931815
239	0x3ca75589	0.020426529
240	0x3cd4aa9a	0.025960255
241	0xbd4cd002	-0.05000306
242	0xbd62f49a	-0.05540905
243	0x3cb5fd8c	0.022215627
244	0x3b98dc33	0.0046649217
245	0x3de0d4ba	0.10978074
246	0x3d76e46b	0.06027643
247	0xbb07319f	-0.0020628942
248	0xbd73feb7	-0.059569087
249	0x3ebaa3a2	0.36452967
250	0x3e1d9a9e	0.15391013
251	0x3dab14a4	0.08353546
252	0xbc429415	-0.011876126
253	0xbd1db5a4	-0.038503304
254	0x3d7396ad	0.059469867
255	0xbcec6e0b	-0.028861066

encoder.convs.0.edge_mlp.2.bias f4 [128]
0	0x3cc9d876	0.02463935
1	0xbd8fad12	-0.070154324
2	0xbaadea13	-0.0013268612
3	0x3c8c859d	0.017153556
4	0xbcbf96fe	-0.023387428
5	0x3c5f81f7	0.013641826
6	0xbc6c444d	-0.014420581
7	0xbd820186	-0.06347947
8	0xbd8f00e9	-0.069825955
9	0x3a422b4d	0.0007406965
10	0xbd9407f5	-0.0722808
11	0x3d793380	0.06084013
12	0x3d1e8e08	0.03870967
13	0x3d9b3d40	0.07580042
14	0xbace9c47	-0.0015763127
15	0x3d653331	0.055957023
16	0xbd83bd0d	-0.06432543
17	0x3d0f7d56	0.03503164
18	0x3d33772f	0.043814834
19	0x3cb1eb93	0.021718776
20	0xbd1d7561	-0.03844202
21	0xbd051c84	-0.032497898
22	0xbcebbb12	-0.028775726
23	0x3d88e25a	0.06683798
24	0x3c8091dc	0.015694551
25	0xbd176dbc	-0.036969885
26	0xbc999c06	-0.018751156
27	0xb9d6f8b1	-0.0004100255
28	0x3ce298c5	0.027660737
29	0x3d8261a4	0.0636628
30	0x3d2660e7	0.040619757
31	0x3d8f7030	0.0700382
32	0xbcf83876	-0.03030036
33	0x3c409aa2	0.011755617
34	0x3d680712	0.056647368
35	0x3d7ad17c	0.061234936
36	0x3c702d7a	0.01465928
37	0x3d8910f4	0.06692687
38	0xbd6e9c1b	-0.058254343
39	0xbd90cf55	-0.070707954
40	0x3c8f3c94	0.01748494
41	0x3d2b13c0	0.041766882
42	0x3d328684	0.043585315
43	0xbd7eb74e	-0.06218653
44	0x3d9e6b62	0.077353254
45	0xbd742c0d	-0.059612323
46	0x3d6e0693	0.05811174
47	0xbd0be028	-0.03414932
48	0x3da9a381	0.08283139
49	0x3d1ebe5e	0.038755767
50	0x3d4e52c3	0.050371896
51	0xbbbfd493	-0.0058541982
52	0xbd8107c8	-0.06300312
53	0xbd7430e4	-0.05961694
54	0xbd79a8fa	-0.060952164
55	0xbc03ca07	-0.008043773
56	0xbca49d2d	-0.020094479
57	0x3c7e6194	0.015526194
58	0xbd735bb3	-0.059413623
59	0xbd875164	-0.06607321
60	0x3c08b650	0.008344248
61	0xbc07b7e1	-0.008283586
62	0xbc23d02b	-0.009998362
63	0xbd8ae19e	-0.06781314
64	0xbd952daf	-0.07284104
65	0xbd995888	-0.07487589
66	0xbd300aca	-0.04297904
67	0xbcb901f6	-0.022583943
68	0xbd8691fd	-0.06570814
69	0xbd7eb7d6	-0.06218704
70	0xbcd42c3c	-0.025899999
71	0x3d77ea0b	0.060525935
72	0x3d484117	0.0488902
73	0xbbcaef64	-0.0061930884
74	0xbd639e03	-0.055570614
75	0x3c2ec58b	0.010667215
76	0xbd96fa71	-0.07371987
77	0xbd839c8c	-0.06426343
78	0x3c0fe438	0.008782439
79	0x3cabe2d3	0.020982182
80	0xbd3157a7	-0.043296482
81	0xbb36a7bf	-0.002787098
82	0x3c75ccb8	0.015002422
83	0xbca60b50	-0.020269066
84	0x3d03001d	0.03198253
85	0x3c9b8401	0.018983843
86	0xbd4c2855	-0.04984315
87	0xbb4f4120	-0.003162451
88	0xbd8d4ac8	-0.06899029
89	0xbd4aeba4	-0.04954113
90	0xbdb6b92f	-0.0892204
91	0xbd67953d	-0.05653881
92	0xbd1d7f27	-0.03845134
93	0xbb68f014	-0.0035543488
94	0xbc77f9d9	-0.015135252
95	0xbbdec635	-0.0067985305
96	0x3d6eac24	0.058269635
97	0x3c8c1b2d	0.017102802
98	0x3bf4775a	0.007460517
99	0x3d19296c	0.03739302
100	0xbd11bcf5	-0.035580594
101	0x3b1ba140	0.0023747236
102	0x3cc23ba1	0.023710074
103	0x3d7a865d	0.061163295
104	0x3d8e1860	0.06938243
105	0xbd6f01a2	-0.058351167
106	0x3c673381	0.014111401
107	0x3d88d517	0.06681269
108	0x3cdb0d8c	0.026739858
109	0xbd83bd37	-0.06432574
110	0x3d70c2a0	0.05877936
111	0xbd8b45d9	-0.06800432
112	0xbd8ba598	-0.06818694
113	0xbd357a53	-0.04430611
114	0x3da0f8cf	0.078599565
115	0x3d802297	0.062565975
116	0xbcdc8d26	-0.026922774
117	0x3cf5da51	0.030011328
118	0x3c4af402	0.012387278
119	0xbdbcece0	-0.09224868
120	0xbd3088fa	-0.04309938
121	0xbcce36ca	-0.02517261
122	0x3c14695d	0.009058324
123	0xbd0354dd	-0.032063354
124	0x3d5425e5	0.05179395
125	0xbd5c0104	-0.053711906
126	0xbd19af4e	-0.0375207
127	0xbb58fa16	-0.0033108047

encoder.convs.0.norm.weight f4 [128]
0	0x3f615aca	0.8802916
1	0x3f650c51	0.8947192
2	0x3f690618	0.91024923
3	0x3f5e6b28	0.8688226
4	0x3f66ae54	0.90109754
5	0x3f754eea	0.9582354
6	0x3f6681b1	0.90041643
7	0x3f6928cf	0.91077894
8	0x3f65c4a5	0.8975318
9	0x3f633f6b	0.88768643
10	0x3f6b6867	0.9195618
11	0x3f615e7d	0.880348
12	0x3f6a0a31	0.914218
13	0x3f65c40c	0.8975227
14	0x3f6a71c9	0.9157987
15	0x3f72f0a6	0.9489845
16	0x3f6670fc	0.9001615
17	0x3f642aab	0.89127606
18	0x3f69bd4a	0.9130446
19	0x3f75bec2	0.959942
20	0x3f7e5907	0.99354595
21	0x3f663df9	0.8993831
22	0x3f610a8b	0.8790671
23	0x3f635a1e	0.8880938
24	0x3f7a9aa6	0.97892225
25	0x3f6594c7	0.8968014
26	0x3f6d9a26	0.92813337
27	0x3f73cfee	0.9523915
28	0x3f6b2827	0.9185814
29	0x3f67a001	0.9047852
30	0x3f6e1054	0.92993665
31	0x3f6ade70	0.9174566
32	0x3f659e43	0.89694613
33	0x3f746c86	0.95478094
34	0x3f6d206c	0.92627597
35	0x3f605e3b	0.87643784
36	0x3f64d2bd	0.8938406
37	0x3f71e0a4	0.944834
38	0x3f72eb53	0.94890326
39	0x3f6ceda6	0.9255012
40	0x3f692fc3	0.91088504
41	0x3f673454	0.9031422
42	0x3f7a028e	0.9766015
43	0x3f657855	0.8963674
44	0x3f63964c	0.8890121
45	0x3f6bc219	0.92093045
46	0x3f67c31f	0.90532106
47	0x3f72e29b	0.9487702
48	0x3f66333e	0.8992194
49	0x3f6d025f	0.92581743
50	0x3f656a16	0.89615
51	0x3f6a3a3a	0.91495097
52	0x3f6552b6	0.8957933
53	0x3f6b4c9e	0.91913784
54	0x3f689eab	0.9086711
55	0x3f6cfeba	0.9257618
56	0x3f66edb2	0.90206444
57	0x3f784ea1	0.9699498
58	0x3f672f1a	0.90306246
59	0x3f685418	0.90753317
60	0x3f6c31be	0.922634
61	0x3f632c67	0.8873963
62	0x3f6576d5	0.8963445
63	0x3f75b098	0.95972586
64	0x3f5d57d9	0.8646217
65	0x3f65bf36	0.8974489
66	0x3f665fa0	0.8998966
67	0x3f6af422	0.9177877
68	0x3f6fbb76	0.9364542
69	0x3f6c9d9e	0.92428005
70	0x3f73cc6d	0.95233804
71	0x3f71d7e6	0.9447006
72	0x3f66b6f7	0.9012293
73	0x3f6ba3df	0.9204692
74	0x3f6cec7d	0.9254835
75	0x3f6a3514	0.9148724
76	0x3f6f75d6	0.9353918
77	0x3f6877b3	0.90807647
78	0x3f6c4e92	0.9230739
79	0x3f6bb162	0.9206754
80	0x3f7a9153	0.97878
81	0x3f68f274	0.90994954
82	0x3f627d4c	0.8847244
83	0x3f6d8a77	0.92789406
84	0x3f64a17d	0.8930891
85	0x3f6701bb	0.90237015
86	0x3f83ce05	1.0297247
87	0x3f6bd33b	0.9211919
88	0x3f6ad070	0.917243
89	0x3f658044	0.8964884
90	0x3f6c76ea	0.9236895
91	0x3f664b70	0.8995886
92	0x3f764062	0.9619199
93	0x3f65c648	0.8975568
94	0x3f83929d	1.0279118
95	0x3f6cff38	0.9257693
96	0x3f6a15d1	0.9143954
97	0x3f665488	0.89972734
98	0x3f6aca13	0.9171459
99	0x3f6c0771	0.92198855
100	0x3f64dbd5	0.8939794
101	0x3f6989e3	0.91226023
102	0x3f6bdc5a	0.92133105
103	0x3f63b077	0.8894114
104	0x3f6f5184	0.9348376
105	0x3f6e038b	0.92974156
106	0x3f628067	0.88477176
107	0x3f5f9c66	0.8734802
108	0x3f6d2721	0.9263783
109	0x3f672b16	0.9030012
110	0x3f6cb0bf	0.92457193
111	0x3f62f7ac	0.8865917
112	0x3f663e3a	0.899387
113	0x3f5eac5c	0.8698175
114	0x3f622136	0.88331926
115	0x3f6b3382	0.9187547
116	0x3f61ee04	0.8825381
117	0x3f670753	0.9024555
118	0x3f6d7f00	0.9277191
119	0x3f7089d9	0.9396034
120	0x3f638293	0.88871115
121	0x3f6ed08f	0.93286985
122	0x3f652004	0.89501977
123	0x3f663477	0.89923805
124	0x3f7105cf	0.9414949
125	0x3f69f371	0.9138709
126	0x3f6acbdb	0.9171731
127	0x3f64f6a5	0.8943885

encoder.convs.0.norm.bias f4 [128]
0	0xbc72c9b4	-0.014818598
1	0x3c0e20b4	0.008674789
2	0x3d850cda	0.06496592
3	0x3cfe0f61	0.031013193
4	0x3d28b1ff	0.041185375
5	0xbca3a8db	-0.019977977
6	0x3a91f8c6	0.0011136762
7	0xbd41921a	-0.047258474
8	0xbd12c3f8	-0.03583142
9	0x3c149495	0.009068628
10	0xb904b927	-0.00012657476
11	0x3d7324ac	0.059361145
12	0xbd272a2b	-0.0408117
13	0x3d0879e1	0.033319358
14	0xbcef6be9	-0.02922626
15	0x3d076d2f	0.03306311
16	0x3d90e155	0.07074229
17	0x3cc2dffa	0.023788441
18	0xbce4f4c5	-0.027948746
19	0x3c06e550	0.008233383
20	0xbd16d1ca	-0.036821164
21	0xbd395fea	-0.045257486
22	0x3d3324ce	0.04373627
23	0x3c03820e	0.008026613
24	0x3c1a88c8	0.009432025
25	0x3cee92ba	0.029122699
26	0xbcf3dc5e	-0.029768165
27	0x3c66570c	0.0140588395
28	0xbccdbdb2	-0.025114868
29	0xbbb828ba	-0.0056200894
30	0xbc6198d3	-0.013769346
31	0xbcd1eff9	-0.025627123
32	0xbd2d48d4	-0.042305782
33	0xbd3c05e6	-0.045904063
34	0xbca348b5	-0.01993213
35	0xbcf41d32	-0.029799078
36	0x3d23bc32	0.0399744
37	0x3cdecfd0	0.027198702
38	0xbd5e7ff8	-0.05432126
39	0x3c8d2eb2	0.01723418
40	0xbd16c808	-0.03681186
41	0xbd6849e8	-0.056711107
42	0x3c31e0de	0.010856835
43	0xbc9042fc	-0.017610066
44	0xbc54eb90	-0.012995616
45	0x3cc4fabf	0.024045346
46	0x3c990ea8	0.018683746
47	0x3c55ab29	0.013041296
48	0x3d37bfcb	0.044860642
49	0xbd3dc877	-0.046333756
50	0x3d09f75f	0.033683177
51	0xbd8ae9bb	-0.06782862
52	0x3d1f9ba2	0.038966782
53	0x3bbdfbe1	0.0057978486
54	0x3d00922c	0.0313894
55	0x3cb78a08	0.022404686
56	0xbb211bca	-0.0024583214
57	0x3cb8a07c	0.022537462
58	0x3c5c8eb6	0.013461759
59	0x3d47f335	0.048815925
60	0xbbbf42eb	-0.0058368347
61	0x3d8cce99	0.06875343
62	0xbc163784	-0.009168509
63	0xbb89da43	-0.004206927
64	0x3cf9aae7	0.030477
65	0x3c75e6c3	0.015008631
66	0x3c258bd5	0.010104139
67	0x3db9bd15	0.09069268
68	0x3ccfa849	0.0253488
69	0x3baa3a68	0.005194951
70	0xbc106a17	-0.008814356
71	0x3d1e2482	0.038609035
72	0xbd4cb7dc	-0.04998003
73	0xbc6f6cd4	-0.014613349
74	0xbd284568	-0.041081816
75	0x3ccccb89	0.024999397
76	0x3ddee10b	0.10882767
77	0x3d896153	0.06708016
78	0xbb62319a	-0.0034514428
79	0x3ce86afb	0.028371325
80	0xbc9b9cca	-0.018995661
81	0xbce4580f	-0.02787402
82	0xbcbaea43	-0.022816783
83	0xbd218634	-0.039434627
84	0x3d52ea8b	0.05149321
85	0xbb08780f	-0.0020823514
86	0xbc83338b	-0.016015789
87	0xbd959122	-0.073030725
88	0x3bd63267	0.00653677
89	0x3d269ada	0.04067502
90	0x3b55b618	0.0032609757
91	0xbaf6ebfb	-0.0018838638
92	0xbdb01d69	-0.085993595
93	0xbd0216cd	-0.031760026
94	0x3bc75812	0.006083497
95	0x3cc6a95b	0.024250677
96	0xbcdd163f	-0.026988147
97	0x3cc4495a	0.023960758
98	0xba815502	-0.0009867253
99	0xbd9b5f48	-0.07586533
100	0xbd82dc9f	-0.063897364
101	0x399071f1	0.00027550713
102	0x3c152e26	0.009105241
103	0x3cdc6fcf	0.026908783
104	0x3cf817e2	0.030284826
105	0xbcdc0bed	-0.026861155
106	0xbcf6b0e0	-0.030113637
107	0x3cc71925	0.024303982
108	0x3c9386a6	0.018008541
109	0x3b2e5880	0.0026603043
110	0x3b444e15	0.0029953767
111	0x3d0ae34f	0.033908185
112	0x3da80e52	0.082058564
113	0x3de23286	0.11044793
114	0xbce1b1a4	-0.027550526
115	0x3cb296a2	0.021800343
116	0x3d855197	0.06509703
117	0xbc65202b	-0.01398472
118	0x3c996390	0.018724233
119	0x3d7edb70	0.06222099
120	0x3b57c2ac	0.003292243
121	0x3d6fa3d6	0.058505856
122	0xbd018e5c	-0.031629905
123	0xbcfd6afa	-0.0309348
124	0xbbb7a5a8	-0.0056044646
125	0x3b9ea4bf	0.0048414166
126	0xbc69b5a9	-0.014264503
127	0xbd1c0594	-0.038091257

encoder.convs.0.norm.mean_scale f4 [128]
0	0x3f5d421e	0.8642901
1	0x3f681954	0.9066365
2	0x3f7f15f5	0.9964288
3	0x3f82929f	1.0200995
4	0x3f813877	1.0095357
5	0x3f89019d	1.0703617
6	0x3f5c8f81	0.8615647
7	0x3f75e350	0.96049976
8	0x3f7acc1a	0.97967684
9	0x3f86db30	1.0535641
10	0x3f76e463	0.9644224
11	0x3f87d86c	1.0612922
12	0x3f5d065c	0.8633783
13	0x3f83b2b7	1.0288914
14	0x3f67d6d1	0.9056216
15	0x3f761a63	0.9613401
16	0x3f7ac857	0.97961944
17	0x3f68512a	0.90748847
18	0x3f7725ed	0.96542245
19	0x3f60494b	0.87611836
20	0x3f61b900	0.8817291
21	0x3f73a6be	0.95176303
22	0x3f7e2fc3	0.9929163
23	0x3f68c139	0.90919834
24	0x3f67e71e	0.9058703
25	0x3f71f15a	0.945089
26	0x3f737c0f	0.95111173
27	0x3f754193	0.95803183
28	0x3f5da254	0.8657582
29	0x3f79b67f	0.9754409
30	0x3f71791e	0.94325435
31	0x3f6ee180	0.93312836
32	0x3f8c64f4	1.0968308
33	0x3f5269a0	0.8219242
34	0x3f7e8e84	0.9943621
35	0x3f8d634b	1.1045927
36	0x3f81c3d4	1.0137887
37	0x3f6169a3	0.88051814
38	0x3f86d3ea	1.0533421
39	0x3f76bbe1	0.9638043
40	0x3f809def	1.0048198
41	0x3f5882a6	0.84574354
42	0x3f5859d3	0.8451206
43	0x3f70a7ec	0.9400623
44	0x3f6e94c1	0.9319573
45	0x3f5a369a	0.85239565
46	0x3f78d199	0.9719482
47	0x3f6acdd4	0.9172032
48	0x3f83f0a8	1.0307817
49	0x3f7f75dc	0.99789214
50	0x3f8071e6	1.0034759
51	0x3f851ee4	1.0400052
52	0x3f77cd7c	0.9679792
53	0x3f691233	0.91043395
54	0x3f5f9a07	0.873444
55	0x3f58d079	0.84693104
56	0x3f676330	0.90385723
57	0x3f745457	0.9544119
58	0x3f795e86	0.97409856
59	0x3f67b619	0.90512234
60	0x3f72fb69	0.9491487
61	0x3f863c4c	1.0487151
62	0x3f690cf2	0.9103538
63	0x3f709e2a	0.9399134
64	0x3f733001	0.94995123
65	0x3f74034a	0.9531752
66	0x3f80ed93	1.0072502
67	0x3f838a25	1.0276533
68	0x3f709708	0.93980455
69	0x3f6f0ae7	0.9337601
70	0x3f699ee8	0.91258097
71	0x3f6e3d7a	0.93062556
72	0x3f8417d7	1.0319775
73	0x3f77f4be	0.9685782
74	0x3f708b20	0.9396229
75	0x3f629142	0.88502896
76	0x3f88cff7	1.0688466
77	0x3f7abe41	0.97946554
78	0x3f7c36a4	0.98520875
79	0x3f698c0e	0.9122933
80	0x3f68e122	0.90968525
81	0x3f6cbd4f	0.9247636
82	0x3f69cbac	0.91326404
83	0x3f772cde	0.96552837
84	0x3f82d144	1.0220113
85	0x3f64d651	0.8938952
86	0x3f67ab5d	0.90495855
87	0x3f663090	0.8991785
88	0x3f768b69	0.96306473
89	0x3f82585d	1.0183216
90	0x3f5fb197	0.87380356
91	0x3f71f6c0	0.94517136
92	0x3f438445	0.763737
93	0x3f77f35a	0.968557
94	0x3f2cebb2	0.6754714
95	0x3f7ec099	0.9951263
96	0x3f822a79	1.0169212
97	0x3f6c6cd4	0.9235356
98	0x3f7157bf	0.94274515
99	0x3f763da6	0.9618782
100	0x3f841a8d	1.0320603
101	0x3f73b986	0.9520496
102	0x3f61b0c4	0.8816035
103	0x3f6e7c14	0.9315808
104	0x3f80909b	1.004413
105	0x3f6f63e0	0.9351177
106	0x3f5ce417	0.8628554
107	0x3f700baf	0.9376783
108	0x3f78ddb0	0.9721327
109	0x3f73cbb4	0.952327
110	0x3f732127	0.9497246
111	0x3f6e3e2a	0.93063605
112	0x3f7aa7f9	0.97912556
113	0x3f818ae8	1.0120516
114	0x3f721f45	0.94578964
115	0x3f6a8046	0.9160198
116	0x3f750312	0.9570781
117	0x3f69a0db	0.9126107
118	0x3f75519b	0.95827645
119	0x3f642420	0.8911762
120	0x3f5fa5f0	0.87362576
121	0x3f7c82bd	0.9863699
122	0x3f7f3f5d	0.9970606
123	0x3f75afe4	0.9597151
124	0x3f71fc65	0.9452575
125	0x3f697b67	0.9120392
126	0x3f5f2d82	0.87178814
127	0x3f750960	0.9571743
