checkpoints/model_B_epoch_9.pth (torch, 552085 bytes, 26 tensors)

encoder.node_embedding.weight f4 [1, 128]
00000000: 99c3 f33f 21df ba3f 0ddb 623f ee6c 05c0
00000010: d280 2c3f a375 9bbf 167a 61bd d147 ccbf
00000020: 51ae 3ebf 7bbe d03f eafb c5be d6ac b0bf
00000030: 6738 39bf def2 0cbf 5efe 42bf 9a2e 423f
00000040: 7654 d03f 4467 18be a0e0 fbbe f4da dc3e
00000050: efd9 3cbf 3aee 893f b254 4b3f d0c8 d43f
00000060: ebf6 a13f db94 a13f 620f 1a3f 3cb4 a83f
00000070: 854b 68be 9c1a 8a3c 2d42 7fbe 9d3c 573f
00000080: 7cd0 afbf bb08 5dbf 97b5 5ebe 79ea d93f
00000090: 21e7 9e3e e557 d2be 0ce7 a13e d18f 41bf
000000a0: e287 c6bf 66e9 7c3f dd6b 62bf c927 18bf
000000b0: 70d8 a0bf 8374 0640 1aac 9bbf 61fb f3be
000000c0: f1cf 65bf 79f3 25bf 41ac 983d 31b5 043f
000000d0: e743 f6be 712c 953f 9c9c 4cbf 7571 39bf
000000e0: 41d7 b1bf 3b64 193d 8976 6dbd ac9f 2c3f
000000f0: cdd9 b2bd 31a4 e93f af95 97bf f4c3 af3f
00000100: 0a0a b73f 2df0 593f 689a 0c40 a89a 023f
00000110: f9f1 ab3e 3eee 42be cb59 85bf 6568 a13f
00000120: 835f 29be e3f5 033f 3563 533d baf4 d43e
00000130: 24ed 133f 86d7 20bf 2b81 0bc0 c6ab 3fbf
00000140: 8c07 363c 1b05 b2be 4391 a9bf b6fc 14bf
00000150: 0262 093f ab0c 053f d0e7 913f bdd1 533d
00000160: 8082 3d3f 1b75 f0be 4d3d 85bf 74d7 183f
00000170: 200d dabf a2a0 52bf 70e5 a93f abaf f13e
00000180: bad2 1ec0 ccd9 ee3e 53b6 463f 4900 f33c
00000190: e89e 213f 9fdc 103f e719 873f e7ed dcbe
000001a0: ea88 34be 7a0b 3e3f c452 d23e b5fc 243e
000001b0: 5a18 823e f020 a13f 1c81 acbb abfe 97be
000001c0: 9277 babf b55c cabd 8f5e 17bf 952a ed3e
000001d0: ac32 383f e222 953d 8816 bfbe 8ebc 093f
000001e0: f5cc 55bc 6b8c 663e 2abd 073e 4e14 403f
000001f0: 9972 8d3f 4e9b ad3e 343a 343f 828f cc3e
1.9044067 1.4599344 0.88615495 -2.0847735 0.67384064 -1.2145275 -0.05504807 -1.5959417
-0.74484736 1.630813 -0.38668758 -1.3802745 -0.7235169 -0.55058086 -0.76169384 0.7585236
1.6275775 -0.14883143 -0.49194813 0.43135798 -0.7377004 1.0775826 0.7942611 1.6623783
1.2653478 1.2623552 0.6017972 1.3180003 -0.22685058 0.016858391 -0.24927588 0.84076864
-1.3735499 -0.86341447 -0.21748959 1.702468 0.31035712 -0.41082683 0.31621587 -0.7561007
-1.5510218 0.9879364 -0.88445836 -0.5943571 -1.2566051 2.1008613 -1.2161896 -0.47652724
-0.8977042 -0.64824635 0.0745473 0.51838976 -0.4809868 1.1654187 -0.79926467 -0.72438747
-1.3893815 0.037449103 -0.057974372 0.6743114 -0.087329485 1.8253232 -1.1842555 1.3731675
1.4299939 0.85132104 2.1969242 0.51017237 0.33583048 -0.19036195 -1.0418028 1.2609984
-0.16540341 0.5154707 0.051608283 0.41592962 0.5778372 -0.6282886 -2.1797588 -0.7487148
0.011110198 -0.3476952 -1.3247455 -0.58198106 0.53665173 0.51972455 1.1398869 0.051713694
0.7402725 -0.46964344 -1.0409333 0.59703755 -1.7035255 -0.82276356 1.3273144 0.47204337
-2.4816117 0.4665054 0.77621955 0.029663222 0.63133097 0.5658664 1.055478 -0.43150255
-0.17630354 0.7423626 0.4107877 0.16112025 0.25409204 1.2588177 -0.0052644145 -0.29686484
-1.456774 -0.09880964 -0.5912866 0.4632155 0.7195232 0.07282044 -0.37321877 0.53803337
-0.013049354 0.22514503 0.13255754 0.7503098 1.1050597 0.3390755 0.7040131 0.39953238

encoder.convs.0.node_mlp.weight f4 [128, 256]
00000000: d6be 643d 2e20 0bbc 1d6a 6a3d 156e 7e3c
00000010: 6140 47bd 3331 203d fa4f a8bc 983a e2bc
00000020: 59f8 62bd adfd 6cbd 1a2d 643c 8974 8ebc
00000030: 9623 a63c 1163 60bd cddc 2c3d fec2 2abd
00000040: 07d6 e1bb 10c9 1a3c bea3 e63c 01e2 5c3d
00000050: 16b1 573d b5c1 39bd 2e9b 9f3c b84b bbbc
00000060: 909f 41bb 4297 2ebd 0547 773d f3db 2abd
00000070: a9c2 f03c 3098 c63c 6d68 863c dc40 f3bc
00000080: 3055 573d 8518 203c 950c 8a3b 855b 50bd
00000090: 5f52 f43c b603 57bc 9f5e c9bc 8a7e 4a3d
000000a0: 92e4 233c 5d69 f9bc fe95 10bd 9e35 dfbb
000000b0: dd70 fc3c fa68 45bc adaf 20bd d481 cdbc
000000c0: 4fbb 4dbd 0f67 953c 88f1 523d 0b81 5fbd
000000d0: b76b 2c3c 27fc 123d 193a f23b 19ed d4bc
000000e0: 16c8 e93c b790 113d 9ff9 a53c 1dce e5bb
000000f0: fe21 a2bc af45 2b3c f8d8 72bc 35f5 6fbc
00000100: 613a 323d 4e57 6a3d 5c0f 19bb bd9f 24bc
00000110: 85de 993b d26e f5bb d57f 353c 32ee ad3c
00000120: dbdc 75bd acea 9bbc 4d54 633d b067 e53c
00000130: 39e0 4b3a 8917 29bd f713 2bbd f29c 73bd
00000140: cccf 85bc cc0d 8c3c 0d4c 123d eb0c cb3c
00000150: 20d7 50bd 25f3 08bd 7604 c2bb 88fa 813d
00000160: c07f 523c 2693 a3bc b781 b23c a2ae a1bc
00000170: ef34 34bd 52b0 293d 49aa c7bc cf56 0cbc
00000180: 852f 86bd 5ab4 393d 506b 503d 890a d13c
00000190: 9f7c 21bd 6108 6bbd c8a7 3ebd 0dae 2d3d
000001a0: 2b37 d53c bfd2 653d cffd 143d 9785 9e3c
000001b0: 765f 503b 8892 31bd 3bc5 71bd 4e60 7dbd
000001c0: 81ba b03c 1fb9 0bbd 41e9 85bc 516f 02bd
000001d0: fe3f f4bb a2df 25bd 8e8d 35bd 5e6c c83c
000001e0: 4096 afbc 8112 2c3d af26 85bc d1a2 2abd
000001f0: 85ce e7bb 55ba d6bc 0c9b 77bc 0f1d 62bd
00000200: cd12 1e3d d444 93bd ec02 5c3d d1c6 273c
00000210: a752 0c3d ae5c 95bd 2c0d 933d 0949 c3bc
00000220: 77a1 0a3c 2dd5 5d3d 45b7 9b3b eaf8 c4b9
00000230: 78fa 25bc 7de8 92bd 73f1 543d 904f 25bd
00000240: 57ab b53c d297 0d3d 264a a63d 6dbd 4c3b
00000250: efd5 92bd faa2 d53c f80d b93c 6cc4 0bbd
00000260: 176b 90bc 3c08 84bd 5f83 b43b 336e 13bc
00000270: 956f b5bc 2142 9cbb 7f97 48bd f79e 723d
00000280: 266b 6c3d a879 fabc 86a2 cd3b 39c5 b7bc
00000290: f42e a2bd ae16 9dbd 2517 5e3a 2a7a fdbc
000002a0: dad5 ecbc 1253 31bd a9b6 61bc 4f05 cabc
000002b0: a5ae b33b 3f8c 943b 02ba a2bb 027e 52bd
000002c0: e40b 77bd 7583 7a3d 7fc4 58bc df6a 50bb
000002d0: 807a 83bc edab c13c 720a 023d 3783 6f3d
000002e0: 79f5 82bd e852 a43c 82d6 b43d 231a 36bc
000002f0: 62dd 843d 0176 7c3d 79b9 5e3c 8c3f f53c
00000300: 8e56 23bd 279a 3fba 700f 363d 98c7 583c
00000310: a077 c2bc c78b 74bc d77d 69bd f67b 95bd
00000320: 19bf adbd 1d65 ebbc 5138 933c 6f58 e53c
00000330: e765 8dbd 4fc0 83bd 7435 6f3c cc25 e0bc
00000340: e9ea c4bb 7d0f 163d 271b 0dbd 33b7 c2bc
00000350: b292 263b f478 d7bb c44c 81bc fe19 9ebd
00000360: 1294 56bd 2d2a 66bc 08f0 8d3d b84b 85bc
00000370: 680e f2bc ec4c 373c 2bea d63c 19b1 5e3c
00000380: 4c95 813d 362d f83b d67b 3bbd 0ac8 a03c
00000390: fe71 113d a274 e0bc a53f 5abd b389 8a3d
000003a0: ffca a3bc e411 43bd 6b14 88bd 93df 4fbb
000003b0: a6e3 263d 4cc9 303c 6032 5b3c cbd5 2ebd
000003c0: d866 14bd 9458 8cbc d842 983d 766c 493d
000003d0: 598e 19bd 4a98 9a38 2244 babc 6a38 4cbc
000003e0: 5469 40bb 3c0a 4d3d 9267 5e3d e831 89bd
000003f0: 7546 113d 1351 92bd 0e6c 513d 574e 413d
0.055846058 -0.008491559 0.057230104 0.015529175 -0.04864538 0.03910942 -0.020545948 -0.02761583
-0.055412624 -0.05785911 0.013926769 -0.017389553 0.02028064 -0.054781977 0.04220276 -0.041689865
-0.006891969 0.009447351 0.02815425 0.05392647 0.052659117 -0.04535075 0.019483175 -0.022863254
-0.002954457 -0.04262472 0.060370464 -0.041713666 0.029389696 0.02424249 0.016407216 -0.029694013
0.052571476 0.009771471 0.0042129257 -0.05086853 0.029824434 -0.013123443 -0.024581252 0.049437083
0.010003226 -0.030445749 -0.035299294 -0.0068118116 0.030815536 -0.012048954 -0.039230037 -0.025086321
-0.05022746 0.018237619 0.051499873 -0.054566424 0.010523728 0.035885002 0.0073921797 -0.025991963
0.028537791 0.0355384 0.02026063 -0.007013096 -0.0197916 0.010453626 -0.014822237 -0.014645864
0.043512706 0.057212166 -0.0023355102 -0.01004785 0.004695716 -0.0074900175 0.011077841 0.021231744
-0.060025077 -0.019032799 0.055500317 0.028003544 0.0007777247 -0.04128221 -0.041767087 -0.059475847
-0.016334437 0.017096423 0.03571706 0.024786433 -0.05098641 -0.033435006 -0.005920942 0.06346613
0.012847841 -0.019967627 0.021790368 -0.019736592 -0.043995794 0.041427918 -0.02437319 -0.008565619
-0.065520324 0.045338012 0.05088359 0.025517719 -0.03942549 -0.057381038 -0.046546727 0.042402316
0.026027283 0.056109186 0.036374863 0.01935081 0.003179518 -0.043352634 -0.059025984 -0.06185942
0.021573307 -0.034112092 -0.016346576 -0.03184444 -0.0074539175 -0.040496476 -0.04432445 0.024465736
-0.02143395 0.042009834 -0.016253797 -0.04165918 -0.0070741796 -0.026211897 -0.01511265 -0.055203494
0.03859215 -0.07190862 0.053713724 0.010240273 0.03425851 -0.07293068 0.07180247 -0.023838537
0.008461348 0.05415838 0.004752072 -0.0003756949 -0.010130517 -0.0717325 0.051988076 -0.04035908
0.022176428 0.034568615 0.081196114 0.0031240836 -0.07169711 0.02607869 0.022589669 -0.03412287
-0.01762919 -0.06446883 0.0055088247 -0.0089984415 -0.022147933 -0.0047686254 -0.048972603 0.059233632
0.057719372 -0.030575588 0.006275478 -0.02243291 -0.07919112 -0.076703414 0.0008472077 -0.030942041
-0.028910566 -0.043292113 -0.01377646 -0.024660734 0.0054834657 0.00453332 -0.0049660215 -0.0513897
-0.060314074 0.061160523 -0.013230442 -0.0031801981 -0.016049623 0.02364155 0.031748243 0.058474746
-0.063944764 0.020059064 0.088299766 -0.01111463 0.06487538 0.061635975 0.013594025 0.029937528
-0.039877467 -0.0007309042 0.044448316 0.013231181 -0.023738682 -0.014925904 -0.057004776 -0.07299034
-0.084837146 -0.028734738 0.01797119 0.02799627 -0.06904202 -0.06433164 0.014600147 -0.027361773
-0.006009449 0.036635865 -0.034449723 -0.023768997 0.0025417027 -0.006575698 -0.015783675 -0.07719801
-0.052387305 -0.014048141 0.06930548 -0.016271457 -0.029547885 0.011187773 0.026234707 0.013592028
0.06327304 0.007573749 -0.045772396 0.019626636 0.035509102 -0.027399365 -0.053283352 0.06764545
-0.019994257 -0.047624484 -0.066445194 -0.0031718954 0.040744446 0.01079018 0.01337871 -0.042684358
-0.036230892 -0.017132081 0.074346244 0.049175702 -0.03748927 7.371658e-05 -0.022737566 -0.012464622
-0.0029359655 0.05005859 0.05429799 -0.06698972 0.035467584 -0.0714437 0.05112844 0.04719385

encoder.convs.0.node_mlp.bias f4 [128]
00000000: 63d1 37bd a593 473c 03c1 863b 3e7b 7d3d
00000010: 5bba 083d 89bb efbc d95a 03bc 0ca8 42bd
00000020: ba28 3aba 02a9 92b9 1e3e 4d3d 47a1 5e3d
00000030: 592d 53bd 59ec 613d 066d 3fbd aea6 6b3c
00000040: 0c3f 103d 83f9 c53c 9dd4 393d 1252 37bc
00000050: 0957 573d c17b 8b3b 0f4b 193c cd55 92bc
00000060: a8aa 6cbd 8cdf bebc 3149 803b ebab 803c
00000070: db07 dabb 379c 2ebb 8c6d 5cbb 5e5f c9bc
00000080: 6df5 82ba 9f5f 43bd ebfd 283c 558f 1f3d
00000090: 6e3c e9bc 90df f63c 80c8 c0bc 4e7a 95bc
000000a0: d0d7 193d 1c1c 60bd 1454 043d 3e1b 443d
000000b0: 78d9 3e3c 79f5 013a 33be c8bc b95a 10bd
000000c0: 4067 4b3d de0b 353c dcf6 033d c6e7 11bd
000000d0: 10f5 063d 9dfe 0abd b1d3 3f3d 4b91 123d
000000e0: 7cfb 7cbd 2bcf 2fbd 62a2 59bd d390 dbbc
000000f0: b62d 8c3c adf6 6fbd db32 533d 9467 23bd
00000100: b649 26bc f46f 153c 6565 2ebd 54f4 5cbc
00000110: 8a1c 7cbd 7f21 51bd ec04 733b 53c7 dbbc
00000120: f7f9 2a3d 99bb 3dbd 3d8d 393d 08c8 403d
00000130: af3c ccbc 89f3 30bc 880b 433c 63af e0bc
00000140: b52f e23c 97d1 30bc 047a 3abc ba26 45bd
00000150: 0915 613d 0fc9 7fbd 11e8 76bc ac55 143d
00000160: 1564 f8bc 3fa1 c03b 9b53 433d 423f e13c
00000170: ce63 0d3d f929 3dbd 673b 053d 0dd2 9a3b
00000180: a389 c5bb 3b03 a9bc 2557 85bc 9132 213d
00000190: efc9 393d 23ec 33bd 228e 553d d4b0 7a3d
000001a0: 7716 dabc 0f5f 513c 1d14 df3c 5d04 55bd
000001b0: 5420 a13c aa8f 863d 852a 96bc 9b48 60bd
000001c0: 2d5c 42bd d5ef 2d3d 03f9 55bc 99c0 40bc
000001d0: a909 833c fb69 563c 9d73 103d 8b64 fcba
000001e0: 1481 75bd a0d6 043d 90b4 283d 2eda 223b
000001f0: bc40 f5bc 8319 91bc 936c 083d bd67 463d
-0.04487742 0.012181197 0.0041123643 0.06188511 0.033380847 -0.029264228 -0.008017265 -0.047523543
-0.00071014056 -0.0002797321 0.050108068 0.054353025 -0.05155692 0.05515704 -0.046734832 0.014383001
0.035216376 0.024166828 0.04536878 -0.011189001 0.052573238 0.004256696 0.009356274 -0.017863179
-0.057779938 -0.023299955 0.003914975 0.015706977 -0.0066537685 -0.0026643404 -0.003363463 -0.024581607
-0.0009991355 -0.047698613 0.010314445 0.03895505 -0.028471198 0.0301359 -0.023533106 -0.018246796
0.03755933 -0.054714307 0.032306746 0.047877543 0.011648528 0.0004957538 -0.024504757 -0.03524277
0.049659014 0.011050193 0.032217845 -0.035621427 0.032948554 -0.033934224 0.046832744 0.035783093
-0.06176327 -0.04292218 -0.053133376 -0.026802456 0.01711164 -0.058584858 0.05156217 -0.0398937
-0.01014941 0.00912093 -0.042577166 -0.013485987 -0.061550654 -0.051057335 0.003708179 -0.026828444
0.04174229 -0.046321485 0.04530071 0.047065765 -0.02493128 -0.010800251 0.011904605 -0.02742738
0.02761064 -0.010792158 -0.01138163 -0.048132636 0.0549517 -0.062447604 -0.015069977 0.036214516
-0.03032116 0.005878597 0.047687154 0.027495984 0.03451901 -0.046182606 0.032527354 0.004724747
-0.0060283705 -0.020631423 -0.016276905 0.039354865 0.045358595 -0.04392637 0.0521375 0.061203793
-0.02662204 0.012779011 0.02723127 -0.052006114 0.019668736 0.065703705 -0.018330822 -0.054756742
-0.047451187 0.04246505 -0.013059857 -0.011764669 0.015995817 0.013086791 0.035266507 -0.0019256038
-0.05993755 0.032431245 0.041187823 0.0024849284 -0.029938094 -0.01771236 0.03330667 0.048438776

encoder.convs.0.edge_mlp.0.weight f4 [128, 7]
00000000: 1378 a4be 78ee 733d f353 0c3d 9298 9c3d
00000010: e93d 14be bbf9 a1bc e798 c2be 2d1a f7bc
00000020: ddc9 90be 3126 993e a0f6 373e 11f9 2c3e
00000030: 4e9b 4dbe 4a1b 29be a084 943d 4e0b 66ba
00000040: c07b 50bb 19d2 af3d 1b49 283d 569f 9bbe
00000050: c860 cd3e 498a 16be 6edc b33d c3a2 79be
00000060: 9761 b33e 4096 1fbe 5903 5f3e c13a 2b3e
00000070: bed6 afbd d83f 243d 4835 81be 1554 bcbe
00000080: b1de f63d b82f 753e 066e afbe a421 09be
00000090: 7863 a5be f0f0 a1be a0ae 793d d587 adbd
000000a0: 3997 ba3e d871 8b3e 6fc6 69be 4637 8b3e
000000b0: 4877 813e 5302 943e 3c60 17be 0796 11bd
000000c0: 33e0 72be e395 42be 58b8 a23e 85de 9a3e
000000d0: b4eb d5be 1c33 123e abcb 07be 7875 a7be
000000e0: 3224 3d3e b1c1 d43d f416 00be dab6 d33e
000000f0: 730c 3fbe 58ae 5a3e de5e 873e 1446 57be
00000100: f638 243e c9a5 27be 934d 5cbe 0d75 473e
00000110: 1fd1 b03e 4a93 8ebe a5cf c03e 46af 9fbe
00000120: 4263 093e 36d9 97be 96cd 6cbd a5ee 9bbe
00000130: 1da3 b43e 59c5 3dbe fc5b 93be d504 2dbe
00000140: fa2d 893e 2663 323e 5c58 213e c755 a23e
00000150: 40d5 abbd 4ebe 793e 2f64 b9be 4bf1 81be
00000160: de93 7c3e 6d93 84be dddb 153e 4819 bc3d
00000170: 3287 4f3e 44d1 983e 409d 9e3d 264c 71bd
00000180: ea07 aebe 7f6f 75be ca59 bfbd 2722 1b3e
00000190: 1f1e 56be e6ba ecbd abf9 61bd 5e7d 3f3b
000001a0: bc81 8abe 2f0c 523e 9376 553d 08f3 973e
000001b0: 38a6 95be aa33 9cba 2364 b13d 85c9 2c3e
000001c0: d677 84be 17b9 1ebe aa57 a4bc 767f 58be
000001d0: 41dd 8dbe 26d9 5a3d 5b9f 823e 9fe4 c2be
000001e0: 5a79 a1bd 650f d0be b5a2 df3d 5ca4 303e
000001f0: 7e2e bdbe 8e36 f83d 3de7 e5bd a6e5 58bd
00000200: 369e 92be 4149 ebbc 841c 4b3e 5bf9 42be
00000210: b598 e5bd d732 6ebe 4bf7 0cbe a6d7 a63e
00000220: 688e 803e f3d1 3fbe 4b15 b53e 4568 013e
00000230: 872c f83d 9e93 82be 505c bdbd 6f2a b33e
00000240: 7301 8c3e 5b63 4e3e 29ff 33be 32ad ffbd
00000250: cf50 f83d 118f 153e 1faa 16be d3a9 7abe
00000260: ca75 8bbe 5146 a3be c906 0fbe 888a 453e
00000270: d984 36be 829e 033e 27c4 84be bc87 53bc
00000280: a4f2 53be f040 3abe 81a7 7e3e 8401 ae3d
00000290: b463 ac3e 5c78 e63d 1831 923c a36d 983e
000002a0: 21f4 8ebe ba75 453e 6bf6 bc3c 109c 44bd
000002b0: d12f 8cbe be7b e4bb 864d 96be a72c 643e
000002c0: def8 51be 0740 86bd 4815 d13e 6352 853c
000002d0: a6cd 98be 4b90 003e 3564 b63d 39b7 5ebe
000002e0: a751 97be 369b c8be ece8 8ebe 7f36 103d
000002f0: 45fa b7be 9884 abbe 83c0 e73d 236e 9ebe
00000300: 77a4 b1bc d07a a63d 2c65 a13e 8b8b f0bb
00000310: 6ec1 843d b995 8b3e f044 b43d 8154 a73e
00000320: 63a9 90bd 359a c13e a91b 86be 2471 873e
00000330: 1046 e33d c026 f0b9 435a c93e 30fa 543e
00000340: 89b2 843d 2c23 8dbd fb51 b13e cbd2 5d3d
00000350: 0a0d cb3d 55e8 ff3b c28d edbd 0fac 42be
00000360: 2f9b 7c3e d018 aa3d 3e69 2c3d d7ae ab3c
00000370: d1f6 14be d4e6 b1bc 7781 43be c3fe 5b3d
00000380: 9811 243e ad23 c6be 9fb9 aa3e 0a19 1abe
00000390: 32b3 873e fea8 a43e 3452 0b3e f877 b03e
000003a0: 3af1 91be df3f b0be 2dbb 7a3d 09d7 16be
000003b0: d7e7 35be 25d0 f43b adcc 69be ca75 b63c
000003c0: 779a 5dbe 848f 243e e311 f63d c142 85be
000003d0: 6cc3 09be f6c9 cebb 657d 823e a93f a13e
000003e0: 2c32 3d3e 4310 733d 3745 d8bc cdb5 c23e
000003f0: 5fdc 3dbe 7ebd 3dbe 3d3a 503d 6ed4 58be
-0.3212286 0.059553593 0.034259748 0.07646288 -0.14476742 -0.019772401 -0.3800728 -0.030163849
-0.2827901 0.2991195 0.17965174 0.16891886 -0.20078775 -0.16514316 0.07251859 -0.0008775488
-0.0031812042 0.08584995 0.041085344 -0.30395 0.401129 -0.14701189 0.08782278 -0.24378495
0.35035393 -0.1558466 0.21778621 0.16721632 -0.08585881 0.04009995 -0.25235963 -0.367829
0.12054194 0.23943985 -0.3426363 -0.13391739 -0.3230245 -0.31629133 0.06095755 -0.084731735
0.364435 0.27235293 -0.22829603 0.27190608 0.25286317 0.28908023 -0.14782804 -0.035543468
-0.23718338 -0.1900249 0.31781268 0.30247894 -0.4178139 0.14277309 -0.13261287 -0.3270681
0.18470839 0.10388506 -0.12508756 0.41350442 -0.18657093 0.2135557 0.26439565 -0.21022826
0.16037354 -0.16371836 -0.21513967 0.19478245 0.34534547 -0.27846748 0.3765842 -0.3118841
0.1341677 -0.29657906 -0.05781325 -0.3045551 0.35280696 -0.18532313 -0.28781116 -0.16896375
0.2679289 0.17420635 0.15756363 0.31706068 -0.083902836 0.24389002 -0.36209247 -0.25379404
0.24665782 -0.25893727 0.14634652 0.091845095 0.20266417 0.29847157 0.07744837 -0.05891051
-0.33990413 -0.23968314 -0.09343298 0.15149747 -0.20909928 -0.115590855 -0.055169743 0.0029219012
-0.27052104 0.2051246 0.052115034 0.29677606 -0.29228377 -0.0011917253 0.08661678 0.16873749
-0.25872678 -0.15500294 -0.020061333 -0.21142372 -0.27707866 0.053429745 0.25512204 -0.3806505
-0.07884474 -0.40636745 0.10919706 0.17250198 -0.36949533 0.121197805 -0.11225746 -0.052953385
-0.2863633 -0.028721454 0.19835097 -0.19040434 -0.11210767 -0.23261581 -0.1376621 0.32586402
0.25108647 -0.18732433 0.35367808 0.12637432 0.12117868 -0.25503248 -0.09246123 0.34993312
0.27344856 0.20155089 -0.17577805 -0.12484206 0.12124788 0.14605357 -0.14713334 -0.24478845
-0.27238303 -0.31889585 -0.13967432 0.19291127 -0.17824115 0.12853435 -0.25930902 -0.01291078
-0.20698029 -0.18188834 0.24868585 0.08496383 0.33669817 0.112534255 0.017845675 0.29771146
-0.2792063 0.1928319 0.02306672 -0.048000395 -0.2738023 -0.006972759 -0.2935602 0.22282659
-0.20505092 -0.06555181 0.4083655 0.016274637 -0.29844397 0.12555043 0.08905832 -0.21749581
-0.29554483 -0.39180917 -0.2791208 0.03520822 -0.35933128 -0.33499599 0.113160156 -0.30943403
-0.021684868 0.081288934 0.315225 -0.0073408536 0.06482206 0.27262667 0.08802211 0.3268166
-0.07063558 0.37812963 -0.26192978 0.26453507 0.11097348 -0.00045805238 0.39326677 0.20798564
0.064793654 -0.06891474 0.3463286 0.054156106 0.099145964 0.0078096786 -0.11599304 -0.19010948
0.24668573 0.08305514 0.042092554 0.020957394 -0.14547278 -0.021716513 -0.19092356 0.053709757
0.16022336 -0.38699093 0.33344743 -0.15048614 0.26503903 0.3216018 0.13605577 0.3446653
-0.28504354 -0.3442373 0.06121366 -0.14730467 -0.17764221 0.007471102 -0.22831984 0.022272963
-0.21640955 0.16070372 0.1201513 -0.26027492 -0.13453454 -0.0063106967 0.25486293 0.3149388
0.1847617 0.05934168 -0.026400192 0.38029328 -0.18541096 -0.18529317 0.05083679 -0.21174785

encoder.convs.0.edge_mlp.0.bias f4 [128]
00000000: 9490 ba3d b635 283e 9ad1 76be 9f01 033d
00000010: 890d 93bd ea1c 753e 5825 1fbd b741 70be
00000020: b0ed 5c3e 661d 16be 4028 c0bc f3a2 78bd
00000030: d23d 3e3e f924 83bd 1a32 063e d35f 88be
00000040: 249a 91bc 7506 ad3e 7ed1 5cbe 30ee 5fbd
00000050: 3055 12bc 65be 7f3d 9c7f 15be 9113 033e
00000060: 403c eebd 7b4b 703d b7eb b43e f864 9e3e
00000070: f0ef debd 7bce 31be 21fc 53be 1248 72bd
00000080: 129d 993c e40c 0b3e 0615 f3bd cc5d 403e
00000090: 8216 adbc d202 a93d 3c3f b33e 3517 553d
000000a0: 8df7 e43b 85aa acbd 9f6c 833e 1304 a1be
000000b0: 8fcd 22be 6631 623d 64c9 643e a2db b9be
000000c0: 2300 67bd 209b e73d 7c2f a73e 6646 423e
000000d0: dcaa a33e 4eea 87bd 7bd2 b6be d7fc d03d
000000e0: 93c6 7a3e e82e cb3c 3698 7b3d f821 b53e
000000f0: 9086 a9be d241 853d 8e9a ce3d 3392 963d
00000100: c782 cbbd 95b0 08be 95ba 5c3e fe05 a53d
00000110: 19ec d93d 117a 1e3c 61d5 68be 326e 263e
00000120: 7c74 4abe 0c33 6bbe 096b 2ebe bdcd 98be
00000130: 7c0e 9bbe a656 5fbc 4f42 c4be c4a3 8d3e
00000140: 97a0 90be 3f7b 0c3e 154d 283e 7590 07be
00000150: bf07 b43d ec0b b43e cf32 b2be fea0 843c
00000160: d6e9 843e 9515 b73e cbf4 ce3d 5276 a73e
00000170: 1458 48be e3c3 b33e 1c51 573d ad37 87be
00000180: 2bcf 673e a168 9b3e 495a 99be 86fc 363e
00000190: 4db6 ca3d 057c 9b3e 351a acbe cad6 283e
000001a0: 368c b33e fb28 edbd f867 f23d fd8b acbe
000001b0: 0d07 b73d 87a9 85be a7cb aabe 2705 463e
000001c0: 4779 3e3e 4e29 543e 176c 933e 5eed 99bd
000001d0: fdbb 82be ec78 623e b8fe 963e 224d 96be
000001e0: d3b9 99be b6c4 64be 06b6 72be 3189 693e
000001f0: 39ba aabe 5abd eb3d 2e1a 693d be9b 8bbe
0.09109607 0.16426739 -0.24103394 0.031983968 -0.07180316 0.23936811 -0.038853973 -0.23462568
0.21575046 -0.14659652 -0.023456693 -0.060702275 0.1857827 -0.06403536 0.1310505 -0.26635608
-0.017773695 0.3379399 -0.2156429 -0.054670513 -0.008931443 0.062437434 -0.1459946 0.12800433
-0.116325855 0.058665734 0.35336086 0.30936408 -0.10885608 -0.17363922 -0.20701648 -0.059150763
0.018751655 0.13579136 -0.11869244 0.1878578 -0.021128897 0.08252491 0.35009181 0.052024085
0.006987518 -0.084309615 0.2566881 -0.3144842 -0.15898727 0.05522289 0.2234245 -0.3630038
-0.056396615 0.113088846 0.32653415 0.18972167 0.31966293 -0.06636487 -0.3570746 0.102044754
0.24489813 0.02480264 0.061424457 0.3537748 -0.33110476 0.06506695 0.10088073 0.07352104
-0.09937053 -0.1334861 0.2155555 0.080577835 0.10640735 0.009672658 -0.22737648 0.16252974
-0.19770998 -0.22968692 -0.17033018 -0.29844466 -0.30284488 -0.013631498 -0.3833184 0.27664006
-0.2824752 0.1371889 0.16435654 -0.132387 0.0879054 0.35165346 -0.3480439 0.016190048
0.25959653 0.35758653 0.10105284 0.3270746 -0.19564849 0.35110387 0.052567586 -0.26409665
0.22637622 0.30353263 -0.29951695 0.17869768 0.09898052 0.30368057 -0.33613744 0.16488186
0.3506791 -0.11580082 0.11836237 -0.33700553 0.08936892 -0.26105902 -0.333585 0.19337903
0.18600951 0.20718881 0.28793404 -0.07515977 -0.2553405 0.2211644 0.2949121 -0.29355723
-0.30024585 -0.22340664 -0.23702249 0.2280624 -0.33345202 0.11510725 0.056909733 -0.2726726

encoder.convs.0.edge_mlp.2.weight f4 [128, 128]
00000000: cc4a aebd e691 7e3d ba8e 29bd e2fc 43bd
00000010: 8083 783b eb90 98bd 2ce8 ddbb 979d 01bd
00000020: 484c d2bc 9c36 d3bd e744 2dbd 9e50 a53d
00000030: 1a84 f5bc 6575 353d 2662 983d 6480 f4bb
00000040: d2ac 753d fb67 fdbc b046 85bd 0e59 4b3d
00000050: 3d5d 463d c410 ef3b f194 83bd 17f5 b7bc
00000060: b94e 853d f98b db3d 937d 8bbd d566 343d
00000070: 20aa 90bd 5947 02bc 784f 163c 6b2d 89bd
00000080: f933 61bb 3cab 15bc da30 a13d bd2b 09bd
00000090: f91e 4ebd 8c6f 2f3c 197e c03d fa6f c43d
000000a0: eab8 1b3d 7d47 91bd 33bd 523d a975 d0bc
000000b0: cfdb a1bd 5171 9abc 860f 9abd 5254 2ebd
000000c0: 691b 233d afc8 c73d 775d 75bd d7c6 e53c
000000d0: 12bd a73c 249f 82bd 6f7d b4bc dcfb 1abd
000000e0: 52a6 5ebd 41c7 c43d 4c6b b53d 9de5 083d
000000f0: 72dd bbbc 89cd 67bc afd5 113d fd31 98bd
00000100: aff0 66bd 1305 823d 9545 863d c3f1 75bc
00000110: 1755 5fbd 1bc5 7f3d ad71 973d a427 8abd
00000120: 6a76 adbc 4d0b aebd 1494 03bb 5ee4 9c3d
00000130: d648 aabd ed18 95bd 1806 33bc 95b8 f03c
00000140: 5ba6 a03d bdcd 1d3d be38 963d 0415 a73d
00000150: a357 4e3d 4328 33bd 881d 7cbd 51b1 8d3d
00000160: 6dd3 ddba 94bc a1bd c3a4 6e3d 9cc6 95bd
00000170: 189e bcbb ac37 cc3d e513 a43d 0593 86bc
00000180: 3d7e a03c b982 d23c d00d e0bc 9d56 67bd
00000190: b0e8 a53d 95ff 9cbd cfbd 243c ef99 d0bc
000001a0: cc02 173d 6317 cdbc 98fd 613d fb78 87bd
000001b0: be14 1dbd f980 7a3d c859 673b 566d ef3d
000001c0: f546 39bd 2972 5b3d 7ba7 4a3c d7f8 573d
000001d0: 6c75 98bc ae43 17bc 59f2 cb3b 6cd5 75bd
000001e0: a1ed df3b 6337 42bd 9068 133d 6358 963d
000001f0: 8dbc fcbc 0cbd 2dbc 9dda 083d a98a 35bc
00000200: 7f95 24bd 7c20 debc 6be1 9f3d e45b b03b
00000210: 0b4a 953d 5079 8e3d 5253 613d 8c4e 25bc
00000220: 11b2 e0bb 21cf 58bd feaf ba3d 5a73 cdbc
00000230: 54ef 253d a76f a9bd 8f87 c1bd 1fc2 6dbb
00000240: 4170 12bd 3dbf f6bc b8ca 4cbd e67e a53d
00000250: 5024 e63c 7533 1ebc 60a5 a4bd 4efe 44bb
00000260: fab3 d43c 6613 c63d d1c2 28bc 4eba 71bd
00000270: 148a b93d 91bc 1cbd 6b9e 1bbd 412e 4b3d
00000280: 6e8f 453d 6660 313c e90c 303d 57d1 4e3d
00000290: 61e1 e43d 8826 a93d 35a1 2c3d 7835 ed3d
000002a0: e0e5 9ebd a83b 25bd 01d9 43bd e97c b4bc
000002b0: 1e14 dd3d e6c4 023d c0ae 8fbc df39 5dbc
000002c0: 39c4 54bd 4888 eabb 69ff d73d 63ed 77bd
000002d0: cd9d 023d 7330 143c fbb4 a53d 9d12 80bb
000002e0: 21b8 92bc 5dd4 30bc f8ae 29bd 9b62 66bd
000002f0: d403 40bd c3c4 293c dc03 7e3c 8f21 863d
00000300: 9467 833a 6649 fdbc 3f8b acbd c75d abbd
00000310: 980c 7bbc 566e d93c 1135 a73d ae45 cc3d
00000320: 0131 a73d b56c 553d e651 a03d 8686 883c
00000330: 4b8c e83c 47cf 24bd 5966 80bd 0b14 473d
00000340: 6650 5e3d c877 7cbc 0171 b53d 8a08 0ebd
00000350: 7f07 b8bd 2a06 bb3d 6938 cfbd 4ed6 3a3d
00000360: 39f1 8b3d 3e3b 0f3d d82f 553a fb68 cabd
00000370: 690e d93d 3c5c 313c 5613 603d 634b e5bc
00000380: 3224 c4bc a9ae 7dbd 671f ac3d e993 acbd
00000390: de41 12bd f9c0 943d 6c9b bb3b 8add 063b
000003a0: 715d a3bd 0f3e 88bd 65e3 1ebc 0e3c e03c
000003b0: a24c 5f3d 6032 123d e8fb 953d 4448 613d
000003c0: 8033 903c 8655 7ebd b2e6 d4bb a7fe 173c
000003d0: 7455 9e3c 1045 823d b390 943d c9bb 283c
000003e0: 67b4 b8bd a6f9 4cbd dbc8 273c b687 963d
000003f0: dfda 8cbc 235f 1dbd b85e 7f3d 95c4 e9bc
-0.0851036 0.06215086 -0.04139588 -0.04784859 0.0037920177 -0.07449516 -0.006772062 -0.03164443
-0.02567114 -0.1031315 -0.04230204 0.08072017 -0.029970217 0.04430141 0.07440595 -0.0074615944
0.059979267 -0.03093337 -0.06507623 0.049645476 0.048428763 0.0072957 -0.06424893 -0.022455735
0.06509156 0.10720057 -0.06811061 0.04404338 -0.07063699 -0.007951581 0.00917422 -0.06698116
-0.0034363254 -0.009135064 0.07870646 -0.033488978 -0.050322507 0.010707747 0.09399051 0.0959167
0.038018145 -0.070937134 0.051449966 -0.02544673 -0.07903253 -0.018852862 -0.07522492 -0.042560883
0.039821062 0.09755074 -0.05990359 0.028048916 0.020475898 -0.0637801 -0.022032468 -0.037837848
-0.054357834 0.09608317 0.08858356 0.0334221 -0.022932742 -0.0141481245 0.035604175 -0.074314095
-0.056381878 0.06348624 0.065562405 -0.015011254 -0.054524507 0.062443834 0.07394729 -0.06745842
-0.021174628 -0.08498249 -0.0020077275 0.07660745 -0.083146736 -0.07280145 -0.010926746 0.02938489
0.0784423 0.038526285 0.073350415 0.08158305 0.050376546 -0.04373957 -0.0615516 0.06918586
-0.0016923972 -0.078972965 0.058262598 -0.07313272 -0.005756151 0.09971556 0.08011607 -0.016427526
0.019591445 0.025697099 -0.027350336 -0.056479085 0.08101022 -0.07665936 0.0100550195 -0.025464026
0.0368679 -0.025035566 0.055173486 -0.06614872 -0.03834986 0.061158154 0.0035301317 0.11690776
-0.045233686 0.05357567 0.012369032 0.052727547 -0.018610679 -0.009232445 0.0062239585 -0.060017988
0.0068337475 -0.047416102 0.03598839 0.07341077 -0.030851627 -0.010604154 0.03341161 -0.011080422
-0.040181633 -0.0271151 0.07806667 0.005382048 0.07289513 0.06956732 0.0550111 -0.010089528
-0.0068571647 -0.05293191 0.09115599 -0.025079418 0.040511444 -0.08273249 -0.09449684 -0.0036279035
-0.035751585 -0.030120486 -0.049998015 0.080808446 0.028093487 -0.009655823 -0.08039355 -0.0030058804
0.025964726 0.09671669 -0.010300354 -0.059015565 0.090595394 -0.03826577 -0.037992876 0.049604658
0.04823249 0.010826206 0.042981062 0.05049261 0.111758 0.082593024 0.042145927 0.11582464
-0.07758689 -0.040340096 -0.047814373 -0.022032218 0.10794853 0.03192606 -0.017539382 -0.013502567
-0.051944945 -0.0071573593 0.105467625 -0.060529124 0.03188877 0.009044754 0.0809116 -0.003908469
-0.017910065 -0.010792819 -0.04142663 -0.05624638 -0.04687865 0.010361853 0.01550385 0.065493695
0.0010025376 -0.030918788 -0.084249966 -0.08367496 -0.015322827 0.02654187 0.081644185 0.09974228
0.08163644 0.052105624 0.07828121 0.016665708 0.02838721 -0.040236738 -0.06269521 0.0486031
0.054275893 -0.015409417 0.088594444 -0.034676112 -0.08985805 0.09132035 -0.10118181 0.045614533
0.06833119 0.034968607 0.00081324345 -0.09883305 0.10598452 0.010825213 0.05470594 -0.027990049
-0.02394304 -0.061934147 0.08404427 -0.08426649 -0.035707347 0.07263369 0.005725315 0.0020578825
-0.07976807 -0.06652462 -0.00969777 0.027372386 0.054516442 0.035692573 0.07323438 0.05500056
0.017602682 -0.06209328 -0.0064972276 0.009277022 0.019327857 0.06360829 0.07254162 0.010298678
-0.09018784 -0.05004277 0.010240759 0.073501036 -0.01719421 -0.038420808 0.06234619 -0.02853612

encoder.convs.0.edge_mlp.2.bias f4 [128]
00000000: b935 f93c d2dd 88bd d114 3ebc d3b4 133d
00000010: 7202 13bd fb56 073d fbeb fcbc b277 acbd
00000020: b14f 7fbd cb3b 333b 00fe a5bd 6f8a 903d
00000030: 108d 193d 07cf b63d cb47 97bc 00d3 703d
00000040: d3e0 87bd 07d0 d83c e588 173d 992a 2c3c
00000050: e6a4 17bd 1a46 1cbd 3efb d2bc 0f50 973d
00000060: 8dfd 9d3c 17fa e2bc 0c93 02bd cbc7 a3ba
00000070: 3667 d13c b669 a43d 205c 373d d2db 853d
00000080: 3d9e 29bd 87ab c33c 60c8 703d e399 753d
00000090: d9d3 9f3c fde0 9f3d 1338 54bd 2259 b0bd
000000a0: 9897 873c bd52 833d 9103 093d 5f12 8cbd
000000b0: 650c 9f3d 6eee 9abd d1d7 843d b22c c8bc
000000c0: 111e b03d 2236 1c3d ed2d 623d 8063 793b
000000d0: 3914 b8bd cf96 83bd 4c00 87bd 8b65 28bd
000000e0: 4207 ccbc 8de8 a23c b1a5 b7bd 6908 88bd
000000f0: dd92 efbb 4ee6 e7bc 8e16 a8bc 6941 acbd
00000100: ac18 95bd 482b adbd 2c71 43bd 2de3 51bc
00000110: 92c5 85bd 2eb6 94bd be6c a7bc 122a b73d
00000120: e8f9 9b3d 418c 01bc 74d6 7abd 7db0 8f3c
00000130: ff20 94bd e835 8dbd 774c 03bb 500a a63c
00000140: b6f8 0dbd 96b7 05bc aafc d33b 4d16 69bc
00000150: 3656 9f3c 2a38 0c3d 1066 6cbd a563 18bc
00000160: 00e3 96bd 3845 40bd 61c0 c3bd b0c3 8cbd
00000170: 91d6 85bd 560a b73b c36a b0bb c4a1 ce3c
00000180: 4256 693d b5a8 b43c ff3b 8abb 0393 053d
00000190: d952 40bd 1443 ceb8 5579 e43c 0f51 773d
000001a0: ea27 a73d 3c53 92bd 70cc cc3b d645 a03d
000001b0: 0121 763c 55cb b8bd cd05 5e3d c8d8 8cbd
000001c0: 239d 91bd b505 77bd 7fb4 8b3d 0c71 9a3d
000001d0: ac45 eabc 5be6 fa3c 3965 a13c b348 cdbd
000001e0: 12bf 53bd 86a9 24bd 90fb 22bb 6c2b cfbc
000001f0: 2ba1 823d 0e58 47bd 0230 47bd a260 74bb
0.030421125 -0.06682934 -0.011601643 0.03606112 -0.035891004 0.033041935 -0.030874243 -0.084212676
-0.06233186 0.0027348872 -0.08105087 0.07057654 0.037488043 0.08926206 -0.01846685 0.058794975
-0.06634679 0.026466383 0.036995787 0.010508203 -0.037022494 -0.03815279 -0.025754567 0.07388317
0.019285941 -0.027707143 -0.031878516 -0.0012495456 0.02556191 0.08027975 0.04476559 0.06536068
-0.041410673 0.023885502 0.058784842 0.05996121 0.019510197 0.07806585 -0.05181129 -0.08610751
0.016551778 0.064122654 0.033450667 -0.068394415 0.07766036 -0.07565008 0.06486476 -0.024435375
0.08599485 0.038137563 0.05521958 0.0038053691 -0.08988232 -0.06425249 -0.065918535 -0.041112464
-0.024905805 0.01988628 -0.0896715 -0.06642229 -0.0073112086 -0.02830806 -0.020518567 -0.084109135
-0.072800964 -0.08455521 -0.04771535 -0.012810511 -0.06531824 -0.072613105 -0.020437595 0.08943571
0.07616025 -0.007906974 -0.061239675 0.01754021 -0.07232856 -0.068950474 -0.002003459 0.02026859
-0.034661017 -0.008161446 0.006469329 -0.014226508 0.019450288 0.03423325 -0.057714522 -0.009301101
-0.073675156 -0.046941012 -0.09558178 -0.06873262 -0.06535066 0.005585949 -0.0053838207 0.02522362
0.056967027 0.022053102 -0.004218578 0.032610904 -0.04695401 -9.83534e-05 0.027889887 0.060380038
0.0816191 -0.07144782 0.006249957 0.0782582 0.015022517 -0.090231575 0.05420475 -0.06877285
-0.071100496 -0.060308177 0.06821536 0.07541093 -0.028597675 0.03062742 0.019701587 -0.10023632
-0.05169589 -0.040200733 -0.0024869181 -0.02528926 0.063783966 -0.04866796 -0.04862977 -0.0037289043

encoder.convs.0.norm.weight f4 [128]
00000000: 85d2 793f c793 803f fbd3 7d3f a4b8 773f
00000010: 130a 803f 15eb 7f3f cef2 7e3f ce53 7c3f
00000020: 39cf 7c3f 4fe3 783f f3c3 7c3f efce 7c3f
00000030: ec76 7b3f a12f 7a3f b012 793f 4b0b 7d3f
00000040: 21bf 7a3f 25b8 7a3f 6d1b 7c3f d72d 7a3f
00000050: f95c 7a3f 3a58 7d3f 511f 7a3f d728 773f
00000060: 56b9 7a3f de05 7d3f 1716 783f b17c 7b3f
00000070: cd74 793f 2b5c 7d3f ac8f 7c3f 5575 7b3f
00000080: 699e 7b3f 3f86 7d3f 3fbf 7c3f 3a82 7c3f
00000090: bb2e 793f 7936 7a3f e5e9 7b3f 6e36 7a3f
000000a0: 3d30 7c3f ffe1 7c3f 5f24 7c3f 5391 783f
000000b0: 19a8 7c3f 53bb 7b3f 65da 7a3f 3b82 7a3f
000000c0: 8a1f 7b3f cc71 773f e392 7a3f 2e0a 803f
000000d0: 366e 7e3f 5d22 7d3f ae4b 7c3f a980 7c3f
000000e0: 0a2c 7e3f a02b 7d3f d705 7b3f a40f 7d3f
000000f0: 0f52 793f c0df 783f b786 7b3f 9a12 803f
00000100: b806 7a3f feaa 7a3f bfb9 793f c120 793f
00000110: bbae 7c3f e96f 7d3f 113a 7e3f 1b5a 7b3f
00000120: a2b8 7c3f 34f2 7b3f 5d8e 7c3f a859 7d3f
00000130: f818 7d3f 2ef7 793f b110 7c3f dc44 7c3f
00000140: da75 7c3f a683 773f 9b8b 7d3f 9e97 7d3f
00000150: dfea 793f 7735 783f f244 7b3f 749d 7d3f
00000160: 29e3 7c3f 323a 7a3f 1766 7a3f 859c 7b3f
00000170: b697 7b3f cce0 7c3f 417d 7b3f 8d31 7b3f
00000180: 39c0 7a3f c723 7e3f 6079 7e3f 086b 7f3f
00000190: 0556 7b3f a4ef 7b3f abdc 793f 67f7 7c3f
000001a0: 44f0 7c3f 9896 7d3f e135 7a3f 4a92 7a3f
000001b0: 095f 7b3f 111c 7d3f cfce 7b3f 17d0 7b3f
000001c0: b09e 7a3f 2ea7 793f 7158 7c3f 8dbb 7b3f
000001d0: f63e 7a3f 1b46 7d3f 7233 7f3f 616e 7c3f
000001e0: f719 7c3f 35b6 7b3f b8c6 7a3f 90b2 7b3f
000001f0: 29d7 7b3f 1548 7a3f 4041 7a3f f490 7c3f
0.9758685 1.0045098 0.9915158 0.96766114 1.0003074 0.9996808 0.9958924 0.98565376
0.98753697 0.97221845 0.98736495 0.98753256 0.98228335 0.97728926 0.9729414 0.98845357
0.9794789 0.9793723 0.9847935 0.97726196 0.97798115 0.9896275 0.97704035 0.9654669
0.9793905 0.9883708 0.96908706 0.9823714 0.9744385 0.9896876 0.98656726 0.9822591
0.9828859 0.9903297 0.9872932 0.9863621 0.9733693 0.9773937 0.9840377 0.97739303
0.98511106 0.9878234 0.98493 0.9709675 0.98693997 0.9833271 0.97989494 0.97854966
0.98095 0.96658015 0.9788038 1.0003107 0.9938692 0.9888056 0.9855298 0.9863382
0.9928595 0.9889469 0.98055786 0.9885199 0.97390836 0.97216415 0.98252434 1.0005677
0.976665 0.97917163 0.9754905 0.97315603 0.9870412 0.98998886 0.9930735 0.98184365
0.9871923 0.9841645 0.9865473 0.9896493 0.98866224 0.9764279 0.9846297 0.9854257
0.9861733 0.96685255 0.99041146 0.99059474 0.9762401 0.9695658 0.9815208 0.9906838
0.9878412 0.9774505 0.97812027 0.98285705 0.9827837 0.9878051 0.98238 0.98122483
0.9794956 0.9927334 0.99403954 0.9977269 0.9817813 0.9841254 0.9760234 0.98815006
0.98804116 0.9905791 0.9773846 0.9787947 0.9819189 0.9887095 0.9836244 0.98364395
0.9789839 0.9752072 0.9857245 0.98333055 0.9775232 0.989351 0.99687874 0.98605925
0.9847712 0.983249 0.9795947 0.9831934 0.98375183 0.9776624 0.97755814 0.9865868

encoder.convs.0.norm.bias f4 [128]
00000000: db5e 01bd b896 443b 1d2b b13c 38f7 39bc
00000010: ccc4 613c cde9 51bb 9798 d5bc e00a ce3b
00000020: 8745 963c 6a83 be3c 26fa 473c 1f4c dfbc
00000030: 883d b13c f48f 823d 70af aa3b a615 33bc
00000040: 6f26 d33c 3a36 af3b 18d3 693b 8d78 c4bc
00000050: 3c4c da3a 35ab 37bc dd8d 4fbc 8a6c 6ebc
00000060: f54a 11bd 8fe7 16bc fff2 dfbc d284 6bbb
00000070: d015 203d 8f2a b2bc 156a 4c3c a6b2 32bc
00000080: 94d8 06bc b52b b8bc 8654 2abd 8ec5 05bc
00000090: 9a1e 9a3c 5b9c e33b 4118 453c 8ecd fd3a
000000a0: a301 1bbc e45e 9abc 82d2 ab3b 9583 bebc
000000b0: 6635 663b 3b51 593b 69c0 9d3c 8ad8 4e3c
000000c0: 1916 90bc 4ce6 a63c 9b9d 383c 888a 16bc
000000d0: b0f7 c8bc 6d48 27ba 4f69 053d e0a1 bb3c
000000e0: cc71 8ebc 059b 2fbc 16b4 063d e88c 60bb
000000f0: 118a a53c d79d 9fbc 7554 dd3b baf2 96bb
00000100: f124 8c3c f1ef 86bc b467 763c 9b33 043d
00000110: 430e a8bb 6909 193c 817c c5bb 628d 023c
00000120: 16ea 9a3c 42bd 87bb 0e14 97bc 68d0 3abc
00000130: 7708 f73c 227d cb3c 3bff 1b3a 1274 bcba
00000140: bf64 3cba 3086 d43a 0e54 9bbc a374 10bd
00000150: 35a1 493c abb8 88bc 0a3d 603c 2a32 09bd
00000160: be93 08bd 5672 2dbc 7d8b 1d3c 40cc ddbc
00000170: 2463 5f3b 4f09 6b3c a15d 39bb e9c3 5b3c
00000180: 720e 37bc 82e0 9dbc b817 ff3b e1b4 323c
00000190: 87c8 f23b 4f96 f53c ce9d f03a f0f5 a33b
000001a0: 0af2 32bc 9907 e3bc 447b bcbc cff1 3ebb
000001b0: fe46 9abb 18fa 42bb c4f2 eabb 8d54 0bbd
000001c0: a8b1 1bbc 6cf3 01bc 79f2 ff3c 81e4 1a3d
000001d0: 0e41 94bc 1711 0c3b 9ede dd3b 2170 963b
000001e0: 4623 643c c219 56bb 19c2 83bc a68b aabb
000001f0: 92c1 d93b cd3b 01bc 5f30 b5bc 65a8 a7ba
-0.0315846 0.0029997062 0.021627003 -0.011350445 0.01377983 -0.0032030225 -0.026073737 0.0062879175
0.0183437 0.023256022 0.012205636 -0.027257977 0.021635786 0.06375113 0.005208902 -0.010930454
0.025775163 0.0053470405 0.00356788 -0.023983264 0.00166548 -0.0112102525 -0.0126681 -0.014552245
-0.035471875 -0.009210481 -0.02733755 -0.0035937321 0.039083302 -0.02174881 0.012476464 -0.010906851
-0.008230347 -0.022481779 -0.041584514 -0.0081647765 0.01881342 0.0069461293 0.012029708 0.0019363628
-0.009460839 -0.018844076 0.0052436003 -0.023256103 0.0035127043 0.003315999 0.019256787 0.012624869
-0.017588662 0.020373486 0.011268045 -0.009188302 -0.02453217 -0.0006381337 0.032571133 0.022904336
-0.017388247 -0.010718112 0.032886587 -0.0034263674 0.020207437 -0.019484444 0.006754453 -0.004606572
0.017107459 -0.016471835 0.015039373 0.032275777 -0.0051286533 0.009340622 -0.006026805 0.007968279
0.018910449 -0.0041424343 -0.01844218 -0.011402227 0.030155404 0.024839941 0.0005950813 -0.0014377853
-0.0007186643 0.0016214307 -0.018960979 -0.035267483 0.012306501 -0.016689619 0.013686428 -0.033495106
-0.033344023 -0.010586342 0.009615776 -0.027074933 0.0034086192 0.014345481 -0.0028284567 0.013413408
-0.011172878 -0.019272093 0.00778481 0.010907383 0.0074091586 0.0299789 0.0018357576 0.0050036833
-0.010921964 -0.027713584 -0.023007996 -0.0029135828 -0.00470817 -0.0029751118 -0.007170053 -0.03401618
-0.009502806 -0.007931571 0.03124355 0.037815575 -0.018097427 0.002137249 0.006770923 0.0045910035
0.0139244255 -0.0032669161 -0.016083764 -0.0052046357 0.00664539 -0.007887793 -0.022117792 -0.0012791274

encoder.convs.0.norm.mean_scale f4 [128]
00000000: db8a 723f f64e 7e3f a23a 7f3f 5a71 7b3f
00000010: be47 7f3f a942 7d3f ece5 743f 4a0a 813f
00000020: 8670 803f e995 7a3f 6921 813f 0580 763f
00000030: 68aa 813f 52ad 863f 420e 813f 7ab0 7d3f
00000040: 5b9f 783f 0ef2 7c3f 2cad 7d3f 6bf8 803f
00000050: 1a84 7b3f 5a13 813f 7526 783f 8367 823f
00000060: 8a22 723f 9dff 763f 4c6f 803f ecb8 7e3f
00000070: 50c7 843f c23d 773f e54a 7c3f d2dc 7d3f
00000080: a858 803f 4be1 7d3f 6a4e 7c3f bc63 803f
00000090: b3bc 823f f8bd 7d3f ed22 7d3f 4565 7b3f
000000a0: f1dd 7a3f 0072 7d3f 169b 7f3f 192d 803f
000000b0: 555d 7f3f b872 7b3f fb15 743f 2d7e 7d3f
000000c0: 7d35 783f f033 7a3f 9e49 813f 1438 7c3f
000000d0: f086 773f ef39 793f 47f1 713f 43ca 773f
000000e0: 230b 793f 98f0 7a3f 75da 743f 11b4 7e3f
000000f0: 2fdc 823f 6737 7d3f ff33 793f f631 803f
00000100: 0adc 823f b232 813f 1d4f 7d3f 219e 833f
00000110: 89c9 7d3f fa82 7a3f 1e88 863f 841e 833f
00000120: 9ad4 813f 3035 783f dfc3 803f 51a2 763f
00000130: 889f 803f 2f5a 763f 3f8a 7e3f 3238 813f
00000140: 5348 7d3f fd72 803f 760a 763f d402 723f
00000150: b29f 803f a51f 813f 8e8e 843f bdf4 803f
00000160: d14e 813f e98d 803f ead0 7f3f 3094 803f
00000170: eae9 753f 1d72 743f 33d2 783f f80e 793f
00000180: e901 7c3f f045 783f 8048 7f3f 8a19 803f
00000190: b204 7c3f 3bc5 743f 7d06 823f 4ace 7d3f
000001a0: 7183 7a3f f837 823f 52b2 813f fa00 7e3f
000001b0: fb74 7f3f 8c1e 7c3f 6f5d 7e3f 82ac 733f
000001c0: b77d 7a3f 389d 803f a341 7b3f ffb3 7b3f
000001d0: aa7d 7d3f ea6b 7e3f 5218 7f3f 1136 7c3f
000001e0: 1386 783f e570 7c3f 81ca 813f cde5 773f
000001f0: a316 7d3f 5465 7e3f 9025 7d3f d77d 7c3f
0.94743127 0.99339235 0.9969884 0.98219836 0.99718845 0.9892984 0.9566333 1.0081265
1.003434 0.97884995 1.0088321 0.9628909 1.0130129 1.0521643 1.0082476 0.99097407
0.9711816 0.98806846 0.99092364 1.0075811 0.98248446 1.0084031 0.9693368 1.0187839
0.9458395 0.96483785 1.0033965 0.9950092 1.0373325 0.9657861 0.9855178 0.9916507
1.0027056 0.99171895 0.9855715 1.0030437 1.0213836 0.99117994 0.9888142 0.982014
0.97994906 0.99002075 0.9984602 1.0013763 0.9975179 0.9822192 0.9534604 0.99020654
0.96956617 0.977355 1.0100591 0.9852307 0.96690273 0.97354025 0.94508785 0.96793
0.9728262 0.98023367 0.9564584 0.9949351 1.0223445 0.9891266 0.97344965 1.0015247
1.02234 1.0093596 0.9894884 1.0282632 0.99135643 0.97856104 1.051029 1.0243688
1.0143006 0.9695616 1.0059775 0.96341425 1.0048685 0.9623136 0.99429697 1.0095274
0.98938483 1.0035092 0.9610971 0.94535565 1.0048735 1.0087782 1.0356004 1.0074688
1.0102178 1.0043308 0.9992815 1.0045223 0.9606005 0.95486623 0.9719574 0.97288465
0.98440415 0.96981716 0.9972 1.0007794 0.98444664 0.9561345 1.015823 0.991429
0.97856814 1.017333 1.0132544 0.9922024 0.99787873 0.9848411 0.9936132 0.951851
0.97848076 1.0047979 0.9814703 0.9832153 0.99019873 0.99383414 0.99646485 0.9852
0.9707958 0.98609763 1.0139924 0.96835023 0.98862666 0.99373364 0.9888544 0.98629516

encoder.convs.1.node_mlp.weight f4 [128, 256]
00000000: e200 12bc 5349 203b c94e abbc 8756 133d
00000010: 4efc 273d ceac 63b8 1f0b cabb 2468 913d
00000020: 4146 093b a166 2fbc 5353 2bbd 1f8c fa3c
00000030: 913d 1dbd 3140 8f3c 9e8a cbbc c0ad bc3c
00000040: af65 073d 2cfd 3c3d f5b2 a0ba c70f 9cbc
00000050: 345d f33b f78a cfbb 3f6f 253c af2f 65ba
00000060: c2a9 07bc c5c2 5a3d 3740 51bd 820c 5e3d
00000070: 95ea 8b3c aa98 2fbd 1777 7e3d 1ca0 90bc
00000080: 0d21 2cbd 7187 0bbd 0337 0039 c32f 50bd
00000090: 91fa 343b 9ccf dc3c a309 88bd ef23 183d
000000a0: eb2e 8e3c e274 413d f3ee 4c3d 67e2 8fbb
000000b0: 8f69 d7bc d6a3 72bd 3726 cbbc 6ba2 743c
000000c0: 32aa 083d 1095 633d bdb5 cf3c 9840 26bc
000000d0: 685e 503c 5b02 ba3c 3cd0 6c3d 89c4 313d
000000e0: 3be2 23bd a9f0 03bd a5c8 0ebb 030c 823b
000000f0: 5610 73bd 98ce 343d baab 373d 9fe6 7c3d
00000100: f447 9c3c 56a6 6e3d c759 0b3c ec88 83bc
00000110: 6844 403c 5673 cb3c 4baa a03b 5ebb 3539
00000120: 5f9a 37bb 06fa 42bd 0030 5e3b 90d8 253b
00000130: 42c7 58bb 71b6 54bd 148c 5abc 3365 dabc
00000140: 3f9c f93c 85a0 133d 1007 30bd 815c a73c
00000150: 9078 413c 5748 27bd 88dd 98bc dbfa 3c3c
00000160: eed1 cb3c eed1 93bc 5a9b 4f3c 7d0b d13c
00000170: 269e 31bd 781c 08bc e2df 5b3c ace3 113d
00000180: 11c7 d73b cc14 4dbd ed49 08bd aec7 fb3c
00000190: 32d3 f83c 7a06 a3bb 7ef5 753d 8c4c 1d3c
000001a0: bceb 64bd d333 d63b 271e 82bb cb14 adbc
000001b0: 3720 5f3c bef8 5dbc 9984 1cbd 9f27 0e3d
000001c0: 2e05 103d 0b9e 0dbd 7470 7f3c 8b17 d33c
000001d0: 941f 943a ff23 b9bb fc29 8bbc e688 31bc
000001e0: 8d6a 35bd 88ce 823d 7760 843d b6a4 f33c
000001f0: c47d 9ebc 3fff b4bc 3007 453b 3adf 143d
00000200: 53e8 9cbd c1eb 32bd c0a6 80bd f1f9 c6ba
00000210: 87b3 c7bc 1644 48bc 844b 86bd 936a 7c3c
00000220: c2af 3e3d eb74 72bd 7c41 71bd e072 473d
00000230: 9c4d ae3d 808c 92bd c274 843d 416b 36bd
00000240: 1257 9e3d 901a cdbb 7fa4 df3d 99b9 f83c
00000250: c964 96bd d14e c7bc ca88 5c3b a0da cf3d
00000260: 166d 963d 1e4c 6fbd f78a 9739 32c6 c7bd
00000270: fd8a e23d 8583 dd3c 4aef 5dbd 6281 ddbc
00000280: ba24 68bd 8034 ff3c 7eab 803c 7fd7 363d
00000290: 55f3 e23c d4d2 d53d 6e8b 71bd 4e1d 2dbc
000002a0: 08a1 6ebd db29 153c fd0f b1bd bc98 4b3c
000002b0: f626 b6bc 18a4 a0bc 8755 5d3d a37e f13c
000002c0: 9e4b 4ebd fa71 cb3d 8795 95bd 48ff 81bd
000002d0: bd96 45bb fdca 7b3c 0ff1 a6bc b7d8 59bd
000002e0: 924e 8abd a58f eb3c 2dc4 a7bd 4488 9bbd
000002f0: 1165 5f3c d6ed e2bc 6f6e 7fbd 6a86 573d
00000300: 3dac 4c3d 3db3 ccbd 6763 72bd e271 69bb
00000310: ac21 a53d 2ddb 24bd f8d1 a63d 0411 103d
00000320: 792d 8f3c 181c 023d d4ad df3b 55c0 a73c
00000330: c9c5 e4bc 0481 d03a 9924 193d 31e6 ccbc
00000340: a03d 903c 21d8 9ebd aa4d 75bc 7b0f c3bb
00000350: a35a 5b3d 63c5 dabc b9f6 8a3d 8b31 b5bb
00000360: ea8f 0c3d 5939 adbc 4a1f 3abd ce83 8cbc
00000370: fe20 e2bb b29e bf3c f0a8 febc 8182 91bd
00000380: 20ec 4d3d c95e 90bc 7c97 a9bd dac6 0c3c
00000390: f794 5c3d 2aeb 96bc 6b01 563d 6196 98bd
000003a0: 9988 abbd 8a2d 873c 9560 40bd cb48 4fbc
000003b0: 1afa 0e3d e7f8 1e3c a0ca 553d d624 2fbc
000003c0: b18b 66bd c0cb 3cbd 0cbf 8bbd 5521 873d
000003d0: 032d 4a3c c05b e73c 42b4 99bd b5bf 933d
000003e0: bc9c bdbd d3c3 5cbd 1511 073d f338 4abd
000003f0: 3c46 a1bd 525d 8dbd 1703 a4bd 9ef5 7e3d
-0.008911343 0.0024457767 -0.020911591 0.03597119 0.0410121 -5.4281954e-05 -0.0061658765 0.070999414
0.0020946416 -0.010705621 -0.04182751 0.030584393 -0.038388792 0.017486664 -0.024846371 0.02303207
0.033055957 0.04613988 -0.0012260365 -0.019050492 0.007426882 -0.0063337046 0.010097324 -0.0008742762
-0.0082802195 0.053408403 -0.05108663 0.054211147 0.01707963 -0.0428702 0.06212529 -0.017654471
-0.042023707 -0.034064714 0.00012227525 -0.0508268 0.002761517 0.026954465 -0.06642463 0.037143644
0.017356357 0.04723061 0.050032567 -0.004391003 -0.026295451 -0.059238277 -0.024798496 0.014931302
0.033365436 0.05556208 0.025355214 -0.010147236 0.012717821 0.022706201 0.057815775 0.04340032
-0.040010672 -0.032211933 -0.0021787074 0.003968717 -0.05934175 0.044142336 0.044841506 0.061743375
0.019077279 0.0582641 0.008505291 -0.0160565 0.011735059 0.02483527 0.004903113 0.00017331305
-0.0028015596 -0.047601722 0.0033903122 0.0025306083 -0.0033077751 -0.051931802 -0.013339061 -0.026659584
0.030470012 0.036041755 -0.042975485 0.020429851 0.0118085295 -0.040840473 -0.018660322 0.011534418
0.024880376 -0.018044438 0.012671316 0.025518173 -0.043363713 -0.008307569 0.013420077 0.035617515
0.00658501 -0.05006866 -0.033273626 0.030734863 0.030374143 -0.0049751373 0.060048573 0.00960077
-0.055888876 0.0065369396 -0.0039708796 -0.021128079 0.01361852 -0.013548074 -0.038212392 0.034705754
0.03516119 -0.03457455 0.015590776 0.025768062 0.0011300915 -0.005650043 -0.016987793 -0.010835862
-0.044291068 0.06387049 0.06463712 0.029741626 -0.01934708 -0.022094367 0.0030064099 0.036345698
-0.076615 -0.043681864 -0.06281805 -0.001518069 -0.024377597 -0.012223264 -0.06557372 0.015406269
0.046554334 -0.059193533 -0.05890034 0.048693538 0.085108966 -0.071557045 0.06467582 -0.04453588
0.07731451 -0.00625927 0.10920047 0.030361937 -0.07343442 -0.024329575 0.0033650869 0.10149121
0.07345025 -0.0584222 0.000289045 -0.097546 0.11061666 0.027040252 -0.054183282 -0.027039234
-0.05667565 0.031152964 0.015706774 0.044639107 0.02770392 0.10440603 -0.05897086 -0.010566069
-0.05825904 0.009104217 -0.08645628 0.012426551 -0.022235375 -0.019609496 0.054036643 0.02947933
-0.050365083 0.09933849 -0.07303911 -0.06347519 -0.0030149661 0.01536822 -0.020378618 -0.05318519
-0.06753267 0.028755018 -0.081917144 -0.0759435 0.013634936 -0.0277013 -0.062361177 0.05261842
0.049968947 -0.099951245 -0.05917683 -0.0035620858 0.08063063 -0.040248085 0.08145517 0.035172477
0.017477738 0.031765074 0.006826142 0.020477453 -0.027926343 0.001590759 0.037388418 -0.025012108
0.01760751 -0.07756067 -0.01497213 -0.005952773 0.053553235 -0.02670545 0.0678534 -0.0055295876
0.034316935 -0.02114551 -0.045439996 -0.017152693 -0.0069009056 0.023391102 -0.031086415 -0.0710497
0.050274014 -0.017623322 -0.082808465 0.008592332 0.053853 -0.018422682 0.052247446 -0.074505575
-0.08375663 0.016501207 -0.046967108 -0.012651633 0.034906484 0.009702898 0.05219519 -0.010689935
-0.056285564 -0.04609275 -0.06823549 0.065981545 0.012339833 0.028241992 -0.075050846 0.072142996
-0.0925841 -0.05389769 0.032975275 -0.049370717 -0.07874724 -0.06902565 -0.08008402 0.062245958

encoder.convs.1.node_mlp.bias f4 [128]
00000000: 7a20 10bd 9288 273d 4ce9 88bc c2fa e93c
00000010: 3390 a33c 0804 64bd 2443 373d 01d2 c2bc
00000020: e22f f33c 06c1 1d3c d48f 13bb 7689 1abd
00000030: a1b6 283d 2160 7cbd 1a2b 763d 0802 19bb
00000040: a3c3 8d3d d68a 07bb fc8b e73a edcf f3bc
00000050: cf78 76bd 56bc eb3c b3a0 24bd 2565 493d
00000060: 8e9c 5fbd 2eb5 9dbc 0b0c 75bc 3d13 253d
00000070: 1c2c 51bd bd0b e53b e975 c7bc dc12 64bd
00000080: 45e1 0fbd 9072 84bc 061b 043d 6f5c 62bc
00000090: dc2e 6ebb 4b9b 573d 6613 5b3c c262 423d
000000a0: 8fd6 4fba 0464 22bc 72ef 4a3d a8a9 7fbb
000000b0: e60b 5dbc d960 6d3d d414 bd3c 2c78 4e3d
000000c0: 00b6 3c3d bd33 e6bc 4894 823d bd44 babc
000000d0: c595 ac3c 856a 89bc 3565 b43b d5f9 91bc
000000e0: 4411 0c3d 2d20 c43c 3955 483d e6b5 6d3d
000000f0: 9ee6 033d 46f5 35bd 2057 dbbc 022a cd3c
00000100: f976 bfbc 385c e2bc a40c 73bd 84e0 ef3c
00000110: 9f61 61bd e2e3 52bd 1040 08bd c157 d8bb
00000120: 6560 ff3b 7f52 d43c 336c 9c3c 99c4 0abc
00000130: f005 263d e8b3 5fbd e6da 20bd 6430 73bc
00000140: 4b8c ef3c 09f6 c43c b7d5 973a d7f4 203d
00000150: cdd0 6cbc 0158 c2bc 4ba0 bc3c 720a ae3c
00000160: c68f ddbc 9fb2 11bd 050c 443d 8484 663b
00000170: ff77 b0bc e951 33bb 3247 933b b244 fbbc
00000180: dbb3 a4bc 49f7 b4bb 6df6 4c3d d222 18bd
00000190: a7c4 08bb ff91 8a3d 73dd 163c 5fdb 3a3d
000001a0: 8b0d 3dbd 6f51 c53c eac1 6bbd 02e7 fbbb
000001b0: 7d67 40bd 786a ddba 75bd 5c3d f70d e1bc
000001c0: e110 61bb a309 a0bc 6503 de3c 1439 463d
000001d0: e6f9 7e3d 8f6c 50bd e184 b83c ef37 b83d
000001e0: f242 17bd de29 4fbd 5e6f 4abd ad0b 193d
000001f0: aa89 8c3c d10a 7cbd c453 ba3b 91a6 8c3d
-0.035187222 0.040901728 -0.016712807 0.028561953 0.01996622 -0.055667907 0.044741765 -0.023781778
0.029685918 0.00962854 -0.0022516148 -0.03772875 0.041189793 -0.061615113 0.0600997 -0.0023347158
0.0692208 -0.0020682118 0.001766562 -0.029762233 -0.060173806 0.028776329 -0.040192317 0.049168725
-0.05459266 -0.019251432 -0.014956485 0.04030155 -0.051067457 0.0069899247 -0.024348216 -0.05568205
-0.035126943 -0.016167909 0.032252334 -0.013815983 -0.0036343848 0.052638333 0.013371324 0.047457464
-0.0007928395 -0.009911541 0.04954476 -0.0039011035 -0.013491606 0.05795369 0.02308122 0.050407574
0.046072006 -0.028100843 0.06375939 -0.022737855 0.02106751 -0.016774425 0.005505229 -0.017819325
0.034196153 0.023941124 0.0489094 0.0580348 0.032202356 -0.044423364 -0.026774943 0.025044445
-0.02337216 -0.027631864 -0.059338227 0.029281862 -0.05502474 -0.051486857 -0.03326422 -0.006602258
0.0077934735 0.025918243 0.019094562 -0.008469724 0.040533006 -0.05461493 -0.039271258 -0.01484308
0.029241702 0.0240431 0.0011584078 0.039295997 -0.014454079 -0.023723604 0.023025652 0.021245215
-0.027046096 -0.035570737 0.047863025 0.00351742 -0.021541594 -0.0027362055 0.004494571 -0.030672405
-0.020105293 -0.0055226428 0.050039697 -0.037142582 -0.0020869167 0.06766128 0.009208071 0.045619365
-0.046155494 0.024086682 -0.057557978 -0.0076874504 -0.046973694 -0.0016892692 0.053891618 -0.02747248
-0.0034342336 -0.019535845 0.027101228 0.048394278 0.06225004 -0.05088478 0.0225243 0.089950435
-0.03692908 -0.050577037 -0.049422614 0.03736465 0.017155487 -0.061533753 0.005686255 0.068677075
