checkpoints/model_C_epoch_9.pth (torch, 552410 bytes, 27 tensors)

encoder.node_embedding.weight f4 [1, 128]
000000 fb 9d f2 3f 38 b2 ba 3f 3d a9 62 3f 3d 93 05 c0
       1.8954462 1.4585638 0.8853949 -2.0871117
000010 c0 67 2b 3f b8 7a 9b bf 33 75 5d bd 6c c5 ca bf
       0.66955185 -1.2146826 -0.054066848 -1.5841498
000020 d5 f9 3d bf 86 3c d1 3f c5 89 c0 be ff 6b b1 bf
       -0.7420934 1.6346595 -0.3760511 -1.3861083
000030 ae d9 3b bf 5b 78 0e bf 2c 1a 45 bf de a1 3f 3f
       -0.7337903 -0.556524 -0.7699306 0.74856365
000040 15 1e d0 3f d2 53 1c be 11 6d ff be ec d2 df 3e
       1.625918 -0.1526635 -0.498879 0.43715608
000050 0c ca 3b bf 6f eb 89 3f 27 55 4d 3f f3 ac d5 3f
       -0.73355174 1.0774974 0.8020806 1.6693405
000060 15 25 a4 3f ae 8f a4 3f e7 15 19 3f ab 22 ab 3f
       1.2823817 1.2856348 0.59799045 1.3369955
000070 f4 9d 7a be ef 35 2a 3d bf 11 76 be c9 3f 5a 3f
       -0.24474317 0.04155534 -0.24030207 0.8525358
000080 2b 30 b0 bf 07 6e 5a bf a8 8b 68 be 5b 62 da 3f
       -1.37647 -0.8532414 -0.22709525 1.7061266
000090 c3 7a a4 3e 55 c0 cf be c5 2d a5 3e dc 39 43 bf
       0.3212491 -0.40576425 0.32261482 -0.7626016
0000a0 dd f6 c4 bf 37 44 76 3f 07 f2 60 bf bf 08 18 bf
       -1.5387837 0.9619784 -0.87869304 -0.59388345
0000b0 99 58 a1 bf ff 4b 06 40 7a 38 9b bf ae 96 f4 be
       -1.2605163 2.0983884 -1.212661 -0.4777121
0000c0 f7 2e 66 bf f8 d5 27 bf 91 2f a6 3d e5 9c 04 3f
       -0.8991541 -0.65560865 0.08114541 0.518019
0000d0 0b f4 fc be 17 a2 96 3f 44 a7 4b bf 68 c4 39 bf
       -0.4940494 1.1768216 -0.795521 -0.7256532
0000e0 a7 1e b3 bf 55 e5 da 3c 43 b8 66 bd 66 21 2d 3f
       -1.3993729 0.026720682 -0.05632807 0.67629087
0000f0 13 7e da bd 08 db e9 3f 4e 78 96 bf b0 b2 af 3f
       -0.10668578 1.8269968 -1.1755464 1.3726406
000100 56 d0 b6 3f c8 83 57 3f 4f 7d 0c 40 51 fa 04 3f
       1.4282329 0.8418546 2.1951482 0.5194445
000110 ad 77 a6 3e bb a6 48 be 06 0c 87 bf ea f2 a0 3f
       0.3251318 -0.19594853 -1.0550544 1.2574131
000120 35 68 34 be 28 f3 03 3f 99 9b 66 3d d2 3e cf 3e
       -0.17617877 0.515429 0.056300733 0.40477616
000130 f3 47 0f 3f 60 ad 23 bf 86 d3 0a c0 c3 7d 3f bf
       0.5596916 -0.63936424 -2.1691604 -0.7480127
000140 29 73 14 3c 3b cb a9 be 97 ad a9 bf 4f 07 13 bf
       0.009060659 -0.33162865 -1.32561 -0.5743303
000150 0f 90 0a 3f 97 52 05 3f af 77 91 3f 35 cf 28 3d
       0.54126066 0.5207915 1.136465 0.041213233
000160 d2 6c 3a 3f 93 1f f2 be 9e 14 85 bf a4 eb 17 3f
       0.72822297 -0.47289714 -1.0396917 0.59343934
000170 72 3c d9 bf 58 0b 52 bf 74 ff a7 3f f5 d1 ef 3e
       -1.6971571 -0.8204856 1.3124833 0.46839872
000180 45 5b 1f c0 36 1e f3 3e 4b 66 45 3f c4 9e 99 3c
       -2.4899457 0.47483987 0.7710921 0.018752463
000190 ba 89 25 3f d1 7c 13 3f ed 7d 86 3f 36 e8 e8 be
       0.6466328 0.5761233 1.050718 -0.45489663
0001a0 6a ec 45 be 83 9e 3e 3f aa b6 ca 3e b0 7a 2d 3e
       -0.19328466 0.7446062 0.39592487 0.16941333
0001b0 69 c6 82 3e 73 6c a2 3f 7f 7d 99 3b 37 8b 98 be
       0.25542 1.2689346 0.0046841498 -0.29793712
0001c0 9d d9 b7 bf 56 50 c1 bd 8e 89 17 bf 10 c7 eb 3e
       -1.4363285 -0.09439151 -0.59194267 0.4605031
0001d0 20 df 36 3f ff dd 91 3d e2 f3 c7 be ae d8 03 3f
       0.7143421 0.071224205 -0.39053255 0.515025
0001e0 8a ec 13 bc 82 40 74 3e b5 49 01 3e 65 cd 3e 3f
       -0.009028563 0.23852733 0.12625773 0.7453216
0001f0 73 10 8c 3f 2f 62 a8 3e 53 db 36 3f 7c 21 d0 3e
       1.094252 0.32887408 0.7142841 0.40650547

encoder.convs.0.node_mlp.weight f4 [128, 256]
000000 8b dc 5d 3d 64 da 22 bc bb 23 64 3d de 5f 8b 3c
       0.054165404 -0.009939764 0.055698138 0.017013486
000010 94 64 4c bd c4 c7 25 3d ee b2 9f bc 1d 65 d5 bc
       -0.049900606 0.040473714 -0.0194945 -0.026049191
000020 32 b8 5c bd 63 8f 72 bd fe 62 77 3c 3f ea 81 bc
       -0.0538866 -0.059218775 0.015099285 -0.015858768
000030 58 bf b0 3c e9 9e 5a bd 97 f3 31 3d 1a e9 2f bd
       0.021575615 -0.053374205 0.043445196 -0.042946912
000040 1f 1f 09 bc e5 8a 27 3c 81 41 f0 3c ce 51 57 3d
       -0.008369236 0.010225986 0.02932811 0.05256825
000050 0a db 5c 3d 57 21 3f bd e5 f6 93 3c 0d 0d c7 bc
       0.05391983 -0.046662655 0.018062064 -0.024298215
000060 62 a3 8f bb 14 0a 34 bd fb 5d 71 3d 39 4c 30 bd
       -0.0043834904 -0.043954924 0.058927517 -0.04304144
000070 1c fa f7 3c be 3d c9 3c 71 d7 8f 3c e8 b5 fd bc
       0.030270629 0.024565574 0.017558785 -0.030970529
000080 f8 cf 5c 3d 6d 2e 36 3c bd 6c aa 3b 6c f8 55 bd
       0.053909272 0.011119467 0.005200951 -0.052238867
000090 c2 73 ea 3c 17 ba 41 bc 48 34 d1 bc c2 98 4f 3d
       0.02861965 -0.011824152 -0.025537625 0.05068279
0000a0 ce da 3b 3c 4c 79 02 bd 7a 87 0a bd 36 2f b5 bb
       0.011465741 -0.03185396 -0.033820607 -0.0055293096
0000b0 70 dc 03 3d ad 11 5e bc 2f 5f 1a bd 9d 00 c3 bc
       0.032192647 -0.013554019 -0.03768843 -0.023804003
0000c0 ab 47 47 bd 6c 32 a0 3c 3b fd 4e 3d a4 10 64 bd
       -0.048652332 0.019555293 0.05053447 -0.055679932
0000d0 e9 01 41 3c 45 b3 0c 3d 6c 7c 0f 3c d5 1c c9 bc
       0.011780241 0.034350652 0.008757692 -0.024549881
0000e0 a9 43 f5 3c 4e 6e 0a 3d 8b 24 a9 3c 59 8c 08 bc
       0.02993949 0.0337966 0.020647308 -0.008334243
0000f0 66 6b 9e bc 00 28 12 3c d9 5e 5a bc ae cb 83 bc
       -0.019338321 0.00892067 -0.0133282775 -0.016088333
000100 8f 95 2b 3d 3d e1 63 3d 23 df 7d bb 14 e0 38 bc
       0.041890677 0.055634726 -0.0038737736 -0.011283893
000110 19 38 6c 3b fd 22 d4 bb e2 f0 4b 3c 53 93 a1 3c
       0.003604418 -0.0064738975 0.012447568 0.01972357
000120 49 2f 72 bd b1 0e a6 bc 4d 8f 60 3d 62 64 da 3c
       -0.059127126 -0.020270677 0.054824162 0.026659194
000130 88 d7 1b ba 91 67 23 bd 78 40 24 bd 8d 6a 6d bd
       -0.00059448974 -0.03989369 -0.040100545 -0.057962943
000140 58 d0 b8 bc 7f 7f 95 3c 96 0e 18 3d 8f 49 d5 3c
       -0.022560284 0.018249271 0.037123285 0.026036052
000150 76 5f 55 bd 7c bc 0d bd 1b 2a f1 bb 3d af 7e 3d
       -0.05209299 -0.03460358 -0.0073597557 0.06217884
000160 5d 74 3b 3c 55 b3 98 bc dc b4 bd 3c 33 6f ac bc
       0.011441317 -0.0186402 0.02315753 -0.021049118
000170 aa 8b 2d bd 51 f6 2e 3d eb 64 d3 bc a7 9c 20 bc
       -0.042369522 0.042715374 -0.025804957 -0.009802974
000180 f3 ae 82 bd 6b 2f 34 3d 94 30 4a 3d 94 00 c6 3c
       -0.06381025 0.043990534 0.049362734 0.024170198
000190 27 65 26 bd 82 e1 6f bd 1f 0d 44 bd 23 25 32 3d
       -0.04062381 -0.05856467 -0.047864076 0.043492448
0001a0 88 3c db 3c fa 8a 5f 3d a7 61 0f 3d 24 1a 96 3c
       0.026762262 0.054575898 0.035005238 0.018323012
0001b0 0a 2c 05 3b 75 16 37 bd 7f c8 4a bd 1d 24 78 bd
       0.0020320439 -0.04469915 -0.049507614 -0.060581315
0001c0 04 87 bc 3c 91 96 07 bd a4 de 75 bc 3f 85 07 bd
       0.0230136 -0.033102576 -0.015006695 -0.033086058
0001d0 60 53 10 bc 70 ad 28 bd 5a 46 30 bd 08 9d bd 3c
       -0.008808941 -0.041181028 -0.043035842 0.023146167
0001e0 7a 7f 91 bc 0a a1 27 3d 26 d9 8b bc e2 f3 2f bd
       -0.01776098 0.040925063 -0.017071318 -0.042957194
0001f0 55 58 0b bc b1 c6 df bc 12 b2 86 bc a4 75 66 bd
       -0.008504947 -0.027316423 -0.016442332 -0.056264535
000200 5d 56 1c 3d 79 a4 93 bd 45 1f 1f 3d 90 db 73 3c
       0.0381683 -0.07209105 0.03884818 0.014883891
000210 b3 5f 0a 3d d2 df 1c bd 4c 5c 88 3d 9d 99 a0 bc
       0.033782672 -0.03829939 0.06658229 -0.019604499
000220 df 4f fc bb d9 60 92 3d ec d2 ba 3a 3c 59 a2 3c
       -0.007699951 0.071473785 0.0014253533 0.01981794
000230 c7 b2 74 3b 40 41 a0 bd 2c 07 67 3d 16 46 95 bd
       0.0037338005 -0.078249454 0.056403324 -0.072887585
000240 01 51 84 3c 64 01 69 3d 6d 83 22 3d 6d 68 4d 3b
       0.016151907 0.05688609 0.03967612 0.003134276
000250 4d 31 99 bd 8d 68 e9 3a 09 51 4d 3c 1c 62 5f bd
       -0.074801065 0.0017807648 0.012531527 -0.054536924
000260 5c 2b 9f 39 92 23 84 bc 59 47 78 3c 5e 01 ee bb
       0.00030359149 -0.016130242 0.015153729 -0.0072633466
000270 67 36 02 bd c3 2d 26 bc 4a 7e c9 bd db b5 1c 3d
       -0.031790163 -0.010142746 -0.09838541 0.03825937
000280 45 0d 45 3d d6 44 a9 bc ca cd 8b bb 42 49 e1 bc
       0.048108358 -0.020662706 -0.0042664753 -0.027500752
000290 c1 2e 75 bd 66 ba 4d bd d2 d6 4d 39 c8 82 50 bd
       -0.05985904 -0.05022659 0.0001963035 -0.050905973
0002a0 2c a9 84 bc 6e 94 47 ba 40 f6 d6 bc b6 62 46 bd
       -0.016193949 -0.00076133653 -0.026240468 -0.04843398
0002b0 30 4f 81 3b 8b 13 bc bc 81 12 34 bc 62 16 27 bd
       0.0039462075 -0.022958538 -0.01099074 -0.04079283
0002c0 cf 53 78 bd 10 8e 91 3d 97 9e f4 bc 32 11 f3 bc
       -0.0606268 0.071071744 -0.029860778 -0.029671285
0002d0 13 df 08 bd f6 4a 8b 3c c5 58 14 3d 27 44 83 3d
       -0.033415865 0.017003518 0.03621747 0.064094834
0002e0 fa 73 a4 bd 61 d0 ea 3b d2 5a 89 3d ef 01 16 3d
       -0.08029933 0.007165954 0.06706776 0.036622938
0002f0 77 79 4d 3d 9a bd b8 3d 1d 67 80 3a 37 86 0a 3d
       0.050164666 0.09020539 0.0009796355 0.033819403
000300 eb 13 1a bd 7d 71 6a 3c 6f b0 2e 3d e9 cf 0c 3c
       -0.03761665 0.014309284 0.04264873 0.0085944915
000310 ca 4a 7e bd d4 a5 11 bd c5 ff d0 bc 8a ff 64 bd
       -0.062083043 -0.035558537 -0.025512585 -0.055907764
000320 61 50 56 bd 5f b2 e8 bc 13 91 1e 3d 52 a8 10 3d
       -0.05232275 -0.028405366 0.038712572 0.035316773
000330 11 5b e2 bc e3 b8 90 bd 08 48 85 3b 0c 91 4d bd
       -0.027631314 -0.07066514 0.0040674247 -0.050187156
000340 44 4b 4f 3c 60 6c 36 3c 98 a2 2a bd e7 88 14 bd
       0.012652222 0.011134237 -0.041658968 -0.036263373
000350 af 71 2e 3b da ab bd 3a 9d 35 97 bc 49 44 0a bd
       0.0026618054 0.0014470771 -0.018458182 -0.033756528
000360 eb 5a 84 bd ce 91 a6 bc 84 ce 81 3d 41 f9 f0 bc
       -0.06462654 -0.020333197 0.06338218 -0.029415729
000370 90 bd 91 bc 0c 99 33 3c 4f 69 fd 3c c2 91 d2 3c
       -0.017790586 0.010961782 0.030934004 0.025704268
000380 9b 66 46 3d 67 37 0c 3d 81 2f e2 bc 28 b4 9f 3c
       0.048437696 0.034232523 -0.027610542 0.019495085
000390 76 02 04 3d c8 ac cd bc ef d7 ef bc 7f 34 82 3d
       0.03222891 -0.025106803 -0.02927777 0.06357669
0003a0 d1 2a 45 bb 8b 7c 5a bd cb bd 87 bd 66 07 4c 3c
       -0.0030085335 -0.05334143 -0.06627997 0.012452936
0003b0 97 de ec 3c 3b 02 41 3c 39 4d cc 3c 09 36 8e bd
       0.028914733 0.011780317 0.024939166 -0.069439
0003c0 78 3f f0 bc da b0 53 bb 22 c2 88 3d 81 a0 67 3d
       -0.02932714 -0.0032301457 0.06677653 0.056549553
0003d0 fd 9c 31 bd 62 8c 5c 3c ae 16 94 bc 7d ca c4 bc
       -0.043362606 0.013461204 -0.01807722 -0.024022335
0003e0 31 0d c9 b9 fb a2 85 3d d8 52 4b 3d ae 06 ba bd
       -0.00038347536 0.06525227 0.049639553 -0.09083305
0003f0 b2 71 e0 3c 16 57 66 bd 26 d3 05 3d e3 a6 ea 3c
       0.027397964 -0.056235395 0.03267207 0.02864403

encoder.convs.0.node_mlp.bias f4 [128]
000000 85 24 3d bd 14 de ce 3b 8f 94 75 3c 00 04 4a 3d
       -0.046177406 0.006313095 0.014989032 0.04932022
000010 c1 70 db 3c 80 5a 9d bc dc e9 72 bb 7c 9f 2a bd
       0.026787164 -0.019208193 -0.003706566 -0.041656002
000020 b4 6e 6b 3c 6a d2 78 bb f7 3f 3f 3d 39 dc 3d 3d
       0.014369655 -0.0037967213 0.04669186 0.0463526
000030 bd 9d 39 bd e3 ef 7f 3d f2 a9 40 bd c1 e2 8a 3c
       -0.045316447 0.062484633 -0.047037072 0.016953828
000040 06 e6 cf 3c 66 3f d6 3c b9 53 2b 3d 99 04 ca bc
       0.025378238 0.026153278 0.04182789 -0.024660395
000050 62 c7 59 3d af 7f 42 3c 79 3e be bb c6 ac 83 bc
       0.053168662 0.011871262 -0.005805787 -0.016073596
000060 d1 a9 6a bd 9c 26 e4 bc 84 cb b5 bb f0 83 9d 39
       -0.057290856 -0.027850442 -0.0055479426 0.00030043675
000070 72 e6 44 bc 2c e8 e6 3b e3 8a d3 bb b8 9a 14 bd
       -0.012017833 0.00704672 -0.0064557656 -0.036280364
000080 a6 7c 34 bb 43 1a 3a bd f0 4b f2 bb 28 76 1c 3d
       -0.0027540117 -0.0454352 -0.0073943064 0.03819862
000090 c2 db 01 bd 99 f3 fb 3c e5 2c b0 bc 65 c4 d1 bc
       -0.031703718 0.030755805 -0.021505782 -0.025606344
0000a0 17 2f d5 3c ba 56 79 bd 2d 8e 14 3d aa dd 15 3d
       0.02602343 -0.060873725 0.036268402 0.03658835
0000b0 d5 bd 9e 3c 3a 43 90 bb 97 47 17 bd 28 73 4b bd
       0.019377628 -0.0044025453 -0.036933508 -0.04967037
0000c0 d6 3e 2c 3d e4 65 57 3c d5 36 f7 3c 17 51 01 bd
       0.042052113 0.013146851 0.030177513 -0.031571474
0000d0 5e 05 33 3d 56 84 1a bd d0 19 51 3d 7d e8 55 3d
       0.04370629 -0.03772386 0.051050007 0.05222367
0000e0 c4 0f 4b bd bf 3d 64 bd 03 42 5c bd 94 a1 95 bc
       -0.049575582 -0.05572295 -0.05377389 -0.018265523
0000f0 1e 90 ed 3b a1 06 47 bd 16 f1 4b 3d 74 7e 01 bd
       0.007249846 -0.048590306 0.049790464 -0.031614736
000100 0f 2e 65 bc 5d 93 a5 3c 62 e2 11 bd f0 39 45 bc
       -0.013988032 0.02021187 -0.035616286 -0.012037739
000110 ae 95 61 bd 56 02 3e bd e3 e1 3a 3b ec a8 e0 bc
       -0.055074386 -0.046388946 0.0028515987 -0.027424298
000120 e6 fe 35 3d 1b 68 06 bd a0 4f e9 3c a5 57 59 3d
       0.044432543 -0.032814126 0.028480351 0.0530621
000130 03 70 d0 bc 46 bc 22 bc 16 a9 08 3d 6a 7e c2 bc
       -0.025444036 -0.009932583 0.033364378 -0.02374192
000140 ce c8 cf 3c 83 0f c3 bc dd 1d 66 bc 76 ef 45 bd
       0.025364306 -0.023811108 -0.014045206 -0.04832407
000150 63 d5 7b 3d 2a 35 72 bd 36 1b 9c bb 2f 92 b2 3c
       0.0614828 -0.059132732 -0.004763986 0.021798221
000160 85 62 fa bc 41 58 a5 bb e9 62 89 3d 3d fe 53 3c
       -0.030564556 -0.005045921 0.06708319 0.012939033
000170 97 dd 05 3d a4 8e 36 bd 14 a1 e2 3c 76 3e a6 3a
       0.032682028 -0.044569626 0.027664699 0.001268341
000180 74 c2 91 3b 1f bd b4 bc 34 b4 d1 bb fa 48 fe 3c
       0.0044482294 -0.022062836 -0.0063996557 0.031040657
000190 c9 20 03 3d 98 14 50 bd e6 83 48 3d ac 77 79 3d
       0.03201369 -0.05080089 0.048953913 0.060905144
0001a0 1d 7e ce bc 3e 2c 85 3c 3b 61 f1 3c 35 15 49 bd
       -0.02520662 0.016256448 0.029465308 -0.04909249
0001b0 3e 56 e5 3c 36 05 83 3d 02 55 47 bc 64 36 57 bd
       0.027995225 0.06397478 -0.012166264 -0.052542105
0001c0 66 ad 23 bd 7a c1 07 3d 9f 64 c6 3b 5d 57 bb ba
       -0.039960288 0.033143498 0.0060544754 -0.0014293004
0001d0 c6 e4 23 3b 2d 91 e8 3c f9 d0 15 3d 76 29 8b bb
       0.0025008186 0.028389538 0.036576245 -0.004246886
0001e0 6f 0a 3b bd e5 79 f1 3c 51 04 e6 3c b1 aa a0 3a
       -0.045664247 0.02947707 0.02807823 0.0012257901
0001f0 04 07 44 bd ef 9e d6 bc c7 c4 93 3c 6a 1b 13 3d
       -0.047858253 -0.026198832 0.018038167 0.035914816

encoder.convs.0.edge_mlp.0.weight f4 [128, 7]
000000 1d ac b8 be 36 d9 42 3d ee 79 58 3d c5 b2 c3 3d
       -0.36068812 0.04757043 0.052850656 0.09555582
000010 19 39 78 bd 0b 3b f0 3c 8f 41 cb be 7e 4a 30 bd
       -0.060601328 0.029325029 -0.39698455 -0.04303979
000020 bf 83 c8 be e0 11 a9 3e f2 1a 1f 3e 1e ab 07 3e
       -0.39163014 0.3302145 0.15537623 0.1324887
000030 82 19 46 be 14 5a 38 be ad d5 8e 3d 21 2c ac 3c
       -0.19345668 -0.18003112 0.06974349 0.021017136
000040 b2 e9 02 bd 38 f7 2e 3d b7 e8 bf 3c 9b e3 a9 be
       -0.03196115 0.042716235 0.023426397 -0.33181462
000050 29 0c cc 3e df d0 18 be cd f0 d0 3d a5 d1 64 be
       0.39853027 -0.14923428 0.10202179 -0.22345598
000060 13 a2 aa 3e 3d fd 27 be 93 11 62 3e db 22 21 3e
       0.33326778 -0.16405196 0.22077017 0.15735953
000070 b7 21 79 bd 73 80 c3 3c 04 a8 81 be ff 78 ad be
       -0.06082317 0.02386496 -0.25323498 -0.33881375
000080 42 dd 67 3e f3 50 81 3e f8 cb a7 be 57 fa 00 be
       0.22642997 0.25257072 -0.32772803 -0.12595497
000090 cf db 9e be f3 d7 9c be 0f 40 7b 3d 4d 17 aa bd
       -0.31027076 -0.30633506 0.061340388 -0.083052255
0000a0 08 a0 ba 3e d0 ba 95 3e 3b fa 5a be 12 40 a1 3e
       0.3645022 0.2924409 -0.21384518 0.31494194
0000b0 c2 02 69 3e fd 29 b0 3e ac a9 ae bd a6 0a 4d 3d
       0.22754958 0.34407035 -0.08528456 0.050058983
0000c0 01 42 56 be 32 bd 4f be 27 c1 a7 3e 7d 8a a3 3e
       -0.20923616 -0.20287016 0.3276455 0.31941596
0000d0 bc 49 bc be 5d 4f 40 3e 30 13 1d be e5 53 a0 be
       -0.36775005 0.18780275 -0.1533935 -0.31314006
0000e0 31 54 43 3e 2d ae a7 3d df c6 d1 bd 36 d9 b8 3e
       0.19075085 0.08187518 -0.1024301 0.3610322
0000f0 97 00 6e be 63 41 76 3e 7e 55 73 3e b7 85 6d be
       -0.23242413 0.2404838 0.23763081 -0.2319554
000100 5e 8a 31 3e 5e 59 10 be a7 61 15 be 3b 9c 7f 3e
       0.17337939 -0.14096591 -0.14588033 0.24961941
000110 6f 40 bc 3e 59 0d 92 be c1 07 cd 3e 94 b4 b8 be
       0.3676791 -0.28525808 0.40044978 -0.3607527
000120 fe c0 2c 3e 14 ea 9b be 2f 52 71 bd f8 73 b8 be
       0.16870496 -0.30452025 -0.058916267 -0.36025977
000130 9a 21 93 3e cb d6 2a be 9f 37 82 be 01 12 29 be
       0.28736573 -0.166835 -0.2543306 -0.16510774
000140 c4 e0 74 3e 52 87 1c 3e 43 d5 0d 3e 6a 77 a7 3e
       0.23913866 0.15285996 0.13850884 0.32708293
000150 30 3c 41 bd 0d ec 7f 3e ae 5b a4 be 07 54 92 be
       -0.04717654 0.2499239 -0.32101196 -0.28579733
000160 b6 37 4a 3e 88 43 9a be 1a 0d f9 3d f7 2b af 3d
       0.19747815 -0.30129647 0.12160702 0.085533075
000170 ee e2 41 3e 22 33 8a 3e 03 3c cc 3d 24 39 07 bd
       0.18934223 0.26992136 0.09972384 -0.033013478
000180 b1 3f a0 be 13 23 69 be 38 ba 03 be b1 c8 08 3e
       -0.31298593 -0.22767286 -0.12864006 0.13357808
000190 d6 23 58 be 7a ba 5c bd 6c 26 4f 3c 0f 7f c5 3c
       -0.2110742 -0.053888775 0.012643438 0.024108438
0001a0 2d b2 9d be af e0 59 3e e6 ad 1d 3d 48 16 9c 3e
       -0.308 0.21277116 0.03849592 0.3048575
0001b0 6f b8 96 be 57 21 21 3c c3 8f 03 3e e4 ea 43 3e
       -0.29437587 0.009834609 0.1284781 0.19132572
0001c0 75 2d 9a be fe 00 01 be 30 1b 43 bc 98 72 7a be
       -0.30112806 -0.12598035 -0.0119083375 -0.24457777
0001d0 86 80 a1 be 9a e3 3d 3d 30 68 58 3e 53 a6 a8 be
       -0.31543368 0.046359636 0.21133494 -0.32939395
0001e0 bd ea 62 bd cb 72 c6 be 48 4e bb 3d 81 e0 1a 3e
       -0.055399645 -0.38759455 0.0914579 0.15124704
0001f0 a5 2e b0 be e2 e9 0c 3e 73 e2 c2 bd e9 75 c2 bc
       -0.34410587 0.13761094 -0.09515848 -0.023737865
000200 9a b0 8d be 37 d0 38 bd 4c e0 38 3e 1a 2d 47 be
       -0.276738 -0.045120444 0.18054312 -0.19450799
000210 d7 10 be bd b2 ea 6c be 5d 0e 71 be 44 72 a6 3e
       -0.09280556 -0.23136404 -0.23540635 0.32509053
000220 c2 a1 75 3e 4c c4 33 be d8 4b c1 3e 75 7b b9 3d
       0.23987487 -0.1755535 0.37753177 0.09056751
000230 82 f8 0b 3e 6e 3b 96 be 94 e5 ab bd 24 b1 a0 3e
       0.13669017 -0.29342216 -0.08393398 0.31385148
000240 68 7c 80 3e 1e 19 51 3e c3 c1 2d be 0b 75 cd bd
       0.25094914 0.20419738 -0.16968445 -0.1003209
000250 d4 0e ee 3d ad c3 17 3e a9 98 f0 bd d1 80 4e be
       0.11623922 0.14820738 -0.117478676 -0.20166327
000260 71 c9 9f be 7d 83 af be 0c 49 20 be 40 72 52 3e
       -0.31208375 -0.34280005 -0.15652865 0.20551395
000270 21 c4 2f be 7d 3c 06 3e f0 65 86 be b3 35 d9 3a
       -0.17164661 0.13109012 -0.26249647 0.001657179
000280 6b 68 64 be 18 a6 47 be 71 36 7d 3e 99 2c ce 3d
       -0.22305457 -0.19496953 0.24727799 0.100671
000290 27 a7 a5 3e e4 78 cd 3d bd 18 e7 3c 49 f2 a4 3e
       0.3235409 0.10032824 0.028210038 0.322161
0002a0 cd da 8b be 88 c5 57 3e 96 95 a9 bc 6f 0c 7f bb
       -0.2731537 0.21071446 -0.020701211 -0.0038917323
0002b0 2e 49 64 be 58 7e 49 3a 50 eb 78 be 74 4e 88 3e
       -0.22293541 0.0007686368 -0.24308515 0.26622355
0002c0 94 a7 8e be e6 dd 11 bd 04 b5 c4 3e 68 75 b5 bc
       -0.27862227 -0.03561201 0.38419354 -0.02215071
0002d0 4d b9 9b be 25 41 bc 3d 92 93 d0 3d ab 52 3d be
       -0.3041481 0.09192113 0.10184397 -0.18488567
0002e0 9d 34 9a be 37 ca b5 be 81 44 50 be b8 fd b2 bb
       -0.30118266 -0.3550584 -0.20338632 -0.0054623745
0002f0 60 df b9 be ce 87 a9 be ad 31 03 3e d5 05 9d be
       -0.36303234 -0.33111423 0.12811919 -0.30668512
000300 48 91 e5 bc 21 3f c4 3d d0 2d b6 3e ef a7 be 3b
       -0.028023377 0.095823534 0.35581827 0.005818359
000310 4c d8 be 3c ee 7d 79 3e 5b 29 db 3d f0 d5 a5 3e
       0.023296498 0.24364445 0.10701247 0.32389784
000320 04 ee a0 bd 30 9d bd 3e 6f 85 94 be 93 f7 97 3e
       -0.07857898 0.37033987 -0.29008052 0.29681072
000330 65 2e f3 3d 53 2b f3 bc e3 80 bc 3e 46 34 4a 3e
       0.118740834 -0.029683745 0.36817083 0.19746503
000340 26 84 8a 3d 99 cd a6 bd e1 4c b1 3e e4 86 2a 3d
       0.067634866 -0.081446834 0.34628966 0.041632548
000350 c3 50 bc 3d e9 97 62 3b 7f b0 0a be a3 1d 50 be
       0.091950916 0.0034575409 -0.1354389 -0.20323806
000360 44 f4 62 3e 26 27 de 3d 9e 7e ac 3d 15 7d c4 3c
       0.22163492 0.10847311 0.08422588 0.023985425
000370 ae f9 dd bd b6 6c 66 bc a1 48 51 be e9 99 17 3d
       -0.10838638 -0.014064005 -0.20437862 0.037012015
000380 b2 d5 26 3e 55 6c bc be 2b d6 a3 3e d8 ae 11 be
       0.16292456 -0.368014 0.31999335 -0.14226854
000390 04 8e 96 3e 77 b5 a4 3e 23 22 2b 3e 80 6d b7 3e
       0.29405224 0.32169697 0.16712241 0.3582573
0003a0 87 01 b6 be 47 05 af be fa b5 26 3d 3e ca 2d be
       -0.3554804 -0.34183714 0.04070089 -0.1697168
0003b0 80 91 82 be 94 8d 8d bd 43 6c 5c be 87 dd 82 3c
       -0.25501633 -0.069117695 -0.21525674 0.015974773
0003c0 b6 6a 50 be a2 a5 e4 3d 4c e8 5e 3d 3d da 82 be
       -0.20353207 0.111644045 0.054420754 -0.25557128
0003d0 1b c6 10 be 62 e5 0c 3a f8 b7 6e 3e 98 64 a8 3e
       -0.14138071 0.0005374757 0.23312366 0.32889247
0003e0 b8 d3 db 3d b5 6f 30 bb 07 20 45 3b 2d c5 b1 3e
       0.107337415 -0.0026922051 0.0030078904 0.34720746
0003f0 36 41 55 be 08 0e 8f be 51 ed bc 3d 84 4d 83 be
       -0.20825657 -0.27940392 0.09224952 -0.25645077

encoder.convs.0.edge_mlp.0.bias f4 [128]
000000 b6 d1 13 3e 93 ad 1e 3e 1c 2e 84 be 8c a8 b8 3c
       0.14435467 0.15495901 -0.2581643 0.022541307
000010 2e 24 10 bd 36 45 7c 3e 71 51 34 bd 6e 75 45 be
       -0.035190754 0.24635777 -0.04402298 -0.19283077
000020 8e e8 56 3e b6 40 f5 bd 8a aa 2d bc b1 e4 b2 bd
       0.2098715 -0.11975233 -0.010599742 -0.08735026
000030 33 ec 35 3e 41 0c c4 bd 98 e4 28 3e f5 58 81 be
       0.17765884 -0.0957265 0.16493452 -0.2526318
000040 b7 42 3d bd 11 48 b7 3e 22 8c 5d be 63 72 8a bd
       -0.046206202 0.3579717 -0.21635488 -0.06760099
000050 3f 75 c9 bc 7f c8 76 3d ce 21 00 be 10 58 0a 3e
       -0.02459204 0.0602498 -0.12512895 0.13510156
000060 4a 6a ea bd 44 34 3e 3d 10 80 b0 3e d6 01 a9 3e
       -0.11446054 0.046436563 0.34472704 0.33009213
000070 c8 a7 f5 bd 8a b3 44 be 5d 5f 5d be 19 07 04 bd
       -0.11994892 -0.19209114 -0.2161841 -0.03223333
000080 19 65 99 b9 76 f2 ce 3d 4d 7c ec bd 98 55 26 3e
       -0.00029257758 0.101048395 -0.11547146 0.16243589
000090 42 06 6a 3c 6a 8e 9d 3d c0 9e bb 3e ed 61 19 3d
       0.014283719 0.07693179 0.36644554 0.037446905
0000a0 65 6f 2f 3c 30 19 d6 bd 8b 2c 8b 3e 62 d4 a3 be
       0.010707711 -0.10454023 0.2718242 -0.31997973
0000b0 f9 f9 32 be 8a da 8f 3d 90 68 61 3e 63 64 b9 be
       -0.1747817 0.07024105 0.22012544 -0.362094
0000c0 9d 16 1e bd d5 99 8f 3d b2 66 a6 3e 82 11 35 3e
       -0.038595784 0.07011763 0.32500225 0.1768246
0000d0 f3 22 a2 3e a2 6c b9 bd 76 26 b6 be 4d 4e 9f 3d
       0.3166729 -0.09053923 -0.35576218 0.077786066
0000e0 68 3e 7d 3e e3 ec de 3b 6d 23 d6 3d 35 18 bb 3e
       0.24730837 0.0068031414 0.10455976 0.36541906
0000f0 d3 57 b1 be 79 3e a7 3d 57 d5 e4 3d 63 73 6b 3d
       -0.34637317 0.081662126 0.11173504 0.05748309
000100 8c 15 b5 bd 5e 58 01 be 04 ba 2d 3e fc dc b2 3d
       -0.08842 -0.12631366 0.1696549 0.08733556
000110 c1 af c7 3d 9a 86 8d 3c a9 01 74 be 5a 5b 06 3e
       0.09750319 0.017276097 -0.23828758 0.13120785
000120 a5 e6 2e be f2 1b 73 be 99 a5 2a be 34 a7 a1 be
       -0.17080171 -0.23741129 -0.16664733 -0.31572878
000130 b5 80 9c be cc 9d 1d bd 2f 5d b8 be f7 8c 89 3e
       -0.30566946 -0.038480565 -0.36008593 0.2686536
000140 69 98 91 be d4 99 d7 3d bd 66 0a 3e cb 29 04 be
       -0.28436592 0.10527387 0.13515754 -0.12906568
000150 cf fa e1 3d e9 ab ae 3e 48 fe b8 be cc ce a8 bc
       0.11034166 0.34115532 -0.361315 -0.020606421
000160 4c 87 80 3e 54 0d b7 3e fd bd fd 3d 2e 9b a8 3e
       0.25103223 0.35752356 0.12389753 0.32930893
000170 97 f6 4c be 5d d8 a9 3e dd 1a a6 3d db ef 7e be
       -0.20015942 0.33172885 0.081105925 -0.24896185
000180 71 41 6e 3e d2 9e 9f 3e 53 d6 9d be 34 75 3e 3e
       0.23267151 0.31175858 -0.3082758 0.18599397
000190 a6 a2 bd 3d 41 67 a3 3e cf 97 b9 be 0c fb 3f 3e
       0.09259538 0.31914714 -0.36248633 0.1874811
0001a0 80 e1 be 3e b5 00 05 be 92 03 1f 3e 07 fb a8 be
       0.37281418 -0.12988551 0.15528706 -0.3300402
0001b0 4c b3 a5 3d de d0 85 be 2c 5e ba be c9 8b 37 3e
       0.08090839 -0.26135916 -0.36399972 0.17924418
0001c0 3a 92 50 3e 7d 53 40 3e 07 fc 90 3e ef eb b8 bd
       0.20368281 0.18781848 0.28317282 -0.09029376
0001d0 a0 24 8a be 65 f4 48 3e ee 07 96 3e ed 7c 92 be
       -0.26981068 0.19624479 0.29302925 -0.28610936
0001e0 79 3d 9b be 2b 3a 6b be a2 2c 69 be d5 ee 5b 3e
       -0.30320337 -0.22971408 -0.22770932 0.21477826
0001f0 a8 19 a6 be eb e3 e8 3d 16 93 44 3d 96 a3 91 be
       -0.3244145 0.11371597 0.047991835 -0.2844512

encoder.convs.0.edge_mlp.2.weight f4 [128, 128]
000000 3e 61 41 bc ef 46 9e 3d 20 a6 9c bd f7 d6 a1 bd
       -0.0118029695 0.07728373 -0.07648873 -0.079023294
000010 8c 97 2d 3d bb 16 c9 bd 74 b5 7a 3c 02 91 01 3c
       0.042380854 -0.098187886 0.015302051 0.007908108
000020 a9 5e 5e bd 9e f8 30 bd 26 da 83 bd 1b eb e8 3c
       -0.054289494 -0.04320585 -0.06438093 0.02843242
000030 d2 d9 9c bd 6e c1 91 3d 83 52 dd 3d 2d 27 09 3b
       -0.076587334 0.07116972 0.108067535 0.0020927892
000040 e9 7d 15 3d 8d a5 a9 bd 8a 1f 88 bd 8b ea a5 3d
       0.03649703 -0.082835294 -0.066466406 0.08101376
000050 5a 3b 0b 3d 07 77 36 3d 9a 86 19 bd a2 9a 73 bd
       0.03399215 0.044547107 -0.03748188 -0.05947364
000060 40 63 dd 3d 74 90 8a 3d 0f 14 8f bd 58 c3 dd 3c
       0.10809946 0.067658335 -0.06986248 0.027070686
000070 2f 30 1c bd d5 9b 41 bd 2b 9b 8f bc c8 60 9b bd
       -0.03813189 -0.047267754 -0.017530045 -0.07586819
000080 7f 85 fc bb 1c 63 29 bd 92 93 ab 3d 2b 2f 5e bd
       -0.0077063437 -0.041354284 0.08377756 -0.0542442
000090 a2 08 40 bd 23 f3 2a 3c c0 34 99 3d 7a b4 15 3d
       -0.046883233 0.010433945 0.074807644 0.03654907
0000a0 4a 2e 02 3d a5 13 b2 bd 4a 4b 17 3d 97 da 53 bc
       0.031782426 -0.08695153 0.036937036 -0.012930534
0000b0 58 37 9f bd e7 17 c8 ba 0f ed b3 bd 47 2e 0c bd
       -0.07774228 -0.0015265913 -0.0878545 -0.03422382
0000c0 c2 11 40 3d c8 1f 5e 3d 83 d1 cc bd 0d 15 fc 3c
       0.046891935 0.054229528 -0.10000899 0.030771757
0000d0 bc 0b 0a 3d 4c a6 4e bd c2 43 b3 bc bd be cc bd
       0.033702597 -0.05045156 -0.021882895 -0.09997318
0000e0 e7 76 14 bd 0b ae 97 3d 45 e6 ff 3d 73 95 0c 3d
       -0.036246207 0.07406243 0.12495092 0.034322213
0000f0 be 6c ed bc be 75 58 bd 83 1e ec 3c ec ed cf bd
       -0.028982516 -0.052846663 0.028823143 -0.10152802
000100 4e b3 21 bd fe e6 08 3d bf e4 6d 3d ef 65 58 3a
       -0.03947764 0.033423416 0.058079477 0.00082549354
000110 dd 5a ce bc 74 fb 25 3c 14 a9 33 3d cf ff de bd
       -0.025189811 0.010130752 0.043862417 -0.10888635
000120 7c 38 fe bc 42 49 71 bd 6c e9 67 bc 61 f1 58 3d
       -0.031032793 -0.058907755 -0.014154773 0.052964572
000130 20 07 a0 bd 05 5b be bc 0e b7 2b bd 1f 31 db 3c
       -0.07813859 -0.02323676 -0.04192262 0.026756821
000140 d4 c5 d9 3d a6 c3 70 3c b4 2d 12 3d 19 7b 2b 3d
       0.10633436 0.014695084 0.035688117 0.041865442
000150 2e 86 90 3d 3c e0 91 bd 8d ef fc bc b5 28 20 3d
       0.07056843 -0.071228474 -0.030875945 0.03910132
000160 8a 43 52 bd 3b 58 56 bd 40 52 ae 3c ed 6a 34 bd
       -0.05133394 -0.052330237 0.021279454 -0.044047285
000170 1e 5b d4 3c db 5f 86 3d 65 d8 80 3d 89 17 52 3c
       0.025922354 0.06561252 0.06291274 0.012822994
000180 41 57 ab bc 8c 1c de 3a 42 0b 33 bd 1a e4 1e bd
       -0.02091563 0.0016945763 -0.04371191 -0.038791753
000190 3e 3c a4 3d 7b cd aa bd ee 07 b9 3c 6d b2 0d bd
       0.08019303 -0.083399735 0.022586789 -0.03459399
0001a0 b2 ca 5d 3d 23 20 3b bd 0b 6e 86 3d 47 18 31 bd
       0.054148383 -0.045684945 0.06563958 -0.043236043
0001b0 a1 41 61 bd 5b 71 97 3d 8f a1 1a 3c 80 90 71 3d
       -0.05499423 0.07394668 0.009437933 0.058975697
0001c0 3e 2d ae bd ca db 84 3d 58 8b 27 3c 8a 7e ca 3d
       -0.08504723 0.06487234 0.010226093 0.09887417
0001d0 ce 6e 53 bc 42 03 91 3c 05 e6 9c 3c ca 0d 10 bd
       -0.012904836 0.017701749 0.01915265 -0.0351694
0001e0 c5 ea 99 3c 92 15 44 bd d3 bb 72 3d 66 07 ab 3d
       0.018788705 -0.047872134 0.059261154 0.083510205
0001f0 6f 73 d6 bc 3d 60 b4 bc d8 bc e4 b9 ac 0f d6 3c
       -0.02617809 -0.022018546 -0.00043628248 0.02613052
000200 fc e2 7e bd 39 8c d9 bc 45 76 c6 3d f4 70 4c bc
       -0.062228188 -0.026556121 0.09690527 -0.012478102
000210 b1 02 13 3d a3 ed 43 3d 53 84 54 3d b1 97 9a ba
       0.03589124 0.04783405 0.051884007 -0.0011794475
000220 c7 b1 98 bc fe 80 c2 bd 99 e8 aa 3d 28 05 0a bd
       -0.018639458 -0.094972596 0.08345146 -0.033696324
000230 4d cc 80 3c 03 d8 9f bd 15 f9 05 be 4c 9f ea bb
       0.015722418 -0.07804873 -0.13083299 -0.007160103
000240 95 07 76 bd 28 6a 42 bd 1d 69 24 bd c0 a3 78 3d
       -0.060065825 -0.04746452 -0.040139306 0.06070304
000250 9d 1f 61 3c 8c af 76 bb b0 49 8c bd e0 55 5b bc
       0.013740447 -0.0037641255 -0.06849992 -0.013387173
000260 d4 16 2d 3d bf 1a d8 3d c0 22 a4 bc 4b 6b b5 bd
       0.0422581 0.105519764 -0.020036101 -0.08858355
000270 82 2d 5b 3d e9 3b fa bc 92 61 ab bc e7 e3 9e 3d
       0.053510197 -0.030546146 -0.020920549 0.07758313
000280 15 06 da 3c 0c 52 b2 3c 04 e4 6d 3d 3e 25 34 3d
       0.026614228 0.021767639 0.05807878 0.04398083
000290 e5 d6 9e 3d fb 29 97 3d 0f 5f 5b 3c 08 4d e2 3d
       0.07755832 0.07381054 0.013389363 0.11049849
0002a0 56 23 b1 bd 55 12 17 bd 8b f3 8d bd ab d6 b9 bb
       -0.08649318 -0.036882717 -0.06931218 -0.0056713424
0002b0 60 79 af 3d db 1f a6 bc 5b 13 25 bc a0 fe b9 3b
       0.08568072 -0.020278862 -0.0100754155 0.0056761056
0002c0 02 c7 1e bd cd 04 a9 bc 6f 10 c1 3d d9 4f 9f bd
       -0.038764007 -0.020632172 0.094269626 -0.077789016
0002d0 44 de 5c 3c 7f 1a a8 bc bd 64 bc 3d 4c 3b 15 bc
       0.013480727 -0.020520447 0.09198902 -0.009108376
0002e0 a6 e8 6a bd 12 00 50 bd 65 3b 85 bd ce 37 99 bd
       -0.057350777 -0.050781317 -0.06505469 -0.07481347
0002f0 c6 1b 35 bd 2d a4 85 3c 79 67 d4 bb 2c 45 65 3d
       -0.04421594 0.016313637 -0.0064820615 0.05597417
000300 16 31 aa 3c cd b8 ca bc 17 07 93 bd d3 8e c5 bd
       0.02077536 -0.024746323 -0.07179087 -0.09646382
000310 fe 13 da bc 08 f1 e8 3b 47 ef b6 3d 37 29 bf 3d
       -0.026620861 0.0071088113 0.08932357 0.09334033
000320 a9 44 cb 3d 8b b6 8f 3d b2 ef 95 3d 5c de cc 3c
       0.09925205 0.07017239 0.07321109 0.025008373
000330 d3 7f 49 3d 2e e9 26 bd e6 27 57 bd 49 8b b9 3c
       0.04919417 -0.04074972 -0.052528284 0.022649424
000340 b0 7c 8a 3d 0b ce b9 bc 60 8c b4 3d 39 d5 9d bc
       0.067620635 -0.022681257 0.08815837 -0.019266712
000350 90 bd 6a bd 98 4a 98 3d 98 3d 98 bd 17 6b 3b 3d
       -0.057309687 0.07436103 -0.07433623 0.045756426
000360 ca 13 83 3d 7e c2 01 3d f9 92 0d bd 42 18 df bd
       0.06400259 0.031679623 -0.034563992 -0.10893299
000370 81 2a 90 3d 29 e5 7d 3c 1f c8 90 3d df 01 89 bc
       0.07039357 0.015496531 0.0706942 -0.016724525
000380 58 a0 e7 bc 23 31 a9 bd 67 75 ad 3d f7 65 dd bd
       -0.0282747 -0.08261325 0.08469658 -0.10810464
000390 cf 04 73 bd 9c fb 3e 3d d0 1d c9 3c 26 e1 fa 3b
       -0.059330758 0.046626672 0.024550349 0.0076562343
0003a0 66 59 98 bd 2c d2 8a bd 3b eb 1c bd 9a 2e d9 3c
       -0.074389264 -0.06778368 -0.03831027 0.02651148
0003b0 f2 a2 46 3d 9a c7 32 3d fa 28 ad 3d c7 e6 35 3d
       0.04849524 0.043647386 0.08455081 0.04440954
0003c0 64 23 f8 bb 9d f4 a3 bd 48 5a f1 bc ee 8b 86 3b
       -0.0075725783 -0.08005641 -0.029461995 0.0041060364
0003d0 87 19 02 3d ff d7 31 3d 1f d8 97 3d 2f 6c 6f 3c
       0.031762626 0.04341888 0.07414269 0.014613195
0003e0 7c e4 98 bd 56 b0 df bc 28 ec cc 3c 3b 61 77 3d
       -0.07465455 -0.027305763 0.025014952 0.06039546
0003f0 43 b4 b0 3a c6 95 73 bd ad e6 46 3d 71 66 f3 bb
       0.0013481457 -0.059469007 0.048559833 -0.0074279835

encoder.convs.0.edge_mlp.2.bias f4 [128]
000000 78 9e 86 3c dd be a1 bd b5 59 9e bc 8a 36 fa 3c
       0.016432986 -0.078977324 -0.019329885 0.030543584
000010 7e 15 22 bd 05 41 e1 3c e8 f7 00 bc 70 fe ad bd
       -0.039571278 0.027496824 -0.007871605 -0.08495796
000020 98 b4 83 bd f8 e5 0e 3c 28 e2 94 bd 51 d8 86 3d
       -0.0643093 0.008721821 -0.072696984 0.06584228
000030 0f e8 e4 3c 92 68 95 3d b7 b8 ab bc d5 96 47 3d
       0.027942685 0.07295336 -0.020962102 0.04872783
000040 c4 be 99 bd 92 92 1e 3d f3 40 29 3d df 38 95 3c
       -0.07507089 0.038714 0.041321706 0.018215595
000050 1a d6 3b bd 23 dd 3b bd b0 c1 1f bd ed ee 8b 3d
       -0.04585848 -0.04586519 -0.039003074 0.06832681
000060 55 e0 e9 3c 24 83 07 bd 05 bb 54 bc 39 68 1c bc
       0.028549353 -0.03308405 -0.012984042 -0.009546333
000070 12 21 fd 3c e5 24 9b 3d 64 6f 4a 3d 72 3e 88 3d
       0.030899558 0.075753964 0.049422637 0.066525355
000080 60 9f 2e bd 66 1d a6 3c 56 c9 8f 3d f7 d8 8d 3d
       -0.04263246 0.02027769 0.07020824 0.069261484
000090 4c 8d 88 3c f8 83 95 3d ce dd 2f bd 1a d2 c5 bd
       0.016668938 0.07300562 -0.04293614 -0.09659214
0000a0 ef e1 4f 3b 0e 2c 64 3d 1d 18 79 3d 1f 18 71 bd
       0.003172036 0.055706076 0.06081401 -0.058860894
0000b0 c4 82 86 3d 29 1d 94 bd 5b 7c 8f 3d 1d 7d 4d bd
       0.0656791 -0.07232124 0.07006141 -0.050168145
0000c0 39 ac b1 3d 4b 63 4f 3d 5b 43 67 3d 17 b2 27 bc
       0.08675427 0.050631803 0.05646072 -0.010235331
0000d0 7f 2e a5 bd 3e 13 67 bd 5e 49 c2 bd 94 65 d3 bc
       -0.08065509 -0.056414835 -0.0948665 -0.025805272
0000e0 b9 5a db bc 96 38 8c 3c e8 f1 8f bd f4 d4 98 bd
       -0.026776658 0.017116826 -0.07028562 -0.074624926
0000f0 10 56 61 3a f1 ca c0 bc 57 f8 75 bc 91 1e a0 bd
       0.0008595893 -0.02353427 -0.015012822 -0.0781833
000100 e5 d4 c3 bd 4a c2 c6 bd 80 c7 27 bd 69 fb ac bc
       -0.09562091 -0.097050264 -0.040961742 -0.021115975
000110 1b ed 96 bd 5e 7f 8c bd 59 4a 27 bc 9b 6f b8 3d
       -0.07369443 -0.06860231 -0.010210597 0.09005662
000120 35 e4 7a 3d a0 33 90 bb 89 7e 5e bd 6c ef 87 3c
       0.06125279 -0.0044006854 -0.054319892 0.016593657
000130 e3 bd 9d bd 17 a6 96 bd 65 0f 3c 3b 01 46 43 bb
       -0.07702234 -0.07355898 0.00286957 -0.0029796364
000140 9b e8 32 bd af 62 c8 bb ea 9e c9 3a 6b 03 32 bc
       -0.04367886 -0.0061152796 0.0015382443 -0.010865073
000150 8e 09 bf 3c 00 cf 43 3d f3 1f 47 bd 5c 83 29 bc
       0.023319986 0.047804832 -0.048614454 -0.01034626
000160 82 3b 81 bd f7 69 80 bd a0 30 bb bd f3 f4 9a bd
       -0.06310178 -0.06270211 -0.09140134 -0.075662516
000170 5d f0 36 bd aa 81 60 b9 b3 73 4a bc c2 6c d7 3c
       -0.044662822 -0.00021410608 -0.012356686 0.026296977
000180 b6 8e 66 3d 3a 48 d2 3c c9 5b cb 3b 56 84 99 3c
       0.056288444 0.025669206 0.00620601 0.01873986
000190 c8 71 4c bd 14 fc d9 3a 02 19 fc 3c 7e dc 8e 3d
       -0.049913198 0.0016630911 0.030773643 0.06975649
0001a0 9d 6d a8 3d 5a a5 a3 bd 80 77 0a 3c a1 58 9a 3d
       0.08224032 -0.07990523 0.008451343 0.07536436
0001b0 2e 72 0c 3c be a8 a5 bd cc df 73 3d 62 f5 ab bd
       0.008572144 -0.08088826 0.0595396 -0.083964124
0001c0 77 9d 4b bd 4e f7 84 bd ca bd b5 3d fe 9f 9f 3d
       -0.049710717 -0.06492482 0.0887409 0.07794188
0001d0 fe e3 ef bc 90 bd 69 3c 13 18 17 3d 77 d2 b1 bd
       -0.02928352 0.014266387 0.036888193 -0.08682721
0001e0 b7 18 48 bd 7d 96 2b bd b7 ab 00 3b b8 56 02 bd
       -0.048851695 -0.041891564 0.00196336 -0.031820983
0001f0 86 bd 6b 3d a1 af 88 bd c5 0f bc bc 05 a8 8b 3b
       0.05755379 -0.066741236 -0.022956738 0.004261973

encoder.convs.0.norm.weight f4 [128]
000000 2f 1a 7b 3f da 53 7e 3f 17 a5 79 3f 6c 4b 7c 3f
       0.9808683 0.993467 0.9751753 0.98552585
000010 07 22 79 3f d0 19 7d 3f 3c aa 7b 3f 8a 41 7c 3f
       0.97317547 0.9886751 0.9830663 0.98537505
000020 1f 0a 7a 3f 2b 3b 7c 3f 25 7a 7a 3f f1 70 7b 3f
       0.97671694 0.98527783 0.9784263 0.9821921
000030 9c dd 78 3f 9e c1 7e 3f 43 1b 7c 3f 56 9c 7a 3f
       0.9721315 0.99514186 0.984791 0.978948
000040 be 5e 7b 3f d6 e4 7a 3f d3 92 7c 3f 13 ac 79 3f
       0.9819144 0.98005426 0.98661536 0.9752819
000050 5e 8c 7c 3f 48 60 7a 3f 07 25 7b 3f 7e 65 7c 3f
       0.98651683 0.97803164 0.98103374 0.98592365
000060 a0 d6 7c 3f 68 a4 79 3f 02 a0 7d 3f a5 e3 79 3f
       0.9876499 0.9751649 0.9907228 0.97612983
000070 a0 92 7b 3f 99 81 7b 3f 8f 64 7b 3f 9c 1d 7a 3f
       0.98270607 0.98244625 0.98200315 0.9770143
000080 e5 bd 77 3f fb 29 7d 3f 77 99 7a 3f 8d f7 7b 3f
       0.9677413 0.9889218 0.9789042 0.9842461
000090 a7 40 7d 3f 0c ec 7b 3f 8a da 7b 3f ce f5 78 3f
       0.98926777 0.98407054 0.9838034 0.9725007
0000a0 e5 2c 7d 3f bc b4 7a 3f 84 6e 7e 3f 12 43 79 3f
       0.9889663 0.9793203 0.99387383 0.97367966
0000b0 95 19 7c 3f f4 dc 79 3f ac e6 77 3f ec ae 7c 3f
       0.98476535 0.9760277 0.9683635 0.9870441
0000c0 bd d9 79 3f 87 16 7b 3f c2 52 7a 3f eb 65 7b 3f
       0.9759787 0.9808125 0.9778253 0.9820239
0000d0 18 cb 7c 3f 48 18 79 3f 6a 78 7a 3f 18 39 7a 3f
       0.98747396 0.97302675 0.9783999 0.9774337
0000e0 35 3a 7d 3f 3e 47 7b 3f 1d 09 79 3f f3 48 7a 3f
       0.9891694 0.9815558 0.9727953 0.9776756
0000f0 af b6 80 3f c9 0f 7c 3f 01 8d 7b 3f e4 14 7b 3f
       1.0055751 0.98461586 0.9826203 0.9807875
000100 8b ee 7a 3f a3 17 7b 3f 12 99 7b 3f 05 b5 7b 3f
       0.9802024 0.9808294 0.9828044 0.9832309
000110 02 42 7e 3f e6 5c 7b 3f cd b6 79 3f 93 7c 7a 3f
       0.9931947 0.98188627 0.97544557 0.97846335
000120 31 81 7f 3f 15 13 7e 3f cd a6 7c 3f e6 6a 7c 3f
       0.99806505 0.99247867 0.9869202 0.98600614
000130 f8 a0 7c 3f 47 d3 7a 3f 58 9a 7b 3f 71 15 7a 3f
       0.9868312 0.97978634 0.98282385 0.97688967
000140 22 3e 78 3f d8 65 7c 3f a0 22 7a 3f 45 71 7c 3f
       0.9696981 0.985929 0.97709084 0.98610336
000150 6d 4f 7a 3f a4 be 7c 3f 0d ac 7a 3f 58 fc 7d 3f
       0.97777444 0.98728395 0.9791878 0.9921317
000160 0d d0 7a 3f 91 18 7d 3f df c1 7a 3f b0 07 7c 3f
       0.9797371 0.9886561 0.97952074 0.9844923
000170 83 af 7d 3f b1 b4 79 3f 81 59 7d 3f 92 f5 78 3f
       0.99095935 0.9754134 0.989647 0.9724971
000180 cb 40 7d 3f ab a5 7a 3f cb cd 79 3f 7b 4c 7c 3f
       0.9892699 0.9790904 0.9757964 0.985542
000190 02 d4 7b 3f e5 32 77 3f 24 1f 7d 3f f6 9f 7b 3f
       0.98370373 0.96562034 0.9887564 0.98290956
0001a0 20 fb 7d 3f c7 dc 7a 3f 90 be 78 3f 21 67 7d 3f
       0.9921131 0.9799313 0.97165775 0.9898549
0001b0 8e 41 7c 3f 32 b8 7c 3f 13 93 7c 3f 81 24 7c 3f
       0.9853753 0.9871856 0.9866192 0.984932
0001c0 00 bf 7b 3f ef 0e 7a 3f 1a 62 7a 3f 2d 71 7a 3f
       0.9833832 0.97679037 0.9780594 0.9782894
0001d0 66 66 7b 3f 53 d0 7b 3f e4 93 7d 3f 8e 56 7b 3f
       0.9820312 0.9836475 0.9905379 0.98178947
0001e0 3b 1a 7b 3f 5f a4 79 3f 5a 62 7d 3f de 48 7a 3f
       0.980869 0.97516435 0.989782 0.97767437
0001f0 cd 25 7b 3f 41 9d 7a 3f 35 ee 7d 3f 84 a2 7a 3f
       0.98104554 0.978962 0.991916 0.9790423

encoder.convs.0.norm.bias f4 [128]
000000 0f 42 a9 39 08 ac 00 3c 31 a4 15 3c f6 4a a6 bb
       0.0003228341 0.007853515 0.009133385 -0.005074854
000010 3a fc 01 bc 92 a9 8e 3b 4f d4 75 3c 3f c1 43 3c
       -0.007933671 0.0043537105 0.015004232 0.011947929
000020 c1 8c cd 3c 07 05 fc 3b bb 9a 08 3d b5 56 18 bc
       0.02509153 0.007691029 0.033350687 -0.009298016
000030 50 b0 2d 3d 1b 14 e6 3c 6b f1 c8 3c 02 0a 28 bc
       0.042404473 0.028085759 0.02452918 -0.010256292
000040 e4 89 c0 3c 5f f4 4d 3c c7 81 ad 3b e6 17 79 3b
       0.023503251 0.01257047 0.0052950117 0.003800863
000050 1e 8a 00 bd 8e 44 30 bd 53 e3 b6 bc 4a db 35 bc
       -0.03138172 -0.04303413 -0.022325194 -0.011099646
000060 7d cd 87 bc 90 b0 d3 ba d6 04 a4 bc 2d a7 62 bc
       -0.016577477 -0.0016150642 -0.020021837 -0.013833803
000070 ff 44 cd bb 40 9b af bb c4 11 3b bb d9 35 12 3c
       -0.0062643285 -0.0053590834 -0.0028544525 0.008923971
000080 de 55 86 bc a7 5b 8e bc 24 69 d5 ba 0a 2a dd bc
       -0.016398367 -0.017377688 -0.0016281945 -0.026997585
000090 7c cf 0c 3d c3 dd f4 3c eb 32 8c 3c fe 99 bd 3b
       0.03437756 0.0298909 0.017114123 0.0057861796
0000a0 89 c4 d2 bb 37 bf aa bb db 5d 39 bd db d1 c3 bc
       -0.00643212 -0.005210783 -0.045255523 -0.023903778
0000b0 b7 8b 8d 3c 87 24 06 3d f5 13 71 bb 52 25 c5 3b
       0.017278535 0.03274968 -0.0036785577 0.006016412
0000c0 2e c6 26 bb e5 6f 6a 3c 88 d1 c9 bb af b2 91 3c
       -0.0025447714 0.014308904 -0.0061590113 0.017785398
0000d0 66 4b 2f 3d e8 f9 8f 3c 07 ea 03 3c c6 1b fc bb
       0.042796515 0.01757522 0.008051402 -0.0076937405
0000e0 29 99 6a bb c2 d0 d1 3c 6b 6a 31 bc ef c0 95 bc
       -0.0035796857 0.025612239 -0.010828595 -0.018280474
0000f0 8a 9e b0 3c 16 b7 45 bd 17 b4 c6 ba 3a ca a5 3c
       0.021559972 -0.048270307 -0.0015159872 0.02023803
000100 c0 cf a9 ba 1b 6d db bb d2 c8 80 3b 55 b1 81 3c
       -0.0012955591 -0.006696356 0.0039301896 0.015831629
000110 8e 77 ee bb dd 9a 43 bd 9c 35 e5 3b d5 7c 6c 3c
       -0.0072774356 -0.04775511 0.006994916 0.014434059
000120 57 14 30 3d c3 29 b5 bc 5a 03 6b bb 99 e3 04 3c
       0.042988148 -0.02211464 -0.0035860152 0.008110904
000130 ee fa cf 3c 77 38 ef bb 4d f6 1f 3b 3b 63 7a 3c
       0.025388207 -0.0073004323 0.0024408281 0.015282447
000140 2c 75 f3 3c 4a 1a 97 bc 11 83 d8 3c 8b b6 29 bc
       0.029718958 -0.018445153 0.026429685 -0.010358463
000150 5d b3 20 3d 50 6a 58 3b b8 fe 7b 3c b9 d6 f7 3b
       0.039233554 0.0033022352 0.015380554 0.0075634387
000160 2c a9 5f bb 4a 5a 74 bc 63 c2 88 3c 32 bb 2d bb
       -0.0034127934 -0.014914105 0.016694253 -0.0026509282
000170 fb d3 e0 3b 78 77 01 bc 41 7d 91 3c c0 a1 2b bc
       0.0068612075 -0.007902019 0.017759921 -0.010475576
000180 57 78 4d bc df 25 3f bc 0d 4b 57 bc 35 e0 41 3c
       -0.012540898 -0.011666744 -0.013140452 0.01183324
000190 ed cf 0a bc 9f 28 54 bb fc db fd bb a8 4d 0f 3d
       -0.008472425 -0.0032372845 -0.0077471714 0.03498617
0001a0 35 8e bb 3c 22 9f 51 3b d4 d9 2f bc 66 03 c9 3c
       0.022894958 0.003198572 -0.010733087 0.024537753
0001b0 76 04 15 bc b0 76 8c 3c 79 de 3b 3c f9 c3 38 bc
       -0.009095302 0.017146438 0.011466616 -0.011277192
0001c0 f6 cb 80 3c c1 1a 47 3c 76 48 16 3a 89 b0 06 3c
       0.015722256 0.012152375 0.00057328434 0.0082208
0001d0 f5 3b c6 3b 1f 02 45 3c 5e 2c b9 bb 56 f8 bb 3c
       0.006049628 0.0120244315 -0.005651041 0.022945564
0001e0 94 4b 75 bc ab 5e 05 3c 23 5e 16 bd ea d5 70 3c
       -0.0149716325 0.008140246 -0.03671087 0.014699439
0001f0 ce f5 4d bc 12 27 1d 3c ea ee b5 bc 01 c5 91 bc
       -0.012570811 0.009591835 -0.02220865 -0.017794134

encoder.convs.0.norm.mean_scale f4 [128]
000000 df 9c 81 3f 7b c4 81 3f cf b8 7d 3f e8 ec 7a 3f
       1.0125998 1.0138086 0.9911012 0.9801774
000010 ff 4c 80 3f f3 b0 80 3f 85 83 81 3f 02 5b 75 3f
       1.0023497 1.0054001 1.0118262 0.9584199
000020 a4 5f 80 3f ac 7a 7b 3f b5 44 82 3f 5e ca 79 3f
       1.0029187 0.9823406 1.0177218 0.9757441
000030 ce 6e 83 3f ba 0f 83 3f 02 c0 81 3f 9f c6 78 3f
       1.026819 1.0239174 1.0136721 0.9717807
000040 d6 86 84 3f a8 69 7e 3f 7e b1 80 3f 00 a4 81 3f
       1.0353649 0.9937997 1.0054166 1.0128174
000050 ce 96 80 3f 65 f5 83 3f 14 30 75 3f ae bc 7e 3f
       1.0046022 1.0309263 0.95776486 0.9950665
000060 03 0d 7c 3f c3 f3 7c 3f 2a 8e 78 3f 48 54 84 3f
       0.98457354 0.9880945 0.97091925 1.0338221
000070 ae f9 7d 3f 69 12 79 3f d2 69 80 3f b2 d4 7a 3f
       0.99209106 0.97293717 1.0032294 0.979808
000080 5c 54 81 3f 9a 92 80 3f fb 72 7b 3f 7a 30 80 3f
       1.010387 1.0044739 0.9822232 1.0014794
000090 11 ec 82 3f 01 7f 82 3f d7 1b 7a 3f 92 09 7c 3f
       1.0228292 1.0195009 0.9769873 0.98452103
0000a0 3c 29 79 3f 77 a9 78 3f f2 e0 81 3f e9 dd 7f 3f
       0.97328544 0.9713358 1.0146773 0.99947983
0000b0 26 5a 81 3f a1 11 80 3f 90 fe 80 3f 42 8e 79 3f
       1.0105636 1.000538 1.0077686 0.97482693
0000c0 93 a8 7d 3f b1 36 81 3f 69 d6 80 3f 13 a7 7f 3f
       0.9908535 1.0094815 1.0065433 0.9986431
0000d0 c9 2b 83 3f 3b 3a 80 3f 47 75 7b 3f de 70 80 3f
       1.0247737 1.001777 0.98225826 1.0034444
0000e0 8f a9 81 3f 27 d4 82 3f ea 64 7e 3f c4 5c 7f 3f
       1.012987 1.0220994 0.9937273 0.99750924
0000f0 26 11 82 3f 92 f1 80 3f 9f 68 7a 3f 46 eb 7e 3f
       1.0161483 1.0073721 0.9781589 0.9957775
000100 79 b3 7e 3f ed 05 79 3f 15 a3 7d 3f 21 26 7b 3f
       0.99492604 0.9727467 0.9907697 0.98105055
000110 7d 15 7d 3f d6 f7 83 3f 19 eb 81 3f 22 70 77 3f
       0.98860914 1.0310009 1.0149871 0.96655476
000120 26 df 83 3f bf b5 82 3f 60 40 80 3f 8c b1 82 3f
       1.0302474 1.0211715 1.0019646 1.0210433
000130 05 de 81 3f de 7f 7d 3f 8d 4b 83 3f 16 68 83 3f
       1.014588 0.99023235 1.0257431 1.026614
000140 1c 98 81 3f 2a 82 76 3f d7 0b 83 3f bc a9 78 3f
       1.0124545 0.96292365 1.0237988 0.97133994
000150 ac c3 82 3f 7d 8e 81 3f d5 42 80 3f da 88 7c 3f
       1.0215964 1.0121609 1.0020396 0.9864632
000160 66 16 7d 3f bd 4e 82 3f 81 b0 80 3f 39 ee 7f 3f
       0.988623 1.0180279 1.0053865 0.99972874
000170 ee 3d 78 3f c2 c7 7c 3f 12 f0 7c 3f ba 32 80 3f
       0.969695 0.98742306 0.9880382 1.001548
000180 9b 16 7c 3f 86 74 79 3f 03 a2 81 3f 03 14 7e 3f
       0.98471993 0.97443426 1.0127567 0.99249285
000190 7d c5 7d 3f 9e 5c 81 3f 92 eb 79 3f c0 04 7d 3f
       0.9912947 1.010639 0.97625077 0.9883537
0001a0 f7 d0 80 3f 2f 1a 80 3f 8c 8f 7f 3f e9 f7 7e 3f
       1.0063771 1.0007991 0.9982841 0.9959703
0001b0 b7 24 82 3f 1f a7 81 3f e6 a5 81 3f 16 f2 7a 3f
       1.0167454 1.0129126 1.0128753 0.98025644
0001c0 d3 6e 81 3f 29 c5 7e 3f f3 d2 7d 3f fa 6f 79 3f
       1.0111946 0.9951959 0.9915001 0.9743649
0001d0 5f 44 80 3f 12 40 7d 3f b2 87 78 3f c6 c3 7f 3f
       1.0020865 0.9892589 0.97082055 0.999081
0001e0 e0 ce 81 3f 30 63 7b 3f de 43 80 3f d6 ae 7f 3f
       1.0141258 0.98198223 1.0020711 0.99876153
0001f0 4e 41 7a 3f 82 10 80 3f a6 95 76 3f 74 4f 80 3f
       0.977559 1.0005038 0.96322095 1.0024247
