checkpoints/model_A_epoch_49.pth (torch, 552117 bytes, 26 tensors)

encoder.node_embedding.weight f4 [1, 128]
000000 a9 d3 de 3f 85 46 aa 3f 24 a4 44 3f 38 cf f1 bf
       1.7408344 1.3302771 0.7681296 -1.8891363
000010 7d 9e 14 3f b3 63 8a bf a6 2b 37 3b b8 a7 b9 bf
       0.58054334 -1.0811676 0.00279496 -1.4504309
000020 d2 62 2b bf a1 a4 bb 3f 91 c9 a6 be 83 38 a1 bf
       -0.6694766 1.4659616 -0.32575658 -1.2595371
000030 a0 3c 22 bf 70 38 ee be 28 6d 2c bf 07 0d 24 3f
       -0.63373756 -0.46527433 -0.6735406 0.6408238
000040 22 84 bd 3f 8f 7d c2 bd 48 95 d1 be 0a 1a b4 3e
       1.4805949 -0.09496605 -0.40934205 0.35176116
000050 91 d2 23 bf 41 29 70 3f bf 39 30 3f 8e de c3 3f
       -0.63993174 0.9381295 0.68838114 1.5302293
000060 38 d9 91 3f 47 4f 94 3f 7b fc 00 3f 71 2c 98 3f
       1.1394415 1.1586694 0.50385255 1.1888562
000070 01 79 1f be cd 98 9d ba 60 92 3b be 0a eb 42 3f
       -0.15573503 -0.0012023688 -0.18317556 0.7613989
000080 24 57 98 bf 6e 03 46 bf b6 4e 2e be 15 e1 c9 3f
       -1.1901593 -0.77348983 -0.17022213 1.5771815
000090 cc 56 6a 3e c3 33 ad be 01 c9 82 3e 0e e3 27 bf
       0.22884673 -0.33828554 0.2554398 -0.6558083
0000a0 31 da b3 bf 98 fe 5b 3f dd 07 49 bf 36 b7 fc be
       -1.4050962 0.85935354 -0.78527623 -0.4935853
0000b0 70 17 93 bf 24 cb f5 3f 95 3e 8b bf bf fb c7 be
       -1.1491528 1.9202619 -1.0878474 -0.39059255
0000c0 07 a6 4c bf 6f ba 0c bf 2d b9 a7 3c 7f 4c e6 3e
       -0.7994084 -0.54971975 0.02047404 0.44980237
0000d0 5f e0 d3 be b8 89 88 3f 61 33 2b bf aa d2 16 bf
       -0.4138212 1.0667028 -0.66875273 -0.589152
0000e0 ee c3 9e bf 0a 64 70 3a 78 fe 39 bb 7c 70 1b 3f
       -1.2403543 0.00091701804 -0.0028380435 0.6071851
0000f0 dc d5 2f bd f2 e2 d0 3f 89 be 87 bf 24 24 a0 3f
       -0.04292856 1.6319258 -1.0605022 1.2511029
000100 cc 73 a4 3f 52 11 43 3f 67 7a 00 40 fe d8 d2 3e
       1.2847838 0.76198304 2.0074708 0.41181177
000110 b2 d3 8e 3e 76 9b e6 bd db ef 69 bf f3 1e 91 3f
       0.27895886 -0.112601206 -0.91381615 1.133757
000120 da 86 e1 bd 21 55 d7 3e 08 55 d0 3c 17 2d bb 3e
       -0.11012049 0.42057136 0.025431171 0.36557838
000130 57 23 e7 3e d4 16 0b bf 70 c1 01 c0 3f 59 29 bf
       0.4514415 -0.5433171 -2.0274315 -0.66151804
000140 eb 42 1e 3a ff 94 8e be b2 e4 97 bf 23 eb f5 be
       0.0006037193 -0.2784805 -1.1866667 -0.48030958
000150 7b 41 ed 3e a0 2a df 3e 1a 76 81 3f 35 f2 a6 3a
       0.4633902 0.43587208 1.0114167 0.0012736978
000160 36 ab 22 3f 4b 55 cc be 48 4e 75 bf 1f 4e 03 3f
       0.635425 -0.39908823 -0.9582257 0.5129108
000170 6e d4 ca bf b2 e3 35 bf 1d 4f a6 3f 47 0a bd 3e
       -1.5846078 -0.7105056 1.2992893 0.36921903
000180 95 9f 12 c0 8b fe d6 3e c4 fd 2a 3f 87 0e 7f ba
       -2.29099 0.41991076 0.66793466 -0.0009729643
000190 f9 ee 02 3f 40 89 f6 3e d5 7a 74 3f 56 7d c8 be
       0.51145893 0.48151588 0.95499927 -0.39158124
0001a0 0f 05 10 be b6 c4 27 3f 43 62 9c 3e 20 a3 be 3d
       -0.1406443 0.6553453 0.30543718 0.093084574
0001b0 01 ea 4f 3e bb 51 8c 3f 9d e6 a7 3a c2 8c 7c be
       0.20304109 1.0962442 0.0012809817 -0.2466307
0001c0 e0 20 a7 bf fc 50 ba bb d0 4a f8 be 0b 84 b5 3e
       -1.3056908 -0.0056859236 -0.48494577 0.35452303
0001d0 fe 82 1e 3f a8 9d a1 3a 1b b3 9a be 81 a7 ee 3e
       0.6191863 0.001233031 -0.30214772 0.4661217
0001e0 8f 93 08 b9 a2 17 30 3e f6 97 a3 3d b1 1d 21 3f
       -0.0001302494 0.17196515 0.079879686 0.6293593
0001f0 65 e2 77 3f cb 87 77 3e 1b dd 16 3f 8d eb a8 3e
       0.96829826 0.24172895 0.5893113 0.3299221

encoder.convs.0.node_mlp.weight f4 [128, 256]
000000 ca 50 70 3d 55 55 e3 ba 78 e9 74 3d eb ea 06 3c
       0.058670796 -0.0017344157 0.059792966 0.00823472
000010 c3 00 21 bd 0f c3 f8 3c 45 62 95 bc 7d c9 03 bd
       -0.039307367 0.030366449 -0.018235335 -0.032174576
000020 3c 4f 6d bd 47 6c 44 bd 35 e8 d8 3b c2 4a b9 bc
       -0.057936892 -0.047954824 0.006619478 -0.022618655
000030 77 17 52 3c 2e 89 6c bd 96 84 08 3d 54 8b 06 bd
       0.012822977 -0.057748012 0.03332957 -0.032847717
000040 3e 03 4d b9 84 4a 03 3b d6 23 a7 3c 42 b5 68 3d
       -0.00019551531 0.0020033428 0.02040283 0.056813486
000050 55 63 31 3d 0b a7 14 bd 1a 5c c8 3c 7f 49 78 bc
       0.04330762 -0.036292117 0.02445798 -0.015154242
000060 e0 66 67 3b 25 fc 09 bd bf ac 80 3d 8a 7a 06 bd
       0.003530912 -0.03368773 0.06282949 -0.032831706
000070 e2 cc b1 3c 1d 02 0b 3d d9 f2 0e 3c d9 6b b0 bc
       0.021704141 0.033937562 0.008724892 -0.0215358
000080 54 5b 30 3d 10 8f 48 3b 45 e7 20 bb 71 97 29 bd
       0.043055847 0.003060285 -0.002455191 -0.04140419
000090 7c 1f 0b 3d 23 a0 99 bc 02 8e 89 bc 6b b3 24 3d
       0.033965573 -0.018753117 -0.016791347 0.04021017
0000a0 37 47 4d 3b 99 63 b7 bc 6d 22 21 bd 0e 21 4e bc
       0.0031322965 -0.022386359 -0.03933947 -0.012581123
0000b0 31 dd b9 3c 43 79 a1 bb 18 3e 30 bd db d0 f4 bc
       0.02268848 -0.0049277856 -0.043027967 -0.029884746
0000c0 3e a8 5a bd 67 90 34 3c 96 7e 65 3d 6f 54 38 bd
       -0.053383105 0.011020756 0.056028925 -0.045002397
0000d0 73 7f 67 3b 87 63 23 3d 7d 95 40 3a 52 1a fa bc
       0.0035323768 0.03988984 0.0007346494 -0.030530129
0000e0 6d c4 a7 3c 5e 41 52 3c c9 14 49 3c 47 f9 c1 b9
       0.020479405 0.012832968 0.012273022 -0.00036997555
0000f0 2a e5 d7 bc 79 01 84 3c 54 e5 a4 bc 1e 34 f4 bb
       -0.026354391 0.016113983 -0.020128883 -0.007452502
000100 8e 61 40 3d 83 0b 75 3d 85 18 86 3b 32 80 4f bb
       0.046968035 0.05982543 0.0040922784 -0.0031662104
000110 f8 85 2e 3c 55 7e 67 bc a4 29 85 3b 03 0a d6 3c
       0.010652058 -0.014129241 0.004063802 0.02612782
000120 c3 d8 80 bd 6c 26 40 bc 81 0e 77 3d 7d cc 04 3d
       -0.06291344 -0.0117279105 0.060316566 0.032421578
000130 1f 35 e6 3b f2 9f 37 bd d4 61 3a bd ae a3 7d bd
       0.0070253755 -0.04483027 -0.045503452 -0.061923675
000140 3e 00 9a bb 1b 95 22 3c ed 41 df 3c aa c3 8a 3c
       -0.004699736 0.009923245 0.027253116 0.016939003
000150 f7 00 2a bd ff 9d cf bc 34 0c 4a 3a dc 59 9c 3d
       -0.041504826 -0.025343893 0.0007707507 0.07634327
000160 03 30 94 3c 31 97 cb bc 35 1a 6a 3c cf b1 49 bc
       0.0180893 -0.024852367 0.014288475 -0.012310459
000170 c8 83 42 bd 1b ac 05 3d ff 85 88 bc bc d6 ea ba
       -0.047488958 0.032634836 -0.016665457 -0.0017916779
000180 c4 df 8a bd 72 5f 47 3d 0e 37 5d 3d 1b 0e a1 3c
       -0.06780961 0.048675008 0.054007582 0.019660046
000190 c2 da fa bc 6f 71 42 bd fc 11 19 bd 53 96 08 3d
       -0.03062189 -0.04747146 -0.037370667 0.033346485
0001a0 31 ed 92 3c 97 84 70 3d a2 4f 24 3d ba f7 c6 3c
       0.017935367 0.058720198 0.040115006 0.024288047
0001b0 96 89 19 3c 2e c4 0c bd 72 d7 97 bc f0 6d 83 bd
       0.009371182 -0.03436678 -0.01853535 -0.06417453
0001c0 8f 3b 65 3c 4c 40 1c bd b1 2a af bc 2d d3 c0 bc
       0.013991251 -0.038147256 -0.021382662 -0.023538196
0001d0 1c fc 2e ba f8 7e f4 bc 64 bc 42 bd 9f 38 ee 3c
       -0.00066751405 -0.0298457 -0.047542945 0.029079733
0001e0 67 25 b2 bc 8b 85 3a 3d 1b 9d 0d bc a9 ad 06 bd
       -0.02174635 0.045537513 -0.008643414 -0.03288046
0001f0 95 10 b6 b9 b8 3b 96 bc 30 39 02 bc 1e ae 3a bd
       -0.000347261 -0.018339023 -0.007948205 -0.045576207
000200 3f e1 3c 3d fa 8d 42 3d da 5e e4 bc df 26 e0 3b
       0.04611325 0.04749868 -0.02787726 0.0068405713
000210 7c 60 dd 3c 3b 63 4a bc 2a a1 75 3d 7a ca b9 ba
       0.027023546 -0.01235276 0.05996815 -0.0014174723
000220 ea 58 d2 3d dc ec a5 3c b7 db 11 3d 2f 6d 9d bc
       0.10270865 0.020254545 0.035609927 -0.019217102
000230 6e 49 90 bd 11 59 f6 bc 22 dc 22 bd 76 a5 56 be
       -0.070452556 -0.030071767 -0.039760716 -0.20961556
000240 3a 9b 12 3d 5c 93 e0 3c a1 b3 fb 3c ac ec 80 bd
       0.035792567 0.027414016 0.030725302 -0.062951416
000250 99 ce 30 be 66 30 28 3d 34 fe 04 3d a2 7b 92 bd
       -0.17266311 0.04106178 0.03246899 -0.07152487
000260 5c af 08 bd 68 8d 99 3d d0 27 4e bc 76 25 c3 bd
       -0.03337036 0.07497674 -0.012582734 -0.095286295
000270 0e 81 5f bc e4 02 9b bc bf 66 31 bd 08 63 ea 3d
       -0.013641609 -0.018922277 -0.043310877 0.1144467
000280 d4 3c a5 3d 06 a9 34 3d c2 db 80 bd f4 24 a4 bc
       0.08068243 0.044106506 -0.062919155 -0.020037152
000290 52 8f 23 bc 09 61 55 bd fc 1d ad 3c 56 88 32 3d
       -0.009982901 -0.052094493 0.021132462 0.04358705
0002a0 c7 2e ec bd f3 bd 92 3d 8e 28 58 bd d8 fe 7b bd
       -0.115323596 0.07165136 -0.05277305 -0.061522335
0002b0 c1 2f 60 bd 1d ce 11 bd 51 73 85 bd 7e 02 4b 3c
       -0.05473304 -0.035596956 -0.065161355 0.012390731
0002c0 0e 37 4a bd ff 4e 6e bc ad 08 29 bd 84 15 cd 3d
       -0.04936891 -0.014545201 -0.04126804 0.100138694
0002d0 b1 93 00 bd 2b d6 b6 bc dc 43 e3 3d b3 89 6f bd
       -0.03139085 -0.02231892 0.110969275 -0.05848093
0002e0 c3 87 d7 bc 97 af 12 3d 17 1c 50 3d b7 f9 07 3e
       -0.026309853 0.035811987 0.05080804 0.13278852
0002f0 1d df f2 3c 02 fe ad 3c 2c 10 97 bc 93 e2 23 be
       0.029647404 0.021239284 -0.018440329 -0.160044
000300 f7 0a 13 bc 17 c8 26 bd ea c3 84 3b 81 59 9c 3d
       -0.008974782 -0.040718164 0.004051675 0.07634259
000310 f3 f3 57 3d 0a cd cc bd a2 29 72 bd 85 e3 78 bd
       0.052722882 -0.100000456 -0.059121735 -0.060763855
000320 bd 64 b5 3b 16 b5 6a ba bb b8 95 3d e6 e1 af bc
       0.0055356906 -0.00089533755 0.07310625 -0.021470021
000330 8b 8c 14 bd 7d de 5a bd 28 0b 70 3d c0 d8 06 bd
       -0.036266845 -0.053434838 0.05860439 -0.032921553
000340 f4 8d ed b9 f3 93 91 bd 4e 1e ea bc 83 ab 65 bd
       -0.00045309926 -0.07108297 -0.028578904 -0.05607177
000350 0e 07 89 3c c4 b0 8d bd c2 60 5b bd 07 c6 f2 bc
       0.016726997 -0.06918481 -0.053559072 -0.029635442
000360 24 dc 73 bd 11 77 74 bd e5 e5 bd 3d c5 f3 0d bd
       -0.059536114 -0.059683863 0.092723645 -0.034656305
000370 01 7c 3b bd 1e ea 2b 3d cc 3e d9 3c 9c cc df 3c
       -0.045772556 0.04197132 0.026519202 0.027319245
000380 69 30 d3 3c a7 a0 86 3c 5c e9 1a be 37 0b 6f 3c
       0.02577992 0.016434027 -0.15128082 0.014590076
000390 33 c3 1f 3d cc f5 15 3d d2 e6 bb bb 73 e9 28 3d
       0.039004516 0.036611363 -0.005734303 0.04123826
0003a0 8f bc 15 be ee 69 ab bd 33 9d 8f bb 1f 8a ca 3d
       -0.1462271 -0.08369814 -0.0043827533 0.09889626
0003b0 61 69 cf 3d 17 59 26 3d 6e c9 22 3d b1 5d a1 bd
       0.10127521 0.040612306 0.03974288 -0.07879198
0003c0 33 b1 85 bd e4 91 b9 bc 46 c9 54 3d df 94 4f 3c
       -0.06527939 -0.022652574 0.05194976 0.012669771
0003d0 29 1d 13 bd f1 f4 61 3b fd 44 0e be 92 a0 b3 3c
       -0.03591648 0.0034478272 -0.13893504 0.021927152
0003e0 a1 57 ad 3d 15 7a 01 bd b1 31 2e 3e eb a3 43 bd
       0.084639795 -0.031610567 0.17011143 -0.047763746
0003f0 94 29 01 3e aa 04 c0 bc e7 0e 2e 3c 41 23 83 3d
       0.12613517 -0.023439724 0.01062367 0.064032085

encoder.convs.0.node_mlp.bias f4 [128]
000000 5e 4a 13 bd bb 9c 3d 3b 86 68 79 3b 33 dc 3a 3d
       -0.035959594 0.002893253 0.0038056686 0.045620155
000010 22 cc d8 3c 99 d4 8f bc b3 55 ad bb 3f 7c 25 bd
       0.026464526 -0.01755743 -0.005289757 -0.040401693
000020 43 89 a0 3c 81 5f 77 bb b6 01 a1 3d 58 28 33 3d
       0.019596701 -0.0037746134 0.078616545 0.043739647
000030 ef d1 1d bd d5 9d 87 3d 49 01 7e bd df 53 79 3c
       -0.038530286 0.06621901 -0.062012944 0.01521775
000040 a0 14 ad 3c f2 0b 20 3d 79 54 39 3d b8 81 69 bc
       0.021127999 0.039073892 0.045246575 -0.014252119
000050 e6 11 50 3d d3 e5 db 3b a7 2d 3f bb 9b 2d cf bc
       0.05079832 0.006710747 -0.0029171498 -0.025290301
000060 93 30 42 bd 49 8c 99 bc 60 2d 34 3b e8 f5 4a 3b
       -0.047409605 -0.018743651 0.0027492866 0.0030969325
000070 75 26 9f bb 0a 6b 03 bc 4f 10 ca 3b 60 11 0e bd
       -0.0048568794 -0.008021126 0.006166495 -0.03468454
000080 09 9c a6 3a 70 ab 35 bd 79 b1 4b 3c d8 e1 0d 3d
       0.0012711297 -0.04435295 0.0124324495 0.03463921
000090 6b 5d f5 bc e0 05 0f 3d 75 59 c6 bc 58 c6 09 bd
       -0.029951772 0.034917712 -0.024212578 -0.03363642
0000a0 6f f7 21 3d e7 96 6b bd c0 fe 24 3d bc e7 3b 3d
       0.03954261 -0.05751696 0.04028201 0.045875296
0000b0 87 f2 11 3d 58 a9 9f bb fe b6 fd bc 26 93 2d bd
       0.035631683 -0.0048724823 -0.030971047 -0.04237666
0000c0 cf a4 56 3d f0 16 af 3c 61 42 d6 3c 46 1d e0 bc
       0.052403267 0.021373242 0.026154699 -0.027357709
0000d0 e1 8c 14 3d 46 5c f9 bc 36 30 54 3d 6e 62 29 3d
       0.036267165 -0.030439507 0.05180379 0.041353635
0000e0 74 1a 5b bd 9c aa 26 bd d4 30 6f bd f6 5c 2e bd
       -0.053492025 -0.04069005 -0.058396176 -0.042569123
0000f0 72 66 74 3c f9 ef 75 bd 41 76 f4 3c a8 d7 e2 bc
       0.014917003 -0.06004331 0.029841544 -0.027690724
000100 82 c0 73 bc 9d 3b 1a 3c 08 75 3d bd 75 51 7c bc
       -0.01487744 0.009413627 -0.046254188 -0.01540028
000110 36 2e 64 bd 35 6f 44 bd bd 03 11 3b 7b 4f 08 bd
       -0.055708133 -0.047957618 0.0022127472 -0.033278923
000120 3a 6e 84 3d 9b 75 d1 bc 85 82 e8 3c 49 b6 19 3d
       0.064663365 -0.025568774 0.028382549 0.037527356
000130 23 18 a1 bc 73 a1 b1 bc 51 ad d9 3c a3 6b 07 bd
       -0.01966483 -0.02168343 0.026571902 -0.033061635
000140 58 d7 59 3c 00 c7 2b bc 48 fa 87 b6 9b 85 2c bd
       0.013295971 -0.010484457 -4.05245e-06 -0.042119604
000150 c2 69 05 3d f5 6a 3c bd 2e 8f 86 bc 61 4c d4 3c
       0.03257156 -0.04600044 -0.016425695 0.025915327
000160 23 cd 39 bd 0e ed 04 bc a9 37 76 3d 1e 6c 72 3c
       -0.04536165 -0.008113159 0.060111675 0.014796285
000170 f7 53 07 3d 1a fa 31 bd 50 cf 18 3d ae 4c f3 bb
       0.03303906 -0.043451406 0.037307084 -0.0074249124
000180 aa af 30 3c 37 34 bd bc 89 ee a2 bb b7 1d 1f 3d
       0.010784069 -0.023096187 -0.0049722833 0.038846698
000190 de 4a 23 3d 4b a4 32 bd ef 5c 80 3d fb e6 3c 3d
       0.03986632 -0.043613713 0.06267726 0.046118718
0001a0 82 3b bc bc b8 db 32 3c f3 44 9d 3c 54 60 6f bd
       -0.022977594 0.010916643 0.019197917 -0.058441475
0001b0 4a f9 53 3c 50 b2 70 3d c3 89 6f bc 0c 78 63 bd
       0.012937853 0.058763802 -0.014620247 -0.055534407
0001c0 67 d5 0b bd 26 44 32 3d 70 ea df 39 ea aa 1e bc
       -0.034139063 0.043522023 0.00042708544 -0.009684304
0001d0 f6 47 45 3b 38 70 ce 3c 4c 4a 13 3d c7 c6 2a 3c
       0.0030102707 0.025199994 0.035959527 0.010423369
0001e0 e8 6b 50 bd ea d8 ed 3c b3 3a 7f 3d c7 16 95 3c
       -0.050884157 0.029034097 0.06231184 0.018199338
0001f0 10 66 02 bd 73 87 07 bc 8c d7 cb 3c 5c 35 46 3d
       -0.031835616 -0.00827204 0.024883054 0.04839073

encoder.convs.0.edge_mlp.0.weight f4 [128, 7]
000000 88 00 05 bf 4e ae ec 3e fc a9 61 3d 09 2d c6 3d
       -0.51953936 0.46226734 0.05509375 0.096765585
000010 99 7d 80 3c fd 32 38 bd 70 60 d7 be 90 d5 be bc
       0.01568489 -0.0449705 -0.42065763 -0.023295194
000020 aa 5e d9 be 9f 08 b6 3e 5a f3 19 3e 1f 83 b6 3d
       -0.42455035 0.35553452 0.15034238 0.08911728
000030 01 71 54 be 81 60 6b be 32 f5 28 bd 17 66 50 3d
       -0.20746233 -0.22986032 -0.04124946 0.05087861
000040 86 38 ec 3c 48 06 8a 3d 3c 3b ed 3c 89 99 8b be
       0.028835546 0.06739479 0.02895891 -0.27265576
000050 8e 03 ed 3e 66 5e fd bd 3a 16 a8 3d d1 47 49 be
       0.46291775 -0.12371521 0.082073644 -0.19656302
000060 02 58 99 3e 10 eb ed bd 1e 84 6b 3e 06 d8 4a 3e
       0.29949957 -0.116171 0.22999617 0.19808969
000070 f3 37 b6 3c 29 64 08 3e 88 38 90 be 55 51 86 be
       0.022243476 0.13319458 -0.2816813 -0.26233926
000080 69 cc bf 3e 96 61 81 3e 6d c8 cc be b2 ff 1a be
       0.3746064 0.25269765 -0.39996663 -0.15136603
000090 60 16 86 be 7f f2 a1 be 36 e5 f9 3c e4 db 6b bd
       -0.26188946 -0.31630322 0.030504804 -0.05758275
0000a0 48 ca b2 3e 4e db 9e 3e 34 b5 64 be 78 db 9c 3e
       0.34919953 0.3102669 -0.22334749 0.3063619
0000b0 65 3a 95 3e ad ff b7 3e a4 2b 7b bd 10 b7 26 3d
       0.29146114 0.35937253 -0.061320916 0.040701926
0000c0 59 af 47 be 14 f9 34 be 1d e4 75 3e 28 3b 98 3e
       -0.19500484 -0.17673141 0.240128 0.29732633
0000d0 b7 f5 b5 be d4 00 16 3e dd 0d 05 be c6 6c 93 be
       -0.35539028 0.14648753 -0.1299357 -0.28793925
0000e0 b0 ed 24 3e 03 2a bc bd c2 1a 0e be e4 3e b2 3e
       0.16106296 -0.091877006 -0.13877395 0.34813607
0000f0 14 88 55 be 73 01 82 3e e3 9d 40 3e 0f b1 97 be
       -0.20852691 0.2539173 0.18810229 -0.29627272
000100 97 e3 83 3e 86 d2 3d be 63 23 e2 bd 65 d2 3b 3e
       0.25759575 -0.1853734 -0.11041906 0.18341978
000110 15 dd bf 3e 1b e6 a1 be 42 46 fa 3e 68 e8 b9 be
       0.3747336 -0.3162087 0.48881727 -0.36310124
000120 6d b9 09 3e 0b 9a 92 be bb cd 0b 3d 64 62 76 be
       0.1344964 -0.2863315 0.034131747 -0.2406097
000130 47 48 b0 3e e8 93 5d be 74 a5 07 bf 83 06 23 be
       0.34430143 -0.21638453 -0.52986836 -0.15920453
000140 9f cf 80 3e d9 11 69 3e 9e b9 41 3e 66 1e 90 3e
       0.25158402 0.22760715 0.18918464 0.28148192
000150 a5 03 19 bd e2 8b d1 3e 4b d4 b0 be b6 3d 53 be
       -0.03735699 0.40927035 -0.34536967 -0.2062901
000160 21 c0 a1 3e 01 4c 4c be 71 37 38 3e 24 32 16 3e
       0.31591895 -0.19950868 0.17989899 0.14667565
000170 df e5 36 3e 8a a2 c1 3e 58 a6 ff 3d 13 60 36 3c
       0.17861126 0.3781932 0.124828994 0.011131304
000180 82 1e c2 be cc 7b 20 be 1f a3 a4 bb 02 d0 ed 3d
       -0.379139 -0.15672225 -0.0050243284 0.1161194
000190 f7 44 80 be cc f4 0d bd c9 73 31 3d fc a4 7f 3b
       -0.25052616 -0.034657285 0.043323312 0.003900825
0001a0 c2 31 91 be 8c 44 9b 3e f2 c6 b8 3d 52 3d bc 3e
       -0.28358275 0.30325735 0.09022321 0.36765534
0001b0 c9 c2 75 be 14 73 84 3c ba 1e 83 3d ca 07 8a 3e
       -0.24000086 0.016168155 0.06402345 0.26959068
0001c0 1d db 6a be a9 88 d4 bd 8e 35 1c be a9 53 9b be
       -0.22935148 -0.10377628 -0.15254804 -0.30337265
0001d0 da 28 04 bf d1 5e 13 3d be 83 9d 3e 51 d4 b8 be
       -0.51624835 0.035979096 0.30764574 -0.36099485
0001e0 06 31 18 3e c3 18 da be fc 8d ae ba 58 29 90 3d
       0.14862451 -0.42597017 -0.0013317461 0.07039136
0001f0 41 fb cb be da 34 03 3e 1b 08 1d be 3a d5 04 be
       -0.3984013 0.1281313 -0.15335123 -0.12971964
000200 c4 5b 4a be 44 3a 10 3d 86 8e 5e 3e 87 29 15 be
       -0.19761568 0.035211816 0.21734056 -0.14566623
000210 43 cc b8 bd 3f b8 88 be 60 a6 46 bd ce 23 a4 3e
       -0.09023335 -0.2670307 -0.04849851 0.32058567
000220 af 9a 7e 3e d8 03 6e be d3 e9 b0 3e 1c 6e d7 3c
       0.24863695 -0.23243654 0.34553394 0.026297621
000230 1d 67 ec 3d 41 fe 50 bf 5b 34 7c bd bd d5 bb 3e
       0.11543105 -0.8163796 -0.061573368 0.36686507
000240 e7 a1 8b 3e 8c 80 45 3e 63 59 b3 bd 50 67 6e bd
       0.2727196 0.19287318 -0.087572835 -0.058203995
000250 ee 5f 3f 3e e1 ad 25 3e fb c6 db bd 23 90 8b be
       0.18688938 0.16179611 -0.10731312 -0.27258405
000260 f9 eb b0 be 28 80 93 be 6e ed 72 bd 61 7a 98 3d
       -0.34555033 -0.28808713 -0.05930846 0.07445217
000270 0e 23 48 be 82 91 d0 3d 2e fb 8e be 69 83 31 3d
       -0.19544622 0.101840034 -0.2792601 0.043338213
000280 94 fc bc bd 50 f0 8b be 65 9d 96 3e f6 4c eb 3d
       -0.09227863 -0.2733178 0.29416957 0.114892885
000290 c2 45 bc 3e 95 f8 42 3d 4a d1 c3 bc f8 94 7b 3e
       0.3677197 0.047600348 -0.023903508 0.24568546
0002a0 a6 a3 6f be c0 ad 1a 3e d5 61 7b 3b ce d1 c7 bc
       -0.2340227 0.15105343 0.0038357873 -0.024392035
0002b0 5b 1e 9c be 2d 12 da 3b 99 d6 58 be b5 df 9c 3e
       -0.3049191 0.0066549988 -0.21175613 0.30639425
0002c0 78 c9 68 be 84 29 88 bb c3 de c8 3e 92 4b 1e 3d
       -0.22733104 -0.0041553397 0.39232454 0.03864629
0002d0 79 f9 7b be 99 2a 9b 3d aa a7 3a 3e af 48 83 be
       -0.24606885 0.07576484 0.18228021 -0.2564139
0002e0 d9 78 aa be db 1a fb be d9 40 81 be 6e b7 d6 3c
       -0.33295324 -0.49043927 -0.25244787 0.026210513
0002f0 a5 fb b1 be af bf a0 be 00 fe 24 3e b4 4d 8c be
       -0.34762302 -0.31396243 0.16112518 -0.27403033
000300 87 b6 ac bc 91 75 db 3d dd 7e a6 3e dd ab 9f bc
       -0.02108313 0.107157834 0.32518664 -0.01949113
000310 4c 01 36 3d 0d 40 02 3f 00 c8 90 3d e1 39 b2 3e
       0.04443483 0.50878984 0.07069397 0.34809783
000320 ef 0c 24 be 89 bf c6 3e 95 e8 93 be 19 fb 6d 3e
       -0.16020559 0.38818005 -0.28888384 0.23240317
000330 c9 d0 b2 bd ec 5a 85 3d 9f e0 da 3e a6 b4 59 3e
       -0.08731229 0.065114826 0.42749497 0.21260318
000340 3f 25 ad 3c b1 ea c2 bd e7 77 df 3e 85 16 b6 3d
       0.021135924 -0.0951742 0.43646166 0.08891014
000350 aa 0e ac 3d 7d 73 3b 3d b4 92 a1 bc fa a0 2c bd
       0.084012344 0.045764435 -0.019723274 -0.042145707
000360 bf 90 5d 3e 30 87 41 3d 55 45 56 3a 9a 52 35 bb
       0.21637248 0.047248065 0.00081737834 -0.0027667643
000370 dc b8 15 be c9 e9 b9 bb c7 f7 32 be d8 11 f5 3d
       -0.146213 -0.0056736213 -0.17477332 0.11966294
000380 07 6d 98 3d f3 a0 00 bf 26 f4 c4 3e 2e ba 1a be
       0.0744267 -0.5024559 0.3846752 -0.15110084
000390 33 e0 9b 3e 89 20 81 3e f0 26 86 3d e7 36 c2 3e
       0.30444488 0.25220135 0.065503955 0.37932512
0003a0 7e 05 b0 be 5f 0f c8 be 46 00 b5 3d 0b 51 cf bd
       -0.3437919 -0.39074227 0.08837943 -0.101228796
0003b0 be 1c f3 bd 2a 3e 84 bc 0d 2b 1e be f0 35 41 3d
       -0.118707165 -0.016142923 -0.1544611 0.04717058
0003c0 25 6e 4e be 0a 10 c2 3d 11 61 8d 3d c1 39 52 be
       -0.20159204 0.094757155 0.069032796 -0.20529844
0003d0 9f 37 ac bd 20 74 d6 bd 65 8f d5 3e fa 75 b5 3e
       -0.084090464 -0.10471368 0.41710964 0.3544157
0003e0 7c e4 e5 3d a6 b6 29 bd 57 26 8b bd e0 b3 93 3e
       0.112252206 -0.041433953 -0.06794422 0.2884817
0003f0 7e a6 8f bd 1b ae 50 bd a9 dc 0f 3e 1c 48 41 be
       -0.07014178 -0.05094729 0.14049019 -0.18875164

encoder.convs.0.edge_mlp.0.bias f4 [128]
000000 ad 93 e2 3d cf cf 2d 3e c1 c9 80 be 8d 03 ee 3c
       0.11063323 0.16973804 -0.25153926 0.029054428
000010 d2 16 0a 3d 54 95 50 3e fb 3b 8c bd 30 89 31 be
       0.03371317 0.20369464 -0.06847378 -0.17337489
000020 81 b8 19 3e 22 da da bd 97 81 da 3c 49 4f ce bd
       0.15011789 -0.10686137 0.026673121 -0.10073716
000030 41 3d 24 3e 15 ed 2c bd b9 5c 26 3e 1b b2 5b be
       0.16038992 -0.042218287 0.16246308 -0.2145466
000040 14 84 48 3c 19 3f 9c 3e 1c 37 2e be 49 8a be bd
       0.012238521 0.3051689 -0.1701321 -0.093037196
000050 18 90 f8 3c 52 42 99 3d 7f 7b 99 bd 89 ab c5 3d
       0.030342147 0.07483353 -0.07494258 0.09651858
000060 f3 dc 98 bd 60 de 25 3d eb 32 9b 3e 74 b4 8b 3e
       -0.07464018 0.040495276 0.30312285 0.27286112
000070 8a e9 f5 bd 12 53 2c be 9e 9d 83 be cb cc 46 bd
       -0.12007435 -0.16828564 -0.2570619 -0.04853515
000080 e1 23 0a bd 05 a7 f4 3d 84 4a 3f bd 23 52 0a 3e
       -0.033725623 0.11945919 -0.046701923 0.13507895
000090 26 06 4e 3d 78 e4 70 3d be ec 9c 3e 3b 84 9e 3c
       0.050298832 0.058811635 0.3064937 0.019350162
0000a0 b0 99 e7 bc 53 19 ed bc 63 a8 60 3e b8 eb 83 be
       -0.028271526 -0.02894274 0.21939234 -0.25765777
0000b0 0a 54 16 be ce 39 ba 3d f1 c6 4f 3e 33 19 88 be
       -0.14680496 0.090930566 0.20290734 -0.26581725
0000c0 aa 8c 13 3d aa 6b 9b 3d ea 23 89 3e 9c 52 2e 3e
       0.03602282 0.07588895 0.26785213 0.170237
0000d0 84 26 86 3e dd 09 c3 bd 32 57 77 be af 4b 05 3d
       0.2620126 -0.09523366 -0.24154356 0.03254288
0000e0 a1 18 6f 3e aa b2 66 3d 95 77 d2 3d d7 01 96 3e
       0.23349239 0.05632273 0.10276715 0.2929828
0000f0 39 da b0 be 48 c8 e5 3d ce 6d f5 3d ac c1 e0 3c
       -0.3454149 0.11219841 0.11983834 0.0274361
000100 59 77 05 bd 72 a9 0f be 07 2e 2c 3e 08 29 27 3d
       -0.032584522 -0.14029482 0.16814433 0.040810615
000110 03 4d 9f 3d 06 10 17 bb c5 f5 5e be 63 f0 06 3e
       0.07778361 -0.0023050322 -0.21773441 0.13177638
000120 eb fb 41 be c3 34 46 be 90 07 2a be 19 ff 6f be
       -0.18943755 -0.19356064 -0.16604447 -0.23437156
000130 10 4d 6c be e9 69 26 bc bb 32 95 be 78 65 60 3e
       -0.23076272 -0.010157087 -0.29140267 0.21913707
000140 71 80 6c be 86 fd 95 3d a2 93 cd 3d bb b1 d5 bd
       -0.23095872 0.073237464 0.10037924 -0.1043429
000150 ae 15 58 3d 94 5d 91 3e 09 7b 8c be 88 b9 01 bd
       0.05275505 0.28391707 -0.27437618 -0.031671077
000160 3a 07 46 3e 2a 21 b7 3e a5 31 e6 3d 5e cb ae 3e
       0.19338694 0.3576749 0.11239938 0.34139532
000170 dd 95 20 be 5f 61 9c 3e f1 32 e1 3d 9f 0f 24 be
       -0.15682168 0.30543038 0.109960444 -0.16021584
000180 94 40 2f 3e ef 50 73 3e 91 23 91 be 38 9f 1d 3e
       0.17114478 0.23761342 -0.28347448 0.15392768
000190 8c b2 00 3e 28 40 6b 3e e7 0c 86 be f3 38 41 3e
       0.1256811 0.22973692 -0.2618172 0.1886938
0001a0 53 09 ab 3e 54 17 c8 bd 1c d5 0d 3e 2b 0c 5b be
       0.3340555 -0.097700745 0.13850826 -0.2139136
0001b0 d7 54 a2 3d cb 29 5d be 50 8a 88 be 9a 21 56 3e
       0.07926338 -0.21597974 -0.26668024 0.20911255
0001c0 6c 71 23 3e 53 04 43 3e 4d 14 7f 3e 2d 40 c4 bc
       0.15961236 0.19044618 0.24910088 -0.023956383
0001d0 3e 4c 69 be d8 3b 6e 3e 00 9d 88 3e 1f 8c 71 be
       -0.2278299 0.23265016 0.26682281 -0.23588608
0001e0 d9 7a 4e be d2 f0 6a be 4f 54 10 be d7 d9 46 3e
       -0.2016405 -0.22943428 -0.14094661 0.19419037
0001f0 4d 98 8a be a9 70 6d 3d cb de f6 3c aa a1 5e be
       -0.2706932 0.05796877 0.030135533 -0.21741357

encoder.convs.0.edge_mlp.2.weight f4 [128, 128]
000000 d0 6c 05 3e f1 2e b8 3d 12 61 e6 bd f2 88 62 bd
       0.1302979 0.08993328 -0.112489834 -0.055306382
000010 d8 73 86 3d 73 9d ca bd 8f 5a 95 3d 58 15 5d bb
       0.06565064 -0.09893312 0.07292663 -0.0033734646
000020 5b 78 f8 bc cf 7d 7a bd dd 53 32 bd dd 5e a3 bc
       -0.030330827 -0.061155137 -0.04353701 -0.019942695
000030 11 34 09 be cc 6b 29 3e 75 81 36 3e c5 96 ae 3d
       -0.13398768 0.16545027 0.17822821 0.08524851
000040 3c c9 f3 bc ab b8 f7 bd ba 09 97 bd 94 78 ef 3d
       -0.029759042 -0.120957695 -0.07374902 0.1169292
000050 6d 00 4c 3d 2d 62 c4 3d 62 d5 ea bb 38 d4 85 bd
       0.049805094 0.09589038 -0.0071665505 -0.06534618
000060 c3 7a ec 3d e0 25 96 3d 11 52 2c bc 9a 1c fe 3c
       0.115468524 0.07331443 -0.010517613 0.031019498
000070 49 8a 06 3d b9 44 3a bd 27 e9 5c 3d b2 94 b3 bd
       0.032846723 -0.045475695 0.05393329 -0.08768596
000080 43 dd 0c bd 52 5c 73 3b 71 bf 9d 3d 51 41 8a bd
       -0.0343907 0.0037133885 0.0770253 -0.06750739
000090 78 49 c6 bc c3 18 93 bb 7b 08 31 3d 10 d3 91 3c
       -0.024204955 -0.004489036 0.04322098 0.017800838
0000a0 d8 09 5c 3d 5b cd 01 bc 1c e5 7d 3d ac fa 6b bc
       0.053720325 -0.007922496 0.061986074 -0.014403027
0000b0 2c b2 d5 bd d5 c6 58 3d fa 50 47 bd 76 28 1a 3c
       -0.10434374 0.052923996 -0.04866121 0.009409061
0000c0 c0 43 5c bb c6 ea 8b 3b b5 ab b7 bd 36 6d 92 3d
       -0.0033609718 0.0042699305 -0.089682974 0.071497366
0000d0 30 42 eb 3c 1a d6 26 bd 01 9c db bc 94 9d fe bd
       0.028718084 -0.040731527 -0.026807787 -0.124323994
0000e0 94 fa d8 ba 6e 71 3b 3d e8 62 0f 3e 48 e8 0e 3d
       -0.001655417 0.04576247 0.14002573 0.03488949
0000f0 b8 ff 00 3d 3f 7a f5 bb e3 ca 03 3e 73 ad c4 bd
       0.031493872 -0.0074913795 0.12870364 -0.09603395
000100 0d 58 81 bd a1 38 98 3d 8b 2f 86 3d 93 22 fe 3c
       -0.063156225 0.07432676 0.06552037 0.031022346
000110 33 cb 1b 3d b1 8e bc bc d1 5f 03 3e 8d f7 d7 bd
       0.038035583 -0.02301726 0.1282952 -0.105452634
000120 24 fb 40 3d 0c 71 9e bd 79 06 78 bd 2e 76 61 bc
       0.047114506 -0.07736406 -0.060553048 -0.013761086
000130 bf 37 a6 bd 05 f6 a4 3d 2b 1c b2 bd 6d 7a fa 3c
       -0.081161015 0.08054737 -0.08696779 0.030575955
000140 20 0f ad 3d 56 d2 46 3d c7 64 a4 3c c4 fb ec 3d
       0.084501505 0.048540436 0.020067586 0.11571458
000150 3a 28 11 3e 3b 89 80 bd 63 f4 4d bc c9 f3 df 3c
       0.14175501 -0.06276175 -0.012570473 0.027337926
000160 22 4d 06 bd f4 42 25 bd 50 5c 74 3d 92 71 0b bb
       -0.032788403 -0.040347055 0.05965835 -0.002127741
000170 c7 71 43 3d 40 b3 ca 3d a5 6d 14 3e 40 2b 1b 3e
       0.04771593 0.098974705 0.14494951 0.15153217
000180 3a 05 9f 3c b2 6a ac bc ee 81 97 bd 24 9c 3f bd
       0.019411672 -0.02104697 -0.07397829 -0.046779767
000190 42 08 b5 3d ea 6b c5 bd 7b 83 4c 3d 85 bc 5f bb
       0.08839466 -0.096397236 0.049930077 -0.0034139466
0001a0 4d 35 b1 3d 6c b1 11 bd bc 9a 1e 3e ec a6 06 bd
       0.086527444 -0.035569593 0.15488714 -0.032874033
0001b0 31 97 41 bd 1e 8f e8 3c 04 72 18 bc 04 74 6e 3d
       -0.047263328 0.028388556 -0.009304527 0.05821611
0001c0 53 cd d8 bd 56 f7 1a 3e af 52 c8 3c 67 04 3c 3e
       -0.105860375 0.15133414 0.02445349 0.18361054
0001d0 18 d7 30 bd 6e 4b 5f 3d f9 5d 77 3d 5d 72 67 bd
       -0.04317388 0.054515295 0.060392354 -0.05650555
0001e0 37 e4 8e 3d 20 44 6f bd 8e b9 04 3e 20 99 0c 3e
       0.06977122 -0.05841458 0.12961408 0.13730288
0001f0 2a ff 0b bc fe 8d 78 bd b0 c4 82 3c c5 46 06 3d
       -0.008544723 -0.06068229 0.015962929 0.032782335
000200 72 1a 18 be e7 47 20 bd f3 a0 f2 3e c4 11 f8 bc
       -0.14853838 -0.03913107 0.4738842 -0.030281909
000210 9c e1 5c 3e 6a 44 3d 3d d9 0d b6 bd ca 43 79 3c
       0.21570438 0.046207823 -0.0888936 0.015213916
000220 d4 53 02 bd 5a d4 27 3d d8 ef a8 3d a7 ab 25 3d
       -0.031818226 0.040974 0.082488716 0.040446904
000230 1b 78 46 3d 88 14 9e bd 4d ea 2d bb 02 9f e3 3d
       0.048454385 -0.0771876 -0.002653736 0.11114313
000240 c2 9a c5 bd 21 ee 2a bd fb 9d c7 bc 6b d4 ae 3c
       -0.09648658 -0.041731004 -0.024367323 0.021341523
000250 c0 83 18 3d c0 50 fa 3b 62 bc b7 bd 39 ec aa bc
       0.03723502 0.0076390207 -0.08971478 -0.020864593
000260 fb 5b 82 3c 37 c6 b7 3d 78 6f 40 bd 27 9e 8f bd
       0.015913 0.08973353 -0.046981305 -0.07012587
000270 10 d4 1e 3d eb d3 89 bd 38 a5 23 3e 4c ba fd 3d
       0.038776457 -0.06729873 0.15980995 0.12389049
000280 00 cb 81 3d 28 fc a9 ba b5 1f 5b 3d f1 3f 03 3d
       0.06337547 -0.0012968825 0.053497035 0.0320434
000290 e9 b2 2e 3e 7c 6f b7 3d ef b3 ec 3c 01 1a 09 3e
       0.17060436 0.08956811 0.028894393 0.13388826
0002a0 df 95 e5 bd d8 4e ad bc 36 cf 94 bd a7 4a bd bc
       -0.11210226 -0.02115576 -0.07266085 -0.023106886
0002b0 15 1b 0f 3e 92 9d c8 3d 67 55 9f bd 05 33 b4 3c
       0.13975175 0.09795679 -0.07779961 0.021996984
0002c0 35 62 dc 3c 47 07 e7 bb e8 73 d9 3d 44 98 bc bd
       0.026902298 -0.007050428 0.106178105 -0.0920873
0002d0 ee dd 0b 3d 29 55 29 3c 70 a7 b9 3d 02 2c a2 3c
       0.034147196 0.010335245 0.09065139 0.019796375
0002e0 e0 41 a8 3c 7e 71 68 3d 14 92 57 bd ed d0 8c bd
       0.020539224 0.05674886 -0.052629545 -0.06875787
0002f0 a5 d2 24 bd 61 7b 94 ba b8 9f 9c 3d a4 f9 61 3d
       -0.04023995 -0.0011328274 0.076476514 0.055169716
000300 f8 c1 bd 38 6d c8 b7 3b ca fb 97 bd 6f d1 82 bd
       9.048352e-05 0.0056086094 -0.07421072 -0.063876025
000310 60 09 4e 3d 87 e2 44 bc a3 43 5b 3e fa 63 a9 3d
       0.05030191 -0.012016899 0.2141252 0.08271022
000320 cd e9 cc 3d 04 d1 4e 3d 18 a2 b5 3d d5 c5 9d b9
       0.100055315 0.0504923 0.088688076 -0.0003009277
000330 e7 8f 27 3d fb 16 9e bd c8 23 bf bc 88 6e 63 3d
       0.04090872 -0.07719227 -0.023332492 0.055525333
000340 df 3a 1b 3d 8b f1 a6 bc 55 bc b0 3d 62 29 61 bc
       0.03789794 -0.020378849 0.086296715 -0.013742777
000350 99 26 c1 bd 3a 6f af 3d 80 1c be bd 25 58 61 3d
       -0.0943119 0.08566137 -0.0928278 0.0550157
000360 f3 e2 56 3d 4d a0 ce 3b 4a 76 47 bd 4c 3d f3 bd
       0.05246253 0.0063057304 -0.048696794 -0.11876926
000370 97 d7 5c 3e 4a f8 68 3c 81 a6 7a 3e 98 6f 7f 3d
       0.21566616 0.014219353 0.24477579 0.062362283
000380 ca dd 38 bc 6e 2a 65 bd 1d a6 ce 3d 4a 11 45 bd
       -0.011283347 -0.055948667 0.10090277 -0.04811219
000390 0e 5b 8c 3b f1 8e 8d 3d 12 d7 34 3d c8 71 9e 3c
       0.0042833155 0.069120295 0.04415042 0.019341365
0003a0 3a fe af bd 17 f6 aa bd e1 b6 66 3c ce 0a 71 3d
       -0.08593412 -0.08347719 0.014081688 0.058848195
0003b0 7a 3b 71 3d 9b c2 45 3e d1 ee a7 3d bf 0d c1 3c
       0.058894612 0.19312517 0.081998475 0.023566125
0003c0 a8 ab d3 3c b6 1d 4a bd e7 ca 86 bd b0 41 95 3c
       0.025838688 -0.04934474 -0.06581669 0.018219799
0003d0 43 8e 79 3b b6 6b ed 3d 0d 9d 76 3d b7 2d f5 bb
       0.003807918 0.1159281 0.06020837 -0.0074822563
0003e0 3a 0f 64 bd 5b 2f cd 3e 09 b6 13 3e 8c 28 b5 3d
       -0.055678584 0.40075192 0.1442491 0.08845624
0003f0 5e 2b 8f bb 53 f8 26 bd 53 7f 66 3d 0b cd ce bc
       -0.0043691834 -0.040764164 0.05627377 -0.025244256

encoder.convs.0.edge_mlp.2.bias f4 [128]
000000 b5 b6 c1 3c 68 85 8e bd 77 17 cc ba 30 42 81 3c
       0.023646692 -0.06959039 -0.0015570958 0.015778631
000010 9b 63 b8 bc 92 ff 5e 3c b5 42 61 bc 6c 42 76 bd
       -0.022508433 0.013610737 -0.013748814 -0.06012194
000020 90 7a 8e bd 72 c4 16 3b 00 83 91 bd 63 9d 75 3d
       -0.06956971 0.0023005274 -0.071050644 0.05996455
000030 7c 1e 1c 3d 54 34 9c 3d 21 4f 28 3a 63 42 63 3d
       0.03811501 0.07627168 0.00064204825 0.055483233
000040 2b ce 7d bd f3 bb 0a 3d 89 fe 2e 3d af bb b3 3c
       -0.061964195 0.03387065 0.042723212 0.02194008
000050 83 07 16 bd 24 a3 01 bd 03 bc f0 bc ca 79 84 3d
       -0.036628257 -0.031649724 -0.029386526 0.06468542
000060 3e 6f 71 3c b6 10 16 bd 94 db 9b bc 4e 8d c9 ba
       0.014735995 -0.03663703 -0.019025601 -0.0015377195
000070 e6 36 c9 3c 0f 15 7d 3d ce d1 19 3d 2a 1a 8e 3d
       0.02456231 0.06178766 0.0375536 0.06938584
000080 23 12 e9 bc 95 f4 1a 3c af ca 60 3d 24 f7 73 3d
       -0.028451031 0.009457727 0.054880794 0.059561864
000090 de e5 81 3c 82 01 89 3d f0 bb 66 bd ba f2 8e bd
       0.01585668 0.06689741 -0.056331575 -0.0697989
0000a0 fa df 8b 3c c5 86 22 3d f6 d9 2d 3d a0 3f 77 bd
       0.017074574 0.039679307 0.042444192 -0.060363412
0000b0 92 54 9c 3d 85 06 6c bd cf 98 68 3d 27 68 0c bd
       0.07633318 -0.057623405 0.056786355 -0.034279015
0000c0 e4 fa a6 3d 28 62 19 3d d6 79 45 3d a1 9d 0f bc
       0.08153322 0.037447125 0.048211895 -0.008765609
0000d0 98 3e 7e bd 3f 29 6b bd 67 bb 72 bd 9b 9c e5 bb
       -0.062071413 -0.057412382 -0.059260752 -0.007007194
0000e0 14 ce a3 bc 90 8a 55 3c 41 1f 6d bd b9 64 84 bd
       -0.019995727 0.013033524 -0.057891134 -0.06464524
0000f0 bd a9 08 3c b9 18 0e bc 53 3d 2b bc a4 99 88 bd
       0.00834125 -0.0086728865 -0.010451633 -0.066699296
000100 7e 9d 93 bd cb 37 93 bd 3f d0 28 bd 56 f8 bb bc
       -0.072077736 -0.07188376 -0.041214224 -0.022945564
000110 4b e4 87 bd 2a 59 7a bd f2 ff de bc 0d c1 68 3d
       -0.0663534 -0.06112019 -0.027221654 0.056824733
000120 a6 1d 4a 3d 54 b6 b5 bb bb 7d 59 bd 91 0c 15 3c
       0.04934468 -0.005545417 -0.05309842 0.009097234
000130 32 ee 95 bd c1 96 83 bd 84 79 27 3c 5a 3d a5 3c
       -0.07320823 -0.064252384 0.010221843 0.020170856
000140 8e 45 2f bd 5a 2a 1e bb 28 58 88 3c ac a6 a1 bc
       -0.042790942 -0.002413413 0.016643599 -0.019732796
000150 0f 8b 06 3d e5 88 92 3c 26 58 4e bd 35 c3 31 bb
       0.03284746 0.017887542 -0.050377034 -0.002712441
000160 bd 56 89 bd 45 9d 49 bd 5e 49 b6 bd 43 ca 57 bd
       -0.06705997 -0.04922225 -0.089007124 -0.052683126
000170 8f 55 18 bd 7a bb 39 bb 0a 50 8c bc 4b dc 19 bc
       -0.03719097 -0.0028340505 -0.01712801 -0.009390901
000180 26 26 68 3d d0 b5 96 3c 5c fc 13 3c 05 26 1d 3d
       0.056677006 0.018397242 0.009032335 0.038366336
000190 d2 95 0e bd 57 64 4f 3b db ff b4 3c f2 61 78 3d
       -0.03481085 0.00316455 0.022094658 0.060640283
0001a0 d1 5b 8d 3d c2 16 65 bd d1 65 6f 3c cc 7a 86 3d
       0.06902278 -0.055929907 0.014611677 0.065663904
0001b0 cf 24 cf 3c 61 08 7c bd 03 55 71 3d 2d 69 8a bd
       0.025286106 -0.06153143 0.058918964 -0.06758342
0001c0 88 59 8c bd c1 b4 28 bd 11 af 9e 3d 16 1a 81 3d
       -0.06853014 -0.041188005 0.07748235 0.063038036
0001d0 26 65 e1 bc d0 03 f1 3c 6e 7f 4d 3c c9 fd bc bd
       -0.027514052 0.029420763 0.012542589 -0.09228093
0001e0 86 5c 2d bd 42 9e c2 bc 1e db 22 3c dd f3 02 bd
       -0.042324565 -0.023757104 0.009939937 -0.031970847
0001f0 5f 44 52 3d 00 14 53 bd 6c e6 18 bd 98 47 0c bb
       0.051334735 -0.051532745 -0.037329122 -0.0021404978

encoder.convs.0.norm.weight f4 [128]
000000 f1 99 5b 3f 58 48 5e 3f c5 08 65 3f 9c ce 56 3f
       0.8578177 0.8682914 0.89466506 0.8390901
000010 95 68 62 3f 32 fe 74 3f ba fd 5f 3f ae 0d 65 3f
       0.8844083 0.9570037 0.8749653 0.89474
000020 d4 a3 60 3f ef c9 5e 3f 1b aa 65 3f 08 b5 5a 3f
       0.8774998 0.87026876 0.89712685 0.8543248
000030 7f 18 69 3f 87 4d 60 3f c4 f0 64 3f e5 38 6f 3f
       0.91053003 0.876183 0.8942988 0.9344619
000040 3e bd 62 3f 09 dc 5d 3f 8f f2 64 3f e8 27 74 3f
       0.8857001 0.8666387 0.89432615 0.9537339
000050 c5 b6 79 3f c5 8f 62 3f 5c 04 5a 3f b8 8c 5c 3f
       0.9754451 0.88500625 0.851629 0.8615222
000060 16 38 7d 3f 74 da 5f 3f 66 60 69 3f 92 38 70 3f
       0.98913705 0.8744271 0.9116272 0.9383632
000070 98 31 66 3f 6b 71 60 3f c1 38 6b 3f 7c 16 69 3f
       0.89919424 0.8767306 0.91883475 0.91049933
000080 55 31 5f 3f ae 2d 72 3f 74 a3 68 3f 69 14 5b 3f
       0.8718465 0.9460095 0.9087441 0.8557802
000090 bc 44 5f 3f d4 d5 70 3f 2d 0f 73 3f a5 8e 68 3f
       0.87214255 0.94076276 0.9494503 0.9084266
0000a0 e7 76 63 3f d3 b4 61 3f b5 0d 76 3f 80 0a 60 3f
       0.88853306 0.8816654 0.96114665 0.8751602
0000b0 4e a1 5c 3f 32 49 68 3f 4c 18 60 3f 29 bd 6e 3f
       0.8618363 0.9073669 0.87537074 0.93257385
0000c0 a7 97 60 3f 2d 4a 69 3f b5 c2 5e 3f e1 98 65 3f
       0.87731403 0.9112881 0.8701585 0.896864
0000d0 46 e7 60 3f 87 b1 65 3f 72 a3 63 3f de 63 66 3f
       0.87852895 0.8972401 0.8892127 0.89996135
0000e0 be d4 60 3f 90 4e 74 3f d9 ed 63 3f 0e dc 60 3f
       0.8782462 0.95432377 0.890348 0.87835777
0000f0 eb ac 67 3f 78 f1 5c 3f 92 bb 60 3f 8b f7 71 3f
       0.90498227 0.8630595 0.8778621 0.94518346
000100 20 5f 59 3f 81 5e 61 3f 5f 37 61 3f 6b bc 65 3f
       0.84910774 0.88034827 0.87975115 0.8974063
000110 f0 40 6f 3f 99 9b 68 3f 37 ff 71 3f 55 85 6d 3f
       0.9345846 0.90862423 0.9453005 0.92781574
000120 ae 32 62 3f 78 e8 66 3f a1 f9 69 3f f8 30 64 3f
       0.8835858 0.9019847 0.9139653 0.8913722
000130 8c 4a 6f 3f 2b 95 62 3f 74 f1 66 3f 3e 08 66 3f
       0.93473125 0.8850886 0.9021218 0.89856327
000140 00 05 7b 3f a9 75 63 3f 2f 4b 5d 3f fa f1 73 3f
       0.98054504 0.8885141 0.86442846 0.952911
000150 9c db 5c 3f b8 8a 61 3f 74 c5 82 3f 2f 81 68 3f
       0.862726 0.88102293 1.0216508 0.9082212
000160 5c d1 62 3f 39 b3 5f 3f 4f a1 68 3f 15 0b 61 3f
       0.8860071 0.8738285 0.9087114 0.87907535
000170 8c 09 76 3f 48 9a 60 3f 35 5c 83 3f 90 bd 67 3f
       0.9610832 0.87735415 1.0262514 0.90523624
000180 0b c3 64 3f 30 56 62 3f c5 e5 65 3f 44 46 68 3f
       0.8936011 0.8841276 0.89803725 0.90732217
000190 e1 f8 5e 3f 0b 37 62 3f 0f 15 65 3f 3c d4 5c 3f
       0.8709851 0.8836524 0.8948526 0.86261344
0001a0 cf 46 6b 3f c5 9f 68 3f ed 6a 5f 3f 5a 0b 57 3f
       0.9190492 0.9086879 0.8727253 0.84001696
0001b0 12 b8 67 3f aa b9 63 3f c2 8d 69 3f dd cc 5d 3f
       0.90515244 0.88955176 0.9123193 0.8664072
0001c0 14 72 63 3f 11 f6 5c 3f 90 a7 5c 3f b9 5f 6a 3f
       0.88845944 0.8631297 0.8619318 0.9155231
0001d0 e1 11 5d 3f d5 b3 62 3f d3 71 69 3f eb 5f 6a 3f
       0.86355406 0.8855565 0.91189307 0.9155261
0001e0 89 c0 5d 3f 9b ed 69 3f 4a 1a 5f 3f 77 30 60 3f
       0.8662191 0.9137818 0.8714949 0.8757395
0001f0 eb dc 6f 3f 01 24 66 3f 31 aa 64 3f c4 9d 5f 3f
       0.9369647 0.8989869 0.8932219 0.87350106

encoder.convs.0.norm.bias f4 [128]
000000 29 07 cb bc 71 c9 62 3c 8f d8 99 3d 57 96 6d 3d
       -0.024783688 0.013841973 0.075120084 0.058004703
000010 fb 7a 3c 3d 11 3a df bc 39 b6 49 3b 70 0c 68 bd
       0.04601572 -0.027249368 0.003077878 -0.056652486
000020 7f d0 33 bd 47 fd 8f 3c 47 d3 43 bb 85 1b 9d 3d
       -0.04390001 0.017576827 -0.002988057 0.076712646
000030 c2 5e 13 bd 5c 42 ac 3c c5 8c cd bc fc 73 14 3d
       -0.03597904 0.021027736 -0.025091538 0.036243424
000040 b5 50 99 3d 49 2f 90 3c 28 0a 38 bd d1 b9 b2 3b
       0.07486097 0.017600672 -0.04493156 0.00545428
000050 6d 62 24 bd c5 d0 3e bd d3 f5 90 3d e2 8a 21 3c
       -0.04013293 -0.046585817 0.07078137 0.009859772
000060 34 da 3b 3c 2a e6 20 3d 5e 6f 19 bd 02 ff 66 3c
       0.011465598 0.039282 -0.037459724 0.014098885
000070 97 7c dd bc 09 d0 2f bb 10 71 84 bc 6f c1 f7 bc
       -0.027036948 -0.002682688 -0.016167194 -0.030243604
000080 0d 41 4a bd f6 37 4e bd d6 d4 b9 bc d8 62 a4 bc
       -0.049378444 -0.050346337 -0.022684496 -0.020066664
000090 11 a3 4b 3d 6c ee d6 3c 90 29 5a bd 1e d1 8f 3c
       0.04971606 0.026236735 -0.053262293 0.01755577
0000a0 6e 0a 33 bd 9c 0d 6a bd 12 2b 28 3c 01 6e db bc
       -0.04371112 -0.057141885 0.010264175 -0.026785852
0000b0 76 67 0a bd 61 7e f3 3c 81 46 af 3c b0 7b 80 3c
       -0.033790074 0.029723348 0.021395924 0.015683979
0000c0 ff d8 82 3d da 17 60 bd b4 95 5f 3d 47 55 a3 bd
       0.06389045 -0.054710247 0.054586127 -0.0797525
0000d0 79 40 39 3d 43 c9 93 3b 26 c8 f3 3c d0 9e a5 3c
       0.0452275 0.0045100763 0.029758524 0.02021733
0000e0 be 7e 00 3c 96 d0 34 3c 11 d6 23 3c db ba 64 3d
       0.007842718 0.011036059 0.009999768 0.05584226
0000f0 88 e0 39 3a 77 76 d7 3d c6 9b 41 bb 3a 29 d1 bb
       0.00070906477 0.10520642 -0.002954231 -0.0063830884
000100 f4 cf 18 3d a5 8a a0 3c dc 08 64 3c a0 3e e1 3d
       0.037307695 0.01959736 0.013918128 0.10998273
000110 5a c5 e4 3c 9d c7 b7 3b 7b 8e a6 bb 06 17 2b 3d
       0.027926136 0.0056085126 -0.005082903 0.041770004
000120 e9 af 8f bd 6b 9f 87 bc 9d 5f 2a bd 17 ba e3 3c
       -0.07015974 -0.016555509 -0.04159509 0.027798695
000130 23 cc ef 3d 94 e6 a3 3d 97 f8 b6 bb b0 f8 24 3d
       0.11708858 0.08002964 -0.0055838334 0.04027623
000140 bb 90 88 bc 68 01 0d bd 87 6a 0a bd 7f fc 20 bd
       -0.016670575 -0.03442517 -0.033793 -0.0393033
000150 77 fc 8f 3d e4 a4 10 bc 86 56 6f bc 31 5a 7c bd
       0.07030576 -0.0088283755 -0.014608031 -0.06160945
000160 4e 90 c1 3b 99 54 66 3d b9 2a 05 3c b1 81 30 3c
       0.005907095 0.056233022 0.008127862 0.010773108
000170 38 2f c3 bd 48 49 5d bd 3e bc a9 3b 9e 61 e7 3c
       -0.09530491 -0.054024965 0.005179911 0.02824479
000180 5f 87 12 bd dd 53 ee 3c 6d ab b4 bb 99 16 b5 bd
       -0.03577363 0.029092724 -0.0055135996 -0.08842201
000190 a6 8d 8f bd 97 b5 8f bb 9d dc 1f 3c 7f 12 0b 3d
       -0.07009439 -0.004385661 0.009757188 0.033953186
0001a0 88 de 04 3d 40 67 0e bd 98 6a 0f bd 54 26 de 3c
       0.032438785 -0.034766436 -0.035013765 0.027117886
0001b0 91 67 f2 3c 06 db 12 bb e5 9d 2a 3b e3 8c 0a 3d
       0.0295904 -0.002240838 0.0026034054 0.033825766
0001c0 20 f8 b3 3d 54 59 dc 3d 45 6c 02 bd c3 6e b5 3c
       0.087875605 0.107592255 -0.031841535 0.022147542
0001d0 f8 1d 92 3d 60 26 c2 bc ec a5 b6 3c 39 e3 5c 3d
       0.07134622 -0.02369994 0.022295915 0.053927634
0001e0 5a 9b 0d bc 21 af 87 3d 5e f1 3f bd 76 18 44 bd
       -0.008642996 0.066252 -0.046861045 -0.04787489
0001f0 d4 d3 21 bc c8 f5 4a 3b 2e 9d 5c bc 3c a3 3d bd
       -0.009877164 0.003096925 -0.013465209 -0.04629825

encoder.convs.0.norm.mean_scale f4 [128]
000000 42 d0 58 3f 59 5a 66 3f 4f fc 78 3f c6 8f 84 3f
       0.84692776 0.8998161 0.9725999 1.0356376
000010 c4 af 7f 3f ce 9d 8a 3f 5c ac 57 3f 56 2e 72 3f
       0.9987757 1.0829408 0.84247375 0.94601953
000020 80 52 79 3f 48 1b 89 3f c3 ad 75 3f cc 78 89 3f
       0.9739151 1.071145 0.95968264 1.0739989
000030 6a 3e 55 3f 5e ba 82 3f 34 c7 65 3f dd cc 73 3f
       0.8329836 1.0213125 0.89757085 0.9523447
000040 b8 2a 7c 3f 4e dd 64 3f 7d 1f 78 3f 80 e6 5a 3f
       0.98502684 0.89400184 0.9692305 0.85507965
000050 d9 26 5a 3f 7b 09 6f 3f 1c 43 82 3f 0c ec 65 3f
       0.85215527 0.9337384 1.017673 0.89813304
000060 e4 56 66 3f 5e 10 6e 3f 95 cd 74 3f b0 61 70 3f
       0.89976335 0.92993724 0.95626193 0.9389906
000070 21 7f 5a 3f 0e 84 7b 3f 45 7b 6e 3f 72 5d 6c 3f
       0.85350233 0.98248374 0.93156844 0.92330086
000080 f8 44 8c 3f bb 1e 4c 3f 1d 01 7c 3f 2f eb 8d 3f
       1.0958548 0.7973439 0.984392 1.1087397
000090 f3 9b 82 3f 0f cc 58 3f 69 8f 85 3f 2a d8 72 3f
       1.0203842 0.8468637 1.043439 0.9486109
0000a0 8a 37 81 3f e7 ea 53 3f 53 80 52 3f 64 2b 6e 3f
       1.0095074 0.8278031 0.8222706 0.9303496
0000b0 01 2b 6d 3f 0b 6e 57 3f 59 01 76 3f ef 7f 66 3f
       0.92643744 0.8415229 0.96095806 0.9003896
0000c0 ea 93 86 3f b6 bf 7d 3f d7 1a 82 3f 51 26 85 3f
       1.051389 0.9912065 1.0164441 1.0402318
0000d0 8b f7 74 3f 59 62 65 3f 5a 87 5b 3f f1 07 56 3f
       0.9569022 0.8960319 0.85753405 0.8360587
0000e0 08 4f 5f 3f 14 29 71 3f c6 b8 7a 3f 86 82 65 3f
       0.8722997 0.94203305 0.9793819 0.8965229
0000f0 d5 81 71 3f 79 22 87 3f c7 b9 63 3f d6 7b 6d 3f
       0.9433873 1.0557395 0.8895535 0.92767084
000100 5f f5 71 3f 84 b7 72 3f 70 b1 80 3f dc ad 84 3f
       0.9451503 0.9481127 1.005415 1.0365558
000110 b1 31 6c 3f 81 e6 6b 3f ea 83 63 3f 4f 0b 6b 3f
       0.92263323 0.92148596 0.8887316 0.9181413
000120 17 04 84 3f f0 20 77 3f c2 4b 6b 3f 82 b6 5d 3f
       1.0313748 0.96534634 0.9191247 0.8660661
000130 14 c0 88 3f 3a 71 7a 3f e8 0e 7b 3f 6c 9d 69 3f
       1.0683618 0.9782902 0.9806962 0.9125583
000140 bb 45 63 3f 2d 4e 6b 3f 04 03 6c 3f 40 09 6e 3f
       0.88778275 0.9191616 0.921921 0.92982864
000150 b7 7a 83 3f 75 2e 62 3f 5d 13 63 3f dd a5 67 3f
       1.0271825 0.8835214 0.8870142 0.9048746
000160 c8 d1 75 3f e5 17 82 3f e6 a6 5a 3f b9 6a 73 3f
       0.96023226 1.0163542 0.85410917 0.9508472
000170 e9 e5 36 3f 39 81 74 3f 44 a1 27 3f 88 df 7e 3f
       0.71444565 0.9550968 0.65480447 0.9955983
000180 bb e5 81 3f 74 5a 68 3f e5 89 6e 3f e8 53 78 3f
       1.0148233 0.9076302 0.9317916 0.9700303
000190 0d c5 83 3f b9 79 71 3f fe 25 5c 3f 97 d7 6a 3f
       1.029451 0.9432636 0.8599547 0.91735214
0001a0 e2 03 80 3f 48 39 6d 3f 69 d1 55 3f b4 39 6c 3f
       1.0001185 0.9266553 0.8352266 0.9227555
0001b0 7f de 79 3f 48 76 6f 3f 97 37 6f 3f 54 07 6b 3f
       0.9760513 0.9353986 0.934442 0.91808057
0001c0 ec 72 79 3f 29 3f 80 3f c9 4d 6e 3f 83 5d 63 3f
       0.9744098 1.0019275 0.9308744 0.8881456
0001d0 ab da 70 3f 63 0e 69 3f 47 bc 72 3f 23 49 62 3f
       0.9408366 0.9103758 0.9481854 0.8839285
0001e0 ed 96 5d 3f bb ce 7a 3f 9c 46 80 3f 1d 6b 76 3f
       0.8655842 0.97971696 1.0021548 0.9625719
0001f0 da 67 71 3f 03 48 64 3f 97 e6 5a 3f 8e bd 72 3f
       0.9429909 0.8917238 0.855081 0.9482049
