checkpoints/model_B_epoch_25.pth (torch, 552117 bytes, 26 tensors)

encoder.node_embedding.weight f4 [1, 128]
0	0x3ff0d83b	1.8815988
1	0x3fb9130f	1.4458941
2	0x3f5f783d	0.87292844
3	0xc0039fea	-2.0566354
4	0x3f294d52	0.66133606
5	0xbf97b934	-1.1853395
6	0xbcee9900	-0.02912569
7	0xbfc7f5b5	-1.5621859
8	0xbf37ae34	-0.7175019
9	0x3fcc9c10	1.5985126
10	0xbeb5b0b5	-0.3548638
11	0xbfac948f	-1.3482836
12	0xbf34ad02	-0.7057649
13	0xbf0ab8d2	-0.54188263
14	0xbf40301a	-0.750734
15	0x3f3acd3c	0.7296941
16	0x3fcb45c2	1.5880663
17	0xbe1db02b	-0.15399234
18	0xbef12ac2	-0.47102934
19	0x3eda97fc	0.4269408
20	0xbf40b750	-0.7527971
21	0x3f87d464	1.0611691
22	0x3f45d015	0.77270633
23	0x3fd3af9e	1.6537969
24	0x3f9d6a22	1.2298014
25	0x3f9f1169	1.2427188
26	0x3f183e68	0.59470224
27	0x3fa68507	1.3009347
28	0xbe50b53b	-0.20381634
29	0x3d0e9b5c	0.03481613
30	0xbe78152c	-0.24226826
31	0x3f5554b8	0.83332396
32	0xbfab0b21	-1.3362771
33	0xbf55d7f6	-0.83532655
34	0xbe630b02	-0.22172168
35	0x3fd703ed	1.6798073
36	0x3e9b37c0	0.3031597
37	0xbed290ed	-0.41126195
38	0x3e9458a9	0.28973892
39	0xbf402ed1	-0.75071436
40	0xbfc40d03	-1.5316471
41	0x3f72fba0	0.949152
42	0xbf5ab2e6	-0.8542923
43	0xbf1214c7	-0.57062954
44	0xbf9e6050	-1.2373142
45	0x4003ff74	2.0624666
46	0xbf9758c0	-1.1823959
47	0xbeeb080b	-0.45904574
48	0xbf62222e	-0.88333404
49	0xbf231c6f	-0.6371526
50	0x3d89a7a4	0.06721428
51	0x3efd433d	0.4946536
52	0xbeef0986	-0.46686953
53	0x3f947f0d	1.1601273
54	0xbf45d148	-0.7727246
55	0xbf3425c2	-0.70370114
56	0xbfae7604	-1.3629766
57	0x3ce21191	0.027596267
58	0xbd79b7c1	-0.060966257
59	0x3f25d323	0.64775294
60	0xbdc21be0	-0.09477973
61	0x3fe46909	1.7844554
62	0xbf93124d	-1.148996
63	0x3fadad0a	1.3568432
64	0x3fb1d03d	1.3891674
65	0x3f5179ca	0.8182646
66	0x400b0590	2.1722145
67	0x3ef947af	0.48687503
68	0x3ea9878f	0.33111235
69	0xbe2f6c08	-0.17131054
70	0xbf83d73a	-1.0300057
71	0x3f9e292b	1.2356313
72	0xbe167ffb	-0.14697258
73	0x3f01a0fb	0.5063626
74	0x3d21b037	0.039474692
75	0x3ed69fc6	0.41918772
76	0x3f0d812f	0.55275244
77	0xbf19268e	-0.59824455
78	0xc009cccf	-2.1531255
79	0xbf37b4af	-0.71760076
80	0x3b7ae002	0.0038280492
81	0xbe9e3066	-0.308963
82	0xbfa84b6c	-1.3148017
83	0xbf0f45fa	-0.5596615
84	0x3f04ac3f	0.51825327
85	0x3effaa7f	0.49934766
86	0x3f8e4002	1.1113284
87	0x3d15b541	0.03654981
88	0x3f3471f6	0.7048639
89	0xbede5e3e	-0.43431276
90	0xbf819725	-1.0124251
91	0x3f12ac9a	0.5729462
92	0xbfd6b90d	-1.6775223
93	0xbf4d94a9	-0.8030496
94	0x3fa66a9f	1.3001288
95	0x3ee77e08	0.45213342
96	0xc01ced1c	-2.451972
97	0x3ef1906b	0.47180495
98	0x3f3ed2a7	0.7454018
99	0x3cd203e1	0.025636615
100	0x3f1c068b	0.60947484
101	0x3f099bf8	0.53753614
102	0x3f856aad	1.042318
103	0xbed10d73	-0.40830573
104	0xbe2c21d3	-0.16809778
105	0x3f3b0c86	0.73065984
106	0x3ecb161a	0.396653
107	0x3e1adb29	0.15122665
108	0x3e8155f3	0.25260887
109	0x3f9e90fc	1.2387996
110	0x3a859956	0.0010192792
111	0xbe9080f3	-0.2822338
112	0xbfb5d043	-1.4204181
113	0xbda65687	-0.081219725
114	0xbf116314	-0.56791806
115	0x3eee954d	0.46598282
116	0x3f330cff	0.69941705
117	0x3d72e795	0.059302885
118	0xbebbeafc	-0.36702716
119	0x3f029501	0.5100861
120	0xbc255eee	-0.010093434
121	0x3e64892f	0.22317956
122	0x3dcd4032	0.1002201
123	0x3f3ccea0	0.73752785
124	0x3f8513fd	1.0396725
125	0x3e9f4877	0.31109974
126	0x3f32b084	0.6980059
127	0x3ec472c5	0.38368812

encoder.convs.0.node_mlp.weight f4 [128, 256]
0	0x3d5de927	0.05417743
1	0xbc1acb23	-0.009447846
2	0x3d63703d	0.05552696
3	0x3c861d2d	0.016371334
4	0xbd49a3e2	-0.049228556
5	0x3d22b998	0.039727777
6	0xbc9fe188	-0.019516721
7	0xbcd70bc9	-0.026250737
8	0xbd5bfd7e	-0.053708546
9	0xbd6e87ae	-0.058234863
10	0x3c736cb9	0.0148574645
11	0xbc845850	-0.016155392
12	0x3cad5a88	0.021161333
13	0xbd5945a1	-0.05304492
14	0x3d2f52f2	0.042803712
15	0xbd2d92f2	-0.042376466
16	0xbc006e30	-0.007838771
17	0x3c260613	0.010133284
18	0x3cecd1d7	0.028908653
19	0x3d55f9fd	0.05224036
20	0x3d59a914	0.05313976
21	0xbd3c2220	-0.04593098
22	0x3c952675	0.018206814
23	0xbcc1ddb9	-0.023665296
24	0xbb81bb38	-0.003959086
25	0xbd30cf57	-0.043166485
26	0x3d70374d	0.05864649
27	0xbd2d3621	-0.04228795
28	0x3cf736a0	0.030177414
29	0x3cc53736	0.024074178
30	0x3c8e44a5	0.017366717
31	0xbcf9666e	-0.03044435
32	0x3d591f70	0.053008497
33	0x3c2ff1aa	0.01073877
34	0x3bad3ea3	0.005287008
35	0xbd523e2d	-0.051328827
36	0x3ce8a9cc	0.028401278
37	0xbc437779	-0.01193034
38	0xbccf7a72	-0.025326941
39	0x3d4c9ff5	0.049957234
40	0x3c3309e4	0.010927651
41	0xbcffd623	-0.031230038
42	0xbd0a70c4	-0.033798948
43	0xbbb79d0b	-0.005603438
44	0x3d0123f4	0.03152843
45	0xbc540f56	-0.0129431095
46	0xbd1aa0e6	-0.0377511
47	0xbcc25592	-0.023722444
48	0xbd46efad	-0.048568416
49	0x3c9d20de	0.019180711
50	0x3d4c2f4c	0.049849793
51	0xbd617411	-0.05504233
52	0x3c3d5c27	0.011557615
53	0x3d0d09ed	0.034433294
54	0x3c09b0c5	0.008403962
55	0xbcc95db1	-0.024580808
56	0x3cefefba	0.029289115
57	0x3d0d3f12	0.034483977
58	0x3ca8320d	0.020531679
59	0xbc045613	-0.008077162
60	0xbc97263d	-0.01845085
61	0x3c18a8a7	0.009317554
62	0xbc5e9252	-0.01358469
63	0xbc7eb2d3	-0.015545565
64	0x3d2bec5b	0.041973453
65	0x3d6335ce	0.055471234
66	0xbb5b8fcb	-0.0033502455
67	0xbc3492d0	-0.011021331
68	0x3b6a51db	0.0035754356
69	0xbbcaec1d	-0.0061926977
70	0x3c447bb1	0.011992381
71	0x3ca3596a	0.019940097
72	0xbd6e68ef	-0.05820554
73	0xbca2f407	-0.019891752
74	0x3d5977e4	0.053092852
75	0x3cda1ca3	0.026624983
76	0xb9c6c7fb	-0.000379145
77	0xbd22c3bc	-0.039737448
78	0xbd24f5e9	-0.04027358
79	0xbd6c62fe	-0.057711594
80	0xbc850d5e	-0.016241726
81	0x3c936d18	0.017996356
82	0x3d14ef1c	0.036360845
83	0x3cd204c1	0.025637032
84	0xbd530d92	-0.051526614
85	0xbd0c27ba	-0.034217574
86	0xbbe3922c	-0.0069449153
87	0x3d7bce9b	0.06147633
88	0x3c3e1f5f	0.011604159
89	0xbc98ba99	-0.018643664
90	0x3cb99d80	0.02265811
91	0xbca91bed	-0.020643199
92	0xbd2deac3	-0.042460214
93	0x3d2c5001	0.042068485
94	0xbccddace	-0.025128748
95	0xbc1ea8f4	-0.009683836
96	0xbd829971	-0.06376923
97	0x3d334ae5	0.043772597
98	0x3d4984cf	0.04919892
99	0x3cc5facf	0.024167446
100	0xbd240227	-0.040041115
101	0xbd6c7aba	-0.05773423
102	0xbd40f152	-0.04710514
103	0x3d307ac0	0.043085814
104	0x3cdcd8eb	0.026958903
105	0x3d5ee06a	0.054413237
106	0x3d0ed9c7	0.034875657
107	0x3c9487e7	0.01813121
108	0x3b07f723	0.002074667
109	0xbd33e7c6	-0.04392221
110	0xbd0f4757	-0.034980144
111	0xbd75ebb3	-0.060039233
112	0x3cb76532	0.02238712
113	0xbd054b40	-0.032542467
114	0xbc773570	-0.015088424
115	0xbd057593	-0.03258283
116	0xbc0aaabe	-0.00846356
117	0xbd25cd77	-0.04047915
118	0xbd2f01f7	-0.042726483
119	0x3cbceda7	0.02306254
120	0xbca5b782	-0.020229105
121	0x3d26219e	0.040559404
122	0xbc8bc118	-0.017059848
123	0xbd2d03ca	-0.04223994
124	0xbc045a73	-0.008078205
125	0xbcdd85c2	-0.02704132
126	0xbc834361	-0.01602334
127	0xbd640959	-0.055672977
128	0x3d6fc197	0.05853423
129	0xbd8d4e5d	-0.06899712
130	0x3d21a705	0.039465923
131	0x3d0a8af3	0.03382392
132	0x3d4fef7b	0.050765496
133	0xbd70caa1	-0.058786992
134	0x3da5df40	0.08099222
135	0xbd5164a5	-0.051121373
136	0x3ca7df98	0.02049236
137	0x3d8638ac	0.06553778
138	0x3c133654	0.008985121
139	0xbce4e2ba	-0.027940143
140	0xbccb9cd2	-0.024855051
141	0xbdb47647	-0.08811622
142	0xbc65f9db	-0.014036621
143	0xbd2014c2	-0.039082296
144	0x3cff04f4	0.031130292
145	0x3c6c240b	0.01441289
146	0x3da250ec	0.07925591
147	0xba92e18c	-0.0011206134
148	0xbda71832	-0.08158912
149	0x3bf9ba18	0.007621061
150	0x3c3077c1	0.010770739
151	0xbd52eb29	-0.051493797
152	0xbd286afe	-0.04111766
153	0xbd7b6f9f	-0.061385747
154	0x3b4586b2	0.00301401
155	0xbc3f227b	-0.011665936
156	0xb8ae3f38	-8.308742e-05
157	0xbbfac340	-0.00765267
158	0xbd1a6853	-0.037697148
159	0x3d88ed48	0.06685883
160	0xbd002eca	-0.03129462
161	0xbd01f28d	-0.031725455
162	0x3be0dcee	0.0068622744
163	0xbccec6af	-0.025241224
164	0xbd6c77a6	-0.057731293
165	0xbd8e81e8	-0.069583714
166	0x3d18f275	0.0373406
167	0xbd546040	-0.051849604
168	0xbd0f37ff	-0.03496551
169	0xbc1d47db	-0.009599651
170	0xbc3fb827	-0.01170162
171	0xbd0845f4	-0.033269837
172	0xbce59440	-0.028024793
173	0x3cf784d9	0.030214714
174	0x3b9b3be3	0.0047373637
175	0xbd781025	-0.06056227
176	0xbd1b0cbe	-0.03785395
177	0x3d6f1001	0.058364872
178	0x3cdda09a	0.02705412
179	0x3c996a3b	0.018727412
180	0x3cf55201	0.02994633
181	0xbc638707	-0.0138871735
182	0x3d3a34ac	0.045460388
183	0x3d590b75	0.052989442
184	0xbd3e9008	-0.046524078
185	0xb9bf3863	-0.0003647237
186	0x3caa77f8	0.020809159
187	0x3c832de3	0.016013091
188	0x3d8a7e82	0.06762411
189	0x3d1736b2	0.036917396
190	0xbc5dc532	-0.013535785
191	0x3cff9c6f	0.031202523
192	0xbd71c142	-0.059022196
193	0xbc89ca3f	-0.016820071
194	0x3d957e4c	0.0729948
195	0x3c1e0aa8	0.009646095
196	0xbda7d6d2	-0.081952706
197	0xbcce0690	-0.025149614
198	0xbcc89d95	-0.024489203
199	0xbde218ef	-0.11039912
200	0xbda3d0cd	-0.0799881
201	0xbc769aa4	-0.015051518
202	0x3ce97e97	0.028502746
203	0x3c6f0318	0.01458814
204	0xbdaf568a	-0.08561428
205	0xbd8e40d4	-0.06945959
206	0x3cfbd9ec	0.030743562
207	0xbd84911a	-0.064729884
208	0xbc2d2e6c	-0.01057015
209	0x3d7bce25	0.06147589
210	0xbd43597b	-0.047692757
211	0xbbc4ac2c	-0.00600197
212	0x3c2574af	0.01009862
213	0x3c6cf961	0.014463753
214	0xbc137a55	-0.009001334
215	0xbdcc3a9a	-0.09972115
216	0xbd0b4a95	-0.034006674
217	0xbbc33890	-0.0059576705
218	0x3d95821b	0.07300206
219	0xbd5bce88	-0.05366376
220	0xbcc0e458	-0.023546383
221	0xbccb414f	-0.024811415
222	0x3c792817	0.015207312
223	0x3d103668	0.035208136
224	0x3d248d13	0.0401736
225	0x3ce693de	0.02814668
226	0xbd8efd77	-0.06981938
227	0x3cde66a2	0.027148549
228	0x3d003e1f	0.031309243
229	0xbd19a389	-0.037509475
230	0xbd8d7367	-0.06906777
231	0x3d998dbf	0.07497739
232	0xbcaa30bb	-0.02077519
233	0xbd60b2b7	-0.054857936
234	0xbdf79f43	-0.12090924
235	0x3b9734c3	0.004614444
236	0xb9ace3d8	-0.00032976153
237	0xbca12f62	-0.019675914
238	0x3bdf72cb	0.0068191043
239	0xbd0734bf	-0.033009287
240	0xbd2872f6	-0.04112526
241	0xbc71eaad	-0.014765424
242	0x3d869cf9	0.06572909
243	0x3ced2da7	0.028952433
244	0xbd5f2295	-0.05447634
245	0x3b5bfab4	0.0033566179
246	0xbbd105e9	-0.0063788784
247	0xbc73d320	-0.014881879
248	0x3c7d30ce	0.0154535305
249	0x3d0f576b	0.034995478
250	0x3d342da0	0.043988824
251	0xbd51e2fb	-0.051241856
252	0x3ce02a94	0.027364053
253	0xbd8f765e	-0.070049986
254	0x3cf29d7b	0.029616108
255	0x3d3d7da9	0.046262417

encoder.convs.0.node_mlp.bias f4 [128]
0	0xbd3a30ab	-0.04545657
1	0x3c560fbf	0.013065278
2	0x3b20c0c4	0.002452896
3	0x3d3f547c	0.04671143
4	0x3cb78a27	0.022404743
5	0xbc8128ce	-0.015766528
6	0x3c43246c	0.011910539
7	0xbd48f8f0	-0.04906553
8	0x3b74d942	0.003736094
9	0x37cfb9b6	2.4762801e-05
10	0x3d84911e	0.064729914
11	0x3d7471d2	0.05967886
12	0xbcc9c55c	-0.024630241
13	0x3d3e5aee	0.046473436
14	0xbd2ba01a	-0.04190073
15	0x3cf84d19	0.0303102
16	0x3d04c1ad	0.032411266
17	0x3d3ee872	0.046608396
18	0x3d469bc2	0.048488386
19	0xbc195b8c	-0.009360205
20	0x3d3c8145	0.04602172
21	0x3c2e7f14	0.010650415
22	0xbb3e3ef9	-0.0029029234
23	0xbc708208	-0.014679439
24	0xbd5bac39	-0.05363104
25	0xbb5d0bc8	-0.0033728946
26	0x3afdc439	0.0019360847
27	0x3a28e818	0.0006443276
28	0xb966edbf	-0.00022023077
29	0xba44b308	-0.00075034844
30	0x3cb2cffd	0.021827692
31	0xbcf86aad	-0.030324304
32	0xbb1402a8	-0.002258459
33	0xbd6f8f91	-0.058486525
34	0x3c543518	0.012952112
35	0x3d61743b	0.055042487
36	0xbc76c0dc	-0.01506063
37	0x3cbc7df5	0.02300928
38	0xbc96da5e	-0.018414672
39	0xbcec3c80	-0.028837442
40	0x3cd8876c	0.026431762
41	0xbd6b60e1	-0.057465438
42	0x3cb789ff	0.022404669
43	0x3d1e7e48	0.03869465
44	0x3cd0b78d	0.025478149
45	0xbc49d05a	-0.012317741
46	0xbce46da8	-0.02788432
47	0xbd4759b2	-0.048669524
48	0x3d68e9fc	0.05686377
49	0xbabc4cd6	-0.0014366161
50	0x3cd05906	0.025433075
51	0xbccbe7d1	-0.024890812
52	0x3d0b8ed3	0.034071755
53	0xbd2e6fda	-0.04258714
54	0x3d027086	0.031845592
55	0x3d5671ca	0.05235461
56	0xbd80a69a	-0.06281777
57	0xbd0e2828	-0.034706265
58	0xbd95af9f	-0.07308888
59	0xbd2f1577	-0.04274508
60	0x3becef1c	0.0072306525
61	0xbd6b2aa9	-0.05741373
62	0x3d3b0ec1	0.045668367
63	0xbd286a6e	-0.041117124
64	0xbc84e85e	-0.016224083
65	0x3cb192e9	0.021676498
66	0xbd042b42	-0.032267816
67	0x3bf1bb32	0.0073770517
68	0xbd8a80a0	-0.067628145
69	0xbd813949	-0.063097544
70	0x3bf0ad83	0.007344903
71	0xbcc70c8d	-0.024297977
72	0x3d12e812	0.03586585
73	0xbd2e01dd	-0.042482246
74	0x3d0a6a6e	0.033792906
75	0x3d82b9f1	0.06383122
76	0xbcbe2ed5	-0.02321569
77	0xbca3a4a1	-0.019975962
78	0x3cc9a9f8	0.02461718
79	0xbcf50064	-0.029907413
80	0x3c81565e	0.015788253
81	0xbbe7e3be	-0.0070767095
82	0xbd3fecf4	-0.046856835
83	0xbd46a64d	-0.04849844
84	0x3d3bbcf7	0.045834508
85	0xbd39309c	-0.045212373
86	0xbc8372c2	-0.016045932
87	0x3cf9bbae	0.030485
88	0xbd2cfa31	-0.04223079
89	0x3a10c5e3	0.00055226515
90	0x3d834af1	0.06410778
91	0x3cccf69d	0.025019938
92	0x3c8f7b0f	0.017514734
93	0xbd4a53ed	-0.049396444
94	0x3d078026	0.033081196
95	0x3c4ea090	0.012611523
96	0x3a657d4f	0.0008754329
97	0xbc1dce4b	-0.009631704
98	0xbc8e3bab	-0.017362436
99	0x3cdd86b5	0.027041772
100	0x3d098972	0.033578344
101	0xbd0acfd6	-0.033889614
102	0x3d566b03	0.052348148
103	0x3d783788	0.060599834
104	0xbc9bd2c9	-0.019021409
105	0x3c54083d	0.012941417
106	0x3c876de0	0.016531885
107	0xbd507543	-0.05089308
108	0x3cb7f6b3	0.022456503
109	0x3d94135f	0.07230257
110	0xbcc61792	-0.024181161
111	0xbd4c8cea	-0.049939074
112	0xbd3191d8	-0.043351978
113	0x3d078473	0.033085298
114	0x3c46bae7	0.012129522
115	0xbb2764b2	-0.0025542197
116	0x3bf1c697	0.00737841
117	0x3c6310a5	0.013858949
118	0x3d1fc7ec	0.03900902
119	0xbc1f22a4	-0.009712849
120	0xbd830d5b	-0.06399032
121	0x3d268df2	0.040662713
122	0x3d385945	0.04500701
123	0x3b810995	0.00393791
124	0xbd0187bb	-0.031623583
125	0xbc951024	-0.018196173
126	0x3cedb6b6	0.029017787
127	0x3d0ae731	0.033911888

encoder.convs.0.edge_mlp.0.weight f4 [128, 7]
0	0xbe9a9fe2	-0.30200106
1	0x3d5b8f49	0.053603444
2	0x3d293dd4	0.04131873
3	0x3d1fa3ba	0.0389745
4	0xbe400bcc	-0.187545
5	0xbcc28c00	-0.023748398
6	0xbec84632	-0.39116055
7	0x3cae645f	0.021288095
8	0xbeb609e7	-0.3555443
9	0x3ea74f53	0.32677707
10	0x3e28cb1a	0.16483727
11	0x3e24c2e9	0.16089977
12	0xbe42432e	-0.1897094
13	0xbe2cfac3	-0.16892533
14	0x3d39d3ed	0.045368124
15	0xbcc3684b	-0.023853442
16	0xba92ab62	-0.0011189992
17	0x3daa8508	0.08326155
18	0x3d4bfba3	0.049800526
19	0xbe843429	-0.25821045
20	0x3edf2eb9	0.43590334
21	0xbe27a96f	-0.16373228
22	0x3de8969f	0.11356854
23	0xbe83228d	-0.25612298
24	0x3eb472e3	0.35243902
25	0xbe415e57	-0.18883644
26	0x3e5585c8	0.20851815
27	0x3e350a4b	0.17679708
28	0xbd993449	-0.07480676
29	0x39ef18b9	0.00045604052
30	0xbe816ba1	-0.25277427
31	0xbeb344ec	-0.3501352
32	0x3e07ff01	0.1328087
33	0x3e790460	0.24318075
34	0xbe861f5a	-0.26195794
35	0xbe3ebf54	-0.18627673
36	0xbe96c0a3	-0.29443845
37	0xbea1fde6	-0.31639022
38	0x3dd4c2ed	0.10388742
39	0xbd7d8c96	-0.06190165
40	0x3eb7b34e	0.35878986
41	0x3e9489d6	0.2901141
42	0xbe510581	-0.20412256
43	0x3ea2fc79	0.31833246
44	0x3e780af0	0.24222922
45	0x3eb3b833	0.3510147
46	0xbdabfbf2	-0.08397664
47	0x3c1f4b14	0.00972249
48	0xbe6dafa3	-0.23211531
49	0xbdf6b8fc	-0.12047002
50	0x3ea7ec62	0.32797533
51	0x3eac9a1c	0.33711326
52	0xbeca2fbe	-0.3948955
53	0x3e0f48c6	0.13992605
54	0xbe1e7072	-0.15472582
55	0xbea64f32	-0.32482296
56	0x3df87fbc	0.121337384
57	0x3df73947	0.12071472
58	0xbe0eab05	-0.13932426
59	0x3ecea608	0.40361047
60	0xbe52ac87	-0.20573626
61	0x3e66b13e	0.2252855
62	0x3e80617b	0.25074372
63	0xbe56f63b	-0.20992367
64	0x3e47662d	0.1947257
65	0xbe159fc4	-0.14611727
66	0xbe2d15de	-0.16902873
67	0x3e256739	0.16152658
68	0x3eb3df2e	0.3513121
69	0xbe8cc852	-0.27496582
70	0x3eaebea5	0.34129825
71	0xbe97ecd1	-0.29672864
72	0x3da82cd9	0.08211679
73	0xbea6aa86	-0.32551974
74	0xbe24e486	-0.161028
75	0xbe897a76	-0.26851243
76	0x3ec3ccea	0.38242275
77	0xbe5b1caa	-0.21397653
78	0xbe8f001e	-0.27929777
79	0xbe315c58	-0.17320383
80	0x3e8bacc7	0.27280256
81	0x3e282a84	0.16422468
82	0x3e087960	0.13327551
83	0x3e945bc6	0.28976268
84	0xbe21e56f	-0.15810178
85	0x3e822f65	0.25426784
86	0xbeecddc3	-0.4626294
87	0xbe87c9f0	-0.26521254
88	0x3e4973cd	0.1967308
89	0xbe583493	-0.21113805
90	0x3e0d9d5e	0.13829562
91	0x3e66ba90	0.22532105
92	0x3e471e36	0.19445118
93	0x3e90d048	0.28283906
94	0x3d0d7b79	0.03454158
95	0xbdb1fd3e	-0.0869088
96	0xbebd6756	-0.36992902
97	0xbe458096	-0.19287333
98	0x3c1469c6	0.0090584215
99	0x3e30002c	0.17187566
100	0xbe889ad3	-0.26680622
101	0xbd29aeda	-0.041426517
102	0xbc843fc7	-0.016143693
103	0x3cd7e991	0.02635649
104	0xbe9eed11	-0.31040242
105	0x3e977277	0.29579517
106	0x3dc54555	0.09632365
107	0x3ebb839a	0.36623842
108	0xbe875661	-0.2643309
109	0xbd7d3522	-0.06181825
110	0x3ddafc91	0.106927045
111	0x3e6cb523	0.23115973
112	0xbe33ea69	-0.17569889
113	0xbe074f65	-0.1321388
114	0xbe23815f	-0.1596732
115	0xbe442fc4	-0.19158846
116	0xbe86d2ad	-0.26332608
117	0x3d410f1e	0.047133557
118	0x3ea3755c	0.31925476
119	0xbeeebd24	-0.46628678
120	0xbd26766d	-0.040640283
121	0xbee06831	-0.43829492
122	0x3dbdafdf	0.092620604
123	0x3e071681	0.13192178
124	0xbeb3e2ad	-0.35133877
125	0x3de38463	0.11109235
126	0xbd913a97	-0.07091253
127	0xbde23273	-0.11044779
128	0xbe95c3ae	-0.29250854
129	0xbd833ba9	-0.06407864
130	0x3e0e2055	0.13879521
131	0xbe26e659	-0.16298808
132	0xbdd18cae	-0.10231911
133	0xbe871857	-0.26385757
134	0xbe224085	-0.15844925
135	0x3e999404	0.2999574
136	0x3e8ef4f2	0.27921253
137	0xbe250ea2	-0.16118863
138	0x3eaaf4f0	0.33389997
139	0x3e070131	0.13184048
140	0x3e13c86c	0.14431924
141	0xbe98e96a	-0.2986558
142	0xbdb65a8e	-0.08903991
143	0x3eb33886	0.3500406
144	0x3e860a38	0.2617967
145	0x3e412bfe	0.18864438
146	0xbe718068	-0.2358414
147	0xbc04dc57	-0.008109174
148	0x3e144974	0.14481145
149	0x3e48b057	0.19598518
150	0xbdfc7491	-0.12326921
151	0xbe6ef205	-0.2333451
152	0xbe9b216d	-0.3029894
153	0xbe958231	-0.2920089
154	0xbdda4a62	-0.10658719
155	0x3e10ce46	0.14141187
156	0xbe1a0260	-0.15039968
157	0x3dee940d	0.11649332
158	0xbe88fd26	-0.26755637
159	0xbc6d54a2	-0.01448551
160	0xbe50b8b8	-0.20382965
161	0xbe6064eb	-0.21913497
162	0x3e998e81	0.29991534
163	0x3da7c110	0.081911206
164	0x3ebb6114	0.36597502
165	0x3def18f2	0.1167468
166	0x3c12999c	0.008947756
167	0x3e967968	0.293895
168	0xbe6a892e	-0.22903892
169	0x3e3f93bc	0.187087
170	0x3d2d2989	0.04227594
171	0xbd123095	-0.035690863
172	0xbe7f3f61	-0.24926521
173	0x3a8ba584	0.0010654186
174	0xbe93c335	-0.2885987
175	0x3e30e3c5	0.17274387
176	0xbe27ee12	-0.1639941
177	0xbd8d0fc4	-0.06887773
178	0x3ec76421	0.3894358
179	0xbc9e6994	-0.019337453
180	0xbe8e4304	-0.27785504
181	0x3ded52b4	0.1158804
182	0x3e04fd56	0.12987265
183	0xbe767a9f	-0.24070214
184	0xbe7c72c2	-0.24653152
185	0xbebe6c38	-0.3719194
186	0xbe683d47	-0.22679625
187	0x3cfe1c8b	0.03101947
188	0xbed2fca6	-0.4120838
189	0xbebdea70	-0.37092924
190	0x3dfc82e1	0.12329651
191	0xbea1fe1c	-0.31639183
192	0xbcd16d80	-0.025564909
193	0x3d99c7f3	0.075088404
194	0x3ea4b976	0.32172745
195	0xbdd048fe	-0.10170172
196	0x3d03717e	0.032090656
197	0x3e996383	0.29958734
198	0x3d1a1ce4	0.03762521
199	0x3ea90f3c	0.33019435
200	0xbda9e382	-0.08295347
201	0x3eba221c	0.36354148
202	0xbea470ad	-0.32117215
203	0x3e8e73fd	0.27822867
204	0x3e232023	0.15930228
205	0x3d24d37c	0.04024075
206	0x3eceadfd	0.40367118
207	0x3e68fff4	0.22753888
208	0x3d8cefcb	0.068816744
209	0xbddba5da	-0.10724993
210	0x3ecd2178	0.40064597
211	0x3da2b749	0.07945115
212	0x3e3daaa2	0.18522123
213	0xbcdef944	-0.027218468
214	0xbe06dc15	-0.13169892
215	0xbe27dbb3	-0.16392402
216	0x3e8dca54	0.27693427
217	0x3dd88961	0.10573078
218	0x3c0e2621	0.008676083
219	0x3d98d071	0.07461632
220	0xbe0e80c1	-0.13916303
221	0xbd335baf	-0.04378861
222	0xbe4ad8a8	-0.1980921
223	0x3de7dc2f	0.113212936
224	0x3e46799d	0.1938233
225	0xbeba3cc8	-0.36374497
226	0x3eaed9e3	0.3415061
227	0xbde6e7a1	-0.112746485
228	0x3e9d67a2	0.30743128
229	0x3e9dc908	0.30817437
230	0x3dea23a8	0.11432582
231	0x3e96c74b	0.29448923
232	0xbe85ec52	-0.2615686
233	0xbef825d7	-0.4846637
234	0x3d11d558	0.03560385
235	0xbe628a53	-0.22123079
236	0xbe2599a5	-0.16171892
237	0x3d07aa0f	0.033121165
238	0xbe814103	-0.25244913
239	0x3c4f49b1	0.012651847
240	0xbe4c9a5c	-0.19980758
241	0x3dbb0289	0.09131343
242	0x3cbebc93	0.023283279
243	0xbe5491ae	-0.20758697
244	0xbddc4ca1	-0.10756803
245	0xbd79b575	-0.060964067
246	0x3e882f19	0.26598433
247	0x3e9240a0	0.2856493
248	0x3e27b6df	0.16378354
249	0x3cf6e13d	0.030136699
250	0xbbb9607e	-0.0056572547
251	0x3ec9d108	0.3941729
252	0xbe4ec348	-0.20191681
253	0xbe234b6c	-0.1594674
254	0x3d329c7d	0.04360627
255	0xbe795150	-0.24347425

encoder.convs.0.edge_mlp.0.bias f4 [128]
0	0x3db527f2	0.088455096
1	0x3e3613e2	0.17781022
2	0xbe7394e1	-0.23787262
3	0x3d3e779a	0.04650078
4	0xbdc87a5d	-0.09788964
5	0x3e7a6ff0	0.24456763
6	0xbd2b984d	-0.041893292
7	0xbe489de3	-0.19591479
8	0x3e5a0a15	0.21292908
9	0xbe15d22e	-0.14630958
10	0xbcc482e6	-0.023988198
11	0xbd6fc116	-0.05853375
12	0x3e3f7e62	0.18700555
13	0xbd870939	-0.06593556
14	0x3e2643f9	0.16236867
15	0xbe599a9e	-0.21250388
16	0x3d055d70	0.032559812
17	0x3eaa0ab6	0.33211297
18	0xbe430132	-0.19043425
19	0xbd80f44b	-0.06296595
20	0x3d0b3efb	0.03399561
21	0x3e005b6c	0.12534875
22	0xbe0214bc	-0.12703222
23	0x3e063ff7	0.13110338
24	0xbdcc9db0	-0.09991014
25	0x3ce0a3f4	0.027421929
26	0x3eaba454	0.3352381
27	0x3e98d974	0.29853404
28	0xbdd1ee49	-0.102505274
29	0xbe36d268	-0.17853701
30	0xbe2ab8e2	-0.1667209
31	0xbd4c20be	-0.049835913
32	0x3ca8903e	0.020576593
33	0x3e020042	0.12695411
34	0xbdbd3535	-0.09238664
35	0x3e3645c9	0.17800058
36	0xbcd96e45	-0.026541838
37	0x3dc28b08	0.09499174
38	0x3eaec34a	0.3413337
39	0x3d657830	0.056022823
40	0x3c2ca13e	0.01053649
41	0xbd0307cc	-0.031989858
42	0x3e84de80	0.25951004
43	0xbea16d9f	-0.31528947
44	0xbe4598ef	-0.19296621
45	0x3de3c8ae	0.11122261
46	0x3e5a5e17	0.21324955
47	0xbeba5453	-0.3639246
48	0xbd78e0d8	-0.060761303
49	0x3dcdc129	0.10046608
50	0x3e9e9288	0.3097117
51	0x3e395fef	0.18103002
52	0x3e9ff51e	0.31241697
53	0xbd59ee84	-0.05320598
54	0xbea9c8b9	-0.33160952
55	0x3db9a8a3	0.09065368
56	0x3e7d493c	0.24734968
57	0x3d4b1b65	0.049586672
58	0x3d88224b	0.06647166
59	0x3eaa29f4	0.33235133
60	0xbeac4015	-0.3364264
61	0x3d5ac675	0.05341192
62	0x3dc4d563	0.09611013
63	0x3d86f801	0.06590272
64	0xbdc37f74	-0.09545794
65	0xbe110050	-0.14160275
66	0x3e579492	0.21052769
67	0x3d9c5d61	0.07634998
68	0x3e03a91c	0.12857479
69	0x3d1060d7	0.035248604
70	0xbe48a0ec	-0.19592637
71	0x3e22ccc4	0.15898424
72	0xbdee92a6	-0.11649065
73	0xbe659fee	-0.2242429
74	0xbe2fac3c	-0.17155546
75	0xbe905f37	-0.28197643
76	0xbe724217	-0.23658024
77	0xbbb097d9	-0.0053891954
78	0xbea87358	-0.329005
79	0x3e80a777	0.25127766
80	0xbe92376c	-0.2855791
81	0x3e096b91	0.1341994
82	0x3e1d6239	0.153695
83	0xbe019807	-0.1265565
84	0x3e1bdc23	0.15220694
85	0x3eaf0b1b	0.3418816
86	0xbeb49a41	-0.35273936
87	0x3c6166c8	0.013757415
88	0x3e87233c	0.2639407
89	0x3eb01e0c	0.34397924
90	0x3e007bf5	0.12547286
91	0x3ea2adfb	0.31773362
92	0xbe2ce48f	-0.16884063
93	0x3eb07471	0.34463838
94	0x3dbbae51	0.091641076
95	0xbe75fb10	-0.24021554
96	0x3e641b0b	0.22275941
97	0x3e914e06	0.2837984
98	0xbe94e946	-0.29084224
99	0x3e3e0431	0.18556286
100	0x3e055e2f	0.1302421
101	0x3e937650	0.28801203
102	0xbeaf6483	-0.34256372
103	0x3e462d2f	0.19353174
104	0x3eaf2413	0.3420721
105	0xbda91d78	-0.08257574
106	0x3e2d6491	0.16932894
107	0xbea9bc17	-0.33151314
108	0x3dc87c5b	0.09789344
109	0xbe73460d	-0.23757191
110	0xbe99ec17	-0.30062935
111	0x3e57f079	0.21087827
112	0x3e4b59cd	0.19858475
113	0x3e399ea0	0.18126917
114	0x3e981ba4	0.29708588
115	0xbd9b8f99	-0.075957485
116	0xbe717a50	-0.23581815
117	0x3e5ba555	0.21449788
118	0x3e9357d2	0.2877794
119	0xbe8e241d	-0.27761927
120	0xbe9c9384	-0.30581295
121	0xbe7e2f52	-0.24822739
122	0xbe736112	-0.23767498
123	0x3e4dec63	0.20109706
124	0xbea5a43d	-0.32351866
125	0x3dd77b9f	0.10521626
126	0x3d7dc320	0.061953664
127	0xbe87b537	-0.26505443

encoder.convs.0.edge_mlp.2.weight f4 [128, 128]
0	0xbdab9e79	-0.08379836
1	0x3d9630ad	0.07333503
2	0x3d673250	0.056444466
3	0xbd9ae263	-0.07562711
4	0x3cfe935e	0.03107613
5	0xbdbb8af1	-0.0915736
6	0xbd4f8e6a	-0.050672926
7	0xbc146fd5	-0.009059866
8	0xbd1330fe	-0.035935394
9	0xbd91583f	-0.0709691
10	0xbd07dc76	-0.033169232
11	0x3d6a9414	0.057270125
12	0xbd8dc4e6	-0.06922321
13	0x3d8a9632	0.06766929
14	0x3e4e8e78	0.20171535
15	0x3df1b880	0.11802769
16	0x3bd39814	0.006457338
17	0xbd9545de	-0.07288717
18	0xbd8ceb6a	-0.06880839
19	0x3d8ae9d6	0.06782882
20	0x3db909c5	0.090350665
21	0x3c5f7ce1	0.013640613
22	0xbd645646	-0.05574634
23	0xbd530442	-0.051517732
24	0x3d9ef537	0.07761615
25	0x3db68b20	0.08913255
26	0xbb2cc82d	-0.0026364431
27	0x3d0b4d1d	0.034009088
28	0xbbcb26a7	-0.006199676
29	0x3c6b7584	0.01437128
30	0x3de3cf75	0.11123554
31	0xbc7088cb	-0.0146810515
32	0x3bc96075	0.006145532
33	0xbce5a5bd	-0.028033132
34	0x3d85017f	0.06494426
35	0xbd5392f3	-0.051653814
36	0xbd66f549	-0.056386266
37	0x3cc7f0fa	0.024406899
38	0x3d8fc570	0.0702008
39	0x3d94d293	0.07266726
40	0x3c577559	0.013150536
41	0xbd208f72	-0.0391993
42	0x3d35b570	0.044362485
43	0xbc908d64	-0.017645545
44	0xbd86b046	-0.0657659
45	0x3d77bc72	0.06048245
46	0xbc29dd1a	-0.010367656
47	0xbce94847	-0.028476847
48	0x3c821956	0.015881222
49	0x3d4fefd5	0.05076583
50	0xbd8a29bb	-0.06746241
51	0x3d80db4d	0.06291828
52	0x3d078d44	0.033093706
53	0xbd562ba9	-0.05228773
54	0xbcdb8e24	-0.026801176
55	0xbd934926	-0.07191686
56	0xbc4fe8ad	-0.012689752
57	0x3e2345f3	0.15944652
58	0x3dfa5e8f	0.12225067
59	0x3cdf3404	0.027246483
60	0x3d0d4ff4	0.034500077
61	0x3c367c62	0.011138054
62	0x3de75887	0.11296182
63	0xbd9f4617	-0.077770405
64	0xbda893d6	-0.082313225
65	0x3dbfb23a	0.09360166
66	0x3d6de4c6	0.058079503
67	0x3cc4bda4	0.024016209
68	0x3d6535f4	0.055959657
69	0xbbb78bc0	-0.0056013763
70	0x3dac145b	0.0840232
71	0xbdbaa52e	-0.09113537
72	0xbd196956	-0.03745397
73	0xbdc37e39	-0.095455594
74	0xbd12ce69	-0.03584138
75	0x3e03272c	0.12807912
76	0xbd9d82cb	-0.076909624
77	0xbd860666	-0.06544189
78	0xbc21882b	-0.009859125
79	0x3d38f680	0.045156956
80	0x3d889720	0.0666945
81	0x3d6860d1	0.056732956
82	0x3d3d87cb	0.04627208
83	0x3e1173c4	0.14204317
84	0x3dd7be02	0.10534288
85	0xbd36468f	-0.044500884
86	0xbd3ca087	-0.04605153
87	0x3d4e18a6	0.050316475
88	0xbcd31150	-0.025765091
89	0xbd1942b6	-0.037417136
90	0x3da6bf65	0.08141974
91	0xbca580f8	-0.020203099
92	0x3cd426ce	0.02589741
93	0x3dc9a440	0.09845781
94	0x3e5b57a3	0.2142015
95	0x3c9e46ad	0.01932081
96	0x3cd602bb	0.026124349
97	0x3c46ec25	0.012141262
98	0xbd3e67b6	-0.046485625
99	0xbd5179b1	-0.051141445
100	0x3e0eaeed	0.13933916
101	0xbda64e82	-0.08120443
102	0x3cc99b08	0.024610057
103	0xbc98f251	-0.018670233
104	0x3d8658e4	0.06559923
105	0xbd5441b5	-0.051820476
106	0x3e16f52e	0.14741966
107	0xbd6521c3	-0.0559404
108	0xbd0a6fd0	-0.03379804
109	0x3dc54bae	0.096335754
110	0x3d04f817	0.03246316
111	0x3db2abee	0.08724199
112	0xbd7d35bc	-0.061818823
113	0x3df3686d	0.11885152
114	0x3be2fb81	0.0069269543
115	0x3dedd722	0.11613299
116	0xbd4bcd28	-0.0497562
117	0x3d810ed1	0.06301654
118	0x3d19c196	0.037538134
119	0xbd9e6f3a	-0.077360585
120	0x3ccf747f	0.025324104
121	0xbd8aca00	-0.0677681
122	0x3d76a112	0.060212202
123	0x3e0c96ea	0.13729444
124	0xbc6bb5c7	-0.014386601
125	0xbcd25369	-0.025674539
126	0x3d03f567	0.032216456
127	0xbbe54cdb	-0.0069976873
128	0xbced92e5	-0.029000709
129	0xbd48c78e	-0.049018435
130	0xbcbc0862	-0.022953216
131	0x3d381fbb	0.044952136
132	0x3d90e77d	0.07075403
133	0x3dc31dd7	0.09527176
134	0x3dc98c11	0.09841169
135	0xbd2c047b	-0.04199646
136	0x3c6c6c2b	0.014430086
137	0xbd6afaa8	-0.05736795
138	0x3d9b87ed	0.07594285
139	0xbcf53ef3	-0.029937243
140	0x3d85ff46	0.0654283
141	0xbdf11b2c	-0.11772761
142	0xbe0dca83	-0.13846783
143	0xbd3c4485	-0.045963783
144	0x3ceeeb01	0.029164793
145	0x3bbe8b64	0.0058149565
146	0xbd5abe2f	-0.05340403
147	0x3da67073	0.08126917
148	0x3c8a7323	0.016900605
149	0xbd222251	-0.039583508
150	0xbd96eecb	-0.07369765
151	0x3cad626f	0.0211651
152	0x3cc48682	0.02398992
153	0x3db756ba	0.08952089
154	0xbceafb22	-0.028684203
155	0xbd200278	-0.039064854
156	0x3dd8b7de	0.10581945
157	0xbcb6b4df	-0.022303043
158	0xbde3b144	-0.11117795
159	0x39d6fe65	0.000410068
160	0x3d0ee7b9	0.034888957
161	0x3cef814d	0.02923646
162	0x3d346d1b	0.044049364
163	0x3d76faa9	0.060297642
164	0x3dcbc346	0.09949355
165	0x3d7b7ad5	0.06139644
166	0x3d7494f9	0.059712384
167	0x3de745f8	0.11292642
168	0xbd350541	-0.044194464
169	0xbdd49c5c	-0.10381386
170	0xbcba92c5	-0.022775063
171	0xbcf77b5f	-0.030210195
172	0x3e1aecaa	0.15129343
173	0x3cf361f8	0.029709801
174	0xbd3c2de6	-0.04594221
175	0xbd105d1b	-0.035245042
176	0xbd4de573	-0.050267648
177	0x3cf7b1a1	0.030236067
178	0x3dce02c2	0.1005912
179	0xbd7d37c1	-0.06182075
180	0x3cb19b40	0.021680474
181	0x3c17b5ab	0.009259622
182	0x3daa6ffe	0.08322142
183	0x3befe56a	0.0073210495
184	0xbcccaee6	-0.024985742
185	0xbd068cde	-0.032849185
186	0xbcc0de94	-0.023543634
187	0xbd1aa6f0	-0.03775686
188	0xbd3f604d	-0.0467227
189	0xbce5b4f3	-0.028040385
190	0xba32c3b4	-0.0006819323
191	0x3d8509b6	0.06495993
192	0xbb004d9c	-0.0019577509
193	0xbdc9bb48	-0.09850174
194	0xbdb4d7fd	-0.08830259
195	0xbddb07dd	-0.10694859
196	0xbd818ebf	-0.06326055
197	0x3dc4ab98	0.096030414
198	0x3d32eb96	0.043681704
199	0x3df4082a	0.1191562
200	0x3dbf794f	0.0934931
201	0x3d337eb0	0.04382199
202	0x3dd118a2	0.102097765
203	0xbbc10134	-0.005890036
204	0x3c934627	0.017977787
205	0xbd6993ca	-0.05702571
206	0xbda01ebc	-0.07818362
207	0x3d13b6fb	0.036063176
208	0x3d80ec8e	0.06295119
209	0xbcbb2f9b	-0.022849848
210	0x3dcb4809	0.09925849
211	0xbcbb65a6	-0.022875618
212	0xbe0a6afa	-0.13517371
213	0x3dbfa3c3	0.09357407
214	0xbde59e75	-0.11211864
215	0x3d2d8d5f	0.04237115
216	0x3db7e25f	0.08978724
217	0x3c865596	0.016398232
218	0xbb9e6925	-0.0048343115
219	0xbdc873ff	-0.097877495
220	0x3e0204c4	0.1269713
221	0xbad5a22c	-0.0016298941
222	0xbcbe721b	-0.02324777
223	0xbd5396c4	-0.051657453
224	0xbcf01dbb	-0.029311052
225	0xbd637236	-0.055528842
226	0x3db698c9	0.0891586
227	0xbdbfda0c	-0.09367761
228	0xbd7ea2a3	-0.06216682
229	0x3d8d662c	0.06904253
230	0xbc3104e5	-0.01080439
231	0xbcd72b09	-0.026265638
232	0xbdc35f05	-0.09539608
233	0xbd58633d	-0.052829016
234	0xbc26cc96	-0.010180613
235	0x3d01ac97	0.031658735
236	0x3d3030d3	0.043015312
237	0x3c3bd32e	0.011463923
238	0x3da26c28	0.079307854
239	0x3dc5594d	0.096361734
240	0x3cc7f1ed	0.024407351
241	0xbd8de75d	-0.06928895
242	0x3c90b558	0.017664596
243	0xbb160138	-0.002288891
244	0x3cfab01b	0.030601552
245	0x3cb95849	0.022625105
246	0x3d54cadb	0.05195127
247	0x3ceddf4e	0.029037144
248	0xbde969ef	-0.11397158
249	0xbd6458ee	-0.055748872
250	0xbc4f753c	-0.012662228
251	0x3d62e443	0.05539347
252	0xbcacebd8	-0.021108553
253	0xbd00cb09	-0.03144363
254	0x3d8a3fe3	0.06750467
255	0xbd00a809	-0.03141025

encoder.convs.0.edge_mlp.2.bias f4 [128]
0	0x3cf74b46	0.03018726
1	0xbd8302e5	-0.063970365
2	0xba914e82	-0.0011086019
3	0x3cdb7158	0.026787445
4	0xbcefc3c4	-0.029268153
5	0x3cfc7c14	0.030820884
6	0xbc592bce	-0.013255073
7	0xbda0c479	-0.07849974
8	0xbd823d23	-0.06359317
9	0xbb3cc37d	-0.0028803044
10	0xbd8215b9	-0.063517995
11	0x3d923a96	0.07140081
12	0x3cf66ff6	0.030082684
13	0x3da73420	0.08164239
14	0xbcaf986a	-0.021434981
15	0x3d78cfa0	0.06074488
16	0xbd8a948c	-0.06766614
17	0x3d1e3288	0.03862241
18	0x3d074dba	0.03303311
19	0x3b402bb4	0.0029322924
20	0xbd2992ad	-0.041399647
21	0xbd05a37d	-0.032626618
22	0xbcd0b530	-0.025477022
23	0x3d922bfa	0.07137294
24	0x3cb9ddec	0.022688828
25	0xbd083c4f	-0.03326064
26	0xbd21c42a	-0.039493717
27	0x3a768a87	0.00094047975
28	0x3cfafe8c	0.030638956
29	0x3da33e09	0.07970817
30	0x3d490ac8	0.049082547
31	0x3d9d9d2f	0.07695996
32	0xbd142703	-0.036170017
33	0x3ca00c91	0.019537242
34	0x3d86f2dd	0.06589291
35	0x3d85bbe3	0.06529977
36	0x3c2f16f1	0.010686622
37	0x3d8853df	0.06656622
38	0xbd73fbc9	-0.059566293
39	0xbd9e585b	-0.07731696
40	0x3cb05dfb	0.021529188
41	0x3d52c623	0.05145849
42	0x3d5019c6	0.05080583
43	0xbd5f9220	-0.054582715
44	0x3db1ec81	0.08687688
45	0xbd949426	-0.072548196
46	0x3d6e64eb	0.05820171
47	0xbcc9f621	-0.024653496
48	0x3dab66ed	0.08369241
49	0x3d24f2fc	0.04027079
50	0x3d60f4e2	0.05492104
51	0x3c0635c4	0.00819153
52	0xbdc23ca1	-0.0948422
53	0xbd8c6f18	-0.06857127
54	0xbd8484cc	-0.064706415
55	0xbd0b8b93	-0.034068655
56	0xbcd7068f	-0.026248245
57	0x3c810053	0.015747225
58	0xbd886e32	-0.06661643
59	0xbd92c769	-0.07166941
60	0xbb94dea3	-0.004543142
61	0xbc899ac4	-0.01679743
62	0xbc9c51d9	-0.019081997
63	0xbda92fb5	-0.082610525
64	0xbd94a193	-0.0725738
65	0xbd9d7e7d	-0.07690141
66	0xbd46c191	-0.048524443
67	0xbbd21fba	-0.0064124735
68	0xbd7cf47a	-0.06175659
69	0xbda67a6e	-0.0812882
70	0xbcb64f6f	-0.022254674
71	0x3d9baf94	0.07601848
72	0x3d519401	0.05116654
73	0xbc9d37a5	-0.019191572
74	0xbd693d66	-0.05694332
75	0x3c61afcd	0.013774824
76	0xbdaa5a50	-0.08318007
77	0xbd58e17e	-0.05294942
78	0x3c97ef98	0.018546864
79	0x3c9ec241	0.019379737
80	0xbd7507c6	-0.059821866
81	0xbbd35faf	-0.0064506154
82	0x3c01f286	0.007931357
83	0xbc8501b0	-0.016236156
84	0x3d069dc8	0.032865316
85	0x3d1533d3	0.036426377
86	0xbd45af29	-0.04826275
87	0xbbd2c81b	-0.006432546
88	0xbda853a2	-0.08219077
89	0xbd6745b2	-0.05646295
90	0xbdb45085	-0.088044204
91	0xbd73781f	-0.05944073
92	0xbd7077cb	-0.058707993
93	0x3be27ebb	0.00691208
94	0xbc884a66	-0.016637038
95	0x3997de6b	0.0002896668
96	0x3d92d41f	0.07169365
97	0x3c65cd11	0.014025942
98	0x3b3db797	0.002894854
99	0x3d3571b4	0.04429789
100	0xbd1df9ad	-0.038568188
101	0xbbb71db1	-0.0055882563
102	0x3cd3259e	0.025774773
103	0x3d833696	0.06406896
104	0x3d803238	0.062595785
105	0xbd8bafa4	-0.0682061
106	0x3b48197b	0.0030532766
107	0x3d9727d8	0.073806465
108	0x3cdbd694	0.026835717
109	0xbda0b47a	-0.07846923
110	0x3d6ea0ab	0.058258694
111	0xbd872797	-0.06599348
112	0xbd804631	-0.06263388
113	0xbd4c8b94	-0.0499378
114	0x3dbc8a54	0.092060715
115	0x3d889e3f	0.06670808
116	0xbcc5fceb	-0.024168452
117	0x3cfc36dd	0.03078788
118	0x3c0d09b6	0.008608272
119	0xbdbbb621	-0.09165598
120	0xbd44f309	-0.04808334
121	0xbd31e300	-0.043429375
122	0xbc148ec3	-0.00906724
123	0xbc78fbb7	-0.015196732
124	0x3d676534	0.056493
125	0xbd45c597	-0.04828414
126	0xbd3afe52	-0.045652695
127	0x3b4873ce	0.0030586603

encoder.convs.0.norm.weight f4 [128]
0	0x3f737420	0.9509907
1	0x3f72464f	0.9463853
2	0x3f7738ca	0.9657103
3	0x3f793367	0.9734406
4	0x3f795373	0.9739296
5	0x3f743190	0.95388126
6	0x3f76b567	0.9637055
7	0x3f760acc	0.96110225
8	0x3f768ef5	0.96311885
9	0x3f73ceff	0.95237726
10	0x3f774885	0.9659503
11	0x3f72f3d5	0.9490331
12	0x3f77fc54	0.968694
13	0x3f749415	0.95538455
14	0x3f746877	0.954719
15	0x3f786c19	0.97039944
16	0x3f773d97	0.96578354
17	0x3f7500aa	0.9570414
18	0x3f756d9c	0.95870376
19	0x3f725505	0.9466098
20	0x3f7edbc9	0.99554116
21	0x3f78014c	0.9687698
22	0x3f75c90e	0.9600991
23	0x3f77b665	0.96762687
24	0x3f753156	0.95778406
25	0x3f7c2802	0.9849855
26	0x3f6e4eb0	0.9308882
27	0x3f7343da	0.9502541
28	0x3f781f26	0.9692253
29	0x3f7900d7	0.97266906
30	0x3f77cdc9	0.9679838
31	0x3f7b74ea	0.9822527
32	0x3f7832b2	0.96952355
33	0x3f783c68	0.9696717
34	0x3f787974	0.9706032
35	0x3f76d77c	0.96422553
36	0x3f79b9d3	0.9754917
37	0x3f7791d7	0.9670691
38	0x3f77acd7	0.9674811
39	0x3f779d80	0.967247
40	0x3f79333f	0.9734382
41	0x3f7a77aa	0.9783884
42	0x3f79f34b	0.9763686
43	0x3f7c0b66	0.9845489
44	0x3f7706f3	0.9649498
45	0x3f75d2bf	0.960247
46	0x3f809991	1.0046865
47	0x3f76af13	0.9636089
48	0x3f7a811e	0.9785327
49	0x3f757443	0.95880526
50	0x3f74081c	0.95324874
51	0x3f779dbe	0.9672507
52	0x3f7517d5	0.9573949
53	0x3f7e7aa3	0.9940588
54	0x3f7450fb	0.95436066
55	0x3f75182f	0.95740026
56	0x3f75cff0	0.9602041
57	0x3f76c7e8	0.9639878
58	0x3f75c611	0.9600535
59	0x3f76d8bd	0.96424466
60	0x3f732e12	0.9499217
61	0x3f768d25	0.9630912
62	0x3f77b3ec	0.96758914
63	0x3f843601	1.0328981
64	0x3f78e7ad	0.9722851
65	0x3f76a53f	0.96345896
66	0x3f770219	0.96487576
67	0x3f762c3d	0.9616125
68	0x3f75f488	0.9607625
69	0x3f774660	0.9659176
70	0x3f7dc188	0.9912343
71	0x3f7e35bf	0.9930076
72	0x3f7976b7	0.9744677
73	0x3f7d11f6	0.9885553
74	0x3f727ed9	0.94724804
75	0x3f76f724	0.96470857
76	0x3f7474dc	0.95490813
77	0x3f736c9c	0.950876
78	0x3f751343	0.95732516
79	0x3f7cbac1	0.98722464
80	0x3f7f0aa4	0.9962561
81	0x3f74d90a	0.95643675
82	0x3f77ada1	0.9674931
83	0x3f799b49	0.9750257
84	0x3f777e94	0.9667752
85	0x3f742b6a	0.95378745
86	0x3f7628ca	0.9615599
87	0x3f730176	0.94924104
88	0x3f7c5c9f	0.9857883
89	0x3f80faa2	1.0076487
90	0x3f74ff2d	0.9570187
91	0x3f7481cd	0.9551056
92	0x3f75f6cb	0.960797
93	0x3f744c67	0.9542908
94	0x3f75a44b	0.95953816
95	0x3f708c62	0.9396421
96	0x3f7492b4	0.9553635
97	0x3f71bb8b	0.9442679
98	0x3f80339e	1.0015752
99	0x3f760612	0.9610301
100	0x3f79950a	0.9749304
101	0x3f7647ac	0.9620311
102	0x3f791ee5	0.97312766
103	0x3f7acbf8	0.9796748
104	0x3f767e71	0.96286684
105	0x3f77fc72	0.96869576
106	0x3f760480	0.96100616
107	0x3f7880be	0.97071445
108	0x3f816722	1.0109599
109	0x3f770242	0.9648782
110	0x3f80a962	1.0051692
111	0x3f7591c4	0.95925546
112	0x3f778dfb	0.9670102
113	0x3f77ebf7	0.9684443
114	0x3f767ebe	0.96287143
115	0x3f763548	0.9617505
116	0x3f79f593	0.9764034
117	0x3f76c5a6	0.9639534
118	0x3f7666f7	0.9625086
119	0x3f756145	0.95851547
120	0x3f75b276	0.95975435
121	0x3f73533d	0.95048887
122	0x3f764342	0.9619638
123	0x3f7647c3	0.9620325
124	0x3f762eb7	0.9616503
125	0x3f79c7e1	0.97570616
126	0x3f8034e0	1.0016136
127	0x3f7250c2	0.94654477

encoder.convs.0.norm.bias f4 [128]
0	0xbd00264d	-0.031286526
1	0xbd856060	-0.06512523
2	0x3bf9d4b1	0.0076242317
3	0xbba7bd71	-0.0051190187
4	0x3c13e16e	0.009025915
5	0xbb938e5f	-0.004503056
6	0xbb2cf882	-0.002639324
7	0x3ca2fc20	0.019895613
8	0x3c38b03f	0.011272489
9	0x3c6a597d	0.014303562
10	0xbbada11c	-0.0052987467
11	0xbd176abd	-0.036967028
12	0x3c03e948	0.008051224
13	0x3d2549c6	0.04035356
14	0xbcfa6dbe	-0.030569907
15	0xbd328727	-0.043585923
16	0x3c04dd6b	0.008109431
17	0x3bd86915	0.0066043236
18	0xbbc9a509	-0.006153707
19	0xbd95bd65	-0.07311515
20	0x3cd6b322	0.026208464
21	0xbd0fa090	-0.035065234
22	0x3cc49605	0.023997316
23	0xbbdf3b38	-0.0068124793
24	0xbc59c2cc	-0.013291072
25	0xba8d6346	-0.0010787032
26	0xbcfc2216	-0.030777972
27	0x3cf46321	0.029832425
28	0xbc354a5a	-0.01106509
29	0x3d2648c3	0.040596735
30	0xbcae8f13	-0.021308457
31	0xbbb22859	-0.0054369387
32	0xbd1c7a55	-0.038202602
33	0xbd11ba92	-0.035578318
34	0xbd039a5e	-0.032129638
35	0xbd1ee143	-0.038789045
36	0xbaeaf9dc	-0.0017927247
37	0x3c3d859e	0.011567501
38	0xb8290eb1	-4.0306422e-05
39	0x3c37b68f	0.011212959
40	0x3d07ef87	0.033187415
41	0xbc923ea0	-0.017852128
42	0x3b251bfe	0.0025193687
43	0x3cc80d08	0.024420276
44	0xbc1d2f0b	-0.009593735
45	0x3bf6ab04	0.007527711
46	0x3c865fc4	0.016403086
47	0x3d90aac3	0.0706382
48	0xbb1c979c	-0.0023894077
49	0xbc945c38	-0.01811038
50	0x3c5ed06f	0.013599499
51	0xbc22976d	-0.009923798
52	0xbc8a264c	-0.016863964
53	0x3b0f24e9	0.0021842069
54	0x3b86d579	0.0041148034
55	0x3b40750a	0.0029366636
56	0xbcd8ef74	-0.026481368
57	0xbb5a6dce	-0.003332961
58	0x3cd92f15	0.026511708
59	0xbb2bae70	-0.0026196502
60	0x3c9e4e47	0.019324435
61	0xbc6224e9	-0.013802745
62	0xbd40d153	-0.047074627
63	0xbaa0fe2e	-0.0012282783
64	0x3cd3e223	0.025864666
65	0xbd44d1a4	-0.04805149
66	0x3d9a1d3f	0.075251095
67	0x3d31a818	0.043373197
68	0x3c00aaa2	0.007853182
69	0xbc02e2e9	-0.00798867
70	0x3c172f40	0.009227574
71	0xbc9ded37	-0.019278152
72	0x3d3035fe	0.04302024
73	0xbc9d7c98	-0.01922445
74	0xbbcab598	-0.0061861984
75	0x3a70352e	0.0009163198
76	0x3b82fbcd	0.003997302
77	0x3d6663d7	0.05624756
78	0xbce0235d	-0.027360613
79	0xbc62de66	-0.013846969
80	0x3b101422	0.0021984656
81	0xbcc8eea1	-0.02452785
82	0xbbc4fe1f	-0.006011739
83	0xbbed07df	-0.0072336043
84	0x3d1344c1	0.03595424
85	0xbca31482	-0.01990724
86	0xbb3dbe4c	-0.0028952537
87	0xbcdf83d6	-0.027284544
88	0xbc09f755	-0.008420785
89	0xbc6f708e	-0.0146142375
90	0xbc8f938d	-0.017526412
91	0xbd208ccd	-0.039196778
92	0xbb926c2b	-0.004468461
93	0xbc1fe18e	-0.009758366
94	0xbbab6e42	-0.0052316496
95	0xbc51d9c3	-0.012808266
96	0xbd172538	-0.03690073
97	0xbd6177a8	-0.055045754
98	0x3c2e4d33	0.010638523
99	0xbc0df6ff	-0.0086648455
100	0x3caacd2d	0.020849789
101	0x3c6a17fe	0.014287947
102	0xbbc14685	-0.005898299
103	0xbd13e3b2	-0.03610582
104	0xbc3203a0	-0.010865122
105	0xbce6ed5d	-0.028189356
106	0xbbb090ce	-0.005388356
107	0xbce51b79	-0.027967202
108	0xbc80e74c	-0.015735291
109	0xbd3c0a0c	-0.04590802
110	0x3c0e4966	0.008684492
111	0xbd639238	-0.055559367
112	0x3bd2153f	0.006411224
113	0xbb4a8b6f	-0.0030905863
114	0x3d4c1b6c	0.04983084
115	0xbd40f080	-0.04710436
116	0xbce002ab	-0.027345022
117	0x3b4eca03	0.0031553514
118	0x3cbb22ed	0.022843802
119	0xbc24957a	-0.010045404
120	0xbc808bab	-0.015691599
121	0xbd6275c6	-0.0552881
122	0xbd2c31dc	-0.042039737
123	0x3d33e452	0.043918915
124	0xbc956b5f	-0.018239675
125	0xbc7fee68	-0.015620805
126	0xbc1c3a68	-0.0095354095
127	0xbcf92d82	-0.030417208

encoder.convs.0.norm.mean_scale f4 [128]
0	0x3f791f18	0.9731307
1	0x3f873020	1.0561562
2	0x3f7ac196	0.9795164
3	0x3f6d478c	0.92687297
4	0x3f74e421	0.956606
5	0x3f7eb785	0.9949878
6	0x3f7236d3	0.94614905
7	0x3f79b59c	0.9754274
8	0x3f7d7438	0.9900546
9	0x3f7da160	0.99074364
10	0x3f77a677	0.9673838
11	0x3f755129	0.95826966
12	0x3f7fd154	0.99928784
13	0x3f8a658f	1.0812243
14	0x3f7d4188	0.9892812
15	0x3f71b6de	0.9441966
16	0x3f7ccde3	0.9875166
17	0x3f7800b7	0.9687609
18	0x3f7af41b	0.98028725
19	0x3f877e19	1.0585357
20	0x3f73dc07	0.9525761
21	0x3f77b39b	0.9675843
22	0x3f7f751e	0.9978808
23	0x3f6e35db	0.93050927
24	0x3f73826d	0.9512089
25	0x3f6be3e5	0.92144614
26	0x3f77795b	0.9666955
27	0x3f83b782	1.0290377
28	0x3f6c5709	0.92320305
29	0x3f8177af	1.011465
30	0x3f81104f	1.0083102
31	0x3f66631d	0.89994985
32	0x3f82fa04	1.0232549
33	0x3f6b131a	0.9182602
34	0x3f79d166	0.9758514
35	0x3f863003	1.0483402
36	0x3f6cdff4	0.92529225
37	0x3f71b044	0.94409585
38	0x3f731bc0	0.9496422
39	0x3f6e0ed3	0.9299137
40	0x3f80ab8e	1.0052354
41	0x3f6ef598	0.93343496
42	0x3f6d9bf9	0.9281612
43	0x3f80f695	1.0075251
44	0x3f7f2753	0.9966938
45	0x3f75fca0	0.960886
46	0x3f75d9ed	0.96035653
47	0x3f71c8c3	0.94446963
48	0x3f7a3f6a	0.9775301
49	0x3f77c45b	0.9678399
50	0x3f7bf86e	0.9842595
51	0x3f6be79a	0.9215027
52	0x3f7c4ffb	0.9855954
53	0x3f71855a	0.94344103
54	0x3f6ce2fc	0.9253385
55	0x3f7dd4a9	0.9915262
56	0x3f77c12f	0.9677915
57	0x3f701363	0.9377958
58	0x3f787871	0.9705878
59	0x3f7a9846	0.978886
60	0x3f80f62b	1.0075125
61	0x3f79a704	0.9752047
62	0x3f84994c	1.0359282
63	0x3f6e738a	0.9314505
64	0x3f7fe1f2	0.9995414
65	0x3f7bb214	0.983186
66	0x3f6c5dee	0.92330825
67	0x3f6bfd28	0.9218316
68	0x3f758000	0.9589844
69	0x3f722e0d	0.9460152
70	0x3f783e69	0.9697023
71	0x3f82b817	1.021243
72	0x3f7d6536	0.9898256
73	0x3f8052c6	1.002526
74	0x3f7ad6c0	0.9798393
75	0x3f748a7f	0.9552383
76	0x3f7c47a3	0.9854681
77	0x3f7c1c3b	0.98480576
78	0x3f76e9c4	0.9645045
79	0x3f82a1b4	1.0205598
80	0x3f7ba3de	0.98296916
81	0x3f728b0f	0.94743437
82	0x3f7bd2d0	0.9836855
83	0x3f818e5f	1.0121573
84	0x3f807cd6	1.0038097
85	0x3f7c68f2	0.98597634
86	0x3f79e08a	0.97608244
87	0x3f742a0a	0.95376647
88	0x3f6922ee	0.91068923
89	0x3f73821a	0.95120394
90	0x3f85b7b4	1.0446687
91	0x3f79a9ca	0.975247
92	0x3f7187e2	0.94347966
93	0x3f80e13b	1.0068735
94	0x3f7886b2	0.9708053
95	0x3f870476	1.0548236
96	0x3f8671e7	1.050351
97	0x3f6c57d4	0.92321515
98	0x3f764657	0.9620108
99	0x3f76ea02	0.9645082
100	0x3f772580	0.96541595
101	0x3f783800	0.9696045
102	0x3f768823	0.9630148
103	0x3f852848	1.0402918
104	0x3f7ff0b4	0.9997666
105	0x3f80208f	1.0009936
106	0x3f7b0e33	0.9806854
107	0x3f748339	0.9551273
108	0x3f801782	1.0007174
109	0x3f739530	0.9514952
110	0x3f7cbf19	0.9872909
111	0x3f741a48	0.953526
112	0x3f717b49	0.94328743
113	0x3f6ffb99	0.9374328
114	0x3f6ab010	0.916749
115	0x3f8560c2	1.0420153
116	0x3f77b586	0.9676136
117	0x3f73ee86	0.9528583
118	0x3f826d6f	1.0189646
119	0x3f745006	0.95434606
120	0x3f8168c8	1.0110102
121	0x3f85189e	1.0398138
122	0x3f8271ad	1.0190941
123	0x3f80f5c9	1.0075008
124	0x3f7e5a99	0.9935699
125	0x3f7018e2	0.9378797
126	0x3f6fe1b8	0.93703794
127	0x3f801531	1.0006467
