checkpoints/model_A_epoch_19.pth (torch, 552443 bytes, 27 tensors)

encoder.node_embedding.weight f4 [1, 128]
0	0x3fec5da8	1.8466082
1	0x3fb8bc36	1.4432437
2	0x3f5cc960	0.86244774
3	0xc00136eb	-2.018977
4	0x3f230487	0.63678783
5	0xbf96a7e5	-1.1769987
6	0xbc75efd3	-0.015010792
7	0xbfc5216d	-1.5400826
8	0xbf325473	-0.6966011
9	0x3fcb719c	1.5894046
10	0xbeb3e1b9	-0.3513315
11	0xbfab07d0	-1.3361759
12	0xbf300f7d	-0.68773633
13	0xbf075689	-0.5286642
14	0xbf39c9d3	-0.72573584
15	0x3f34e599	0.7066284
16	0x3fc7c67f	1.5607451
17	0xbe13e33c	-0.14442152
18	0xbee55f83	-0.44799432
19	0x3eda3bf2	0.4262386
20	0xbf35654c	-0.7085769
21	0x3f83a6f4	1.0285325
22	0x3f3f683b	0.7476842
23	0x3fd1334e	1.6343782
24	0x3f9deab9	1.2337257
25	0x3f9eb7c5	1.2399832
26	0x3f12799d	0.5721682
27	0x3fa36e99	1.2768127
28	0xbe60c82b	-0.21951358
29	0x3c47901f	0.012180357
30	0xbe65fb69	-0.22459187
31	0x3f51d6fa	0.81968653
32	0xbfa72ab5	-1.3059908
33	0xbf50d26c	-0.8157108
34	0xbe2fe0f2	-0.17175654
35	0x3fd5aed9	1.6693984
36	0x3e93f6cc	0.2889923
37	0xbecc0b4b	-0.39852366
38	0x3e8cba8d	0.27486077
39	0xbf3744f2	-0.7158958
40	0xbfc01355	-1.50059
41	0x3f755085	0.9582599
42	0xbf56f297	-0.8396391
43	0xbf12e059	-0.5737358
44	0xbf9e2f87	-1.2358254
45	0x400395a7	2.056009
46	0xbf96150b	-1.1725172
47	0xbed910bc	-0.4239558
48	0xbf617b35	-0.88078624
49	0xbf20e421	-0.628481
50	0x3d79eed2	0.061018772
51	0x3ef7495f	0.48298165
52	0xbeef5b64	-0.46749413
53	0x3f940e52	1.156687
54	0xbf590184	-0.8476794
55	0xbf30f181	-0.69118506
56	0xbfab00c9	-1.3359615
57	0x3cea6f1f	0.02861744
58	0xbd40f91c	-0.04711257
59	0x3f237fbc	0.6386678
60	0xbd95d955	-0.073168434
61	0x3fe34884	1.7756505
62	0xbf8f5925	-1.119908
63	0x3fabbaac	1.3416343
64	0x3fb2b5fc	1.3961787
65	0x3f4fd34b	0.8118178
66	0x40092a65	2.1432126
67	0x3ef29d9c	0.4738587
68	0x3e99b628	0.30021787
69	0xbe346e40	-0.17620182
70	0xbf83eee4	-1.0307279
71	0x3f9da4f1	1.2315961
72	0xbe098d05	-0.13432701
73	0x3ef52d79	0.47886255
74	0x3d61ea3c	0.055155024
75	0x3ec2187c	0.37909305
76	0x3f0b5ff8	0.5444331
77	0xbf17e3b3	-0.59331816
78	0xc0084e06	-2.1297622
79	0xbf384962	-0.71986973
80	0x3a89ff4b	0.0010528354
81	0xbea69348	-0.32534242
82	0xbfa43cc8	-1.2831049
83	0xbf094ceb	-0.5363299
84	0x3f048c9f	0.5177707
85	0x3f018246	0.50589406
86	0x3f8ab4fb	1.0836481
87	0x3d15aa36	0.03653928
88	0x3f335261	0.70047575
89	0xbeea293c	-0.45734584
90	0xbf7d40fa	-0.9892727
91	0x3f17e8b2	0.5933944
92	0xbfd3f460	-1.6558952
93	0xbf4bb0cd	-0.7956665
94	0x3fa0aa74	1.2552018
95	0x3ee70723	0.45122632
96	0xc01a6577	-2.412443
97	0x3ee70e85	0.45128265
98	0x3f3e637d	0.7437056
99	0x3ad3500d	0.001612188
100	0x3f1c6e5d	0.611059
101	0x3f0b921f	0.5451984
102	0x3f83bb94	1.0291619
103	0xbed88ace	-0.422934
104	0xbe291454	-0.16511661
105	0x3f351633	0.70737
106	0x3eb8cb0c	0.36092412
107	0x3e131c7e	0.14366338
108	0x3e78c85e	0.24295184
109	0x3f9f39b9	1.243949
110	0x3a2e711a	0.00066544267
111	0xbe852503	-0.260048
112	0xbfb35ab6	-1.4012058
113	0xbda8c250	-0.08240187
114	0xbf0cdcc1	-0.55024344
115	0x3ed7346f	0.4203219
116	0x3f2e0c58	0.67987585
117	0x3d8c6075	0.06854335
118	0xbeb03f3c	-0.34423244
119	0x3ef578ca	0.47943717
120	0x39abe2be	0.00032784598
121	0x3e4a2f48	0.19744599
122	0x3dcc9057	0.09988468
123	0x3f3a9a24	0.7289145
124	0x3f862170	1.0478954
125	0x3e9b0509	0.3027728
126	0x3f31d00c	0.6945808
127	0x3ecafbbf	0.39645192

encoder.convs.0.node_mlp.weight f4 [128, 256]
0	0x3d5d7881	0.05407
1	0xbc123f9f	-0.008926301
2	0x3d633b86	0.055476688
3	0x3c816c95	0.015798846
4	0xbd45abd3	-0.048259567
5	0x3d1f5214	0.038896635
6	0xbc898a2b	-0.016789516
7	0xbcd888b3	-0.02643237
8	0xbd5b53fe	-0.053546898
9	0xbd6a6ccb	-0.05723266
10	0x3c69b606	0.014264589
11	0xbc86885e	-0.016422447
12	0x3ca80c87	0.020513786
13	0xbd5968e2	-0.05307854
14	0x3d2bdd10	0.04195887
15	0xbd29df6d	-0.04147284
16	0xbbf0cfcf	-0.0073489915
17	0x3c24a074	0.010048021
18	0x3ce7b259	0.028283285
19	0x3d5675a9	0.052358303
20	0x3d55fc08	0.05224231
21	0xbd38a077	-0.045074906
22	0x3c96791d	0.018368298
23	0xbcbc7dd6	-0.023009222
24	0xbb688bef	-0.0035483798
25	0xbd2d4d96	-0.04231032
26	0x3d6fcafd	0.058543194
27	0xbd29acae	-0.041424446
28	0x3cef8dea	0.029242475
29	0x3cc76666	0.02434082
30	0x3c8890ad	0.01667055
31	0xbcf3a5d9	-0.029742168
32	0x3d55348c	0.052052066
33	0x3c277172	0.010219919
34	0x3b94e79c	0.0045442116
35	0xbd4e3b96	-0.050349794
36	0x3cec05dc	0.028811388
37	0xbc4b0295	-0.012390752
38	0xbccb8e94	-0.02484826
39	0x3d48e8f4	0.049050286
40	0x3c2a5c3f	0.01039797
41	0xbcf91429	-0.03040512
42	0xbd0af216	-0.033922277
43	0xbbc4e28a	-0.006008451
44	0x3cfc0080	0.030761957
45	0xbc4ad37d	-0.012379524
46	0xbd1af49a	-0.037830926
47	0xbcc344bb	-0.023836484
48	0xbd46b18f	-0.048509177
49	0x3c9761b8	0.018479213
50	0x3d4d8aff	0.050181385
51	0xbd5d9b20	-0.054103017
52	0x3c33a0ff	0.010963677
53	0x3d0d5643	0.034506094
54	0x3bff581b	0.0077924854
55	0xbcca9fae	-0.024734344
56	0x3cea6602	0.028613094
57	0x3d0b0031	0.03393573
58	0x3c9c5810	0.01908496
59	0xbbf53b1e	-0.007483854
60	0xbc9cef19	-0.01915698
61	0x3c1dc2c4	0.009628955
62	0xbc63ed1c	-0.013911512
63	0xbc7503ea	-0.0149545465
64	0x3d2bf9d6	0.04198631
65	0x3d628afe	0.055308335
66	0xbb3c81e0	-0.0028763935
67	0xbc2b7701	-0.010465384
68	0x3b80fb66	0.003936219
69	0xbbdeb35f	-0.006796285
70	0x3c3abe30	0.011397883
71	0x3ca56b53	0.020192778
72	0xbd6d2003	-0.057891857
73	0xbc9e8a53	-0.019353068
74	0x3d5ad0ad	0.053421665
75	0x3cdc4f5e	0.026893314
76	0x389f0a9f	7.583689e-05
77	0xbd2299dd	-0.039697517
78	0xbd25146d	-0.040302683
79	0xbd6bd963	-0.057580363
80	0xbc5e18e4	-0.013555739
81	0x3c8e05e1	0.017336788
82	0x3d11a429	0.035556946
83	0x3ccc92db	0.02497237
84	0xbd4f1824	-0.05056013
85	0xbd087bd6	-0.033321224
86	0xbbd28d81	-0.00642556
87	0x3d7900ca	0.060791768
88	0x3c43fb8b	0.011961828
89	0xbc9aff41	-0.018920543
90	0x3cb4137b	0.021981945
91	0xbca2fe61	-0.019896688
92	0xbd2dd077	-0.042435136
93	0x3d28f74d	0.04125147
94	0xbcc85126	-0.024452757
95	0xbc15e78c	-0.009149443
96	0xbd8214c0	-0.06351614
97	0x3d3378c4	0.043816343
98	0x3d4902f1	0.04907507
99	0x3cc7a9de	0.024372991
100	0xbd208407	-0.03918841
101	0xbd688255	-0.05676492
102	0xbd3ccee3	-0.04609574
103	0x3d2cd0a9	0.04219118
104	0x3cd34632	0.025790308
105	0x3d5e986d	0.054344583
106	0x3d0f85f2	0.03503985
107	0x3c97f3ea	0.018548924
108	0x3b296cec	0.0025852276
109	0xbd303942	-0.043023355
110	0xbd667452	-0.056263275
111	0xbd74e8cb	-0.05979232
112	0x3cb208a3	0.021732634
113	0xbd06664a	-0.032812394
114	0xbc7a645b	-0.015282716
115	0xbd021360	-0.03175676
116	0xbc031978	-0.008001678
117	0xbd2382ba	-0.039919592
118	0xbd2feb69	-0.042949114
119	0x3cbf6992	0.02336577
120	0xbcbbaf52	-0.022910748
121	0x3d25eb68	0.040507704
122	0xbc86931d	-0.016427571
123	0xbd29c2e9	-0.041445646
124	0xbbfa63bf	-0.007641285
125	0xbcd69271	-0.026192876
126	0xbc7bf0d6	-0.015377244
127	0xbd60266e	-0.05472415
128	0x3d61be3e	0.05511307
129	0xbcac2747	-0.021014823
130	0x3d6e61df	0.058198806
131	0x3ca23025	0.019798348
132	0x3cbfc229	0.023408012
133	0x3b98792e	0.0046531176
134	0x3d71fbd9	0.05907807
135	0xbca7d804	-0.020488746
136	0xbcef1366	-0.029184055
137	0x3d26ffce	0.040771298
138	0x3cebfd87	0.028807415
139	0xbd712c1d	-0.05887996
140	0xbd084a6b	-0.033274096
141	0xbd7edf1e	-0.0622245
142	0x3dbf053d	0.09327171
143	0xbd9f0e00	-0.07766342
144	0x3ccc2817	0.02492146
145	0xbced7ab4	-0.028989173
146	0x3d03b8c7	0.03215864
147	0xbc1c9ce0	-0.009558886
148	0xbc5036f2	-0.0127084125
149	0x3cbe3c71	0.02322218
150	0x3d337da7	0.043821003
151	0xbd963025	-0.073334016
152	0xbc867f3a	-0.016418088
153	0xbced14ac	-0.028940521
154	0x3b891899	0.0041838405
155	0xbddb1823	-0.10697963
156	0xbcba68dc	-0.022755079
157	0x3d1dfea8	0.038572937
158	0xbc972b2a	-0.0184532
159	0xbc086de2	-0.008326979
160	0x3da1e8e1	0.07905746
161	0x3d30d85d	0.04317509
162	0xbcface98	-0.03061609
163	0xbd69e8f6	-0.057106934
164	0xbd4e4d4a	-0.050366677
165	0xbd451255	-0.048113186
166	0x3d99812d	0.074953414
167	0x3d5973b4	0.05308886
168	0xbd1ac10a	-0.037781753
169	0x3d043c07	0.03228381
170	0xbd94baf8	-0.07262224
171	0xbda68090	-0.0812999
172	0x3cef40ea	0.029205758
173	0xbc8bffd6	-0.017089766
174	0xb926f966	-0.00015923902
175	0x3c9caaf8	0.019124493
176	0xbd873987	-0.06602769
177	0x3dbcb36b	0.09213909
178	0xbcac5973	-0.021038746
179	0x3d24597f	0.040124413
180	0xbce641e5	-0.028107593
181	0xbc9b78cf	-0.018978504
182	0x3db4482a	0.08802827
183	0x3c20b2fd	0.009808299
184	0x3c430878	0.011903875
185	0x3c6a74a0	0.014310032
186	0xbcab0b14	-0.020879306
187	0x3d156867	0.03647652
188	0x3d4fb0b4	0.050705627
189	0x3d476468	0.04867974
190	0xbd6e0d6c	-0.05811827
191	0x3cd3490b	0.025791666
192	0x3ca49c80	0.020094156
193	0xbc5e6247	-0.013573236
194	0x3d45eaf0	0.048319757
195	0xbb9d22b1	-0.0047953953
196	0xbca4e80a	-0.020130176
197	0xbd7d8c2d	-0.06190126
198	0x3c0f51e3	0.008747551
199	0xbdad0c54	-0.08449617
200	0xbd218488	-0.039433032
201	0xbc2b91f3	-0.010471809
202	0xbd05e2a9	-0.032686863
203	0x3ce11d0f	0.027479677
204	0xbd5395f7	-0.05165669
205	0xbd873ca7	-0.066033654
206	0xbda62337	-0.081121854
207	0xbd21fa5b	-0.0395454
208	0x3d5fd0ab	0.05464236
209	0xbc48d439	-0.012257629
210	0xbc2d2520	-0.010567933
211	0x3a8b7634	0.0010640086
212	0xbd1ff238	-0.039049357
213	0x3c1d70a0	0.009609371
214	0xbd12a610	-0.0358029
215	0x3b6f3a9d	0.0036503442
216	0xbd664356	-0.05621656
217	0xbcc57fbf	-0.024108766
218	0x3d17f26e	0.037096433
219	0xbd008312	-0.031375
220	0xbd19214a	-0.037385263
221	0x3c5491b8	0.012974195
222	0x3d89dbf3	0.06731405
223	0x3d3e48a9	0.046456013
224	0x3cfe9434	0.031076528
225	0xbd87318a	-0.06601246
226	0xbdb5523a	-0.08853574
227	0xbca1af2c	-0.019736849
228	0x3c2a3ae4	0.010390017
229	0xbcb78ac6	-0.02240504
230	0xbd841b58	-0.06450528
231	0x3dce43fe	0.10071562
232	0xbd157796	-0.036491
233	0xbd02a736	-0.031897746
234	0xbe0665f6	-0.13124833
235	0x3c20a26b	0.009804348
236	0x3dcb31b8	0.099215925
237	0xbcd8888a	-0.026432294
238	0x39f3ebbe	0.00046524213
239	0xbbdc13b7	-0.0067162174
240	0xbdf87545	-0.121317424
241	0xbd3b308f	-0.045700606
242	0xbc406a64	-0.0117441155
243	0x3d0e6217	0.034761515
244	0xbc1e21e2	-0.009651633
245	0xbccb5af8	-0.02482365
246	0xbd699b02	-0.057032593
247	0xbaa333ce	-0.0012451352
248	0x3d0b511a	0.03401289
249	0x3d61f2f0	0.055163324
250	0x3b95f812	0.0045766914
251	0xbccff7d8	-0.025386736
252	0x3d0ab90b	0.033867877
253	0xbd9f1725	-0.07768086
254	0xbcd0405c	-0.025421314
255	0x3cf13ac3	0.029446965

encoder.convs.0.node_mlp.bias f4 [128]
0	0xbd36a88c	-0.044594333
1	0x3c594128	0.013260163
2	0x3c653a4a	0.013990948
3	0x3d6a023b	0.057131033
4	0x3d0d4333	0.034487914
5	0xbce8824d	-0.028382445
6	0xbaf2b763	-0.0018517788
7	0xbd0117f7	-0.031516995
8	0x3ac13d8f	0.0014743077
9	0x3c0ec06b	0.008712868
10	0x3d4b7b82	0.049678333
11	0x3d937790	0.07200539
12	0xbd02c31f	-0.031924363
13	0x3d7ddac0	0.061976194
14	0xbd55e5c3	-0.05222107
15	0x3cb26977	0.021778805
16	0x3b8ce1c4	0.0042993743
17	0x3d065c2c	0.032802746
18	0x3d1e5076	0.038650952
19	0xbc5b4009	-0.013381966
20	0x3d5863c2	0.05282951
21	0x3c4c59e2	0.012472602
22	0x3b6581e7	0.0035020055
23	0xbcd467a3	-0.025928324
24	0xbd61137d	-0.054950226
25	0xbc2c200a	-0.010505686
26	0x3bf9b498	0.0076204054
27	0x3a21c7cf	0.00061714364
28	0xbc630681	-0.013856531
29	0xba230c3d	-0.000621978
30	0x3b0c62b7	0.0021421143
31	0xbd0a3f0b	-0.03375153
32	0x3ce03396	0.027368348
33	0xbd4998b2	-0.049217887
34	0x3c076fe5	0.008266424
35	0x3d0e407b	0.034729462
36	0xbcb0a4aa	-0.021562893
37	0x3d0b2de9	0.03397933
38	0xbd05eb6f	-0.03269523
39	0xbcc77e7b	-0.024352303
40	0x3d3e2498	0.046421617
41	0xbd6f6a87	-0.0584512
42	0x3d0ca906	0.03434088
43	0x3da0a7c4	0.07844499
44	0x3ca4d90d	0.02012303
45	0xbc150875	-0.009096255
46	0xbcfeda8a	-0.031110067
47	0xbd294fb4	-0.041335776
48	0x3d61384e	0.054985337
49	0x3bde959c	0.006792737
50	0x3cfa0b30	0.030522913
51	0xbcd548bc	-0.026035659
52	0x3ceb8df8	0.02875422
53	0xbd0f1138	-0.03492853
54	0x3d250774	0.04029031
55	0x3d63e106	0.05563452
56	0xbd5abf8e	-0.053405337
57	0xbd53c1ab	-0.051698368
58	0xbd69c016	-0.057067953
59	0xbd125b5e	-0.035731666
60	0x3c4c08c3	0.012453261
61	0xbd5b4289	-0.05353025
62	0x3d20580a	0.03914646
63	0xbd0cfe22	-0.034422047
64	0xbc0ad1ea	-0.008472899
65	0x3caeaa72	0.021321509
66	0xbd410728	-0.047125965
67	0xbb6b7bb5	-0.003593189
68	0xbd5f6656	-0.054540955
69	0xbd6850a4	-0.05671753
70	0x3c570dc4	0.013125841
71	0xbce3d114	-0.027809657
72	0x3d42684e	0.047462754
73	0xbd191177	-0.03737017
74	0x3cebde18	0.028792426
75	0x3d3ffab9	0.046869967
76	0xbc8c383a	-0.017116655
77	0xbcb176d8	-0.021663114
78	0x3cedf9cb	0.029049775
79	0xbcd85a90	-0.026410371
80	0x3c5e1837	0.013555578
81	0xbc693e5b	-0.014236058
82	0xbc049015	-0.008090992
83	0xbd4f5054	-0.050613716
84	0x3d2feb52	0.04294903
85	0xbd468825	-0.04846968
86	0xbc38d608	-0.011281498
87	0x3ccf8727	0.025333
88	0xbd0f9bdf	-0.03506076
89	0xbb8807da	-0.0041513266
90	0x3d7635f5	0.06011005
91	0x3cb1b616	0.02169327
92	0x3d3ac605	0.045599002
93	0xbce2068c	-0.027591012
94	0x3d020df1	0.031751577
95	0xbb9498c7	-0.004534814
96	0xba4ece48	-0.00078890147
97	0xbc81abd1	-0.015828999
98	0xbbe6aa44	-0.00703934
99	0x3d424072	0.04742474
100	0x3cf4f999	0.029904174
101	0xbd554db2	-0.05207605
102	0x3d48dbf3	0.049037885
103	0x3d7ed1a5	0.06221165
104	0xbca8eace	-0.020619776
105	0x3c3b473d	0.011430559
106	0x3cacd341	0.021096827
107	0xbd5fed41	-0.054669622
108	0x3b0d697e	0.002157777
109	0x3d5ed6d7	0.054404106
110	0xbc4b01a7	-0.012390531
111	0xbd2f1b27	-0.042750504
112	0xbd22c66a	-0.039740004
113	0x3d12343f	0.035694357
114	0xbbc394db	-0.0059686727
115	0xbbd042dd	-0.006355627
116	0x3c4c81f8	0.012482159
117	0x3c904f48	0.01761593
118	0x3d07fbbb	0.033199053
119	0xbbad65ae	-0.005291662
120	0xbd77a1a8	-0.0604569
121	0x3d2134da	0.039357044
122	0x3d2e5d72	0.042569585
123	0x3be28fc8	0.0069141127
124	0xbce31049	-0.027717726
125	0xbcd3385f	-0.025783716
126	0x3ccba4a9	0.02485879
127	0x3d2e3b72	0.04253716

encoder.convs.0.edge_mlp.0.weight f4 [128, 7]
0	0xbef425b8	-0.47685027
1	0x3e0eca38	0.13944328
2	0x3dd30709	0.10304076
3	0x3db1884c	0.08668575
4	0xbd868be4	-0.06569651
5	0xbcab9416	-0.020944636
6	0xbee75d10	-0.4518819
7	0xbd20f109	-0.03929237
8	0xbe497529	-0.196736
9	0x3ec9a9c3	0.3938733
10	0x3e3b61f0	0.18299079
11	0x3e0a94ce	0.13533327
12	0xbe40800e	-0.18798849
13	0xbe5b9c19	-0.21446265
14	0xbb8498a5	-0.004046517
15	0xbe34eefa	-0.17669287
16	0x3c9bc0b4	0.019012786
17	0x3d650502	0.05591298
18	0x3d4721a1	0.048616055
19	0xbe9787b2	-0.29595715
20	0x3eb420f0	0.3518138
21	0xbe4668e5	-0.19375952
22	0x3c855d33	0.016279792
23	0xbe710eb4	-0.23540765
24	0x3eb4519f	0.35218522
25	0xbdf80251	-0.12109817
26	0x3e420c71	0.18950059
27	0x3e184289	0.14869131
28	0x3d89bf6a	0.067259625
29	0x3d1d0e88	0.038343936
30	0xbe996a1d	-0.2996377
31	0xbeaab573	-0.3334156
32	0x3e92c347	0.2866461
33	0x3e8ec31c	0.27883232
34	0xbe6fa15f	-0.23401402
35	0xbe4b7863	-0.19870143
36	0xbeba30c5	-0.36365333
37	0xbe9a7ec6	-0.30174845
38	0x3d5e919f	0.054338094
39	0xbd935d4c	-0.07195529
40	0x3eb1be50	0.3471551
41	0x3e92c8e7	0.286689
42	0xbe654634	-0.22390062
43	0x3ecb4aed	0.397056
44	0x3e9ef9cf	0.31049964
45	0x3eaeead2	0.3416353
46	0xbdbb804b	-0.09155329
47	0x3d5e3434	0.054249004
48	0xbe75a27f	-0.23987769
49	0xbe1b16d9	-0.15145434
50	0x3ef60ebb	0.48058113
51	0x3ea8dc15	0.3298041
52	0xbebb49a1	-0.36579612
53	0x3e214107	0.15747462
54	0xbe04dd26	-0.12974986
55	0xbe829ff2	-0.25512654
56	0x3e7e8c13	0.24858122
57	0x3b2e0ba5	0.0026557234
58	0xbe3090c6	-0.17242727
59	0x3eb07dba	0.34470922
60	0xbe49fd76	-0.19725594
61	0x3e604d8e	0.21904585
62	0x3e6d0a1e	0.2314839
63	0xbe50c29f	-0.20386742
64	0x3e366f21	0.1781583
65	0xbe214fce	-0.157531
66	0xbde45025	-0.11148099
67	0x3ea864b1	0.3288932
68	0x3e94e842	0.2908345
69	0xbe78fef9	-0.24316014
70	0x3ed2590f	0.4108357
71	0xbea4f073	-0.32214698
72	0x3e546427	0.2074133
73	0xbe9dce35	-0.30821386
74	0xbc173d99	-0.009230995
75	0xbe6abacc	-0.2292282
76	0x3ea5059c	0.32230842
77	0xbe61fd1c	-0.2206921
78	0xbe8f2b54	-0.27962744
79	0xbe18d0d2	-0.14923409
80	0x3e8b1df4	0.2717129
81	0x3e4fbfd1	0.20288016
82	0x3e23d3b4	0.15998727
83	0x3e9be94b	0.30451426
84	0xbe071a81	-0.13193704
85	0x3ded7a2a	0.115955666
86	0xbeec9a10	-0.4621129
87	0xbea5a38e	-0.32351345
88	0x3e1707c0	0.1474905
89	0xbea39743	-0.3195134
90	0x3dfece7a	0.12441726
91	0x3e31f3ff	0.17378233
92	0x3e9c3be0	0.3051443
93	0x3ec3bfc5	0.38232246
94	0x3db467d1	0.08808864
95	0xbd229d3b	-0.039700728
96	0xbe95224b	-0.29127726
97	0xbe3de057	-0.1854261
98	0x3cdefd63	0.027220434
99	0x3e5c2708	0.21499264
100	0xbe85a4d3	-0.26102313
101	0xbd81269b	-0.063061915
102	0x3d8950f9	0.067048974
103	0x3c22f752	0.009946661
104	0xbe95af4c	-0.29235303
105	0x3e9b0433	0.3027664
106	0x3de13340	0.10996103
107	0x3ebb897a	0.36628324
108	0xbe9cea98	-0.3064773
109	0xbd441aa3	-0.047876965
110	0x3e30ec61	0.17277671
111	0x3e78fdae	0.24315521
112	0xbe81aa74	-0.25325358
113	0xbe1c6db9	-0.15276231
114	0xbe2aad4a	-0.16667667
115	0xbe748181	-0.23877527
116	0xbec2df06	-0.38060778
117	0x3c84d606	0.016215336
118	0x3e853615	0.26017824
119	0xbedcf15b	-0.4315289
120	0xbe03985f	-0.12851094
121	0xbebce5f5	-0.36894193
122	0x3d9aa92f	0.075518005
123	0x3e0e4987	0.13895236
124	0xbea5a615	-0.32353273
125	0x3e0a37e3	0.13497882
126	0xbe5a08cd	-0.2129242
127	0xbe043cea	-0.12913862
128	0xbe57e6da	-0.21084157
129	0xbc529419	-0.012852692
130	0x3e48fda4	0.19628006
131	0xbe4d5c28	-0.20054686
132	0xbde5fba5	-0.11229638
133	0xbe724ca7	-0.23662053
134	0xbdcd2ad8	-0.100179374
135	0x3e9e95b7	0.30973598
136	0x3e884def	0.2662196
137	0xbe5ab453	-0.2135785
138	0x3eb74448	0.35794282
139	0x3d45444c	0.048160836
140	0x3e52deb6	0.2059277
141	0xbea0dee8	-0.31420064
142	0xbdefb723	-0.117048524
143	0x3eac049e	0.33597273
144	0x3e995550	0.299479
145	0x3e4e3aee	0.20139667
146	0xbe0b2519	-0.1358837
147	0xbdc8c3b1	-0.0980295
148	0x3e60ce4f	0.219537
149	0x3e53ba62	0.20676568
150	0xbe3d60d7	-0.18493973
151	0xbe808127	-0.25098535
152	0xbea04e21	-0.31309608
153	0xbea2eecb	-0.3182281
154	0xbd8496ad	-0.064740516
155	0x3eb474c8	0.35245347
156	0xbe667e2e	-0.22509071
157	0x3e2539ee	0.1613538
158	0xbe589cfc	-0.21153635
159	0x3caaa3ff	0.020830153
160	0xbe51f367	-0.20503007
161	0xbe8e613b	-0.27808556
162	0x3eb6fe71	0.35740998
163	0x3dc186da	0.09449549
164	0x3eb5c05b	0.35498318
165	0x3da4c2c3	0.0804496
166	0x3c2853dc	0.0102739
167	0x3e878dec	0.26475465
168	0xbe93bcbc	-0.2885493
169	0x3e89cb3b	0.26912865
170	0x3d7cd51b	0.06172667
171	0xbd1d1ffe	-0.03836059
172	0xbea191db	-0.3155659
173	0xbc386c8d	-0.011256349
174	0xbe80d744	-0.25164235
175	0x3ea61a74	0.32442057
176	0xbe79d220	-0.24396563
177	0xbc87413f	-0.016510604
178	0x3ea77576	0.32706803
179	0xbcf26107	-0.029587282
180	0xbec4fa3c	-0.38472164
181	0x3d60fe2d	0.0549299
182	0x3df808ff	0.12111091
183	0xbe997c1a	-0.29977494
184	0xbeb7c887	-0.35895178
185	0xbed4a4d1	-0.41531995
186	0xbe82dc8e	-0.25558895
187	0xbc0a1b56	-0.008429369
188	0xbeb23a56	-0.34810132
189	0xbeb2fc2f	-0.34958026
190	0x3d44c373	0.048037957
191	0xbea404f0	-0.32035017
192	0xbaa44f41	-0.0012535827
193	0x3deaad14	0.11458793
194	0x3e9bf703	0.30461892
195	0x3caa79ed	0.020810092
196	0x3e4e3c28	0.20140135
197	0x3ec29740	0.3800602
198	0x3dcfbe8a	0.10143764
199	0x3e9a6c2d	0.30160657
200	0xbe106836	-0.14102253
201	0x3eb77c68	0.35837102
202	0xbe94976c	-0.29021776
203	0x3ed845c5	0.4224073
204	0x3e37d841	0.17953588
205	0x3c0f96a5	0.008763944
206	0x3eb3f4a4	0.35147583
207	0x3e319354	0.17341357
208	0x3c508e31	0.012729214
209	0xbd17a985	-0.0370269
210	0x3edfd871	0.4371982
211	0x3d86fb3a	0.065908864
212	0x3e34356e	0.17598507
213	0x3d106f80	0.035262585
214	0xbd8f3669	-0.069928
215	0xbe4b3a8b	-0.19846551
216	0x3e3735e8	0.17891657
217	0x3d4ea908	0.05045417
218	0x3e19d8b8	0.15024078
219	0x3d84a13f	0.06476068
220	0xbe17895d	-0.14798494
221	0xbd34dcf5	-0.044156034
222	0xbe427377	-0.18989359
223	0x3d9d60e6	0.076844975
224	0x3e020a23	0.1269918
225	0xbe718db9	-0.23589219
226	0x3ed4bf50	0.4155221
227	0xbdbcfad9	-0.09227533
228	0x3e9bdc8a	0.30441695
229	0x3e97003f	0.29492375
230	0x3e1149e3	0.14188342
231	0x3ee8f2fd	0.45497885
232	0xbeb9fbad	-0.36324826
233	0xbe8cfc76	-0.27536362
234	0x3d5eac74	0.054363683
235	0xbdaefa5e	-0.085438475
236	0xbe01272c	-0.12612599
237	0xbd1ac452	-0.037784882
238	0xbec34b53	-0.38143405
239	0xbd90c524	-0.070688516
240	0xbe438656	-0.19094214
241	0x3dbec952	0.093157426
242	0x3d486ce2	0.048931964
243	0xbe81464e	-0.2524895
244	0xbe14857d	-0.14504047
245	0xbde92118	-0.11383265
246	0x3e9aeccb	0.30258784
247	0x3ecfbe57	0.40574905
248	0x3df251f8	0.118320405
249	0xbd5ffcd6	-0.054684483
250	0xbce5b506	-0.02804042
251	0x3e9d24e7	0.30692217
252	0xbe4c754b	-0.19966619
253	0xbe4521c6	-0.19251165
254	0x3d21a9ae	0.03946846
255	0xbe54007e	-0.20703313

encoder.convs.0.edge_mlp.0.bias f4 [128]
0	0x3e0539e7	0.13010369
1	0x3e362b0c	0.17789859
2	0xbe8d127b	-0.27553162
3	0x3d3edef7	0.046599355
4	0x3b859725	0.0040768557
5	0x3e7859ff	0.24253081
6	0x3c757628	0.014981784
7	0xbe2de493	-0.16981725
8	0x3e37d2b4	0.1795147
9	0xbe3434f5	-0.17598327
10	0xbbbe1393	-0.0058006733
11	0xbd6cc25a	-0.057802536
12	0x3e194957	0.14969383
13	0xbcda558c	-0.02665212
14	0x3e1d8432	0.1538246
15	0xbe44162c	-0.19149083
16	0x3bec869f	0.0072181965
17	0x3ebdd361	0.37075332
18	0xbe44f6e3	-0.19234805
19	0xbd9ffd7b	-0.078120194
20	0x3c07851d	0.008271483
21	0x3db66660	0.08906245
22	0xbdc220dc	-0.09478924
23	0x3dfb90ab	0.122834526
24	0xbd9f89b0	-0.07789934
25	0x3c45a35b	0.012062873
26	0x3ea56b29	0.3230832
27	0x3e9b35eb	0.30314574
28	0xbdb896cf	-0.090131395
29	0xbe0d5d2c	-0.13805073
30	0xbe7237c3	-0.23654084
31	0xbd2219fb	-0.03957556
32	0x3b6dc645	0.0036281508
33	0x3e0358c4	0.1282683
34	0xbde51c35	-0.11187021
35	0x3e3b900b	0.18316667
36	0xbcd8c905	-0.026463041
37	0x3dabf1dc	0.083957404
38	0x3eaa2192	0.33228737
39	0x3ce901bd	0.028443212
40	0x3ce4db16	0.0279365
41	0xbd858950	-0.06520331
42	0x3e7bebc4	0.24601656
43	0xbe80aa55	-0.25129953
44	0xbe551b8d	-0.20811291
45	0x3da8af69	0.08236582
46	0x3e490cbb	0.19633763
47	0xbe96d8ba	-0.29462224
48	0xbd42af9d	-0.04753076
49	0x3dc3ffef	0.095703
50	0x3e9a6f5a	0.3016308
51	0x3df67e9d	0.12035868
52	0x3e97132b	0.29506811
53	0xbd675f47	-0.056487348
54	0xbea47f5b	-0.32128415
55	0x3d3eb804	0.04656221
56	0x3e51ad14	0.2047618
57	0x3c9db6e4	0.019252248
58	0x3d875bbf	0.06609296
59	0x3eb68573	0.3564869
60	0xbe70e57a	-0.23525038
61	0x3d3b179e	0.04567682
62	0x3de58bcd	0.112083055
63	0x3d5317a9	0.051536236
64	0xbdc0eef7	-0.09420579
65	0xbe048dd8	-0.12944734
66	0x3e54a251	0.20765044
67	0x3d9cb583	0.07651808
68	0x3dcb2553	0.099192284
69	0x3ccde2ee	0.025132623
70	0xbe44e925	-0.19229563
71	0x3e19b99f	0.15012215
72	0xbe2f0831	-0.17092969
73	0xbe3ac310	-0.18238473
74	0xbe2b3edc	-0.16723198
75	0xbe8d00ea	-0.2753976
76	0xbe8f7d84	-0.28025448
77	0x3bd335b0	0.006445609
78	0xbea2e216	-0.31813115
79	0x3e7c333d	0.24628921
80	0xbe85c807	-0.2612917
81	0x3deb2c58	0.11483067
82	0x3e08f347	0.13374053
83	0xbdc2dc53	-0.0951468
84	0x3e27d3c1	0.16389371
85	0x3eab4fc4	0.33459294
86	0xbea09722	-0.31365305
87	0xbc4164b3	-0.011803794
88	0x3e7fcacf	0.24979709
89	0x3ebcb1a0	0.36854267
90	0x3e1c12f0	0.15241599
91	0x3ea2e77c	0.31817234
92	0xbe42bf54	-0.19018298
93	0x3ea6e168	0.32593846
94	0x3dbac93c	0.09120414
95	0xbe12f3cd	-0.14350815
96	0x3e555c20	0.20835924
97	0x3e8e5f75	0.27807203
98	0xbea1ab19	-0.3157585
99	0x3e5aac32	0.2135475
100	0x3dca8770	0.09889114
101	0x3e947133	0.28992614
102	0xbe8bc35e	-0.2729749
103	0x3e373105	0.17889793
104	0x3eb5a588	0.35477853
105	0xbdb7f8f7	-0.08983033
106	0x3e3ddae1	0.18540527
107	0xbe99e5a6	-0.3005802
108	0x3db9b143	0.09067013
109	0xbe2b7bf9	-0.1674651
110	0xbeb1c906	-0.3472368
111	0x3e580708	0.21096432
112	0x3e32267d	0.17397495
113	0x3e2d654c	0.16933173
114	0x3e8da271	0.27662995
115	0xbd5dde0f	-0.05416685
116	0xbe82ca52	-0.25544983
117	0x3e52cf26	0.20586833
118	0x3e93c6e0	0.28862667
119	0xbe8a4c65	-0.2701141
120	0xbe9f4a4f	-0.3111138
121	0xbe7eeea4	-0.24895722
122	0xbe20ca1d	-0.157021
123	0x3e513cf9	0.20433415
124	0xbe9e85a5	-0.30961338
125	0x3de5beec	0.11218056
126	0x3d3246b8	0.043524474
127	0xbe5bd2e1	-0.21467163

encoder.convs.0.edge_mlp.2.weight f4 [128, 128]
0	0xbe7ecf20	-0.248837
1	0x3d647538	0.05577585
2	0xbd41f302	-0.04735089
3	0xbdb96e63	-0.09054258
4	0x3d4afe75	0.049559075
5	0xbdc30615	-0.095226444
6	0xbdbd79ae	-0.09251724
7	0xbcd70c48	-0.026250973
8	0xbcc16747	-0.023608817
9	0xbda891a6	-0.08230905
10	0xbd2501a3	-0.040284764
11	0x3d328f3e	0.043593638
12	0xbdb5fe14	-0.08886352
13	0x3da97183	0.08273604
14	0x3e0e7710	0.13912606
15	0x3e01069a	0.12600175
16	0xbcb918ed	-0.022594893
17	0xbdc92f67	-0.098234944
18	0xbd7a7f14	-0.061156347
19	0x3ca54849	0.02017607
20	0x3d906a0c	0.07051477
21	0xbcb84ea6	-0.02249844
22	0xbd7d3324	-0.06181635
23	0xbd53ab7a	-0.051677205
24	0x3d4fa309	0.05069259
25	0x3e0c0170	0.13672423
26	0xbd9d5326	-0.07681875
27	0x3c68d62a	0.014211217
28	0xbd7c2f0b	-0.0615683
29	0x3c9141ef	0.017731635
30	0x3e27e97a	0.16397658
31	0xbd2793b3	-0.04091234
32	0x3c54db05	0.012991671
33	0x3c875b8a	0.016523141
34	0x3d783850	0.06060058
35	0xbd61f733	-0.05516739
36	0xbd3c5fd0	-0.04598981
37	0x3cf9570f	0.03043702
38	0x3d59a8bc	0.053139433
39	0x3dd750ae	0.10513435
40	0xbba237da	-0.0049505057
41	0x3b5580d3	0.0032578006
42	0x3d1f032f	0.038821395
43	0xbb3bb34c	-0.0028640805
44	0xbda3dac1	-0.08000708
45	0xbd0c1ce8	-0.034207255
46	0xbda59af1	-0.08086193
47	0x3cc26591	0.023730071
48	0x3c326acb	0.010889719
49	0x3d1631d3	0.03666861
50	0xbd5ba6d4	-0.053625897
51	0x3d221e7b	0.03957985
52	0x3c539328	0.012913503
53	0xbd942bc6	-0.072349116
54	0xbc8efcdf	-0.017454563
55	0xbd1de3fe	-0.03854751
56	0xbd3408fa	-0.043953873
57	0x3d7ba7fc	0.0614395
58	0x3d341880	0.043968678
59	0xbbc62089	-0.006046359
60	0x3d7faf47	0.062423017
61	0x3c5aa78c	0.01334561
62	0x3cc96d83	0.024588352
63	0xbd6349fb	-0.055490475
64	0xbdc37ff1	-0.09545887
65	0x3e1f0c8c	0.1553213
66	0x3d753247	0.0598624
67	0x3c1032c9	0.008801171
68	0x3c658b53	0.014010268
69	0xbcd674b4	-0.026178695
70	0x3e083b0c	0.13303775
71	0xbdad7708	-0.08469969
72	0x3bc2cbd3	0.005944708
73	0xbdde6b49	-0.10860307
74	0xbd06b2c2	-0.03288532
75	0x3d8696ef	0.06571757
76	0xbd87900a	-0.0661927
77	0xbdc64b2f	-0.09682309
78	0x3cbca208	0.023026481
79	0x3d0d627e	0.034517758
80	0x3d6a2b0d	0.057169963
81	0x3d962009	0.07330329
82	0x3d8fe23b	0.07025572
83	0x3e13b9a4	0.14426285
84	0x3df0295e	0.1172664
85	0xbd0078d6	-0.031365238
86	0xbd3c0722	-0.04590524
87	0x3da508ed	0.08058343
88	0xbb7913c3	-0.0038006164
89	0xbde69fb2	-0.11260928
90	0x3b454255	0.0030099351
91	0xbdabcc4c	-0.08388576
92	0x3db391c1	0.08768035
93	0x3de0a605	0.10969166
94	0x3e4c22ea	0.19935194
95	0x3da312c9	0.07962567
96	0x3d45ac5b	0.048260074
97	0x3bbe0114	0.0057984684
98	0xbcb52b96	-0.02211551
99	0xbd8ddc0b	-0.069267355
100	0x3df4348c	0.11924085
101	0xbdcd52f0	-0.10025585
102	0x3d8a2ef8	0.0674724
103	0xbce2c281	-0.027680637
104	0x3c59f6be	0.013303457
105	0xbd0118d2	-0.03151781
106	0x3d92ee59	0.071743675
107	0xbd628f55	-0.055312473
108	0xbcf300d1	-0.029663475
109	0x3e6a1136	0.22858128
110	0x3d61fbb3	0.05517168
111	0x3d157aa2	0.036493905
112	0xbd501da0	-0.050809503
113	0x3da8e76c	0.08247265
114	0xbca867f8	-0.020557389
115	0x3d94af8d	0.07260046
116	0xbd3e4f96	-0.046462618
117	0x3d105105	0.035233516
118	0x3cb0c436	0.021577936
119	0xbdaa9c1f	-0.08330559
120	0x3d29466b	0.04132692
121	0xbd872ad5	-0.065999664
122	0x3d97746c	0.073952526
123	0x3dc038ce	0.09385835
124	0x3be6de7a	0.0070455642
125	0xbd11c1cf	-0.03558522
126	0x3d745a51	0.059656445
127	0xbcbd3218	-0.023095176
128	0x3c37e4b3	0.01122396
129	0xbd345780	-0.04402876
130	0x3d3fc79e	0.04682123
131	0xbc86ad55	-0.016440073
132	0x3d9c7bd5	0.076408066
133	0x3d79d33c	0.060992464
134	0x3d5c55fe	0.053792946
135	0x3c25ef09	0.010127791
136	0xbce2274d	-0.02760663
137	0xbd8e8069	-0.06958086
138	0x3dc0442c	0.09388003
139	0xbda7147e	-0.081582054
140	0x3d3a3733	0.0454628
141	0xbd3d8638	-0.04627058
142	0xbe021d30	-0.12706447
143	0x3ca9879f	0.020694552
144	0xbc07a5d3	-0.008279282
145	0xbd57b422	-0.052662022
146	0xbd6cd550	-0.05782062
147	0x3dbfc20e	0.09363185
148	0xbce7f236	-0.028313737
149	0x3d28a9f2	0.041177697
150	0xbd7999b4	-0.0609376
151	0xbd245d3f	-0.04012799
152	0x3d860ca4	0.0654538
153	0x3d05c790	0.03266102
154	0xba0cc3cb	-0.00053697516
155	0xbd887099	-0.06662101
156	0x3d93d035	0.07217447
157	0xbdffb48b	-0.12485608
158	0xbd727aec	-0.05919926
159	0x3d740823	0.059578072
160	0x3cf2c0c7	0.029632939
161	0x3bf846c5	0.0075767958
162	0x3d1ff364	0.039050475
163	0x3d1720d2	0.036896534
164	0x3dd9d333	0.10635986
165	0x3da38e44	0.079861194
166	0x3d20ae00	0.03922844
167	0x3d593419	0.0530282
168	0xbd93ec6e	-0.0722283
169	0xbdc1b537	-0.09458392
170	0xbd5f8be3	-0.054576766
171	0xbd8eed3c	-0.069788426
172	0x3cb6c3f1	0.022310229
173	0xbbe9e0bb	-0.0071373857
174	0xba8848b6	-0.0010397646
175	0x386e47a4	5.6810342e-05
176	0xbc778509	-0.015107402
177	0xbc7c3a35	-0.015394737
178	0x3d94b55f	0.07261156
179	0xbd135789	-0.035972152
180	0x3cec8894	0.02887372
181	0x3d153b83	0.036433708
182	0x3d901bf6	0.07036583
183	0xbd552dfb	-0.052045804
184	0xbc8339b9	-0.016018735
185	0xbd9fee4b	-0.07809123
186	0x3b0f8ade	0.002190284
187	0xbd09dce9	-0.033657942
188	0xbc832101	-0.016006948
189	0x3d5707c1	0.05249763
190	0x3cc920a2	0.024551693
191	0x3cd52ee6	0.02602334
192	0x3d17f8a8	0.03710237
193	0xbdea3872	-0.11436547
194	0xbdb2651c	-0.08710691
195	0xbd8eb9f6	-0.06969063
196	0xb8ddfeeb	-0.000105855834
197	0x3d0fc548	0.03510025
198	0xbcfd36f8	-0.03091
199	0x3dd17b19	0.10228557
200	0x3dd5e358	0.10443753
201	0x3d926e6e	0.07149969
202	0x3d86b91a	0.06578274
203	0xbd93b3cf	-0.0721203
204	0x3cec53b9	0.028848516
205	0x3b3a42cf	0.0028421169
206	0xbe36cd52	-0.17851761
207	0x3cf0985e	0.02936953
208	0x3dbde763	0.09272649
209	0xbd7df171	-0.061997835
210	0x3d96bab0	0.073598266
211	0xbd86c6c4	-0.0658088
212	0xbe14b171	-0.14520814
213	0x3d687686	0.056753658
214	0xbda8da5c	-0.08244774
215	0x3c80c71f	0.015719948
216	0x3d242a32	0.040079303
217	0x3d6f2c42	0.058391817
218	0xbd69b7e7	-0.05706015
219	0xbdc31095	-0.09524647
220	0x3dd39f81	0.10333157
221	0xbcea4432	-0.028596971
222	0x3d50673b	0.0508797
223	0x3d3a54dc	0.045491084
224	0xbd8e0f5f	-0.069365256
225	0xbda47b8b	-0.080313765
226	0x3d9324bf	0.07184743
227	0xbda63a2f	-0.081165664
228	0xbd917d9c	-0.07104036
229	0x3dadebb8	0.084922254
230	0x3b91f54e	0.0044542914
231	0x3ca46c71	0.02007124
232	0xbd8d4c94	-0.06899372
233	0xbe151380	-0.1455822
234	0xbd677ab4	-0.056513503
235	0x3d696c27	0.056987908
236	0xba5db681	-0.0008457676
237	0xbc30010b	-0.010742436
238	0x3d2b5c5f	0.04183614
239	0xbc5e68c4	-0.013574783
240	0xbbc7748e	-0.0060868924
241	0xbd7b155a	-0.06129966
242	0x3c7a2353	0.015267211
243	0x3cb2a62e	0.021807756
244	0x3c308cd7	0.010775766
245	0x3d94b5dd	0.0726125
246	0x3d9d1340	0.07669687
247	0x3d55740f	0.052112635
248	0xbdb3585b	-0.08757087
249	0xbd0c8692	-0.034308024
250	0x3d5f69a9	0.054544125
251	0x3d89c4fc	0.06727025
252	0xbca5d007	-0.020240797
253	0xbd12e5a5	-0.035863537
254	0x3c80545c	0.015665226
255	0xbc0a4327	-0.008438862

encoder.convs.0.edge_mlp.2.bias f4 [128]
0	0x3c86fec7	0.01647891
1	0xbd884ae4	-0.06654909
2	0x3b5d2d29	0.0033748841
3	0x3d12c52a	0.03583256
4	0xbcb12e98	-0.021628663
5	0x3b5026a4	0.0031761313
6	0xbcc0cdd7	-0.023535652
7	0xbd99af08	-0.07504088
8	0xbd8a91c3	-0.06766083
9	0x3b4b7237	0.003104342
10	0xbd9615f7	-0.07328408
11	0x3d94472c	0.072401375
12	0x3d1d82fc	0.038454995
13	0x3da43e45	0.080196895
14	0xbc1f243e	-0.009713231
15	0x3d685273	0.056719255
16	0xbd867041	-0.065643795
17	0x3d12d53f	0.0358479
18	0x3d3684cd	0.044560242
19	0x3c8fc42c	0.017549597
20	0xbd2a033a	-0.041506983
21	0xbd02131b	-0.0317565
22	0xbd110b55	-0.035411198
23	0x3d89f443	0.06736042
24	0x3c508870	0.012727842
25	0xbd23c32c	-0.039981052
26	0xbcae7ded	-0.02130028
27	0xbab57824	-0.0013845009
28	0x3c273ecf	0.010207846
29	0x3d95cb93	0.07314219
30	0x3d1e4a09	0.038644824
31	0x3d97f603	0.0741997
32	0xbd11f9e3	-0.0356387
33	0x3c85f7eb	0.016353568
34	0x3d64e69e	0.055883996
35	0x3d82063c	0.06348845
36	0x3ce3e5ed	0.027819598
37	0x3d87aa6c	0.06624302
38	0xbd6357a7	-0.055503514
39	0xbda9519e	-0.0826752
40	0x3c9772c5	0.018487344
41	0x3d2d61b9	0.042329524
42	0x3d418173	0.047242593
43	0xbd6a217e	-0.057160847
44	0x3d99e300	0.07514
45	0xbd6090ca	-0.05482558
46	0x3d48d48a	0.049030818
47	0xbd043861	-0.03228033
48	0x3db7f7a4	0.089827806
49	0x3d1e55a8	0.038655907
50	0x3d45d28a	0.04829649
51	0xbb6f5cf9	-0.0036523922
52	0xbdc192f3	-0.094518565
53	0xbd7c985e	-0.061668746
54	0xbd8b149a	-0.06791039
55	0xbcd3d8a1	-0.025860133
56	0xbd1ddf7a	-0.038543202
57	0x3cac9913	0.021069085
58	0xbd7668f3	-0.06015868
59	0xbd9a5531	-0.0753578
60	0x3b0a242b	0.0021078687
61	0xbc1064f0	-0.008813128
62	0xbc08d8a7	-0.008352435
63	0xbdb0cb77	-0.08632558
64	0xbd94b4e5	-0.072610654
65	0xbda00e70	-0.07815254
66	0xbd326b2c	-0.04355924
67	0xbc8a2625	-0.016863892
68	0xbd80e7df	-0.06294226
69	0xbd82f339	-0.06394047
70	0xbcc9c49d	-0.024629885
71	0x3d873385	0.066016234
72	0x3d49f318	0.049304098
73	0xbc8c1465	-0.017099569
74	0xbd408c9c	-0.047009096
75	0x3c854005	0.016265878
76	0xbda0efa3	-0.07858207
77	0xbd9128cf	-0.07087862
78	0x3c204d01	0.009783984
79	0x3cd50742	0.026004437
80	0xbd59e36f	-0.053195413
81	0x3b941d8c	0.004520124
82	0x3bbdb203	0.005789043
83	0xbcd35f86	-0.025802385
84	0x3d04b601	0.032400135
85	0x3d09ba02	0.033624656
86	0xbd5bce19	-0.053663347
87	0xbc1ffcec	-0.009764891
88	0xbd88e977	-0.06685155
89	0xbd61d427	-0.055133965
90	0xbd9dd623	-0.07706859
91	0xbd773c39	-0.060360167
92	0xbd357b5c	-0.044307098
93	0xbab90ba3	-0.0014117848
94	0xbc09d323	-0.008412155
95	0xbbc3ff2f	-0.005981348
96	0x3d981c13	0.0742723
97	0x3ccd1404	0.025033958
98	0x3ac0a9cb	0.001469904
99	0x3d1d5bc0	0.038417578
100	0xbd582cd8	-0.05277714
101	0x3b372670	0.0027946495
102	0x3d13b336	0.03605958
103	0x3d65385f	0.055961963
104	0x3d96cd02	0.07363321
105	0xbd93a2e7	-0.072088055
106	0x3cca63f3	0.024705863
107	0x3db2dbd7	0.087333374
108	0x3cc2ad45	0.023764262
109	0xbd8ad1ba	-0.067782834
110	0x3d88bad7	0.06676262
111	0xbd9c18ee	-0.076219425
112	0xbd81d251	-0.06338943
113	0xbd6665f2	-0.056249566
114	0x3d9f0eba	0.07766481
115	0x3d958290	0.073002934
116	0xbcf1100b	-0.029426595
117	0x3d07ebab	0.033183735
118	0x3c831aa4	0.016003914
119	0xbdcfb6c6	-0.10142283
120	0xbd3e3138	-0.046433657
121	0xbd023e96	-0.031797968
122	0xbb34e97d	-0.002760499
123	0xbcc8840c	-0.024477027
124	0x3d622e25	0.055219788
125	0xbd2b72ab	-0.041857403
126	0xbcf72d5f	-0.030173002
127	0x3ac14c43	0.0014747459

encoder.convs.0.norm.weight f4 [128]
0	0x3f7a3c23	0.9774801
1	0x3f70ef0b	0.9411475
2	0x3f754427	0.9580712
3	0x3f75b4c1	0.95978934
4	0x3f787884	0.9705889
5	0x3f758082	0.9589921
6	0x3f702ce2	0.93818486
7	0x3f760149	0.9609571
8	0x3f7a0e9b	0.97678536
9	0x3f754a51	0.9581652
10	0x3f7a5f0f	0.978013
11	0x3f74c9ce	0.9562043
12	0x3f6f8ad4	0.9357121
13	0x3f6eb2e7	0.93241733
14	0x3f730765	0.9493316
15	0x3f739fd8	0.9516578
16	0x3f6eb957	0.93251556
17	0x3f7391b2	0.9514419
18	0x3f7051fc	0.938751
19	0x3f71681c	0.94299483
20	0x3f76ba92	0.96378434
21	0x3f755b2a	0.9584223
22	0x3f781613	0.9690868
23	0x3f724c7f	0.94647974
24	0x3f7162ef	0.94291586
25	0x3f7753cd	0.96612245
26	0x3f7096d9	0.93980175
27	0x3f791053	0.97290534
28	0x3f748c91	0.9552699
29	0x3f74472b	0.95421094
30	0x3f72fa6e	0.94913375
31	0x3f7be436	0.983951
32	0x3f767193	0.9626705
33	0x3f7502b0	0.95707226
34	0x3f75fea8	0.960917
35	0x3f71caaf	0.94449896
36	0x3f794caf	0.97382635
37	0x3f75d38f	0.9602594
38	0x3f747e07	0.955048
39	0x3f7442dc	0.9541452
40	0x3f7626ef	0.9615316
41	0x3f79f39c	0.97637343
42	0x3f7121fc	0.9419248
43	0x3f718151	0.94337946
44	0x3f742e22	0.95382893
45	0x3f73ae24	0.9518759
46	0x3f754b73	0.9581825
47	0x3f733fd4	0.9501927
48	0x3f700be2	0.9376813
49	0x3f722e64	0.94602036
50	0x3f72e204	0.9487612
51	0x3f757c77	0.95893043
52	0x3f74e26e	0.95658004
53	0x3f75bd89	0.9599233
54	0x3f848ee5	1.0356108
55	0x3f7455b2	0.9544326
56	0x3f752518	0.95759726
57	0x3f77ed57	0.96846527
58	0x3f75095d	0.9571741
59	0x3f75a279	0.9595104
60	0x3f768822	0.9630147
61	0x3f79db0d	0.9759987
62	0x3f72db14	0.94865537
63	0x3f761682	0.96128094
64	0x3f78008c	0.96875834
65	0x3f777019	0.9665542
66	0x3f750486	0.9571003
67	0x3f75d69b	0.96030587
68	0x3f6c9e0e	0.9242867
69	0x3f711461	0.9417172
70	0x3f6e3254	0.93045545
71	0x3f7b6590	0.9820185
72	0x3f75cc00	0.96014404
73	0x3f73c360	0.95219994
74	0x3f713c9d	0.94233114
75	0x3f7690d7	0.9631476
76	0x3f752c35	0.9577058
77	0x3f78bdc7	0.9716458
78	0x3f74a3f7	0.9556269
79	0x3f73d39d	0.9524477
80	0x3f7800d1	0.96876246
81	0x3f754328	0.958056
82	0x3f6ff7da	0.93737566
83	0x3f719681	0.94370276
84	0x3f73cb00	0.9523163
85	0x3f73d82d	0.95251733
86	0x3f7530a5	0.9577735
87	0x3f71b9da	0.9442421
88	0x3f729773	0.94762343
89	0x3f8165cc	1.0109191
90	0x3f747a6b	0.95499295
91	0x3f72492f	0.9464292
92	0x3f73ac2e	0.951846
93	0x3f760d05	0.96113616
94	0x3f6ec892	0.93274796
95	0x3f768ef7	0.963119
96	0x3f72d880	0.948616
97	0x3f704b3e	0.9386481
98	0x3f7310db	0.94947594
99	0x3f74bcd8	0.9560065
100	0x3f727065	0.9470275
101	0x3f72da82	0.94864666
102	0x3f727de8	0.9472337
103	0x3f733633	0.95004576
104	0x3f782df5	0.96945125
105	0x3f74bdaa	0.95601904
106	0x3f76abb4	0.9635575
107	0x3f79c7e5	0.9757064
108	0x3f7243e2	0.9463483
109	0x3f77bc0f	0.9677133
110	0x3f71fb17	0.9452376
111	0x3f789a68	0.97110605
112	0x3f7614bf	0.96125406
113	0x3f7996d1	0.9749575
114	0x3f6cd8bf	0.9251823
115	0x3f752f59	0.9577537
116	0x3f720cc2	0.94550717
117	0x3f717e0e	0.9433297
118	0x3f6f76b6	0.93540514
119	0x3f7319a1	0.9496098
120	0x3f72cbd0	0.94842243
121	0x3f7177d3	0.9432346
122	0x3f73a991	0.9518061
123	0x3f77087e	0.96497333
124	0x3f7244e8	0.9463639
125	0x3f7465c7	0.954678
126	0x3f73811d	0.95118886
127	0x3f706ed1	0.9391909

encoder.convs.0.norm.bias f4 [128]
0	0x3aaa6e46	0.0013002835
1	0xbcfae077	-0.030624611
2	0xbc657a9c	-0.014006283
3	0xbcd5ea21	-0.026112618
4	0xbc5d8246	-0.013519829
5	0x3d25a9ae	0.040445022
6	0xbad3af56	-0.0016150277
7	0x3978eb4c	0.00023738778
8	0xbce288e3	-0.027653163
9	0x3cb2779a	0.021785546
10	0x3c41904b	0.011814187
11	0xbe378a1f	-0.17923783
12	0x3ba32318	0.0049785487
13	0x3d037b2e	0.032099895
14	0xbcb69a6b	-0.02229043
15	0xbc8a39db	-0.01687329
16	0x3d10a233	0.035310935
17	0xba925928	-0.0011165487
18	0x3d0bb455	0.034107525
19	0xbc5a6da5	-0.013331805
20	0xbe0e1963	-0.13876872
21	0x3cbe8589	0.023257034
22	0x3d18ad66	0.03727474
23	0xbdba4829	-0.09095795
24	0xbce51055	-0.02796189
25	0x3dc80b85	0.09767822
26	0x3d65cef3	0.056105565
27	0x3d42eba7	0.047588017
28	0x3ce26ad2	0.027638827
29	0xbb9c06c5	-0.004761549
30	0xbcbaba1b	-0.02279382
31	0x3c1565c6	0.009118503
32	0x3d261338	0.040545672
33	0xbc6e17fb	-0.014532085
34	0xbc1b6403	-0.009484294
35	0x3cfac008	0.030609146
36	0xbc8b2c8d	-0.016989017
37	0x3c61dec6	0.0137860235
38	0xbcb508f0	-0.022098988
39	0x3c70b31f	0.014691143
40	0xbd349ed1	-0.04409677
41	0xbc9f2589	-0.019427078
42	0xbcd34fa7	-0.025794817
43	0x3d031755	0.032004673
44	0xbc603739	-0.013685041
45	0x3d2f549f	0.04280531
46	0x3bf87378	0.0075821243
47	0x3d91a231	0.07111014
48	0x3cfec194	0.031098165
49	0x3d3dd807	0.046348598
50	0x3d0b7abb	0.03405259
51	0xbe0c0463	-0.13673548
52	0x3b63092f	0.0034642925
53	0x3c9f90d8	0.019478247
54	0x3ca84e30	0.020545095
55	0x3c30f059	0.010799491
56	0xbc61cc4e	-0.01378162
57	0x3d3d28e1	0.046181563
58	0xbc02f76b	-0.007993559
59	0xb9c7ebcf	-0.0003813193
60	0xbcc2932c	-0.023751818
61	0x3c4fc314	0.012680788
62	0xbd8faaa8	-0.07014972
63	0xbc8271aa	-0.01592334
64	0xbc78c36f	-0.015183314
65	0xbcc4f378	-0.024041876
66	0x3d7865ef	0.060644086
67	0x3c3b77d7	0.011442146
68	0xbd14d062	-0.03633154
69	0xbca27cc7	-0.01983489
70	0xbca011ad	-0.019539678
71	0xbba70788	-0.0050973333
72	0x3bd19d2e	0.006396911
73	0x3c3b8406	0.011445051
74	0xbc6f50b6	-0.014606645
75	0x3a94f62d	0.001136487
76	0xbcd6ea3e	-0.026234742
77	0x3d36129a	0.044451334
78	0xbc6347db	-0.013872112
79	0xbd3acc60	-0.045605063
80	0x3e064b1f	0.13114594
81	0x3d0912ef	0.033465322
82	0xbd02f9dd	-0.03197657
83	0x3c223c86	0.009902125
84	0x3cbb2366	0.022844028
85	0xbcbbf192	-0.022942338
86	0xbbb47f21	-0.005508319
87	0xbd951f06	-0.07281308
88	0xbd193262	-0.037401564
89	0x3b738ce6	0.003716284
90	0xbc54f56c	-0.012997966
91	0xbd5557e2	-0.052085765
92	0xbca2ee94	-0.019889154
93	0x3c589948	0.013220139
94	0x3c2ff3e3	0.0107392995
95	0x3db8fd21	0.090326555
96	0xbc1de6e5	-0.009637569
97	0xbc09c116	-0.008407852
98	0x3bf53b3a	0.007483867
99	0xbd239139	-0.039933417
100	0xbbdfce15	-0.006829987
101	0x3d192b50	0.03739482
102	0xbcb80afd	-0.022466177
103	0x3d71c5a1	0.059026364
104	0x3c6f5ace	0.014609052
105	0x3cf0b52e	0.029383268
106	0x3c32bf3a	0.01090985
107	0x3c3301b6	0.010925701
108	0xbc4dfbce	-0.012572242
109	0xbb423007	-0.0029630677
110	0xbc992613	-0.018694913
111	0xbd2d4369	-0.042300615
112	0x3cfea9a5	0.031086752
113	0x3c8bc6f3	0.01706264
114	0xbc781d55	-0.015143712
115	0x3c93a11a	0.018021155
116	0xbc32b08a	-0.010906348
117	0x3d5f2251	0.054476086
118	0x3d16f03c	0.0368502
119	0xbc220ef5	-0.009891261
120	0xbd1c23b8	-0.03812
121	0xbc0c3248	-0.00855691
122	0x3c1ba08c	0.009498727
123	0x3d2e8ec6	0.042616628
124	0xbb8212d6	-0.0039695306
125	0xbc7cdc06	-0.015433317
126	0x3cd2b807	0.025722517
127	0xbd8f6490	-0.07001603

encoder.convs.0.norm.mean_scale f4 [128]
0	0x3f63652b	0.88826245
1	0x3f7e7bd3	0.9940769
2	0x3f74d052	0.9563037
3	0x3f62fab9	0.8866382
4	0x3f76e5bb	0.9644429
5	0x3f858b4b	1.0433134
6	0x3f76a94d	0.9635208
7	0x3f797156	0.9743856
8	0x3f6f4e31	0.93478686
9	0x3f7d72f1	0.9900351
10	0x3f6fe6f8	0.93711805
11	0x3f8f7278	1.1206808
12	0x3f782127	0.96925586
13	0x3f8386b7	1.0275487
14	0x3f803ff4	1.0019517
15	0x3f70688c	0.93909526
16	0x3f840f82	1.0317233
17	0x3f71e4b0	0.94489574
18	0x3f81b39a	1.0132935
19	0x3f7733ad	0.96563226
20	0x3f8c636f	1.0967845
21	0x3f6d0800	0.9259033
22	0x3f677ea8	0.9042764
23	0x3f65b988	0.89736223
24	0x3f777426	0.96661603
25	0x3f61394a	0.8797804
26	0x3f7165d6	0.94296014
27	0x3f6e9936	0.9320253
28	0x3f82989c	1.0202823
29	0x3f738bb3	0.9513504
30	0x3f830955	1.0237223
31	0x3f6f9b00	0.93595886
32	0x3f701bb1	0.93792254
33	0x3f7ba11f	0.98292726
34	0x3f7c3b88	0.9852834
35	0x3f870772	1.0549147
36	0x3f7df8b8	0.9920764
37	0x3f703140	0.9382515
38	0x3f731ac4	0.94962716
39	0x3f6a744d	0.9158371
40	0x3f833d80	1.0253143
41	0x3f6b2bc8	0.9186368
42	0x3f7e5296	0.99344766
43	0x3f729070	0.94751644
44	0x3f610fe4	0.8791487
45	0x3f76abd6	0.9635595
46	0x3f71882f	0.94348425
47	0x3f698026	0.91211164
48	0x3f80e2dc	1.0069232
49	0x3f83ed53	1.0306801
50	0x3f82c459	1.021617
51	0x3f8d4849	1.1037685
52	0x3f77d4cb	0.9680907
53	0x3f75d401	0.9602662
54	0x3f4cab06	0.7994846
55	0x3f7b45a6	0.9815315
56	0x3f8070bf	1.0034407
57	0x3f7eeedc	0.9958322
58	0x3f75d1fb	0.9602353
59	0x3f7676dc	0.96275115
60	0x3f7cb37f	0.9871139
61	0x3f64bced	0.8935078
62	0x3f85ff70	1.0468578
63	0x3f7a2042	0.9770547
64	0x3f6b3712	0.91880906
65	0x3f7347ba	0.9503132
66	0x3f654bb5	0.89568645
67	0x3f7f1197	0.99636215
68	0x3f7b78ba	0.9823109
69	0x3f7b5208	0.98172045
70	0x3f7c226d	0.9849003
71	0x3f5e3707	0.86802715
72	0x3f729d4f	0.94771284
73	0x3f74aab6	0.95572984
74	0x3f795caa	0.9740702
75	0x3f763f73	0.96190566
76	0x3f7e52c5	0.99345046
77	0x3f79b2b6	0.97538316
78	0x3f681d64	0.90669847
79	0x3f7a944e	0.97882545
80	0x3f800af9	1.0003349
81	0x3f7ccc21	0.98748976
82	0x3f73d2a3	0.9524328
83	0x3f71acec	0.9440448
84	0x3f79d4ef	0.97590536
85	0x3f813d0b	1.0096754
86	0x3f6ffd86	0.9374622
87	0x3f7b7abe	0.98234165
88	0x3f7eb34b	0.9949233
89	0x3f58ccb8	0.84687376
90	0x3f700c66	0.9376892
91	0x3f7a0eae	0.9767865
92	0x3f7c17c4	0.98473763
93	0x3f754250	0.9580431
94	0x3f6ebe01	0.9325867
95	0x3f83b683	1.0290073
96	0x3f5ff143	0.8747751
97	0x3f716381	0.94292456
98	0x3f7c10ee	0.9846333
99	0x3f814b98	1.0101194
100	0x3f773007	0.9655766
101	0x3f77b4ae	0.9676007
102	0x3f693921	0.91102797
103	0x3f6ae0e8	0.9174943
104	0x3f79c99e	0.9757327
105	0x3f766b25	0.9625724
106	0x3f7c590c	0.98573375
107	0x3f6b5ee7	0.91941684
108	0x3f7822b1	0.96927935
109	0x3f667c87	0.90033764
110	0x3f775591	0.9661494
111	0x3f73561f	0.95053285
112	0x3f7f0baf	0.996272
113	0x3f77a1ef	0.96731466
114	0x3f78aba3	0.97136897
115	0x3f74691c	0.95472884
116	0x3f73b5c2	0.95199215
117	0x3f833909	1.0251781
118	0x3f859198	1.0435057
119	0x3f71538b	0.942681
120	0x3f83e478	1.0304098
121	0x3f7e2dba	0.99288523
122	0x3f7d1788	0.9886403
123	0x3f6e8e13	0.9318554
124	0x3f7ce38d	0.98784715
125	0x3f76aac4	0.9635432
126	0x3f6c7900	0.9237213
127	0x3f7dc633	0.99130553
