checkpoints/model_D_epoch_39.pth (torch, 552117 bytes, 26 tensors)

encoder.node_embedding.weight f4 [1, 128]
1.7926173 1.35754 0.8234706 -1.9676907 0.60173357 -1.129378 -0.0013101432 -1.499939
-0.6378922 1.5095122 -0.3305354 -1.2931694 -0.6696373 -0.48271465 -0.6767962 0.6738424
1.4933784 -0.11320478 -0.41490307 0.3616093 -0.68454194 0.9623637 0.70149136 1.5589993
1.1670678 1.1850758 0.5504955 1.2123125 -0.16984348 -0.00058620324 -0.19650324 0.78699106
-1.2676946 -0.77267456 -0.15711416 1.6158713 0.27669963 -0.34111965 0.2488019 -0.70276695
-1.4493325 0.8828923 -0.79576373 -0.52901274 -1.1647537 1.9901568 -1.108627 -0.38738
-0.83674717 -0.5743547 0.028494822 0.45823058 -0.41702166 1.077385 -0.714155 -0.6563261
-1.262207 1.4116411e-05 -0.0012759689 0.60645425 -0.040210634 1.6948369 -1.0848823 1.301435
1.3402524 0.78302354 2.0685244 0.45581216 0.26184797 -0.118956015 -0.94854945 1.1695276
-0.112511575 0.47565886 0.00030142552 0.3532962 0.4959341 -0.5666423 -2.0542703 -0.6557338
0.00029389127 -0.27003396 -1.227078 -0.50691926 0.47874507 0.4525657 1.0455065 0.011413822
0.661116 -0.4044821 -0.93927926 0.5088745 -1.5949206 -0.75224197 1.2351383 0.39450654
-2.3301425 0.4251338 0.7151303 0.00097499695 0.5711876 0.50982195 0.9742626 -0.3723857
-0.13700785 0.66382974 0.34654695 0.10910575 0.19582157 1.180959 -0.00076183456 -0.24735162
-1.3445526 -0.058457382 -0.5353861 0.4149877 0.6413189 0.04177082 -0.3019882 0.45468712
0.0007418743 0.18289062 0.06980512 0.70533556 1.0024874 0.26217154 0.6345086 0.35754755
00000000: 7c74 e53f dfc3 ad3f f8ce 523f 4add fbbf
00000010: 360b 1a3f 758f 90bf 1cb9 abba 00fe bfbf
00000020: e74c 23bf b237 c13f f03b a9be 9386 a5bf
00000030: 5a6d 2bbf 6026 f7be 8442 2dbf ef80 2c3f
00000040: 0627 bf3f e8d7 e7bd 2d6e d4be db24 b93e
00000050: 243e 2fbf 785d 763f f094 333f 4a8d c73f
00000060: 7a62 953f 90b0 973f 46ed 0c3f 0e2d 9b3f
00000070: 73eb 2dbe 6fab 19ba 2538 49be 3f78 493f
00000080: d143 a2bf 00ce 45bf 89e2 20be dfd4 ce3f
00000090: 93ab 8d3e 3ca7 aebe edc5 7e3e 89e8 33bf
000000a0: ba83 b9bf 3b05 623f 2cb7 4bbf 616d 07bf
000000b0: a616 95bf 75bd fe3f 7de7 8dbf ac56 c6be
000000c0: 1035 56bf e908 13bf f96d e93c 339d ea3e
000000d0: dd83 d5be c0e7 893f ddd2 36bf fd04 28bf
000000e0: 0090 a1bf 86d5 6c37 693e a7ba 9640 1b3f
000000f0: e8b3 24bd 6af0 d83f 6cdd 8abf 6c95 a63f
00000100: 648d ab3f 3b74 483f b462 0440 3660 e93e
00000110: f010 863e 369f f3bd 23d4 72bf 15b3 953f
00000120: 786c e6bd 8f89 f33e a608 9e39 3de3 b43e
00000130: 13eb fd3e 780f 11bf 2a79 03c0 2cde 27bf
00000140: 6b15 9a39 e441 8abe e410 9dbf 76c5 01bf
00000150: 131e f53e b1b6 e73e 28d3 853f 0a01 3b3c
00000160: e63e 293f 4718 cfbe 9b74 70bf 9945 023f
00000170: 5c26 ccbf ee92 40bf 0319 9e3f c3fc c93e
00000180: 0e21 15c0 23ab d93e c812 373f f096 7f3a
00000190: 5a39 123f b183 023f 4669 793f 57a9 bebe
000001a0: c94b 0cbe bff0 293f 9a6e b13e d672 df3d
000001b0: 7385 483e aa29 973f dab5 47ba be49 7dbe
000001c0: 4d1a acbf 0271 6fbd 100f 09bf 4579 d43e
000001d0: 7a2d 243f e117 2b3d 339e 9abe c0cc e83e
000001e0: 577a 423a ae47 3b3e fdf5 8e3d df90 343f
000001f0: 8251 803f 593b 863e 286f 223f 7910 b73e

encoder.convs.0.node_mlp.weight f4 [128, 256]
0.054950703 -0.006569072 0.056324642 0.013257441 -0.045008145 0.03583844 -0.021877559 -0.027966782
-0.05445105 -0.05376886 0.011689077 -0.018196117 0.017838977 -0.053847995 0.038895234 -0.038277987
-0.005044572 0.0072026406 0.025417719 0.05302275 0.048842013 -0.04182731 0.020123681 -0.020315794
-0.0012911137 -0.039184265 0.059374355 -0.038361102 0.026641436 0.026485797 0.014141969 -0.026856232
0.04872423 0.0078117866 0.0024017496 -0.04704768 0.030242426 -0.014101473 -0.02194108 0.04569319
0.007995823 -0.02757793 -0.03526514 -0.008056001 0.027901385 -0.009945539 -0.03903092 -0.025493048
-0.049580406 0.015946971 0.050726205 -0.050573394 0.00865696 0.035847068 0.0054900353 -0.026380977
0.025759835 0.038772605 0.020244543 -0.00515227 -0.020905646 0.011556883 -0.015731845 -0.012435985
0.043110777 0.056261204 -0.00067244086 -0.008035911 0.0060219485 -0.008375961 0.009027347 0.021849498
-0.05884299 -0.016604146 0.04860024 0.028354257 0.0023212733 -0.041029226 -0.041524585 -0.058365755
-0.013956997 0.014796185 0.03259362 0.022168558 -0.047123037 -0.030390257 -0.0041019307 0.061373487
0.013842607 -0.02056132 0.019323278 -0.017350199 -0.043596208 0.03804637 -0.021734497 -0.0066723228
-0.06415212 0.044968862 0.050183535 0.016801164 -0.0360997 -0.053259064 -0.042933635 0.03901018
0.023443203 0.055183746 0.03641631 0.019807808 0.004465338 -0.039904933 -0.057404466 -0.060676288
0.019050492 -0.034491193 -0.017188264 -0.028858813 -0.0055818832 -0.036644045 -0.043947894 0.02499961
-0.0254479 0.041686732 -0.013948873 -0.038257737 -0.005247034 -0.023447737 -0.012897065 -0.051236533
0.06653725 -0.0551851 0.011126614 0.07079961 -0.039648496 -0.009819521 0.03754748 0.003597504
-0.036662877 0.06687905 -0.017346883 -0.021296546 0.010471639 -0.029785722 0.10462012 -0.07643031
0.027933504 0.13326465 -0.059857532 -0.021542305 -0.053827308 0.0062893583 0.0011494232 -0.052296724
0.0333596 -0.0741713 -0.09755714 -0.01911894 -0.0034727312 -0.08174789 -0.11573723 -0.03442917
0.052035555 0.023187142 -0.06399734 -0.09946369 -0.02994275 -0.029591795 0.08774919 -0.044062883
-0.10865869 -0.057114907 0.05766996 0.014949476 -0.01936941 -0.040123396 -0.13964942 -0.039413363
-0.08805232 0.001457345 -0.07542832 -0.017423172 0.021630479 0.010838279 0.05675029 0.05904065
-0.13478073 0.061359018 0.11992163 -0.023567554 0.014715158 0.10766176 0.02151722 -0.054352153
0.09264035 -0.04518529 0.024332257 0.15925932 -0.04887785 -0.04502152 -0.09087299 -0.047665842
-0.012406415 -0.0011912446 0.14701849 -0.031826787 -0.0650939 -0.032653164 0.061356477 -0.1566249
0.036506392 0.009288287 0.034793306 0.026205765 0.0983598 -0.04820252 -0.01642216 0.09668329
-0.046354983 -0.0342391 0.0319489 -0.071566485 0.004370096 0.034289345 -0.0072942493 0.035026975
-0.034708895 0.039010227 -0.07687749 0.060822852 -0.052385684 -0.013587756 0.06366635 0.07009845
-0.07952018 0.01160083 -0.023622248 -0.04359221 -0.0017032782 0.00051344023 0.0023500568 -0.0741038
-0.0746667 0.04896213 0.0668049 0.051246174 -0.12172868 -0.0369731 0.010546276 -0.026381921
0.0045539793 0.034891535 0.04566542 -0.06925269 -0.046407916 -0.03251434 0.06209087 0.12855278
00000000: fd13 613d 5f41 d7bb abb4 663d bd35 593c
00000010: 765a 38bd 54cb 123d 9138 b3bc 981a e5bc
00000020: 1008 5fbd bc3c 5cbd 8b83 3f3c 0610 95bc
00000030: 0c23 923c b78f 5cbd 9c50 1f3d 61c9 1cbd
00000040: f04c a5bb 2104 ec3b d238 d03c 622e 593d
00000050: 900e 483d 1d53 2bbd 6bda a43c 4f6d a6bc
00000060: 963a a9ba ae7f 20bd 8632 733d 8820 1dbd
00000070: 243f da3c bef8 d83c b8b3 673c 9a01 dcbc
00000080: 0f93 473d 04fa ff3b ac66 1d3b 11b5 40bd
00000090: f7be f73c dd09 67bc c8bd b3bc c828 3b3d
000000a0: ea00 033c 1ceb e1bc 2e72 10bd 51fd 03bc
000000b0: 7291 e43c 9df2 22bc e3de 1fbd ccd6 d0bc
000000c0: d314 4bbd 39a3 823c 48c6 4f3d 0c26 4fbd
000000d0: ecd5 0d3c 60d4 123d c1e5 b33b eb1c d8bc
000000e0: 4a06 d33c 06d0 1e3d e2d7 a53c 60d4 a8bb
000000f0: 5142 abbc 1559 3d3c 12e0 80bc 4dc0 4bbc
00000100: ed94 303d 2672 663d be46 30ba 0ea9 03bc
00000110: c453 c53b 543b 09bc 70e7 133c b8fd b23c
00000120: 5905 71bd 6b05 88bc 0c11 473d 3047 e83c
00000130: 8120 183b 430e 28bd af15 2abd ee10 6fbd
00000140: e3ab 64bc b36b 723c e380 053d d69a b53c
00000150: 1604 41bd fdf4 f8bc 7d69 86bb c462 7b3d
00000160: 1acc 623c 3770 a8bc da4b 9e3c 0122 8ebc
00000170: f091 32bd 83d6 1b3d 8b0c b2bc 80a3 dabb
00000180: 3062 83bd 4531 383d 408d 4d3d 98a2 893c
00000190: 47dd 13bd 2d26 5abd 2edb 2fbd 23c9 1f3d
000001a0: f60b c03c 5a08 623d 4529 153d fc43 a23c
000001b0: f851 923b 5b73 23bd f220 6bbd b387 78bd
000001c0: c70f 9c3c a346 0dbd 67ce 8cbc 5169 ecbc
000001d0: 3be8 b6bb 1118 16bd b502 34bd fbcb cc3c
000001e0: 1d78 d0bc b5bf 2a3d d089 64bc 25b4 1cbd
000001f0: 50ef abbb 7815 c0bc 364e 53bc 66dd 51bd
00000200: af44 883d c509 62bd 674c 363c 63ff 903d
00000210: 7666 22bd 0ee2 20bc 63cb 193d 1ac4 6b3b
00000220: d02b 16bd e2f7 883d 0d1b 8ebc 1876 aebc
00000230: 3d91 2b3c 3001 f4bc 1343 d63d 7f87 9cbd
00000240: ced4 e43c 8776 083e 2c2d 75bd 7d79 b0bc
00000250: 067a 5cbd f616 ce3b 3ea8 963a 1735 56bd
00000260: 13a4 083d 1fe7 97bd 0acc c7bd 539f 9cbc
00000270: c396 63bb 706b a7bd a407 edbd 9a05 0dbd
00000280: 3c23 553d f6f2 bd3c 0a11 83bd 9eb3 cbbd
00000290: 804a f5bc 7e6a f2bc d9b5 b33d 487b 34bd
000002a0: 7288 debd 52f1 69bd 5637 6c3d a6ee 743c
000002b0: 99ac 9ebc 6e58 24bd 4200 0fbe e86f 21bd
000002c0: c654 b4bd 6204 bf3a 2a7a 9abd 0abb 8ebc
000002d0: 6732 b13c 0993 313c fe72 683d 9cd4 713d
000002e0: f603 0abe 9853 7b3d 7999 f53d be10 c1bc
000002f0: d917 713c c57d dc3d e244 b03c 5da0 5ebd
00000300: 39ba bd3d 3614 39bd 7154 c73c e014 233e
00000310: 2434 48bd 7c68 38bd 9e1b babd 423d 43bd
00000320: 4744 4bbc 8923 9cba 048c 163e ce5c 02bd
00000330: f34f 85bd 53bf 05bd ee50 7b3d 4762 20be
00000340: ba87 153d e62d 183c 6d83 0e3d 79ad d63c
00000350: dd70 c93d 0170 45bd c487 86bc e401 c63d
00000360: b9de 3dbd 4c3e 0cbd dadc 023d 7391 92bd
00000370: 0633 8f3b fc72 0c3d 9904 efbb 7278 0f3d
00000380: ea2a 0ebd 30c9 1f3d f271 9dbd 6221 793d
00000390: 5f92 56bd 2e9f 5ebc 8163 823d c78f 8f3d
000003a0: 7adb a2bd 6811 3e3c 7283 c1bc bf8d 32bd
000003b0: 8840 dfba 6498 063a 6903 1a3b bcc3 97bd
000003c0: dbea 98bd 848c 483d 02d1 883d 82e7 513d
000003d0: e34c f9bd 1b71 17bd 4aca 2c3c e61e d8bc
000003e0: 8c39 953b 6dea 0e3d aa0b 3b3d 5bd4 8dbd
000003f0: 3a16 3ebd c22d 05bd ff52 7e3d 57a3 033e

encoder.convs.0.node_mlp.bias f4 [128]
-0.041295454 0.018091792 0.004136474 0.048405997 0.037088126 -0.023243137 -0.00060087995 -0.039233807
0.0006289612 -0.004572175 0.056916248 0.055755794 -0.037616473 0.056982633 -0.0532848 0.022242304
0.026823035 0.028671512 0.038008418 -0.014906108 0.04229523 0.0055302144 0.0106907645 -0.015283277
-0.044930063 -0.010122837 -0.0017719845 0.007921085 -0.0013582527 0.011174903 0.0025005457 -0.036288913
-0.0030011437 -0.046021823 0.0053297747 0.03939566 -0.02319556 0.03400358 -0.021864414 -0.023834022
0.025885947 -0.056176607 0.03583746 0.03553152 0.016955312 -0.006771312 -0.023099827 -0.028112983
0.053229034 0.01941834 0.029827384 -0.033228766 0.03925684 -0.032331575 0.041687056 0.04136325
-0.047626495 -0.060448922 -0.062240034 -0.0323598 0.019093858 -0.048912395 0.0480293 -0.037618577
-0.015336357 0.01084951 -0.039064877 -0.0033826386 -0.059877317 -0.05883285 0.0093423305 -0.027702888
0.046774194 -0.035057303 0.029620823 0.037040982 -0.02274085 -0.017557299 0.029889736 -0.023210399
0.01734197 -0.03225871 -0.011369553 -0.038357068 0.057914294 -0.054585848 -0.009480993 0.034540102
-0.037540294 0.003811148 0.06190835 0.0184464 0.038884763 -0.05559357 0.035407033 0.00048095116
-0.0068687177 -0.02399512 -0.015019395 0.027434587 0.038100954 -0.045501344 0.03412509 0.05576818
-0.021351516 0.0076554287 0.013429028 -0.049601555 0.01877138 0.05393078 -0.014577511 -0.037613105
-0.03439204 0.03516445 -0.0066119297 -0.010646884 0.01974663 0.02823314 0.029080667 -0.005232905
-0.05965194 0.037435874 0.035675343 0.00808743 -0.036040787 -0.010937006 0.026186999 0.047703683
00000000: 6c25 29bd 3d35 943c 428b 873b 5e45 463d
00000010: b8e9 173d 6468 bebc 5f84 1dba a1b3 20bd
00000020: dfe0 243a 2fd2 95bb 0321 693d 3060 643d
00000030: bb13 1abd 9f66 693d 2a41 5abd 7e35 b63c
00000040: fbbb db3c 85e0 ea3c b7ae 1b3d c038 74bc
00000050: c33d 2d3d cd36 b53b 5128 2f3c b666 7abc
00000060: 9608 38bd 41da 25bc ef41 e8ba 70c7 013c
00000070: 6607 b2ba f116 373c 32e0 233b afa3 14bd
00000080: d6ae 44bb 6181 3cbd 64a5 ae3b 585d 213d
00000090: 9d04 bebc 5747 0b3d 001d b3bc 913f c3bc
000000a0: c40e d43c 7119 66bd 4dca 123d 8089 113d
000000b0: dee5 8a3c e2e1 ddbb d93b bdbc 334d e6bc
000000c0: b006 5a3d 3613 9f3c 8f58 f43c e31a 08bd
000000d0: c8cb 203d 1d6e 04bd 0cc0 2a3d 836c 293d
000000e0: 0014 43bd 4a99 77bd 68ef 7ebd b68b 04bd
000000f0: b96a 9c3c 5d58 48bd 5fba 443d f015 1abd
00000100: 5845 7bbc 25c2 313c 7e02 20bd 42af 5dbb
00000110: eb41 75bd b7fa 70bd 9310 193c 2bf1 e2bc
00000120: 4c96 3f3d 3f98 0fbd 5ea7 f23c 49b8 173d
00000130: 054b babc 53d4 8fbc 52db f43c bc23 bebc
00000140: bf10 8e3c b621 04bd 5d47 3abc 4d1c 1dbd
00000150: 8a37 6d3d 6995 5fbd 2b56 1bbc ec79 0d3d
00000160: dac3 19bd 74c4 793b 9c93 7d3d e81c 973c
00000170: a145 1f3d 15b6 63bd f706 113d 2c28 fc39
00000180: fb12 e1bb 6a91 c4bc e913 76bc 80be e03c
00000190: bf0f 1c3d 9e5f 3abd c0c6 0b3d 2d6d 643d
000001a0: 60e9 aebc 64da fa3b 6d05 5c3c 002b 4bbd
000001b0: 70c6 993c 86e6 5c3d 83d6 6ebc 3310 1abd
000001c0: abde 0cbd 9908 103d e3a8 d8bb 4570 2ebc
000001d0: afc3 a13c 3049 e73c 943a ee3c ca78 abbb
000001e0: 9855 74bd 5c56 193d 4f20 123d 2481 043c
000001f0: 819f 13bd 2131 33bc 1e86 d63c f064 433d

encoder.convs.0.edge_mlp.0.weight f4 [128, 7]
-0.49982783 0.1885784 0.091154 0.11548762 -0.05620832 0.04891859 -0.2953653 -0.062855996
-0.40494376 0.38763112 0.1361187 0.12352879 -0.2636337 -0.12874831 -0.0022375039 -0.09906294
-0.01247338 0.0016333549 -0.023772467 -0.27971777 0.41946808 -0.16966671 -0.047096424 -0.1764752
0.37930173 -0.102263644 0.1947038 0.1358881 -0.010230154 -0.09050357 -0.13875796 -0.29021722
0.3252483 0.2651269 -0.46100727 -0.1107692 -0.20918468 -0.42123988 0.043779943 -0.099582896
0.34431797 0.22965808 -0.4274712 0.3879239 0.27710164 0.29883844 -0.08230576 -0.009921429
-0.27906942 -0.14459643 0.22850141 0.36596376 -0.42887235 0.11334038 -0.12973392 -0.29146945
0.24135768 0.2817841 -0.18932845 0.3588328 -0.18039723 0.22360633 0.22987364 -0.14990442
0.468363 -0.2111449 -0.16716118 0.33603895 0.38154417 -0.30830985 0.40856224 -0.48187217
0.17273782 -0.25390208 -0.03886664 -0.38245377 0.28844765 -0.16682172 -0.4041748 -0.20278223
0.22581333 0.1112745 0.25069922 0.27030402 -0.19964701 0.3421953 -0.2935942 -0.5467409
0.13691905 -0.41496763 0.09679719 0.15308115 0.29366463 0.3554266 0.08403368 0.010304989
-0.22166136 -0.24538863 -0.096262 0.13452801 -0.21578477 -0.1908792 -0.15652123 -0.03829669
-0.16389202 0.3003486 0.26102707 0.29852176 -0.3213204 0.14912547 0.13390447 0.2399223
-0.5225871 -0.2867704 -0.09601888 -0.20425378 -0.27749327 -0.0025998375 0.25178662 -0.44260272
-0.14906965 -0.35163057 0.07480747 0.10841926 -0.37244377 0.07289912 -0.1561404 -0.21413578
-0.288097 0.02641028 0.19770977 -0.2180355 -0.117757395 -0.3481226 -0.105308056 0.30360544
0.20457527 -0.21316707 0.38551116 0.1292338 0.17856508 -0.22087318 0.03873315 0.33005083
0.26821718 0.14078705 -0.27941656 -0.040492687 0.23110476 0.18465984 -0.08349886 -0.13250637
-0.3359677 -0.2909912 -0.10502371 0.12504134 -0.1930604 0.16512315 -0.28733173 -0.017318344
-0.20659153 -0.2049106 0.16162547 0.11253593 0.33037743 0.111243635 -0.0055362093 0.28301632
-0.29834455 0.45351943 0.0434809 0.019842517 -0.24404874 -0.0017100144 -0.21455868 0.22732167
0.09887899 -0.059014674 0.35882798 -0.04251405 -0.3903289 0.07982479 0.046742138 -0.30135408
-0.32981923 -0.39934814 -0.35962728 -0.058221526 -0.30251887 -0.3577706 0.16910529 -0.31821126
-0.0009203349 0.1164993 0.3036771 -0.005549396 0.11663489 0.48669547 0.17234303 0.39663827
-0.054602858 0.35036173 -0.35632503 0.2788583 0.13982859 0.033459753 0.3786811 0.21302083
0.18768847 -0.090196654 0.4336695 -0.107340306 -0.01675779 -0.0037712117 -0.035031036 -0.25762725
0.20378113 0.022210812 -0.113500625 0.10356743 -0.1753259 -0.08809661 -0.15215798 -0.0061946437
0.117388025 -0.31168884 0.34567502 -0.18998532 0.29524451 0.2909924 0.15502179 0.41939577
-0.67847043 -0.5513321 0.015662484 -0.19012265 -0.1683565 -0.029355757 -0.28829515 -0.19614239
-0.12603265 0.11624985 -0.01596736 -0.25650615 -0.16948974 -0.0098221935 0.28888583 0.368649
0.13009578 -0.022592742 -0.00028528585 0.3064396 -0.30988592 -0.23742458 0.10690516 -0.28703353
00000000: 6fe9 ffbe b21a 413e f3ae ba3d c684 ec3d
00000010: b23a 66bd dc5e 483d 1f3a 97be a5ba 80bd
00000020: ca54 cfbe 9677 c63e b362 0b3e aafc fc3d
00000030: fffa 86be 99d6 03be 16a3 12bb 83e1 cabd
00000040: 265d 4cbc 4c16 d63a 7abe c2bc 2b37 8fbe
00000050: 85c4 d63e 1cbd 2dbe 2ee8 40bd eab5 34be
00000060: d633 c23e 9a6f d1bd 6f60 473e 4026 0b3e
00000070: 609c 27bc f059 b9bd 9116 0ebe 5a97 94be
00000080: f286 a63e b7be 873e 2509 ecbe f6da e2bd
00000090: 8234 56be c1ac d7be 9952 333d 1ef2 cbbd
000000a0: 724a b03e 7d2b 6b3e 81dd dabe f69d c63e
000000b0: 44e0 8d3e 5a01 993e ec8f a8bd 7d8d 22bc
000000c0: 30e2 8ebe 1611 14be 46fc 693e 9a5f bb3e
000000d0: 2895 dbbe 001f e83d f8d8 04be 7c3b 95be
000000e0: 7826 773e 0146 903e 51df 41be efb8 b73e
000000f0: 0dba 38be 0ff9 643e ff63 6b3e 8b80 19be
00000100: 46cd ef3e 5e36 58be 4d2c 2bbe 4c0d ac3e
00000110: c259 c33e cada 9dbe 122f d13e f3b7 f6be
00000120: 2fe2 303e 74ff 81be a032 1fbd fbd0 c3be
00000130: 69af 933e 50d3 2abe 00f0 cebe 25a6 4fbe
00000140: 9c3b 673e e3e3 e33d a65b 803e 4a65 8a3e
00000150: 4470 4cbe 3934 af3e fb51 96be 36f7 0bbf
00000160: 8234 0c3e a376 d4be 9b3d c63d 4ec1 1c3e
00000170: 365b 963e 7afa b53e da19 ac3d 42d6 283c
00000180: 32fb 62be 2847 7bbe 0325 c5bd b6c1 093e
00000190: aff6 5cbe d675 43be 1a47 20be fddc 1cbd
000001a0: 4fd3 27be 4bc7 993e 57a5 853e d8d7 983e
000001b0: 1c84 a4be 59b4 183e 411e 093e 31ae 753e
000001c0: 45c8 05bf 92d3 92be 8ca5 c4bd e727 51be
000001d0: 9913 8ebe 0962 2abb 2dea 803e d39c e2be
000001e0: b7a5 18be ec08 b4be a934 993d eb0a de3d
000001f0: f3b0 bebe 224c 953d 45e3 1fbe 6946 5bbe
00000200: 7381 93be 5f5a d83c 6e74 4a3e b344 5fbe
00000210: ca2a f1bd 203d b2be c0ab d7bd 2c72 9b3e
00000220: 2e7c 513e 7848 5abe b861 c53e de55 043e
00000230: c4d9 363e 942c 62be a7a6 1e3d 6cfc a83e
00000240: c353 893e 7b2a 103e b00f 8fbe a9db 25bd
00000250: baa6 6c3e 7817 3d3e 7301 abbd c0af 07be
00000260: f503 acbe ccfc 94be ac16 d7bd d60a 003e
00000270: a0b1 45be 0b16 293e 251d 93be 33df 8dbc
00000280: bb8c 53be 16d4 51be 2681 253e 3d79 e63d
00000290: 3b27 a93e b4d3 e33d 1769 b5bb 84e7 903e
000002a0: 9ec0 98be b333 e83e 0719 323d c68c a23c
000002b0: eae7 79be 9022 e0ba 45b5 5bbe 03c7 683e
000002c0: 1181 ca3d 5fb9 71bd 4db8 b73e 3623 2ebd
000002d0: 31d9 c7be 2e7b a33d af74 3f3d 154b 9abe
000002e0: 11de a8be 5c77 ccbe 1121 b8be b279 6ebd
000002f0: c1e3 9abe b52d b7be f029 2d3e 96ec a2be
00000300: a142 71ba 2f97 ee3d 917b 9b3e b5d7 b5bb
00000310: 46de ee3d 2630 f93e b17a 303e 2c14 cb3e
00000320: 3fa7 5fbd 9d62 b33e 3c70 b6be 84c6 8e3e
00000330: 3a2f 0f3e 180d 093d 7de2 c13e 2222 5a3e
00000340: 6831 403e 06b9 b8bd ee09 de3e 3cd5 dbbd
00000350: a247 89bc 6f26 77bb b47c 0fbd b8e7 83be
00000360: 00ac 503e 73f3 b53c 0473 e8bd 291b d43d
00000370: a288 33be ff6b b4bd 4dcf 1bbe 70fc cabb
00000380: 2269 f03d ae95 9fbe 51fc b03e 838b 42be
00000390: 4a2a 973e f5fc 943e 08be 1e3e 0bbb d63e
000003a0: 3db0 2dbf 1a24 0dbf 9c4e 803c 83af 42be
000003b0: a565 2cbe 7c7b f0bc 6c9b 93be 8dd9 48be
000003c0: b40e 01be 6714 ee3d fbcd 82bc c654 83be
000003d0: b88e 2dbe 44ed 20bc d8e8 933e 90bf bc3e
000003e0: d437 053e 6a14 b9bc 6b92 95b9 a7e5 9c3e
000003f0: 5ea9 9ebe 6e1f 73be 18f1 da3d 0ff6 92be

encoder.convs.0.edge_mlp.0.bias f4 [128]
0.16341285 0.13818963 -0.23353286 0.06948513 -0.0392695 0.16597645 -0.05012717 -0.14133723
0.17899998 -0.101865105 -0.013132403 -0.14451021 0.14574262 0.009044455 0.17726429 -0.21508506
-0.01473303 0.3131846 -0.18140933 -0.07189885 -0.04326656 0.18002369 -0.12425189 0.10472081
-0.047393266 0.04453213 0.33577073 0.27931276 -0.078402266 -0.1544786 -0.24825965 -0.0339813
-0.0065918346 0.071471855 -0.10016534 0.13001633 0.061244737 0.07340386 0.29938045 0.04170957
0.015536232 -0.082295515 0.21615121 -0.25039443 -0.097363845 0.043654982 0.20268114 -0.27872834
-0.034191914 0.06610772 0.24716356 0.1666656 0.26594448 -0.13357209 -0.31778285 0.06527334
0.25112367 0.05824129 0.061125837 0.2734078 -0.2546415 0.11631544 0.13305719 0.040344533
-0.06984648 -0.19100708 0.16117425 0.059472352 0.09332577 0.0106726615 -0.27177045 0.16703857
-0.15933152 -0.098146036 -0.14381275 -0.2958479 -0.23016901 -0.016994622 -0.30837646 0.21327971
-0.19577278 0.10405105 0.071953826 -0.11570251 0.14417017 0.3122525 -0.2891562 -0.012965889
0.23111169 0.3203383 0.12092605 0.34391835 -0.15526907 0.3136119 0.08676699 -0.15207018
0.1805643 0.25056377 -0.28539306 0.11686802 0.16014911 0.22917758 -0.2997389 0.20696735
0.31250194 -0.1585857 0.18903893 -0.2790601 0.05800577 -0.1504472 -0.32954833 0.22881909
0.16026965 0.1876641 0.2636095 -0.12212712 -0.23553506 0.24822076 0.27756107 -0.24333753
-0.18697824 -0.25105545 -0.13925469 0.20311162 -0.25247192 0.076930515 0.027101912 -0.19238509
00000000: b355 273e 9581 0d3e 3d23 6fbe 384e 8e3d
00000010: 0ed9 20bd bbf5 293e 2652 4dbd b5ba 10be
00000020: c54b 373e a79e d0bd 4a29 57bc 7cfa 13be
00000030: 8e3d 153e 322f 143c c584 353e 423f 5cbe
00000040: cf62 71bc bb59 a03e 5ec3 39be b43f 93bd
00000050: 4738 31bd 2158 383e c677 febd dd77 d63d
00000060: 711f 42bd 5367 363d 24ea ab3e 1502 8f3e
00000070: 5e91 a0bd a32f 1ebe c737 7ebe fa2f 0bbd
00000080: 5100 d8bb d65f 923d 7c23 cdbd 0023 053e
00000090: c3db 7a3d c354 963d 6548 993e a7d7 2a3d
000000a0: ae8b 7e3c 8d8a a8bd be56 5d3e b333 80be
000000b0: b266 c7bd 91cf 323d a58b 4f3e 7bb5 8ebe
000000c0: d20c 0cbd 7c63 873d 7218 7d3e 63aa 2a3e
000000d0: e029 883e 1fc7 08be 6fb4 a2be 07ae 853d
000000e0: 4893 803e 6b8e 6e3d 165f 7a3d 1bfc 8b3e
000000f0: 5f60 82be ca36 ee3d 2540 083e 4f40 253d
00000100: ac0b 8fbd 5c97 43be dd0a 253e 4899 733d
00000110: 9521 bf3d 63dc 2e3c 7f25 8bbe 290c 2b3e
00000120: cd27 23be ca00 c9bd a643 13be 6079 97be
00000130: 6db1 6bbe 4e38 8bbc 85e3 9dbe ff65 5a3e
00000140: a978 48be b818 d53d 875c 933d 70f5 ecbd
00000150: 58a1 133e 8fdf 9f3e 480c 94be e16e 54bc
00000160: 8ba8 6c3e 6203 a43e 14a8 f73d 1116 b03e
00000170: dbfe 1ebe bd91 a03e e4b2 b13d 49b8 1bbe
00000180: d9e5 383e e549 803e 0a1f 92be 8058 ef3d
00000190: 21fe 233e 87ad 6a3e 6177 99be 40ef 533e
000001a0: 4100 a03e 4a64 22be 6c93 413e f7e0 8ebe
000001b0: 7597 6d3d d50e 1abe 8fba a8be 8d4f 6a3e
000001c0: ba1d 243e 052b 403e d3f7 863e c91d fabd
000001d0: 1a30 71be 952d 7e3e 7c1c 8e3e 792d 79be
000001e0: 3977 3fbe 578a 80be c898 0ebe 7efc 4f3e
000001f0: 0044 81be bf8d 9d3d d404 de3c 9900 45be

encoder.convs.0.edge_mlp.2.weight f4 [128, 128]
-0.17741798 0.048059545 -0.07195837 -0.054841466 0.005893837 -0.072287895 -0.15723376 -0.05251824
-0.021220569 -0.12866868 -0.091290355 0.04113122 -0.075499035 -0.07647973 0.083998814 -0.04652251
0.0623954 -0.023686018 -0.03151662 -0.095195115 0.060027238 -0.105693065 -0.068105444 -0.022091832
0.022241436 0.12491673 -0.042127065 0.035959587 -0.19324574 0.0046403664 -0.06570211 -0.06913755
-0.016362997 -0.0009709278 0.0877247 -0.04966443 -0.08578759 -0.011122223 0.077716306 0.12205839
-0.015130466 -0.027746452 0.04277311 -0.03387338 -0.090902045 -0.08770835 -0.07137246 -0.016751768
0.044933178 0.07062196 -0.039386243 0.019336335 0.00025463713 -0.19730757 0.00020254374 -0.011266403
-0.07403831 0.075281076 0.117904715 -0.0032787593 -0.066459514 -0.04436418 0.051695634 -0.067559674
-0.07616648 0.068569705 0.03977468 -0.06028837 -0.09518807 0.034720242 0.10620714 -0.057444576
-0.051496215 -0.14514174 0.015621212 0.13920456 -0.06370168 -0.18842658 0.049734958 0.02075088
0.031548843 0.053759374 0.07249012 0.014871858 0.09009404 -0.032454647 -0.0634952 0.06097076
0.019801807 -0.10358665 0.042645004 -0.035668485 -0.08134651 0.1236267 0.09860264 -0.11777208
0.05580167 0.017625513 0.016927334 -0.10748528 0.077321395 -0.09559325 0.008149873 -0.06306388
0.042966336 -0.054427184 0.023285337 -0.06942122 -0.035173994 0.16903387 -0.0030828228 0.13118221
-0.029266201 0.05623254 0.008626487 -0.008809011 -0.03626675 -0.07527738 -0.0071226317 -0.07953545
0.052903105 -0.048825517 0.020239716 0.06052767 -0.037880067 -0.034605633 0.05548019 -0.06406284
0.043914817 -0.015828462 0.2361819 -7.717945e-05 0.17140746 0.057070803 0.14058785 0.0054442
-0.022743536 0.1198497 0.11345103 0.06911443 0.028300472 -0.01584273 -0.12105702 0.040693887
-0.051879574 -0.07013601 -0.04916727 0.1852224 -0.045609716 0.07168838 -0.06582599 -0.010895518
0.057649795 0.08591937 -0.05374087 -0.060633224 0.0982391 -0.15499455 0.07037049 0.03569738
0.05536919 0.023989048 0.037346527 0.04376587 0.20684247 0.08499817 0.041064356 0.092124455
-0.06524813 -0.07439722 -0.05343162 -0.014853251 0.05472466 0.084149525 -0.09733862 -0.007084072
-0.033029154 0.015123758 0.077572964 -0.06086091 0.029003285 0.15457009 0.08549459 -0.025629407
-0.0016756034 -0.002017657 -0.040838495 -0.046704877 -0.12476046 0.0070152353 -0.02547272 0.04762089
0.007357135 -0.09853696 -0.057727337 -0.083906844 0.021771582 -0.008540948 0.085109174 0.07245122
0.06898581 0.066186115 0.093442865 -0.07787405 0.029124381 0.06608343 -0.117653996 0.04329883
0.0976399 -0.03928834 0.089403905 -0.12279602 -0.01281495 0.075040855 -0.08592182 0.051838797
0.03337272 -0.008648634 -0.06658339 -0.122179635 0.185515 -0.027601937 0.17322972 -0.0254784
-0.05968907 -0.05864614 0.09667145 -0.022550343 -0.03027213 0.06535374 0.011580104 0.07874166
-0.1102853 0.074156575 0.019548645 0.045211628 0.030766804 -0.075674094 0.07031815 -0.01369594
0.0026161987 -0.05046533 -0.03593293 0.15212922 0.022685219 0.1311555 0.042962834 0.04300134
-0.081456825 -0.030867467 0.062304866 0.058815908 -0.0072881286 -0.0318343 0.033318784 0.008955119
00000000: 0fad 35be 16da 443d e95e 93bd 72a1 60bd
00000010: 1721 c13b ad0b 94bd e301 21be 5e1d 57bd
00000020: c2d6 adbc b9c1 03be 70f6 babd 3679 283d
00000030: 3d9f 9abd 68a1 9cbd 9207 ac3d 638e 3ebd
00000040: 5292 7f3d 2e09 c2bc 9217 01bd a8f5 c2bd
00000050: 1fdf 753d 9b75 d8bd de7a 8bbd eef9 b4bc
00000060: ac33 b63c 58d4 ff3d 6e8d 2cbd 5c4a 133d
00000070: 36e2 45be 370e 983b d48e 86bd fd97 8dbd
00000080: b10b 86bc dd85 7eba 02a9 b33d ee6c 4bbd
00000090: 67b1 afbd fc39 36bc ba29 9f3d c0f9 f93d
000000a0: c6e5 77bc 874c e3bc db32 2f3d d0be 0abd
000000b0: da2a babd 6fa0 b3bd b92b 92bd 013b 89bc
000000c0: da0b 383d 3fa2 903d 7853 21bd 3c67 9e3c
000000d0: d180 8539 ff0a 4abe ec61 5439 b896 38bc
000000e0: 66a1 97bd f72c 9a3d 0778 f13d 74e0 56bb
000000f0: ed1b 88bd 37b7 35bd cdbe 533d ba5c 8abd
00000100: 2cfd 9bbd 466e 8c3d c6ea 223d f0f0 76bd
00000110: f6f1 c2bd d036 0e3d 2183 d93d 014b 6bbd
00000120: b2ed 52bd 09a0 14be 1df0 7f3c a48b 0e3e
00000130: 0776 82bd e6f2 40be e2b6 4b3d c0fd a93c
00000140: 5c39 013d ca32 5c3d b375 943d 18a9 733c
00000150: 3983 b83d 2aef 04bd c509 82bd 7abc 793d
00000160: 6637 a23c 3d25 d4bd 87ac 2e3d 1e19 12bd
00000170: 0099 a6bd ff2f fd3d 2ef0 c93d 7d32 f1bd
00000180: 4b90 643d 6163 903c 31ab 8a3c 3e21 dcbd
00000190: ae5a 9e3d 65c6 c3bd 0c87 053c a327 81bd
000001a0: 78fd 2f3d 0aef 5ebd e4c0 be3c b62c 8ebd
000001b0: 9b12 10bd 3717 2d3e 2f09 4abb a154 063e
000001c0: acbf efbc 1854 663d 1c56 0d3c ac53 10bc
000001d0: 728c 14bd 072b 9abd f764 e9bb 7be3 a2bd
000001e0: edb0 583d 44fd 47bd c3cd a53c ddeb 773d
000001f0: 2128 1bbd a3be 0dbd 323f 633d 6133 83bd
00000200: 06e0 333d b1aa 81bc abd9 713e 67db a1b8
00000210: 7085 2f3e 13c3 693d 43f6 0f3e 4265 b23b
00000220: a750 babc c273 f53d 0359 e83d de8b 8d3d
00000230: 64d6 e73c 9dc8 81bc beec f7bd a2ae 263d
00000240: ad7f 54bd 78a3 8fbd 9f63 49bd f1aa 3d3e
00000250: 41d1 3abd 5bd1 923d c7cf 86bd 1d83 32bc
00000260: 3122 6c3d 7ff6 af3d 631f 5cbd 8b5a 78bd
00000270: 9531 c93d e4b6 1ebe 671e 903d 6a37 123d
00000280: ceca 623d ae84 c43c acf8 183d d743 333d
00000290: 83ce 533e 8513 ae3d 1933 283d bfab bc3d
000002a0: d0a0 85bd 925d 98bd 1ddb 5abd 0d5b 73bc
000002b0: f726 603d 9656 ac3d 7859 c7bd 8121 e8bb
000002c0: 9449 07bd a4c9 773c 93de 9e3d 4a49 79bd
000002d0: 4c98 ed3c 9f47 1e3e ca17 af3d c3f4 d1bc
000002e0: ec9f dbba ab3a 04bb 4446 27bd 9d4d 3fbd
000002f0: 6982 ffbd 0fe0 e53b 2aac d0bc 1f0e 433d
00000300: 1f14 f13b bfcd c9bd 8073 6cbd 5ad7 abbd
00000310: 515a b23c 55ef 0bbc b84d ae3d 4e61 943d
00000320: 6f48 8d3d 968c 873d f95e bf3d 6e7c 9fbd
00000330: 4196 ee3c c056 873d 94f4 f0bd 1d5a 313d
00000340: 6ef7 c73d cfec 20bd 6519 b73d 7b7c fbbd
00000350: ccf5 51bc 05af 993d c7f7 afbd eb54 543d
00000360: d5b1 083d 00b3 0dbc df5c 88bd 5139 fabd
00000370: a5f7 3d3e 751d e2bc 2263 313e 14b8 d0bc
00000380: 877c 74bd ef36 70bd aefb c53d 7fbb b8bc
00000390: 42fd f7bc 2ed8 853d 7aba 3d3c 4f43 a13d
000003a0: 42dd e1bd 67df 973d 7b24 a03c d42f 393d
000003b0: aa0a fc3c 05fb 9abd f602 903d f064 60bc
000003c0: 8874 2b3b bcb4 4ebd 682e 13bd c3c7 1b3e
000003d0: 5ad6 b93c a14d 063e ccf9 2f3d 2c22 303d
000003e0: d6d2 a6bd c5dd fcbc 6333 7f3d f3e8 703d
000003f0: 41d1 eebb af64 02bd 4779 083d 7eb8 123c

encoder.convs.0.edge_mlp.2.bias f4 [128]
0.021819154 -0.07416074 0.0032862562 0.023108834 -0.031912446 0.013457214 -0.012898242 -0.077442534
-0.0826019 0.00683547 -0.066064246 0.07357786 0.036133498 0.081235595 -0.0038162894 0.054839157
-0.06778323 0.030954633 0.034334417 0.017580038 -0.038110197 -0.031401094 -0.037201382 0.073059954
0.02193524 -0.04315781 -0.028592208 0.0066729095 0.013075345 0.08492578 0.03659076 0.06814728
-0.031085419 0.011984282 0.05622716 0.052094005 -0.0031221726 0.06675173 -0.04563562 -0.06760506
0.021007119 0.038097218 0.045796912 -0.059243765 0.07759697 -0.06496685 0.058011234 -0.032205794
0.08743727 0.04253358 0.050750915 -0.0053163487 -0.073400415 -0.060052074 -0.070654795 -0.012354111
-0.028039733 0.014511901 -0.06242858 -0.06428029 -0.005643212 -0.0060134465 -0.0282913 -0.07689268
-0.06395886 -0.06021906 -0.041987207 -0.012054086 -0.04880623 -0.061219003 -0.016774273 0.06611935
0.059013344 -0.018533245 -0.043582276 0.018879892 -0.07510883 -0.062997155 0.0014971122 0.019619238
-0.035840128 -0.007069638 0.012416022 -0.019816281 0.033768762 0.031238386 -0.05049435 -0.00800135
-0.07385437 -0.052313976 -0.08344829 -0.051942445 -0.04691161 0.011402513 -0.0040460653 0.0032248509
0.055152785 0.017377818 0.00262142 0.03976685 -0.056746587 -0.008459836 0.022614848 0.06396768
0.06787933 -0.06905231 0.010906008 0.07994576 0.022529311 -0.07466593 0.057727624 -0.070145145
-0.07165007 -0.06210808 0.07430282 0.076114245 -0.027940333 0.028695108 0.016952982 -0.08240648
-0.041494388 -0.02473513 -0.009094391 -0.01784251 0.04919778 -0.05942257 -0.031405102 -0.012441697
00000000: 15be b23c 96e1 97bd 3b5e 573b bd4e bd3c
00000010: a0b6 02bd a67b 5c3c 2653 53bc 319a 9ebd
00000020: 2f2b a9bd 14fc df3b b14c 87bd fdaf 963d
00000030: b800 143d d95e a63d b61a 7abb 069f 603d
00000040: efd1 8abd 9294 fd3c 3fa2 0c3d 0304 903c
00000050: 7019 1cbd 6f9e 00bd 7a60 18bd 75a0 953d
00000060: 88b1 b33c 3ec6 30bd 353a eabc 6ca8 da3b
00000070: f939 563c 91ed ad3d 31e0 153d cd90 8b3d
00000080: d9a6 febc b959 443c 734e 663d 8660 553d
00000090: 5d9d 4cbb 22b5 883d 6aec 3abd 8674 8abd
000000a0: 1f17 ac3c d40b 1c3d 8b95 3b3d 97a9 72bd
000000b0: 29eb 9e3d 570d 85bd 309d 6d3d 39ea 03bd
000000c0: 5012 b33d b137 2e3d 31e0 4f3d c434 aebb
000000d0: f552 96bd 2af9 75bd 76b3 90bd e668 4abc
000000e0: 95b3 e5bc 53c3 6d3c 1cb5 7fbd 62a5 83bd
000000f0: b1ea b8bb 720c c5bb 28c3 e7bc e979 9dbd
00000100: ddfc 82bd 43a8 76bd c7fa 2bbd 807e 45bc
00000110: 0be9 47bd c7c0 7abd 336a 89bc 9569 873d
00000120: fab7 713d 08d3 97bc 5483 32bd 01aa 9a3c
00000130: a9d2 99bd a704 81bd c03a c43a 86b8 a03c
00000140: 19cd 12bd 6ca8 e7bb 926c 4b3c c155 a2bc
00000150: 1d51 0a3d a5e7 ff3c 2ad3 4ebd 1818 03bc
00000160: f640 97bd 2e47 56bd f0e6 aabd 9ac1 54bd
00000170: 6326 40bd 9bd1 3a3c db94 84bb 0558 533b
00000180: e3e7 613d ed5b 8e3c 21cc 2b3b 91e2 223d
00000190: 1c6f 68bd 209b 0abc c642 b93c 7d01 833d
000001a0: 5104 8b3d 4c6b 8dbd 1daf 323c 9aba a33d
000001b0: 648f b83c 73ea 98bd cd73 6c3d 42a8 8fbd
000001c0: 46bd 92bd 0b65 7ebd 142c 983d c9e1 9b3d
000001d0: 20e3 e4bc 0112 eb3c fbe0 8a3c bbc4 a8bd
000001e0: 05f6 29bd 54a1 cabc a400 15bc 752a 92bc
000001f0: 9d83 493d 1565 73bd a3a2 00bd 42d8 4bbc

encoder.convs.0.norm.weight f4 [128]
0.8867902 0.92837006 0.89350843 0.9060566 0.9152632 0.92399627 0.9310114 0.914985
0.9475882 0.89626575 0.9131314 0.88965434 0.9045447 0.89877796 0.8993409 0.9450025
0.97137153 0.93252033 0.9874283 0.88590574 0.9222219 0.91869634 0.90956444 0.9225077
0.8878789 0.92213607 0.9233699 0.8882403 0.9024562 0.92265755 0.9272296 0.9078137
0.88312334 0.92845005 0.9361469 0.9160868 0.9107886 0.9534094 0.96561885 0.90350306
0.9024404 0.9123221 0.8904652 0.9379659 0.95765334 0.90019786 0.9110945 0.89991045
0.9125372 0.9209618 0.872743 0.9363296 0.9050215 0.9168392 0.9781668 0.9218657
0.9005892 0.90037656 0.87098163 0.93225384 0.9619263 0.9072005 0.9061462 1.0193762
1.0119845 0.915531 0.92982155 0.8974366 0.93248165 0.9045632 0.8774755 0.91053116
0.90237755 0.9087296 0.8822094 0.90635365 0.87130815 0.9509867 0.90599155 0.92769265
0.9500326 0.8924035 0.8774857 0.8827355 0.9499873 0.912338 0.9196391 0.8982608
0.92848617 0.8961392 0.9096947 0.8539736 0.92043245 0.8815614 0.9278586 0.90837216
0.9168469 0.8904671 0.9036553 0.8880285 0.9113827 0.8989947 0.90244603 0.9229194
0.9284205 0.9099177 0.8969107 0.94841546 0.92468 0.8631167 0.94698477 0.89260685
0.9336992 0.87269026 0.9059608 0.9327339 0.902316 0.9089105 0.8855882 0.9221358
0.9173245 0.9495002 0.9292752 0.9007532 0.9134054 0.889854 0.8846322 0.9033935
00000000: af04 633f a9a9 6d3f f8bc 643f 53f3 673f
00000010: b04e 6a3f 058b 6c3f c356 6e3f 753c 6a3f
00000020: 2495 723f ac71 653f fbc2 693f 63c0 633f
00000030: 3e90 673f 5016 663f 353b 663f afeb 713f
00000040: ceab 783f a7b9 6e3f 1ac8 7c3f b8ca 623f
00000050: bc16 6c3f af2f 6b3f 37d9 683f 7729 6c3f
00000060: 084c 633f 1c11 6c3f f861 6c3f b763 633f
00000070: 5f07 673f 4933 6c3f eb5e 6d3f 7b66 683f
00000080: 5f14 623f e7ae 6d3f 53a7 6f3f aa84 6a3f
00000090: 7129 693f a312 743f cc32 773f fa4b 673f
000000a0: 5606 673f f18d 693f 87f5 633f 891e 703f
000000b0: c528 753f 5e73 663f 7d3d 693f 8860 663f
000000c0: 0a9c 693f 27c4 6b3f 166c 5f3f 4cb3 6f3f
000000d0: 7daf 673f f9b5 6a3f 2469 7a3f 64ff 6b3f
000000e0: 048d 663f 147f 663f a7f8 5e3f 30a8 6e3f
000000f0: cd40 763f 4b3e 683f 33f9 673f eb7a 823f
00000100: b588 813f 3d60 6a3f c908 6e3f 68be 653f
00000110: 1eb7 6e3f 7491 673f 3ca2 603f 9218 693f
00000120: 3702 673f 81a2 683f 7ad8 613f cb06 683f
00000130: 0d0e 5f3f dd73 733f 10ef 673f 447d 6d3f
00000140: 5635 733f 8e74 643f e7a2 603f f4fa 613f
00000150: 5e32 733f fc8e 693f 786d 6b3f 6bf4 653f
00000160: 45b1 6d3f 6169 653f c0e1 683f 049e 5a3f
00000170: 76a1 6b3f 02ae 613f 2488 6d3f 148b 683f
00000180: 7ab6 6a3f a7f5 633f f455 673f d655 633f
00000190: 6050 693f 8424 663f b406 673f 7244 6c3f
000001a0: f7ac 6d3f 5ef0 683f f19b 653f 5bcb 723f
000001b0: d4b7 6c3f 37f5 5c3f 986d 723f e281 643f
000001c0: e906 6f3f a168 5f3f 0ced 673f a6c7 6e3f
000001d0: 2efe 663f 5cae 683f e9b5 623f 1711 6c3f
000001e0: c7d5 6a3f 7212 733f fbe4 6d3f c397 663f
000001f0: f0d4 693f 79cd 633f 4177 623f cc44 673f

encoder.convs.0.norm.bias f4 [128]
0.06666723 -0.071772374 0.006455904 0.020052444 -0.023435688 0.1256603 0.037009824 -0.038390182
0.010731768 -0.025230069 0.017371086 -0.039710656 0.025457187 -0.02072085 0.043890007 -0.03212403
-0.03725682 -0.011246146 -0.04636197 -0.03050528 0.04099641 0.0028549235 0.02460141 0.024130898
-0.046731047 0.02823419 0.03715087 -0.00858439 0.027799828 0.006663485 0.0005363478 0.008772755
-0.031111274 0.017132046 0.061707485 0.027733754 0.023798008 -0.012926395 0.029328598 -0.019756109
0.041138288 0.0653946 -0.0027494635 0.020367341 -0.054466035 -0.06288587 -0.008671301 0.07346764
-0.058099862 -0.020721829 0.07310049 0.09164469 -0.024495324 -0.028607497 -0.06777603 -0.012397074
-0.0037354822 0.055352706 0.067473315 -0.024018517 0.020642068 -0.0082315 -0.0146455 -0.031003794
0.018362362 -0.009142795 -0.004025613 -0.09195945 -0.020351334 0.07194877 -0.0047282884 -0.008335474
0.048888624 0.029445296 -0.010890787 0.054624077 -0.030377641 -0.03813487 0.0051147793 -0.029596105
-0.010165958 0.06509627 0.03456218 0.0685538 0.041993465 0.033559956 -0.021770721 -0.0100203445
0.038572364 -0.07982499 -0.02156454 0.05331429 -0.071992874 0.0424069 -0.039910838 0.0066719926
0.0116263535 0.057623245 0.023085618 0.02434252 -0.038622655 -0.03338829 0.048589908 -0.02289731
0.043588374 0.013555672 0.02198488 -0.0049245614 0.0077419295 0.0026079186 0.0151113365 -0.021285297
-0.020819437 -0.015552581 -0.017656619 -0.09303554 -0.008159703 -0.03360642 0.08799338 0.03978487
-0.04705841 0.00019660784 0.027766472 0.05201322 0.024483267 -0.004014213 0.040291138 -0.026933972
00000000: d488 883d 65fd 92bd 0c8c d33b 0645 a43c
00000010: 33fc bfbc 18ad 003e 9d97 173d 063f 1dbd
00000020: 4cd4 2f3c 4aaf cebc cf4d 8e3c a4a7 22bd
00000030: 978b d03c c6be a9bc 02c6 333d 7d94 03bd
00000040: 9b9a 18bd c141 38bc 0de6 3dbd 35e6 f9bc
00000050: daeb 273d ab19 3b3b e588 c93c 29ae c53c
00000060: 0e69 3fbd 634b e73c 832b 183d 8ba5 0cbc
00000070: 77bc e33c 5d59 da3b b199 0c3a 9abb 0f3c
00000080: 12dd febc 8158 8c3c fdc0 7c3d e631 e33c
00000090: 0af4 c23c 3bc9 53bc 8742 f03c 90d7 a1bc
000000a0: 9f80 283d 9bed 853d 5830 34bb 69d9 a63c
000000b0: c717 5fbd 4fca 80bd 1312 0ebc 3476 963d
000000c0: 1ffa 6dbd d3c0 a9bc b6b5 953d 36b0 bb3d
000000d0: 6baa c8bc 455a eabc 29ce 8abd 191d 4bbc
000000e0: fece 74bb 85b9 623d 732f 8a3d 7bc2 c4bc
000000f0: 8e19 a93c 6add 06bc aef3 6fbc abfb fdbc
00000100: aa6c 963c a9cb 15bc 4ae9 83bb 3c55 bcbd
00000110: d7b7 a6bc e059 933d c2ef 9abb 8391 08bc
00000120: 703f 483d 4337 f13c 456f 32bc 7fbd 5f3d
00000130: 88da f8bc 4f33 1cbd e199 a73b 8873 f2bc
00000140: 1e8f 26bc 3151 853d 1391 0d3d ef65 8c3d
00000150: 5701 2c3d 2a76 093d 8358 b2bc 5f2c 24bc
00000160: 0efe 1d3d 497b a3bd 1ea8 b0bc 1660 5a3d
00000170: 0071 93bd dcb2 2d3d 8c79 23bd bba0 da3b
00000180: 767c 3e3c 5a06 6c3d 0d1e bd3c f769 c73c
00000190: ca32 1ebd 29c2 08bd 3606 473d 2493 bbbc
000001a0: b989 323d 9c18 5e3c a319 b43c 375e a1bb
000001b0: 03b0 fd3b 9de9 2a3b 8a95 773c 815e aebc
000001c0: 868d aabc 41d0 7ebc 9da4 90bc 6b89 bebd
000001d0: 46b0 05bc e3a6 09bd e035 b43d 76f5 223d
000001e0: 52c0 40bd 8428 4e39 8376 e33c d00b 553d
000001f0: 2291 c83c a989 83bb 5208 253d a2a4 dcbc

encoder.convs.0.norm.mean_scale f4 [128]
1.0511409 0.9604152 0.85976344 1.0392991 0.95975715 1.0559955 0.97112626 0.9052288
0.9465836 0.98478484 0.9371612 1.0413371 0.91748285 0.9874507 1.0097226 1.0715619
0.9481915 0.98014486 0.9083507 0.92808336 1.0364316 0.9133183 0.93036747 1.1100477
0.9341956 0.93460524 0.92096734 0.9924867 0.84520125 0.9323424 0.9738642 1.0250074
1.0250586 1.0433589 0.99622065 0.9816552 0.9612974 0.9975301 0.9010407 1.00782
0.98930675 1.0373557 1.0537274 0.9207308 0.85102767 1.1224515 0.9354179 0.9350119
0.8498331 0.97393316 1.0149668 1.0845747 1.0788405 1.0070105 1.0891076 0.9913626
0.94198966 0.9831231 0.99567664 0.91899073 0.973295 0.85835266 0.9958206 1.0646116
0.8769776 0.87806183 0.90440047 1.0829691 0.96874267 0.96922684 0.9613892 0.8529742
1.0368726 0.91873646 0.9629384 0.9444809 0.9978902 0.9689727 0.9216752 0.92255074
0.9553436 0.9859744 0.97195333 1.0283102 1.0295731 0.99492824 0.9295797 0.9704749
1.090273 1.0426017 1.0062497 0.9993487 0.7709964 1.0723249 1.0491737 0.9139034
0.9880125 0.98192143 0.99578846 0.94578 1.0336609 0.9358989 1.0120976 0.9131843
0.98034537 1.0115908 0.93967026 1.0045184 0.9123252 0.9574482 0.98358417 0.94570154
0.9690266 0.9457771 0.92027724 1.0820215 0.9954862 0.9029028 1.0575861 1.0217354
1.0382102 0.8331543 1.0989945 0.9680556 0.8886033 0.9370425 0.99660397 0.9873981
00000000: c98b 863f c5dd 753f 7519 5c3f c107 853f
00000010: a5b2 753f dc2a 873f bb9b 783f 13bd 673f
00000020: 4e53 723f dc1a 7c3f cce9 6f3f 894a 853f
00000030: 28e0 6a3f 92c9 7c3f 973e 813f f128 893f
00000040: aebc 723f c6ea 7a3f ac89 683f df96 6d3f
00000050: caa9 843f 3acf 693f 902c 6e3f 0b16 8e3f
00000060: 7127 6f3f 4a42 6f3f 84c4 6b3f 9c13 7e3f
00000070: 1c5f 583f fead 6e3f 2a4f 793f 7133 833f
00000080: 1f35 833f c98c 853f 5108 7f3f c14d 7b3f
00000090: 9617 763f 225e 7f3f 9aaa 663f 3f00 813f
000000a0: 3543 7d3f 12c8 843f 8ae0 863f 04b5 6b3f
000000b0: f3dc 593f 7eac 8f3f 8c77 6f3f f15c 6f3f
000000c0: a98e 593f af53 793f 6fea 813f 58d3 8a3f
000000d0: 7217 8a3f b8e5 803f e167 8b3f f0c9 7d3f
000000e0: 3c26 713f f5ad 7b3f aae4 7e3f fa42 6b3f
000000f0: dc29 793f 00bd 5b3f 19ee 7e3f 3145 883f
00000100: 9b81 603f a9c8 603f ca86 673f bb9e 8a3f
00000110: 85ff 773f 401f 783f 9a1d 763f 845c 5a3f
00000120: 3eb8 843f 5032 6b3f 2283 763f 80c9 713f
00000130: bb75 7f3f 980e 783f e8f2 6b3f 492c 6c3f
00000140: 6691 743f d168 7c3f efd1 783f ab9f 833f
00000150: 0dc9 833f 9eb3 7e3f eff8 6d3f 0b71 783f
00000160: 118e 8b3f f973 853f cacc 803f 51d5 7f3f
00000170: 0560 453f f141 893f 534b 863f 93f5 693f
00000180: 63ee 7c3f 345f 7b3f feeb 7e3f a31e 723f
00000190: 004f 843f 1297 6f3f 6a8c 813f 72c6 693f
000001a0: eaf7 7a3f cf7b 813f 3b8e 703f 0f94 803f
000001b0: 258e 693f 531b 753f 2ccc 7b3f 7f19 723f
000001c0: 2112 783f 731e 723f 4a97 6b3f ae7f 8a3f
000001d0: 2fd8 7e3f a324 673f fb5e 873f 3ac8 823f
000001e0: 12e4 843f 9a49 553f daab 8c3f 7ed2 773f
000001f0: 827b 633f 04e2 6f3f 7021 7f3f 1fc6 7c3f

encoder.convs.1.node_mlp.weight f4 [128, 256]
-0.0012525497 -0.002952946 -0.02286581 0.035526577 0.04665916 -0.0052717878 0.011727732 0.03322698
0.015942806 -0.0111227725 -0.033001464 0.015051338 -0.02241295 0.030099226 -0.032442164 0.0007389532
0.034245618 0.06402195 -0.02806283 -0.03396251 0.02334194 -0.026305394 0.018615296 -0.012137513
-0.041209023 0.0077986754 -0.015104412 0.047177844 0.007075087 -0.038586516 0.051950414 -0.019534208
-0.041357923 -0.022958374 0.018488396 -0.013227074 0.007893545 0.013328536 -0.034814376 0.034223102
0.017141696 0.057462573 0.043660577 0.049046457 -0.019616771 -0.048677076 -0.030780667 0.011221595
0.052230738 0.051313244 0.030117458 -0.029307991 0.04140085 0.0019454188 0.079789415 0.04059163
-0.05567366 -0.023251913 -0.019962506 -0.0012639066 -0.05645121 0.059949692 0.037896402 0.030029954
0.034695506 0.06543591 -0.00041049972 -0.004743741 -0.0010587635 0.04044747 0.031782508 0.015257848
0.010521721 -0.040933784 0.010757399 0.042888872 -0.003936219 -0.043480232 -0.02369247 -0.053180646
0.052147053 0.04686216 -0.021896882 0.032160804 0.016771918 -0.019422079 -0.039308794 0.005668243
0.028341236 -0.020852456 0.008613583 0.011408552 -0.06028552 -0.01591561 0.0073899888 0.02616455
0.021819388 -0.018290412 -0.009886559 0.03306067 0.004535445 -0.0036413735 0.077927575 0.0029710045
-0.052837096 -0.00053602085 0.0008161416 -0.028834954 0.017683102 0.00034405256 -0.02774541 0.029917073
0.02528934 -0.031072406 0.032297555 0.02423147 -0.012281344 0.0055512 -0.01133514 -0.014156553
-0.06356929 0.034426387 0.031010117 0.034431726 -0.014624241 -0.0034033263 0.026140396 0.0028925773
-0.112551965 -0.010582639 -0.08008695 0.015497341 0.04095177 0.031140525 0.020749617 -0.025152566
0.23021285 -0.06358035 -0.02137652 -0.025527976 -0.026700547 -0.02294857 0.012604445 -0.012777138
0.009664103 0.009856758 0.0017069075 0.017327463 -0.118265264 0.008866241 0.009340786 0.11952697
0.060477477 -0.018608164 0.0073140725 -0.04466697 0.09445052 0.052916374 -0.24292834 -0.050119895
-0.0110438205 0.010885098 0.004387714 -0.04959938 -0.007748346 0.10520466 -0.025833292 0.13216756
-0.052208617 0.025911644 -0.045837276 -0.004730686 -0.07175661 -0.00036688332 0.15319505 0.023788625
-0.15595043 0.07411846 -0.016923841 -0.06646711 0.024273574 0.050854933 -0.0138641745 -0.052619707
-0.054457504 0.043403413 -0.0028239624 -0.32047775 0.03934943 -0.13820322 -0.055834178 0.07894918
0.0770425 -0.110544376 -0.023928685 -0.07434993 0.068651944 -0.051581036 0.08062485 -0.00447629
0.18547904 0.004754211 0.048769712 0.008436539 -0.0984013 -0.0027881283 0.064207405 -0.037847664
-0.0026795457 -0.074011415 -0.053786844 -0.059792817 0.09029486 -0.0019328763 -0.051642686 0.10450376
0.057307046 -0.1432298 -0.08335915 -0.060969085 -0.05675199 0.07417468 0.0666093 0.12563066
0.023598094 -0.012987839 -0.028238544 0.08559665 0.08578328 -0.021923758 0.01352135 -0.05874122
-0.034989394 0.05000236 -0.027313897 -0.08173964 -0.14002593 -0.03495853 -0.075268224 0.07478628
0.047073863 -0.055025008 -0.077102914 0.15005085 0.047072317 0.08435779 -0.045253355 0.11061047
-0.043033972 -0.09479017 0.08853589 -0.17187794 -0.021120297 -0.1337575 -0.06554474 -0.0044654366
00000000: 982c a4ba 3686 41bb 1451 bbbc 5184 113d
00000010: ad1d 3f3d f6be acbb ac25 403c 0419 083d
00000020: 7d9a 823c 4a3c 36bc 8b2c 07bd e399 763c
00000030: 5d9b b7bc a792 f63c 13e2 04bd 4fb6 413a
00000040: 2245 0c3d f11d 833d 05e4 e5bc 461c 0bbd
00000050: 9937 bf3c 697e d7bc 1b7f 983c 6bdc 46bc
00000060: cbca 28bd 088c ff3b 7f78 77bc 8e3d 413d
00000070: 22d6 e73b e50c 1ebd f5c9 543d 3406 a0bc
00000080: ed66 29bd 3313 bcbc fa74 973c 5fb6 58bc
00000090: ed53 013c ef5f 5a3c 8599 0ebd 862d 0c3d
000000a0: be6c 8c3c e05d 6b3d 6fd5 323d f0e4 483d
000000b0: 5ab3 a0bc 9d61 47bd bd27 fcbc c8da 373c
000000c0: e6ef 553d d62d 523d e3b8 f63c 5017 f0bc
000000d0: f093 293d 6cfd fe3a a268 a33d 6943 263d
000000e0: 100a 64bd cc7a bebc 6988 a3bc aba9 a5ba
000000f0: 6239 67bd cf8d 753d 4239 1b3d 6101 f63c
00000100: e01c 0e3d 4303 863d 5738 d7b9 6271 9bbb
00000110: 35c6 8aba 3fac 253d 602e 023d 0efc 793c
00000120: 4c63 2c3c 2faa 27bd cd3f 303c 3eac 2f3d
00000130: 66fb 80bb 5418 32bd b616 c2bc f3d3 59bd
00000140: 2698 553d 89f2 3f3d 1761 b3bc 0cbb 033d
00000150: 4365 893c 0d1b 9fbc 4202 21bd abbc b93b
00000160: e12b e83c c5d2 aabc fc1f 0d3c efea 3a3c
00000170: f3ed 76bd 7461 82bc b827 f23b 0a57 d63c
00000180: 93be b23c c6d5 95bc 3cfb 21bc a06a 073d
00000190: 129e 943b 1ca4 6ebb 7e98 9f3d 2fb5 423b
000001a0: b66b 58bd c083 0cba 56f2 553a 4837 ecbc
000001b0: 27dc 903c f461 b439 584a e3bc a614 f53c
000001c0: 972b cf3c 8f8b febc 714a 043d 1381 c63c
000001d0: b137 49bc d7e6 b53b 06b7 39bc e3f0 67bc
000001e0: 9e30 82bd af02 0d3d ee08 fe3c 4808 0d3d
000001f0: 839a 6fbc 570a 5fbb 6224 d63c 6591 3d3b
00000200: a581 e6bd ce62 2dbc a004 a4bd 8fe8 7d3c
00000210: 0bbd 273d 6a1a ff3c 1afb a93c c10c cebc
00000220: ebbc 6b3e 6a36 82bd d01d afbc 0c20 d1bc
00000230: 1bbb dabc a4fe bbbc e082 4e3c 3357 51bc
00000240: 3056 1e3c 3d7e 213c 50ba df3a 53f2 8d3c
00000250: 0f35 f2bd b643 113c 190a 193c 8eca f43d
00000260: 3bb7 773d 2670 98bc e3aa ef3b b6f4 36bd
00000270: 466f c13d d7be 583d 35c2 78be 854a 4dbd
00000280: 24f1 34bc 6957 323c d0c6 8f3b b828 4bbd
00000290: d6e5 fdbb 8a75 d73d 57a0 d3bc ef56 073e
000002a0: b4d8 55bd a844 d43c debf 3bbd df03 9bbb
000002b0: 21f5 92bd 3f5a c0b9 2adf 1c3e 5de0 c23c
000002c0: 78b1 1fbe 6bcb 973d dea3 8abc e81f 88bd
000002d0: 60d9 c63c 434d 503d 9026 63bc c387 57bd
000002e0: d50e 5fbd c7c7 313d 3a12 39bb a915 a4be
000002f0: de2c 213d 2585 0dbe 61b2 64bd 1cb0 a13d
00000300: 75c8 9d3d 1765 e2bd 1706 c4bc c744 98bd
00000310: 6499 8c3d a346 53bd a41e a53d d8ad 92bb
00000320: 38ee 3d3e 36c9 9b3b c0c2 473d 6939 0a3c
00000330: 9f86 c9bd 08b9 36bb 2c7f 833d 2706 1bbd
00000340: 519b 2fbb 4c93 97bd 984f 5cbd 50e9 74bd
00000350: 83ec b83d 9158 fdba 4887 53bd 1106 d63d
00000360: cbba 6a3d d5aa 12be 34b8 aabd b8ba 79bd
00000370: c674 68bd e5e8 973d 756a 883d 53a5 003e
00000380: ca50 c13c f2ca 54bc 8554 e7bc 4c4d af3d
00000390: 25af af3d 7499 b3bc a788 5d3c a29a 70bd
000003a0: 0a51 0fbd 46cf 4c3d 65c1 dfbc 1d67 a7bd
000003b0: f562 0fbe ad30 0fbd 3a26 9abd 8d29 993d
000003c0: 86d0 403d e761 61bd 22e8 9dbd eea6 193e
000003d0: e7ce 403d c7c3 ac3d 955b 39bd be87 e23d
000003e0: 6444 30bd 5921 c2bd 4e52 b53d c500 30be
000003f0: 7904 adbc baf7 08be 523c 86bd cc52 92bb

encoder.convs.1.node_mlp.bias f4 [128]
-0.033261094 0.017991202 0.014042069 0.036983058 0.01354398 -0.008936048 0.021083212 -0.022993725
0.049934972 -0.0016123314 0.009183372 -0.027247828 0.039004616 -0.07204848 0.037216023 -0.012665962
0.06651043 0.019184941 -0.010494437 0.0055419933 -0.061956074 0.042756293 -0.06920896 0.033122994
-0.046356246 -0.019330012 -0.0066029863 0.08734324 -0.030132487 -0.0071143056 -0.039553054 -0.029862441
-0.01715261 0.011896625 0.07412967 -0.0007976409 -0.03031577 0.046184685 0.05117689 0.091939196
-0.0037120641 -0.029593216 0.0539499 0.012976187 -0.03860946 0.06361387 0.036519494 0.06049609
0.001424907 -0.062273167 0.042850405 0.0061148657 0.05081573 0.009903126 0.005143711 0.012671928
0.09420576 0.06528098 0.083556436 0.026894744 0.049309656 -0.035527542 0.009375818 -0.012451591
-0.046704542 -0.021533899 -0.007614751 0.062208418 -0.0867009 -0.015047284 -0.050818156 -0.020819638
-0.035770796 0.05999518 0.01410125 -0.005784659 0.03517068 -0.028172001 -0.0217036 -0.054169867
0.05727884 0.05442785 0.020856842 0.060024023 0.0052310224 -0.046865765 0.036673438 0.024850428
-0.04891371 0.009784309 -0.0005360193 0.020068744 -0.04620171 0.033212516 -0.016082479 0.019409208
-0.01310737 -0.0022228577 0.10330719 -0.07708738 -0.027563952 0.07951888 -0.010321011 -0.013179587
-0.011676704 0.051425226 -0.05296473 0.02918547 -0.07211773 -0.027120965 0.027367689 -0.044105493
-0.031074414 -0.016399827 0.019626299 0.03347568 0.055706326 -0.03452146 0.032940317 0.05187659
-0.07197106 -0.07534791 -0.061620377 0.06332445 0.036179617 -0.0834004 -0.00021702657 0.024299309
00000000: c93c 08bd 4962 933c b510 663c 8c7b 173d
00000010: 92e7 5d3c 8068 12bc b3b6 ac3c 565d bcbc
00000020: 9d88 4c3d dd54 d3ba db75 163c d636 dfbc
00000030: 4ec3 1f3d 278e 93bd d46f 183d e584 4fbc
00000040: 9f36 883d bd29 9d3c dcf0 2bbc 9c99 b53b
00000050: a7c5 7dbd 3921 2f3d 6dbd 8dbd faab 073d
00000060: 0ce0 3dbd f959 9ebc dd5d d8bb 03e1 b23d
00000070: 68d8 f6bc 1f1f e9bb 6202 22bd 14a2 f4bc
00000080: a183 8cbc 10ea 423c 4cd1 973d c618 51ba
00000090: c758 f8bc 272c 3d3d dc9e 513d 9e4a bc3d
000000a0: 1a46 73bb 796d f2bc 92fa 5c3d 139a 543c
000000b0: f424 1ebd fd47 823d 7795 153d c0ca 773d
000000c0: f2c3 ba3a 2612 7fbd e883 2f3d 365f c83b
000000d0: 2824 503d b940 223c 938c a83b eb9d 4f3c
000000e0: f3ee c03d 09b2 853d a31f ab3d 5e52 dc3c
000000f0: ecf8 493d 5485 11bd 089d 193c c201 4cbc
00000100: 434d 3fbd dc67 b0bc 2985 f9bb 41ce 7e3d
00000110: 3e90 b1bd e288 76bc b326 50bd f28d aabc
00000120: 6684 12bd 82bd 753d ee08 673c 3d8d bdbb
00000130: 220f 103d f8c8 e6bc c0cb b1bc 39e1 5dbd
00000140: 389d 6a3d bdef 5e3d f8db aa3c c0db 753d
00000150: ff68 ab3b 51f6 3fbd e336 163d 2093 cb3c
00000160: be59 48bd 5e4e 203c a583 0cba 3567 a43c
00000170: 013e 3dbd d909 083d 67bf 83bc 0f00 9f3c
00000180: 4bc0 56bc 5dad 11bb b892 d33d fddf 9dbd
00000190: cccd e1bc cbda a23d 7519 29bc 32ef 57bc
000001a0: a54f 3fbc 42a3 523d 8bf1 58bd 5e16 ef3c
000001b0: 76b2 93bd c92c debc 3432 e03c f6a7 34bd
000001c0: c58f febc ee58 86bc 55c7 a03c cb1d 093d
000001d0: 512c 643d 6066 0dbd 6dec 063d 8c7c 543d
000001e0: 9065 93bd 0150 9abd a665 7cbd 40b0 813d
000001f0: 1431 143d d4cd aabd a091 63b9 580f c73c
