checkpoints/model_C_epoch_29.pth (torch, 552117 bytes, 26 tensors)

encoder.node_embedding.weight f4 [1, 128]
000000 00 ce eb 3f 0e e4 b9 3f f6 72 5c 3f 9f d8 01 c0
       1.8422241 1.4522722 0.86112916 -2.0288465
000010 dc 0a 22 3f e4 c4 98 bf 96 df a3 bc d7 3c c6 bf
       0.6329782 -1.1935086 -0.020004075 -1.5487317
000020 8b c8 39 bf 22 ec ca 3f 86 cb b7 be f0 d6 ae bf
       -0.7257163 1.5853312 -0.35897464 -1.3659344
000030 f1 24 2e bf 9c b5 09 bf 0e e4 3c bf 97 c8 38 3f
       -0.6802512 -0.5379274 -0.73785484 0.72181076
000040 07 17 cb 3f 2b 6c 13 be fa 54 ee be b1 71 cf 3e
       1.5866402 -0.14396732 -0.46549207 0.40516427
000050 57 79 38 bf 1a 51 84 3f 19 ad 41 3f 13 cb d0 3f
       -0.7206015 1.033725 0.7565475 1.6311973
000060 4a c6 9c 3f d9 7e a1 3f 0f fa 13 3f b0 4f a3 3f
       1.2248013 1.2616836 0.57803434 1.2758694
000070 ee 7d 50 be 1d c9 0a 3d 9f c3 66 be 39 8b 51 3f
       -0.20360538 0.033883203 -0.22535561 0.8185306
000080 41 4b aa bf c4 2e 54 bf d8 02 28 be 84 66 d0 3f
       -1.3304216 -0.8288386 -0.16407335 1.6281285
000090 e7 f7 97 3e c6 ea cb be f7 63 94 3e 9e 2b 38 bf
       0.29681322 -0.39827555 0.28982517 -0.71941555
0000a0 50 c9 bf bf 5e ea 73 3f fa 54 59 bf db 52 0d bf
       -1.4983311 0.9527949 -0.8489529 -0.5520455
0000b0 99 46 9c bf 6f 17 03 40 b7 57 97 bf c9 54 e7 be
       -1.2209045 2.0483053 -1.1823643 -0.45181873
0000c0 7b 9f 61 bf 66 fc 1f bf eb da 49 3d a1 c4 ee 3e
       -0.8813397 -0.62494504 0.049281042 0.4663439
0000d0 3d 3d f0 be 74 1f 92 3f 47 76 44 bf 94 76 33 bf
       -0.4692172 1.1415849 -0.76742977 -0.7010281
0000e0 47 8b ac bf 50 08 a6 3b ff 58 5c bd 52 f3 23 3f
       -1.3480004 0.005066909 -0.05379581 0.6404315
0000f0 b7 82 89 bd 3b 43 e5 3f 39 5b 93 bf 8a 1f a9 3f
       -0.06714385 1.7911142 -1.1512214 1.321275
000100 e6 38 b3 3f d4 dd 4f 3f 84 7b 09 40 8a 94 f9 3e
       1.4001739 0.8119786 2.1481638 0.4874614
000110 1f 34 a8 3e 59 72 39 be 7e c0 81 bf b9 5e 9d 3f
       0.32852265 -0.18110026 -1.0136869 1.2294532
000120 f2 54 0d be 30 d9 01 3f ad a2 e5 3c c9 51 c6 3e
       -0.13801935 0.50722027 0.028031671 0.38734272
000130 3c 54 06 3f 93 d6 1c bf ee cf 08 c0 c8 1f 33 bf
       0.5247228 -0.61264914 -2.137691 -0.6997037
000140 b0 6b 31 ba 13 10 9d be ad 11 a4 bf 53 d4 10 bf
       -0.0006768061 -0.30676326 -1.2817894 -0.5657398
000150 ce db 02 3f 43 46 02 3f 44 2c 8a 3f b2 dd af 3c
       0.51116645 0.5088846 1.0794759 0.021468017
000160 c6 f3 3b 3f b6 e3 dd be 1d 1d 7c bf 1a 70 13 3f
       0.73418844 -0.43337792 -0.98481923 0.5759293
000170 3e 30 d4 bf 14 45 4a bf e6 1b a2 3f 4e 51 e0 3e
       -1.6577222 -0.79011655 1.2664764 0.4381203
000180 e5 14 1b c0 93 0f e8 3e be f1 41 3f bf 42 2a 3b
       -2.4231503 0.45324382 0.75759494 0.0025979725
000190 14 2f 19 3f 3d d4 09 3f 2e 06 81 3f e8 ed d4 be
       0.5983746 0.53839475 1.0080011 -0.41587758
0001a0 19 c0 1c be e7 ac 36 3f 56 d1 b6 3e 91 c1 30 3e
       -0.15307654 0.7135758 0.35706586 0.1726134
0001b0 c3 0d 78 3e 0f 9d 98 3f 89 e0 37 3a 73 4d 94 be
       0.24224 1.192293 0.00070143543 -0.2896534
0001c0 1b 61 b2 bf 32 dd a9 bd 6f 3c 12 bf ce b7 e7 3e
       -1.3935884 -0.08294143 -0.57123464 0.4525742
0001d0 6e 93 36 3f aa d4 a5 3d 44 e0 bd be aa a8 ff 3e
       0.7131871 0.08097203 -0.37085164 0.49933368
0001e0 3d bd e7 bb a7 54 66 3e f6 27 e9 3d f5 bd 3c 3f
       -0.0070721195 0.2249323 0.11384575 0.7372735
0001f0 40 bb 87 3f 2c 34 9e 3e 97 d7 2d 3f e2 a3 ca 3e
       1.0604019 0.3089918 0.6790709 0.39578158

encoder.convs.0.node_mlp.weight f4 [128, 256]
000000 6d 44 52 3d 58 04 3e bc 28 ae 57 3d f5 8e 97 3c
       0.051334787 -0.011597715 0.052656323 0.018500784
000010 b9 4e 50 bd 26 25 2a 3d 24 49 8d bc b0 2e c2 bc
       -0.050856326 0.041539334 -0.01724679 -0.023703903
000020 e9 54 50 bd c7 63 75 bd 3f 29 8a 3c 66 4b 60 bc
       -0.050862227 -0.05990961 0.01686537 -0.013689851
000030 f4 bc bd 3c e5 d1 4d bd 33 b3 36 3d a3 49 34 bd
       0.023161389 -0.050249 0.04460449 -0.044015538
000040 9b 9b 24 bc f8 32 46 3c 0c f0 fb 3c 7d 86 4a 3d
       -0.010046865 0.012097113 0.030754112 0.049444664
000050 99 77 60 3d 94 17 43 bd 23 d4 80 3c 6b 47 d2 bc
       0.054801557 -0.047629908 0.015726155 -0.02566882
000060 a7 14 cb bb 8c 59 38 bd 45 ae 64 3d 9e 92 34 bd
       -0.0061975303 -0.045007274 0.05583026 -0.044085138
000070 27 48 02 3d f2 34 b4 3c c3 e0 9c 3c d4 a8 04 bd
       0.03180709 0.021997903 0.019150143 -0.03238757
000080 16 1a 60 3d 9f 6b 52 3c c7 64 eb 3b 13 5c 59 bd
       0.054712377 0.012843042 0.0071836445 -0.053066324
000090 63 42 d5 3c ca 02 1e bc 0d f3 df bc e6 89 53 3d
       0.026032632 -0.00964422 -0.027337575 0.051645182
0000a0 b0 38 56 3c d5 7f 07 bd 41 88 ff bc 83 2e 60 bb
       0.013075039 -0.033080895 -0.0311929 -0.003420741
0000b0 b8 f8 08 3d d5 01 77 bc 92 bc 0f bd 6f c2 ae bc
       0.03344032 -0.01507612 -0.035091944 -0.021332948
0000c0 8d c3 3b bd d8 0a ad 3c d9 d6 44 3d 0b 1f 68 bd
       -0.04584079 0.021123335 0.048056457 -0.05667023
0000d0 09 37 5e 3c 2b 30 02 3d a1 55 2c 3c 3f ed b4 bc
       0.013562926 0.031784218 0.010518462 -0.022085784
0000e0 a1 03 00 3d b9 41 0f 3d 56 ac b0 3c 08 1f 26 bc
       0.03125346 0.034974787 0.021566551 -0.010139234
0000f0 34 0f 8d bc 9b 52 e3 3b 88 16 37 bc ff 4f 90 bc
       -0.017219163 0.0069373376 -0.011174805 -0.01761627
000100 53 be 20 3d 18 8d 57 3d b9 8e b6 bb 98 6e 55 bc
       0.039244007 0.05262479 -0.005571213 -0.013026856
000110 90 78 cb 3a 28 2f 8e bb d4 62 67 3c 54 00 8f 3c
       0.0015523601 -0.0043391176 0.014122684 0.017456211
000120 ab d3 64 bd 6a 08 b3 bc 1b 63 55 3d d7 da c5 3c
       -0.055865925 -0.021854598 0.052096467 0.024152203
000130 e9 07 25 bb 16 c5 17 bd c8 ee 19 bd ba 5e 60 bd
       -0.0025181717 -0.03705319 -0.037581235 -0.05477784
000140 af a0 11 ba b9 92 a3 3c 19 ac 1c 3d e6 37 e1 3c
       -0.0005555255 0.019967424 0.038250063 0.027492475
000150 2f 9c 59 bd 5c 4f 13 bd 7d 4f 15 bc 14 4d 72 3d
       -0.053127464 -0.035964355 -0.00911319 0.05915554
000160 71 7f 17 3c 95 ef 84 bc ba fc c9 3c 07 30 b9 bc
       0.009246693 -0.016227523 0.024656642 -0.022605909
000170 d3 ab 22 bd b2 9d 33 3d 80 50 de bc 0a a0 3e bc
       -0.039714646 0.04385156 -0.027137995 -0.011634836
000180 da ec 78 bd 1b 83 28 3d 10 3b 3e 3d 1a c7 ca 3c
       -0.060772754 0.041140657 0.046443045 0.024753142
000190 5b 8c 2b bd dc 6d 73 bd 56 48 48 bd 1b 25 37 3d
       -0.0418819 -0.059430942 -0.04889711 0.04471312
0001a0 65 3f ea 3c 8a 1f 53 3d 93 6b 04 3d 5f 61 82 3c
       0.028594682 0.05154375 0.032329153 0.01591557
0001b0 14 07 29 b7 f0 21 3b bd 64 53 9a bd c4 05 6b bd
       -1.0074833e-05 -0.045686662 -0.07535437 -0.057378545
0001c0 97 d1 c7 3c 59 8b f9 bc 3b 2c 4f bc b1 f5 0c bd
       0.024391932 -0.030461954 -0.012644823 -0.034413997
0001d0 58 b0 2c bc a0 ed 2a bd 62 da 24 bd 5a c3 a8 3c
       -0.0105400905 -0.041730523 -0.04024733 0.020600963
0001e0 cc 84 ab bc 33 cf 1b 3d 25 07 99 bc cd 40 34 bd
       -0.020937346 0.038039397 -0.018680165 -0.04400711
0001f0 a7 bf 27 bc c7 21 ec bc 79 19 94 bc 85 72 6a bd
       -0.010238565 -0.0288247 -0.018078553 -0.05723812
000200 0d ef 83 3d 7d df 98 bd e9 a7 43 3d ff d2 af 3d
       0.0644208 -0.07464502 0.047767553 0.08585166
000210 84 fe 90 bc 44 90 4e bd bc ca 1a bb f6 cd 9d bd
       -0.017699488 -0.05043055 -0.0023619374 -0.077052996
000220 07 91 90 3d d4 d5 ea 3d 83 36 1b 3d 7f 73 00 3d
       0.07058912 0.11466566 0.037893783 0.031360146
000230 0b 6b 49 bd f8 5b 18 bd 4a 9f 80 3b 8a 36 59 bd
       -0.04917435 -0.037197083 0.0039252387 -0.053030528
000240 99 2d 80 3d 17 6a 8b 3d 1d 86 9e 3d 6e 0b 01 bd
       0.06258697 0.068073444 0.07740424 -0.03150504
000250 28 38 39 bd b6 97 11 bd 28 79 8a 3d 55 2c 8e bd
       -0.04521957 -0.035545073 0.0676139 -0.069420494
000260 bc 0a 27 bc 0f cc 9b bd d0 ea 89 bd 49 7b df bc
       -0.01019543 -0.076072805 -0.0673424 -0.027280467
000270 fa 07 c2 3a b1 ed b1 ba 24 4b 46 bd f0 9a 3c 3d
       0.0014803403 -0.0013574866 -0.048411503 0.046046197
000280 98 43 ac 3b a4 64 ab b9 cf 9f 30 3c 61 e0 80 bd
       0.0052570812 -0.00032690645 0.010780289 -0.06292797
000290 3f 18 d0 bd e5 1c 48 3b 4b 48 db 3c b9 68 81 bd
       -0.101608746 0.00305348 0.02676787 -0.063188024
0002a0 b5 97 d0 bd ce b0 0a bd 87 8d 17 3d 9f 85 d8 3c
       -0.10185186 -0.03386002 0.037000205 0.026430903
0002b0 04 67 4c 3d 23 15 88 bc 02 ce 9b bc d9 32 d7 3c
       0.04990293 -0.016611641 -0.01901913 0.026269363
0002c0 d9 ea ad bd 3c 12 d5 ba fe a6 1b 3c ac 3e 94 3c
       -0.08492059 -0.0016256045 0.009500263 0.01809629
0002d0 46 d9 31 3d c6 f0 cf bc a7 c9 8c 3d 71 e6 df 3c
       0.0434201 -0.025383364 0.068744 0.027331563
0002e0 de 50 46 bd 5e b1 0d bc 72 ab 8c 3d cc 80 10 3d
       -0.048416965 -0.008648245 0.06868638 0.03527908
0002f0 be 58 2e 3d bb d7 a4 3d 57 5c 0e bd 2a b8 4c bd
       0.0425651 0.0804896 -0.03475603 -0.04998032
000300 98 c9 43 bd fa 40 84 bd 78 ae 88 3d cf 55 96 3d
       -0.047799677 -0.06457706 0.06673902 0.073405854
000310 af eb 5b 3c 1a 96 b4 bd 59 e2 c1 bb ab a8 67 bd
       0.013422891 -0.08817692 -0.0059168753 -0.05655734
000320 e5 d5 88 bd cb 99 9d 3c 56 91 bf 3d 3c 65 26 bb
       -0.06681422 0.019238373 0.093538925 -0.002538993
000330 34 6f d2 bd 55 39 b0 3c fa f0 66 3d 70 e5 bf bd
       -0.102751166 0.021511713 0.056382157 -0.093699336
000340 fc 51 49 bd e6 4c ab bc bd 5f ad bc 94 53 43 3d
       -0.049150452 -0.020910691 -0.021163816 0.04768713
000350 59 6b dc 3c 4b 22 74 bb 11 b1 2a bd 43 3b 10 bd
       0.026906656 -0.0037251886 -0.04167277 -0.035212766
000360 c0 53 b3 bd 0a 8c 77 bd 6b e2 93 bc ba 10 51 bd
       -0.087562084 -0.060436286 -0.0180523 -0.051041342
000370 91 61 38 bd bb 42 07 3d e8 c2 89 3b bb fe c7 3d
       -0.04501492 0.033022624 0.004204143 0.09765383
000380 59 ad 7b 3d 37 cb 8d 3c f3 fc 00 be f6 55 d3 bc
       0.061444614 0.017308814 -0.12596492 -0.025797825
000390 29 1d 2d 3d ed 1a 49 3b 53 46 cc bc 67 71 96 3d
       0.042264137 0.0030686215 -0.024935877 0.073458485
0003a0 3d 91 cc bd 55 2c 9e bd 36 51 96 bd 1a 4c 2f 3d
       -0.099886395 -0.077232994 -0.073397085 0.042797185
0003b0 fd 9d 20 bc d9 ea b1 bc b2 f3 29 bd aa aa 05 bd
       -0.009803292 -0.02171843 -0.04149217 -0.03263346
0003c0 f8 4b a7 bd c7 24 b5 ba 31 89 80 3d d8 31 06 3d
       -0.08168787 -0.0013820165 0.06276167 0.03276238
0003d0 62 ec be bd 93 e3 6c bd a0 22 fb bc 75 cf d9 38
       -0.0932243 -0.05783422 -0.030656159 0.00010386008
0003e0 59 a5 29 3d 9a d3 3f bc a2 44 bc 3c a5 c5 3a bd
       0.041417453 -0.011708165 0.022981945 -0.045598645
0003f0 8a a6 42 3c 2d de f5 bc 79 90 7a 3c 61 5e a9 3d
       0.011880526 -0.030013168 0.015293234 0.082699545

encoder.convs.0.node_mlp.bias f4 [128]
000000 dc 7e 41 bd f7 f7 82 3c b0 b4 06 3b b7 0f 5d 3d
       -0.047240123 0.01598738 0.0020554475 0.053970065
000010 e7 f6 99 3c a2 91 83 bc 36 e2 6d 3c bb 39 11 bd
       0.01879449 -0.016060654 0.014519265 -0.035455447
000020 28 86 fd 3a 85 ef ac 3b 04 02 82 3d e6 b2 50 3d
       0.001934235 0.0052775764 0.06348041 0.05095186
000030 51 c5 26 bd fc 0e 84 3d e4 c6 40 bd 1b bc 83 3c
       -0.04071552 0.064481705 -0.047064677 0.016080907
000040 6f f2 9d 3c 53 3a a0 3c 15 bc 13 3d 3d 0c 30 bc
       0.01928064 0.019559061 0.03606804 -0.010745105
000050 56 9e 57 3d 8e 8c 1f 3c 13 a9 19 3c 96 9b ca bc
       0.052641235 0.009738101 0.009378689 -0.024732392
000060 86 78 39 bd bf ba 95 bc 9c 2a 3b 3b 8d e7 a9 38
       -0.045280956 -0.018277524 0.0028559333 8.101678e-05
000070 2b 56 8d bc 2b 25 c6 3b 06 36 4d 3c f3 02 fb bc
       -0.017253002 0.0060469112 0.012525087 -0.030641055
000080 a6 02 34 3c a0 c1 67 bd 18 fb 1e 3b bd 38 3d 3d
       0.01098696 -0.05658114 0.002425855 0.046196688
000090 bb 30 de bc 1f 8d 1e 3d f3 21 d1 bc e0 6d bd bc
       -0.027122846 0.038708802 -0.025528884 -0.023123682
0000a0 6d c6 d8 3c e8 07 4e bd 5b b0 0a 3d 3c 5f 10 3d
       0.026461804 -0.05030051 0.033859592 0.035247073
0000b0 57 77 e0 3b 78 a3 55 bc 6d b7 cb bc db b5 3e bd
       0.006850164 -0.013039462 -0.024867738 -0.04656015
0000c0 eb 46 5a 3d 7c a8 06 3d 9f 6c 16 3d 8b da 0c bd
       0.05329029 0.032875523 0.036724683 -0.034388106
0000d0 1b aa d1 3c b5 25 f7 bc a1 2b 0a 3d 05 78 2f 3d
       0.025593808 -0.030169347 0.033733014 0.04283907
0000e0 8c 1d 77 bd 05 09 51 bd f2 99 8d bd 37 c0 dc bc
       -0.060330912 -0.051033992 -0.06914128 -0.026947124
0000f0 d8 de fe 3b 26 31 2c bd ee c4 12 3d 63 a4 12 bd
       0.00777803 -0.04203906 0.035832338 -0.035801303
000100 6e fd 51 bc 1f 0d 0a 3c 95 25 40 bd 64 7c fb ba
       -0.01281677 0.00842598 -0.04691084 -0.0019186852
000110 5f 5e 5d bd 5b 12 a2 bd 0b fa 8f 3c 90 b5 01 bd
       -0.054045077 -0.07913657 0.017575284 -0.031667292
000120 48 01 fa 3c e0 66 08 bd ab 84 38 3d 18 7f 56 3d
       0.03051819 -0.033301234 0.045048397 0.0523673
000130 40 14 ec bc 90 01 20 bc 89 71 eb 3c eb c1 96 bc
       -0.02881825 -0.0097659975 0.028740661 -0.018403014
000140 88 94 48 3c bb 34 05 bc 48 b5 5c b9 8d cb 26 bd
       0.012242444 -0.008130248 -0.00021048367 -0.040721465
000150 0b 4a 59 3d 33 ef 76 bd 59 45 88 bc 10 3d 1a 3d
       0.05304913 -0.060286712 -0.01663463 0.03765589
000160 7c c7 1c bd 43 c9 50 bb 5c 5d 6f 3d aa 8f 8c 3c
       -0.03827618 -0.0031858243 0.058438644 0.017158348
000170 89 d5 14 3d 0b 9a 36 bd 08 6d ef 3c 45 07 ad bb
       0.036336455 -0.0445805 0.029226795 -0.0052804076
000180 6c 80 10 3b 86 7b b8 bc c9 70 15 bc 01 30 1c 3d
       0.0022049202 -0.022519838 -0.009121128 0.038131718
000190 65 5a 3c 3d 41 9c 6c bd 4d 40 13 3d 93 c7 66 3d
       0.045984644 -0.057766203 0.035949994 0.056342673
0001a0 45 bf 13 bb 66 b3 8e 3b 7b 53 be 3c f8 bc 86 bd
       -0.0022544425 0.004354882 0.023233166 -0.06579012
0001b0 3a f4 d7 3b 96 43 31 3d 2a 2c 5d bc 58 4b d3 bc
       0.0065903934 0.043277346 -0.013499299 -0.025792763
0001c0 9e c1 ff bc 8d e0 a1 3c 84 2a 61 bc 0b be 80 bc
       -0.031220254 0.019760394 -0.013743047 -0.01571562
0001d0 b9 02 98 3c 5c 3d fa 3c 44 66 42 3d 30 05 28 3c
       0.018555986 0.030546837 0.04746081 0.010255143
0001e0 54 d5 93 bd 0f 18 2d 3d ad ec 22 3d 7f 1b 56 3c
       -0.072184235 0.042259272 0.039776493 0.013068079
0001f0 6b 1b 99 bc 24 88 07 bc 6f 39 06 3d a5 dc 28 3d
       -0.018689832 -0.008272205 0.032769617 0.041226048

encoder.convs.0.edge_mlp.0.weight f4 [128, 7]
000000 d1 7f d8 be e9 46 a8 3c ef 24 d8 3d 28 6a a9 3d
       -0.42285016 0.020541625 0.105539195 0.08272201
000010 c2 31 f5 bd b5 15 24 bd 0a 31 cf be e7 ed cb bd
       -0.11972381 -0.040059764 -0.404671 -0.09957486
000020 40 d6 2b be ef 2c b7 3e 74 a3 01 3e 15 13 d5 3d
       -0.16780949 0.3577647 0.12660009 0.1040403
000030 45 a2 76 be 37 2f 30 be c5 7c 98 3d 70 c9 b3 3c
       -0.24085338 -0.17205511 0.07445673 0.021946639
000040 25 23 fa 3d c5 ad db 3d ef 89 90 3d 96 9d 8e be
       0.122137345 0.10726503 0.07057559 -0.27854604
000050 23 9d d3 3e 03 dd c9 bd 88 92 2d bd 62 81 9c be
       0.41330823 -0.09856608 -0.04237607 -0.3056746
000060 c6 0d b5 3e b5 db 15 be 37 f9 7c 3e 8e 01 22 3e
       0.3536207 -0.14634593 0.24704443 0.15820906
000070 cb f0 28 bc 35 9e 9a bc 0e 49 ad be 94 32 93 be
       -0.010311316 -0.018874267 -0.338448 -0.28749526
000080 2a 48 90 3e cd 90 65 3e de 5f 94 be 93 ca 01 be
       0.28180057 0.22418518 -0.2897939 -0.12674932
000090 27 97 05 bf 57 e1 b9 be 35 6f 8f 3d 04 3e a1 bd
       -0.52183765 -0.36304733 0.07003633 -0.07873157
0000a0 5a c8 c0 3e 30 cb 8a 3e e5 c4 75 be f9 d6 bf 3e
       0.37652856 0.27108145 -0.2400089 0.374687
0000b0 bd 69 88 3e e1 80 b1 3e 36 ae 92 bd 0f 60 ff bb
       0.26643172 0.3466864 -0.07162134 -0.0077934335
0000c0 ea 97 5e be 52 e7 77 be 76 c0 e9 3e 63 f5 b9 3e
       -0.21737638 -0.24209335 0.4565465 0.36320028
0000d0 ea e7 bc be d1 0f 3a 3e 3f 4a 32 be 5c 9f 99 be
       -0.36895686 0.18170096 -0.17411135 -0.30004394
0000e0 3b c0 87 3e c6 2b 1d 3d f6 d6 fe bd c1 fd b4 3e
       0.26513848 0.038371824 -0.12443344 0.3534985
0000f0 3d 6c 48 be 21 0c 8a 3e 04 65 66 3e 81 0d 5e be
       -0.1957254 0.2696238 0.22499472 -0.21684839
000100 27 e2 d5 bb 82 d4 0c be 01 b4 ca bd 03 57 a2 3e
       -0.0065272036 -0.1375294 -0.09897614 0.3170701
000110 5c 69 c0 3e 93 2a 57 be 2e f7 ce 3e 2e 65 7f be
       0.37580383 -0.21012335 0.40422958 -0.2494094
000120 a9 b9 43 3e 6d b9 83 be 5c 56 a9 bc b9 db 8e be
       0.19113792 -0.25727406 -0.020671062 -0.2790201
000130 d1 83 9a 3e 4e 3d 04 be 30 93 0d bf 15 f0 82 be
       0.30178693 -0.12914011 -0.55302715 -0.25573793
000140 36 04 72 3e ae 25 1a 3e e6 d9 4c 3e 98 35 a6 3e
       0.23634419 0.15053436 0.20004997 0.32462764
000150 1c 66 d0 bd 27 3d 33 3e 25 26 b1 be 7a c3 b3 be
       -0.10175726 0.17503797 -0.34599414 -0.35110074
000160 ac 2e 2a 3e 50 cc a3 be 0d c1 e7 3d 6a 7b 28 3e
       0.16619366 -0.31991816 0.113161184 0.16453329
000170 73 ca ca 3e 5d 32 9e 3e fc 25 fd 3d 04 2d 2d 3c
       0.39607581 0.308978 0.123607606 0.010569815
000180 d5 21 91 be 1d dd c5 bd c6 9c 22 be e6 1e 0e 3e
       -0.28346124 -0.09661315 -0.15880117 0.13878974
000190 fd 0a 5b be fd 32 e1 bc b2 78 c2 3a 47 eb 04 3d
       -0.2139091 -0.027490133 0.0014836995 0.03245094
0001a0 f1 20 aa be 5d 21 8a 3e c9 54 15 3e 71 29 c4 3e
       -0.33228257 0.2697858 0.14583124 0.38312867
0001b0 8c df 56 be 4a e7 84 3d d4 41 1a 3e b4 e8 98 3e
       -0.20983714 0.064894274 0.15064174 0.29865038
0001c0 39 c8 98 be e2 ae ee bd b1 4e 32 3d c3 b9 71 be
       -0.29840258 -0.1165445 0.043532077 -0.23606019
0001d0 ce 72 d6 be 21 e0 ae 3d d9 3f 87 3e 84 5c c6 be
       -0.41884464 0.08538843 0.264159 -0.3874246
0001e0 f9 80 be bd 07 c1 d0 be ca 7b de 3c f5 f2 11 3e
       -0.09301943 -0.40772268 0.027158637 0.14252837
0001f0 5c f8 ac be 71 cc 19 3e 0a 9a c9 bd 2d 3c 43 be
       -0.33783233 0.15019394 -0.09843834 -0.19065924
000200 5e d3 a3 be 76 f9 87 bc 1b 55 51 3e 2e 1c 28 be
       -0.31997198 -0.016598444 0.20442621 -0.16417
000210 92 18 b6 bd c8 6c 90 be f0 d4 29 bd ef 3c b7 3e
       -0.08891405 -0.28207994 -0.04146284 0.35788676
000220 a2 17 6b 3e 4d 26 55 be 09 e5 b3 3e 78 45 e4 3d
       0.22958234 -0.20815392 0.35135677 0.111460626
000230 e0 df 05 3e 56 06 b2 be b3 d0 20 be a9 80 a2 3e
       0.13073683 -0.3477046 -0.15704612 0.31738785
000240 d0 ed 68 3e 8d 46 6e 3e b9 3a 41 be de 6f 2b be
       0.22746968 0.232691 -0.18870057 -0.16741893
000250 56 f0 02 3e 3a a8 4a 3e ad 96 3f be bb 06 1a be
       0.12786993 0.19790736 -0.18709822 -0.1504163
000260 a1 82 b3 be 74 67 c1 be a8 c0 2a be 95 01 29 3e
       -0.350606 -0.3777424 -0.16675055 0.1650451
000270 b8 68 54 be a7 e3 0d 3e 27 00 8e be 7b 00 b4 bc
       -0.20743072 0.13856374 -0.2773449 -0.021972885
000280 c6 25 5e be 63 7a 94 be c4 59 16 3e 12 dd ba 3d
       -0.21694097 -0.28999624 0.1468268 0.09124197
000290 57 f5 9e 3e 07 43 7f 3d 02 05 dc bb f7 38 a3 3e
       0.31046554 0.06231978 -0.006714464 0.31879398
0002a0 83 14 a5 be 18 af 2d 3e d1 d3 7c 3b 3e 80 9f 3c
       -0.32242212 0.16961324 0.00385784 0.01947033
0002b0 56 c9 79 be ae e0 1e bc e0 3d 81 be e2 cc 90 3e
       -0.2439321 -0.0096971225 -0.2524252 0.28281313
0002c0 37 9b f2 bd 08 81 0b bd 95 e0 b3 3e 05 7a 35 bc
       -0.11846011 -0.0340586 0.3513228 -0.011076455
0002d0 29 b0 a5 be 79 71 c0 3d 10 23 20 3e 1f c1 c6 bd
       -0.32360962 0.09396643 0.15638375 -0.09704804
0002e0 bf 9e b1 be 79 bf 91 be 3d 53 fd bd ac 7d e9 3c
       -0.34691426 -0.28466395 -0.12369392 0.028502308
0002f0 02 27 d5 be bd 47 8f be 6f f5 0c bd c9 d4 c0 be
       -0.41631323 -0.2798442 -0.03441375 -0.37662342
000300 e6 2a fb bb a9 86 fd 3d f6 8d c0 3e 31 32 d1 bb
       -0.007665026 0.123792 0.37608308 -0.006384157
000310 d4 79 d8 3c 31 59 6c 3e 6a f1 25 3b 36 10 bc 3e
       0.02642528 0.23080899 0.0025320896 0.36731118
000320 d6 8c 4b bd 01 d6 c7 3e 89 98 93 be 34 1b 96 3e
       -0.04969486 0.3903046 -0.28827313 0.2931763
000330 84 31 08 bd 19 62 9b bd 0d 98 b9 3e 6f db 66 3e
       -0.033250347 -0.0758707 0.36248818 0.22544645
000340 c6 34 aa 3d be 64 9a bd ac 7d c3 3e d2 53 35 bd
       0.08310847 -0.07538746 0.38181818 -0.04426939
000350 dc 35 1d 3e 6b f9 b3 bb 46 67 ce bd 09 6e 0a be
       0.15352577 -0.0054923794 -0.100782916 -0.13518538
000360 67 41 47 3e a0 1b 09 3e a1 d1 14 3e 4e e2 8e 3d
       0.19458543 0.13389444 0.14533092 0.06976758
000370 13 0a 11 be a9 4f 06 bd 80 ee 6e be 58 1a 0e 3c
       -0.14164 -0.032790814 -0.23333168 0.008673273
000380 7b 3e 31 3e f1 fc 00 bf 6a ea 98 3e 0b 4a 20 be
       0.1730899 -0.5038596 0.29866344 -0.15653245
000390 70 0d 9b 3e 34 c9 a6 3e 35 8e 1e 3e b7 89 c2 3e
       0.3028369 0.3257538 0.15483935 0.37995693
0003a0 4a 4b 88 be 38 d9 b7 be 93 a0 1d 3d 63 3b 0a be
       -0.2661994 -0.35907912 0.038483214 -0.13499217
0003b0 a9 74 41 be 2c 27 5a bd 35 ec 81 be 01 bb 9e bd
       -0.18892159 -0.053260013 -0.25375524 -0.07750512
0003c0 81 33 5b be 71 98 e5 3d 64 95 64 3d cf e7 81 be
       -0.21406366 0.112107165 0.055806533 -0.25372168
0003d0 b0 e2 0d be bc 03 1c bb 0b e1 b9 3e f4 4b c0 3e
       -0.13856006 -0.0023805937 0.36304507 0.37557948
0003e0 2c ef 08 3e fd 29 82 3c ae f7 92 bc 9f 11 ad 3e
       0.13372487 0.015889162 -0.017940369 0.33802506
0003f0 79 ca 92 be 1f 41 4d be 63 88 1b 3e f3 c2 93 be
       -0.286701 -0.20044373 0.15188746 -0.28859672

encoder.convs.0.edge_mlp.0.bias f4 [128]
000000 ef 8e e5 3d 5b 82 12 3e 0f 93 6d be d9 0a 59 3d
       0.11208903 0.14307539 -0.2320063 0.05298886
000010 b1 6e bc bc 5e df 70 3e 09 d2 a5 bc 35 8a 3f be
       -0.023002 0.23522708 -0.020241754 -0.18705066
000020 db da 4d 3e 99 22 f9 bd 41 0d 3e bd 7d ea 8f bd
       0.20103018 -0.12164802 -0.04639936 -0.07027147
000030 fc 5c 1f 3e 09 c3 7f bd 95 7d 33 3e d1 1a 44 be
       0.15562814 -0.06244186 0.17528374 -0.19150855
000040 32 a5 d2 3b 55 1f a7 3e 78 bf 50 be 59 c8 8b bd
       0.006428384 0.32641092 -0.2038554 -0.06825323
000050 ab 45 82 bd fa ff df 3d fb 75 fc bd 25 46 f0 3d
       -0.06360944 0.109374955 -0.123271905 0.11732129
000060 46 ed c3 bd 3e b2 06 3d dd f7 aa 3e c9 37 a5 3e
       -0.09566741 0.03288483 0.3339223 0.32269123
000070 f3 16 d2 bd fc 93 34 be 45 e9 61 be 58 71 6e bd
       -0.102582835 -0.17634577 -0.22061642 -0.05821356
000080 8f 8d 88 bc ed ec 08 3e be 4e e2 bd a1 e1 40 3e
       -0.016669063 0.1337163 -0.11050175 0.1883607
000090 01 65 d4 3c af d5 8f 3d 7a 0c b2 3e 11 7c 51 3d
       0.025927069 0.07023179 0.34775144 0.05114371
0000a0 ad 2f e3 3b 7f aa fa bd c0 55 88 3e e1 4a 9c be
       0.0069331736 -0.12239551 0.26627922 -0.30525878
0000b0 6c 9c 31 be 42 1b 7b 3d ea 9f 5b 3e e9 6d af be
       -0.17344826 0.061305292 0.21447721 -0.34263542
0000c0 4c 8b 1d bd 00 d3 b8 3d f8 32 98 3e 2c 4b 32 3e
       -0.038462922 0.0902462 0.29726386 0.17411488
0000d0 ad 49 94 3e 61 a7 ac bd 8b 56 ae be 1d 0d 9c 3d
       0.2896246 -0.084303625 -0.34050402 0.07619689
0000e0 49 6b 8b 3e 24 33 33 3d 85 5c 00 3e 9b ef a5 3e
       0.2723029 0.043749943 0.12535293 0.32409367
0000f0 f7 41 a2 be db 1f b8 3d 5c ec 0c 3e 96 cc 78 3d
       -0.31690952 0.08990451 0.13762039 0.060741983
000100 8e 3a b1 bd c0 21 0f be 1f 99 47 3e a6 45 85 3d
       -0.086537465 -0.13977718 0.19492005 0.06507425
000110 3a eb 0e 3e a4 34 cb 3c ae 9c 76 be c8 38 1f 3e
       0.1395692 0.024805374 -0.24083206 0.15549004
000120 f4 c9 28 be 3b 4e 66 be 64 43 02 be 79 1c 97 be
       -0.16483289 -0.2249078 -0.1272102 -0.2951391
000130 fd d1 8b be 9b bd 5d bc d7 cd 9f be 5b 54 74 3e
       -0.27308646 -0.013533975 -0.3121173 0.23860304
000140 82 02 8f be 3c 66 0a 3e b8 9c 1f 3e b3 e9 db bd
       -0.279316 0.13515562 0.15587127 -0.10737934
000150 21 12 44 3d ee d5 a9 3e ab d2 ae be aa fd b5 3a
       0.04786885 0.33171028 -0.34145102 0.0013884802
000160 f1 59 88 3e a4 04 af 3e 98 ab f0 3d b0 8a b1 3e
       0.2663112 0.34183228 0.11751479 0.34676123
000170 02 3c 26 be 3c 58 ad 3e 04 98 0a 3e 8a db 6f be
       -0.16233829 0.3385638 0.13534552 -0.23423591
000180 58 5e 5d 3e e4 88 8f 3e 17 cc 85 be 0a ea 3f 3e
       0.2161802 0.28034127 -0.2613227 0.18741623
000190 04 54 ed 3d 2d 9c 91 3e 5f d5 ad be df e8 2c 3e
       0.1158829 0.28439465 -0.33951852 0.16885708
0001a0 ab c6 a7 3e 9b 24 d8 bd d3 85 05 3e 2a eb 9f be
       0.3276876 -0.10553857 0.13039331 -0.31234103
0001b0 3c f6 75 3d 66 44 65 be 1c 2b 9d be f4 88 3a 3e
       0.06004928 -0.22389373 -0.30696952 0.18216306
0001c0 57 fd 4e 3e b9 35 46 3e 85 43 8b 3e 39 65 a6 bd
       0.20213829 0.19356431 0.2719995 -0.081247754
0001d0 b0 ee 86 be 16 14 61 3e eb 59 8b 3e d2 a3 87 be
       -0.2635398 0.21980318 0.2721704 -0.26492172
0001e0 03 ff 75 be 21 50 4d be 34 4a 52 be ff 57 72 3e
       -0.2402306 -0.20050098 -0.20536119 0.2366638
0001f0 7e 40 9d be 67 1a d8 3d e0 b1 8c 3d eb 64 7b be
       -0.30713266 0.10551911 0.068698645 -0.24550216

encoder.convs.0.edge_mlp.2.weight f4 [128, 128]
000000 22 71 9f bd db c8 07 3d 64 74 cf bd c4 2b c2 bc
       -0.0778525 0.033150535 -0.101296216 -0.02370251
000010 34 8a 2a 3d 97 ea 6f bd 4d 81 dc bc 91 05 10 bd
       0.041635707 -0.05857333 -0.026917124 -0.03516156
000020 43 e0 d0 bc 20 3a 14 bd 22 b0 8d bd a9 a2 dd 3d
       -0.025497561 -0.036188245 -0.0691836 0.108220406
000030 7f af 42 bd ab ba 2d 3c 38 b4 91 3c c3 3a a5 bd
       -0.047530647 0.010603587 0.01778613 -0.080678485
000040 95 4b a3 ba 09 d3 68 bd ff 8b 52 bd dd d0 91 3b
       -0.0012458438 -0.056841884 -0.051403042 0.0044499473
000050 ff c1 a0 3d b6 4a af 3c b8 c3 5a bd 3a 63 34 bd
       0.07849502 0.02139793 -0.05340931 -0.044039942
000060 b0 17 86 3d db fc ae 3d 3d 5f 7a bd 08 85 63 3d
       0.06547487 0.08544322 -0.061125983 0.05554679
000070 14 11 86 bd ba 0f a7 3c fe c7 18 3d 0b af c4 bd
       -0.06546226 0.020393241 0.037300102 -0.09603699
000080 12 40 80 3b be f3 9a 3c 28 be 9b 3d 3a 7f 62 bd
       0.003913888 0.018915053 0.07604629 -0.055297114
000090 0c ac b5 bd e0 4c a6 ba 9f 74 b7 3d 1e 57 c4 3d
       -0.08870706 -0.0012687705 0.089577906 0.09586929
0000a0 fb 6a ee bb 69 4f 0c be 1d 30 7f 3d 63 24 05 bd
       -0.0072759367 -0.13702168 0.062301744 -0.032505404
0000b0 82 9b 30 bc 22 55 6b bc 84 0d a4 bd a1 75 26 bd
       -0.010779263 -0.014363559 -0.080103904 -0.040639523
0000c0 16 4b e1 3c 1e e6 a5 3d f8 3f 92 bd 67 31 4f 3d
       0.027501624 0.08100532 -0.07141107 0.050584223
0000d0 b1 9b 8e 3c 0a 5f fd bd 1e f9 4b bc 2b 80 12 bd
       0.017408224 -0.12371643 -0.012449531 -0.03576676
0000e0 de 07 ef bc fa 37 f0 3d d5 e5 59 3d fd e5 9c 3c
       -0.029178556 0.11729427 0.0531977 0.019152636
0000f0 7a 86 1f 3d 10 44 c8 bc a1 8e 31 3d 7c 5b a0 bd
       0.038946606 -0.024446517 0.043348912 -0.07829949
000100 f4 67 b7 bd c6 27 7e 3b f7 e4 05 3d 21 7e 7c bc
       -0.08955374 0.003878103 0.03268906 -0.015410931
000110 62 db 11 bd d0 51 38 3d 34 fc 63 bd 6c 08 9f bd
       -0.03560961 0.044999897 -0.05566044 -0.07765278
000120 5e c3 d7 3c cd fc e0 bd 22 ad b0 3c 67 f3 c9 3d
       0.026338276 -0.10985718 0.021566931 0.098608784
000130 bf ad aa bd bf e4 e6 bd 5f db 2e bd bc 98 0f 3d
       -0.08333921 -0.112740986 -0.042689677 0.03505777
000140 34 42 86 3d 7a b2 38 3d 0d 6e 47 3d 90 a3 35 3e
       0.06555596 0.045092084 0.048688937 0.17738175
000150 de 7a 2d 3d 8a 19 2b bd f3 7f 83 bd bd f3 09 3d
       0.042353503 -0.041772403 -0.06420889 0.033679713
000160 90 c2 02 bc d6 3c d8 bd e2 d3 21 3d 2b 3c ae bd
       -0.007980958 -0.105584785 0.039508708 -0.0850757
000170 ae 3e b2 3d 20 7c aa 3d 70 95 ec 3d 68 1a 1c bd
       0.087033615 0.08324456 0.115519404 -0.03811112
000180 8b 86 a2 3c 81 a3 97 3c 22 e2 ac bb e8 11 81 bd
       0.019839546 0.018510582 -0.0052759806 -0.063022435
000190 79 6e f2 3d ce 73 9f bd 81 91 63 3c b5 ee 6c bd
       0.11837477 -0.0778576 0.013889671 -0.057844836
0001a0 f9 fa b4 3b b1 21 e6 bd 04 fa 1d 3d 96 fd 27 bd
       0.0055230823 -0.11236895 0.03856851 -0.041013323
0001b0 59 63 51 bd c8 9a a7 3d 62 e7 41 3d 27 37 c4 3d
       -0.051120136 0.08183819 0.047339804 0.09580832
0001c0 94 74 36 bd ab 2f 8f 3d 88 0c a8 3c d1 b4 9d 3d
       -0.04454477 0.06991514 0.020513788 0.077005036
0001d0 39 32 02 bd 70 29 ef bb 52 7b 8e bb e0 d9 77 bd
       -0.031786177 -0.007298641 -0.004348197 -0.060510516
0001e0 47 88 94 3c 02 ef 41 be 16 60 04 3d f1 43 b3 3d
       0.018131388 -0.1893883 0.032318197 0.08753193
0001f0 16 44 7d bc 8a 5b 9b bc 2c 19 43 3d 9c 78 d0 bc
       -0.0154581275 -0.018964548 0.047631428 -0.025448136
000200 91 47 17 bd 0b 9a 3a 3b 90 e1 0e 3e 21 b0 bc bd
       -0.036933485 0.0028473164 0.13953233 -0.092132814
000210 0d 9b 4b 3d 7e 15 c8 bb 60 31 87 3d c7 6f 1b 3d
       0.049708415 -0.0061060777 0.066012144 0.037948396
000220 85 b1 29 bd 55 1b eb bd e1 9d da 3d 58 fc f1 bd
       -0.04142906 -0.114798225 0.10674644 -0.11815709
000230 66 f1 ff bc 02 58 a4 bc bd 59 83 bd a6 09 36 3e
       -0.031243037 -0.020061497 -0.064136006 0.17777118
000240 a3 f9 a9 bd ed 87 b9 bd fa bf 7a bd 2c 5d e6 3d
       -0.082995676 -0.09059129 -0.06121824 0.1124824
000250 3a e7 e4 bc 72 75 ca bb f3 2e 84 bd 6e fe f7 bc
       -0.027942289 -0.0061785514 -0.06454267 -0.030272689
000260 71 86 7c 3d 4a 6c a6 3d 0e c4 1b 3b a6 63 02 be
       0.06165165 0.08126123 0.002376798 -0.12733325
000270 4e d9 1f 3d 68 e9 96 bd 13 76 34 3d fe 43 0b 3e
       0.039025597 -0.073687375 0.044057917 0.13600156
000280 e5 5d 32 3d 0f 8a df bb 25 32 1d 3d de 98 54 3d
       0.043546576 -0.006821878 0.0383779 0.051903598
000290 92 6b a3 3d 60 a8 e1 3d 7c d7 00 bc f0 f1 8a 3d
       0.07979502 0.11018443 -0.0078638755 0.06784427
0002a0 35 6c 77 bd a7 04 a0 3c 03 31 dc bd bf 32 c4 3c
       -0.06040593 0.019533468 -0.10751536 0.023949979
0002b0 b0 13 26 3d 54 76 38 bd 9b 24 b3 3b 2b 18 03 3d
       0.04054612 -0.04503472 0.00546701 0.03200547
0002c0 51 9c 20 bd 15 ac 62 bd 60 56 9b 3d cf dd 8f bd
       -0.039211575 -0.05533989 0.07584834 -0.070247285
0002d0 74 ae db 3c 6d 72 a1 3d 57 1a 97 3d 37 4b 73 bd
       0.026816584 0.07883153 0.07378071 -0.059397902
0002e0 ef 24 9c bd 31 bd c6 bd ac 0e ab bc b9 ec 9a bd
       -0.07624232 -0.09704054 -0.02088102 -0.075646825
0002f0 e9 0d aa bd 7a 52 a2 3b 0a 2e 70 3a eb 0f 57 3d
       -0.083034344 0.0049536796 0.0009162134 0.052505415
000300 86 4c fc 3c 5d cf b7 3c 08 07 6a bd eb e5 3f bd
       0.030798208 0.022437746 -0.05713561 -0.046850126
000310 7a b6 a7 3c c6 6f 47 bd c9 ae 2f 3e 2c 3a 93 3d
       0.020472754 -0.04869058 0.17156519 0.0718883
000320 20 d7 81 3d e6 3d d3 3d 01 2f ab 3c 48 a3 8b bc
       0.0633986 0.103145406 0.020896437 -0.017045632
000330 84 24 6d 3d c0 54 86 3a b9 c8 f0 bc c4 4c dd 3c
       0.057896152 0.0010248646 -0.029392587 0.027014144
000340 fd 94 be 3d 2d 4b 0a bd 9b 7d a5 3d b4 6c 00 be
       0.09305761 -0.0337631 0.08080598 -0.12541467
000350 bf 62 7c bd a8 92 6d 3d 63 1f 40 bd 0c 52 89 3d
       -0.06161761 0.05800119 -0.046904933 0.06705102
000360 39 de c9 3c ed f4 5f 3d cf 8c 99 bd 63 85 df bd
       0.024642097 0.05467694 -0.0749756 -0.109141134
000370 03 cd 97 3d a1 7f b9 bb 62 9c d3 3d 26 39 a2 3d
       0.0741215 -0.0056609665 0.10332562 0.079210564
000380 9f df 5d bd b9 2f b3 bd 22 65 40 3d 0d 8c a3 bd
       -0.05416834 -0.08749337 0.046971448 -0.07985697
000390 58 ca 8a bd 45 2f 3c 3d 98 9a 1f 3d 71 50 af 3c
       -0.06776875 0.045943517 0.03896579 0.021400662
0003a0 d9 ac 24 bd b3 12 dc bc 80 28 4b bd fb 8e dd 3c
       -0.040203903 -0.026864385 -0.04959917 0.027045717
0003b0 d9 de 3b 3d 26 eb 11 3e 9e e3 5a 3d 93 d4 a5 bc
       0.04586682 0.14249858 0.05343973 -0.020242965
0003c0 5d 41 e9 bc d0 07 a3 bd ec f9 85 bd bf e3 cb 3c
       -0.02847355 -0.079604745 -0.065418094 0.024888871
0003d0 ee 64 da 3c a7 de c2 3d fd d7 c2 3d 17 fc fd 3c
       0.026659455 0.09515124 0.09513853 0.031003995
0003e0 93 26 41 bd bb cc fd 3d 57 d8 94 3d 87 3c 85 3d
       -0.047155928 0.12392565 0.07267826 0.06505685
0003f0 10 d6 a9 3b df 4a 50 bd d8 c2 a0 3c e7 46 c8 3c
       0.005182989 -0.050852653 0.019624159 0.024447871

encoder.convs.0.edge_mlp.2.bias f4 [128]
000000 c0 57 88 3c f7 6a a8 bd 92 d8 06 bb 59 51 12 3d
       0.016643405 -0.08223527 -0.0020575863 0.03572211
000010 5b 4c f4 bc 35 5a b3 3c cc 92 da bc 92 31 cc bd
       -0.029821565 0.0218936 -0.026681326 -0.09970392
000020 09 96 93 bd e8 c8 00 3c e5 14 84 bd 1b d0 93 3d
       -0.07206351 0.0078604 -0.06449298 0.07217427
000030 3b 64 24 3d e3 2d ad 3d 65 f3 92 bc 80 23 65 3d
       0.04013465 0.08456018 -0.017938325 0.05594206
000040 e0 67 8c bd cb 61 c3 3c cf 08 17 3d 60 89 af 3c
       -0.0685575 0.023850342 0.036873635 0.02142781
000050 e8 79 28 bd db 7c 21 bd e8 71 a6 bc a9 53 5c 3d
       -0.041131884 -0.039425712 -0.020317987 0.053790722
000060 7e e8 06 3d 39 a0 14 bd 68 45 2b bd e0 58 c5 36
       0.032936566 -0.036285613 -0.041814238 5.881404e-06
000070 cf 7b 00 3d 0d 65 94 3d d1 3c 6e 3d 09 e2 9e 3d
       0.031368073 0.072458364 0.058163468 0.077579565
000080 5d 97 3b bd 67 96 bf 3c 4e bb 65 3d 14 86 67 3d
       -0.04579865 0.023387147 0.05608683 0.05652435
000090 1f f9 63 3b 28 c7 9b 3d 41 cf 32 bd 8a 7b ad bd
       0.003478594 0.076063454 -0.043654684 -0.08470829
0000a0 7b 94 20 3c 4f 1c 15 3d 6c a8 30 3d 00 c2 7c bd
       0.0098010255 0.03640395 0.04312937 -0.06170845
0000b0 f7 d6 a8 3d e8 a5 a5 bd 21 8a 72 3d b0 b8 c6 bc
       0.08244126 -0.08088285 0.05921376 -0.024257988
0000c0 49 1c af 3d ea 9c 3c 3d aa 3c 66 3d a2 70 36 3b
       0.08550317 0.046048082 0.056210198 0.002783813
0000d0 13 e4 a2 bd 9a 53 8e bd eb 84 91 bd d2 0d 00 bd
       -0.07953658 -0.069495395 -0.0710543 -0.03126318
0000e0 bb 18 10 bd e5 d2 7d 3c a7 ba 7d bd ce ec a0 bd
       -0.035179835 0.015492176 -0.061945584 -0.07857667
0000f0 a2 bc 29 bc ad d1 33 bc 00 ce b0 bc e6 00 b1 bd
       -0.010359915 -0.010975284 -0.021582603 -0.086427495
000100 05 81 a2 bd e5 40 b8 bd d6 4f 3d bd bc 95 90 bb
       -0.07934765 -0.08996753 -0.046218716 -0.004412381
000110 26 50 70 bd c5 4a a7 bd c7 47 6d bc 53 4b a1 3d
       -0.058670186 -0.08168558 -0.014482445 0.07875695
000120 e5 20 4a 3d 10 b3 eb bb 3c 47 39 bd ba eb ab 3c
       0.049347777 -0.007192977 -0.04523395 0.020986427
000130 fd 6e a3 bd 5b 49 6b bd e5 c5 67 3c 50 58 73 3c
       -0.07980154 -0.057443004 0.014146303 0.014852598
000140 8c 4f 3d bd f7 62 0c bc a8 1d e6 39 a7 a1 37 bc
       -0.04621844 -0.008568517 0.00043891114 -0.0112079745
000150 ad e9 cf 3c 38 a2 0a 3d 20 f2 46 bd 87 ae dd ba
       0.02537998 0.03384611 -0.048570752 -0.0016912975
000160 85 de 85 bd 93 f5 49 bd 3c 8b c8 bd 67 07 94 bd
       -0.06536583 -0.049306463 -0.09792182 -0.072279744
000170 81 9e 97 bd 16 a8 43 3c bb ed 76 bb 6f 24 16 3c
       -0.07403279 0.01194193 -0.003767832 0.00916396
000180 8c 5d 8e 3d 06 0f b6 3c 00 73 2b bc 3b 93 e2 3c
       0.069514364 0.02222396 -0.01046443 0.027658096
000190 3d b9 6c bd 64 e4 18 3c e0 d2 e7 3c ce d7 a2 3d
       -0.057793844 0.009331796 0.028298795 0.07951318
0001a0 fd 9d 81 3d e5 6f a2 bd b2 7d 0a 39 9c d0 9d 3d
       0.06328962 -0.079314984 0.0001320753 0.07705805
0001b0 ff f7 4d 3c 8c af 94 bd a1 50 23 3d d4 1e 89 bd
       0.012571334 -0.072600454 0.039871816 -0.06695333
0001c0 08 b3 83 bd df 9d 63 bd ca ba 98 3d a7 e4 7b 3d
       -0.06430632 -0.05557048 0.07457502 0.061497357
0001d0 a6 14 d3 bc 08 df af 3c 9d 32 d1 3c a6 01 ad bd
       -0.025766682 0.021468654 0.02553683 -0.0844758
0001e0 fa 14 48 bd e0 b3 2b bd d7 b9 1e bc 19 c4 8e bc
       -0.04884813 -0.04191959 -0.009687862 -0.017427491
0001f0 06 0c 31 3d ad e7 3f bd 25 b4 34 bd 82 53 00 3c
       0.043224357 -0.046851803 -0.04411711 0.00783241

encoder.convs.0.norm.weight f4 [128]
000000 4d cc 72 3f dc 91 74 3f 51 08 77 3f fb af 76 3f
       0.9484299 0.95535064 0.96497065 0.96362275
000010 b3 2a 72 3f 38 1f 75 3f 67 5f 78 3f a3 eb 74 3f
       0.94596404 0.9575076 0.9702057 0.95672053
000020 f9 7e 71 3f 3a a5 75 3f 27 23 79 3f a0 98 74 3f
       0.9433437 0.9595524 0.97319263 0.9554539
000030 dd cf 71 3f ff 4c 74 3f 02 42 72 3f d5 e9 71 3f
       0.944578 0.95429987 0.9463197 0.94497424
000040 b8 de 6f 3f 03 f1 72 3f e9 02 73 3f 11 dd 70 3f
       0.93699217 0.94899005 0.94926316 0.9408732
000050 33 12 78 3f 7e 5e 78 3f e5 85 74 3f 34 2b 7b 3f
       0.9690277 0.97019184 0.95516807 0.981128
000060 6c 13 71 3f af e8 74 3f 19 68 72 3f 5b f4 73 3f
       0.9417026 0.95667547 0.9469009 0.9529473
000070 90 69 71 3f c5 63 74 3f 1d a6 73 3f 04 f6 80 3f
       0.943017 0.95464736 0.95175344 1.0075078
000080 1c 32 72 3f 6b c6 74 3f f5 c0 79 3f 72 1e 75 3f
       0.9460771 0.9561526 0.97560054 0.9574958
000090 17 e0 74 3f 21 78 77 3f fe 16 71 3f 1d 98 76 3f
       0.95654434 0.9666768 0.9417571 0.96325856
0000a0 79 e3 73 3f d1 b8 73 3f b5 75 76 3f 31 1b 7a 3f
       0.9526897 0.9520388 0.96273357 0.9769774
0000b0 99 2d 74 3f 81 21 72 3f ca 5f 71 3f 34 c2 6f 3f
       0.95382077 0.9458237 0.9428679 0.93655705
0000c0 12 02 7a 3f 70 a0 74 3f 45 74 70 3f fa e9 73 3f
       0.9765941 0.9555731 0.93927413 0.95278895
0000d0 84 8b 70 3f fc b5 76 3f 47 7d 70 3f 94 52 72 3f
       0.93962884 0.96371436 0.9394116 0.94657254
0000e0 d5 41 74 3f e0 d5 73 3f 09 4c 73 3f 74 c4 71 3f
       0.9541295 0.9524822 0.95037895 0.9444039
0000f0 7e cb 75 3f 06 cb 70 3f f6 04 75 3f 8e 39 70 3f
       0.9601363 0.9405979 0.95710695 0.9383782
000100 97 fd 74 3f 7a 54 77 3f 5b 77 6f 3f 71 00 73 3f
       0.9569945 0.96613276 0.93541497 0.9492255
000110 f6 e5 77 3f cd 00 73 3f b9 0d 79 3f 6f d2 72 3f
       0.9683527 0.94923097 0.97286564 0.94852346
000120 dc b0 72 3f 89 d1 77 3f d4 ae 6f 3f 2e 01 73 3f
       0.94801116 0.968041 0.9362614 0.94923675
000130 cb 4f 77 3f bd bf 77 3f cd 3f 73 3f 37 9e 75 3f
       0.9660613 0.96776944 0.9501923 0.9594454
000140 25 ba 7a 3f ee 5e 70 3f 94 6c 74 3f 03 5f 70 3f
       0.97940284 0.9389485 0.9547818 0.93894976
000150 fe 41 74 3f 38 ac 72 3f f7 59 74 3f 67 90 6f 3f
       0.95413196 0.94794035 0.95449775 0.93579715
000160 fa 47 81 3f 9d 9a 73 3f 1f f9 77 3f 0b 15 7d 3f
       1.010009 0.95157796 0.96864504 0.98860234
000170 3d 07 74 3f 03 c9 71 3f 07 75 73 3f 64 f6 74 3f
       0.95323545 0.94447345 0.95100445 0.9568846
000180 a1 e2 71 3f 87 d9 75 3f ec b9 80 3f ba 66 72 3f
       0.94486433 0.96035045 1.0056739 0.94688
000190 28 10 72 3f 76 f0 6e 3f 9a c9 75 3f b6 d6 76 3f
       0.945559 0.93335664 0.96010745 0.9642137
0001a0 3a 35 75 3f 14 af 71 3f 72 1a 77 3f 94 1c 70 3f
       0.9578434 0.94407773 0.9652473 0.93793607
0001b0 b0 9d 73 3f 0e 12 72 3f 67 71 76 3f 87 9b 71 3f
       0.9516249 0.945588 0.9626679 0.9437794
0001c0 d3 e8 74 3f 80 8a 73 3f 3a 15 77 3f 7b 0c 74 3f
       0.9566776 0.9513321 0.96516764 0.95331544
0001d0 67 fb 73 3f 09 8d 73 3f 79 01 74 3f d4 02 76 3f
       0.95305485 0.9513708 0.9531475 0.96098065
0001e0 03 a5 6f 3f 82 e5 73 3f 19 a0 72 3f 5b 6a 73 3f
       0.9361116 0.95272076 0.9477554 0.9508416
0001f0 a2 e5 72 3f 3f 03 76 3f b1 72 76 3f 74 16 72 3f
       0.9488164 0.96098703 0.96268755 0.9456551

encoder.convs.0.norm.bias f4 [128]
000000 8d 50 c9 bc 11 44 ad 3c 33 d1 48 3d d7 ee 96 bb
       -0.024574542 0.02115062 0.049027633 -0.0046061086
000010 f3 69 a0 3b 27 9a 93 3d 55 71 a0 bc cc 50 be bc
       0.0048954426 0.072071366 -0.01958529 -0.023231886
000020 5e 1b e3 3c 7a 8f d6 3c ea 7a 35 3c 7d 2f e3 3c
       0.02772301 0.026191462 0.011076668 0.027732605
000030 07 3f c4 3c a9 09 9f bc a6 fa 05 bc 10 dc 11 3d
       0.023955835 -0.019413786 -0.008177435 0.03561026
000040 02 a6 60 3d b7 d4 a2 3d 51 ad 0c bc d5 fd 7e bd
       0.054845817 0.079507284 -0.008586244 -0.06225379
000050 19 d0 21 ba 3c 57 2f 3c d9 ac a8 bc 08 6e 4a bc
       -0.00061726716 0.010701951 -0.020590233 -0.012355335
000060 79 f4 50 bd 8d 91 0b 3c 03 77 0c bd ab e2 c0 3b
       -0.051014397 0.008518589 -0.034293186 0.005886396
000070 33 ba 0d bd 03 3e 25 bd 96 14 65 b9 02 b2 b2 bb
       -0.0346014 -0.040342342 -0.0002184681 -0.005453349
000080 59 d1 46 3c b5 4a 62 bc 3d 4c 4d bb 44 0d 5a bb
       0.012134873 -0.013811757 -0.003132596 -0.0033272067
000090 99 0e 7f 3d 3a df 01 3c ac 2b b8 3c 47 a7 e4 3b
       0.06226978 0.0079267565 0.022481762 0.006977949
0000a0 24 ec ba 3c 33 ff 99 bd 6a 8f 30 39 03 35 2f bd
       0.022817679 -0.075193785 0.00016838094 -0.042775165
0000b0 c4 ca ab 3c 35 e3 6e 3d ae 43 a3 bb 99 ce e7 3a
       0.02097071 0.05832215 -0.0049824333 0.0017685472
0000c0 c8 8d db bb ed 70 15 bd 18 d8 9d 3c 32 bc e1 38
       -0.0067002513 -0.036484648 0.01926808 0.0001076389
0000d0 bd 56 23 3d 77 16 05 bc eb 04 4f 3c 7a 6c ac 3b
       0.039877642 -0.008123032 0.01263545 0.005261955
0000e0 a3 7c 31 3c 38 a8 a4 3c ec a6 b6 3c 9a b9 eb bc
       0.010832938 0.020099744 0.022296391 -0.028775025
0000f0 72 e9 03 3d f6 00 c1 bc ed 61 4f 3d 61 9a 0e 3c
       0.032205053 -0.023560029 0.0506305 0.008703799
000100 db f8 0e 3d 0c 68 f6 bb 94 ad 94 3d 0b 13 6b 3c
       0.034905296 -0.0075197276 0.0725967 0.014347802
000110 86 f4 32 3c ab 73 60 3c 60 f1 a7 bb 73 0f 4f bc
       0.010922557 0.013699452 -0.0051252097 -0.012637961
000120 0c 6e 0b 3d 0c 10 82 bc 2c b3 bb bd d4 0d b8 ba
       0.034040496 -0.015876792 -0.09165034 -0.0014042207
000130 13 66 0d 3d c3 4d 8f 3c 2e 0c 8f 3b 91 c5 ef bb
       0.034521174 0.017493134 0.0043654656 -0.007317253
000140 e0 29 f6 3b 35 ea dc 3a c8 cb 83 bc 56 9e d3 bc
       0.007512316 0.0016854467 -0.016088381 -0.025832336
000150 53 ee d1 3d 87 58 22 3c d7 13 0b bc a8 2e 00 39
       0.10250535 0.009908802 -0.008488617 0.00012224412
000160 16 61 a6 bc 03 8c f7 bc 1f cc 33 3c b3 13 8d bd
       -0.020309966 -0.03021813 0.010973959 -0.06888523
000170 a6 e5 4e 3d 6d 2b 12 bd 1f 3d 98 3c 2a 3c c8 3c
       0.05051198 -0.035685945 0.018583832 0.024442751
000180 61 2c 94 3c 23 7e 22 bd dc 84 25 3b 0d 39 0e bd
       0.018087568 -0.039671075 0.0025256192 -0.034722377
000190 b0 ac 8e bc 1a 5f be 3c 4a f9 0a bb ed 0c b7 3c
       -0.017416328 0.023238707 -0.0021205717 0.02234503
0001a0 18 cb 02 3c 4d 1c 16 3d d6 76 a0 bc 19 25 1c 3d
       0.007982992 0.036648083 -0.019587915 0.038121317
0001b0 c0 a6 1b 3b c7 c0 95 3a 32 a7 20 3c fa 78 64 bc
       0.0023750514 0.001142525 0.0098054875 -0.013944859
0001c0 bb 9f 55 ba 70 9b 93 3c 29 b1 b4 3c b0 a2 b7 3c
       -0.0008149107 0.018018454 0.022057133 0.022416443
0001d0 c8 9d f2 bb 01 b3 a1 3c ae 5d ca 3c 68 01 a6 3a
       -0.007404063 0.019738676 0.024702873 0.0012665214
0001e0 ae e1 81 3d 44 03 11 bd 08 0b 4a bd a4 c6 a4 3b
       0.06341873 -0.035403505 -0.049326926 0.0050285626
0001f0 3b ef 55 bd eb 91 a8 bb 2a 4e 91 bc 05 3c 2e bc
       -0.0522301 -0.005144348 -0.017737467 -0.010634427

encoder.convs.0.norm.mean_scale f4 [128]
000000 94 55 74 3f aa 38 7f 3f 78 80 6f 3f ba b2 63 3f
       0.9544308 0.9969584 0.935554 0.8894459
000010 20 05 80 3f f9 24 60 3f 21 c0 65 3f af 89 7e 3f
       1.0001564 0.87556416 0.8974629 0.9942884
000020 bf c8 7f 3f d5 0f 70 3f 23 dd 6c 3f 07 ae 82 3f
       0.9991569 0.9377416 0.9252493 1.0209359
000030 a5 a5 82 3f 02 03 75 3f f9 16 71 3f 20 0c 83 3f
       1.0206801 0.95707715 0.9417568 1.0238075
000040 27 3c 83 3f 1b 50 89 3f ca 76 80 3f 4b c9 82 3f
       1.0252732 1.0727571 1.0036252 1.021768
000050 50 80 6f 3f 7e 0d 55 3f 37 73 6d 3f 92 18 58 3f
       0.93555164 0.8322371 0.9275393 0.8441249
000060 e8 b8 83 3f 64 c9 66 3f 52 51 78 3f fc 2f 7c 3f
       1.0290804 0.9015105 0.96999085 0.9851072
000070 df ed 78 3f 5e 00 72 3f 3b 92 7b 3f 71 23 6e 3f
       0.9723796 0.9453181 0.98270005 0.9302283
000080 22 f8 6f 3f 3f de 7c 3f 39 c8 75 3f 23 2e 82 3f
       0.93737996 0.9877662 0.9600864 1.017033
000090 99 0d 72 3f eb b7 75 3f 9c 7e 78 3f 97 44 72 3f
       0.94552 0.9598376 0.9706819 0.9463591
0000a0 6f 24 72 3f 2d 21 83 3f 14 68 68 3f d4 86 5e 3f
       0.94586843 1.02445 0.9078381 0.8692448
0000b0 4f ed 74 3f 18 cc 85 3f 3d 01 77 3f 51 31 7c 3f
       0.95674604 1.045291 0.96486264 0.9851275
0000c0 00 ef 73 3f 7a 65 81 3f 52 40 74 3f 0d db 74 3f
       0.9528656 1.0109093 0.95410645 0.95646745
0000d0 ed c6 78 3f 4f 85 69 3f 28 85 70 3f 31 4d 72 3f
       0.97178537 0.9121904 0.9395318 0.94649035
0000e0 07 f4 7c 3f fc 7c 80 3f ef 80 6e 3f 99 cb 80 3f
       0.98809856 1.0038142 0.9316549 1.0062133
0000f0 45 91 74 3f 27 42 6f 3f 94 79 81 3f b3 bb 86 3f
       0.95534164 0.93460315 1.0115228 1.0526031
000100 b8 ff 89 3f 95 03 6b 3f ed 9d 85 3f fe 32 76 3f
       1.0781164 0.9180234 1.043882 0.9617156
000110 5c 0f 7c 3f bb 93 7a 3f c5 bd 70 3f 57 7d 86 3f
       0.98460937 0.9788167 0.94039565 1.0507001
000120 25 94 80 3f 38 c1 6c 3f fd 5f 8a 3f e5 47 7b 3f
       1.004521 0.9248233 1.0810543 0.9815658
000130 22 ee 75 3f 04 2f 6d 3f 58 ef 86 3f 43 9c 6d 3f
       0.96066487 0.92649865 1.0541792 0.9281656
000140 6e 9d 71 3f 72 06 7b 3f 9f 64 74 3f a5 bf 65 3f
       0.94380844 0.9805671 0.95466036 0.8974555
000150 d6 f5 85 3f b4 05 77 3f 3a 9a 76 3f 69 3a 7c 3f
       1.0465648 0.9649308 0.9632908 0.98526627
000160 52 92 68 3f a1 4c 81 3f 08 c8 69 3f 17 01 61 3f
       0.9084827 1.010151 0.9132085 0.8789229
000170 a0 ec 8c 3f de 2d 83 3f 58 fa 71 3f c8 53 6d 3f
       1.1009712 1.0248373 0.9452262 0.92705965
000180 7d 9f 67 3f 76 67 6d 3f ff 1c 66 3f 02 a5 78 3f
       0.90477735 0.92735994 0.89887995 0.9712678
000190 a6 ca 80 3f de 35 80 3f d3 54 74 3f 8f 0e 77 3f
       1.0061843 1.0016439 0.9544193 0.9650659
0001a0 53 40 6d 3f 61 96 81 3f cb f3 64 3f 4a df 77 3f
       0.92676276 1.0124017 0.894345 0.9682509
0001b0 31 b2 71 3f f0 d8 73 3f 62 5a 69 3f 55 dc 80 3f
       0.94412524 0.95252895 0.9115354 1.006724
0001c0 33 23 72 3f 5e e2 73 3f 27 0a 6f 3f db d7 75 3f
       0.9458496 0.95267284 0.93374866 0.96032494
0001d0 5b 92 69 3f 1d 58 80 3f b5 b1 66 3f 29 06 73 3f
       0.91238946 1.002689 0.9011491 0.94931275
0001e0 00 26 77 3f f6 9d 83 3f 2f 34 80 3f 36 ac 79 3f
       0.9654236 1.0282581 1.0015925 0.975284
0001f0 41 94 82 3f 24 4a 78 3f 9a bd 81 3f 68 3a 78 3f
       1.0201494 0.9698813 1.0135987 0.9696412
